net_param/net_0.12and0.14.pth (torch, 165723 bytes, 10 tensors)

layers.0.weight f4 [100, 100]
00000000: 4703 9a3d 7a8a 413d 1c75 c1bd 4008 3d3d
00000010: 2dcd 803e 4517 39bd 685c bd3d 4f80 6a3e
00000020: 38fe 933c 8c25 6b3e 8ae5 00be 8325 c1bd
00000030: 362c 3b3e 29d2 97bd c580 b03c b810 cd3c
00000040: c0f5 cf3d fa90 443e f187 ef3c 1a71 483e
00000050: 8eff 61be 308e 423e efb8 2dbd 4d0c 7a3e
00000060: 8359 59bd e102 71be 8209 9e3e aa6d 963c
00000070: 55a8 d43d 766d 25be cfdd 07be 607a 6c3d
00000080: 5b10 4f3e 7137 9e3e 9835 4ebe 936b d53d
00000090: f90d 253e 7f1a 8d3e 710d 293e 2573 89be
000000a0: 0a6a 84bc 478e 1abe 9eae 443e be19 b7bc
000000b0: d6ce 6b3e c25a 83be 9cf1 8e3d fa94 753c
000000c0: 42cc 743e 61a0 1e3e 8022 3cbd ec19 62bd
000000d0: 6f1f 3bbc c752 0cbe 06dc f93d 357d a63d
000000e0: 6b94 a33d e02a 80be b66a 28be d8c7 733e
000000f0: e285 543e 0e66 6f3d 44af 0ebe 7f13 153e
00000100: bdba 193e f533 8abb 1149 9ebe d1b4 21be
00000110: 975e 633e 74ed 2dbe c8e0 db3d 0a56 2bbe
00000120: bf75 50be 4712 79be fa8a 6dbc 627b 683e
00000130: a52d 5c3c aaf8 8fbe 2a3a 1f3e f151 5dbe
00000140: 7c30 66be 2d07 02be 1de2 1b3d 7954 54bd
00000150: ca65 e2bd f413 15bb f49c 58be 0e59 eebd
00000160: 8462 753d 6aee 30be 0c90 7b3e 2681 403d
00000170: 4262 7f3e 3115 783e f388 89bd 2f5b 81be
00000180: dcf0 0abe 64a1 d8bd 5ee7 57be 4eb2 70be
00000190: 7300 84be 0405 593e 0acf 7cbd 5ecc 0e3e
000001a0: 3848 223d 7578 ca3d de59 6dbe 548a fe3c
000001b0: b8a3 6fbd c120 55be b58b 993d 8c2d 78be
000001c0: 9721 35bd 2a2c 4cbd 44d5 00be 74bb 053e
000001d0: c869 b13d 3f9d 243e cfbb adbc ec5c b93d
000001e0: 27a4 8ebe cc1e 0c3e 9745 12bc 3d37 033e
000001f0: 4d07 8fbd 9aec 673d 4b59 053e 3507 943d
00000200: 0f66 7cbe 42c5 26be 9705 8dbc 7fbe 78be
00000210: 3b0b 8e3e 85cc 703d fa8f 25be db2b 0abc
00000220: fdb9 913e 1d8c 88be 2c43 42bd 2243 85be
00000230: f99c 19be a6af 29be 7af5 a5bd 7453 493e
00000240: 9047 18be 5576 903e 4225 283e c3fc 713e
00000250: 985d bb3d eff0 04bd 80fe 83bd e39e 653e
00000260: d42a 363d 7354 85bd 684f 193e 1ac8 21be
00000270: 245a 4fbe 8e37 953c bd1b 02be ec44 123d
00000280: c861 353e 0d6a 183e 4818 423e d6fb 5a3d
00000290: a259 40be 4119 c53d 6bba 1bbd 94f8 073e
000002a0: 352e 0fbe 1499 bd3d 9442 dabd 16ef bbbd
000002b0: 02c4 353d 8e84 1a3e 6949 463e 4fe4 79be
000002c0: 738d 55be 5f0f 2f3d 0c9b 8d3e ea1f 473c
000002d0: cdcb 07be 4772 92be 5676 143e 9671 f13d
000002e0: cf82 c23b 1e2f 8bbe 538d 5dbe 02aa 063e
000002f0: bcb9 3e3e 5bca c23d 1418 94bd e565 45be
00000300: 702d 233e 0dce c6bd 79d3 863e 42a2 1ebd
00000310: a924 47be 92e8 f83d 382a 853d fd8d a2bd
00000320: bfa9 643e 4ed6 2d3d db4a 123e e005 e9bc
00000330: 35fc a43d c7b3 10bc feb3 63be e8f7 a83d
00000340: f875 183e e629 c03d 1eed 363e 19ea 12be
00000350: 3355 7c3e 4a3d 6e3e 046b 00be 9118 443c
00000360: 1eca 72be 57b9 043d 1e21 163e 6bd2 7d3e
00000370: 4f3b 84be 6052 12be 461f 6c3b 318a 783e
00000380: 4501 1fbe 6162 08bd baff f9bc 0679 8cbd
00000390: d8ca 893d 7b7a 563e e98b 71be 5aa4 b83d
000003a0: dd69 f0bd 83e3 6fbe d48f 01be 5dcc 583e
000003b0: a10c 563e 2e0c 583d d079 06be f3db 4b3e
000003c0: d2a5 33be 42f3 123c eb1d f9bd 468f 03be
000003d0: 7f08 1ebc 00af 59be 5cb4 c2bd a1e0 ae3c
000003e0: 86ff ad3c df12 c9bd a675 92bd 5f99 2e3d
000003f0: d4b5 673e 2211 76bd 257a 0abe 00de e1bd
0.07520156 0.047251202 -0.09446165 0.046150446 0.25156537 -0.045188207 0.09246141 0.22900508
0.018065557 0.22963542 -0.12587562 -0.09430983 0.18278584 -0.07413132 0.021545777 0.025032386
0.10154295 0.19195929 0.029239627 0.19574395 -0.22070143 0.18999553 -0.042412695 0.24418755
-0.05306388 -0.23536254 0.3086663 0.018362839 0.10383669 -0.16155037 -0.13268207 0.057733893
0.20221083 0.30901673 -0.20137632 0.10420909 0.16118611 0.27559277 0.16509034 -0.2684566
-0.016163845 -0.15093337 0.19207236 -0.022351142 0.2302812 -0.2565518 0.06979677 0.014989132
0.23906043 0.15490867 -0.04593134 -0.055200502 -0.011421069 -0.13703452 0.12200169 0.0812935
0.07987293 -0.2503271 -0.16446957 0.23806703 0.20754197 0.058446936 -0.13934046 0.14558218
0.15012641 -0.0042176195 -0.3091512 -0.15791632 0.22204052 -0.16985112 0.10736233 -0.1673204
-0.20357417 -0.24323379 -0.014498467 0.22703317 0.013438617 -0.28119403 0.15549532 -0.2161329
-0.22479433 -0.1269805 0.038057435 -0.051838372 -0.11054571 -0.0022747489 -0.21153623 -0.116380796
0.059908405 -0.17278448 0.24566668 0.046998166 0.24939826 0.24226834 -0.06715574 -0.2526488
-0.13568443 -0.10577658 -0.21084353 -0.23505518 -0.25781593 0.2119332 -0.061720885 0.13945147
0.039619654 0.098862566 -0.23178813 0.03107182 -0.058505744 -0.20813276 0.0749735 -0.24236125
-0.044221487 -0.049846806 -0.12581354 0.13059789 0.08662754 0.1607561 -0.021207718 0.090509266
-0.27859613 0.13683623 -0.008927724 0.1281404 -0.069838144 0.056622125 0.13022344 0.07227937
-0.24648307 -0.16286185 -0.01721458 -0.24291418 0.27742943 0.058788795 -0.16168204 -0.0084333075
0.2846221 -0.26669398 -0.04742734 -0.2602778 -0.15001287 -0.16570911 -0.081034616 0.19660741
-0.14871049 0.2821528 0.16420463 0.23631577 0.09148711 -0.032456335 -0.064450264 0.22423892
0.044474438 -0.06510248 0.14971697 -0.15798989 -0.2024923 0.018214967 -0.12705894 0.03571026
0.17713082 0.14884205 0.18954575 0.053462826 -0.18784192 0.096239574 -0.03801958 0.13278419
-0.1398247 0.09257713 -0.1065723 -0.091764614 0.04437638 0.15089628 0.19363941 -0.24403499
-0.2085474 0.04273927 0.27657354 0.012153605 -0.13261338 -0.28602812 0.14498267 0.11789243
0.0059360038 -0.27184385 -0.21635942 0.1315079 0.1862554 0.095112525 -0.07231155 -0.19277151
0.15935302 -0.0970727 0.26333216 -0.03872896 -0.19447578 0.12153734 0.06502193 -0.07937238
0.22330378 0.042440705 0.14286368 -0.028445184 0.08055917 -0.008831925 -0.2223663 0.08250409
0.14888752 0.093829915 0.1786389 -0.14347114 0.24641876 0.23265567 -0.12540823 0.011968748
-0.23709914 0.032403316 0.1466107 0.247873 -0.258265 -0.14289236 0.0036029383 0.24271466
-0.15527828 -0.033296946 -0.030517448 -0.06859021 0.067281425 0.2094516 -0.23588528 0.090157226
-0.11738942 -0.23426633 -0.12652522 0.21171708 0.20903255 0.05274599 -0.13132405 0.19908123
-0.17543724 0.00896913 -0.121639095 -0.12847623 -0.00964558 -0.21258163 -0.09507057 0.021347346
0.021240007 -0.098180525 -0.07151346 0.042626735 0.22627956 -0.060074933 -0.13523157 -0.11028671

layers.0.bias f4 [100]
00000000: 4bf6 e03c 46b3 0dbd 8d8f ce3d a083 adbc
00000010: 8b4b 59bd 5578 9cbd 1e86 71bd 60b7 95bc
00000020: 6ac6 4b3d 8b44 cabd 3b61 06bd 24f1 833d
00000030: cc34 bfbd 5df6 d5bc 46e3 cb3c 82fc b33d
00000040: 56f4 ac3d 1d97 b03d 51be a3bd 837d efbc
00000050: a476 b03d f522 413d 095c dcbb 9170 29bd
00000060: 747b 833d de52 df3c 32ef 083d 3106 13bc
00000070: a550 f7bd f8a7 ce3d 9bef e0bc b263 0d3d
00000080: a83c d6bd 7779 b03d 50d7 a2bd 908c c0bc
00000090: 0cd3 e3bd 87ed cabc 91ac 9abd 5e59 be3d
000000a0: 920e 8c3b f58f 55bd e8bf aebd 4580 913d
000000b0: 3d4e babd 8a7f dabd 220a 75bd de68 38bd
000000c0: 2888 8abd 981a b9bc 5cd3 8c3d ed4c 51bc
000000d0: 7abe 0b3d da97 c6bd 7b17 dcbd 1428 1a3b
000000e0: ed28 babd b198 af3c 8a53 45bd 376a fa3d
000000f0: f338 29bd ddfe 8d3d c55a 68bb c6ec 313d
00000100: d5e1 6e3d 750b 99bd b5d6 ceba a2e7 04bd
00000110: 8853 443d 44a0 b2bd 1177 ec3c b8ab 1bbc
00000120: 1de7 8b3d 3974 a33c 2c1c 94bd 3dbd a6bd
00000130: aa7a 363d 6071 ab3c 68a8 a63c eb91 283d
00000140: 8948 163d c3fd 2f3d 3e0c 063d 99e2 e73d
00000150: a966 3dbd e6f0 993d 0ad2 d93c e0f0 433d
00000160: 7830 f83c ac00 a03b b948 e83d 78ae 0fbd
00000170: c3ff c13c 2202 cb3c a65d aabd c365 a2bd
00000180: c2f6 b23d 95b8 78bb 9527 ba3d 11db c83c
0.027461192 -0.034594797 0.10085974 -0.021180928 -0.05305056 -0.07640139 -0.058965795 -0.018275917
0.04974977 -0.09876355 -0.03280757 0.06442478 -0.09336242 -0.026118452 0.024888646 0.087883964
0.08445041 0.086225726 -0.07995284 -0.029234653 0.08616379 0.04715248 -0.0067248386 -0.041367117
0.06420031 0.027261194 0.03343124 -0.008973644 -0.120759286 0.10090631 -0.027458003 0.034518905
-0.10460788 0.086169176 -0.07951224 -0.023504525 -0.11124238 -0.024771465 -0.07552446 0.09294389
0.004274198 -0.05213924 -0.08532697 0.071045436 -0.09096954 -0.106688574 -0.059824117 -0.045021884
-0.06764251 -0.022595689 0.06876251 -0.012774688 0.0341172 -0.09696932 -0.10746666 0.0023522424
-0.09089837 0.021435114 -0.048175372 0.1222729 -0.041314077 0.06933377 -0.0035454493 0.043438695
0.05832084 -0.074728884 -0.001578054 -0.032447465 0.047931224 -0.087219745 0.028865369 -0.00950139
0.06831191 0.01995288 -0.07231936 -0.08141563 0.044550575 0.020928085 0.020343974 0.041154783
0.03669027 0.042966615 0.03272652 0.11322517 -0.046240482 0.07516651 0.026589412 0.04783714
0.03029655 0.0048828926 0.11341996 -0.035078496 0.023681527 0.02478129 -0.08318643 -0.07929566
0.087384716 -0.0037951816 0.09089581 0.024518522

layers.1.weight f4 [100, 100]
00000000: a74e 833e 777f 5ebd d5fc 813d 519b 523e
00000010: 12bf 913e 347f 62be 70e6 c03d 36f1 86be
00000020: 8fb2 f2bd 398d b83d 2aae c83d c5b1 10bc
00000030: 46c9 3ebe b70e 273e 52b8 4c3e 9b02 9b3d
00000040: bac6 343e c81f 64be 558d 483e 01c6 803e
00000050: cb6e 633e 58c8 a63c 3f9a 513e 368c 6d3d
00000060: 8495 3cbe ffff edbd 553f 1ebd 6317 073c
00000070: 1d9f 4abe 250f c73d 18e4 083e 3b45 8dbe
00000080: dbba dc3d b5ec fd3d 55c1 16be 5314 81bd
00000090: ef6b 3c3e a8c8 4e3e c124 48be d6c9 2cbe
000000a0: 9f0b 5e3d b836 8bbe 63e1 a8bc ac84 5abd
000000b0: 1015 703e 9a0a 68be c8fa f5bd ea27 863d
000000c0: c57c ee3d a6d3 f23d 095a 57be ed7a 833e
000000d0: 39c4 febb 154a a73d 2308 09be 2030 85be
000000e0: 02ec 85bd dff8 3e3c 4433 093e 35d7 453e
000000f0: 38f2 b3bc 8644 1abe ca30 213c 1602 52be
00000100: 1194 85be c7b5 26be d214 bfbd eaa7 c0bd
00000110: 9216 263c 34db 3cbd f0ac 813e a31f 0cbd
00000120: 7ac0 a43d fbea 883e 3a21 833e bfbc 1bbe
00000130: ba96 0abd 4bae e6bd e5d4 833e 6269 87be
00000140: 0b35 393e 2c87 07be 7c1a 253e 2eb7 1a3e
00000150: f776 60be 7434 643e be43 72be e372 d73d
00000160: 228c ad39 c13c 87be e7d5 103e 2382 003e
00000170: b144 973e f903 3cbe c7f6 cebb 62c2 663e
00000180: 9c70 08be 0e73 28bd bd12 52be 6c88 49be
00000190: 12ce fcbd 0a47 1b3d 856f e63c 0c35 14be
000001a0: 37ac 79be 4e4f 82be da1b 6b3e c69c 88be
000001b0: ae49 16be c923 313e 24ea 063e 8772 6d3e
000001c0: d6cf ce3d 95a7 05be 8c04 8a3d e934 623d
000001d0: f255 cebd 1a06 2b3e ff08 53bd c443 943e
000001e0: 9ff7 753d e968 46be 9e14 4e3e 4f4d 953e
000001f0: 879a 193d 4a63 6a3e fdec 873e 61e5 20be
00000200: aba8 06bd 658d d13c ac72 da3d 25d8 80be
00000210: 1ed5 bebc 85f0 503e 0825 37be 062d 433e
00000220: 04df 9a3c 79e3 ab3d 724c 43bd 956f 89bd
00000230: e4ae c33c 79cb 0abe 55e3 7b3e 1c33 52be
00000240: 762d e4bd b210 37be 42a7 80be 1513 263e
00000250: 7474 83be 5f3e 7cbd 3b2e 1bbe b97c 9bbe
00000260: b5a4 3fbd 8b81 87be 37b0 51be f149 6c3e
00000270: d821 51be b61f da3d 8a3f 1fbe 3774 8fbe
00000280: b698 413e cd13 993d b163 febd 5af3 d53d
00000290: a19c 1c3e 1617 4b3e 8f04 64bc 762b c43d
000002a0: 21be 483e ebae 8c3c 66d3 6abe 762d 8cbe
000002b0: bc1c 16bd f8be 62be 0f00 c93d e2bd 2b3d
000002c0: 6d8d 103c b08c 613e 3e7b 18bd f782 89be
000002d0: 5317 15be 6945 393e 220d d63d 4559 25be
000002e0: daac d83d 14ca 40be e266 3ebc d6e6 4dbe
000002f0: a4ad d93b 94b8 873e c066 09be 5ac5 36be
00000300: 4b56 7d3b bdf5 18be 8718 32bd 5940 9fbd
00000310: e988 b6bd 6f67 7a3e 8fa6 0abe db27 6dbe
00000320: 9527 4bbc fdf0 e6bd fcaa 81be fc3b 0cbe
00000330: b0b9 58bd 4335 c53c bfed 67be 7f91 ea3d
00000340: 49bc 37be e929 e13d 0a42 edbd 0395 dfbd
00000350: 0ff1 02be d190 f23c c398 7cbe 308e 703e
00000360: 764d 6ebe da16 a03d 2b4a a0bd dba7 413c
00000370: 88f4 2bbc 0b56 f13d 1aab 7ebe 30d6 07be
00000380: 24da b0bd a99a 323e b431 8fbe 9be0 3abe
00000390: fbe1 fa3c 5016 11bc 55fd 95bd 6f1f 57be
000003a0: 58b4 6dbe 6574 72be bc4a a7bd 09de 40be
000003b0: 195a 81bd b1f6 073e a701 4c3e 3bcd 09be
000003c0: b2f9 44be b081 a3bd f5b8 c13d 8153 703e
000003d0: f3d0 35bc 7b35 68be 766c 3abd c4aa c3bd
000003e0: 0714 ccbd 1db9 383d 5690 7f3e 167a d13d
000003f0: 8114 a63d f264 713e 1ed7 08bd edaf c53d
0.25645944 -0.05432078 0.06347052 0.20567061 0.28466088 -0.22118837 0.094189525 -0.26355904
-0.118504636 0.09011311 0.09798844 -0.008831446 -0.18631467 0.16314207 0.19992188 0.07568856
0.17653933 -0.22277749 0.19585164 0.25151065 0.22210233 0.020359203 0.20468996 0.057995044
-0.1841641 -0.11621093 -0.038634617 0.008245322 -0.1978726 0.097196855 0.13368261 -0.2759188
0.10777827 0.12398664 -0.14722188 -0.06302705 0.18400548 0.20193732 -0.1954527 -0.1687387
0.0542103 -0.27190185 -0.020615285 -0.053349182 0.23445535 -0.22660294 -0.12010723 0.06550582
0.11644892 0.11856775 -0.2103044 0.25679722 -0.0077748564 0.08168427 -0.1338201 -0.2601328
-0.065391555 0.011656015 0.13398463 0.19320376 -0.021966085 -0.15065202 0.009838292 -0.20508608
-0.26089528 -0.1628028 -0.09330143 -0.09407027 0.010137217 -0.046107486 0.25327253 -0.03420986
0.080445245 0.26741776 0.25611287 -0.1520872 -0.03383515 -0.112637125 0.25748363 -0.26447588
0.1808664 -0.13235158 0.16123384 0.1510894 -0.21920381 0.22285634 -0.23658654 0.1051996
0.00033101538 -0.2641354 0.14144097 0.12549643 0.29544595 -0.1836089 -0.0063160392 0.22535089
-0.13324207 -0.04112535 -0.2051496 -0.19680947 -0.12343992 0.037909545 0.028129349 -0.14473361
-0.24382101 -0.2545113 0.22959843 -0.2668211 -0.14676544 0.17298807 0.13175255 0.2318822
0.10098235 -0.13052209 0.067391485 0.05522624 -0.100749865 0.16701546 -0.05152225 0.2895795
0.060050603 -0.19375958 0.20125052 0.29160544 0.037500884 0.22889438 0.26547995 -0.15712501
-0.032875698 0.025580117 0.10666403 -0.25164905 -0.023294982 0.20404251 -0.1788522 0.19060144
0.01890517 0.08392996 -0.047680326 -0.06710736 0.023887105 -0.13554181 0.24598439 -0.20527309
-0.111414835 -0.17877463 -0.25127608 0.16218217 -0.25674784 -0.06158292 -0.15154354 -0.30368593
-0.046787936 -0.2646602 -0.20477377 0.23075081 -0.20423067 0.1065058 -0.15551582 -0.28018352
0.18905911 0.0747448 -0.124213584 0.10446806 0.15294124 0.19833025 -0.0139171025 0.09578602
0.19603778 0.017173251 -0.22932205 -0.27378434 -0.036648497 -0.22143161 0.09814464 0.041929133
0.008822781 0.22026324 -0.037226908 -0.2685773 -0.14559679 0.18092884 0.10451724 -0.16147335
0.10579844 -0.18827087 -0.011621209 -0.20107588 0.006643014 0.2650801 -0.13418102 -0.17848721
0.003865617 -0.14937492 -0.043480422 -0.07775945 -0.08912832 0.2445352 -0.135401 -0.23159735
-0.012399574 -0.112764336 -0.25325763 -0.13694757 -0.05291146 0.024073249 -0.22649287 0.114535324
-0.17942919 0.10994322 -0.115848616 -0.109170936 -0.12787269 0.02961007 -0.24667649 0.2349174
-0.23271737 0.078168586 -0.078266464 0.011819805 -0.0104953125 0.117839895 -0.24869958 -0.132653
-0.08635357 0.1744181 -0.27967608 -0.18249743 0.030625334 -0.008855417 -0.0732371 -0.21008085
-0.23213327 -0.23677213 -0.08168551 -0.188347 -0.06316013 0.13277699 0.19922505 -0.13457195
-0.19235876 -0.0798372 0.09459106 0.23469354 -0.011097181 -0.22676651 -0.045513593 -0.09554055
-0.099647574 0.045098413 0.24957404 0.10228364 0.081093796 0.23573664 -0.033408277 0.09652696

layers.1.bias f4 [100]
00000000: 894f 82bd f0cb ddbc 305c cdbb c7ca 263d
00000010: 870c fc3d a0cc b93d 9047 cd39 5e21 833c
00000020: 0228 29bd 5b28 b6bc 5cb9 97bd 0a3a cc3a
00000030: 6023 5bbd bbd7 b2bd 1064 513d 42e2 e1bc
00000040: f181 4f3d 79b7 503d e11b 9ebc 64c1 adbc
00000050: f67d 96bd 2e93 91bd 3863 8dbc 5faa 7cbd
00000060: f9b8 26bd 9254 b1bd f266 65bd 09c0 543d
00000070: f11a 00bd 883a 82bd ddbb e5bc a3a9 b9bd
00000080: b585 aabd eda8 51bd 9fe7 763d 900a e33a
00000090: 347a 063c 2781 193d 0f69 3e3d 73a1 123c
000000a0: 7a23 97ba 4df9 c73c 335a 53bc 1bfb a33d
000000b0: fc5b 053d d4a6 3ebc a7a5 18bd 111e 353d
000000c0: 999d df3c 3c86 083d 5f88 c3bd 9148 aa3d
000000d0: 59b8 a0bd b4a7 2e3d fb7a 113e dc65 053c
000000e0: 0606 e2bb 12a3 e93c 8f8a b7bd 433a 453d
000000f0: fd24 a5bd 57a9 46bd c928 60bd 56bb 9fbd
00000100: d2f9 a4bd 1a0d 073d dcc1 82bd 9148 003c
00000110: 2570 b7bc 2ea8 553d 3e84 c03d 9158 91bb
00000120: 538b a33d 5d87 073e a597 32bd ac48 87bc
00000130: 2056 efbc 627b 85bd 1bf5 8abd 660f ffbd
00000140: 2410 303d bca0 023c 5669 f7bc 0aed 6e3d
00000150: 9aeb c1bd fc19 6f3d 73f9 2ebd d862 f93c
00000160: c03b 1fbd 03e9 79bd 8e9d 973d da64 1c3d
00000170: 1e18 82bd 0c71 3cbd 6f48 933a 6681 22bd
00000180: c1bc cd3d 1e23 833c 4927 6a3d 4b78 09bd
-0.063628264 -0.027074784 -0.006267093 0.040720727 0.12307077 0.09072232 0.00039153965 0.016007122
-0.04129792 -0.02223604 -0.07408401 0.0015581262 -0.053500533 -0.087325536 0.051120818 -0.027573708
0.05066103 0.050956223 -0.019300403 -0.02121038 -0.07348244 -0.071081504 -0.017259225 -0.061685916
-0.040703747 -0.08658709 -0.05600638 0.05194095 -0.031275693 -0.0635882 -0.028043682 -0.09065559
-0.08326284 -0.05118649 0.060279485 0.0017321873 0.008207846 0.037476685 0.04648691 0.008949625
-0.0011530959 0.024410868 -0.012899923 0.08006879 0.032558426 -0.011636455 -0.037267353 0.044218127
0.027296828 0.03333114 -0.09547495 0.08314622 -0.078476615 0.042640403 0.1420707 0.008141961
-0.0068976907 0.02852014 -0.08961975 0.048151266 -0.080636956 -0.04850134 -0.054726396 -0.07799403
-0.08055462 0.03297148 -0.06384632 0.007829801 -0.022392342 0.05216234 0.09400223 -0.0044356068
0.07985558 0.1323523 -0.04360165 -0.016514145 -0.029215872 -0.06517674 -0.067850314 -0.12454109
0.042984143 0.007972892 -0.030201595 0.058331527 -0.094687656 0.05837439 -0.042718362 0.03044264
-0.03887534 -0.061013233 0.07403098 0.038182117 -0.06352256 -0.046006247 0.0011236797 -0.039674185
0.100457676 0.016007956 0.05716637 -0.033561986

layers.2.weight f4 [100, 100]
00000000: 2564 0bbe 9369 7a3e b9ea 653d e846 0d3e
00000010: f12f b0bd 61c7 823e 97be f9bd 65ef 4b3e
00000020: 9f64 193e 82d3 fcbd a08c d23d 401a 0dbd
00000030: f3d6 813d 2779 50be a2d8 19be fd23 d93d
00000040: 874c 213e 53df 5bbe 9ff6 4fbe 58af 79be
00000050: 4e16 09be ae6b af3c 788c 2c3d 56f8 4b3d
00000060: 4ee4 c13d 9e3b c7bd 235e 833d d1bc 0cbe
00000070: e502 10bd daf3 d83c 0ac4 79be 10b3 423e
00000080: 66e4 383e 3902 5d3d a802 f23c ea23 26be
00000090: 80ad 7cbe 4289 b43d 4fac 823e da35 303d
000000a0: bbed 563d dd0d 61be be6b 4abe 1d2f 8f3d
000000b0: 2193 64be aac4 ad3d 0907 ae3d 23e0 553e
000000c0: cdb5 b53d dcad bb3d 641b 643e 3e46 16be
000000d0: 159b 073e 82ba 18be 179a 73be acf3 5f3e
000000e0: 5051 5f3e afda 553e 3a8c 0cbe dfb3 75be
000000f0: 1524 1ebe 9aca 8e3e 7c77 dabd 4f63 75be
00000100: a842 463e 2932 343d 8736 d7bd 8d3e 0abe
00000110: b335 2ebe 5631 833e bda9 2dbd ff09 643e
00000120: 609a 1abd 6684 35be a95f 8bbe 00fe 633c
00000130: 27a9 90be 24d5 8e3d 933e 3dbd 4afc d2bd
00000140: 50e6 8a3d ffac 7f3e a472 38be 84e2 6abe
00000150: 1cbb 833d 2e50 c2bd 65b7 ae3d 2171 3d3a
00000160: fa80 0dbe 2919 073e 4dda 1dbe ec05 bdbd
00000170: ac1c 37be a71d 01bc 7a2d 83bd 69b5 2ebe
00000180: 12fa 45be 7f6b 2f3e d0c2 4e3e 504e cebd
00000190: bb00 c93d 1ee2 753e 9d3e 1a3d bd81 b1bb
000001a0: 79e5 81bd 99c0 1c3e 1cfe b4bd cd1d 41bd
000001b0: f3ed 80bc 7531 babd 6379 653e 1d6a 0bbe
000001c0: f1b0 4dbe 028d 7b3e 5435 e53d dfe3 b7bc
000001d0: 1872 793d 932e 093e 0ba6 a23e 5118 2cbe
000001e0: 191e 4e3e 3cc5 0e3e a9dc fd3d d1e6 7cbe
000001f0: 0a5d 5ebe 4bf3 26be 36db 563a c5ad 2f3e
00000200: f01f 973d 00f8 2abe f661 6c3d 5ee4 67be
00000210: 1798 993d 7d7a 863d b217 7cbd 2b19 673e
00000220: 8099 37bd d9d2 963e 0589 21be 495f 283e
00000230: 9f13 ab3d 2e68 36be 22c1 2dbe 38ee 1a3d
00000240: cf10 0a3d 0352 74be a779 91bc 6b48 ec3d
00000250: fd4e 44be 70bb 723e d70a 75be f616 3c3e
00000260: 2b06 7c3e 0644 35be 61d3 47be 33ed a2bd
00000270: 4897 ed3d 31b4 e33c 5ead d93d 6bd2 5abe
00000280: 0ee5 963e b9c3 32be 3ca7 7bbe 67ec 133e
00000290: 7937 dcbd 0c75 c0bc c336 47be 85ae 413c
000002a0: 3c99 2dbe 8e0e 173e 5e5e 6bbe 9e7b 9f3d
000002b0: 63a9 223e 562f 37be 6143 08be 4354 d83d
000002c0: f5d3 44be c492 54be 0471 55be f124 76be
000002d0: 5a93 533e 61de 19bd b37d 563e be4d 143d
000002e0: d494 153e 1ffa ab3d da20 e7bd d635 bdbd
000002f0: 6dc7 98bd 17b9 763e 3618 94bd f3d0 27be
00000300: 8394 103e 463f 83bd 6a4c 41bd 65bd 153e
00000310: a384 303e 644f 3fbd 50fb d73d 729c e9bd
00000320: 67dd 25be 1fe8 89bd c2b6 093e f310 1bbe
00000330: de66 68be 589d 8bbd 96f1 12be 29da 8f3e
00000340: 11d9 57be 1cdd 173e 1885 ad3d 9bce 6a3e
00000350: 647e e6bd b613 a53d def7 533e 7d28 53be
00000360: c382 853e 335a 49be c90d 893e 2e06 8b3e
00000370: 39e5 b5bd 2c0b abbd ba41 613d 12ce 423d
00000380: 27b7 853e 869e 1ebe c70a 3ebe 40b2 04be
00000390: 9ac0 f7bd 4dec a13e 69c4 2d3e 5c19 90be
000003a0: 2703 7abd 75f1 f33d 66c4 5cbe c3b4 40be
000003b0: cb03 0bbd 221d 653e 9923 553e 7ac1 273e
000003c0: 70c7 063d b22f 51be fe01 88bd 54ec b73d
000003d0: 871f c8bd c89c 4f3e 00e7 1abd c173 bebb
000003e0: d0a4 dcbd cd7d 2cbd 1f9c 08be f6bb 92bb
000003f0: 22d1 2c3e e438 653e 3993 34be 4150 f6bc
-0.13612421 0.24454336 0.056132052 0.1379658 -0.08602894 0.2554274 -0.12194555 0.1991554
0.1497979 -0.123450294 0.10280728 -0.034448862 0.063398264 -0.20358716 -0.15024045 0.10602567
0.15751849 -0.2147191 -0.20308922 -0.24383295 -0.13387415 0.02141365 0.04212615 0.04979738
0.09467374 -0.09728168 0.064144395 -0.13743903 -0.03515901 0.026483465 -0.24391189 0.1901362
0.18055877 0.053957198 0.029542282 -0.16224638 -0.2467556 0.08815242 0.25522086 0.043020107
0.05247281 -0.21977945 -0.19767663 0.06991408 -0.2232175 0.08484776 0.084974356 0.20886283
0.08872566 0.091640204 0.22276074 -0.14675233 0.13242753 -0.14914897 -0.2378925 0.21870297
0.21808362 0.20884202 -0.13725367 -0.23994397 -0.15443452 0.27888948 -0.10667321 -0.23963664
0.19361365 0.04399315 -0.10508447 -0.13500424 -0.17012672 0.25623578 -0.042398203 0.22269438
-0.03774488 -0.17726287 -0.2722142 0.013915539 -0.28254053 0.06974247 -0.046202254 -0.103020266
0.0678221 0.24968337 -0.18012482 -0.22937971 0.06432173 -0.09487949 0.085310735 0.00072266354
-0.13818732 0.13193192 -0.15415306 -0.09229645 -0.17882031 -0.007880605 -0.06405158 -0.1706139
-0.19333676 0.1713085 0.20191503 -0.10073531 0.098145925 0.24012038 0.03765737 -0.0054170773
-0.063425966 0.15307845 -0.0883753 -0.04714756 -0.015738463 -0.090914644 0.22409587 -0.13614698
-0.20087029 0.24565509 0.11191812 -0.022447525 0.060899824 0.13396673 0.31767306 -0.16806151
0.20128669 0.13942426 0.12395603 -0.24697424 -0.21715179 -0.16303746 0.0008196117 0.17156132
0.073791385 -0.16696167 0.05771061 -0.22645709 0.07499712 0.065663315 -0.061546035 0.22568195
-0.044824123 0.2945774 -0.15774925 0.16442598 0.08353352 -0.17813179 -0.16968206 0.03782484
0.033707436 -0.2385941 -0.017758204 0.1153725 -0.19170757 0.23704314 -0.23929916 0.18368134
0.24611728 -0.1770173 -0.19514228 -0.079553984 0.1160112 0.027795883 0.1062877 -0.2136933
0.2947163 -0.17457475 -0.24575514 0.14445649 -0.10752768 -0.023493312 -0.19454484 0.011821394
-0.16952986 0.14751646 -0.22985217 0.0778725 0.15884928 -0.17889151 -0.13306953 0.10562947
-0.1922148 -0.20759112 -0.20843893 -0.2403753 0.20661679 -0.037565593 0.20946388 0.036206953
0.14607555 0.08397316 -0.11285563 -0.09238784 -0.074599124 0.24094044 -0.0723118 -0.16388302
0.14119153 -0.06408553 -0.047192015 0.1462303 0.17238097 -0.046706572 0.10545981 -0.11406793
-0.1619774 -0.06733727 0.13448623 -0.15143184 -0.2269549 -0.0681712 -0.1434997 0.2809613
-0.21078898 0.1483044 0.08472651 0.22930376 -0.11254576 0.080604 0.20700023 -0.20620914
0.26076326 -0.19663315 0.2676833 0.27153152 -0.088816114 -0.0835174 0.054994322 0.047559805
0.26116297 -0.1549016 -0.18558799 -0.12958622 -0.12097283 0.31625596 0.16969456 -0.28144348
-0.061038163 0.11911289 -0.21559295 -0.18818955 -0.033939164 0.22374395 0.2081436 0.16382399
0.032905042 -0.2042835 -0.06641005 0.08980623 -0.09771638 0.20274651 -0.037817955 -0.005812139
-0.10773623 -0.04211216 -0.13340805 -0.004477973 0.16876653 0.22384983 -0.17634286 -0.030067565

layers.2.bias f4 [100]
00000000: 48ba a93d 8f61 2cbd 6409 e3bc 1085 873d
00000010: 89c1 a6bd 270d 10bd 2b1b b9bd 9ac7 933d
00000020: 4feb a6bd ab37 0b3d 86c0 233d cb75 9ebd
00000030: cc83 b93d e488 8f3d 4cc5 ab3d 2c9d 013e
00000040: b3ed eabc 605a c6bd 2c45 fa3c 5596 083d
00000050: 5ee8 873d adbe a13d d2de 84bd ff64 143d
00000060: a840 35bd b7ed 01be 5286 5a3d bc99 4cbc
00000070: 858a b2bd ac30 5ebc 3cf3 69bd 41f5 5fbd
00000080: f227 a83d 3652 993d cb72 00bd 0ded 3fbd
00000090: cb46 763d 2974 35bd 2a33 c4bd 0735 b7bd
000000a0: b67c bf3c 0644 90bd cbda 9f3c 1d3d 57bd
000000b0: 75b7 1d3d 8fde a3bc 2ba1 8b3d ddcf cdbc
000000c0: 0414 9fbd ae50 a23c 1ff0 dfbd 46d9 f03c
000000d0: 070e ff3d f34e 243d 9ac4 fabd d65c b2bd
000000e0: 4683 fa3c e65b 343d 0593 d83d 62c4 96bd
000000f0: c2ad 6dbd 9baa 203c 39de 913d ed20 923c
00000100: 4ed0 663c 3fb6 97bd afdc a23d ba51 a23c
00000110: dd35 a6bd ff63 60bd ae47 f33c 1232 003e
00000120: 9d8e ddbd 0d44 6bbc 8a33 b83d acf4 47bd
00000130: a9bc 56bb cdf2 88bd 5f81 8b3b 2d18 4fbb
00000140: 346c 96bd 696a 0fbc 35a6 873c cb60 d1bc
00000150: cab9 d5bc 49be 843d c16e 273d 141f 85bd
00000160: 6f2d 80bc 0ae8 80bd 77a6 753d 421c c5bd
00000170: 63ba c9bd 26f7 1f3d fcb1 743c 55ce 2f3d
00000180: 2dc6 003d 8c5d a83c c6c4 b5bd 93f2 4f3d
0.082874835 -0.042085227 -0.027714439 0.066171765 -0.08142383 -0.035168793 -0.09038385 0.07215805
-0.0815035 0.033988636 0.039978527 -0.07737311 0.090583414 0.07008532 0.08387241 0.12657613
-0.028677797 -0.096852064 0.030550562 0.033346493 0.066361174 0.07897697 -0.06487812 0.03622913
-0.044251114 -0.12688337 0.053350754 -0.012487825 -0.08717827 -0.013561409 -0.057116732 -0.05467725
0.08210744 0.074863836 -0.031359475 -0.04685693 0.060126107 -0.044300232 -0.09580071 -0.08945661
0.023374896 -0.070442244 0.019513508 -0.052548517 0.038505036 -0.020003585 0.0681785 -0.025123531
-0.077674896 0.019813862 -0.10934471 0.029400479 0.124538474 0.040114354 -0.1224453 -0.08709113
0.030580174 0.044032954 0.10574917 -0.07361676 -0.058027036 0.0098063005 0.07122464 0.017837966
0.01408775 -0.074078076 0.07952248 0.01981436 -0.08115742 -0.054782864 0.029697265 0.125191
-0.10818217 -0.014359486 0.08994205 -0.04881732 -0.0032766259 -0.066869356 0.0042573656 -0.0031600103
-0.07344857 -0.0087533975 0.016558746 -0.02555885 -0.026089568 0.064816065 0.040877108 -0.06500068
-0.015646664 -0.06294258 0.059973206 -0.096245304 -0.098500036 0.03905406 0.014935013 0.042921383
0.031438995 0.02055242 -0.08875422 0.050768446

layers.3.weight f4 [100, 100]
00000000: 6d88 3f3e 61e7 9e3d 8d9c 483e 4075 20be
00000010: 35d2 293e 54d4 60be c8f2 003d bf77 47be
00000020: 549a 543e 4200 cbbd 7dcb 403e 6997 4dbe
00000030: d24c 3c3e 8cc7 d23d f5d1 7fbd 788d 753e
00000040: 4df0 00be a1d5 8cbd 8934 1ebd 0d38 103e
00000050: f0c5 083e cda9 1a3e 7dee 963c 9164 bcbd
00000060: bb47 7dbe 0e17 0fbe 4ffb 01bd a924 9a3e
00000070: 5644 bd3d fc29 333c 7030 ecbd 9833 dc3c
00000080: 3694 603c d51e 8a3e 078f 70be 312c 02be
00000090: cbae 0e3e 2936 243e 33a6 063e 051e 2e3e
000000a0: 9b7c c3bd ccec 623e 20eb 593e 3faf 6abe
000000b0: 8e19 edbd fc2f 5cbe 9cff da3d 22c8 b3bd
000000c0: d936 3cbe adc0 fb3d 272c 05be fd52 09bd
000000d0: d584 fcbd f8c8 313d cb42 8d3e f602 f33c
000000e0: ac5a 453e 7c17 343e 998f 49be 013c 523e
000000f0: 2f19 8d3d 7ad4 fc3d b8b8 8abe 9c27 83be
00000100: a7c6 913d d04e 6b3e 278c 703e 2d18 54bc
00000110: 8864 ca3b bd59 48be fe69 aa3d d5c2 84be
00000120: fa70 7b3d df9a 7cbe 426d c8bc 3990 2e3d
00000130: 65e0 01be b643 833e 2c33 a4bd e62c 423e
00000140: 0611 55be fc10 cdbd e212 2ebe f341 aa3d
00000150: 693b 4cbd 9f5e 323e 0e21 0fbd 01c8 a3bb
00000160: bc8b 9bbc 30c1 823e d2d1 d83d 6886 513e
00000170: 8bb8 53be 4273 28be df17 14bd 6e73 d1bd
00000180: b76e 82be 7f71 133d 8b02 f83c 983a 023d
00000190: 143d 893e b58a 333e 6c7d 87bd caa0 fcbd
000001a0: 12da 4e3e 0842 643e adb4 4f3e d41e 133e
000001b0: f514 d4bd c882 8c3e 002c 14be bf49 743d
000001c0: 857e 8c3e f45e abbd a3b4 89bd d5c5 4d3e
000001d0: c481 853e e850 1fbd 6dc4 efbd 9fea 0fbe
000001e0: 079d 5bbe b354 d73d 162b 9ebd c52e 303e
000001f0: ce98 cb3d 98e6 e23d 0fd3 1f3e f54b db3d
00000200: cd18 70be dec8 9c3d 4ada 25be 229b 363e
00000210: 5f69 86bd f300 7f3d 8cdb 423e 4e9b 313e
00000220: 0fcf 793d 072c 1f3d 30c2 403e 49b7 123e
00000230: ba83 003e da53 85be e05b 11be dfd7 22be
00000240: 4bea babc a671 2ebd b2de 77bd 1e45 97bd
00000250: da28 61be 516a 0fbe 4a6b 093e 8230 dc3a
00000260: aa99 bc3c 9293 7f3e 513a 193e abd7 c53d
00000270: 6e84 fc3d 81a4 38be c506 e0bd 6ec4 1c3e
00000280: f314 963e c500 38bd b992 41be c52f 163d
00000290: c836 7dbe 1526 fa3c 421e 023e 2314 23be
000002a0: 10c9 ddbd 6542 8abd f933 313e aef6 813e
000002b0: d10a 3fbe 31f4 aebd d2e2 5bbe e28c ffbd
000002c0: 04cc 69bd 95d3 893d adcc a8bc 96d2 a3bd
000002d0: 86cc 643e 0019 273e 0df9 8fba a584 0b3e
000002e0: da2e 8ebd 56b9 453e ffaf 123d 082b b03c
000002f0: 7c3b 4dbe c04e f1bd a157 8cbd 38f5 8dbd
00000300: 4eae 083e 38e4 39be e109 dcbd 51f8 e33d
00000310: e808 793e f3f8 843e d8df 0c3e b581 d6bc
00000320: a3d8 53be eeea 773e ad22 b9bd fa11 613e
00000330: a595 223e 88c3 543e a684 e7bd 65f1 cb3d
00000340: 20f0 493e 1a13 8f3d 6f51 60bd 52fb 4b3e
00000350: 6d23 38be 44ed 12be 1fac cf3c fa60 52be
00000360: d6e2 04bc de9d f03d e301 47be 4375 86be
00000370: 5a89 f3bc 8e78 cfbc 43a8 55be 5aa3 c6bd
00000380: bd11 89bc 321a 07be 8238 843e 12d9 5f3e
00000390: 75d9 493e 9516 db3d 77e2 703d c388 d13c
000003a0: 155a 96be 8b9a 733c ebb5 3f3e 287c f13c
000003b0: 08ee 5cbe a815 573d a575 80be 9d62 96be
000003c0: 902e 4ebd 5c2a 74bd b24e 813e 9838 163d
000003d0: c402 4a3e 1d79 583e 980a b6bd b678 993e
000003e0: 3d5f 3c3e 9374 373e 6db4 22bc 1a7c cc3d
000003f0: 7213 103c e0c0 bc3d 9745 283e 9175 62bd
0.18704386 0.07758976 0.1959097 -0.15669727 0.16584094 -0.21955997 0.031481534 -0.19479273
0.20761997 -0.099121585 0.18827625 -0.2007729 0.1838868 0.10291967 -0.06245609 0.23979747
-0.12591667 -0.06876684 -0.03862432 0.14083882 0.13356757 0.15103836 0.018424267 -0.09198869
-0.24734394 -0.13973638 -0.031733807 0.30106094 0.0924155 0.010935303 -0.11532676 0.02688007
0.013707211 0.26976648 -0.2349206 -0.1271217 0.13933866 0.16036285 0.13149337 0.17003639
-0.09545251 0.22160643 0.212811 -0.22918414 -0.1157714 -0.2150268 0.10693285 -0.08778407
-0.18380298 0.12292609 -0.13005124 -0.03352641 -0.12330023 0.04340455 0.27590021 0.029664498
0.1927287 0.17587084 -0.19683684 0.20530702 0.06889569 0.12345214 -0.27094054 -0.25616157
0.07117968 0.22979283 0.23490964 -0.012945217 0.006176535 -0.19565482 0.08320998 -0.25929895
0.06138704 -0.24668454 -0.02446616 0.04261801 -0.12683256 0.25637597 -0.08017573 0.1896244
-0.20807275 -0.10013005 -0.1699939 0.0831336 -0.049861345 0.17418908 -0.034943633 -0.0049982076
-0.018987529 0.25538015 0.10586895 0.20461428 -0.20675866 -0.16450217 -0.036155578 -0.102270946
-0.25475094 0.03599691 0.03027465 0.03179416 0.2680441 0.17533381 -0.06615719 -0.123353556
0.20200375 0.22290814 0.20283766 0.14367229 -0.1035556 0.27443528 -0.1446991 0.059640642
0.27440277 -0.0836772 -0.06723907 0.20094998 0.26075566 -0.038895518 -0.11707387 -0.14054345
-0.2144662 0.10514202 -0.07723062 0.17205341 0.099412546 0.110791385 0.15607856 0.10707847
-0.23446961 0.076555 -0.16196552 0.17832616 -0.06563067 0.062256765 0.19029063 0.173444
0.060988482 0.038860347 0.18824077 0.1432773 0.1255025 -0.26040536 -0.14195204 -0.15902661
-0.022816798 -0.042588852 -0.060515113 -0.0738623 -0.2198824 -0.140054 0.13419834 0.0016799124
0.023022491 0.24958637 0.14963652 0.09660276 0.123299465 -0.18031503 -0.10938791 0.15309307
0.29312858 -0.04492261 -0.18903627 0.03666665 -0.24727929 0.030535737 0.12706855 -0.1592565
-0.10829365 -0.06750945 0.17304982 0.25383514 -0.1865647 -0.085426696 -0.21473244 -0.12478043
-0.05707933 0.06729809 -0.02060541 -0.079991505 0.22343644 0.1631813 -0.0010984257 0.13624819
-0.0694253 0.19308981 0.035812374 0.021504894 -0.20042223 -0.117825985 -0.068526514 -0.069315374
0.13347742 -0.18153465 -0.10744072 0.11131347 0.24319804 0.25971183 0.13757265 -0.026184896
-0.20688109 0.24210712 -0.09039817 0.21979514 0.15877397 0.20777714 -0.113045976 0.09958152
0.19720507 0.06986065 -0.05476516 0.1992009 -0.17982264 -0.14348322 0.025350628 -0.20544806
-0.0081107225 0.11748861 -0.19434313 -0.2626134 -0.02972858 -0.02532604 -0.20864968 -0.096991256
-0.016732091 -0.13193586 0.25824362 0.2186015 0.1971186 0.106976666 0.058809724 0.025577908
-0.29365602 0.014868389 0.1872174 0.029478148 -0.21575177 0.052510887 -0.25089756 -0.2937211
-0.050337374 -0.05961071 0.25255352 0.036675066 0.19727618 0.21139951 -0.08888739 0.29974908
0.18395706 0.17915563 -0.009930712 0.09984608 0.008793699 0.092164755 0.16432796 -0.0552879

layers.3.bias f4 [100]
00000000: 0057 0e3b 9987 43bd 55d7 e23d b521 323d
00000010: 3413 b03d d655 443c 835a c2bd f08f 453d
00000020: fd90 b43d c718 743d 0bda 013e d11e b13d
00000030: 1452 6dbd d36f 33bd f0ca 2ebd 9048 cc3b
00000040: 55d0 973d 12dc e1bc bbf1 a53d f6b5 f43c
00000050: fa39 c7bc c0fc 73bd eba1 d9bd ccbc 9ebd
00000060: b4fd 133d c401 e8bd e6dc e03c 2ced aa3d
00000070: 4804 c7bd 2a77 893d 1a4e fabb 3962 ebbd
00000080: ec8b aabd da54 74bd e488 a03d 57f9 49bc
00000090: d284 fdba 75f9 13ba cde5 d0bb b6a6 96bd
000000a0: 8fbd bf3d b959 503d bb9e 1ebd 05a9 ab3c
000000b0: 7e2a 84bd c9bc ac3c 7110 b5bd 1479 a7bd
000000c0: 29e7 7bbd 3afc b83c 1b08 cd3d ad8e f43c
000000d0: 91a2 cfbd 2e32 8d3c 2661 00be e173 a13d
000000e0: ca7b ca3d 1f16 0b3d fae7 8bbb 1796 a6bd
000000f0: fc3a 26bd c693 96bd b004 713a 2bef b6bc
00000100: 7fc6 a33d 7500 57bc 19a3 ca3d cb35 aabd
00000110: beb8 963d 6bf1 09bd b475 ce3d a1d3 443d
00000120: 75a4 13bd 043f 65bd 64b1 b63c f0c7 57bd
00000130: 82f0 94bd bb89 273d 7fbe 82bc 95b1 a03d
00000140: e008 1dbd 5483 b3bd 7e8b 0fbc 84fb 283d
00000150: 4423 373d 90f4 93bd 4d43 8cbd 8efc b8bc
00000160: 4565 32bd 8956 82bd 2e67 7cbd cdba 2d3d
00000170: 324a 96b9 9423 fbbc c407 c3bd a93b 78bd
00000180: 47fc 8bbd 9060 523d 3a04 083d f056 adbc
0.0021719337 -0.047736738 0.110762276 0.043489177 0.08597413 0.0119833555 -0.0948992 0.048232973
0.08816717 0.059593942 0.12680833 0.08648456 -0.057939604 -0.043807816 -0.042674005 0.006234236
0.07412783 -0.027570758 0.08102747 0.029871922 -0.024319638 -0.059567213 -0.106265865 -0.07750854
0.036130622 -0.11328462 0.027449083 0.08346018 -0.097176135 0.06712182 -0.007638705 -0.11493344
-0.08327469 -0.059651233 0.0783861 -0.012327514 -0.0019341952 -0.0005644777 -0.0063750506 -0.07356016
0.09362327 0.050866816 -0.038725596 0.020954618 -0.06453417 0.021086114 -0.088410266 -0.08177391
-0.06149975 0.022581208 0.100113116 0.02985319 -0.10138429 0.017235842 -0.12537059 0.0788343
0.09886892 0.033956643 -0.004269597 -0.08134096 -0.040583596 -0.07352404 0.0009194119 -0.022330841
0.079968445 -0.013122668 0.0989439 -0.083110414 0.073594555 -0.0336775 0.10081044 0.048053388
-0.03604551 -0.0559683 0.022301383 -0.05268091 -0.07272436 0.040902834 -0.015959976 0.07846371
-0.038338542 -0.08765283 -0.008761285 0.04125549 0.044711366 -0.07224381 -0.06848774 -0.022581365
-0.04355361 -0.063641615 -0.061621837 0.042414475 -0.0002866551 -0.030656613 -0.095229656 -0.06060377
-0.068352275 0.05136162 0.033207156 -0.02115962

output_layer.weight f4 [2, 100]
00000000: 7eff 07bb f38e 3a3b 34f5 8abb 3aa1 103a
00000010: b6b1 b43b aa62 19ba 569a 1ebc d22f 003b
00000020: 5500 5538 9010 1abb d990 7aba 9f6d 253b
00000030: 5149 c9bb aa0b 953a ad0b 55b9 99cd b13a
00000040: 48aa d43b a589 183c 7af7 36ba b675 93ba
00000050: 68ff ad3c 639b 2c3a 4cf5 a038 2823 913b
00000060: fcf8 603a 3488 32bb e18a aeb9 4db5 9539
00000070: 8d31 2e3b 940c eeba 2e9c 36bb c3c4 8cbc
00000080: 36f4 83bb a585 34bb 5501 3b3b 7881 043b
00000090: fd88 7d3b c300 21bc 2d92 863b 53fa 18bb
000000a0: 964d 4f3b 64fb d03b eab2 f5b9 564c 123b
000000b0: 1d75 c83b 02f1 253b 22fa 013b 2f65 dfbb
000000c0: 6e1b 0d3b c60e 233a a79e 3b3b 3780 a63a
000000d0: 2938 78bb b6da 1ebb 720a 23bb 08c2 b639
000000e0: 4613 0dbb 391a acba a243 3bba 1bbc 2f3a
000000f0: b26c 423b 4b6b d9ba 749c 0b3b 4a52 4fba
00000100: b63c a93a 2d7a 6b3a ae35 143b edbc cebb
00000110: 62f1 923b ddd9 b3ba 2f8d 343b 0f3d db3a
00000120: c692 473b 1631 91bb 0fd9 8d3b 8c3c 153b
00000130: d26c c9ba 961e fc3b 430d 17bb 9846 923b
00000140: 661f 1b3b e5c4 fdba e09a 853c 1e9e 773a
00000150: 05b0 783a d9ef ba3a a372 033b 1f2e a3ba
00000160: cc79 56ba ce1e 0a3a 477f a7ba da77 9bbb
00000170: 13d5 5fbb e5de 9cba 24e1 953b eadc 403b
00000180: c304 9f39 d5bc 123c 51ba 9bba 695d f8ba
00000190: bbd3 9d39 1e31 1d39 c2ec d53a ecda f839
000001a0: 7a16 cfb7 56c3 dd39 c76c 08bb ac48 07ba
000001b0: fc37 3fba 9931 493a 0add 62bc 2b8b cc3a
000001c0: 9b2f 013b 0d56 f73a 55ac d4ba 31c1 283a
000001d0: cac6 3abb 1d19 ccb9 9fce 9e39 c8bb 64ba
000001e0: e482 423d 26c0 71ba 4092 133a 64b1 86bb
000001f0: 0e7f 773a 1789 8739 d079 a93a 912d 3c3a
00000200: ee5c 283a 5868 faba a467 943a 4a41 c73b
00000210: 310c beba 96de 8339 a101 003b 17b2 4dba
00000220: 7536 7aba 815b 1bbb 4ed7 41bb 9ef4 bdba
00000230: ddbe 9c3a c4af f9ba 7e00 2eb9 2c32 9ab9
00000240: 6bd5 8dba 470c 043c d2c4 9eb9 b79b 76bb
00000250: c58c 19bb 2dcb c93a 3a68 8dba 68db 32ba
00000260: 73eb 1bba 6b04 cdb8 e377 a2ba 851d 383a
00000270: b5ea 9b3a 2d24 8cba 980d 14ba b0b8 123b
00000280: 791c 4fba 5ca1 c23a c42b 903b e6a1 23bb
00000290: 8726 a939 5585 483a 1584 47bb 2e57 103b
000002a0: 0def 523b 77d8 40ba a733 dbb8 29aa 3938
000002b0: f409 16b9 9c91 90ba 75eb 90bb c8a8 853a
000002c0: 0bcb 253a 474f 653b 863a d2ba 5178 393b
000002d0: 8c83 6e3a ea8e 653a 9769 b13c 1fe6 34b9
000002e0: 4c63 163a 93fa ed39 4f0d 62b9 dd2b f8b9
000002f0: 045a 66ba 255d df3a 1de0 2aba aa9f 42bb
00000300: 5eef e5b9 b0b1 5739 16ac 9a3a 0a55 c73a
00000310: 4d21 6dba 4adc 98bb d1c8 e73a 9a60 823a
-0.002075165 0.0028466552 -0.0042406563 0.00055171887 0.005514349 -0.0005851189 -0.009680351 0.0019559753
5.0783467e-05 -0.0023508407 -0.0009558327 0.0025242341 -0.006142773 0.0011371274 -0.00020317613 0.0013565301
0.0064900257 0.009310161 -0.0006979626 -0.001125029 0.021239951 0.0006584434 7.6750846e-05 0.00442924
0.00085820234 -0.0027241828 -0.0003329134 0.00028554574 0.0026579828 -0.0018161708 -0.0027864086 -0.017183667
-0.004026915 -0.0027545479 0.002853473 0.002021877 0.0038686388 -0.009826842 0.004106781 -0.0023342564
0.0031631938 0.0063776243 -0.00046863343 0.0022323332 0.0061174766 0.0025320654 0.0019832929 -0.006817482
0.0021531242 0.0006220158 0.00286285 0.0012703006 -0.003787527 -0.0024239249 -0.0024878052 0.0003485831
-0.002152638 -0.0013130374 -0.0007143562 0.000670375 0.0029666838 -0.0016587762 0.002130297 -0.00079086854
0.001291177 0.0008982744 0.0022615003 -0.006309143 0.0044843415 -0.0013721545 0.0027549972 0.0016726571
0.0030452474 -0.0044309003 0.004328854 0.0022771684 -0.0015367514 0.007694076 -0.0023048676 0.004463982
0.0023669838 -0.0019361047 0.016309202 0.00094458635 0.0009486678 0.0014262154 0.0020057342 -0.0012449658
-0.00081816013 0.00052688725 -0.001277902 -0.004744512 -0.0034154102 -0.0011968283 0.004573958 0.002942855
0.0003033039 0.008956154 -0.0011881088 -0.0018948737 0.00030103125 0.00014990984 0.001632117 0.00047465356
-2.468679e-05 0.0004229794 -0.002081679 -0.000516067 -0.0007294414 0.0007674932 -0.013846645 0.001560544
0.0019712213 0.001887025 -0.0016225675 0.0006437479 -0.0028499835 -0.00038928623 0.00030290053 -0.00087254914
0.04748811 -0.0009222053 0.0005629398 -0.004110502 0.0009441235 0.00025851346 0.001292998 0.0007178421
0.0006422539 -0.0019104583 0.0011322391 0.006080781 -0.0014499483 0.00025152107 0.001953222 -0.0007846667
-0.0009544858 -0.0023705664 -0.0029577794 -0.0014492457 0.0011958737 -0.0019049575 -0.00016594116 -0.0002941055
-0.001082105 0.008059568 -0.0003028275 -0.0037629434 -0.0023429852 0.0015395634 -0.0010788508 -0.0006822855
-0.00059478654 -9.775985e-05 -0.0012395348 0.0007023442 0.001189551 -0.0010691934 -0.00056477776 0.0022387914
-0.0007900666 0.0014849114 0.0043997485 -0.0024968325 0.00032262897 0.00076492626 -0.0030443717 0.002202462
0.0032185942 -0.00073564745 -0.00010452355 4.426591e-05 -0.00014308823 -0.0011029723 -0.0044226 0.0010197395
0.0006324506 0.003498988 -0.001603917 0.0028300474 0.00090985815 0.00087569526 0.021656794 -0.00017251864
0.0005736842 0.00045390855 -0.00021557997 -0.00047334927 -0.0008787217 0.0017041309 -0.0006518381 -0.0029697218
-0.00043856626 0.00020570192 0.0011800553 0.0015207839 -0.0009045795 -0.0046649324 0.0017683749 0.0009947002

output_layer.bias f4 [2]
00000000: 6926 2d3d 6340 403d
0.04227296 0.046936404
