net_param/net_0.04.pth (torch, 17999 bytes, 12 tensors)

hidden_layer1.weight f8 [20, 2]
-0.5558855540673638 0.4484822236235778 0.2333644190667864 -0.40235365107574844 0.2379481973705365 -0.5966941926679707 0.5271046031211308 -0.6058824307431427
-0.02349358135151174 0.07994705840133241 0.4022030767923766 0.41700032115074204 -0.3329249374597345 0.11611425168098542 -0.34388499242395315 -0.15349745075598162
0.48243792714546074 0.2869257514114632 -0.4899495739133599 0.4456779818441975 0.13633920317817147 -0.39917905930549386 -0.4036565493225638 -0.47783307560497823
0.1735629148422168 0.08414515206002478 0.34984110450738193 -0.18558701475953832 -0.6292918833795785 -0.15637087459206117 -0.032848071255242625 0.14821408071719133
-0.1443294702842909 0.11032840127247176 -0.07398358350701038 -0.48504374433645586 0.42021597298622987 -0.2589606587979941 -0.24049742557268575 0.11572927987841321
00000000: ab38 6180 d0c9 e1bf 723d d3c8 eeb3 dc3f
00000010: bc8f f8a1 e2de cd3f 6dfa 3287 29c0 d9bf
00000020: 2b9f ec26 1675 ce3f 181b 676b 1e18 e3bf
00000030: fc3d ff78 0ade e03f b868 288d 6363 e3bf
00000040: ad5a 488e b30e 98bf 7fc0 3e11 6977 b43f
00000050: 1920 4bf9 b1bd d93f 4ce4 701d 22b0 da3f
00000060: d864 9a65 a44e d5bf 9fc0 91e1 a9b9 bd3f
00000070: 15f3 0233 3602 d6bf 7f16 82f1 cda5 c3bf
00000080: 6e25 dc53 43e0 de3f 4551 acd3 fd5c d23f
00000090: b468 2975 555b dfbf ea5b 24f1 fc85 dc3f
000000a0: 9b0e 6821 9073 c13f ddc4 3d53 268c d9bf
000000b0: 1a06 8a47 82d5 d9bf 18e9 2a2e d194 debf
000000c0: 46db 8541 4f37 c63f 15fa 3664 898a b53f
000000d0: 60f7 a9f1 cb63 d63f 9c2c 7ab7 50c1 c7bf
000000e0: f71c 58bb 2823 e4bf aabc 35f8 f503 c4bf
000000f0: c64e 8e5f 76d1 a0bf 5c57 bed2 adf8 c23f
00000100: 0d2a 5c59 6379 c2bf e604 496b 7b3e bc3f
00000110: 9f7e 9a8f 96f0 b2bf 537c c3ea f40a dfbf
00000120: 2de4 4e89 d1e4 da3f 623b 1fba cf92 d0bf
00000130: 39ae cda0 9ec8 cebf 5975 4420 6fa0 bd3f

hidden_layer1.bias f8 [20]
0.23291547203319576 -0.5787702227167713 0.42411918379858354 0.663743498568666 0.586603596036158 0.5427824970712776 0.10482366152046009 0.632206358643186
-0.42522832325239 -0.12849487577577884 -0.2974868552844251 0.18310583502547673 -0.6727242349227593 0.19623729836510867 0.5366583240116973 -0.30334898300068003
0.3337724226593591 -0.5317214346195971 -0.1431096386605314 0.2895315920051051
00000000: 9db7 8e97 2cd0 cd3f 0cf3 4e21 4985 e2bf
00000010: 2f5a 01ca c424 db3f 131f 6901 633d e53f
00000020: 141f 96e7 74c5 e23f 3265 3866 795e e13f
00000030: 31cd 1336 b9d5 ba3f 6d43 56d4 083b e43f
00000040: 72ec 6cdb f036 dbbf fe8c 9424 8572 c0bf
00000050: 76ef 9b4e 060a d3bf a412 9212 0370 c73f
00000060: 3209 87f9 f486 e5bf 82e4 5dc5 4d1e c93f
00000070: 8634 d813 4e2c e13f 66d1 50da 116a d3bf
00000080: 953b e801 875c d53f 76bf 88ab dc03 e1bf
00000090: bc09 e5a8 6a51 c2bf 0787 b483 af87 d23f

hidden_layer2.weight f8 [20, 20]
-0.14258556472549908 0.14261285294109147 0.07537017702936853 0.06754934663513507 0.09782470662844804 -0.1900321647168498 -0.1631168205908495 -0.027375892200608577
-0.07754836324462275 0.04759465549402304 -0.09480274452401181 -0.04007757608751108 -0.06948991107678719 -0.20584686258586993 0.05176922641850479 -0.10506564290276808
-0.02299973170671704 0.13161302403621186 -0.023118862976293387 -0.07491807785434365 -0.008591587858650482 -0.11602628972056349 -0.1411779941785257 -0.090626090740512
-0.15207500081670874 0.21926203109940248 0.04608033992794577 0.22702548256083252 0.02408922095676246 0.07880482219772411 -0.1973218601049423 0.08142440195056219
-0.2128555811680384 -0.059588747573396494 0.09262631113707454 -0.11321263792206421 0.02528080302429172 -0.06490102571086108 -0.06401581461198419 -0.09626257621138672
0.11761848423022876 -0.1497109675343912 0.06695777453228617 0.10142145897266487 0.04963981253932534 0.17256807399874044 -0.15165931219246365 -0.23138077127656387
0.1039500293656165 0.03141126717818372 -0.16531099694498286 -0.17809033653839254 -0.2039224983424449 0.04112297260860755 0.01741524896929352 -0.0977990470025158
-0.021722081287853474 -0.004580150988683566 0.11380936922806517 -0.06434818770029355 -0.15277711576760458 -0.10443771292480655 -0.04519006609338134 0.04248810147610018
0.07583205853588718 -0.009159243874065847 0.15289936942929336 -0.17890576250513657 -0.09546450101177226 0.029190834158552868 -0.08227735148835558 -0.14119067428831675
-0.10279561696254867 0.148500417833273 0.061954148551674915 -0.03130929619847737 -0.13218011661673915 -0.13603909579913198 -0.018697425616541516 0.10679733900896285
-0.032675257760432785 -0.05181176549898373 0.19481115331463328 0.20783453754371167 -0.1003759122188648 -0.016712671313936337 -0.06342505519555847 0.057438854368759514
-0.24821792971564188 0.04383574165918547 -0.00422788557642399 -0.1616531196421579 -0.008241430553963777 0.14885604140068218 0.11516357825878804 0.11988219489750489
-0.07957316028655301 0.19053315659766631 -0.19684524195491018 0.24095113200185578 0.19843310125295768 0.0065218749180786335 -0.13349499850637217 0.030384168005574034
0.19865567512247323 0.01697284188017459 0.23177407586646778 -0.17635731836011204 0.07530427610311707 0.15376953366504112 0.024515686806244125 0.21283758642143896
0.07212322342690446 -0.20888905337905542 -0.06888844499000685 -0.05771710016765545 -0.0026934081562856385 0.02966067090686918 -0.00924027724106601 0.09890694892816788
-0.074063434617329 0.11073725854279935 -0.017205867525090554 0.06466680503365888 -0.04437433231781056 -0.0850876752607285 -0.03028957193899196 0.12721325121071983
0.11639221606727873 -0.16129983677648815 -0.18676601288474623 0.022248568352999962 -0.1972481354023427 0.03292189943710144 0.15736035726228018 -0.18740511066911836
0.16782716259373665 0.1742662632911225 -0.029052632518114494 -0.16430502467720132 0.22110286962974765 0.15925113669647734 -0.13813838648224008 -0.1616405796724519
0.1594148561298725 -0.13138576435706015 -0.14547257284864432 -0.028619642489306422 -0.22711725188856402 -0.007976039238781246 -0.1864342332133281 0.13455987404565492
-0.10911175262749191 0.01738047002655965 -0.04990715609665618 -0.021348625307554738 0.07137229362666107 -0.20882921459734066 0.17985334327790367 -0.011618302330102076
-0.18204537210984928 0.11005717511519159 -0.2013448663752629 -0.04016394762468326 0.08696157024612812 0.1808617077896923 -0.0004883296578772036 -0.10905358231868637
-0.1060077260906209 0.04390733758973507 -0.06677630686039139 0.17373330114568863 0.22221690907771827 0.08354834914916356 0.1202467138725913 -0.05433431555562635
-0.14916003898233166 0.12159027271548657 0.03878689730817735 0.0009953113705550415 -0.19490272616843912 0.006399747252775683 -0.006837041964807832 -0.18075546701306924
0.07893443052531206 0.049669221190352365 -0.18179543832074807 0.1522068803976994 -0.13760213062031856 0.20782308405300529 0.1472806065474704 -0.0796296531602813
-0.05593462424183436 0.1312894731717106 -0.05338918207160738 -0.18432971286836664 -0.1400598207525437 -0.15258415384773605 -0.003493613431404191 0.07866128093650249
-0.1897998765152315 -0.13439105338273746 0.17954737932020115 0.014720214584639025 0.04484804711638925 0.005424094324929537 -0.08685003049656811 -0.06296594686723471
-0.06468928286845102 -0.17411534086796215 -0.1825086539526237 -0.19380893455812837 -0.21821105439819583 -0.010274728447209776 -0.13362722801041158 0.09513601147933087
0.040273627975559355 -0.05846484031876257 0.015212621679776776 0.09367360327552225 -0.10839932361056018 -0.05156366556547566 0.06578330262496777 -0.1965321653527523
0.022902274257742338 -0.046219457459927386 0.05502992085606674 -0.13556658223087217 0.13244265236816907 0.18431574708850768 0.20287987739820193 0.1226930746031034
-0.16230253154593363 -0.21474890403283478 0.09744940946383249 0.04845805137209812 0.18626701657982686 0.19393308286971747 -0.15466614470074289 0.08076634698800159
-0.027200698272476828 0.0629158570122971 -0.04840284372850758 -0.09799324326599035 0.20135714966490326 -0.1160837885343902 0.15462236312435115 0.18096033891400048
-0.20706092226441114 -0.214088447973198 0.21275869323153532 -0.12860388903523498 -0.11260570022644807 0.14967759237594094 0.10416725597648077 0.1944397305088821
00000000: cb58 b068 3e40 c2bf f784 af51 2341 c23f
00000010: 8753 6fbd 754b b33f ac00 aafa e94a b13f
00000020: 2bc1 b53b 0a0b b93f 6ccf 5256 f952 c8bf
00000030: cfbe ee10 03e1 c4bf ea3e cd06 6d08 9cbf
00000040: ae75 fea3 35da b3bf a957 9fa1 535e a83f
00000050: 7f3a 4d1f fe44 b8bf 7397 324d 0c85 a4bf
00000060: 3b0c 7a3f 17ca b1bf ac2f 65a3 3059 cabf
00000070: a03a d0fc 7e81 aa3f bf5a 33fc 94e5 babf
00000080: 100e fddd 3d8d 97bf df49 fb10 b2d8 c03f
00000090: 1d94 9da1 78ac 97bf 7e7a 43c6 d42d b3bf
000000a0: 9829 fd66 7798 81bf 6f77 d31f e6b3 bdbf
000000b0: d3b0 f4d9 1e12 c2bf 6a13 e57f 4533 b7bf
000000c0: 0b02 8691 3177 c3bf b9c9 693a c710 cc3f
000000d0: 4b4b f5a1 d797 a73f e38b 7ac7 2b0f cd3f
000000e0: 3d1a c840 d8aa 983f c837 1b86 8d2c b43f
000000f0: fae2 f7bb d741 c9bf 9659 79c7 3ad8 b43f
00000100: 61a3 f107 da3e cbbf e01d 1394 6a82 aebf
00000110: 0836 15a1 5bb6 b73f f480 5ee1 80fb bcbf
00000120: c6e4 d2f8 35e3 993f 4fae e786 5a9d b0bf
00000130: ec6d 2f26 5763 b0bf d317 a808 aaa4 b8bf
00000140: 4d86 2cb7 3e1c be3f 45d4 b49e ba29 c3bf
00000150: 9b40 d40b 2524 b13f 9973 66b9 c1f6 b93f
00000160: dc37 dfb6 636a a93f 1d43 14ed b516 c63f
00000170: e80f 0085 9269 c3bf 382e c796 e29d cdbf
00000180: e926 8b18 789c ba3f e92e 833a 2315 a03f
00000190: 3020 c626 e928 c5bf 7740 9505 aacb c6bf
000001a0: 3c53 a6e6 211a cabf 82c1 effc 110e a53f
000001b0: ae68 1993 4dd5 913f 7cad 74bc 5b09 b9bf
000001c0: 22f6 ed32 503e 96bf eb6f 50eb a2c2 72bf
000001d0: 181c d05e 9c22 bd3f 0cc9 ba71 1f79 b0bf
000001e0: d947 e655 338e c3bf 1a28 7b11 6ebc babf
000001f0: 0947 f3ff 2623 a7bf 9332 9e1c 00c1 a53f
00000200: f265 66d3 ba69 b33f 395f 29e7 14c2 82bf
00000210: 2b90 a3df 3492 c33f bc43 834f 62e6 c6bf
00000220: fe46 c68d 5c70 b8bf 293d 37b8 33e4 9d3f
00000230: 580f d8e5 2010 b5bf e3c4 4838 8912 c2bf
00000240: e7ba 0645 d050 babf 9aa3 04cb 0f02 c33f
00000250: 700e c343 74b8 af3f e56a 77a6 c507 a0bf
00000260: 3972 062f 47eb c0bf b0a3 b7a5 ba69 c1bf
00000270: fc74 2bfe 6a25 93bf dae3 5706 1257 bb3f
00000280: 0059 f0b6 cfba a0bf d578 bb5c 1287 aabf
00000290: 38f2 3066 92ef c83f 1a61 dd76 529a ca3f
000002a0: d243 495c 3cb2 b9bf 517c e362 201d 91bf
000002b0: e4d9 cfd9 9f3c b0bf b12a 1122 a068 ad3f
000002c0: c66a 34e9 9ac5 cfbf 20eb a469 a371 a63f
000002d0: 2df4 8264 4251 71bf a468 14a7 0cb1 c4bf
000002e0: 8bbb 9c15 e2e0 80bf bb60 d0fa b60d c33f
000002f0: 2cd4 4f3a 5c7b bd3f 831d 757a 99b0 be3f
00000300: cef2 1119 e85e b4bf f3ff 31f6 6363 c83f
00000310: e5e6 4892 3932 c9bf 47ea f097 7cd7 ce3f
00000320: c1a3 2980 4166 c93f eb3f b577 aeb6 7a3f
00000330: 15d9 6136 5d16 c1bf 71b6 99ff 061d 9f3f
00000340: e66c e895 8c6d c93f 289f 2e23 5461 913f
00000350: eb1b f4dd c5aa cd3f 242b 6269 e092 c6bf
00000360: b0a1 1c1b 2447 b33f f133 1b57 b8ae c33f
00000370: 3585 49e4 a31a 993f 6213 8514 433e cb3f
00000380: 5f91 e6e5 aa76 b23f 4db2 6062 e0bc cabf
00000390: 7ceb 4d52 aca2 b1bf d6b2 4783 188d adbf
000003a0: 50d9 457e 7c10 66bf bdf5 16ee 5d5f 9e3f
000003b0: 7b68 7304 91ec 82bf 195e fe3e f751 b93f
000003c0: e0c7 823d d2f5 b2bf 57d8 e3e7 4659 bc3f
000003d0: fc3d 4739 6a9e 91bf aaa1 c1f4 008e b03f
000003e0: 4675 2c84 3bb8 a6bf 6a99 894e 4ec8 b5bf
000003f0: 011e 8dc3 3a04 9fbf 19b0 c818 8648 c03f
00000400: ec96 8459 e1cb bd3f 4f0f e719 79a5 c4bf
00000410: 0312 acde f2e7 c7bf 69f8 d525 54c8 963f
00000420: 5e01 6049 6d3f c9bf 6021 cfa2 23db a03f
00000430: 696e 105a 6224 c43f 00ac b602 e4fc c7bf
00000440: c03b 5c47 5c7b c53f e0d4 d05e 5b4e c63f
00000450: 19ae 1c2a f9bf 9dbf 804d c771 f207 c5bf
00000460: 3746 0e4d 194d cc3f 3a29 fb5b 5762 c43f
00000470: 10b8 21c6 84ae c1bf 2b28 b375 a3b0 c4bf
00000480: 3884 c9bc b467 c43f 9f69 89ac 3fd1 c0bf
00000490: afc9 6c63 d89e c2bf 4e23 0fb2 774e 9dbf
000004a0: e000 9c98 2d12 cdbf d619 75dd bd55 80bf
000004b0: 45c7 40b3 13dd c7bf c3a2 3009 4239 c13f
000004c0: 25f2 2471 bfee bbbf 87a8 6999 2fcc 913f
000004d0: be02 8b46 6e8d a9bf f7c1 0afe 69dc 95bf
000004e0: 878e f762 7445 b23f 868d 926b eaba cabf
000004f0: c738 ba31 6f05 c73f bdb6 5724 56cb 87bf
00000500: 44cb cc43 434d c7bf 2455 cfff b42c bc3f
00000510: a24d 2628 abc5 c9bf 7573 0d73 5e90 a4bf
00000520: fd46 370c 1d43 b63f 8e18 07f8 7926 c73f
00000530: e30d 83f4 6700 40bf da05 9281 efea bbbf
00000540: 1ebb ae84 5223 bbbf 2e33 01c6 057b a63f
00000550: 49f0 1c86 4018 b1bf 0ccc 528f e43c c63f
00000560: 5bb2 8d8a 9a71 cc3f 92fe 3ab3 6c63 b53f
00000570: 8dc4 8817 7dc8 be3f b952 b918 b5d1 abbf
00000580: 2c4c a618 ad17 c3bf e521 d344 8a20 bf3f
00000590: a763 e74e e0db a33f 36b5 4b72 a34e 503f
000005a0: 62b8 6591 92f2 c8bf ec11 7412 9f36 7a3f
000005b0: ff60 3e7a 2801 7cbf b579 b2c1 fe22 c7bf
000005c0: 1b75 a2fd 0b35 b43f b5bd 4281 3e6e a93f
000005d0: 0826 13ab 1245 c7bf 0564 c4da 837b c33f
000005e0: 68e5 6f55 f29c c1bf 2f46 ae62 f299 ca3f
000005f0: 436c 3a46 17da c23f cb7f 1de4 9b62 b4bf
00000600: 3e5b aa8b 76a3 acbf c570 caec 17ce c03f
00000610: 525d eaad d355 abbf b4b0 39b4 1d98 c7bf
00000620: 72d2 ceee 7aed c1bf 54f9 54a7 e087 c3bf
00000630: f310 d96d a39e 6cbf 6870 154d 2523 b43f
00000640: 1679 35c3 5c4b c8bf 47b1 93dd b933 c1bf
00000650: 78a2 2195 68fb c63f 0759 d9c1 a125 8e3f
00000660: 2208 4fbf 52f6 a63f 169f c63b 9337 763f
00000670: 46ad a3b8 cd3b b6bf 4b73 8e4a 891e b0bf
00000680: 4a5a 5212 7a8f b0bf ca40 6157 6949 c6bf
00000690: f753 fb8d 715c c7bf 1ec5 cc2d bbce c8bf
000006a0: ee09 22ff 56ee cbbf 7e95 3fb5 ea0a 85bf
000006b0: 0f76 146f b21a c1bf 5cc1 f969 d55a b83f
000006c0: 63b4 17b6 be9e a43f d517 4582 1aef adbf
000006d0: 82f9 ce84 cb27 8f3f db1c 9146 fefa b73f
000006e0: 4add d0dd 0ec0 bbbf a2fc 8782 8d66 aabf
000006f0: d7a8 65ad 2cd7 b03f 60ac 664b f727 c9bf
00000700: 539c c39b b173 973f 6f60 75a4 13aa a7bf
00000710: 42ad c1bc e12c ac3f fd58 8eea 3e5a c1bf
00000720: f325 427e e1f3 c03f 6e04 f18c a897 c73f
00000730: d18b 38c3 f7f7 c93f 4fb3 dd36 d068 bf3f
00000740: 171e 8650 54c6 c4bf 8920 d65f e47c cbbf
00000750: 6e63 a9ca 71f2 b83f 2efa bd63 7ecf a83f
00000760: 1255 44fc 98d7 c73f b9d9 449c ccd2 c83f
00000770: 47e0 a4a8 19cc c3bf 824c ee72 1aad b43f
00000780: fcdb 08f6 7fda 9bbf 4a83 44ec 401b b03f
00000790: 63d6 b1ed 41c8 a8bf 4870 0ecf 1516 b9bf
000007a0: 5c32 5032 12c6 c93f 33da 59cb aab7 bdbf
000007b0: abb6 6c64 aaca c33f 5a1d c158 b529 c73f
000007c0: 0adf b3e8 f880 cabf 3386 3f11 4067 cbbf
000007d0: 0140 af46 ad3b cb3f 47ba c59c 1776 c0bf
000007e0: 95d6 d027 bad3 bcbf 856e 19a6 a228 c33f
000007f0: dea8 bb8d b4aa ba3f e912 caad 66e3 c83f

hidden_layer2.bias f8 [20]
0.1269308686512144 -0.1438909250034185 -0.0775091481732573 -0.15984758791906983 -0.21073430916214173 0.0995114313651896 0.14758400286517945 -0.007591315932548922
0.06707902462739013 -0.020594095780631132 0.0762776170921494 0.24081822387082105 0.22548922862063175 0.16374731480486307 0.009813920301697268 -0.21356040685511876
-0.07940656569087916 -0.008273282335246863 0.0496222962231327 -0.04937947399028305
00000000: f4db da4c 453f c03f fc59 8a90 046b c2bf
00000010: 6282 8bb8 a3d7 b3bf 5c7b 3ac1 e275 c4bf
00000020: 038f ff82 57f9 cabf c9a8 4ac7 9479 b93f
00000030: e3fe db58 08e4 c23f 0957 9f5a 1218 7fbf
00000040: 28b0 0549 172c b13f ab58 795f 9e16 95bf
00000050: 17dd d30e ee86 b33f 732a e7ad 21d3 ce3f
00000060: 0e50 43bf d4dc cc3f a585 f208 acf5 c43f
00000070: c843 ee15 5219 843f 63e3 9489 f255 cbbf
00000080: 63e1 ba1a fd53 b4bf 57d2 7b28 95f1 80bf
00000090: 1a8f dcf6 1768 a93f bb8e c333 4448 a9bf

hidden_layer3.weight f8 [20, 20]
0.19401495593222803 0.09149113590556501 -0.0026217593295586386 -0.10732299876859175 0.12440085965128643 0.07540763836505136 -0.09745546869002192 0.13767092224381774
-0.05059430727981168 -0.26828662493865535 0.0031802488029534096 -0.09436029501090701 -0.08188191341300104 -0.1005896843119615 0.02039468612635265 0.24001079812058773
-0.07204835881835374 0.20498995013090385 -0.17364043860032344 -0.08772538109334652 0.11929368848510417 0.11504009027920283 -0.2524651761158772 -0.24380163766714735
-0.11079922400046671 0.22951537599066824 -0.14290152670454304 -0.1659815045617389 0.08587802374397083 0.19251252025924873 0.1485176378289296 0.09826620983515831
-0.10486516752595522 0.14951886516934085 0.012334613528152483 -0.18330841922257568 -0.09078699907890254 -0.1185719540610327 -0.1887135189596601 0.18331256852564193
-0.15817873736422708 -0.1733528109914552 -0.11388085122283174 0.009578382084324905 0.20965900319053293 -0.04285524376677925 0.16455675947912887 0.0007311025164981952
0.1440926136913184 -0.1746346320043677 -0.20812797635655347 -0.021467042061810628 -0.1089060897738067 -0.11909457919101404 -0.18109226438582263 -0.14957365821856877
0.06883358039559334 -0.11451396146929108 -0.10744817349760753 -0.02489433708816703 -0.19103776294062097 0.05718688908307922 -0.14566754159661935 0.22273435299580926
0.05742404976685313 -0.11406437562564137 0.11219155213764978 0.18991222581162853 0.1380252012838489 -0.020945447866294986 -0.2078950671830704 -0.003288595118390405
-0.1466472420036515 -0.14010891915518592 -0.16051205163121654 -0.0501584871420428 -0.028796196077632338 -0.1118122955946157 0.08850341625754443 -0.042339559341061844
-0.03880325622215973 0.0650537919862828 0.11945506494950828 -0.08805568775986171 -0.14959093401081267 -0.12206061070315503 0.06843592671780435 -0.15381914690425355
0.13829107841282762 -0.1419239176910417 0.1321691417863174 -0.026602644080919703 -0.144520167500567 -0.1460546314407995 -0.01370192939811937 0.1700978977707243
-0.2298124210485042 -0.10249538784443758 0.13165317778813912 -0.09802078715400675 0.14622858924383866 0.13850680350087302 0.1067256558584289 -0.02125678798714398
-0.0996801547635236 -0.05470717502923911 0.14796376009892023 -0.17436155374494 -0.057175979381432096 0.14860432080531388 0.1939358074690696 0.08745026362318838
0.048169122699644296 -0.1918786189403628 -0.05225212111561617 0.019681659861895216 0.175501790849309 0.11879122937190548 -0.1023597465059486 0.16999927632179807
0.14908495502376246 0.15324610585679282 0.0645201112965446 0.10971575439564757 -0.0917390176318738 0.19813348877560924 0.14848526317681524 0.09644048855918812
0.13757209137495968 -0.08166870667009274 -0.20243351363446976 0.1700849421119726 0.06633314259519167 0.1087580869185479 0.14747107167743437 -0.10330966357963095
-0.03717625777417027 -0.17763920213404416 0.1702561180946617 0.09781646889436738 -0.15858434665924032 0.13549380028298494 -0.14309401846536407 0.03712910811432809
0.15705843274454803 0.04027391538096241 -0.10584078393199223 0.14945733908942774 -0.17573947262126316 -0.06991606693788352 0.07313942455943297 -0.10145625742346458
0.14030431799606635 0.09291256639693156 -0.10964333906659915 -0.18247959509593506 0.10760855997678473 -0.012713507169048848 0.13420603699984968 -0.22616156903979454
0.1432738492219809 -0.1801728756824571 0.17900354369494179 -0.18246453270031285 0.014873900489079783 0.005601751747994084 0.010316125137482266 -0.07382098557290327
-0.13453038651564633 0.027106609100920224 -0.011735736776469179 -0.21034725270471402 -0.20282088157836095 0.12702500976250147 -0.03667915904962228 -0.05200685293880052
0.21143322787384072 0.1550903691359497 0.05079487473769953 0.09679449710092194 -0.0531011161532147 -0.1728009221838767 0.13731137295785606 -0.1436668658816986
0.08190610158228902 0.02285995303091884 -0.13054363889744167 0.20330814715271575 -0.054298864552048784 0.14582084792565614 -0.06836959257213883 0.07659369087851506
-0.18347054687131878 0.04501749533296898 0.05218451210543932 -0.1896571756730557 -0.21115881915406068 -0.16516448999236463 0.05380560488432325 0.22607326012791487
0.17828022921456377 -0.016087809310308815 -0.00876808573263151 -0.07917350754081993 -0.10505248970671394 0.01752031259893866 -0.006211688574558183 -0.18016227593722445
0.03306762294052591 -0.05812708153369539 0.10916777824918475 0.04384069648233361 -0.1433671362904093 -0.031415092372015896 -0.14885944944457594 -0.13008949098595562
0.10817939830705557 -0.12484214819064124 -0.025455111503915592 0.056751529488995076 0.060860496128162155 -0.016100518409240087 -0.0669526325153139 -0.12008543095538945
-0.17819813643501556 0.056893287622955445 0.2034237528442059 0.2026097875311183 0.19339199084780787 -0.12163292281632561 0.22682924992958634 -0.0991752144548848
0.0861517683149128 -0.01849684799841014 0.05042221408289222 -0.016640223485583513 0.10760736169322872 -0.052767465186942884 0.12451478419000873 -0.1946891665836998
-0.21533622357699117 -0.09872765953498858 0.04301573335824668 -0.15554321181806097 -0.011756475609909056 0.03986308633461591 -0.08150822098973463 0.17497700116868936
-0.09045241986634096 0.019716941957405313 0.051349400242251104 0.2125098993246948 0.16989532626919948 0.22365275499831044 0.13327466707465987 0.0008042204658313146
00000000: 6bf7 5469 7bd5 c83f 609a 968c f66b b73f
00000010: d08e 8252 3a7a 65bf 20db d121 8579 bbbf
00000020: 6feb cb17 bcd8 bf3f 6780 a53c ea4d b33f
00000030: fc09 d772 d7f2 b8bf 91dc 5266 339f c13f
00000040: 88d9 423e 7fe7 a9bf 2135 04aa 9b2b d1bf
00000050: e22c 4213 770d 6a3f aedd 1c0d ff27 b8bf
00000060: 6b24 3e8c 36f6 b4bf 9a51 6fdc 3ec0 b9bf
00000070: 0111 b337 58e2 943f 32b1 4e80 acb8 ce3f
00000080: 1bf5 dae0 c271 b2bf 5913 e955 1c3d ca3f
00000090: 1197 8692 d939 c6bf 2237 d3aa 2b75 b6bf
000000a0: f3a8 a9fa 078a be3f 6162 7a71 4473 bd3f
000000b0: 0dfb b2b2 6328 d0bf 0cee 3e5e e434 cfbf
000000c0: 2012 8183 565d bcbf 668f e784 c260 cd3f
000000d0: 384b dfe3 984a c2bf 8db1 eac6 e13e c5bf
000000e0: 5aeb 6c27 1afc b53f ddc0 4a11 40a4 c83f
000000f0: cd5d ad3e a002 c33f 9f3b 8b6d f927 b93f
00000100: 4977 0391 71d8 babf f7c7 0426 6f23 c33f
00000110: 4d9d b2cd e342 893f d43a d278 a676 c7bf
00000120: 7124 f217 d13d b7bf 273a ea48 bb5a bebf
00000130: 2256 1fbc c327 c8bf ccb6 6147 c976 c73f
00000140: 6572 f36b 333f c4bf 4d61 f0c6 6c30 c6bf
00000150: 3f88 a4a3 4b27 bdbf f0f8 67ae d49d 833f
00000160: 4ef5 0131 1bd6 ca3f 5a7f e15c 1ff1 a5bf
00000170: 6938 2626 3210 c53f 3b37 feb2 eef4 473f
00000180: b31e b373 a071 c23f b197 9a78 6d5a c6bf
00000190: 6dc2 ea01 f0a3 cabf 47ab 63ce 74fb 95bf
000001a0: daea e9fd 44e1 bbbf 0e9c c17a fb7c bebf
000001b0: b13f 8c04 082e c7bf a227 32c9 3a25 c3bf
000001c0: b468 aad8 139f b13f aa2d 7277 c950 bdbf
000001d0: 9be9 2f37 b981 bbbf 24dc 98ae e67d 99bf
000001e0: 8ec3 10e8 ec73 c8bf 2f5d be94 9947 ad3f
000001f0: 7983 9fe7 3ba5 c2bf 3907 e82c 8f82 cc3f
00000200: 1249 815f af66 ad3f ec66 f3aa 5233 bdbf
00000210: 5295 51e7 95b8 bc3f 7e5a 7c37 0b4f c83f
00000220: 7ddb c44e cfaa c13f 90de 5736 b972 95bf
00000230: 8187 4639 4e9c cabf ecf6 760f aff0 6abf
00000240: df25 3a3a 56c5 c2bf 9220 d3cc 16ef c1bf
00000250: 255a 2fae a88b c4bf 79a8 c88b 5fae a9bf
00000260: 2f4c 9c01 c07c 9dbf 709b de08 bb9f bcbf
00000270: d011 69ee 28a8 b63f a4d1 64dd 87ad a5bf
00000280: 0eac e738 05de a3bf d0d6 0f85 5da7 b03f
00000290: beb8 4c6d 9b94 be3f dfc7 274b d18a b6bf
000002a0: 6361 adb4 cb25 c3bf 038f 193b 5d3f bfbf
000002b0: 24da 1f53 0485 b13f dfe7 b986 58b0 c3bf
000002c0: 144b 8ea5 85b3 c13f 8369 801c 902a c2bf
000002d0: 8a9d c11e ebea c03f fa3a 4239 b93d 9bbf
000002e0: 1a81 8308 a37f c2bf 3ed9 bb0c ebb1 c2bf
000002f0: 9f95 41d5 c10f 8cbf 1595 0596 c4c5 c53f
00000300: 9817 4f50 7e6a cdbf b95e c842 233d babf
00000310: 28dc 81e6 02da c03f 3896 27eb e317 b9bf
00000320: c970 4550 9eb7 c23f d2a5 a747 97ba c13f
00000330: c35c 8e61 5f52 bb3f d122 e4e4 56c4 95bf
00000340: 6401 c57c a384 b9bf b8d9 362f 9402 acbf
00000350: 551c 4ffb 79f0 c23f 64d3 81b9 7a51 c6bf
00000360: 18bb 1e83 2b46 adbf 4a99 f364 7705 c33f
00000370: 512f 4d77 e3d2 c83f adc5 49f6 2363 b63f
00000380: 380e 588d 9fa9 a83f ba43 9384 7a8f c8bf
00000390: e028 ad3e cac0 aabf 0958 c0d5 6d27 943f
000003a0: d629 0bba d776 c63f 4a37 341d 1a69 be3f
000003b0: 897e ab93 3f34 babf 3ea9 124a 89c2 c53f
000003c0: 5e8b 133f 3715 c33f be77 7282 919d c33f
000003d0: d3f3 f3d7 6384 b03f f43a fce8 5416 bc3f
000003e0: 23fe 7e50 357c b7bf d14d 442b 705c c93f
000003f0: d924 a4aa 9001 c33f c339 5fe8 52b0 b83f
00000400: 821d a658 f69b c13f c031 4188 3de8 b4bf
00000410: 5253 5664 57e9 c9bf 61dc f4e7 57c5 c53f
00000420: 3356 1676 35fb b03f c59d 7dea 91d7 bb3f
00000430: a9f6 fa02 55e0 c23f 546e 6f8a 8072 babf
00000440: d7cb a736 c408 a3bf cc9d d3a1 e1bc c6bf
00000450: cd8a 94d5 f3ca c53f aa58 e906 800a b93f
00000460: 228c 47eb 7d4c c4bf bb59 8360 dc57 c13f
00000470: 44ee c7a0 e750 c2bf db4f 2922 9602 a33f
00000480: e573 19a0 7d1a c43f a6de e25a c89e a43f
00000490: 1627 92b1 6118 bbbf a5a4 c407 6b21 c33f
000004a0: 8226 c38b a17e c6bf 6e91 f6f4 04e6 b1bf
000004b0: 2df1 87ec 43b9 b23f 03bc 9b8b 09f9 b9bf
000004c0: a0ed a3ec 7df5 c13f 97ef 0f32 1ec9 b73f
000004d0: 8ee9 83fb 9511 bcbf 21eb 8fca 7d5b c7bf
000004e0: b6b4 de0d 3c8c bb3f 4376 110c 8a09 8abf
000004f0: 1089 ebd5 a92d c13f cba8 51bf dcf2 ccbf
00000500: 8ee5 6328 cc56 c23f c459 57a0 e70f c7bf
00000510: 51d9 048f 96e9 c63f a55a 5070 ff5a c7bf
00000520: c602 5121 3576 8e3f 2e58 edc8 dcf1 763f
00000530: 4508 b2e0 9e20 853f 9f4a cb9e eee5 b2bf
00000540: 8d93 33ad 4a38 c1bf 8129 60be d5c1 9b3f
00000550: 69f8 31ed e708 88bf edc8 95a5 a8ec cabf
00000560: ef97 a9de 08f6 c9bf 7a1d 5a03 5b42 c03f
00000570: c235 2059 9cc7 a2bf c77e 1469 a4a0 aabf
00000580: 12c0 8077 3e10 cb3f 3e86 ae4f 00da c33f
00000590: 540d 9b2b c901 aa3f aa31 7b2f 86c7 b83f
000005a0: e5af 84ca 1130 abbf 49cb bf32 571e c6bf
000005b0: 5e86 1c48 6b93 c13f 0788 3d05 ad63 c2bf
000005c0: 6d87 a35b ccf7 b43f 48a2 9f7a 9968 973f
000005d0: d7f6 e169 a7b5 c0bf a500 8459 0006 ca3f
000005e0: fe05 ec8e 0fcd abbf 1635 75ee 41aa c23f
000005f0: d15f 236c ab80 b1bf 3635 67e5 a49b b33f
00000600: e3b7 4b7f f67b c7bf 05e7 677c 880c a73f
00000610: f57e b3a9 edb7 aa3f 13d7 7bb3 af46 c8bf
00000620: 6dab 438f 4007 cbbf 1b26 7d29 1c24 c5bf
00000630: 4bab a382 688c ab3f 75ef 5ff5 f7ef cc3f
00000640: e0fd fff4 e2d1 c63f 9882 689b 5279 90bf
00000650: eaeb c28b 00f5 81bf 3df1 9809 b744 b4bf
00000660: bc59 a74f b8e4 babf b036 8346 d8f0 913f
00000670: cd99 7d74 6d71 79bf 84c8 8fb5 8e0f c7bf
00000680: 920a 2c4e 3dee a03f a0f6 6534 d5c2 adbf
00000690: 5673 5b65 6bf2 bb3f 953f 40ab 4972 a63f
000006a0: 3420 d8b4 da59 c2bf 9060 ad94 a315 a0bf
000006b0: 8b52 8891 d30d c3bf 7a42 abbe c5a6 c0bf
000006c0: 3f6b d421 a5b1 bb3f 0225 a4af a7f5 bfbf
000006d0: 2c8f b39d e710 9abf fe71 4e56 890e ad3f
000006e0: d342 fa60 1b29 af3f 5eb9 1080 a77c 90bf
000006f0: 17cd 08c7 ce23 b1bf 56f1 ad36 ebbd bebf
00000700: 2728 1950 32cf c6bf 13b0 67f3 1d21 ad3f
00000710: 8d04 d91e ca09 ca3f 3ed8 a515 1eef c93f
00000720: 0ff5 ff99 11c1 c83f 45ee 9cd1 5523 bfbf
00000730: f1a4 1ca9 bd08 cd3f 0353 a8fe 8b63 b9bf
00000740: e9b5 67d3 0a0e b63f 27d4 ed74 d6f0 92bf
00000750: 99b3 f4c0 f0d0 a93f ecc2 ac7e 220a 91bf
00000760: b100 48f3 278c bb3f 339e 8a52 5604 abbf
00000770: 11ef f66d 33e0 bf3f f765 ae19 93eb c8bf
00000780: 1a23 f42a 2390 cbbf 7cd4 e944 3746 b9bf
00000790: 8c68 f97f 2806 a63f acca ef07 d7e8 c3bf
000007a0: 6014 1672 c713 88bf c4e5 3f38 ef68 a43f
000007b0: 8f8c 8107 b9dd b4bf a22c c978 a565 c63f
000007c0: cd84 2bc9 e327 b7bf 1168 8993 ad30 943f
000007d0: 915b 6bf5 774a aa3f 2981 d63d 8633 cb3f
000007e0: 1de4 084b 21bf c53f be63 304a a7a0 cc3f
000007f0: 2948 3cf0 240f c13f 150d bd4c 4a5a 4a3f

hidden_layer3.bias f8 [20]
0.18749644278309552 0.08042669147913693 0.05712890273428424 -0.1935417774590988 -0.01877775144794469 -0.06035062658039683 0.14866394054127124 0.13903045191091395
-0.11196422692444269 -0.03311727598323558 0.10798971153195652 -0.18513163662978513 -0.18585369608352245 -0.15410217275477153 -0.2153373239412274 -0.1524738983605417
-0.13446483975509474 -0.16975510796787308 0.07716604485987422 -0.08047746516322546
00000000: 5453 ef28 e2ff c73f 2fdd a0f9 d796 b43f
00000010: fadb cce1 ff3f ad3f 675b 4c1a fac5 c8bf
00000020: e002 7291 793a 93bf 646d e9fe 46e6 aebf
00000030: 5610 5c85 6b07 c33f 3e80 0df6 bfcb c13f
00000040: 1c60 f604 b0a9 bcbf 34ab 8f62 bff4 a0bf
00000050: ec8f 55b7 36a5 bb3f 33d3 63ba 64b2 c7bf
00000060: 697d 42cd 0dca c7bf 67b5 1cb8 9eb9 c3bf
00000070: fcc5 f765 2c90 cbbf 34e0 79c3 4384 c3bf
00000080: b1e1 9ad4 2436 c1bf fc85 860e 89ba c5bf
00000090: 88ea 0867 27c1 b33f 84e7 f0d0 2b9a b4bf

hidden_layer4.weight f8 [20, 20]
0.14274011462758393 -0.07702658047421933 -0.22536721242767221 0.17098498390818678 -0.04619856598508905 0.11069221486680646 0.01583542384903376 -0.1787591990536569
0.13876802818557415 -0.05642144759982624 0.07331002408989604 0.05935856265114479 -0.019230069801602512 -0.19622408007933262 0.18128942112432567 -0.14844491964298828
0.056238490198313736 -0.16579280008710703 0.13645433722134326 0.15477970620321907 -0.002361928816181456 0.021189502412622938 0.19944190373296766 0.04081652345297589
0.20917416608080194 0.10032264759388364 0.0024983972201615186 -0.1624975970188246 -0.03695407661101896 0.19202272337928303 -0.23153061614367879 -0.161802125110318
0.11421982046420998 0.18552203853725147 -0.10504676484703539 -0.04665452165664375 -0.037934405695212586 -0.15290895100648783 0.07367541101945774 0.05556089333977108
-0.004410443867565092 0.1636705015087825 -0.12516813319076042 0.16976081193679368 -0.13695378494956412 0.11987375020693171 -0.055621380383683035 0.05538678135930022
0.028042449771297634 -0.08259266865128824 0.13321412454467224 0.029854965965106308 0.05986614482061222 0.0576619191864501 0.022128574733258126 -0.06137032524067455
0.22331373761822476 -0.12887910021433302 -0.24951533163631817 0.13970157767333252 0.1705223005716741 -0.19395483333592983 -0.19391808126731871 0.1383877194831226
-0.0663295484212265 0.10772665692439665 -0.07046680116294839 -0.10653642378593636 0.015670208842473877 0.1946265349492175 -0.08653704046324454 -0.08771519592841447
-0.14357408332208138 0.07814775497651318 0.09090304104243205 -0.17397265927045175 -0.10018044819944687 -0.13324568524896319 0.13002694219059857 0.011343993663646731
-0.09436346726719298 -0.34932196424779477 0.12396904651584241 0.14895523747412043 0.07688272229521868 0.033571974605263406 0.2016807003829457 -0.06115319560201561
0.10054139085679487 -0.0702089844843777 0.22845795811176992 0.09211326286314055 -0.1672023561993777 0.13486531497141885 0.09975178194121397 -0.06545316575377583
-0.04269223422642368 0.04132968170757193 0.02534050993631634 0.18714593333900773 -0.12513269211951444 0.08304898262247667 0.09504779959127388 0.09261126482882204
0.13416640569664753 -0.05490707642348387 -0.009221107361682782 0.14350786109360758 0.19399652055423766 0.17676491515372653 0.12278882741976264 -0.1363115973793906
0.017795668155156676 0.07604041708982258 0.18332499732056243 0.058610158609968724 0.14272775418794872 0.17055952710803257 0.1233290629142838 0.07125601888101918
-0.12204873146199856 0.08199647023150138 -0.08481353752979448 0.16659737326747887 0.05152586353152073 0.10745595408271401 -0.009919261553085569 -0.02581824878645201
-0.07336065994826801 0.07700740182968094 0.02002068630110931 0.06056612722088897 -0.053470555901370516 -0.05356108156503963 -0.12341287875923918 -0.0998686799470672
0.07878456856393161 -0.09660923540732967 -0.10215079614559648 0.09638703129648535 0.04466734655187562 -0.18449505857561546 -0.0995791612613454 0.16509570209561542
-0.08232800816605969 0.0010595695653029115 -0.09439258288388797 -0.043980304716048066 -0.20083580301018739 -0.18083369304055616 0.22032611880564767 -0.032248856234886734
-0.027875181651024837 -0.07727937933077501 0.155805766991869 -0.007743996641777292 -0.11862211929279727 0.08824092576713645 0.027799921262916204 0.1820067354500509
-0.054820086991795546 -0.063752640796845 -0.19806790287341652 0.056818067280277176 -0.03634732228320592 -0.10160967211224953 -0.16285185852363562 -0.08023982523342735
0.2315751552059813 -0.08860548649945672 -0.00029036280258687343 0.001441019075203625 0.14409603550299338 -0.06896440336535367 0.023748759583849522 -0.001536989877584831
-0.1781340728274493 0.025352547825206188 0.2065150091720568 -0.16557076154319258 -0.021801462101804614 -0.1419406427919676 0.04518349995280397 -0.12203977064654874
-0.18249617928633552 -0.17315288137983043 0.18175754064522587 -0.20184840711102803 -0.14169063945397029 0.15507971129148707 0.1486817737084053 -0.18197999386847843
0.17459874737901088 -0.037378199020754815 0.024350105722925185 -0.18065176868142566 0.2085551748821062 0.19949830601711369 0.13903695835839186 -0.030960641594809078
0.16386188914898933 0.010433790976738458 0.1699395422565913 0.1429585959330286 0.14903822665648303 0.018287735981956037 0.20921157714773292 0.13496431659271238
0.0967168190758999 -0.11482121523330018 -0.031079807441339008 -0.18578914318312467 -0.07918224828549647 -0.06420987412517866 -0.08410072599244153 0.1550535340211422
-0.05865871956231986 -0.09100048340744948 0.02613670914466185 -0.09254054454046282 0.023964497094411258 -0.14842250176871308 -0.02482947805794269 0.06997557144728721
0.1765624011339102 0.1549165680079383 -0.024421265280682596 0.12031379622323965 -0.11012566669423014 0.2013974785238541 -0.1946062286152162 -0.06475322778869247
-0.06320487910772529 -0.04655318525359886 0.07501630964657785 -0.13744348487284044 0.16205296081234585 -0.20228546397063127 -0.14696397176663517 -0.011927994843884787
-0.06310287122039718 -0.10163021545662593 0.015050871667177397 0.11817700211456293 0.15825927187046893 0.15290968810735353 0.21777001234080304 -0.0033082099077669253
0.09839587693154264 0.1914073951861632 0.11692161541641287 -0.10631250965505562 0.14891160855907543 0.1470466976125435 0.04670506878222382 0.16889385345635258
00000000: c78d 13de 4e45 c23f 5b3a 0f94 03b8 b3bf
00000010: 40d8 7b33 d5d8 ccbf 6212 ff00 d6e2 c53f
00000020: 4a5d 0ea4 56a7 a7bf 4755 c632 5356 bc3f
00000030: 9418 334e 2937 903f ccb5 e5d8 94e1 c6bf
00000040: 12cb 6497 26c3 c13f 2ded 77a0 45e3 acbf
00000050: 1e61 ef1b 72c4 b23f fd01 a6da 3e64 ae3f
00000060: 6d39 9723 0cb1 93bf 0670 50e3 de1d c9bf
00000070: f07c 6be3 7d34 c73f aade 8f3d 3e00 c3bf
00000080: a139 5b98 4acb ac3f 73a8 24cf b238 c5bf
00000090: ccaa e1f1 5577 c13f a218 1d48 d2cf c33f
000000a0: e2dc abe0 5259 63bf b9dd 856f b3b2 953f
000000b0: fc16 fef2 4f87 c93f abe0 bb42 e7e5 a43f
000000c0: 4f18 3e15 38c6 ca3f bfbf 76ba beae b93f
000000d0: ccdd 4bcb 8477 643f 9ced 6fa4 b8cc c4bf
000000e0: b814 ff0c a5eb a2bf 375e 805a 3394 c83f
000000f0: e90e 2e94 cba2 cdbf b4d4 e299 eeb5 c4bf
00000100: d0e2 7299 823d bd3f 2435 1aa8 2fbf c73f
00000110: 0b91 9143 58e4 babf 319d 73f9 19e3 a7bf
00000120: 1451 b56f 236c a3bf 0055 eb3f 8592 c3bf
00000130: e011 d948 64dc b23f 9d66 a937 7a72 ac3f
00000140: a3a8 c082 af10 72bf f96a a6ad 27f3 c43f
00000150: ca20 4767 8205 c0bf 8799 b4e7 b8ba c53f
00000160: 60fd b59d b387 c1bf 19a3 c9cc 0bb0 be3f
00000170: 719f 69d3 677a acbf 7346 23fd a75b ac3f
00000180: f876 abf2 28b7 9c3f 4924 bf0a cb24 b5bf
00000190: 066f 2412 290d c13f e7f6 c5d9 4c92 9e3f
000001a0: 2bc5 487c c6a6 ae3f 8ac3 42f2 dc85 ad3f
000001b0: 5e4f 2583 dfa8 963f 8208 b567 ee6b afbf
000001c0: aead e867 8b95 cc3f d87b 4740 1c7f c0bf
000001d0: 2242 9d4e 1ef0 cfbf 963d a7c5 bde1 c13f
000001e0: bad5 18bc acd3 c53f 021b 0a11 83d3 c8bf
000001f0: d1b6 92c4 4ed2 c8bf 5d8c ac54 b0b6 c13f
00000200: 0f45 3a29 f9fa b0bf 60cf 6564 f993 bb3f
00000210: 53d7 72be 1c0a b2bf 044f fe97 f845 bbbf
00000220: cde9 ffe9 d90b 903f 5635 45b5 85e9 c83f
00000230: daa8 ae9e 4a27 b6bf 17f1 dfc9 8074 b6bf
00000240: 52f4 35b4 a260 c2bf 1944 e1c3 7d01 b43f
00000250: 5e5a 62f4 6b45 b73f a67c fb70 bc44 c6bf
00000260: 631a b704 6da5 b9bf a81b 3dd2 310e c1bf
00000270: 465c 270c b9a4 c03f 58c6 540e 853b 873f
00000280: e589 d945 3428 b8bf 2900 0e83 4a5b d6bf
00000290: f978 8078 6fbc bf3f 2477 c218 f710 c33f
000002a0: 83aa e209 96ae b33f 81c6 fb89 5830 a13f
000002b0: 3787 3056 acd0 c93f 1227 50be 784f afbf
000002c0: 4cd1 9fa1 14bd b93f 06eb 3e4c 37f9 b1bf
000002d0: 3bed 4c41 1c3e cd3f 0569 861b bc94 b73f
000002e0: 5361 d805 e366 c5bf b45f 9542 4443 c13f
000002f0: a3bd 2731 5589 b93f c206 55e6 89c1 b0bf
00000300: f460 97ab c1db a5bf 4583 93fe 2929 a53f
00000310: 2803 c3d5 dcf2 993f 979d a2df 65f4 c73f
00000320: 0229 281a 5904 c0bf 4c61 54b8 b242 b53f
00000330: ea20 cd76 0d55 b83f 1455 ae31 5fb5 b73f
00000340: 2530 5862 5d2c c13f aa9c 1dc3 c71c acbf
00000350: f520 6914 84e2 82bf a0d7 0e31 775e c23f
00000360: 2cbc a8c3 e0d4 c83f 212e d594 3ba0 c63f
00000370: 7302 15ae 166f bf3f 25ae 678e a872 c1bf
00000380: 278d f212 0739 923f 6132 9380 6277 b33f
00000390: 31fb 038a 3177 c73f 9ae9 e294 2602 ae3f
000003a0: 8d00 3c2e e744 c23f fca0 7903 e5d4 c53f
000003b0: 10f9 dc53 7e92 bf3f f0b4 bc9e d53d b23f
000003c0: 27c7 25ee 953e bfbf d91f 087e b8fd b43f
000003d0: 40d3 f209 57b6 b5bf 0a44 e40e 1053 c53f
000003e0: 7936 8815 9961 aa3f 3fb5 8bc0 3b82 bb3f
000003f0: 548d c4bf 8c50 84bf 0212 b658 1970 9abf
00000400: 1871 4aa3 c3c7 b2bf 928d 68d0 c1b6 b33f
00000410: 5f80 a083 4d80 943f b474 51ff 8502 af3f
00000420: 3168 ca21 7e60 abbf 270a 52ab 5b6c abbf
00000430: dc17 2d86 fc97 bfbf b370 446a fe90 b9bf
00000440: bb5b 69b9 392b b43f 67e8 9002 62bb b8bf
00000450: bda8 b4f8 8d26 babf 7c4b 2d0b d2ac b83f
00000460: fb5f 4771 a3de a63f 3d8d 6db9 889d c7bf
00000470: db07 fb18 057e b9bf 60fc 9a20 db21 c53f
00000480: 5938 9ec6 7213 b5bf 3e3d 5f28 285c 513f
00000490: 08a5 78c0 1c2a b8bf 5eda d824 9684 a6bf
000004a0: 32b7 e5d2 fcb4 c9bf 3be2 cff6 8e25 c7bf
000004b0: 74c8 5c71 a533 cc3f 1378 b90d ec82 a0bf
000004c0: 16ae 3ec6 4f8b 9cbf d97f e1d6 94c8 b3bf
000004d0: 1c0f e180 71f1 c33f 967a 1145 2bb8 7fbf
000004e0: c5dc f1ea 045e bebf 75af 5612 f596 b63f
000004f0: a355 9f22 9577 9c3f cd70 3428 ff4b c73f
00000500: 9357 96e1 6011 acbf c48e 41d3 1752 b0bf
00000510: b243 9dfe 495a c9bf 02d9 94f9 4117 ad3f
00000520: 30d0 01c1 1d9c a2bf d4ec ad6a 1703 babf
00000530: b1d5 3967 54d8 c4bf 12de 36e1 988a b4bf
00000540: 1181 1633 41a4 cd3f ede6 c262 d9ae b6bf
00000550: f0c7 b7bd 7a07 33bf 4a23 4273 129c 573f
00000560: 76fb fb27 bd71 c23f 36d7 0ab1 a6a7 b1bf
00000570: 0dcc ee46 9851 983f 146d 8b50 9a2e 59bf
00000580: 4c70 8ce8 18cd c6bf d13e 1eaf 04f6 993f
00000590: cd78 4375 156f ca3f db3b 0037 6c31 c5bf
000005a0: d0ce ed5a 1f53 96bf 50e2 6169 1c2b c2bf
000005b0: d972 3bad 4a22 a73f 1bff bc97 ff3d bfbf
000005c0: 7f02 d7e8 085c c7bf 6005 5ea5 df29 c6bf
000005d0: 88b2 6fc2 d443 c73f d051 a529 2bd6 c9bf
000005e0: 1f54 4d3b eb22 c2bf 4a91 22e8 a6d9 c33f
000005f0: 3460 cb1d 0108 c33f a57f 18d5 1e4b c7bf
00000600: 662c f572 4059 c63f 744a c13c 3c23 a3bf
00000610: 83b9 efee 3bef 983f 8dc3 39df 981f c7bf
00000620: d1dd c39b efb1 ca3f 33b7 f915 2989 c93f
00000630: 66d4 8a8a f6cb c13f 6997 737c 25b4 9fbf
00000640: ef53 7a27 6df9 c43f 7baa 25b8 4f5e 853f
00000650: ca06 2534 94c0 c53f a772 1b9f 774c c23f
00000660: 84f5 ab42 af13 c33f ce6e d72f 05ba 923f
00000670: dea4 e5e8 71c7 ca3f a943 f2be 8246 c13f
00000680: a875 e7f6 6ec2 b83f 6362 5054 ec64 bdbf
00000690: 482a 1b92 62d3 9fbf 6031 f64a f0c7 c7bf
000006a0: 8059 cfae 4945 b4bf d1aa 72ed 0e70 b0bf
000006b0: be17 b50b a087 b5bf f400 e050 cbd8 c33f
000006c0: c571 4a04 8408 aebf 48ba 27c4 ce4b b7bf
000006d0: 896b 01dc 94c3 9a3f 32f6 5ab4 bcb0 b7bf
000006e0: f86f 242d 268a 983f e826 8b2f 82ff c2bf
000006f0: a744 f110 e66c 99bf 0390 e246 ebe9 b13f
00000700: 7064 49c5 9899 c63f 98f0 995c 4ed4 c33f
00000710: 8b73 d45e e301 99bf fe52 098c e2cc be3f
00000720: e5e3 e618 3231 bcbf 56df e07f 64c7 c93f
00000730: 4a08 c05d dbe8 c8bf 04b2 a9e3 aa93 b0bf
00000740: ce1e b7e8 312e b0bf 30af 60b0 d1d5 a7bf
00000750: dc41 99d4 4434 b33f 15df 4984 bf97 c1bf
00000760: f359 74c3 26be c43f d7e2 1a76 7de4 c9bf
00000770: 92c7 3626 b7cf c2bf 5d3a 175e b46d 88bf
00000780: d2e0 2c80 8227 b0bf bcf0 ab13 7004 babf
00000790: a4ce b1cc fdd2 8e3f bfab 3817 d940 be3f
000007a0: cf78 7cfe d641 c43f 81d1 d46e 8b92 c33f
000007b0: 67d1 8644 e3df cb3f 04d5 96ab d119 6bbf
000007c0: 8a72 7be1 7830 b93f 4fc0 449b 0980 c83f
000007d0: 17b3 6832 93ee bd3f 2cc8 1ff0 4b37 bbbf
000007e0: 0ac4 601c 890f c33f c786 9d1a 6dd2 c23f
000007f0: 1344 f40d bae9 a73f e593 8b54 509e c53f

hidden_layer4.bias f8 [20]
-0.018063603515658545 0.11165028160206564 -0.21939706435461814 -0.07115679230153708 0.059801590855891484 0.18081172806632664 -0.01961829659031978 0.0016316098253385367
0.16491750113575018 0.007790799785038472 -0.09744119021468702 0.14074070544583184 -0.2217845272647871 0.025236536134838835 0.17390713323104126 -0.1956860532860683
-0.16400086033383598 0.15540667578955417 -0.016822189590943334 -0.005484888429347449
00000000: 0d02 64e9 437f 92bf 9cef 11e4 1c95 bc3f
00000010: 38e9 1ef8 3315 ccbf 23c8 d2df 5437 b2bf
00000020: 781c f369 509e ae3f 6199 63b5 d624 c73f
00000030: 02dc 0899 d116 94bf b202 bdb5 77bb 5a3f
00000040: 6f42 f544 041c c53f 6731 95e4 3ee9 7f3f
00000050: a161 41e5 e7f1 b8bf 688b 8d9b ca03 c23f
00000060: e637 ae75 6f63 ccbf 8f2d 7445 9bd7 993f
00000070: 255c e2c4 9642 c63f 22d0 9297 3d0c c9bf
00000080: 0429 d3ed fafd c4bf 9d50 0caf 5de4 c33f
00000090: 0f94 8f08 d639 91bf ebf1 d186 5277 76bf
