net_param/net_0.06.pth (torch, 17999 bytes, 12 tensors)

hidden_layer1.weight f8 [20, 2]
-0.3329104427230593 -1.3348242013653553 0.46763962784308855 0.8289065548084804 -0.7012940131839102 -0.8329616278529745 0.9048634878654388 2.542561896746955
1.1584454740233907 0.46411072682369364 -0.7457625378923486 -0.19378781969545825 -0.7232995486044815 0.6453330260161734 -1.8981912453760708 -0.2808497984579393
0.2946113272200599 -1.3188614473073672 4.581971683659357 0.5946084907770146 -0.5100687867713856 4.999375345594867 -0.7330424089756246 0.797549482582906
-0.6539801650502084 1.3648325239121093 0.052101999379882497 1.541123885091471 0.9576147094456893 0.7258542342465344 -0.37311722521610735 0.7463443471890442
0.7069550130005797 -0.25590460682693916 -1.172463767486366 -0.8567253365313017 0.5697806606100319 0.049471735329468976 1.3096276334441874 -1.6713153796701612
00000000: d383 ff99 674e d5bf 5660 2c9f 705b f5bf
00000010: 4c94 f9c2 ceed dd3f 64f5 0a0a 6786 ea3f
00000020: f32c 7024 0071 e6bf 4372 ce24 9fa7 eabf
00000030: eb3f f745 a4f4 ec3f d4ab 14b1 2a57 0440
00000040: 2c13 121f fe88 f23f 338e 5b7a fdb3 dd3f
00000050: 118c da65 49dd e7bf f541 fa0d 0ace c8bf
00000060: 4ef8 4e18 4525 e7bf f294 3872 91a6 e43f
00000070: 8a19 87c8 fd5e febf 39c3 dd6e 71f9 d1bf
00000080: 743e dc77 e9da d23f f43e 0276 0e1a f5bf
00000090: 5b0f 9262 f053 1240 50f5 b962 0807 e33f
000000a0: 8a97 bcc6 7b52 e0bf dc08 2740 5cff 1340
000000b0: 2334 a45a 1575 e7bf 6754 147e 8685 e93f
000000c0: 4cf2 a3cf 67ed e4bf ad83 eba0 5ad6 f53f
000000d0: 141e c9fe 1cad aa3f 58d6 d884 71a8 f83f
000000e0: e09b 679a c7a4 ee3f 4a10 b8a8 323a e73f
000000f0: 1a28 f811 27e1 d7bf bf67 578a 0de2 e73f
00000100: 7695 921e 609f e63f 92ea 4db7 bd60 d0bf
00000110: 0e95 115e 69c2 f2bf 22cf c140 4b6a ebbf
00000120: ddd3 e6a6 a43b e23f 0904 a2fa 5b54 a93f
00000130: 634a f91a 3cf4 f43f 3dc3 0f32 b5bd fabf

hidden_layer1.bias f8 [20]
0.23055523633384165 -0.1402273829161424 0.025038457248006424 -0.5389061255228326 -0.04673550779749475 0.5658760172361176 -0.15988329408858426 -0.06387776958289743
0.22386751854296363 0.08706911706958045 -0.22419309994366418 -0.13997981171426946 -0.26400488208798895 -0.10851671000750814 -0.10965092455061509 0.2474987171108147
0.06855508259097101 0.12324226857509052 0.48293792787193585 -0.09661258815291233
00000000: efd9 fc7f d582 cd3f b672 d08b f8f2 c1bf
00000010: 7505 176c aea3 993f 2582 170f b83e e1bf
00000020: 09b9 1a6b b7ed a7bf dfd5 7305 a81b e23f
00000030: 9cc3 a447 0e77 c4bf b4ca 4c23 4b5a b0bf
00000040: 85ac 63db b0a7 cc3f 8a31 4e62 294a b63f
00000050: 539a 1f08 5cb2 ccbf 01de b4c4 dbea c1bf
00000060: 0b58 a3bb 74e5 d0bf 5d40 8d48 c0c7 bbbf
00000070: 48ca eb3e 1512 bcbf e77d e5b7 09ae cf3f
00000080: aaea b36d d38c b13f 04ce 0329 ce8c bf3f
00000090: 674f 8d7b 74e8 de3f 33a9 7f42 9abb b8bf

hidden_layer2.weight f8 [20, 20]
0.30550831852051846 -0.4378683103521103 0.21324080940266166 -0.6758212054067447 -0.14424894939418795 -0.07636690010477899 0.20503318675543955 0.06585516846001581
-0.03888646134309905 -0.4257207606232765 0.5649308543062597 0.16116958871596454 0.09322728402023732 0.21243403671465638 -0.062496955798662567 -0.007927166383846856
-0.2176541974021838 0.21963139817837773 -0.34019527299706237 0.16400343845818477 0.8417243052910645 -0.14321358035726875 0.1504357773464749 -1.1942386225194943
-0.19174418805473667 -0.03050143295577296 -0.4436518464298607 -0.1742620576609465 0.8951382553396894 0.1729895261070155 0.5953456540995482 -0.49438829896656333
-0.8351014299147472 -0.27934350842424915 -0.43195697174074044 -0.3460106576999999 0.505166893117571 0.38415336567181374 -0.20066185365061862 0.22008357710762688
-0.009273105635438561 0.5367322652253398 -0.026400815564673306 -0.4731310941662212 0.464123223823891 -0.48046296952317563 -0.4555117239957686 -0.20860760336601758
0.007850898782257958 0.3193235323418741 0.05857931693171503 -0.3840409850029774 -0.2424843360513661 -0.2861257400995386 0.5031289116041103 -0.06081108561954002
0.19234272383606435 -0.2945876965954635 0.19274001671634272 -0.004518982693355037 0.17497069065873733 -0.3650342368329205 0.24767418831077517 -0.34713674667598293
-0.3148612751745128 0.0089809658223181 0.062498395202216506 0.022721308305825916 0.4141313141571914 -0.11685502941485204 0.6573428500389907 -0.2574740964464041
-0.20155685871553108 -0.4696225013531136 -0.2794674812180424 -0.2884194930931108 -0.10741625698024439 0.21910114757767507 -0.22802058972477737 0.500889201671602
0.2897024879613812 0.08365016819396826 0.056684007569254145 0.7836802754049115 -0.09577346927573913 -0.26080151097670323 -0.37729901312525954 0.03099131216573342
0.38883953065411514 0.3945596531449065 -0.1805843110865136 -0.5393258158452526 -0.23731728703282784 -0.18716091893265593 -0.30679034602424354 0.00617083802347082
0.052602924819536406 -0.04502819938058232 0.15560718072903676 -0.24355551989378882 0.20313063441358203 0.2016926377021379 -0.08651245903018893 -0.07414098766718519
0.22878184021123224 -0.33792008123032286 -0.5333504567765655 0.1676501015652487 0.22920226764804358 0.053795096715936186 -0.6841899851118882 -0.6340059380448291
-0.6932693064543564 -0.43922396888287263 0.3594816920003038 0.16173502607856147 0.28184218033633746 0.04507462705524067 0.24880178911644435 -0.12718875011381015
0.34146998385572647 0.015720247590334965 0.30236799076920406 -0.4587242341210077 -0.16623890022645077 -0.22792824133759237 0.08530639180817036 0.21934211371621443
0.46914895544444096 -0.16393355517091257 0.7896727814362555 -0.20706224187465685 0.05767475681059044 -0.43388002199465847 -0.2744678576598602 -0.2045598422725515
0.09581251211505397 0.10451964893592994 -0.16120983440705772 0.4135621997964751 0.17852941847679946 -0.20691894479849957 0.034255157976077755 0.14922819579477148
-0.12961419159096713 0.4362558462291309 0.14760458399428025 -0.2807750286341997 0.1867877527671551 0.18550703560980653 0.2621591521959396 -0.02376642635986857
-0.07788798460419809 -0.10916075878183004 0.04008371522921203 0.230762718917237 -0.24529450707284034 0.15847776920917533 -0.3901361897732922 0.3674988837048446
0.06709612990278951 0.03111471426312335 0.20179994149274233 0.07041959060272562 0.04680720538766319 -0.05161758093399511 0.17338928169341924 -0.3807923279817327
-0.1177955091040813 0.19159763381419945 0.8634179914786466 -0.11225081682081313 -0.006029258852549192 -0.25050116951356066 -0.26336838519126776 -0.20058480302528067
-0.15353212073243402 0.11445317505165943 -0.2700196564824334 0.28896586865506735 -0.22486708039734762 0.01964328614124211 -0.4173319014473832 0.4362817263060607
0.10166270363492137 -0.12953142197074544 0.15845956484322202 -0.19691779777458188 -0.21805137505783076 0.3910099184994844 -0.528373750478972 0.11411349576549512
-0.13865942659658267 0.3084094000294096 0.07776008314731206 0.004504997448229537 -0.09812816916238142 -0.4208561560310123 0.12372627977777469 -0.3615043204178569
0.8760670449023861 -0.3076286668997024 0.07474928785311981 -1.239442695420823 0.03930955669755444 -0.308817577784192 -0.3274003960162024 0.31371129613204013
0.5130359923387677 -0.32753267429708766 0.7169355617960775 0.047348362702590956 -0.499289009439691 -0.163944506841242 -0.3832240793809084 -0.36715430420872003
0.14037830910137342 0.4306155751186795 0.08673955365978907 0.32044591297175784 -0.13345954298938234 0.44480074823680826 0.08586320453372956 -0.9174899824019421
-0.012941877199580296 -0.6783454373114362 -0.10167947646248274 0.3928766946287887 0.06456583970542956 -0.28229475580694624 0.5262038734433927 -0.059681511963500695
-0.1219216213477362 0.1656907591197551 0.1564737532676844 -0.29748018147694355 0.4883392718516841 -0.022728332781902935 -0.18476910059951204 0.19638071493171513
-0.5465749296254158 0.639347232920674 -0.22343191309478955 0.22310554697223495 0.02867344415224019 -0.6054074560482916 0.2542051470306011 0.45643319320089026
-0.43195227332884617 -0.05231893122830902 0.007633730450480696 0.0727870042170341 0.24956610904009954 0.1958378680138594 0.17892358074664008 -0.003035133843792823
00000000: a7e6 2cc3 728d d33f a3b1 3ace 0806 dcbf
00000010: d04b 478f 794b cb3f de49 e5ca 53a0 e5bf
00000020: d3b0 10e4 bf76 c2bf a969 72fa c78c b3bf
00000030: 77c9 da07 873e ca3f 47ef ce62 e2db b03f
00000040: 4399 731f ede8 a3bf e1bb 064a 023f dbbf
00000050: 2ee5 f7de e913 e23f 108a 5280 34a1 c43f
00000060: 033a f647 bedd b73f 4694 1fdc 0931 cb3f
00000070: e376 82da 99ff afbf 50d6 f242 1e3c 80bf
00000080: 1bfa d6bd 17dc cbbf d8e9 2cb4 e11c cc3f
00000090: d9ac f164 c2c5 d5bf 8802 4e8e 10fe c43f
000000a0: 6f26 6fcf 67ef ea3f f11f fd95 d254 c2bf
000000b0: 3afc ecc3 7a41 c33f 0976 35f5 991b f3bf
000000c0: 5353 72d4 128b c8bf 51cf 1a84 c43b 9fbf
000000d0: 257b ceb6 ca64 dcbf f430 4b17 384e c6bf
000000e0: 8aa3 82fb f8a4 ec3f ce0f 9752 8524 c63f
000000f0: 938b 4554 120d e33f 9088 e5d1 0ea4 dfbf
00000100: 2074 4aa2 26b9 eabf 1e0d 4298 c3e0 d1bf
00000110: 9af6 b9da 2ea5 dbbf 8fe4 b8e2 0925 d6bf
00000120: d8c7 9ec2 532a e03f 795c 8dff f795 d83f
00000130: 78f8 7da1 49af c9bf 922f 08db b22b cc3f
00000140: 2d14 7e2b c7fd 82bf 053a bb24 e92c e13f
00000150: f982 c0bd d008 9bbf 1389 0aa4 c747 debf
00000160: 13d0 e8e4 31b4 dd3f 1fa1 42c1 e7bf debf
00000170: ef68 60a5 1a27 ddbf c8b5 1369 a7b3 cabf
00000180: 36ae 1ccc 2114 803f 5b19 10f8 cb6f d43f
00000190: 4031 e3b4 1bfe ad3f 9d54 baa3 2094 d8bf
000001a0: 9402 910a ba09 cfbf 365d 1156 e24f d2bf
000001b0: 1560 a0cd a119 e03f 78bb f06f a122 afbf
000001c0: 2dee 3fb6 af9e c83f 799d ab5a 86da d2bf
000001d0: 02ae 3672 b4ab c83f 77ff 102e 7f82 72bf
000001e0: bea3 1189 7065 c63f 9988 478f b85c d7bf
000001f0: 09d7 6dad c9b3 cf3f cca4 8d0b 7d37 d6bf
00000200: 5cb0 e9e7 af26 d4bf 7a61 f2d3 9c64 823f
00000210: 885a e426 caff af3f f027 6230 4144 973f
00000220: 347f a3a0 2081 da3f 80bc b511 36ea bdbf
00000230: 25a9 65df f308 e53f 337c f3a1 747a d0bf
00000240: 8cdd 3b7a 9dcc c9bf ebbf 3189 4b0e debf
00000250: 8b20 0893 cbe2 d1bf a548 9708 7775 d2bf
00000260: 21f4 c9be a17f bbbf 0c5c aea3 810b cc3f
00000270: e15d d757 c72f cdbf a82b 83ca 4807 e03f
00000280: 384b d74d 7c8a d23f acaf b2f0 186a b53f
00000290: ebac 6ead af05 ad3f be4c 2ca8 e813 e93f
000002a0: 661f 5d2e 9c84 b8bf dc1b 19d2 f8b0 d0bf
000002b0: 7be8 8bc2 aa25 d8bf f009 d9c0 2fbc 9f3f
000002c0: 5e4a e332 bfe2 d83f c405 a521 7740 d93f
000002d0: 23c5 24ff 621d c7bf 4134 9e36 2842 e1bf
000002e0: a46c 4ab1 6960 cebf 27d9 f394 e3f4 c7bf
000002f0: 03c5 b9f9 73a2 d3bf dfda feb7 9746 793f
00000300: cc36 8c43 c5ee aa3f 5e88 79a7 ef0d a7bf
00000310: 3b82 20a4 efea c33f f61f 5ac8 d32c cfbf
00000320: e49f cf43 2f00 ca3f 0628 6379 10d1 c93f
00000330: 0330 3b36 ae25 b6bf fcdd 525d e7fa b2bf
00000340: cf1e d02c b948 cd3f 07f0 628c 7ba0 d5bf
00000350: 302f 25fa 3411 e1bf bf68 b2fb 8e75 c53f
00000360: 4ed3 dbf9 7f56 cd3f 4003 29ea 078b ab3f
00000370: 1acd 4965 e2e4 e5bf 3cea 2bd2 c649 e4bf
00000380: 9358 d11c 432f e6bf 1e29 7ed9 3e1c dcbf
00000390: 2ebb a97f bf01 d73f 3704 d0bb bbb3 c43f
000003a0: c662 cbc8 b309 d23f bfce 2982 0514 a73f
000003b0: 5c80 b8ad bcd8 cf3f 1437 1491 b847 c0bf
000003c0: ac76 4eeb a4da d53f 1f5d 24f5 f718 903f
000003d0: 6480 ed45 ff59 d33f 0aac dbe3 bc5b ddbf
000003e0: a6d6 e5f7 5047 c5bf cc9b 30ab c02c cdbf
000003f0: d9b2 f4c2 a3d6 b53f c2f8 8502 6713 cc3f
00000400: 2788 2557 8906 de3f d489 1655 c6fb c4bf
00000410: 1fec 59da ff44 e93f a146 8bfa 0381 cabf
00000420: 63cb 9cb4 8b87 ad3f 5ab5 36b6 b0c4 dbbf
00000430: 33f2 1ca2 e190 d1bf f358 5154 042f cabf
00000440: 43ee 1436 2b87 b83f d21e f8b9 ccc1 ba3f
00000450: a433 491b 86a2 c4bf 2036 bf96 cd77 da3f
00000460: 0baa dd4e 0dda c63f 978b 6aea 517c cabf
00000470: a800 745e e489 a13f 4231 4ad6 e819 c33f
00000480: fd86 fda4 3297 c0bf 098c 0fa4 9deb db3f
00000490: 0d60 7ffe b4e4 c23f 481c 61d3 37f8 d1bf
000004a0: 60d1 b63c a9e8 c73f 909e 8fcd b1be c73f
000004b0: 5bd5 412e 37c7 d03f 1b6e d5df 3956 98bf
000004c0: 975a a08a 77f0 b3bf 2679 f9a0 f5f1 bbbf
000004d0: 0cf6 054c da85 a43f 785a 71fd a189 cd3f
000004e0: ca15 e276 cf65 cfbf acbe f2e1 ff48 c43f
000004f0: 5ffd 03c8 fdf7 d8bf 4e0b b509 1a85 d73f
00000500: d4e2 9e43 362d b13f 72ed bc20 89dc 9f3f
00000510: b2e4 859a 94d4 c93f 20ec a2ae 0407 b23f
00000520: c7de b630 1df7 a73f 5931 059c 9e6d aabf
00000530: 47d2 2cb7 9e31 c63f acf3 cfc8 e65e d8bf
00000540: 27bb 37b3 d827 bebf 4b8a 9c71 4586 c83f
00000550: aeb8 85c4 1ea1 eb3f 7dd6 3133 78bc bcbf
00000560: cefc 73d9 22b2 78bf 65e9 aa0e 3608 d0bf
00000570: cb98 4c12 07db d0bf 33ba 8848 c3ac c9bf
00000580: bf35 b7c6 f0a6 c3bf 792e c5a3 cd4c bd3f
00000590: 12a1 7786 0048 d1bf e428 e2b2 6a7e d23f
000005a0: 5176 20ca 71c8 ccbf 801b 409e 5e1d 943f
000005b0: fed0 12dd 90b5 dabf cfec 9430 0aec db3f
000005c0: d1bd 5523 9106 ba3f dd98 9552 7c94 c0bf
000005d0: 4db9 5e2c 6748 c43f 0d99 b836 9a34 c9bf
000005e0: b750 5c82 1be9 cbbf 787b 1777 4e06 d93f
000005f0: d3e7 4b11 70e8 e0bf 4854 58c4 8a36 bd3f
00000600: 03d9 4193 97bf c1bf 5df0 b9c7 fabc d33f
00000610: 564c 0db6 15e8 b33f 94df 560b d573 723f
00000620: 9f68 5e7d ed1e b9bf 594d 9ea8 4eef dabf
00000630: 3d21 4d85 86ac bf3f 73ac 6304 e322 d7bf
00000640: 0bb1 5ec1 bd08 ec3f f95c e925 30b0 d3bf
00000650: 057b baf2 c422 b33f 8e93 21dd c1d4 f3bf
00000660: b25c dfd8 6120 a43f a9d5 40cd aac3 d3bf
00000670: 0892 65ca 20f4 d4bf ed76 518b d813 d43f
00000680: 5e82 1875 ca6a e03f e88d 1e9b 4bf6 d4bf
00000690: 001d e8d8 22f1 e63f f74e a76a 0b3e a83f
000006a0: e2ec b2e3 59f4 dfbf 4af9 9e33 22fc c4bf
000006b0: f2c3 fe49 be86 d8bf a55f 4ac4 747f d7bf
000006c0: 2d3f 549b eaf7 c13f 031c 12a1 348f db3f
000006d0: d309 3d3a 9034 b63f 9c6f 1693 2f82 d43f
000006e0: 983f 3dca 3315 c1bf 7e75 ba8e 9d77 dc3f
000006f0: d2f1 6687 21fb b53f db5d 9af3 135c edbf
00000700: 4580 915a 4581 8abf 0897 947d 01b5 e5bf
00000710: 06ad 148a aa07 babf 74a3 b24a e424 d93f
00000720: bc3d f909 6387 b03f 217b 0106 1e11 d2bf
00000730: fef8 6e81 a9d6 e03f 313e 1e3c 938e aebf
00000740: 7723 5d60 4136 bfbf fd99 d5d3 5a35 c53f
00000750: 33c9 7bfa 5407 c43f 1ab4 a950 ea09 d3bf
00000760: df25 7d5c f340 df3f aca8 f697 1846 97bf
00000770: 4170 318e 83a6 c7bf 3f31 19d6 0023 c93f
00000780: cbbf f1b4 8a7d e1bf 22d6 0554 8875 e43f
00000790: 9afa cfbb 6a99 ccbf 00a6 e6f9 b88e cc3f
000007a0: 6918 9743 925c 9d3f 4c6c 0f75 7f5f e3bf
000007b0: d529 3eaa e544 d03f bcd3 6691 3336 dd3f
000007c0: f955 d825 1ba5 dbbf 63ad 2c05 8cc9 aabf
000007d0: acc7 19ea 8b44 7f3f 189c af4a 2ba2 b23f
000007e0: 8733 4242 c8f1 cf3f cd0c 381b 3711 c93f
000007f0: d91f e5c7 f7e6 c63f e169 2313 23dd 68bf

hidden_layer2.bias f8 [20]
-0.17896346563880014 -0.12378198254161428 -0.27344355463131687 -0.013830464567717426 0.10540796877985761 0.193108047467191 0.033609049193367053 -0.12333976348237709
-0.07511404831443887 0.08262785218476576 -0.15061284315484078 0.05699541441632064 0.2164284942132449 -0.3384698040566426 -0.03657325604169962 0.176062989873237
0.18939284821434987 -0.20779748140742316 0.17122675718389418 -0.3541414096777411
00000000: c779 0c5c 46e8 c6bf b5ab d90e 2db0 bfbf
00000010: 3a62 1c65 1980 d1bf 86fe 0d88 2553 8cbf
00000020: fab3 a542 04fc ba3f eca5 3bb6 c3b7 c83f
00000030: 9134 458e 3435 a13f e903 74da 3193 bfbf
00000040: c50d fb9c ac3a b3bf 784e df52 1927 b53f
00000050: 3f93 da19 4847 c3bf 1450 e1c1 802e ad3f
00000060: bac1 48cc edb3 cb3f f2d5 c640 7da9 d5bf
00000070: 85f4 36d5 bab9 a2bf ed50 c567 3b89 c63f
00000080: 78a5 965c 063e c83f b403 6b9d 1b99 cabf
00000090: e208 2725 c2ea c53f 446a 2ebb 40aa d6bf

hidden_layer3.weight f8 [20, 20]
-0.053908686049021506 -0.27341366788881993 -0.2013608796463875 0.22998313842225726 0.41150062662482695 -0.2514485132792814 0.22551405685150985 0.20963232555203695
0.1290112185435185 0.029041944271941587 -0.2707532550977564 -0.4496610100728293 -0.07286553379186653 0.12509846553324286 0.03345591064961386 -0.33289713185774117
0.1578594885615649 0.0011524888616459925 0.18871243079143182 -0.022509930603966978 -0.13085532856238802 -0.006673209815199069 0.3569394231062662 0.21691217307466162
0.09785736657773658 -0.00710317838779458 0.20744648874424299 0.02831222475930671 0.7359375708136262 -0.23768190968166258 -0.182412197190214 0.03327594329439437
-0.09746421227845066 0.057233235808475114 0.2595849884131141 -0.08574737490504518 0.11052754615378405 -0.15418953540411182 0.11859903816921175 -0.07062640113021729
-0.2576148957348902 -0.14748582677143096 -0.3674784917307473 0.016648053830720898 -0.16469998597824073 0.24440073690766212 -0.0494338927906767 0.23281807466362842
-0.04478759455457733 0.051579387892118335 -0.3875752553131772 -0.4574077553005748 -0.2279723541845801 -0.1462600011789683 -0.27588897009910085 -0.3330291895997916
0.5966421434401554 -0.27537216169476536 -0.1894169961566973 -0.10917655015865606 0.2165582737831846 -0.9088341691167359 0.43209431083360567 -0.5833553001914912
0.06559850151795313 -0.8016134836136806 -0.6393933407620442 0.4214410446744049 0.24755271027092637 0.8435021912157828 -0.8734654685009949 -0.19905396828358318
0.7104170734736392 0.4050146528648596 0.20798516567358843 0.21670063955442606 -0.3107471025707471 1.245504488660366 0.23251826109329604 0.29092146805396835
-0.39923804986495276 -0.05760232691200785 0.15132148349691282 0.03900642991286847 0.36030540315831855 0.2916177159591318 -0.5522799187073136 0.1594948958732149
-0.22173127407253865 0.39799441180046535 -0.22736240043551995 -0.3409223965865655 0.2722820384481434 -0.38651445077440494 0.027177875032592943 -0.11395681375308542
0.48615772700314697 0.12528535260656842 0.32235260125748627 0.3359267592997474 -0.3116474071412747 0.031773759278893414 -0.37857641760631866 0.003487809440306411
0.6107277019849879 -0.11315190058035385 -0.08605288374066453 0.40287651272493424 -0.11377074938346793 0.20688703117800336 -0.3919372622360719 -0.6231829077996371
-0.07681249823979643 0.34369649754337783 0.14926098443885077 -0.3527026235169124 -0.14304996220080746 -0.14985170482635177 0.2947335946572161 0.4137922465657593
0.24624603888656893 0.4509759054005801 -0.04851452716990754 0.2869049289075204 0.5325363625527088 0.22968018041483643 -0.02659913703644393 0.08042150596225009
-0.35132680991347226 -0.047781909942971455 0.19500157040246743 0.02406797834425804 -0.3040715310666555 -0.3582931170859242 0.11049161876169539 -0.19513291802527075
-0.6992389109890677 -0.1002828197244676 0.46578757944173416 -0.10496874262921412 0.013143680876589578 0.5089506065935137 -0.11405824798907752 0.2782545951265311
-0.4352859271987951 0.17671734511765808 0.1955399726935249 0.1117218458265059 -0.34198192040506514 -0.32926150064269044 0.38971712789712115 -0.2877972737965875
0.09449962089443635 -0.22831838148852185 0.008063111385897336 -0.10563324885411103 0.32528396175050805 0.3570011884663772 -0.41073746138174116 -0.006367319656563662
0.007520335180271267 0.11333166272517416 0.4067869011804481 0.6841143708756103 -0.4126566581883875 -0.06682109426065135 0.18604324240877734 -0.15293413812551762
-0.0801188944737956 -0.1204248735735925 -0.0020433788870477705 -0.055913684738803975 -0.12181899095091042 0.0834233823100466 -0.1727441632904551 0.17384254636268098
-0.0918051957389723 0.2895105308606247 -0.1445674373624849 -0.35616435861717954 -0.10129350627863432 0.42012268104039246 0.3274847105898525 0.23135117490340124
0.003874428495878326 0.5889575863507072 0.17606669434406372 -0.2693194741287123 -0.6702052008778593 -0.06047909677942603 0.7891401866517018 0.23192311953500808
-0.2531881120395515 -0.3217864451080683 0.22960560680028572 -0.25930810680197147 -0.13043158180447106 -0.9688039810549282 0.031289011501752104 -0.5907960854831992
0.2351924587949513 0.11184141221045964 -0.084920197017548 0.17798726112977684 -0.01011414708109151 -0.5419116325844492 0.15723674276199207 0.3223391692430789
0.23056091591894493 0.13001318336626833 0.07291606119416308 -0.19652415640443283 -0.40522115473173964 0.06543414331288577 -0.19680101782539555 -0.12890374813503688
-0.10035545499679277 0.47351949959856016 0.11058728340946587 0.2148931212192298 -0.10054850454086423 0.07395891341919789 0.28684203681299675 0.4941362683958773
-0.34775888809046773 0.04080769174408806 0.3772495661194313 -0.18935104691581653 -0.5028720478475485 0.10802156051527131 0.1317891103904491 0.3633475195164059
0.36919794542473366 -0.17691248474599422 -0.032968716984035244 0.18130480546244784 0.33507822795145126 0.028978353662806502 0.11143530083425941 -0.022898214066091098
0.17833082995979163 -0.3563365305295653 -0.15499590235563862 -0.19751143224232595 -0.2680420512745869 0.024582536520557672 -0.07671344804123378 -0.3522754716846191
0.042076437682263074 -0.12366615976802223 -0.10302258404034623 0.24110405013655883 0.172390305933803 -0.21718913494873412 -0.054655108797432336 0.1186888896878724
00000000: ca0c 1a57 eb99 abbf 2829 770a 9c7f d1bf
00000010: 1034 637c 31c6 c9bf 38d8 1365 1670 cd3f
00000020: e1c6 68b9 0656 da3f b463 4a81 bb17 d0bf
00000030: 2596 7b05 a5dd cc3f 2118 3767 3bd5 ca3f
00000040: 1c13 3b8a 7083 c03f b6e3 70e3 2bbd 9d3f
00000050: d28b fb75 0554 d1bf ec24 23f9 3ec7 dcbf
00000060: 2643 a4cc 50a7 b2bf 2b5e 1ffd 3903 c03f
00000070: b32b 3214 2221 a13f 78b7 90c5 2f4e d5bf
00000080: 461b 5e5e bd34 c43f 28c6 107e e3e1 523f
00000090: c786 4c9b ba27 c83f 5af8 1ddf d70c 97bf
000000a0: b465 570e debf c0bf aa67 a61e 5e55 7bbf
000000b0: d13f 3973 18d8 d63f 15e0 ba30 c7c3 cb3f
000000c0: 88c2 1f2d 2e0d b93f d5c1 f8ed 3818 7dbf
000000d0: 94cc 6946 9b8d ca3f dc42 ac3d e1fd 9c3f
000000e0: c659 d1f2 cc8c e73f 1c7f 775e 5c6c cebf
000000f0: 8a67 a96a 4859 c7bf 88cd 6260 8b09 a13f
00000100: 552f 4424 6af3 b8bf 0854 15b8 ac4d ad3f
00000110: 4d14 f15a 0a9d d03f 7b5d ef3a 8af3 b5bf
00000120: 52a2 0984 884b bc3f 9f19 f991 7bbc c3bf
00000130: 1419 46ae 815c be3f 5ca5 1663 9214 b2bf
00000140: 1334 0930 c37c d0bf 30ac 4dc9 d0e0 c2bf
00000150: c6e2 fd81 c484 d7bf a6df fafa 2f0c 913f
00000160: 57cf b69e e314 c5bf ae7f 11fa 8548 cf3f
00000170: 9429 b331 664f a9bf 4a8a 4c90 fbcc cd3f
00000180: eabf c14b 66ee a6bf cde7 4910 9d68 aa3f
00000190: c7c5 9371 08ce d8bf aff9 7c2d 2b46 ddbf
000001a0: 0db5 ceb6 322e cdbf 5067 e3d0 a5b8 c2bf
000001b0: d2c6 f935 2aa8 d1bf 7f72 7ca9 5950 d5bf
000001c0: b4b4 af43 b117 e33f 454d 2d8f b29f d1bf
000001d0: 6558 e6ed d03e c8bf 7be9 6b90 fef2 bbbf
000001e0: e0da c977 2eb8 cb3f b4ff 3a65 2b15 edbf
000001f0: 075a 74e5 6ea7 db3f b7a9 08bc d8aa e2bf
00000200: caab af3a 10cb b03f 92e8 0452 d1a6 e9bf
00000210: 1e4d fb05 e975 e4bf aa64 04dc e3f8 da3f
00000220: 632c 53a5 ceaf cf3f 3909 ac4e f8fd ea3f
00000230: f9b4 acda 6df3 ebbf 9e60 f5b5 997a c9bf
00000240: a0db 2296 bcbb e63f b224 1d94 c2eb d93f
00000250: 9e83 4f06 429f ca3f 2b4b f4b7 d8bc cb3f
00000260: 388f b7d0 47e3 d3bf 6014 5d1d 96ed f33f
00000270: de2a 8f8b 28c3 cd3f 26c0 bf13 759e d23f
00000280: 5348 dfbf 1d8d d9bf 016a 855c 0d7e adbf
00000290: ba95 669b 805e c33f fa74 9e99 a6f8 a33f
000002a0: cfc5 c864 3e0f d73f d4a2 3e5a dda9 d23f
000002b0: 03bc a2ef 46ac e1bf d5c2 d328 546a c43f
000002c0: f32b 52bd b061 ccbf ce1e ab8d bd78 d93f
000002d0: 69f5 1a0d 361a cdbf 230c f42b acd1 d5bf
000002e0: 4712 9ba4 116d d13f 687a 601b a7bc d8bf
000002f0: df50 c251 84d4 9b3f 48d2 3914 462c bdbf
00000300: 1047 8b4c 351d df3f 1678 0eb6 5909 c03f
00000310: 959c 0bce 6ca1 d43f a3cb 42f3 d27f d53f
00000320: a884 63f7 07f2 d3bf 0799 f271 a644 a03f
00000330: 88fb 2995 983a d8bf 80ae 626f 7792 6c3f
00000340: 1e2d 59d2 148b e33f 900d 79e0 85f7 bcbf
00000350: 5684 64d1 8f07 b6bf 4bba 9e91 bac8 d93f
00000360: 84e9 d76f 1420 bdbf a122 7034 467b ca3f
00000370: 27d0 d806 8015 d9bf b89e 0d48 1df1 e3bf
00000380: 012e dddf fba9 b3bf 14b5 2c98 1fff d53f
00000390: 8ee7 5de3 fb1a c33f 8cfc 4d06 ae92 d6bf
000003a0: 405a ac0e 764f c2bf bb50 bd35 572e c3bf
000003b0: f574 854b eadc d23f c8a6 9579 927b da3f
000003c0: 24c8 e47d fd84 cf3f d2af 3e0b cadc dc3f
000003d0: 6dbc 2667 e5d6 a8bf 2e04 ae7d a65c d23f
000003e0: a507 a3b2 890a e13f ade6 b5ff 2866 cd3f
000003f0: 6982 b1de cd3c 9bbf 3ac0 00fa 8096 b43f
00000400: eb53 b271 237c d6bf 1b49 17d9 de76 a8bf
00000410: ef0b c6bb cff5 c83f 6b4a 7aaf 46a5 983f
00000420: 18dc 6470 e875 d3bf 3705 1141 46ee d6bf
00000430: e446 10c1 2d49 bc3f b752 a58e 1dfa c8bf
00000440: 093d d947 2a60 e6bf 6f37 1187 22ac b9bf
00000450: bd74 25b5 76cf dd3f e3d8 b144 3bdf babf
00000460: c5b2 1cfc 12eb 8a3f f026 53c8 5249 e03f
00000470: d2bf f3dc eb32 bdbf 57ee 815c ecce d13f
00000480: 4a95 6e81 b9db dbbf e248 f588 ac9e c63f
00000490: 1ec4 e32d 7407 c93f 40d7 128a cd99 bc3f
000004a0: 48a2 fd22 08e3 d5bf 3ce7 45d4 9e12 d5bf
000004b0: 7b96 c01b 20f1 d83f 3065 b541 456b d2bf
000004c0: 4bdb 398d 2031 b83f 2ed0 c866 8939 cdbf
000004d0: 06c7 a67d 6483 803f d5d9 32d5 c70a bbbf
000004e0: 8b6e 68d2 73d1 d43f 8228 4683 1bd9 d63f
000004f0: e41a f8c6 8549 dabf f188 025b 9e14 7abf
00000500: e9b2 779a a4cd 7e3f 5184 01c9 4d03 bd3f
00000510: a3b7 40ed cb08 da3f b04c 34d2 43e4 e53f
00000520: 6054 d978 f768 dabf 634d 88ee 2f1b b1bf
00000530: c4cc e4d4 43d0 c73f 2974 d888 5893 c3bf
00000540: 1f7f 8eff ab82 b4bf a49e 9f1d 2ad4 bebf
00000550: 285a c8af 46bd 60bf 9f3b b4ee b7a0 acbf
00000560: 2077 2a86 872f bfbf 854c be1a 3c5b b53f
00000570: 4e25 f411 7b1c c6bf 62fa a3f9 7840 c63f
00000580: 7240 4d99 8b80 b7bf 0037 792d 5787 d23f
00000590: 54ea c48f 2f81 c2bf 16be 1098 65cb d6bf
000005a0: 488f c308 5fee b9bf b515 d83d 4ae3 da3f
000005b0: aa19 7b6e 82f5 d43f e2f6 0c51 ea9c cd3f
000005c0: 858e c6f5 43bd 6f3f af6f 8394 bdd8 e23f
000005d0: c3b0 0f7b 5a89 c63f 5bc2 63bf 873c d1bf
000005e0: ff24 6c2d 5272 e5bf e7bc 84bd 1df7 aebf
000005f0: d01b b4eb a240 e93f 8b69 cb22 a8af cd3f
00000600: ee88 3ce9 3b34 d0bf 9441 822c 2698 d4bf
00000610: 3bbd 176e b763 cd3f 4e56 9307 8198 d0bf
00000620: c29d 1b69 fbb1 c0bf 57b2 db34 7100 efbf
00000630: 3e96 3f02 1d05 a03f 472a 3831 cde7 e2bf
00000640: 6b23 6557 c91a ce3f 014a c887 a3a1 bc3f
00000650: a4d2 f57c 54bd b5bf b118 d45c 49c8 c63f
00000660: 0f93 85d7 b9b6 84bf adb5 6810 5757 e1bf
00000670: 9037 f265 5520 c43f f69a 8777 34a1 d43f
00000680: 45c8 cd24 0583 cd3f 50b1 4da1 45a4 c03f
00000690: d29b 2e82 a0aa b23f 86c5 501c b427 c9bf
000006a0: 6317 ceb5 24ef d9bf 4014 92c1 4ac0 b03f
000006b0: 4e96 b097 c630 c9bf e330 4903 eb7f c0bf
000006c0: 88b9 2f25 e5b0 b9bf 8dd2 32bb 244e de3f
000006d0: 1fde 98bd 724f bc3f 71cf e227 9e81 cb3f
000006e0: 0c2b aafa 8bbd b9bf 2616 62aa f8ee b23f
000006f0: d9b5 ceb3 9e5b d23f 02c7 21ba ed9f df3f
00000700: 027b cf7e ae41 d6bf a2a5 eeea bee4 a43f
00000710: 0071 3a5d db24 d83f e5bf fbb4 a73c c8bf
00000720: 137d f21e 8717 e0bf b60c ad0d 4da7 bb3f
00000730: de46 8c2f 77de c03f bff6 59f4 1541 d73f
00000740: 3d60 566b f0a0 d73f 817b 1e7c 11a5 c6bf
00000750: 0f9b 7992 46e1 a0bf 43d0 08f1 fe34 c73f
00000760: a8cc a9f3 eb71 d53f 743e 1865 80ac 9d3f
00000770: 1dfc b31c 0687 bc3f 6ee2 3322 a172 97bf
00000780: 27de 456d 8bd3 c63f 57a7 3fbc 37ce d6bf
00000790: 3fd4 d0dd e7d6 c3bf 8190 08fb 0d48 c9bf
000007a0: b455 0bd9 9927 d1bf 4953 a219 2a2c 993f
000007b0: 6620 8016 7ea3 b3bf e160 846b ae8b d6bf
000007c0: bc14 8ef7 0a8b a53f 5258 d3df 95a8 bfbf
000007d0: 0ee4 3325 b05f babf 5e84 225d 7fdc ce3f
000007e0: 080a 11b3 e210 c63f 3b5f d383 dacc cbbf
000007f0: 4647 b021 c1fb abbf 81a3 9b23 6562 be3f

hidden_layer3.bias f8 [20]
0.07587429791526203 0.1269457279639316 0.04570537179978192 0.06824257721224686 -0.10619290327155947 -0.1033274699366291 0.10599688080611709 0.29490179835115116
0.23789577079884797 -0.05729442905367038 -0.012324226599029847 -0.22947011058125083 0.08497192154853586 -0.2697879382062265 -0.3985518059434626 0.03976093721834177
-0.36325077861372657 -0.11327056271419525 -0.18130226083342252 0.218712255433788
00000000: c12b 277c 7f6c b33f 766a fcf2 c13f c03f
00000010: fb5e 43ca b166 a73f 5444 5275 5878 b13f
00000020: 265f 9e46 752f bbbf afff 2748 ab73 babf
00000030: fd4f 8a90 9c22 bb3f 36c9 dcca abdf d23f
00000040: a508 b85d 5e73 ce3f 6898 0e06 b255 adbf
00000050: 30d6 87b1 713d 89bf 9e90 2dce 465f cdbf
00000060: d215 2148 b8c0 b53f 60dd dca0 3444 d1bf
00000070: 827d 126f df81 d9bf 36ad 05aa 8b5b a43f
00000080: 961e 9931 803f d7bf 02fd 74b2 4cff bcbf
00000090: 7136 7c98 e934 c7bf 4348 2960 c3fe cb3f

hidden_layer4.weight f8 [20, 20]
0.34634608772414816 -0.14627622179552396 0.17921693163895433 0.013639883315014718 0.18798929887867732 0.2109944132374669 0.09355975997250131 0.09700139405642774
0.2518234598685348 0.026297007904240517 0.2362690578049743 -0.1319533900201783 0.04230533693590528 0.12508825773885493 -0.046313963650557836 -0.3019419982486091
-0.041370504583959786 -0.014157424337831908 -0.08312275399787114 0.10280118091812962 0.08330657975008124 0.018997176091902712 0.02045033910463885 0.1461475875359405
0.3885858556152564 0.032470082202104025 0.13202848473229706 -0.17453253359594004 -0.1339184972380882 0.1636126046383709 0.034243314473546546 0.2043960043275836
-0.3713738403379104 -0.10416657428686855 0.15166012999756012 -0.2954777439494753 0.054005865341905095 0.13612749768822133 -0.12026089904219926 -0.20684569345665046
0.15415540229125663 0.15220085874775888 0.10358861660770424 0.07681951992114498 0.07282100147004789 0.2699526130669268 -0.014984564845499421 0.08666358696515314
0.30244589065928057 0.06437124684267678 0.21564336508493634 -0.45496749250800433 -0.026537719822585647 -0.138649349421563 0.06610177920883338 -0.17888153827477637
0.07521268945083955 -0.5132708798920902 0.004641987342359356 0.11333297170566253 0.025534349817586417 -0.27881946296282895 0.4466292316744474 -0.16865608266928925
0.1349328306888609 -0.10573333345610275 -0.12041466055275615 0.17569414962998567 0.1655266484192658 -0.18481909439495167 -0.18235634626080993 0.03885281160583481
0.25724570234605 0.163663674892443 0.0445273191057294 0.2034481139011463 0.03247883877614573 0.5203148627100302 -0.09481514462237986 0.0035273662072082203
-0.06510097026914746 0.08661097260838799 -0.150749002380744 0.003011489318425145 0.05135015340236666 -0.14269304605066901 -0.034163473310915016 -0.022362731427839268
-0.1090031004514617 0.051271860946242566 -0.17872007102006482 0.22858437215064842 0.12784150560670943 0.192389559717857 0.13997792009226898 0.21424909227311775
-0.1322150984500305 0.22812401474052574 0.02000863327633087 0.0049955623185668875 -0.2938971022929665 -0.0006921321241518695 -0.09976085064488685 -0.2232111566434859
0.0637513577093152 -0.09230075250112994 -0.30086082617129306 0.025906955835160478 0.20072977044633455 -0.12535277082263147 -0.033123037671178274 -0.06991339888491951
0.07058787470521297 -0.340399648868313 0.3578925039874485 0.19592017216609858 0.3095001961967294 0.34305176695515094 0.0368180152739227 -0.11270629608439041
-0.30195711074097054 -0.22098073101889718 -0.16325273910194424 -0.16170441986780035 -0.0006537433007355728 -0.12429993415269106 -0.21807261309701523 -0.015562233831289003
0.23825225101762545 -0.15238182209313628 0.06565681825719626 0.07957154931270344 0.2599754856691372 -0.19991449171894213 0.2836111636137342 0.23378120682808182
0.09658186811427653 -0.002179343725717086 0.0019039340587665465 0.20653395182581055 -0.11974201472081407 0.08651145656028214 -0.1999255592053635 0.06922643414101493
-0.23399788474580957 -0.058039471338114136 -0.19320626503842567 -0.012901459026663042 0.08090794453913497 0.024960226779548848 0.024775045813538853 0.11422658718568038
-0.011282852218445293 -0.10568822149062483 -0.21223194368591253 0.09148669103579425 0.1336306091230237 -0.2396455538565106 -0.03769389640659769 0.004216237069612242
-0.0738751976596582 0.33126418267842483 0.023362124705124283 0.09553180734040649 0.1937795063932119 -0.015706891947191756 -0.14515511792585006 0.2208269461414177
0.02966111252869748 0.17625664420843706 0.28888334416598516 0.09730929397958744 -0.32399940197053945 -0.23878221006425135 -0.34562661380068693 -0.0029752697342704565
0.2129441581632478 -0.29155526290061595 -0.14949569919779782 -0.1543373543411627 -0.09503590462910579 -0.07332893551271046 -0.05193627089255909 -0.16912764355515156
0.45601986927387733 0.10692565803116853 0.14562609100761328 -0.12232842602711162 0.012346293650427153 -0.1790540983090317 -0.16284827905847227 -0.03845673815592958
-0.016664054217900837 0.058442914820180804 0.2837272625303262 0.22033348281564452 -0.043623150587045585 0.14902131480785727 0.1888119110525055 -0.06402273265350784
0.048976301927600926 0.19927125126895126 0.11512231474545387 -0.02174714896010253 0.13990365066733604 0.07170404153507351 0.199138999022709 -0.0762664367455645
0.017366630219388737 0.02445041863448906 -0.004189637789343295 0.05562108845389878 -0.27244812344034297 0.08740896415805474 0.41831372143979395 0.026545349675696897
-0.04566149964739234 0.1525137107572607 0.08265578854718333 -0.31244838926567153 -0.1496577891663318 -0.2058515311245126 0.0375176285197276 -0.0742614538847509
0.3582142098718001 0.30424904700441135 0.4547682645355093 -0.0919105606280126 0.03654642603538532 -0.18954019776862868 -0.03629616618352095 0.28341637550494403
-0.5073572869191397 0.4217345399962456 0.48611288019575677 -0.01039058932166896 -0.22579334630700487 0.0881036891113673 0.09465681924937565 -0.31653142686894614
-0.10358906970703494 -0.12448307800235571 -0.03555016672271144 -0.07868311795308573 -0.13903133034235943 0.14508659991927375 0.0439768664422897 0.16695425102038314
-0.10337585032882322 0.16514563720502604 0.1334581696361526 0.0046821232849056146 -0.03239232293749301 0.461097511891676 -0.13708548035400067 0.1376814512612973
00000000: 5bdb f7c7 882a d63f eea8 65e2 2db9 c2bf
00000010: f3ae 2396 94f0 c63f aaee 1226 3aef 8b3f
00000020: 2048 5789 0810 c83f 432f 3f6c dd01 cb3f
00000030: 5fb2 4d4d 88f3 b73f 2a86 2357 15d5 b83f
00000040: 2a0f 2025 e01d d03f 25b8 b953 9aed 9a3f
00000050: e31f 2a82 103e ce3f e6d2 5d43 d9e3 c0bf
00000060: ca04 2c8d 0ba9 a53f 5d0e 0d5c e402 c03f
00000070: df5d 74be 76b6 a7bf 0c11 f187 0453 d3bf
00000080: 560c 6ac8 832e a5bf e370 3654 91fe 8cbf
00000090: 5e6c f965 8847 b5bf 7896 089e 2d51 ba3f
000000a0: 8676 917b 9453 b53f 30d2 1fe8 fe73 933f
000000b0: f40c 9606 eff0 943f b596 6dd2 f6b4 c23f
000000c0: a890 6335 97de d83f a21c 502a eb9f a03f
000000d0: 4267 0834 4fe6 c03f 81f8 f001 1557 c6bf
000000e0: 77c8 fbc6 3d24 c1bf 9c4d 1101 42f1 c43f
000000f0: 5e82 8af7 5688 a13f de90 02f5 a529 ca3f
00000100: 0dd7 b5c8 96c4 d7bf 2501 e61d a9aa babf
00000110: 262b 3961 9969 c33f ef5d bd7b 1be9 d2bf
00000120: 1f0f df22 a8a6 ab3f fd1f 5437 a06c c13f
00000130: 97b1 5f14 6bc9 bebf 177d 5b70 eb79 cabf
00000140: a2dc ab3d 5dbb c33f a353 5f57 517b c33f
00000150: a066 9198 c884 ba3f 0f78 c1ad 71aa b33f
00000160: 609c c6ab 65a4 b23f 7de6 2553 e746 d13f
00000170: 1d52 a63f 3ab0 8ebf 64f6 c4b7 952f b63f
00000180: a73c 4c02 465b d33f 56f6 fd4f a27a b03f
00000190: f9d0 51a8 339a cb3f 0529 44f9 2f1e ddbf
000001a0: d660 fe3a b42c 9bbf 074b b00a 43bf c1bf
000001b0: 4dcb e8d3 0bec b03f 80c9 5f1a 97e5 c6bf
000001c0: dd80 6f89 2341 b33f 8005 640d b76c e0bf
000001d0: 289c 2efd 7903 733f ccc8 08bf 6303 bd3f
000001e0: 858b 9035 ad25 9a3f f978 ba96 2dd8 d1bf
000001f0: d1ad dec5 9295 dc3f 5504 abc3 8596 c5bf
00000200: 0191 7b9f 7a45 c13f 8c80 4af9 5611 bbbf
00000210: 9674 08c5 7ed3 bebf 5d31 6159 257d c63f
00000220: e4e2 c92a fa2f c53f c723 0def 26a8 c7bf
00000230: e640 b4e7 7357 c7bf b7cf 6806 84e4 a33f
00000240: b138 a7ad b676 d03f 6265 9a69 eef2 c43f
00000250: 43e2 ace6 48cc a63f 06b4 d179 960a ca3f
00000260: 8a11 b6fc 10a1 a03f 3ecb de5a 6ba6 e03f
00000270: da91 5129 ce45 b8bf 71fc 0750 6ce5 6c3f
00000280: 646d 3e0a 75aa b0bf 46e9 d3fe 222c b63f
00000290: 46a1 9049 be4b c3bf 6d03 5104 8dab 683f
000002a0: 8af7 033b 914a aa3f 50be 1307 c443 c2bf
000002b0: d821 2df1 df7d a1bf daf6 8680 41e6 96bf
000002c0: 7b04 9a8f a0e7 bbbf 3d37 f02b 4e40 aa3f
000002d0: c4c1 159e 4ce0 c6bf d8c1 61b1 4042 cd3f
000002e0: de7b d346 1c5d c03f 953e 8a99 38a0 c83f
000002f0: bdac 7ae6 cbea c13f 815f 41a6 836c cb3f
00000300: b6ad f0a1 6cec c0bf 6a13 5fef 2a33 cd3f
00000310: 27ed 3ca6 247d 943f edb3 880c 3a76 743f
00000320: 8232 afca 35cf d2bf 132c 3b6b 06ae 46bf
00000330: c2e0 f056 ed89 b9bf e46b f1e4 2e92 ccbf
00000340: 32e6 6f4c 0252 b03f 9377 63a9 05a1 b7bf
00000350: 5c68 43c4 4d41 d3bf 2827 3460 5a87 9a3f
00000360: ac46 b35b 83b1 c93f 32b6 9241 8f0b c0bf
00000370: 2c72 15b7 80f5 a0bf 864f c331 d8e5 b1bf
00000380: 8660 5a05 0c12 b23f f864 dd9b 1bc9 d5bf
00000390: 5b04 07f6 b5e7 d63f 2840 0a86 e913 c93f
000003a0: 7850 31e9 d9ce d33f a012 fa65 8ff4 d53f
000003b0: f09f 0297 cfd9 a23f 175a bcdf 51da bcbf
000003c0: ea55 dbea 4353 d3bf e9db 62ba 1849 ccbf
000003d0: 476f b63b 77e5 c4bf 9fb5 79fd bab2 c4bf
000003e0: 78a5 5e0c ff6b 45bf caac 14d8 1ed2 bfbf
000003f0: 21d5 b3aa cde9 cbbf d75e ddaa 17df 8fbf
00000400: bfd7 28bd 0c7f ce3f 6e8c 325f 3f81 c3bf
00000410: 1790 2c9f e2ce b03f 0478 fd11 cd5e b43f
00000420: 787b 2d38 70a3 d03f eff3 f64d cc96 c9bf
00000430: 7818 2070 af26 d23f b17d dfe6 8aec cd3f
00000440: a3f9 efdc 96b9 b83f 6517 eb40 6ada 61bf
00000450: 0f7c 08a1 ad31 5f3f e380 4d5c b46f ca3f
00000460: 2bdc 2ea5 69a7 bebf 58de a764 9d25 b63f
00000470: 49f5 3525 2997 c9bf f083 a7d6 d2b8 b13f
00000480: c280 2887 a4f3 cdbf ed74 8c7e 59b7 adbf
00000490: d975 dc9e fbba c8bf b3bb b884 146c 8abf
000004a0: 103c c80f 62b6 b43f d128 e076 2c8f 993f
000004b0: 23ad 1a2e a15e 993f 1ad3 4b20 f43d bd3f
000004c0: 4c45 45ca 761b 87bf 47e8 df1e 620e bbbf
000004d0: be14 a694 6a2a cbbf 2b9b 04fa ab6b b73f
000004e0: f0c6 f6cb ce1a c13f ca06 399c b4ac cebf
000004f0: ee79 a648 9d4c a3bf 5dfb 3785 0b45 713f
00000500: 670b ef25 7ce9 b2bf 0829 bcaf 6e33 d53f
00000510: 3259 4ba6 3dec 973f cb3b 41c4 c574 b83f
00000520: de03 4c51 c4cd c83f 5ca2 f0ac 7715 90bf
00000530: 9655 2b62 7194 c2bf 6b60 e0af 0e44 cc3f
00000540: 154d 1891 7b5f 9e3f 1afa 49e5 938f c63f
00000550: 4654 e390 107d d23f c13a 3d0b 43e9 b83f
00000560: 04c5 d8fc 67bc d4bf 0fd9 8b5b 6a90 cebf
00000570: d0ac b916 bf1e d6bf 4936 93c6 975f 68bf
00000580: 36bb 9711 c141 cb3f 04a1 c867 d7a8 d2bf
00000590: b03d 79d1 ac22 c3bf 8425 b990 53c1 c3bf
000005a0: ade9 53e6 4554 b8bf 5fa9 e063 afc5 b2bf
000005b0: c862 eb11 6497 aabf 359f f580 f9a5 c5bf
000005c0: 41e1 36f6 6d2f dd3f bbde 58dc 7a5f bb3f
000005d0: e937 2931 e0a3 c23f 7358 286d ea50 bfbf
000005e0: 39a7 a47b 0349 893f 1bdd 39a4 3eeb c6bf
000005f0: f20c 6260 36d8 c4bf 2690 6101 9ab0 a3bf
00000600: fde2 89bf 6110 91bf 7dd2 abcf 3aec ad3f
00000610: 7049 6364 9628 d23f a217 7437 e333 cc3f
00000620: 315c 3d0a c655 a6bf 7bda c064 2113 c33f
00000630: 386b 881b fd2a c83f ad86 f236 cb63 b0bf
00000640: 0ebb 1dfe 6b13 a93f abd7 9d69 b881 c93f
00000650: 701d dff0 a778 bd3f 1b70 4276 e244 96bf
00000660: 1586 1ae2 5ce8 c13f ba58 6231 325b b23f
00000670: 2f92 1400 637d c93f 7dca 9a7b 3286 b3bf
00000680: 1404 56d3 8ec8 913f 6472 a2d1 8709 993f
00000690: d0d7 9854 2729 71bf fe3c c107 5e7a ac3f
000006a0: 1e1a 0241 ca6f d1bf 06a3 6f12 6f60 b63f
000006b0: 7653 43ea a6c5 da3f 043c df42 b42e 9b3f
000006c0: c6fe 57af f160 a7bf d76f f2bb 9185 c33f
000006d0: 569f a204 ee28 b53f 385f 6587 27ff d3bf
000006e0: c1d0 0787 fc27 c3bf 8872 01cd 5759 cabf
000006f0: bd0a 08b7 8235 a33f b7d5 c973 cc02 b3bf
00000700: be28 174b fbec d63f 7e47 aefe d078 d33f
00000710: 7b13 dc59 ec1a dd3f 2fe9 0d54 7387 b7bf
00000720: 971f 3791 36b6 a23f f2c8 586b da42 c8bf
00000730: 52f1 743d 6995 a2bf 2a74 fc6f 7e23 d23f
00000740: 4f8f 5659 453c e0bf 9d28 38de b2fd da3f
00000750: a3ba a632 791c df3f 17f6 944a a947 85bf
00000760: a480 05df cbe6 ccbf fde8 639f f68d b63f
00000770: c9fa 04e7 6d3b b83f d5bb a307 0d42 d4bf
00000780: 2e62 9d32 d084 babf d9ef ec7c 1fde bfbf
00000790: 48fe e1a6 a133 a2bf 9b16 5baa 9324 b4bf
000007a0: 924b 7854 c7cb c1bf ecdc de9c 3292 c23f
000007b0: 3fe6 4cc6 2284 a63f aec5 07c4 c15e c53f
000007c0: c7c5 5bf8 d676 babf 93b3 6f03 7e23 c53f
000007d0: 6a53 fc44 2815 c13f a6f3 26e6 8f2d 733f
000007e0: c9e5 50ff b995 a0bf bcde 7523 9f82 dd3f
000007f0: b73d 705b 048c c1bf 7d6f 37b9 8b9f c13f

hidden_layer4.bias f8 [20]
0.10928689951011579 -0.02757306808011057 0.39478591155983794 -0.03649760231939295 -0.2917661695059194 0.03327322054664334 0.14460498715827202 0.1060607061932649
0.15785297100308965 -0.17480444352846777 -0.19625352128135176 -0.23655753209927324 -0.22268549195457854 0.168755662367139 0.1826603632439723 -0.3316778333379752
0.25547276417916587 0.01147985900048861 -0.08684787731160053 -0.015062456282763294
00000000: a5f5 46eb 39fa bb3f d229 9e46 1d3c 9cbf
00000010: 1f8c c420 2c44 d93f d43b b050 d0af a2bf
00000020: feda 0603 4cac d2bf e92d 2904 3009 a13f
00000030: aa75 578d 6a82 c23f f7a0 7d60 cb26 bb3f
00000040: 4271 04b2 8634 c43f 533b 13f4 fd5f c6bf
00000050: 5c6a d0db d51e c9bf 9992 fe67 8447 cebf
00000060: fc89 9e4c f580 ccbf e3da 7019 c999 c53f
00000070: 8944 342f 6a61 c73f daa9 bfa9 353a d5bf
00000080: 68c4 ca6f aa59 d03f 2b21 c297 c082 873f
00000090: abc4 c798 a93b b6bf 9420 0ea9 10d9 8ebf
