net_param/net_0.17000000.pth (torch, 36251 bytes, 10 tensors)

layers.0.weight f4 [40, 80]
0	0x3d7f5d40	0.06234479
1	0xbe8f5fd2	-0.28002793
2	0xbcd221ce	-0.025650885
3	0x3e59e8e1	0.21280243
4	0x3ea8568a	0.32878524
5	0xbd2f32d6	-0.04277309
6	0xbe18781d	-0.1488957
7	0x3e6bda7c	0.23032564
8	0xbe3e8efa	-0.18609229
9	0x3df59e55	0.1199309
10	0xbe724f1e	-0.23662993
11	0x3dd3a874	0.10334864
12	0x3ec61874	0.3869053
13	0x3dbdbc33	0.09264412
14	0x3de87227	0.11349898
15	0x3cf173ca	0.029474158
16	0xbdb355a5	-0.0875657
17	0x3e8c6d22	0.27427012
18	0xbe338cf7	-0.17534243
19	0x3e161e3a	0.14659968
20	0x3e048ec9	0.12945093
21	0xbe56df5f	-0.20983647
22	0xbdaacf11	-0.08340276
23	0x3da7112b	0.081575714
24	0xbe8017b9	-0.250181
25	0x3dbec703	0.09315302
26	0xbea3a794	-0.3196379
27	0x3dbfb4e4	0.09360674
28	0x3d938738	0.07203525
29	0xbe3bd9aa	-0.18344751
30	0x3e189070	0.14898849
31	0xbde9b5b8	-0.11411613
32	0xbeb86229	-0.3601239
33	0xbe7ff050	-0.24994016
34	0x3e406a15	0.18790467
35	0x3e82f2af	0.25575778
36	0xbebdcfd5	-0.37072626
37	0x3e0e5f1e	0.13903472
38	0x3ddc31e2	0.10751702
39	0xbe4f1fd8	-0.20226991
40	0xbe24a59d	-0.16078801
41	0xbdb374d2	-0.08762516
42	0x3db69d8b	0.08916768
43	0xbe8229e7	-0.25422594
44	0x3e042aa2	0.12906888
45	0x3e8587ed	0.26080266
46	0xbe6dce6c	-0.23223275
47	0x3e37f400	0.17964172
48	0xbe2f49a7	-0.1711794
49	0x3dcf3ea9	0.10119373
50	0xbe868411	-0.26272634
51	0xbdc85a5a	-0.09782858
52	0x3e9c9984	0.30585873
53	0x3dba5643	0.09098484
54	0x3e1b8ccc	0.15190428
55	0xbe54f9c0	-0.20798397
56	0xbcc96101	-0.024582388
57	0x3dc378f2	0.09544553
58	0xbe0e9a67	-0.13926087
59	0x3e7c9604	0.24666601
60	0xbe48c96d	-0.19608088
61	0xbdea642c	-0.114448875
62	0xbe804b5a	-0.2505749
63	0x3e93ed6e	0.28892082
64	0x3ead36b5	0.338308
65	0xbe88bfd9	-0.26708868
66	0x3c973d43	0.018461829
67	0xbe0c3110	-0.13690591
68	0x3d350809	0.044197116
69	0xbe27a27c	-0.16370577
70	0x3e8f31c7	0.27967665
71	0x3e8eaeee	0.27867836
72	0xbe9bf351	-0.30459073
73	0xbdd2a276	-0.10284893
74	0x3ea26347	0.31716368
75	0xbde16471	-0.11005486
76	0xbdf119ba	-0.11772485
77	0xbe22fbe1	-0.15916397
78	0x3cf40d77	0.029791577
79	0xbec4529c	-0.38344276
80	0x3e515ab4	0.20444757
81	0xbe762641	-0.2403803
82	0x3d89e2cc	0.06732711
83	0xbe635e32	-0.22203901
84	0x3e1515ca	0.14559093
85	0x3e974b0c	0.29549444
86	0xbe85139f	-0.25991532
87	0xbe4fa361	-0.20277168
88	0xbe81ff2d	-0.25389996
89	0x3d37bbb6	0.04485675
90	0x3e2d954a	0.1695148
91	0xbe42195f	-0.18954991
92	0x3db73126	0.08944921
93	0x3e2d318e	0.16913435
94	0xbe0d9e58	-0.13829935
95	0xbe3f2027	-0.18664609
96	0x3ea56683	0.32304773
97	0xbea2e81a	-0.31817704
98	0xbeb2227a	-0.3479193
99	0xbdf05977	-0.11735814
100	0xbea31baf	-0.31857058
101	0xbe9ff060	-0.3123808
102	0x3b9ebe58	0.004844468
103	0xbe67ba16	-0.2262958
104	0x3ce33361	0.02773446
105	0x3e0f53fc	0.13996881
106	0xbe27844f	-0.16359065
107	0x3d28f7fe	0.04125213
108	0x3e99993a	0.29999715
109	0xbe13640e	-0.14393637
110	0xbc06cddc	-0.008227792
111	0x3e59ec63	0.2128158
112	0xbe8dfde6	-0.27732772
113	0x3dee1450	0.11624968
114	0x3e847dde	0.2587728
115	0x3ea139a9	0.31489304
116	0xbc6bba78	-0.014387719
117	0xbcaeebaa	-0.021352608
118	0xbe583405	-0.21113594
119	0xbe79462e	-0.24343178
120	0x3bf9aeb2	0.0076197023
121	0x3c7fc1b0	0.015610144
122	0xbe889d96	-0.2668273
123	0xbe072241	-0.1319666
124	0x3e261255	0.1621793
125	0x3d605155	0.054765064
126	0xbe878b6a	-0.26473552
127	0x3e848350	0.25881433
128	0xbe3134b9	-0.17305268
129	0x3e06f75d	0.13180299
130	0xbe8eaf96	-0.27868336
131	0x3c51ff7a	0.012817258
132	0xbdc9a755	-0.09846369
133	0x3d30d0a5	0.04316773
134	0xbec60320	-0.3867426
135	0x3dd53816	0.10411088
136	0x3dee632c	0.11640009
137	0x3e16e491	0.14735629
138	0xbe9d284c	-0.30694807
139	0xbe06a2aa	-0.13147989
140	0x3dec0c13	0.115257405
141	0xbce23139	-0.027611362
142	0xbd92eb40	-0.071737766
143	0xbe4aadd1	-0.19792868
144	0x3d08948c	0.03334479
145	0x3e5e241e	0.21693465
146	0xbd847edb	-0.06469508
147	0x3e8bc2e0	0.27297115
148	0x3e47ff32	0.19530943
149	0xbe0aeebd	-0.13567634
150	0xbdff03a9	-0.1245187
151	0x3d0ff96e	0.035149984
152	0xbcfda285	-0.030961284
153	0xbe5a35ec	-0.21309632
154	0x3d65f5b3	0.05614252
155	0x3e73ca6a	0.23807684
156	0x3de127d1	0.109939225
157	0x3e29c6a1	0.16579677
158	0xbe50396d	-0.20334406
159	0x3ea30bca	0.31844932
160	0x3e262358	0.1622442
161	0xbe507cd9	-0.20360126
162	0x3d4129e2	0.047159083
163	0x3d16bd67	0.036801722
164	0xbcfccc07	-0.030859007
165	0xbe905a2b	-0.28193793
166	0xbe71ae30	-0.23601604
167	0x3dd014a2	0.101601854
168	0x3dd5746e	0.10422598
169	0xbdfa2103	-0.12213328
170	0x3e93a520	0.28836918
171	0xbed0f527	-0.40812036
172	0x3e279079	0.16363706
173	0x3e48d5e2	0.1961284
174	0xbe0d43ca	-0.1379539
175	0x3e8d1f38	0.2756288
176	0xbdcd9be7	-0.10039502
177	0x3d3834dd	0.04497229
178	0xbe40d10c	-0.18829745
179	0x3e55c5af	0.20876192
180	0xbe9e37d0	-0.30901957
181	0xbbee01ee	-0.0072634136
182	0x3e9bf36f	0.30459163
183	0xbdee17d3	-0.11625638
184	0xbe96846c	-0.29397905
185	0xbec6d4d2	-0.38834244
186	0xbec4d667	-0.38444826
187	0xbd18759f	-0.037221547
188	0x3eb5808d	0.3544964
189	0x3d45656f	0.048192438
190	0xbe753698	-0.23946607
191	0x3e9fdd7f	0.31223676
192	0xbc46a70f	-0.012124791
193	0x3e96024c	0.29298627
194	0xbeb7f951	-0.359324
195	0xbcc555a0	-0.02408868
196	0x3d11164f	0.035421666
197	0x3cddee93	0.0270913
198	0x3e4db69c	0.20089191
199	0x3e21cf22	0.15801671
200	0xbda8822f	-0.082279555
201	0xbc7a6e93	-0.015285152
202	0xbe948049	-0.29004124
203	0x3e9ec773	0.31011543
204	0xbe991c0b	-0.29904208
205	0xbe43c1ff	-0.19116972
206	0x3e783c87	0.2424184
207	0x3dc8ac04	0.097984344
208	0xb9f2921a	-0.0004626669
209	0xbe0b2dec	-0.13591737
210	0x3e60da91	0.21958376
211	0x3e5ac6c2	0.21364883
212	0xbe610bb9	-0.21977128
213	0x3c3a9872	0.011388885
214	0x3e0a2bb4	0.13493234
215	0xbd925bd8	-0.07146424
216	0xbe10d34a	-0.141431
217	0x3cdc784a	0.026912827
218	0x3c43c730	0.0119493455
219	0x3eb03d29	0.34421661
220	0xbd7c413e	-0.061585657
221	0x3d3045a7	0.043035176
222	0xbe6c639c	-0.23084873
223	0xbc2471e9	-0.010036924
224	0x3e6722dd	0.22571893
225	0x3c428618	0.011872791
226	0xbe743a78	-0.23850429
227	0x3dc9e2af	0.098576896
228	0x3d8508b1	0.064957984
229	0xbe5231ca	-0.20526806
230	0xbe9488f8	-0.2901075
231	0xbe51c96d	-0.20486994
232	0x3ebf4896	0.37360066
233	0xbe858c6c	-0.26083696
234	0x3e906290	0.28200197
235	0xbda86be0	-0.082237005
236	0x3de92101	0.11383248
237	0xbaad7ced	-0.0013236083
238	0xbe090b51	-0.13383223
239	0x3dd746e2	0.10511567
240	0x3e56d142	0.20978263
241	0xbd1d9c85	-0.038479347
242	0xbe8e3d47	-0.27781126
243	0xbe4d4bd8	-0.20048463
244	0x3ea79e79	0.32738093
245	0x3dc19199	0.09451599
246	0x3d32775e	0.04357087
247	0xbd948810	-0.07252514
248	0xbd2fbb2d	-0.042903114
249	0xbeadef6f	-0.33971736
250	0xbe41d98c	-0.18930644
251	0x3cbb2d9a	0.022848893
252	0x3ea80e8f	0.32823607
253	0x3dc626e1	0.09675384
254	0xbe2e7948	-0.17038453
255	0xbdda16a7	-0.10648852

layers.0.bias f4 [40]
0	0x3e0c43b5	0.13697703
1	0xba8518ee	-0.0010154524
2	0xbd02faba	-0.031977393
3	0x3d0c809f	0.03430235
4	0x3d53a780	0.051673412
5	0x3d8dd21d	0.069248416
6	0xbd97792e	-0.0739616
7	0x3dc4f66f	0.09617316
8	0x3cad728b	0.021172782
9	0xbc1ce4f0	-0.009576067
10	0xbdcb7114	-0.09933677
11	0xbb9c47b3	-0.0047692894
12	0xbc75466c	-0.014970403
13	0x3cbbb034	0.022911169
14	0xbbc4b807	-0.006003383
15	0xbe071aad	-0.1319377
16	0x3d44b7b5	0.04802676
17	0x3c88b48e	0.016687658
18	0x3d0a81cc	0.03381519
19	0x3cfe266f	0.031024186
20	0xbe067f3f	-0.13134478
21	0xbd123184	-0.035691753
22	0xbbee64f5	-0.0072752186
23	0xbd61c99d	-0.055123914
24	0x3daedf86	0.085387275
25	0xbdd5ecdb	-0.10445567
26	0x3d078675	0.033087213
27	0x3de2b8b3	0.11070385
28	0x3e0cbce3	0.1374393
29	0xbdc9ce35	-0.09853784
30	0xbca2800e	-0.019836452
31	0xbdba724c	-0.09103832
32	0xbc43064f	-0.01190336
33	0x3d3c342a	0.045948185
34	0x3bde8d50	0.006791748
35	0x3d2f07f8	0.04273221
36	0x3b8d7fca	0.004318212
37	0xbd0d5082	-0.034500606
38	0x3d94a84f	0.07258665
39	0x3dba9c19	0.091118045

layers.1.weight f4 [40, 40]
0	0x3eb86d25	0.3602077
1	0x3ea84f6e	0.328731
2	0xbe8ae74d	-0.27129593
3	0x3ead160b	0.3380588
4	0x3ef255db	0.47331128
5	0xbde5a6fa	-0.11213489
6	0xbed7debc	-0.4216212
7	0x3e4e9571	0.20174195
8	0xbda310d4	-0.07962194
9	0xbd0b125a	-0.03395305
10	0x3e0611ca	0.13092723
11	0x3e54d9f5	0.20786269
12	0x3ec8d2bf	0.39223287
13	0xbe0ed86a	-0.13949743
14	0xbedf68b5	-0.43634573
15	0xbe1e81fe	-0.15479276
16	0xbe2b0a17	-0.16703068
17	0x3e5e3574	0.21700078
18	0xbe6cb44a	-0.2311565
19	0xbdb389d1	-0.08766521
20	0xbe14ad2f	-0.1451919
21	0xbe99f40e	-0.3006901
22	0x3d449d2c	0.048001453
23	0xbdd99e51	-0.106258996
24	0x3e5c0e78	0.21489894
25	0xbe39ec59	-0.18156566
26	0x3e230840	0.15921116
27	0x3ca990cf	0.020698933
28	0xbeb1944a	-0.34683448
29	0xbe91e999	-0.28498533
30	0x3ea3433c	0.31887233
31	0xbe66d24f	-0.22541164
32	0x3e802b00	0.25032806
33	0x3e87cfff	0.26525876
34	0xbd94a496	-0.07257955
35	0x3eb6e58f	0.35722014
36	0xbe1229af	-0.14273714
37	0x3e055435	0.13020404
38	0xbc412492	-0.011788504
39	0xbe744269	-0.23853458
40	0xbe194952	-0.14969376
41	0x3e7a1385	0.24421509
42	0xbec95cde	-0.39328665
43	0x3db80f42	0.08987285
44	0x3e62229e	0.22083518
45	0x3ea4aad7	0.3216159
46	0xbe3eac49	-0.18620409
47	0xbe93cee8	-0.28868794
48	0x3ea3a582	0.3196221
49	0x3e2788e0	0.16360807
50	0x3cb24d55	0.02176539
51	0xbe97ac3e	-0.29623598
52	0x3ea37c90	0.3193097
53	0xbe35c704	-0.177517
54	0xbe6f323b	-0.23359005
55	0xbeda5337	-0.42641613
56	0xbe15dedf	-0.146358
57	0x3e817b3b	0.2528933
58	0xbe01a1a8	-0.12659323
59	0x3e99b628	0.30021787
60	0x3e87fc61	0.26559737
61	0x3e13a6d9	0.14419116
62	0xbd9f896a	-0.077898815
63	0xbe55a32b	-0.20863025
64	0xbe2110ae	-0.15729019
65	0xbe8e41b0	-0.2778449
66	0xbe4005c4	-0.187522
67	0xbe7e05cd	-0.248069
68	0x3ecb7e4b	0.3974479
69	0xbe4c1823	-0.19931082
70	0xbde8deb9	-0.11370606
71	0xbeaca0ea	-0.33716518
72	0xbddaa252	-0.106754914
73	0xbc435301	-0.011921645
74	0xbed77b81	-0.42086414
75	0xbe07955a	-0.13240567
76	0x3da085af	0.07837998
77	0xbdd69a01	-0.10478593
78	0xbd9f8b3b	-0.07790228
79	0xbdaaadd5	-0.08333937
80	0x3e9f3c78	0.31100821
81	0xbeb6f6c4	-0.35735142
82	0x3de66ce9	0.11251242
83	0xbec07b06	-0.3759386
84	0x3ecde30a	0.4021228
85	0x3eb51d43	0.35373887
86	0xbebf9cb1	-0.37424234
87	0x3e953172	0.29139286
88	0xbeaea10a	-0.34107238
89	0x3e8d4caa	0.27597553
90	0xbcd98c35	-0.026556114
91	0x3ead84c7	0.33890364
92	0xbcb822c6	-0.022477519
93	0x3e0fac97	0.14030682
94	0x3e86fd71	0.26365235
95	0x3dce6e88	0.10079676
96	0x3e236475	0.1595629
97	0xbe637446	-0.22212324
98	0x3eb75115	0.35804048
99	0x3e7488d9	0.23880328
100	0xbc18019a	-0.009277726
101	0xbc8dc87a	-0.017307509
102	0xbdf79fc0	-0.12091017
103	0x3e08d404	0.13362128
104	0x3e9923d9	0.29910162
105	0xbd59a51d	-0.05313598
106	0x3eb3b6e4	0.35100472
107	0x3ea2cba6	0.31795996
108	0x3cd61541	0.026133182
109	0xbe987325	-0.29775348
110	0x3ec642b3	0.38722762
111	0xbe8506e7	-0.2598183
112	0x3eab58f2	0.33466297
113	0x3d66694c	0.056252763
114	0x3e41017f	0.18848227
115	0x3e185245	0.14875133
116	0xbe01c9c6	-0.12674627
117	0xbe8468cf	-0.25861213
118	0x3e9bd84c	0.3043846
119	0x3ec6c59e	0.38822645
120	0x3eae2139	0.34009722
121	0xbd0cc61e	-0.034368627
122	0xbeb0176f	-0.34392878
123	0x3dc5d6f9	0.096601434
124	0x3e0bbb67	0.13645707
125	0xbe7f66d3	-0.24941568
126	0x3ed4f935	0.4159638
127	0xbd0cd2f1	-0.034380857
128	0x3e9be39a	0.30447084
129	0x3d0cf551	0.03441364
130	0xbe93b205	-0.28846756
131	0xbecf7dc3	-0.40525636
132	0xbead0967	-0.33796236
133	0xbdbdeb31	-0.09273375
134	0x3e985bb4	0.29757464
135	0xbe469217	-0.19391666
136	0x3db42718	0.08796519
137	0xbe51c708	-0.2048608
138	0xbe9c8213	-0.3056799
139	0xbc8a2eb9	-0.016867982
140	0x3ce7db8f	0.028302936
141	0xbdd47e2f	-0.1037563
142	0xbeb53ba6	-0.3539707
143	0x3d02872d	0.031867195
144	0xbe98e617	-0.29863045
145	0xbe2fe670	-0.17177749
146	0xba918370	-0.0011101793
147	0xbe85cb84	-0.26131833
148	0xbcadd5be	-0.021220084
149	0x3eb2aa45	0.3489553
150	0x3e6a31f7	0.22870623
151	0x3b91fcfc	0.004455207
152	0x3dea7612	0.114483014
153	0x3ea09b42	0.31368452
154	0x3dfe739c	0.124243945
155	0x3ddbc107	0.107301764
156	0x3defbd17	0.11705988
157	0x3df846fc	0.12122914
158	0xbeb8651f	-0.3601465
159	0x3eb6b82a	0.3568738
160	0xbe6024df	-0.21889065
161	0xbeb60a45	-0.3555471
162	0x3e03fd8a	0.12889686
163	0xbea109d4	-0.3145281
164	0xbead22fe	-0.3381576
165	0xbe3e06e8	-0.18557322
166	0x3ee0c6bf	0.4390163
167	0x3e6c9091	0.23102023
168	0xbde438dd	-0.11143658
169	0x3e64879f	0.2231736
170	0xbe15848f	-0.14601348
171	0xbc927532	-0.017878149
172	0xbd099b19	-0.03359518
173	0x3dae601e	0.08514427
174	0xbed30c55	-0.41220346
175	0x3eccb546	0.3998205
176	0x3e35b5c4	0.1774512
177	0xbe633509	-0.221882
178	0xbe7d0093	-0.2470725
179	0x3ea124a5	0.3147327
180	0xbe39d859	-0.18148936
181	0x3e6a31f8	0.22870624
182	0xbe8b15e5	-0.27165142
183	0x3cd3eab2	0.025868747
184	0xbecb60c8	-0.39722276
185	0xbe8dbe85	-0.27684417
186	0x3e95d6c5	0.2926542
187	0x3ed30bc8	0.41219926
188	0xbe90949f	-0.2823839
189	0xbe0f0c04	-0.13969427
190	0xbe13b2ac	-0.14423627
191	0x3ec69392	0.38784462
192	0x3eea1a07	0.45722982
193	0xbe1a8fcf	-0.15093921
194	0xbe85b8ce	-0.26117557
195	0xbd9b3e69	-0.07580263
196	0x3ea6b574	0.32560313
197	0xbed1f115	-0.41004243
198	0x3eb47f9b	0.35253605
199	0xbd3f90ea	-0.04676906
200	0x3e376b8e	0.17912123
201	0xbeca1556	-0.39469403
202	0x3eb49ce8	0.3527596
203	0xbeb76754	-0.3582102
204	0xbeb5b32e	-0.35488266
205	0x3e8ed774	0.27898753
206	0x3e475c94	0.1946891
207	0xbe00b757	-0.12569939
208	0x3ed5e10a	0.41773254
209	0x3ec9e8d7	0.39435455
210	0xbec48416	-0.38382024
211	0xbe397a56	-0.18113074
212	0x3e39da0b	0.18149583
213	0xbeaf595f	-0.34247872
214	0xbe54575e	-0.20736453
215	0x3ec835cf	0.39103553
216	0x3e48e46a	0.19618383
217	0xbd00a2ad	-0.03140514
218	0xbc328495	-0.010895868
219	0xbe2a98b1	-0.1665981
220	0xbc8fad7f	-0.017538784
221	0x3e8e422e	0.27784866
222	0x3e508c3d	0.20365997
223	0x3ddbe6cf	0.107373826
224	0xbbe2fb79	-0.0069269505
225	0x3d4b08ee	0.049569063
226	0x3ea06e8b	0.31334338
227	0xbd21590c	-0.039391562
228	0x3e6cddbc	0.2313146
229	0xbec42055	-0.38305917
230	0x3e9f84a5	0.31155887
231	0x3e3cc48b	0.1843435
232	0xbe0e65d1	-0.13906027
233	0x3e7c6ae8	0.24650156
234	0xbe2aa3d3	-0.16664056
235	0xbe889405	-0.2667543
236	0x3ea6f1f7	0.3260648
237	0xbe8f2e6e	-0.2796511
238	0x3d59cdcf	0.05317479
239	0xbe6e4c66	-0.23271331
240	0x3e9d241e	0.30691618
241	0xbd97eecb	-0.07418593
242	0xbeda94a6	-0.42691535
243	0x3d2cb188	0.042161494
244	0x3dd872e0	0.10568786
245	0x3c59ae95	0.0132862525
246	0xbe545c65	-0.2073837
247	0xbe191b8c	-0.14951915
248	0xbd1f7df9	-0.038938496
249	0xbb930eb6	-0.0044878377
250	0xbe97288d	-0.29523125
251	0xbe8c800a	-0.27441436
252	0x3e9e908f	0.30969664
253	0x3ebceb93	0.3689848
254	0x3ebb487e	0.36578745
255	0xbde63f09	-0.11242492

layers.1.bias f4 [40]
0	0x3d93a3ab	0.072089516
1	0xbe08d2d3	-0.13361673
2	0xbd448574	-0.047978833
3	0xbd5a6c88	-0.05332616
4	0x3dbd1138	0.092318
5	0xbe50dcef	-0.2039678
6	0x3d265594	0.040608957
7	0xbc8ae418	-0.016954467
8	0xbe61a212	-0.22034481
9	0xbdb8e5de	-0.09028219
10	0xbdd4acef	-0.10384547
11	0xbc7a925b	-0.015293683
12	0xbe067819	-0.13131751
13	0xbd39fd48	-0.045407563
14	0x39dfbc90	0.00042674365
15	0x3c9cb6ed	0.019130195
16	0x3d23942d	0.039936233
17	0x3da465f6	0.0802726
18	0xbe20cc7f	-0.15703009
19	0x3e7da093	0.24768285
20	0x3d3bb008	0.045822173
21	0xbdf09607	-0.117473654
22	0xbc6ee3f0	-0.014580712
23	0xbd8f7ec4	-0.070066005
24	0xbd1df67a	-0.038565136
25	0xbdfc86a9	-0.12330372
26	0xbdd6120a	-0.104526594
27	0x3d0447f4	0.032295182
28	0xbd1ecc28	-0.038768917
29	0xbcb87dd2	-0.022520933
30	0x3dda0581	0.10645581
31	0xbe1186e0	-0.14211607
32	0x3d452c60	0.048138022
33	0xbdf07ed8	-0.117429435
34	0xbe19410f	-0.14966224
35	0xbe0fd123	-0.14044623
36	0x3d12614c	0.03573732
37	0x3ded938e	0.116004094
38	0x3e0ca7bf	0.13735865
39	0xbdf9d785	-0.1219931

layers.2.weight f4 [40, 40]
0	0x3e9e203f	0.30883977
1	0xbe6f3198	-0.23358762
2	0x3dfe7887	0.124253325
3	0x3e43b5f9	0.19112386
4	0xbeb2a189	-0.34888867
5	0xbea3efcc	-0.32018888
6	0xbda3967f	-0.07987689
7	0xbe6acef4	-0.22930509
8	0xbe641d7d	-0.22276874
9	0xbe0e0e59	-0.1387266
10	0xbe3ad8cc	-0.18246764
11	0x3e0ed14b	0.13947026
12	0x3e3f8642	0.18703559
13	0xbcabffc2	-0.020995978
14	0x3eb10dd4	0.34580863
15	0x3ef6082c	0.4805311
16	0x3dc6fdd9	0.09716386
17	0x3ed2e7c6	0.41192454
18	0xbdc2e1c1	-0.095157154
19	0x3e78e8f4	0.24307615
20	0xbdc274f0	-0.0949496
21	0x3e5fa9ba	0.2184209
22	0xbecfd2f5	-0.40590635
23	0xbe5afc15	-0.21385224
24	0x3e9bec27	0.30453607
25	0x3e9ff82e	0.31244034
26	0x3e39a680	0.18129921
27	0xbdc221cb	-0.09479102
28	0xbd31894d	-0.04334383
29	0xbd85cfd5	-0.065337814
30	0xbc8288a9	-0.015934305
31	0xbdea4c8b	-0.11440381
32	0xbec1407f	-0.3774452
33	0xbe65e93e	-0.22452256
34	0x3d880f57	0.06643551
35	0x3eb5a82f	0.35479876
36	0xbe9c2543	-0.30497178
37	0xbea8ed96	-0.32993764
38	0x3defa213	0.11700835
39	0xbda64780	-0.08119106
40	0xbec3d73e	-0.38250154
41	0x3d017fed	0.03161614
42	0x3e2e9f19	0.17052878
43	0xbe4d8ef8	-0.2007407
44	0x3d72d56b	0.059285562
45	0x3ecae8b0	0.3963065
46	0xbebcb968	-0.36860204
47	0xbd915921	-0.07097078
48	0xbe3264d7	-0.1742128
49	0xbe9ec36e	-0.31008476
50	0x3d71f93c	0.05907558
51	0xbe12f4a8	-0.14351141
52	0xbb86ad1e	-0.0041099926
53	0xbe0d7447	-0.13813888
54	0xbedc718b	-0.43055376
55	0x3e9a9ed2	0.30199295
56	0xbdcb2969	-0.09920008
57	0x3caa2a1f	0.020772038
58	0xbe73680e	-0.23770162
59	0x3e5da7ca	0.21646038
60	0x3e6a2718	0.22866476
61	0xbcee5bef	-0.029096572
62	0xbe913956	-0.28364056
63	0xbe3b8b1e	-0.18314788
64	0xbce80ad2	-0.028325472
65	0x3b80c56b	0.003929784
66	0xbe230cdb	-0.15922873
67	0xbebea928	-0.3723843
68	0x3ebc8f3b	0.36828026
69	0x3eb2613f	0.34839818
70	0x3e8c6276	0.2741887
71	0xbe9ca280	-0.30592728
72	0x3e47acc5	0.194995
73	0xbe17788c	-0.14792079
74	0xbe616b03	-0.22013478
75	0x3ea3c13c	0.31983364
76	0x3ed51afa	0.41622144
77	0xbe53ef0f	-0.20696662
78	0x3e9fcf79	0.31212977
79	0xbd93d333	-0.072180174
80	0x3e257dd5	0.16161282
81	0x3ead7a45	0.33882347
82	0xbdf3ea88	-0.11909968
83	0x3e94df53	0.29076633
84	0x3eeaf1ef	0.45887706
85	0xbe9a0aea	-0.30086452
86	0x3e0ccabd	0.13749214
87	0x3ea5ef18	0.32408977
88	0x3cc0ce86	0.023535978
89	0xbe0dd2bb	-0.13849919
90	0x3eb1c325	0.34719196
91	0xbe842fff	-0.25817868
92	0x3eb4d275	0.35316816
93	0x3e54af15	0.20769913
94	0xbe903f80	-0.28173447
95	0xbed11e9e	-0.40843672
96	0x3d2b33d9	0.041797493
97	0xbeba9ab2	-0.36446148
98	0x3ef3117a	0.4747427
99	0xbe531d2a	-0.20616594
100	0x3e59c9e1	0.21268417
101	0xbeb7d85a	-0.3590725
102	0x3df44590	0.119273305
103	0x3eda5266	0.4264099
104	0x3e9ece11	0.3101659
105	0x3ebe7bf0	0.37203932
106	0xbeddddea	-0.4333337
107	0x3e2223d5	0.15833981
108	0xbeb4b033	-0.3529068
109	0x3d7ece86	0.062208675
110	0xbe693263	-0.22773127
111	0xbea8cab8	-0.32967162
112	0x3e9cd670	0.30632353
113	0x3e5780a2	0.21045163
114	0xbe3d18c7	-0.18466483
115	0xbdb81357	-0.08988064
116	0x3ea11509	0.3146136
117	0x3de0bad1	0.109731324
118	0x3e149038	0.1450814
119	0xbe996083	-0.29956445
120	0x3e5d896e	0.21634457
121	0x3dbe5c97	0.09295004
122	0xbd5cde0f	-0.05392271
123	0xbe690512	-0.2275584
124	0x3e585545	0.21126278
125	0x3cfca5ca	0.030840773
126	0x3c813ac6	0.015775096
127	0xbd600a17	-0.054697122
128	0xbe808e25	-0.25108448
129	0xbcd87aa8	-0.026425675
130	0x3eb67e98	0.35643458
131	0xbdcca174	-0.09991732
132	0xbd1fc77b	-0.0390086
133	0xbd6731b1	-0.056443874
134	0xbe5fd2ba	-0.2185773
135	0x3e155d5f	0.145864
136	0xbe81e660	-0.25371075
137	0x3e97fd53	0.2968546
138	0xbe95b267	-0.29237673
139	0x3c888dda	0.016669203
140	0x3ea1484b	0.31500468
141	0xbec59729	-0.3859189
142	0x3e4de1d0	0.20105672
143	0xbe3a3788	-0.18185246
144	0x3d9da030	0.07696569
145	0xbe8d8ac3	-0.2764493
146	0xbd8e3e11	-0.06945432
147	0x3ed2f757	0.4120433
148	0x3e8d2677	0.2756841
149	0xbe1bb207	-0.15204631
150	0x3c95fddf	0.018309532
151	0xbd48c7a7	-0.04901853
152	0x3d98d2a1	0.07462049
153	0xbc08bb9b	-0.00834551
154	0x3db24f21	0.08706499
155	0x3cbf3ad1	0.023343476
156	0xbe8b3ec1	-0.27196315
157	0xbd88ee3e	-0.06686066
158	0x3ed017b0	0.40643072
159	0xbe917f3d	-0.28417388
160	0xbe012204	-0.12610632
161	0x3ec858ff	0.391304
162	0x3e889a65	0.26680294
163	0xbc49d8de	-0.012319772
164	0xbd08c73a	-0.033393122
165	0xbe8ff1e7	-0.28114244
166	0xbe65550a	-0.22395721
167	0x3d281efb	0.04104517
168	0x3e5715a0	0.21004343
169	0xbe72259d	-0.23647161
170	0xbd1f347a	-0.038868405
171	0x3df37168	0.11886865
172	0x3e9afb6d	0.30269948
173	0x3dd57cd3	0.10424199
174	0xbea1b761	-0.3158522
175	0xbd713732	-0.05889053
176	0xbc6df242	-0.014523091
177	0x3ea7f399	0.32803038
178	0x3ebcd14a	0.36878425
179	0x3e8509b8	0.25983977
180	0x3ea5cdb7	0.3238351
181	0xbe810c75	-0.25204816
182	0x3eb13c6b	0.34616408
183	0xbe988a46	-0.29792994
184	0xbe1781c5	-0.14795597
185	0x3ea9b619	0.33146742
186	0xbdcdabf2	-0.100425616
187	0xbd8e7d8b	-0.06957539
188	0xbe7dc2d1	-0.24781348
189	0x3e809146	0.25110835
190	0xbe33b33e	-0.17548844
191	0x3e7c3b6e	0.24632046
192	0x3dfc7993	0.12327876
193	0xbe5d3ad7	-0.21604477
194	0x3ed91d5a	0.42405206
195	0xbe7a2b9c	-0.24430698
196	0xbed62dc0	-0.4183178
197	0x3e08ac0f	0.13346885
198	0x3e52e487	0.20594989
199	0xbe996337	-0.29958507
200	0xbe50270e	-0.20327398
201	0x3edd77e0	0.4325552
202	0xbeaf4482	-0.34231955
203	0xbe6f7517	-0.2338451
204	0x3e84daa6	0.25948066
205	0x3e748b3b	0.23881237
206	0xbcd90655	-0.026492277
207	0xbe14f48b	-0.1454641
208	0xbdb8b802	-0.09019472
209	0x3dc64461	0.09681011
210	0xbe1089fa	-0.14115134
211	0xbeba6d71	-0.36411622
212	0x3ecf0a16	0.40437382
213	0x3d52df46	0.05148246
214	0x3ea7f473	0.32803687
215	0xbe4ba94b	-0.19888799
216	0xbe9d8a37	-0.30769512
217	0x3e7da225	0.24768884
218	0xbeae4992	-0.34040505
219	0x3d54c5e5	0.05194654
220	0xbdaa0d52	-0.08303322
221	0xbdfd4693	-0.123669766
222	0xbccdc4d5	-0.02511827
223	0x3da518a3	0.0806134
224	0x3ea94566	0.3306076
225	0x3e1d56d2	0.1536515
226	0xbecc78b2	-0.39935833
227	0x3dc122f3	0.09430494
228	0xbd6e1297	-0.058123197
229	0x3ccff403	0.025384909
230	0x3eadb31e	0.33925718
231	0xbed43b11	-0.41451314
232	0x3eaab920	0.33344364
233	0xbe0c51e7	-0.13703118
234	0x3ea07551	0.31339505
235	0x3e9c2347	0.30495664
236	0xbdde2d9d	-0.10848544
237	0xbdf6d85f	-0.12052988
238	0x3dfed51b	0.124429904
239	0x3cccc644	0.024996884
240	0x3ebf4c86	0.3736307
241	0x3e5f0048	0.21777451
242	0x3e4e7220	0.20160723
243	0x3d35aadd	0.0443524
244	0x3e519d50	0.20470166
245	0xbe254074	-0.16137868
246	0x3d0d2ff5	0.034469564
247	0x3dff7b54	0.12474695
248	0x3eaea221	0.3410807
249	0x3e152396	0.14564356
250	0xbde9602f	-0.11395299
251	0xbebccab2	-0.36873394
252	0xbe1ae6a9	-0.15127052
253	0xbc908865	-0.017643163
254	0x3e307855	0.17233403
255	0xbd1e4581	-0.038640503

layers.2.bias f4 [40]
0	0x3e75e054	0.24011356
1	0xbe4b6c88	-0.1986562
2	0xbe511db2	-0.20421484
3	0x3e0b2154	0.13586932
4	0x3e0b93f8	0.13630664
5	0xbc91993c	-0.017773263
6	0x3dd47865	0.10374526
7	0xbe3458fd	-0.17612071
8	0xbe1aac59	-0.15104808
9	0xbe24941a	-0.16072121
10	0x3c358efe	0.011081455
11	0x3e1239d8	0.14279878
12	0x3dc382fc	0.09546468
13	0xbdb4e176	-0.08832066
14	0x3bc4d968	0.006007362
15	0xbdaf31d9	-0.085544296
16	0x3d7ff7e4	0.062492266
17	0xbde4f7b8	-0.11180061
18	0x3da1b4e2	0.07895829
19	0x3dec561a	0.1153986
20	0xbc914421	-0.017732682
21	0x3ca4f6a7	0.020137144
22	0x3e395c35	0.1810158
23	0x3e0222d3	0.12708597
24	0xbdd103c0	-0.102057934
25	0xbd048e98	-0.03236255
26	0xbe038ba1	-0.12846233
27	0xbd470582	-0.048589237
28	0x3e31e31b	0.1737179
29	0x3d3abe50	0.045591652
30	0xbe55818d	-0.20850201
31	0xbcacc43d	-0.021089667
32	0xbe1ccfef	-0.15313695
33	0x3dd30492	0.10303606
34	0x3dad2ee1	0.08456207
35	0xbe17e787	-0.14834414
36	0x3e19bd3e	0.15013596
37	0xbcc03248	-0.023461476
38	0xbe327370	-0.17426848
39	0xbdcbda62	-0.099537626

layers.3.weight f4 [40, 40]
0	0xbd59a7be	-0.053138487
1	0xbdcdd9ac	-0.10051283
2	0x3d2b0699	0.04175434
3	0xbe8000f1	-0.25000718
4	0x3e237823	0.15963797
5	0xbc80f57f	-0.015742062
6	0xbe6a3a35	-0.22873767
7	0x3cac0e52	0.021002922
8	0xbe9a5993	-0.30146465
9	0x3ea4a9c9	0.32160786
10	0x3e46e00c	0.19421405
11	0xbe05ec21	-0.13078357
12	0xbea0f1a0	-0.31434345
13	0x3e8d9ab6	0.27657098
14	0xbea53824	-0.32269394
15	0xbe84917f	-0.25892255
16	0xbd8cefff	-0.06881713
17	0xbec1bb94	-0.37838423
18	0xbe3ae1b3	-0.1825016
19	0xbe8f34de	-0.27970022
20	0x3d75fe81	0.060057167
21	0xbd9cf05f	-0.07663035
22	0xbe09dd25	-0.13463266
23	0xbe96a41c	-0.2942208
24	0xbea3f9ff	-0.3202667
25	0x3e65989f	0.22421502
26	0x3ea4fd48	0.32224488
27	0x3c74fc1c	0.014952686
28	0xbb4a599e	-0.003087617
29	0xbe28861b	-0.16457407
30	0xbe92e452	-0.2868982
31	0xbe9d1da0	-0.30686665
32	0x3ea4999d	0.32148448
33	0xbdfebbf2	-0.124381915
34	0x3eb02f77	0.34411213
35	0x3e01c9aa	0.12674585
36	0xbbdfbc38	-0.0068278573
37	0xbe70fc51	-0.23533751
38	0x3e3e0968	0.18558276
39	0x3dd47fc9	0.103759356
40	0x3e83abee	0.2571711
41	0xbcfff997	-0.031246943
42	0x3d889f6c	0.06671032
43	0xbe28448b	-0.16432397
44	0xbd93af2c	-0.07211146
45	0x3e3d1678	0.18465602
46	0x3e3d5f6d	0.18493433
47	0xbed1800c	-0.40918005
48	0xbe94e562	-0.29081255
49	0x3eb18df8	0.34678626
50	0xbb8dc4b2	-0.0043264264
51	0xbe53fa2b	-0.207009
52	0xbd8e8d4d	-0.06960545
53	0xbeb9d046	-0.36291713
54	0x3e462ee8	0.19353831
55	0x3e89daf9	0.26924875
56	0xbe059d7c	-0.13048357
57	0x3ea5dcd2	0.32395035
58	0xbe0adfaa	-0.13561884
59	0x3e4405a0	0.19142771
60	0xbea53ad5	-0.32271448
61	0x3e093e08	0.1340257
62	0xbd05eb38	-0.032695025
63	0x3e0187d2	0.12649468
64	0x3d79a629	0.06094948
65	0xbe50454f	-0.20338939
66	0xbe357926	-0.17721996
67	0x3e9198f2	0.28437
68	0x3eded528	0.43522
69	0xbe4e14c0	-0.20125103
70	0xbc860d03	-0.016363626
71	0xbe6714f5	-0.22566588
72	0xbcacde91	-0.021102222
73	0x3e37a584	0.17934233
74	0xbd431363	-0.04762591
75	0x3e9ff194	0.31238997
76	0xbec11ed7	-0.3771884
77	0xbe9c7777	-0.30559894
78	0x3eacfba6	0.33785743
79	0x3b65958d	0.0035031766
80	0xbe6e946e	-0.23298809
81	0x3dfd1ccd	0.12359009
82	0xbebca0e0	-0.36841488
83	0xbe11048e	-0.14161894
84	0xbd2786fb	-0.04090021
85	0x3e4fdc54	0.20298892
86	0x3e080bd8	0.13285768
87	0xbe8c4bdc	-0.27401626
88	0x3d9bed99	0.076136775
89	0xbcd9abde	-0.02657121
90	0xbed5ae25	-0.41734424
91	0xbe1cfcc3	-0.15330796
92	0xbc1ac9a8	-0.009447493
93	0xbec911ee	-0.39271492
94	0x3e04838b	0.12940805
95	0xbebc67b5	-0.36797872
96	0xbe0a7115	-0.135197
97	0x3ec7745b	0.3895596
98	0xbca68305	-0.020326147
99	0x3e960ae3	0.2930518
100	0xbdce6b91	-0.100791104
101	0xbeafac1a	-0.3431099
102	0x3e1ea5f5	0.15492995
103	0xbd21e78d	-0.039527465
104	0x3dba5a2c	0.0909923
105	0x3e02a9c5	0.12760074
106	0xbecccb0b	-0.3999866
107	0x3ddf9abf	0.10918187
108	0x3e0ceaf3	0.13761501
109	0x3e3ff9d8	0.18747652
110	0xbe499792	-0.19686726
111	0xbd57727d	-0.05259942
112	0xbdcf2061	-0.10113598
113	0x3eb0b650	0.34514093
114	0xbdad20cd	-0.08453522
115	0x3ebfbac4	0.37447178
116	0xbef1916b	-0.47181258
117	0x3d316262	0.043306716
118	0xbeb84f48	-0.35997987
119	0xbe35eb05	-0.17765434
120	0x3ebc8f8b	0.36828265
121	0x3ee0eef5	0.4393231
122	0xbec0ac07	-0.37631246
123	0xbe203311	-0.1564448
124	0xbe8de0b4	-0.27710497
125	0x3ed1b224	0.40956223
126	0xbe2e8ce5	-0.17045934
127	0xbd408cd5	-0.047009308
128	0xbe994bd7	-0.29940674
129	0x3ebcd076	0.36877793
130	0xbea2e60b	-0.31816134
131	0xbeb48ef6	-0.3526532
132	0xbd0d6166	-0.034516715
133	0xbe684049	-0.22680773
134	0xbee222cb	-0.4416717
135	0x3d9f092d	0.07765422
136	0x3e537b0b	0.20652406
137	0x3e2c8b69	0.16850056
138	0xbef456cc	-0.4772247
139	0xbeb142b1	-0.34621194
140	0x3e0e6d87	0.13908969
141	0xbe0ee45a	-0.13954297
142	0xbe9d1ad4	-0.3068453
143	0x3d9ead4d	0.07747898
144	0xbe5645b4	-0.20925027
145	0xbe887622	-0.26652628
146	0x3e01998c	0.1265623
147	0xbd6c7090	-0.057724535
148	0x3eaf88e8	0.3428414
149	0x3e7a15c8	0.24422371
150	0x3eb25bea	0.3483575
151	0xbeb66b88	-0.35628915
152	0xbe2fd065	-0.1716934
153	0xbea92026	-0.3303234
154	0x3e5c8603	0.21535496
155	0xbe1996f6	-0.14998993
156	0x3e40a742	0.18813804
157	0x3dd76938	0.10518116
158	0xbec8a1e4	-0.39186013
159	0xbebc1cec	-0.36740816
160	0xbc5508b5	-0.013002564
161	0x3e8e0277	0.27736256
162	0xbee4bd3e	-0.4467563
163	0x3e76fc6f	0.24119733
164	0x3eb3e9b7	0.35139248
165	0xbe8cc4d4	-0.27493918
166	0x3e8c0dad	0.27354184
167	0xbdc4622d	-0.09589038
168	0x3e3b18af	0.18271135
169	0x3e891c5e	0.26779455
170	0x3c787682	0.015164973
171	0xbe1a2adb	-0.1505541
172	0x3e72d05d	0.23712297
173	0xbe0ebaed	-0.13938494
174	0x3e312adf	0.1730151
175	0x3e655ecf	0.22399448
176	0xbddccb4c	-0.10780963
177	0xbdd87970	-0.10570037
178	0x3ec2916b	0.3800157
179	0x3cfa3aa2	0.030545536
180	0x3e024ecd	0.12725373
181	0x3e91dac0	0.28487206
182	0x3ea0aaf9	0.31380442
183	0xbd696903	-0.056984913
184	0x3d962887	0.07331949
185	0x3eac1e1a	0.33616716
186	0xbd93964e	-0.07206403
187	0xbe711b95	-0.23545678
188	0x3d3c3d64	0.045956984
189	0x3e9f0afe	0.31063074
190	0x3ee2e82e	0.44317764
191	0x3e3f6da1	0.18694164
192	0x3e9569c8	0.29182267
193	0x3d8f2716	0.06989877
194	0x3dadb7d7	0.0848233
195	0x3d684a46	0.056711458
196	0x3e8f854e	0.2803139
197	0x3c3ee988	0.011652358
198	0x3d65e915	0.056130487
199	0xbef865ec	-0.4851526
200	0x3e049ba0	0.12949991
201	0x3e92a45c	0.2864102
202	0x3e9233fa	0.2855528
203	0xbebafa72	-0.365192
204	0xbbf32bfe	-0.0074210158
205	0xbe9e0bf0	-0.30868483
206	0x3e6920f7	0.22766481
207	0xbe088eb8	-0.13335693
208	0x3e8e8f83	0.27843866
209	0x3e7f30aa	0.24920908
210	0x3c770d04	0.015078787
211	0x3eb092be	0.34486955
212	0xbe8addbd	-0.27122298
213	0x3e20d613	0.15706663
214	0xbdb37c58	-0.08763951
215	0xbdbdbd1e	-0.09264587
216	0x3e1744d1	0.14772345
217	0xbd984b99	-0.07436294
218	0xbe4c7970	-0.199682
219	0xbeaeb293	-0.34120616
220	0x3e8bf1d0	0.27332926
221	0xbebd8d2a	-0.37021762
222	0xbd8038f1	-0.06260861
223	0x3e445727	0.19173871
224	0xbea2df5e	-0.3181104
225	0x3e032ff5	0.12811263
226	0x3ec04737	0.37554333
227	0xbedc9e93	-0.43089733
228	0xbea90b0a	-0.33016235
229	0x3e9d0ac1	0.30672267
230	0x3ecccadb	0.39998516
231	0xbd9569b0	-0.07295549
232	0x3e0c8c9c	0.13725513
233	0xbea2e60c	-0.31816137
234	0x3eac6f97	0.33678886
235	0xbe96cff0	-0.2945552
236	0xbe941259	-0.28920248
237	0x3e941172	0.2891956
238	0x3edf4dd4	0.43614066
239	0xbb20e00f	-0.0024547612
240	0x3e14b14c	0.14520758
241	0xbd8e4db8	-0.069484174
242	0xbe921237	-0.28529522
243	0xbe8233a0	-0.25430012
244	0xbd654496	-0.05597361
245	0x3f15239f	0.5825748
246	0x3e926d6e	0.28599113
247	0xbcbd51b7	-0.023110254
248	0x3d13ca0f	0.03608137
249	0xbbeb336b	-0.0071777604
250	0x3d8ae1c7	0.06781345
251	0x3da74923	0.081682466
252	0x3e0c4c72	0.13701037
253	0xbe36c472	-0.17848375
254	0x3d28cf69	0.041213427
255	0x3d71417d	0.058900345

layers.3.bias f4 [40]
0	0x3e0547a1	0.13015606
1	0x3b9f3ea5	0.0048597627
2	0x3e2adcbb	0.16685764
3	0x3c07efda	0.008296931
4	0x3e3f84ac	0.18702954
5	0xbcf95970	-0.030438155
6	0xbb93ed11	-0.0045143445
7	0x3e01cdc4	0.1267615
8	0x3e920eab	0.28526816
9	0xbead428f	-0.33839843
10	0x3e3a2a85	0.18180282
11	0xbe475c00	-0.19468689
12	0xbe4c074f	-0.19924663
13	0xbdaad376	-0.08341114
14	0xbd369c1b	-0.044582468
15	0x3dc8939b	0.097937785
16	0x3d366345	0.044528265
17	0x3d28e99c	0.041238412
18	0x3df34530	0.11878431
19	0x3d898c84	0.06716254
20	0x3c7c7bba	0.015410358
21	0x3d636130	0.055512607
22	0xbc1c99e1	-0.009558172
23	0x3e0fc012	0.14038113
24	0xbe730140	-0.23730946
25	0xbd462a0d	-0.048379947
26	0x3cc09b37	0.023511512
27	0xbc46e8e6	-0.012140488
28	0xbde48f6e	-0.111601695
29	0x3e8e86bc	0.2783717
30	0x3ca445c6	0.020052802
31	0xbe1691ee	-0.14704105
32	0xbd7f2562	-0.06229151
33	0x3e33dea9	0.17565407
34	0xbda80508	-0.08204085
35	0x3e222b49	0.15836824
36	0x3df28612	0.11841978
37	0xbd8744ab	-0.06604894
38	0x3d94d852	0.07267822
39	0x3c92d6b7	0.01792465

output_layer.weight f4 [2, 40]
0	0x3c0d20e6	0.008613801
1	0xbb7a7bba	-0.003822072
2	0x3b713012	0.0036802334
3	0xbb98765c	-0.0046527814
4	0xbbc3e7a5	-0.005978542
5	0x3ba9f4e2	0.005186663
6	0x3a032ba1	0.00050037546
7	0xbbd07fe6	-0.006362903
8	0x3a5131a1	0.00079801126
9	0x3b8a65bb	0.004223553
10	0xbc7aba3c	-0.015303191
11	0xba0967ef	-0.00052416226
12	0x3b7334d6	0.003711035
13	0xbb96f8e0	-0.004607305
14	0xbb5a6aa6	-0.0033327728
15	0xb9fefb14	-0.00048633723
16	0xbc37f0a5	-0.011226808
17	0xbbc006ac	-0.0058601703
18	0xbb90f3c5	-0.004423591
19	0x3b71a78f	0.0036873554
20	0x3aef0941	0.0018237011
21	0x3c071b76	0.008246293
22	0x3bb8970a	0.0056332396
23	0x3c2713e0	0.01019761
24	0x3c1e1fbd	0.009651122
25	0xbb868817	-0.0041055786
26	0x3a757fe1	0.0009365064
27	0x3bec60b3	0.007213676
28	0x3b841fc5	0.0040321075
29	0x3c462813	0.012094515
30	0xbbdb3f0b	-0.006690865
31	0xbc23d2a5	-0.009998952
32	0x3b9106fe	0.0044258824
33	0x3c12ea8f	0.008967056
34	0xbad69fad	-0.0016374491
35	0x3c00cf68	0.0078619495
36	0x3b491d82	0.0030687754
37	0x3b358f77	0.002770392
38	0xbba0f428	-0.004911918
39	0x3beb9c2f	0.0071902494
40	0xba93906e	-0.0011258253
41	0x3a82d4b5	0.0009981605
42	0xba070d75	-0.00051518466
43	0x39d039a1	0.00039715788
44	0x3a0dd2fc	0.0005410162
45	0xba5a7c85	-0.0008334595
46	0xba2f4b1c	-0.00066869124
47	0x3aaea2b2	0.0013323633
48	0xbba9487f	-0.005166113
49	0x3af4caf7	0.0018676211
50	0x3b04c801	0.0020260813
51	0xbaaf52f3	-0.0013376161
52	0xb9e8e7f2	-0.000444233
53	0x3a8844ef	0.001039652
54	0xb84c2952	-4.8675873e-05
55	0x3a9a5aa2	0.0011776278
56	0x3ac07fc8	0.0014686519
57	0xba1549ea	-0.0005694913
58	0x3a450ae7	0.0007516578
59	0xba2c5395	-0.0006573734
60	0x3a6b165f	0.0008967872
61	0xba137396	-0.00056248286
62	0xb92ffca8	-0.00016783422
63	0xbadcfac5	-0.0016859403
64	0xbad4b635	-0.0016228618
65	0x3a3586af	0.00069246715
66	0x39b6aa8e	0.00034840818
67	0xba72af48	-0.00092576863
68	0xba502f88	-0.0007941653
69	0x3bf70788	0.0075387396
70	0x3a825565	0.0009943662
71	0x3a7e2a52	0.0009695637
72	0xba7fbd58	-0.00097556924
73	0xba516927	-0.0007988386
74	0xba165fe6	-0.0005736336
75	0xbaa22236	-0.0012369815
76	0xba913cad	-0.0011080705
77	0xbb1ce81a	-0.0023942054
78	0x3a024780	0.0004969761
79	0xb9f40842	-0.0004654546

output_layer.bias f4 [2]
0	0x3d993b48	0.0748201
1	0xbb8a4605	-0.0042197728
