net_param/net_0.18.pth (torch, 17999 bytes, 12 tensors)

hidden_layer1.weight f8 [20, 2]
0	0x3ff1c442ef44afc4	1.1104153963487855
1	0xbfdba895ae606644	-0.43216459301911336
2	0x3fe372c10422dcbe	0.6077580529007702
3	0xc000bf13c48c5635	-2.0932994227721573
4	0xc0038bd147dc3cd5	-2.4432702650152387
5	0xbff40fa229d20ea6	-1.253816760407895
6	0x3ff4d6f07786d10c	1.3024754208573226
7	0xbff3ea3f50d2b172	-1.2446892888211463
8	0xc002c5ee08a5ab52	-2.346645419650863
9	0xc00063750a37e6dd	-2.048563079672802
10	0xbfee28042f1176e6	-0.9423848075200254
11	0xbff9d822b1c924a8	-1.6152674622301593
12	0xbfe2fa57677c0176	-0.5930592557124743
13	0x3ff0bd0e153e15d8	1.0461560086999864
14	0x3ff20abc1e72e4c9	1.1276208104521166
15	0xbf7232e65afcc51d	-0.004443073106629639
16	0xbff53c1927727c65	-1.3271724263102211
17	0x3fd252d27ba02786	0.2863050658494263
18	0xbff638c5320d3ef9	-1.3888599352976014
19	0x3feafa177e2c3317	0.8430287803945217
20	0x3fe9353f7775eccc	0.7877499898162568
21	0xc002b4161d2c4fa4	-2.337932804026382
22	0xbfe6da787e092c51	-0.7141687833440163
23	0x3fe62636eeea188e	0.6921648660943605
24	0xbfdd9287d0829445	-0.4620685135108185
25	0xbfe3dd5a4f33b861	-0.6207706019320193
26	0x3ffa4f0407b3d10e	1.644290952765974
27	0xbfe8ed6248b31d1c	-0.7789775295176784
28	0xbfe95cea7ac1ddc7	-0.7925922772982908
29	0xc0052a8bc334c4e6	-2.6457743883589613
30	0x3fd2014b3b7177c0	0.2813289719105079
31	0xbfe03d9395f59641	-0.5075166634457632
32	0x3fec20515ed70893	0.8789450504630331
33	0x3fc093f8ef5ffa55	0.12951575935581397
34	0xbfe788679b4ab444	-0.7354009659808374
35	0xbff019ecffbfda68	-1.0063295355045287
36	0x3fea81ab7769c870	0.8283288318909978
37	0x400abaf2c517aee6	3.34128335932279
38	0xbfe054b1793a42d9	-0.5103385322309705
39	0xbfe26e783b6f779e	-0.5759850655410792

hidden_layer1.bias f8 [20]
0	0xbfc3bdcb1193a7d2	-0.15422952993622957
1	0xbfdd4230b9702231	-0.4571649371069127
2	0x3fa992b2334f026f	0.04994732738805829
3	0xbfdae75e9ce0f6c2	-0.4203716785449211
4	0x3fd6978e1732b118	0.35300018563681723
5	0x3fb7e91c938b7e8a	0.09340075113459015
6	0x3fba4c1dcb4a66c6	0.10272394383573688
7	0xbfd0ceefaadebe42	-0.262630383363078
8	0xbfaa6f20b8c85675	-0.05162908797880742
9	0x3fd0235ba8858597	0.2521580835073904
10	0xbfca6f8fc34f6f6d	-0.20652958904872368
11	0xbfd20d4f78880d94	-0.28206240435266605
12	0x3fda04e3dc5b6e51	0.40654846686604623
13	0x3fdde87a5ec1a2ee	0.4673143315654177
14	0x3fa06366e5d20091	0.03200837665008394
15	0xbfb1233bb8081edc	-0.06694386713945327
16	0xbfc612f893082ad7	-0.17245394877712414
17	0x3fcf0fdccb8e9d33	0.24267158450423096
18	0x3f93a3028ff3297a	0.019176521335603415
19	0x3fdf4dd03afe0957	0.4891243530365918

hidden_layer2.weight f8 [20, 20]
0	0x3fc5b629efaddac8	0.16962169840890895
1	0x3fb928d421fed03a	0.09827924566235505
2	0xbfb44336ee2272f6	-0.0791506129630298
3	0xbfb02829cb29b862	-0.0631128426555008
4	0x3fc68eae05e648af	0.17622924125732228
5	0xbfd1a12ac4abf4d0	-0.27546185690137026
6	0x3fbed7201f5312af	0.1204700542903747
7	0x3fb3d06e8ea116f2	0.07739916784438686
8	0xbfd978092e0d5b20	-0.39795140740663904
9	0xbfad12213cc3e1fd	-0.05677894465219777
10	0x3fd7f1712c0594e1	0.37411145495418735
11	0xbfd887d3f0f0bcf6	-0.38329027680715855
12	0xbfcaff5dd858a8af	-0.21091816962991092
13	0x3fd3cabe39f04627	0.3092494550520279
14	0x3f64ad442c359ab5	0.00252402605990495
15	0xbfc1b5b792edc305	-0.13835806535964693
16	0x3fd7b4f3f5b5eb78	0.37041949267557284
17	0xbfc16cf1330e3265	-0.13613715165083132
18	0xbfc59c92fcdc30ad	-0.16884076449094235
19	0xbfd3043d8f8a172c	-0.29713381783982373
20	0xbff4360e47ceca3d	-1.2631972126952313
21	0xbfdde356f8ac3a5d	-0.467000716061113
22	0x3fe44e468dc45733	0.6345551270376063
23	0xbfe16f2d80655af4	-0.544821501515655
24	0x3ff9e0ec4300271e	1.6174128167353454
25	0x3fe40df700fd694e	0.6267046946843864
26	0x3ff240e2040a8da3	1.1408405454502393
27	0xbff3771d9e4216fb	-1.2165809804877756
28	0x3fda51e8ae642971	0.41124932318111634
29	0x3ffdaf4b35c2a0df	1.8552963352213323
30	0xbff165a92b814891	-1.0873195361532775
31	0x3fb12ef5ba39c93c	0.06712280079390082
32	0x3fc9900eac4c170d	0.1997087804122021
33	0xbfd328eeeeede216	-0.2993733723920128
34	0x3fd171ab00a5a20d	0.27256274283584575
35	0xbfd4bbf050b8df7e	-0.32397086985610446
36	0xc0024e5d0fcc4ef1	-2.2882634386277165
37	0x3fdf3ca96dfc6be4	0.4880775045473327
38	0x3fa982de978569fb	0.04982658004401582
39	0x3fe0f64bb9d62987	0.530065405809453
40	0xbfd870469a3eb92c	-0.38185277045239974
41	0xbfd9458260300870	-0.39486750977824325
42	0x3fd8a39b33893265	0.3849857333450813
43	0xbfd6141ae4a08b06	-0.3449771149336559
44	0x3fd75bfdf6f9fd9b	0.3649897491340767
45	0x3f9dcf134f4128ef	0.029110242569267916
46	0x3fe0395f791d188e	0.507003532934293
47	0xbfa7ec20e06be381	-0.04672339190978559
48	0x3fd492ad1b73bc62	0.32145240479343873
49	0x3fda1e011fe3643b	0.40808132280432446
50	0xbfd37df41365b7f1	-0.3045625867297295
51	0xbf8c46fcbbaf8194	-0.013807272412976336
52	0x3f9170eb68c1bc9b	0.017032316464277924
53	0xbfb90576a79fca80	-0.09773961632144257
54	0x3fb1bc262b592f48	0.06927717741308215
55	0xbfcf165c433a6743	-0.24286988527893003
56	0xbfb8f41e46010395	-0.09747494896966054
57	0x3f95a919a2e1295a	0.021152878347757344
58	0x3f4de6a6c2ca0805	0.000912505556314836
59	0x3fb5a342d1610ae8	0.08452241527360693
60	0xbff90f1ad7dacfb4	-1.5661877090287648
61	0xbfe0467e31b57387	-0.5086050959467777
62	0x3ffb21646d461a4e	1.6956524151334125
63	0xbff0bdf403f9e412	-1.0463752894704652
64	0x400413ffca32b1bc	2.5097652241440453
65	0x3ff14a627bcea2bc	1.0806603275506594
66	0x3ff26238139ac9fa	1.1489792600447104
67	0xbff4b4a01a69af49	-1.2940979987860877
68	0x3fe62277e3ff5030	0.6917075589249233
69	0x400515b0300f269e	2.6355899576781914
70	0xbfefa04afb1ecf41	-0.9883170036978087
71	0x3fb39eb0aa1b535e	0.07664016869541743
72	0x3fd0a6494dee56a9	0.26014931307268313
73	0x3fd3aad92dcbbaaf	0.30730275604484353
74	0x3fe805e6dc1517b7	0.7507204340442887
75	0xbfc1b9a71a5b6550	-0.13847817217792135
76	0xc00029a644aced88	-2.0203366627953905
77	0x3fdf7818b8130286	0.4917051122284096
78	0xbfe25654360d1cef	-0.5730382018745369
79	0x3fc80e84ef2c56fc	0.18794309309367196
80	0xbfd3a8ea1dc07f80	-0.30718472390616824
81	0xbfd520d126e47b22	-0.33012799070449905
82	0xbfd1e9b1e5cff97b	-0.2798886055242275
83	0xbfc79ebb4e2ad3b4	-0.1845316058803782
84	0xbfc065a60fa2213a	-0.1281020714125221
85	0xbfced16041924c46	-0.24076464845401996
86	0x3fc0ee75be24902a	0.13227721962278
87	0xbfbb380f0ccaf0cd	-0.10632413923571278
88	0x3fd0df37a7bf692d	0.26362410909281914
89	0x3fc038cbce3b2207	0.12673327989456615
90	0xbfcd649afa0ac238	-0.22963273247798255
91	0x3fcdeb2ae52d4dc2	0.23373924436837795
92	0xbf990c867940ddc0	-0.024461842680663315
93	0xbfb49af4d535190c	-0.0804894466901695
94	0x3fb7cd3d13de6c60	0.09297544226721888
95	0xbfb08caadbcb8c2b	-0.06464641443339818
96	0xbfd0bbeeb66971bf	-0.26147048772488896
97	0xbf9f5ac0b54b903b	-0.030619631829623222
98	0x3fa1f08ee37e654b	0.035038438101035206
99	0x3fd1cebb9deca6e8	0.2782429735403711
100	0xbfe0609747ed1c29	-0.5117908863838966
101	0x3fbaac077d36dc14	0.10418745810498847
102	0x3fb158249640e351	0.06775120418832371
103	0xbfc7404819a5cf44	-0.1816492200119858
104	0x3fe7a286d60cfd26	0.7385896855047676
105	0x3fe32ec2ee4a4895	0.5994581846337207
106	0x3faf5f96bcc3d8ce	0.061276159803968264
107	0xbfd5b75d52ade414	-0.3393166835226691
108	0xbf9ec206b97bb243	-0.030037026473040972
109	0x3fe12304b8b139cc	0.5355247123023275
110	0x3fcb484d33f6fc6d	0.21314396893828605
111	0xbfabd34abd052851	-0.05434640462279162
112	0x3fd0023d781b6dd0	0.2501367257043201
113	0xbfc47cbc5a405175	-0.1600566330604455
114	0x3fe7791110f3f496	0.7335286456215211
115	0x3fa0065876c84708	0.03129841279964124
116	0xbfdecede8c23ed21	-0.48137630162792006
117	0x3fd813d219d931ce	0.37620975994357486
118	0xbfdee3af997eed71	-0.48264684667420626
119	0x3fd6de093f7d0560	0.35730200958285785
120	0x3fd1a66039a95bec	0.2757797778226052
121	0x3fbdc7b691cf3980	0.11632863101769964
122	0xbfc9e03d2591d381	-0.20215572676138652
123	0x3f89ed90f3cf379c	0.012660152855371191
124	0x3fd6071713bfff07	0.34418274811467636
125	0x3fbe58bb968467a6	0.11854145455109108
126	0xbfd0fa23ac9b34b8	-0.2652672944648873
127	0x3fb3b4d7c47c5289	0.07697819277775343
128	0xbf8f2951b7ff070f	-0.015215528895967915
129	0xbfcd8e10217bd4ea	-0.23089791903445384
130	0x3fb0f812287cc22c	0.06628526199779888
131	0xbfc3c89b9a0e9983	-0.15455956480327523
132	0x3fc23a4953e1b160	0.142403760869807
133	0x3fc204d1e1397bef	0.14077208993236875
134	0x3fd4fc51b9e9c742	0.3279003444250642
135	0x3fd16ed21b54cf16	0.27238896054335393
136	0x3fd116576db910ac	0.26698861804130547
137	0x3f981dcd9111854c	0.02355118940284244
138	0xbfda3c431e2aa60e	-0.40992811151463193
139	0x3fbdf24e5d3d8bb2	0.11697854782464281
140	0xbfc52a1f8d1025d6	-0.16534799945684026
141	0x3fc76782b49827f5	0.18284639185031862
142	0x3fa26e108a228292	0.035995976316603465
143	0xbfafb9f1a04eeb30	-0.06196551401031625
144	0xbfc49b02f22cd410	-0.16098057579952796
145	0xbf87a1fcfd44d270	-0.0115394367972865
146	0x3f9c1b76e1e81229	0.027448518312683277
147	0xbfd36d3d4109abaf	-0.3035424361357241
148	0x3fd4f617cd08939a	0.3275203230171485
149	0x3fcbf3c9cfed2eeb	0.21837732937489504
150	0x3fa9156c8e85a4ce	0.04899157752772397
151	0xbf922511bb979d41	-0.017719533037874106
152	0x3facceaaec6c9cbb	0.05626424919165048
153	0xbfd344197b874fa4	-0.3010314661344131
154	0xbfc435932c420f78	-0.15788497601544882
155	0x3fbc43b2b70de86e	0.1104079911146145
156	0xbfcbdd8b69137463	-0.2176985037866955
157	0x3fccb340976cd632	0.22422034639173344
158	0x3fbae0e538de7c93	0.10499413145452001
159	0x3fd015121a002d30	0.2512860540307029
160	0xbfad73422f345e1f	-0.05751997781970552
161	0xbfcde57309b6bfd5	-0.23356473898229405
162	0x3fc708877751b5c7	0.1799477894414123
163	0x3fc6ecf318781df1	0.1791061276892232
164	0x3fc8f56347760211	0.19498864163689736
165	0xbfa1837936e159c8	-0.03420618815350768
166	0xbfaa4324c2d1feef	-0.05129351499726719
167	0x3fd1ef40d29fe3d2	0.2802278572922293
168	0xbf68c24551325944	-0.003022323021990266
169	0x3fc64b5c1d464527	0.17417479924601162
170	0xbfb2d6559275a1c5	-0.07358298135444048
171	0xbfcb28ca165d8924	-0.21218229381617804
172	0xbfbeeb7eb6cce77f	-0.1207808681764657
173	0x3fd6dd6f718b2fa8	0.3572653397393375
174	0xbf922f9b468526b8	-0.017759729556280773
175	0x3fc71ab86e1cb0de	0.18050294281545737
176	0x3fb2463453327847	0.07138373404674879
177	0xbfb631bfcc3b2888	-0.08669661270247009
178	0x3fb09268da2fb392	0.06473403288664617
179	0xbfb01204d0d145af	-0.06277494524080994
180	0xbfc95a0abafd8279	-0.19806036119827633
181	0x3fd48dc287a26117	0.3211523365548756
182	0xbfc9d3d2b5a3c165	-0.2017768275177431
183	0xbfc31e3a7be03c04	-0.14935999916676235
184	0xbfc0168905b3e572	-0.1256877210469543
185	0x3fc2becf56355869	0.14644805631059235
186	0xbf96832c480cbb3a	-0.021984760186735765
187	0xbfd48c737dcb8c0e	-0.3210724571674185
188	0xbfb2529e76e8ffa9	-0.07157316592292652
189	0xbf71a66b6eb5b4b1	-0.004309100778624828
190	0x3fd539ebe91676fc	0.33166024935222516
191	0x3fd275be0ce80480	0.2884364248312252
192	0x3fc2cf48dd9125a1	0.14695082491588798
193	0xbfdcd12b77f0c2fc	-0.45026671135842355
194	0x3fd2fa0036c05fea	0.296508840053774
195	0xbfce73ad3b949b86	-0.23790517243579873
196	0xbfe0146ac9cc386a	-0.5024923268663433
197	0xbfabc32c3913dcc7	-0.05422342488048453
198	0xbfcb87a60ef3c7e0	-0.21507716875163307
199	0xbf813c80a15bb5e8	-0.008416180538428145
200	0xbfc5b2fbbffa3588	-0.16952463983436084
201	0x3fbd09f7508edf9d	0.1134333202052162
202	0xbfbd929d0ca86998	-0.11551839407949271
203	0x3f952c485fe63f64	0.02067673764537349
204	0x3fc94c0120bb605f	0.19763197038878652
205	0x3fd6810153e70266	0.35162385171501
206	0xbfc77afe4fa8e1e9	-0.183440960785233
207	0x3fb1e34dd4d9b7ab	0.06987463423294453
208	0x3fc45b32800b7b47	0.15903311969938214
209	0xbf82b101f8cce206	-0.009126677899630852
210	0xbfc28f7008db5237	-0.14500236923653784
211	0xbfb9559f3bbb990f	-0.09896273811645905
212	0x3fc8b5e5dc43bc66	0.19305108313662628
213	0xbfb50193d23f5da4	-0.0820553196239105
214	0xbfba92908b8e131f	-0.1037988987646483
215	0x3fb3267e6df43511	0.0748061197702621
216	0xbfcf58e30fbc51a0	-0.24490011471119733
217	0x3fd62d300ccd935c	0.34650803804679753
218	0xbf78453639c6461d	-0.005925380534237881
219	0x3fe0876a69a8fa5f	0.516530233733487
220	0x3fd6b6745354f57d	0.3548861326015283
221	0xbfcbe065c17a8dc4	-0.2177855677337971
222	0xbfdc6b124c91cbab	-0.4440351245640907
223	0xbfaf84ab00207b3e	-0.06155905129002413
224	0xbfc25007bb85fdc7	-0.14306732803741637
225	0xbfd57bb59f70ef7c	-0.33567562647271365
226	0x3fa0aff9a3ad33e4	0.03259258387570421
227	0x3fc35a9e7fde1032	0.15120297664191323
228	0xbfdfb5b90b87d193	-0.4954664814570375
229	0xbfa9330846c21bd6	-0.04921747077701581
230	0x3f99e071b6bfcc1f	0.02527024915611886
231	0xbfd477d5574e1ea5	-0.31981404806036046
232	0xbfc29b180fcccf35	-0.14535809298978966
233	0x3fe23bbe77157b4e	0.569792969308631
234	0xbfd499259331c9f0	-0.3218473374792259
235	0xbfd13d9b280d8b14	-0.26938513671318387
236	0x3fe1dc9c915ed8c8	0.5581801261203276
237	0xbfcbee0171b2e510	-0.21820085574817272
238	0x3fd94868a5d93e4a	0.39504448124077796
239	0xbfabc2d6d3c79f52	-0.054220879890464105
240	0x3fabd33ed490ad4a	0.054346049735921456
241	0x3fc3dbbb7a862f4e	0.15514319880127875
242	0x3fd08bbbdd965bf0	0.2585286773623343
243	0x3fab2b91db5eaed9	0.05306678583960229
244	0x3fdb6ded34163972	0.42858438574412283
245	0x3fca8c47c3dcf53a	0.20740601600292924
246	0xbfc60e9c50684c07	-0.172320880185538
247	0xbfd5aade4b3b0bb6	-0.3385539755510608
248	0x3fc9197132295039	0.19608893346105719
249	0x3fc6910bad2c4190	0.17630144077021415
250	0xbfcd9680713d22bb	-0.2311554482387431
251	0x3faf17eff5a9b15e	0.060729502428190626
252	0x3fd09c55f565036f	0.25954197849573907
253	0xbfb1a877e847e086	-0.06897687359730939
254	0x3fc4e3ed0b1aec84	0.16320574800724696
255	0xbfb234a663b6a10b	-0.07111587461861661

hidden_layer2.bias f8 [20]
0	0xbf9413f604f2f761	-0.01960739522177535
1	0x3fcd43e5cb0e0635	0.2286345712164334
2	0xbfb118b4b97238aa	-0.06678323295111235
3	0xbfc3745fa558cc8c	-0.1519889409406442
4	0x3fb308b168f8c298	0.0743513947752582
5	0x3fc45581c378354f	0.15885946316158558
6	0xbfc0e98e9c5902ea	-0.1321275962273128
7	0x3faa5db95fbb1e17	0.05149630826559475
8	0xbfc6d28fb2004256	-0.17830082122283625
9	0x3fcabb5d0e271d90	0.20884288016371189
10	0x3fb05c35cfeb96cc	0.06390701605013333
11	0x3f798aa6cfb6a016	0.006235744101481108
12	0x3fc96f202de7c8b8	0.1987037872455113
13	0x3fd676e54d037e2f	0.3510068180166596
14	0xbfb616136480126f	-0.08627434924717091
15	0x3f944b70c7d35336	0.01981903285634986
16	0xbfcaf4a884a5af5e	-0.21059137799181377
17	0xbfc44b90cdaea74b	-0.15855608027532705
18	0xbfbbe5d5fbf061c3	-0.10897576714376726
19	0xbfc9bbcd8825d7fb	-0.20104378841250523

hidden_layer3.weight f8 [20, 20]
0	0xbfd9744a79f03023	-0.397722834663684
1	0x3fa84957330e40a1	0.04743454454649166
2	0xbf9e22da39a420a9	-0.02942982651532647
3	0x3f83c6c5cdd57c14	0.00965647253423011
4	0x3fc467187b7a8402	0.15939622906901724
5	0x3fc7aa3c3ceaf6bb	0.18488266920569693
6	0x3fab43652571d464	0.05324855882728555
7	0x3fc9fb587fce7540	0.20298296204138389
8	0xbfc729f37fdaf1c7	-0.18096774809772695
9	0x3fdb18abfa62762d	0.4233808465158713
10	0x3fd496588b272591	0.32167638386871383
11	0xbfd1ca3a95f2cac1	-0.2779680694904237
12	0x3fce17eaad1c4155	0.2351048798814285
13	0x3fb890badab6bd8d	0.09595840301221
14	0xbfc166fb2b1eb609	-0.13595523457972572
15	0x3f908396cc410996	0.01612697240512658
16	0xbfc0f380bb5be964	-0.1324311175192846
17	0xbfdcc6f0688fa1b1	-0.4496422787765609
18	0x3fb05692aafe0111	0.06382099794973707
19	0xbf8b1baa2ab17643	-0.013236360004323383
20	0x3fa1cb3a3a78a952	0.03475362743150136
21	0x3fd61bf094ce7558	0.3454553082645666
22	0x3fd371e649d478d4	0.3038268776889599
23	0xbfb2ba9d8c7efe6c	-0.07316002540664507
24	0xbfb0d1b47901e7ae	-0.06569984392436254
25	0xbfa2a7a494494ffd	-0.03643526373039661
26	0xbfc98d75acaa9d4f	-0.1996295064065898
27	0x3fb826ffe165ca69	0.09434508564826562
28	0xbfa55981fe15f421	-0.04169851519234436
29	0xbfc24aac3d7a05a1	-0.14290383340634796
30	0xbfd83ba3055cf599	-0.37863994144194063
31	0xbfbcd93fa4a73fb3	-0.11268995065552083
32	0x3fa1b7b55d790027	0.03460470930122055
33	0xbfe0a476b2482ec6	-0.5200761301107029
34	0x3fa9692627d696e4	0.0496303485518135
35	0xbfab72ea3eba28c3	-0.05361110702240659
36	0x3fcb066ce908472f	0.21113358858615913
37	0x3fc12594ddc9d6e3	0.13395939664376674
38	0xbfc6b69d5193b1b4	-0.17744795306442784
39	0x3fb3d1267951aad2	0.0774101301373478
40	0x3fca7b480206bde8	0.20688724612180853
41	0xbfd1891bdd95bbb7	-0.27399346007490116
42	0x3fb7c9d7acc8719f	0.09292362182936252
43	0xbfcfbfc43ab14d80	-0.2480397497734934
44	0x3fd3539ddc3b5614	0.30197855479249935
45	0x3fa09b47554368ac	0.03243468204318964
46	0xbfbe954d98d0a0f1	-0.11946568470796472
47	0xbf93c4b5f247fbf0	-0.019305079376859824
48	0x3f851357014ff871	0.01029079411273079
49	0xbfd6aae4ce2be585	-0.3541805280106803
50	0x3fc90f7d18cf4a6b	0.19578517638599932
51	0xbfa27610f03e3bad	-0.03605702335982328
52	0xbf9ba31ae870283e	-0.02698938411416684
53	0x3fc2ea5df6984c56	0.1477773145748837
54	0xbfb33d93b47e6746	-0.07515834004007357
55	0x3fd1b3dee936e61f	0.2766034390911915
56	0xbfd70b90afeeb9c2	-0.3600808828440699
57	0xbfb6e1b21b525058	-0.0893813435271239
58	0x3fb03e88ff1846c3	0.06345421054745785
59	0xbfceb870f775e26c	-0.24000370104819824
60	0xbfae9de8799882c8	-0.05979849323580805
61	0x3f7c91d60b2a88f5	0.006975017650491679
62	0x3fc9d92356c30146	0.20193902717984197
63	0x3f87f7e6fdb3eea0	0.011703304879567
64	0x3fbe0479215189a0	0.11725575507583708
65	0xbfc0ecac38f388a4	-0.13222267895532014
66	0xbfb0c8e556960eec	-0.06556542743606614
67	0x3fcdc87a10ecbe0b	0.23268056703953763
68	0x3fa7026069411a48	0.04494000706522577
69	0x3fb266fa43cd5766	0.07188381343197889
70	0x3fab2b689901bc81	0.05306555621870591
71	0x3fb50540979ef937	0.08211139394459087
72	0x3f884de7c4327f27	0.01186734263893603
73	0xbfc8e6e97608dffa	-0.1945468736973906
74	0xbfc52e2c15020ec9	-0.1654715635851203
75	0xbfcf5a99057e0738	-0.24495232361010166
76	0x3fb34d157adb8e3e	0.075394957060376
77	0xbfb5e3b03b3bb215	-0.0855054993259688
78	0xbfb917d5aec6746c	-0.09801993863080022
79	0xbfc4ed7ec421130b	-0.16349777771588267
80	0x3fd2c0a31d6b78f0	0.2930076396277306
81	0xbfd176dd651483e2	-0.2728799330816952
82	0x3fbb9e6fb758ef71	0.10788629747633906
83	0x3fc31967999985ad	0.1492127895353809
84	0xbfc83fba03fc0de9	-0.18944478220519947
85	0xbf9ae1ce3db40b73	-0.026252005115576304
86	0xbfa48661409dc960	-0.04008773721479275
87	0xbfe0ff8f7ca27ef6	-0.5311963495514351
88	0x3f95915d3cf30bba	0.021062332959228526
89	0x3fa5d70057b6dd2f	0.04265595503550867
90	0x3fb866ca23f9893a	0.09531844499864386
91	0x3fbe1e37fb318eac	0.11764860041290132
92	0x3f6e2e347a613b08	0.0036841416322553923
93	0xbfd56a8f3d0d1318	-0.33462887727755364
94	0x3fbc54bd105d44c1	0.11066800736923012
95	0xbfbbcb0464fccf64	-0.10856654611126043
96	0x3fbf755c68332d20	0.12288453620856332
97	0x3fb229cacba3ec6a	0.07095019790351534
98	0xbfab5a456ff74887	-0.053423089902609404
99	0xbfa4e763b5546d5d	-0.04082786167620143
100	0x3f964a66a826efab	0.021768192303838124
101	0xbfc6ab8568b92aab	-0.17710940946047535
102	0x3fca920d13a4d503	0.20758212527440642
103	0xbfbb24f9dcbe45de	-0.10603295935859289
104	0x3fcc3c93e2ac9811	0.22059868400646157
105	0x3fcd01bfcbc0c759	0.22661588143233294
106	0xbfc3f4847201e92f	-0.15589957777758331
107	0x3fbdde9ba4f7a0a5	0.11667797830125666
108	0xbf80ed5fd61358b6	-0.008265255661552433
109	0x3fc553be92ff678d	0.16661817720051567
110	0x3fd80522e936e4bd	0.37531349921080076
111	0x3f9a3b96add4eacb	0.025617937431188047
112	0x3fce72acdfb0c917	0.23787461206809077
113	0x3fd76c94966f749e	0.3660022229285661
114	0x3f9f6064d9e970e4	0.030641151237760136
115	0xbfaeb07be50ffd9f	-0.05994021578953412
116	0xbfa80beaa757ea7f	-0.046965916564620784
117	0x3f7c791807946130	0.006951421609550132
118	0xbfa72e8874d0187b	-0.045276893863090494
119	0xbfd189f23077d939	-0.27404455884188256
120	0x3fd4835057c1cc0b	0.32051476068517165
121	0xbfcea57adcd79549	-0.23942504676157686
122	0xbfd9ac988bd17d08	-0.4011594167149757
123	0xbfde39a3cbadc3b2	-0.47226805582527753
124	0xbfd5bee8fe1de15d	-0.3397772294624895
125	0x3fba58b9727a8521	0.10291632695090815
126	0x3fad8a6a1fb03d39	0.05769664418050486
127	0xbfd2bffdfb2b867b	-0.2929682686645731
128	0xbfbae592b9db088c	-0.10506550824632849
129	0x3fb41c65e353ad77	0.07855831909153276
130	0xbfc0ef0dcc3c3fed	-0.13229534599713536
131	0x3fc87410458f1a5a	0.19104197880206436
132	0xbfc75cb7910f42ab	-0.182517000036133
133	0xbfbd3e474262d7e7	-0.11423154230837405
134	0x3fc43bbfdbc3da90	0.15807340841975703
135	0xbfe0bb1ebf6c0a24	-0.5228418101035612
136	0x3fe1c89c39f62f34	0.5557385570586804
137	0xbfc846fc2b5e7281	-0.18966629140495075
138	0x3fd06e1add834f93	0.25672027237055167
139	0x3fb4173a94ca27bc	0.07847944386062883
140	0xbfc0a4bf695095db	-0.1300277008278233
141	0x400023a83f431185	2.0174107496588385
142	0x3fd145732d586997	0.2698638861490052
143	0xbfe4fcba4f6b3444	-0.6558505583904055
144	0xbfbb2c7f9dd74f5f	-0.10614774325887087
145	0x3fe58b6229c3c194	0.6732645812717686
146	0x3fd79ccd1b425e5b	0.3689453855708728
147	0xbfd0551ad949a90f	-0.25519438952928025
148	0x3fc6a390780e842e	0.17686658727782983
149	0xbfae53a328905de8	-0.05923185224690625
150	0x3fd252a33d4acc52	0.2862938021236846
151	0xbfe3a5b5e3795211	-0.613978332791307
152	0x3fd8c63fe38e30a1	0.3871001932354919
153	0x3fb8f405d74bf329	0.09747349268213824
154	0x3fe7ad5518d58a72	0.7399087414781447
155	0xbfdd7286e6b53d7b	-0.4601151707656396
156	0x3fe18a0825874ff5	0.5480995877246629
157	0x3fb0b5682c42e255	0.0652680500087482
158	0xbfc7bc8a311709a3	-0.18544127842876632
159	0x3fc5622057432f11	0.16705707798825434
160	0xbfcc2aa9b64fa3b9	-0.22005196954640185
161	0xbfc7e035b46906ca	-0.18652983960242003
162	0x3fb4c63f9057edb1	0.08115002893457902
163	0xbfd1c9ab36fb16d6	-0.2779338871881526
164	0x3fb295f436ed7254	0.07260061589244887
165	0xbfd412216bccaa6e	-0.31360660102169546
166	0xbfcf5810520f9cd7	-0.24487499243625763
167	0x3f9762280ccec31a	0.022835374623983197
168	0x3fa19dc4f610836e	0.03440680984227283
169	0xbfc53dfd6b9354e3	-0.1659542823096337
170	0x3fc1035cd95e4964	0.1329151212090195
171	0xbfc7c29033312b1b	-0.18562510013210773
172	0xbfb5a4a37526eabe	-0.08454343423992847
173	0xbfa896541af2338c	-0.04802191571170686
174	0xbfd00fa3ff86c5c4	-0.25095462754969966
175	0x3fd2a120ae9281da	0.29108445213389944
176	0xbfba9784f55a4ed6	-0.10387450208719015
177	0x3fb15c8dd98f8529	0.06781851350344383
178	0xbfd25c9c371d8163	-0.28690247900342153
179	0xbfc6a55e8399ecff	-0.17692166734546075
180	0x3fdc7edba811dced	0.44524279988350096
181	0x3fcf0a6d17013538	0.24250568030621777
182	0x3f8295dbc2a8baf5	0.009074894788765312
183	0x3f8c545bdb20ed41	0.01383277666547278
184	0xbfb4e2f9912911e4	-0.08158836168247025
185	0xbfaeec0793bde90b	-0.06039451292504524
186	0x3fb0ff855ec874c0	0.06639894069708685
187	0xbfb2e9a81cca9d2c	-0.0738778181354191
188	0x3fd54474274ea0b0	0.33230308378780204
189	0xbfdb0978b0924d70	-0.4224530910807607
190	0x3fc844dfcd8f00d7	0.18960187470475517
191	0x3fd36fa0f3478011	0.3036882758879083
192	0xbf91bf5bc208b307	-0.01733153697766723
193	0x3fc6b6001542d252	0.17742920911918475
194	0x3f9c06eade69a382	0.027370138001433293
195	0x3f9d31717d144acf	0.02850892377780206
196	0xbfbf7e3492ae095b	-0.12301949101496261
197	0xbfb3012912f411b5	-0.07423645699242949
198	0x3fdf5bd7c6e45a8b	0.48998064444587247
199	0x3fc6dbd93998defc	0.17858424484597168
200	0x3fc34a1338cd3400	0.15069809220804586
201	0x3f8221237c6f9de0	0.008852269396768031
202	0x3fb1967f0d56d6b0	0.06870264125503911
203	0xbf8a7c1400491ad8	-0.012931972750391749
204	0xbfbd5f76898eec06	-0.11473790033680595
205	0x3fc5be768a199c3f	0.16987497084775957
206	0xbfac6f770c807a44	-0.055537910724741596
207	0x3f922c8de15de40a	0.01774808586148783
208	0xbfa3f0c5f453b8ff	-0.03894632918842155
209	0x3fb1b9d89e20955b	0.06924203739671013
210	0xbfc59f99dd766da0	-0.16893313706974045
211	0x3fb447f181bbbf77	0.07922276894873713
212	0xbfbd1f09af86aa24	-0.11375484977057987
213	0xbfa38eb8670afb25	-0.03819824464652858
214	0xbfa395af1c5c9001	-0.038251373493295666
215	0x3fade886995c9f47	0.05841465589611388
216	0x3fc92b22fa77fc4a	0.19662892560879391
217	0xbfb05414af1bb181	-0.06378297114469512
218	0xbfbafc30bc69c384	-0.10541061973505178
219	0xbfd47447dbe3c056	-0.3195972106323145
220	0x3fd05a0e0dca71e1	0.2554965147662909
221	0xbfc3dcdfa50742a9	-0.1551780277063888
222	0x3fc18876501f56e4	0.13697699463107604
223	0xbfaf1992aba927a2	-0.06074198098629259
224	0x3fc3e00d55ea0bea	0.15527502722770176
225	0xbfc0194fb9f20b80	-0.1257724435746148
226	0xbfb0f2c1ab589773	-0.0662041705441803
227	0xbfc60e9eeb8dc54b	-0.1723211908497809
228	0x3fc3c2e53edd7b58	0.15438523835743
229	0xbfb4bfd9bae712b9	-0.08105240643551327
230	0xbfd239edd64cd32a	-0.28478570869201525
231	0x3fbc03a635955952	0.10943068321407637
232	0xbfc1f45864288045	-0.14026932611978019
233	0xbfdb746e327f4dde	-0.42898135119795977
234	0x3fd8898bd75ccb1d	0.3833951571606791
235	0xbfc2ffa506c32c0c	-0.1484266551036345
236	0x3f68b1ca240f2d15	0.0030144641936879026
237	0xbfa024dcd0e2ca18	-0.031531239031569125
238	0xbfbf9b73f700175d	-0.12346577434808866
239	0xbfb835eac7234c4a	-0.09457270967259138
240	0xbfd1e45688984058	-0.27956164683656004
241	0x3fe06680173a7b79	0.5125122502976033
242	0x3fda6a67b3a568bd	0.41274445098464324
243	0x3ff5f42be087164d	1.3721121569264085
244	0x3fd8cf886cffebda	0.3876668037843821
245	0x3f357844e908611e	0.00032760317211135033
246	0xbfb0fb6c53d569ab	-0.06633641287536444
247	0x3fbacc41797c0fb4	0.10467919555600141
248	0x3fc00dca45c1f45b	0.1254208412755443
249	0xbfd6198bb0c6a88b	-0.3453091837242332
250	0xbfc0434d540d1b2b	-0.12705389598905845
251	0xbfd894ba800c040f	-0.38407766823371586
252	0x3f8f06d903db34bd	0.015149779730018737
253	0x3fb07a469e9c3c0e	0.0643657815200955
254	0xbff100d25ee4e4a2	-1.0627006251145663
255	0x3fe1967aa06d401e	0.5496190198264264

hidden_layer3.bias f8 [20]
0	0xbfc20b9ecb3e146c	-0.1409796230692878
1	0x3fb729f757867d3d	0.09048410307740525
2	0x3fc0972803c54ba1	0.12961292442431918
3	0x3f0ee75d7b8b4130	5.89442638038194e-05
4	0xbfd1f97cc9c7e99a	-0.28085250573317355
5	0x3fc6a6821e4e36b9	0.17695642928850022
6	0x3fb10f5527d47f66	0.066640207504404
7	0xbfbd6f2176f5f272	-0.11497697023691858
8	0xbfb2207eccb044a0	-0.07080833909300788
9	0xbfa4e7fdbbde2e53	-0.04083245199498422
10	0x3fb551f28fd1ec6f	0.08328166972380456
11	0xbfc08a0ff57681bf	-0.1292133282231713
12	0x3fc296df17ec1234	0.14522923152994027
13	0xbf6c0bb2b54c98d5	-0.0034235468287021433
14	0x3fc7858c8911a03a	0.18376309101881977
15	0xbfa9f7ce7ce314d5	-0.050718739266395176
16	0x3fc5a8ed72cca236	0.1692177591842367
17	0x3fd5c08842a47995	0.33987623699240405
18	0xbfb20a790ea9626d	-0.07047230346632612
19	0x3fccb4cd3a004fb4	0.2242676289757789

hidden_layer4.weight f8 [20, 20]
0	0x3fa3f1011a6d8659	0.038948091960958116
1	0x3fc92ce0be944b5f	0.19668206506374994
2	0xbfc82fbada46f805	-0.18895660074298362
3	0x3faf3b6e766ea7bd	0.061000301320134544
4	0x3fc72ba596069900	0.18101949525334504
5	0x3f8228df6d204ba3	0.008867021100774702
6	0xbfb90d15b2326030	-0.09785590744502382
7	0xbfb9d44e1145f32f	-0.10089576646528252
8	0xbfa1ec69ac1ad12e	-0.03500681138885607
9	0xbfd1d55525e05278	-0.2786457891354881
10	0x3fbefe1e7dda6bda	0.12106504986370173
11	0x3fc320fde10cbe1b	0.14944432724722465
12	0xbf8a66561436c21c	-0.01289050339878011
13	0x3fbc3ac648740c11	0.11027182835464112
14	0xbfb6d479ba83874e	-0.08917961886939205
15	0x3fb03a5fecb3b3db	0.06339072731834909
16	0xbfbdc41268f7958f	-0.11627306997941943
17	0x3fbe15ed11a05361	0.11752206497506058
18	0x3fc7f0b9e42ce162	0.18703387872097738
19	0xbfd3bbd630cc3461	-0.30833964124105334
20	0xbfca412689609bfd	-0.20511323650245564
21	0xbfd0b9e4564b034f	-0.261345943708922
22	0x3fada1a5a94d7979	0.05787389461214593
23	0x3fadb25f48c33eb6	0.05800149691787963
24	0xbfca5cedf6eca6f4	-0.20596098477226799
25	0x3fc6b087fa082abd	0.17726230343426677
26	0xbf9480f9cf4cc862	-0.020023253705581452
27	0x3fc7d653f0d6c3f8	0.18622826823914784
28	0x3facde97abd74ae6	0.0563857457415418
29	0x3fb502451cfe83f0	0.08206588704935291
30	0x3fb446d26ad86f63	0.07920565708667264
31	0xbf565d0ff536b27d	-0.0013649612272771665
32	0xbfc92aaff0af80fe	-0.19661521198487003
33	0x3fd30b6828a8db98	0.2975712201181806
34	0x3fc2937f87c09651	0.14512628677873576
35	0xbfb52fecd12a3e5a	-0.08276252848212931
36	0x3fd6f7b8c73d2847	0.3588697381679861
37	0xbfb0fe238968d973	-0.0663778505776003
38	0xbfd2de0c188fbbca	-0.2948026885850906
39	0x3fcc7ef20fcef2fd	0.22262407085317895
40	0xbfd106176230a477	-0.2659967860113918
41	0xbfc0cca85cc10365	-0.13124565629007204
42	0x3faa3055bf2f6e3e	0.05115001639179838
43	0xbfc03152481743c1	-0.12650517005979903
44	0xbfa4c793cc7780af	-0.04058515425617892
45	0x3fc3bd9a5a6f1e0a	0.15422372260785294
46	0x3f4d1b621ab204cc	0.000888274099807651
47	0x3fb4967772c8357a	0.08042093803688558
48	0xbfc89bd41218645d	-0.1922555054050318
49	0x3fc2a4c855a85d34	0.14565376455787205
50	0xbf7e4e45c4dc4572	-0.007398865256406638
51	0x3f9d44df164cbe8f	0.028583036171026917
52	0xbf9d528c14a84cb2	-0.028635205040768504
53	0x3fbae0755c210ec2	0.10498746394392369
54	0x3fb031c8a961b319	0.06325964103025362
55	0xbfccab69354b66f8	-0.2239810476519819
56	0x3faa32a2b809b0d5	0.051167569127615366
57	0xbf937dd283f3103c	-0.019034661582523635
58	0xbf7d292d887028db	-0.007119348395472093
59	0xbfa6a23b12c52879	-0.04420647243621629
60	0x3fccc1677b269c4d	0.22465222848151925
61	0x3fb61ece71840267	0.0864075686586233
62	0xbfc92a8ab4f3cb74	-0.19661077342569977
63	0x3fb8b2b4907cfdcf	0.09647682693047631
64	0xbfc264296b6449db	-0.14368169540155304
65	0xbfcdad629105702b	-0.23185379105677958
66	0xbfb21acd0d20a426	-0.07072145052428933
67	0x3fd3278af362233a	0.29928849952607417
68	0xbfd6b0ab179df4b3	-0.35453297907208564
69	0x3f8986c496157fea	0.01246408064861267
70	0x3fb0c04b55ac447c	0.06543417779563926
71	0xbfcb07a8326ae405	-0.21117117368501695
72	0x3f91f0b9dbff2961	0.01751985936406564
73	0xbfc6bb11a15eebf4	-0.17758388881142617
74	0xbfba863a8e5c258a	-0.10361066794953025
75	0xbfc7fb30718d7c27	-0.18735318703235856
76	0xbfbf46b9cd8e1073	-0.12217293995314708
77	0xbfc2a47ff13c8d2e	-0.1456451347267857
78	0xbfa3f4906e948b13	-0.03897525167328388
79	0xbfc1fbeecf53cc38	-0.14050088046460174
80	0xbf5dde5d1195f336	-0.001823035132786544
81	0xbfb1a67c2a8d83a8	-0.06894660986792067
82	0x3f95db57869d1cd1	0.021344535437745563
83	0x3fb53e9ca49e194a	0.08298663157447553
84	0x3fcc5d17ad69671e	0.22159095733041395
85	0xbfabc78502502394	-0.054256588489869945
86	0x3f758a97f577971e	0.005259126271516283
87	0xbf82dd80dc6bc568	-0.009211546637262827
88	0x3fa6c1ff6258aab5	0.044448834185762655
89	0x3fa10b3b0eecd8e5	0.033288808414384786
90	0x3fd46143b209cac0	0.31843655001209115
91	0xbfb1faefcfa6b58c	-0.07023524112329066
92	0x3f81606077b156d6	0.008484605458004262
93	0xbfc22531446b4043	-0.141760023505869
94	0xbf748ce30eb5f8db	-0.005017172759265355
95	0xbf8173ae0cd1b9b3	-0.008521423116886284
96	0x3fb7c58d1d02b589	0.09285814245477843
97	0x3fa8ef1906e70a45	0.048699171154585254
98	0xbfa36d9de2e519c7	-0.037945684382566784
99	0x3fbd160739589e34	0.1136173739438327
100	0x3fcd0536aae10a81	0.22672160476402684
101	0x3fc381773e528a89	0.15238848250472284
102	0xbfca2d431dd52fe6	-0.20450629192998732
103	0x3fc6f27c03cff90c	0.17927503763343855
104	0xbfb103dfbf0d7843	-0.06646536268587604
105	0x3fd2dc54e0e8db73	0.2946979709990309
106	0xbfd226ccbbf084d0	-0.28361814835996046
107	0x3f7de38956d3efe4	0.0072970738231070455
108	0x3fd471427c6c19ae	0.3194128241597366
109	0xbfa183ccb6c551b5	-0.03420867663467978
110	0xbf8ea02310c0a218	-0.014953874539132037
111	0xbfcb31754305c95b	-0.21244684002483435
112	0xbfad9b75313a90c5	-0.05782667375504639
113	0xbfa2d6f223fbb17e	-0.03679615678069846
114	0xbfc6b4ee79758856	-0.17739659243221934
115	0x3fc2f40416d2dd01	0.14807177652776463
116	0x3f5ffa4e21678494	0.0019517672532105889
117	0xbfc5e4be1a256992	-0.17104316975276085
118	0xbfbaa0186477cd95	-0.10400536015349922
119	0x3fc9098d5fdb7762	0.1956040113499809
120	0xbfc22460e38d9248	-0.141735182866926
121	0x3f91ec985db111cf	0.017504101484762388
122	0x3faa3bdf21f94299	0.05123803415029222
123	0x3fd21f402e1b8b8d	0.2831573915738595
124	0xbfb5bcabe2370aa1	-0.08491014740779203
125	0xbfcc09a7313e0a5d	-0.21904458908473404
126	0x3f8f5b2e6026acfe	0.015310633000658044
127	0x3fb47adb9c999acc	0.07999966214411386
128	0xbf6e4ea6d947f735	-0.0036996134533628052
129	0xbfba301e0830bdc1	-0.1022967119213183
130	0xbfc669c0c4f18429	-0.17510232559564656
131	0x3fd75d6f7701305f	0.365077844825242
132	0xbfb70357d18ece22	-0.08989476076276806
133	0xbfbc2ab3cd7c6fff	-0.11002658621549698
134	0xbfa1d8189d54d01b	-0.03485180779026128
135	0xbfc6385a0810a577	-0.1735947169666294
136	0xbfd0b78efb4ece9c	-0.2612035230806471
137	0x3fc95378d9ed87be	0.19785986557968543
138	0xbfc4bc26195feff4	-0.16199184645654408
139	0xbfd26a9c21e94546	-0.2877569514431183
140	0x3fac20a6ee020696	0.054936615518284146
141	0x3fd6ad2178aca9a1	0.35431706223121223
142	0xbfb36f85bc2d4e25	-0.07592044681705852
143	0x3f90ad3b001a02c6	0.01628582180137774
144	0x3fbef1428617dc0b	0.12086883329162405
145	0xbf99fc8fb3645cb1	-0.025377507518979218
146	0x3fd16c6607bc4bdb	0.27224112277434437
147	0x3fd9ac64977616ca	0.4011470297922243
148	0x3fca2c8ff48022d6	0.20448493422033803
149	0x3fb788fa48078b08	0.09193386324436059
150	0x3fb474b468aa9d10	0.07990577273686861
151	0x3fccfddd712d1c29	0.2264973452203958
152	0xbf9f3b782f96ead8	-0.030500295548089834
153	0xbfbe2702a6350c19	-0.1177827506808601
154	0x3fc4a8f68a0f1a0d	0.16140634289895708
155	0xbfcc970fa6296cb9	-0.22336001981134304
156	0xbfc3a67f095b099f	-0.15351856190507093
157	0x3fc0bb64e06cd998	0.1307188125444554
158	0x3fd13b0c325d0025	0.26922898214616203
159	0xbfcdab58101a4369	-0.23179150377520877
160	0xbfc606a3df3da272	-0.17207764053752644
161	0x3f861dbd1a9cd087	0.010798909544611724
162	0x3fbca6cd03b58164	0.11192017880012411
163	0x3fb2f5188f7f8e08	0.07405236724257958
164	0x3fb0de92df816f54	0.06589620548896608
165	0xbfcc4ea62e113e82	-0.2211501812876016
166	0x3fa897bfbf681aa8	0.048032753100462344
167	0x3fc372ba9f30b065	0.15193875096281598
168	0x3fbd21aadd37303a	0.11379497433444011
169	0xbfa31a6c903b281a	-0.03731097469933804
170	0x3fbc25b3d5d7dde5	0.10995029421598408
171	0x3fc2fa4a4bf4cde0	0.14826325138856955
172	0xbfb70ebeec28c710	-0.09006875291450123
173	0xbfbd02d213d5db97	-0.11332428917181257
174	0x3fbdd6f9ff913948	0.11656153191981844
175	0xbfb887a15f6bfb7d	-0.09581955508836688
176	0xbfc8c1aa39d9547c	-0.193410185095363
177	0x3fbde503f57e5078	0.11677574866763674
178	0xbfc60b0721ddf0cb	-0.17221154359493193
179	0xbfdbd0d2a27f6c5d	-0.43462053173943166
180	0x3fd0f69f33151476	0.2650526045657168
181	0xbfbffb7d992e6fc7	-0.12493119230060677
182	0x3fd461fd6b1aa0bd	0.31848082980514986
183	0x3fcafc032ae7582e	0.21081580729395583
184	0xbfc6221cdd4365fa	-0.1729160385500988
185	0x3fd8a3e797bdc16c	0.3850039464805579
186	0xbfca824b970b5067	-0.20710129618840087
187	0x3fc6d83f735a6294	0.17847436077569923
188	0x3f9b75052c3addf8	0.026813584160405995
189	0xbf7a8e93f01b4bd5	-0.006483629114614827
190	0x3f92ecaf7f12a6cf	0.01848100865451024
191	0xbfbbd9d000e55443	-0.10879230520124943
192	0xbfd5621b16dbd66e	-0.33411290390299697
193	0xbf36e23ea55aba87	-0.00034917859498310343
194	0x3fb551390027e366	0.08327060941509287
195	0xbfc1549f9acaa6df	-0.13539500291999837
196	0x3fcc6423accab69c	0.22180601060010907
197	0xbf68f28eaf5d3586	-0.003045347863838091
198	0x3fba06025bdcfbae	0.1016541933322361
199	0x3fb68b6996464b99	0.08806476515591867
200	0xbfaa1815b86c1a57	-0.05096500278709886
201	0x3f9559a6de083a2e	0.02084980707337019
202	0x3fb9489b771cde43	0.09876414926554226
203	0x3fbe43eefa401063	0.11822408303857083
204	0x3fda59758db118ee	0.4117101558407644
205	0xbfc22b17d50f3d7d	-0.1419400968866106
206	0xbf9069b7df0135d9	-0.016028283105972683
207	0x3fa27f992ce5ad7b	0.036129748087513534
208	0xbfc35ec760e5c2f4	-0.15132992011378799
209	0xbfc539fe7a4c43bd	-0.16583233806207245
210	0xbfa0af10908ef112	-0.03258563770893565
211	0xbf8e6a11023b8ee1	-0.014850743179926908
212	0xbf75bab07882247a	-0.005304993952571663
213	0x3fb6c2c335e81a87	0.08890934053497733
214	0xbfd0023220887770	-0.2501340215402399
215	0xbfac71c84b7ceeb0	-0.05555559083447059
216	0x3fbcea73821caed8	0.11295244146884487
217	0x3fb629b656224cc5	0.08657397845154254
218	0x3fc6173691acd536	0.17258340943377853
219	0x3fc41ba518c6d825	0.15709365567971748
220	0x3f62a4c6f6d2a3c0	0.002275837518557172
221	0x3fa6a96942f2481c	0.04426125471322015
222	0xbfb1e0b3c3004aeb	-0.06983493338365647
223	0x3fc12ff806435f35	0.1342763929922001
224	0x3fb237014405aa88	0.07115180884071937
225	0xbfb241444d18317c	-0.07130839235487046
226	0xbfb1b0efd2108d50	-0.06910609129459044
227	0xbfaae810c3eaf8fa	-0.05255176917624911
228	0x3fbdae2c7736f297	0.11593892965806628
229	0xbfb46afff48872af	-0.0797576877598185
230	0x3fc9137b75b84112	0.19590705154451676
231	0xbf94558e4203f22c	-0.019857619075070485
232	0xbfa7f0918c26f0fb	-0.04675726734009974
233	0xbfb79da0710c2727	-0.09224894294689233
234	0x3f9c07c4798c0880	0.027373380583420204
235	0x3fb43b4832c9dc71	0.07902957191423511
236	0xbfcf9e44d5791af3	-0.24701748298158285
237	0x3fc6b8a8c6990e85	0.17751035401498796
238	0xbfaef1e35ae5bda6	-0.06043920979106625
239	0xbfc6d777cf1f5ddd	-0.17845056165127363
240	0xbfc022b97b670532	-0.12605970883854806
241	0xbfb5b7ba16075591	-0.08483469999131034
242	0xbfb42cf89e596bb1	-0.07881120553922362
243	0xbfca32561f2c2698	-0.20466114542096103
244	0xbfc10fe35b391acb	-0.13329736665965294
245	0xbfc20c99f49e593f	-0.14100956386818983
246	0xbfc9d55f1a936cd7	-0.2018240813984906
247	0xbfa3e8db060e9ed3	-0.03888592194499343
248	0xbf6b9dbb91510436	-0.003371111243297277
249	0xbfc9431167ad5437	-0.1973592525706935
250	0xbfc0aabbfe0f82a8	-0.13021039872457618
251	0xbfc4c2493c27057b	-0.16217914044504397
252	0xbfb692c35921526b	-0.08817692686108962
253	0x3f8d41dc63fcb13e	0.014285775948871145
254	0x3fb3f71ab81dc2ea	0.07798926348710791
255	0xbf6061ff1d06af64	-0.0019998533900515304

hidden_layer4.bias f8 [20]
0	0xbfc98581a4027582	-0.1993867922619011
1	0x3fd03434f3579ebd	0.2531864525212589
2	0xbfa6a0a8a245f3b0	-0.04419447880625371
3	0xbf914a44996e6ad3	-0.016884872307495535
4	0xbf9499d9207051a4	-0.020118134121803202
5	0xbfbb7a4f63fb1e53	-0.10733505431118688
6	0xbfbed381484a5333	-0.12041481032276806
7	0xbfd4ef597387ec92	-0.3271087291938751
8	0xbfd720ef0b3aae4b	-0.3613851174984332
9	0x3fa4d7e8107b5aac	0.040709735881752834
10	0x3fa4ce80e6458d03	0.0406379967778552
11	0x3fc5ec3f921b5907	0.17127222665903494
12	0xbfa1b4388305fafa	-0.03457810019880543
13	0x3fc258655f0f910f	0.14332263127938247
14	0xbfc362e836ac64a2	-0.1514559046707165
15	0xbf9c8a6962af3bb0	-0.02787174858877578
16	0xbfc8f3fae248b58e	-0.1949456791784709
17	0xbfca0e8c301c05a2	-0.20356895779700063
18	0xbfc1e766b5726413	-0.13987430438717804
19	0x3fc7b116263fc2da	0.18509175174360487

hidden_layer5.weight f8 [20, 20]
0	0xbfaa02277f30d723	-0.050797685886591525
1	0x3fc09f260b20dcd4	0.12985683005692883
2	0xbfc944f2885a4a49	-0.19741660745474324
3	0x3f9e41a2708e4fdf	0.029547250861995052
4	0x3fc2eb7755d82e11	0.14781085673927
5	0xbfb6512ee04471de	-0.08717625594403652
6	0x3fa7dc1d2cb3f1e8	0.04660121126832789
7	0x3f97ee7f697fb4fe	0.023370734037531975
8	0xbf9a1134fbd9e007	-0.025456264373559658
9	0x3f7e76815fe1102b	0.007437234277009745
10	0xbf886cc709d48287	-0.011926226603976587
11	0xbfbd10b992425ce3	-0.11353645153791407
12	0x3faed7508cfafd5a	0.0602364704222917
13	0x3f9e6177b16fc29b	0.029668684201114997
14	0xbf48039d8ea2d763	-0.0007328528711443124
15	0xbfb92b9e9d402d37	-0.09832183207634136
16	0xbfb86277e0b75490	-0.0952525066016554
17	0x3fb8c6a88267a445	0.0967812841769425
18	0xbfa83f29931024cc	-0.047356890871080276
19	0xbfc02c5ee05d255f	-0.12635408358827768
20	0xbfd00369e3f8454f	-0.2502083517329838
21	0xbfa8c4acaf046f15	-0.048375507702273314
22	0xbfc09a489f336908	-0.1297083642337571
23	0x3fa2a27fa57b67a3	0.03639601607365186
24	0xbfab572b43b9af2d	-0.05339942170834742
25	0xbfa66691908e8705	-0.043751286407554026
26	0x3fae628da277a0d3	0.05934565170520192
27	0x3f8a0a5cfba63985	0.012715078763702045
28	0xbfb71317cd1032b8	-0.09013508564403139
29	0x3f5344a8a59a551c	0.001176037496781141
30	0x3fa7fc931b975fdb	0.046848866575316804
31	0x3fbdf32f0c165b35	0.11699193997479258
32	0xbf87128a0c9965dd	-0.011265829572198289
33	0x3f9d5c93eba4a19b	0.028673468835366128
34	0xbf781fbfad8725bc	-0.005889652959419175
35	0xbfa29a78332d465a	-0.03633475899426904
36	0xbfb05d58d4885510	-0.06392436207564267
37	0x3f9bb405d7d5e8a1	0.027053920076902774
38	0x3f74798a0d8dbf07	0.004998721379578581
39	0xbfb01ef49eb86ae0	-0.06297234416016861
40	0x3fb2078ef70ee30d	0.07042783290570416
41	0x3fbb26bd8911f3a6	0.10605988117636275
42	0xbfca2c82200ebfab	-0.20448328557313053
43	0xbf96a59fff845729	-0.02211618420650222
44	0x3fb4bbf93eede53a	0.0809932497631011
45	0xbfb4d3a8aec20311	-0.08135465876149463
46	0x3fbd0e1817c655e1	0.11349630909383947
47	0x3fa6c68b06212e17	0.044483513353579855
48	0xbf614aa552ce5652	-0.0021107892011496343
49	0xbf81f5435b08ff43	-0.008768583503410482
50	0xbfa0c2ad866b708b	-0.03273527398934658
51	0xbfd2fa083dfd656d	-0.29651075414365985
52	0x3fb8e79fa4ab4503	0.09728429575195112
53	0x3fb4744c1cfebc12	0.07989955623519077
54	0x3f8718ef5d218037	0.011278028516415002
55	0xbfbb54127d8c3d67	-0.10675159039623382
56	0xbfac1875ebc2c6f0	-0.05487411978664436
57	0x3fa4ce07afd3dcf2	0.0406343843587197
58	0xbfb35069715bd9b8	-0.07544573800610166
59	0xbfb187738a9e66f2	-0.06847307333228139
60	0x3fc618625aca948b	0.17261914666338316
61	0x3fbb0715138a49ee	0.10557681777053293
62	0x3fc70feba6c63157	0.1801733555152036
63	0xbfa3de776f95e398	-0.038806660052564
64	0xbfb475e8fcedffa0	-0.079924165487681
65	0x3fb006462180d8c7	0.06259573286010599
66	0xbfc03969b1cfec4a	-0.12675210172878543
67	0xbf97dbca44161d2c	-0.023299370198882105
68	0x3fbd5896df891f4a	0.11463301618016178
69	0xbf966dd2970d13b9	-0.021903315038134006
70	0x3f918487465969eb	0.017107118290690265
71	0xbfa138a248f3d206	-0.03363520756275666
72	0xbfa0c9ffc90c1d83	-0.03279113129797919
73	0xbfa4975fcb12edfb	-0.0402173934357641
74	0x3f7d0e17bbb08be9	0.007093517978350208
75	0x3fb5650209fc6bfb	0.08357250922965413
76	0x3fb22e4b02ee7b2c	0.07101887532779178
77	0xbfac7325d9aba14d	-0.055566008397195256
78	0xbf81e0444cc7f4aa	-0.008728536217854039
79	0xbfa0e2d40aabad44	-0.03298056249863149
80	0x3fac7a3e4dbe473c	0.05562014292730885
81	0xbfba2e37fdcdef71	-0.10226774164578757
82	0x3fc1a545785ae80a	0.13785618187631626
83	0xbf637fab0064ff71	-0.002380212771782846
84	0xbfabdf47089330f1	-0.05443784694361565
85	0x3fa1c968bfc5d8c9	0.034739755067606355
86	0xbfb5685a83cbd02e	-0.08362355916671113
87	0xbf74f2c3f41245a3	-0.005114331667884472
88	0x3f80b89803ed1ec7	0.008164584750957172
89	0x3f8751823edbf0a1	0.011385934394177179
90	0xbf8485a97a5df9e9	-0.010020565077636117
91	0x3fc0c1821d53296b	0.13090540344121435
92	0xbfab475bcf1daef0	-0.05327879813452607
93	0xbfaa18e397fada8d	-0.050971138288720665
94	0xbf6afcc738d64501	-0.0032943621687954176
95	0xbfa14f30a1829350	-0.03380729648168901
96	0x3fabd29967e6fefa	0.054341119702710786
97	0xbf9bb007fa14fa9b	-0.02703869308356364
98	0x3f9c2878621acaaf	0.027498131740410766
99	0x3fb3540107a8a043	0.07550054966907375
100	0x3fb9c60c87f514ca	0.10067823714514926
101	0xbf9d386ef6b06b8b	-0.028535589033804192
102	0xbfb66c00b3433f48	-0.08758549095659618
103	0x3f931bbfd7e78596	0.018660543015248963
104	0xbf8044b805fb3cad	-0.007943570787942578
105	0x3f811bf2bda8b2fc	0.008354088223393223
106	0x3fba3a6697111779	0.10245362461236408
107	0xbfa1f5378ef83f79	-0.035073982431753366
108	0xbfa3125a984c58eb	-0.03724940404042506
109	0x3fa59e8c6cd87309	0.042225254332356306
110	0xbfc986ac20cf52da	-0.19942237474483343
111	0xbf839b9377f36079	-0.009574081514458254
112	0xbfc5844f5c17ede8	-0.16810028073074013
113	0x3fc54093d81f6a26	0.16603324940554492
114	0xbf5d607b405e7ba2	-0.0017930225016937547
115	0xbf99d7a36980277b	-0.025236657442327264
116	0x3f5cd41bbd0aadcf	0.0017595549472087973
117	0xbf9c326d24252e15	-0.027536111193780927
118	0x3fa1ffc2dcf14d99	0.03515442797711472
119	0x3fca3077df24c002	0.20460413356477153
120	0xbf877aebeb8947fc	-0.011464923024650624
121	0xbfb1524af854c54e	-0.06766193926593653
122	0x3f8b3e199e4d2591	0.01330204023692508
123	0xbf7c0d0304815a67	-0.006848346507544712
124	0xbf94fdb8594ccfaf	-0.020499115419809474
125	0x3f9b778fe26223d6	0.02682328051790591
126	0x3fb1615b95c2926b	0.06789181143046512
127	0x3f7416926d6f5353	0.004904338819831394
128	0xbfaf42402151b69f	-0.06105232626655987
129	0xbf5bb6f91880a121	-0.0016915733886069889
130	0xbfa01c1f7ba71ba3	-0.031464561313945504
131	0x3fa7b0afbb65530f	0.04626988565966005
132	0xbfa113970db97d29	-0.033352585244524065
133	0x3f8efa1afea08333	0.01512547578391974
134	0xbf17344c6d22dfd1	-8.851734608838971e-05
135	0x3f9b8edce42e94d4	0.02691216604911946
136	0x3f99e2332130c1bd	0.025276945973190957
137	0xbfaba321d212d1de	-0.05397897424100838
138	0x3f9d0ecc3dee301c	0.028376761703427275
139	0x3fb276ba18d69707	0.0721241293564071
140	0xbfcc01f6ed5ed5ef	-0.21880995359758468
141	0x3fb453327243b7ff	0.07939448632870948
142	0xbfd255cd18131a3d	-0.2864868865112021
143	0x3fb16ba4162773ea	0.06804872074958693
144	0x3f7e66abcf30abb0	0.007422133569927533
145	0xbfbb31cf1128987c	-0.10622877282057347
146	0x3fa3bda3cf172938	0.03855621245345947
147	0x3fb56bdaf8c974f0	0.08367699216747204
148	0xbfb6999fef09bfda	-0.08828162752047267
149	0xbf949f6722a2252e	-0.02013932370076537
150	0x3faf0004d5fb74b5	0.060547019120102
151	0x3fbd15c1bb84b7fa	0.11361323192679143
152	0x3fc14a635fb02245	0.13508264705912346
153	0xbf91ac4a626a778b	-0.0172587988441744
154	0xbf7c4f901042c50e	-0.0069118144494251365
155	0xbfc028641c6604f4	-0.12623263727804324
156	0xbfc30c910d8bf97d	-0.14882100259269385
157	0x3fa9dd47b006a504	0.05051635764841403
158	0xbfac3cf8286194ab	-0.0551526593488146
159	0xbfa9c56def5032f0	-0.0503343920355287
160	0xbfc4873afdf93539	-0.16037690545128117
161	0x3fc6f0d434691103	0.17922451552488647
162	0x3fb6891b54e22e75	0.08802958319045635
163	0xbfae71e26eeeada0	-0.05946261982111456
164	0xbf8599b36c736028	-0.01054706740107754
165	0xbfd419890b82bcec	-0.3140585529717572
166	0xbfab912197e61d46	-0.05384163836702753
167	0xbfabc92ee6b9178e	-0.054269281067305206
168	0xbfb35131d9a1417b	-0.07545768321256745
169	0xbf735534afb1c14f	-0.0047199304636794245
170	0x3f9b4ffd00b188a2	0.026672318618132913
171	0xbfaa3f3c16f5e19d	-0.05126369266776296
172	0xbf843556ebeaf1ce	-0.009867362093580658
173	0x3f4adbe2d91b143e	0.0008196695000256616
174	0xbfd243169f170c18	-0.285344748841625
175	0xbf23de60b4de38c1	-0.00015158586978398193
176	0xbfbcc72072242a20	-0.11241343294765516
177	0xbfc369b639e6f762	-0.15166356875664194
178	0x3fc1399c258f685b	0.13457061609261953
179	0x3fc2699d9cb72b48	0.14384813453792789
180	0xbfa1a061eda94e88	-0.03442674661769468
181	0xbfa3de681a68392e	-0.038806203101659484
182	0xbfaec908c23337a0	-0.06012751932722371
183	0x3f9b199dac0f1e49	0.02646490442910324
184	0x3f8060871de6d263	0.007996612167383071
185	0xbfa0e4147dbffab5	-0.03299011263879007
186	0xbfa6426a03e3dabd	-0.04347544953809777
187	0x3f637f1f4acd91e8	0.0023799525428549358
188	0x3faca9c73e9696ff	0.05598280562416668
189	0x3f950cf2d025bb45	0.020557207063969036
190	0x3f9663f042683402	0.021865610173382073
191	0xbf76e662f3bc5371	-0.005590807468043178
192	0x3fae55452836ddd7	0.0592443095769643
193	0xbf7796c400626ce5	-0.0057590156849542705
194	0xbf78f99c153c35c5	-0.0060974213590844805
195	0xbf9f6bedca628949	-0.030685153462976875
196	0xbfaa66a40e1e2ccd	-0.05156433746659559
197	0x3fb372a06fa0594f	0.07596781468632695
198	0xbf8bdf0efacc718a	-0.013609044102445695
199	0x3fa5501317e5ce85	0.041626545588681764
200	0x3faac0c228815c43	0.052251880115982384
201	0x3f841aa3bbeed224	0.009816435978657508
202	0xbf90526b568818a9	-0.015939404636832553
203	0xbf840b955a3d9fc4	-0.009787718597820468
204	0xbf446096facfc225	-0.0006218659597135341
205	0x3f9800fba48b2e1a	0.023441249769161933
206	0x3fb51203a9b92b20	0.08230612653384783
207	0x3fa484f62a09c379	0.040076916343315845
208	0xbfb4649f823163a3	-0.07966038635767218
209	0xbf9839ffe6e926d4	-0.02365875098101962
210	0xbfa4e00750742521	-0.04077170235729911
211	0x3fa21642015795cd	0.03532606378920953
212	0x3f92813ed4f86fb4	0.01807115721577164
213	0xbf79c8c1255bebb2	-0.006294970012954803
214	0x3f67f4125111c8ae	0.0029239995715722644
215	0x3f959f546009cfff	0.021115606652941207
216	0x3f92db80ab4517c2	0.01841546101902459
217	0xbfb7500e3f1d9253	-0.0910653022852526
218	0x3f79cd9e251f6c8b	0.006299607995937549
219	0x3fb4f661c4110f84	0.0818844894102409
220	0xbfb281df91f52e88	-0.07229420960828226
221	0xbf7d65f671f9ee92	-0.007177317310943858
222	0xbf6b437ee8e1ded0	-0.0033280829148302007
223	0x3f6eaee2620bfdc1	0.0037455007117157273
224	0x3f7cf09c8c7f15fc	0.007065402525716188
225	0xbf6a42d1c927261b	-0.003205690133857753
226	0xbf757e40468884ff	-0.005247355533840591
227	0xbf8c384f6b08cd02	-0.013779278234415052
228	0x3f7a87ebed7dc2c6	0.006477281181887567
229	0x3f6cf7a602500897	0.00353605674399755
230	0x3f9ce459c16ae02b	0.02821483843828802
231	0x3f530c36b2cafde1	0.0011625799335631614
232	0xbf78712dfffc493c	-0.005967311560896523
233	0xbf72e162743a924f	-0.004609474740992227
234	0xbf57db672134a43b	-0.0014561183095998093
235	0x3f8febf5eebc38a3	0.01558677801906711
236	0xbf846ca06b276650	-0.00997281386382834
237	0x3f9b64d117367cdb	0.026751772920417288
238	0x3f7a21f916a7bab5	0.0063800554294021665
239	0xbfa88abb71ececb9	-0.047933442742271244
240	0xbfb0f36dc9e0d5ad	-0.06621442965191333
241	0x3fb03f5fde7884c2	0.06346701795020507
242	0xbf9d7adbc2198907	-0.028788980218799966
243	0xbfcd8b5ef9b1dc5d	-0.2308157653057802
244	0xbfb945f2a7600076	-0.09872356973937876
245	0x3fb91021d6d07163	0.09790240759361306
246	0xbf8b29e0ba3014d4	-0.013263469392777706
247	0x3fb6859e128887d2	0.08797634079431241
248	0x3fbe1875c31b8a25	0.11756073010796138
249	0xbfc57ba219cb72a6	-0.16783548602588388
250	0x3fa40e56d272870a	0.0391718990224615
251	0xbfaeb9d1731faeed	-0.06001143007583019
252	0x3fba5dd2fc18d1ed	0.10299414305411121
253	0x3f98dc415697d4c7	0.024277707014296348
254	0x3fbfc381c6575181	0.12407694904624657
255	0xbfba1b84c86a3cbe	-0.10198240178054882

hidden_layer5.bias f8 [20]
0	0xbf903e084e572642	-0.01586163499977134
1	0xbfb0d22543b2785d	-0.06570656683695249
2	0x3fb6fddf91fa69f1	0.0898112994567908
3	0x3f54abf487da87a6	0.0012617004389672087
4	0x3fa3606b119e9c12	0.03784498777468327
5	0xbf9f92e58bb4fc08	-0.03083380379871062
6	0xbf83b15b11ddca63	-0.00961562298082192
7	0xbfb73942344cc80c	-0.09071744706014345
8	0x3fc75de02c975ab4	0.1825523584108929
9	0x3f9cb1c6ff9a8007	0.028021916724014797
10	0xbf9bb52abf7be05d	-0.027058284699677738
11	0xbf90a848a4680370	-0.016266951593937262
12	0x3f90bf0bfac8f7c8	0.016353785688117545
13	0xbfd26772eee50bcd	-0.2875640232998052
14	0xbfd1eae0394880fa	-0.27996068567337284
15	0xbfbb87df6b0a405e	-0.10754200328142491
16	0xbf63c3f4c0d02f5f	-0.0024127750716668585
17	0xbfb91281e7e42c6c	-0.09793865119370232
18	0x3fca944b283e99ad	0.20765056099953708
19	0xbf64bdff3dfc549b	-0.002532003898418523
