net_param/net_0.07.pth (torch, 17999 bytes, 12 tensors)

hidden_layer1.weight f8 [20, 2]
000000 a4 a1 e2 71 38 a0 e3 3f 39 8d b0 2b 22 ab e4 3f
       0.6133081650087218 0.6458903172792027
000010 48 a0 9b 96 b1 c7 c0 bf 20 be 4a d6 4c 34 e3 bf
       -0.1310941682234008 -0.6001342950239099
000020 ed 40 3d aa 56 db d2 3f af b2 cc 7d 93 7e cf bf
       0.2946373617642298 -0.24605029718931834
000030 48 e5 0a 07 44 d9 de 3f ac 1c 20 28 15 db e1 bf
       0.482010847928525 -0.5579934867572738
000040 94 d3 f8 6c d9 c4 e0 bf 0b 99 52 84 e5 32 dd 3f
       -0.5240294578894571 0.45623147890218324
000050 e1 72 5e 20 bb fb c6 bf 03 b1 e9 53 e2 10 e0 3f
       -0.17955721931948346 0.5020610464976304
000060 13 6f b6 49 42 97 c6 3f 82 65 11 f6 c1 45 7c 3f
       0.17649105643510463 0.006902463589619658
000070 3b 3c 8e 9c fa 0b e5 bf 96 6c 3a af 3f 13 b4 3f
       -0.6577122743345919 0.07841871288330746
000080 04 3c 20 e5 7f 20 d8 3f 53 b4 19 7e 7c 4e d6 bf
       0.3769836175496837 -0.348540423531465
000090 ee c3 4d 5f d7 68 c5 bf 27 c2 87 b3 e7 30 88 bf
       -0.16726200250153006 -0.011812029043512485
0000a0 17 ff a8 94 d4 01 c2 bf c3 eb e7 16 6a 58 c6 bf
       -0.14068085917278303 -0.17457319372610244
0000b0 93 6f d1 d3 bc 98 d0 bf 0a 77 ce fe 66 b1 c4 3f
       -0.2593223637138575 0.1616638893291838
0000c0 04 15 d0 b0 00 b1 b0 3f e9 8b 2b 0b 10 8d df bf
       0.06520084683150534 -0.4929847821314853
0000d0 bb 26 2b 60 8f 0d 96 bf 48 e3 21 52 d4 e8 cd 3f
       -0.02153610252825076 0.2336678887402519
0000e0 5d 6b c1 f6 8b c0 e0 bf 06 2d d6 a4 66 d6 dd bf
       -0.5235042399830082 -0.4662109956486379
0000f0 2d 46 00 96 9f d0 d7 3f 0b 31 71 8b f3 71 de bf
       0.3721083607534606 -0.4757050382365981
000100 6d bc 51 33 d6 4a d1 bf 34 7e 54 15 12 7e cb 3f
       -0.270192670933233 0.21478487054354078
000110 6b 62 71 f5 44 2b d4 3f 41 6b 9f 2e 36 b8 bf 3f
       0.3151409527686499 0.12390459669351818
000120 53 0b 53 21 f1 54 e3 3f 05 a3 0e 7d 19 ba da 3f
       0.6041188860766432 0.4176086159955477
000130 68 da 97 08 4b 75 e1 bf 34 ae 38 77 9c 3e c9 bf
       -0.5455680053554035 -0.1972232420097143

hidden_layer1.bias f8 [20]
000000 ba 04 4a 72 6c 19 da bf cd a3 13 8d 74 ec da 3f
       -0.4078017345528441 0.42068208481810815
000010 a4 30 9e 09 ce e6 e3 3f b3 3e 2e 6e 1f 94 d4 3f
       0.6219244182443799 0.3215406967146734
000020 04 72 77 0e 80 c3 aa bf c7 50 37 10 19 63 c3 bf
       -0.05227279831499135 -0.15146172801781274
000030 25 c2 10 fd 43 c6 c1 bf 67 f1 7c 5d c0 73 dc 3f
       -0.1388630853339389 0.44456490640347684
000040 a3 22 71 1b 8d fb db 3f 30 90 c3 83 fe 5f da bf
       0.43722846679569666 -0.41210902087755397
000050 c6 c6 2d a8 c8 b8 e4 3f bf 79 f9 a1 50 c5 c4 3f
       0.6475566181890933 0.16227157505904974
000060 11 a2 b7 de 56 1e be 3f 9f df 72 52 4b 2f dc 3f
       0.11765044152674188 0.44038661052354117
000070 44 f6 65 4f 53 29 cc 3f 31 00 ba 54 e9 a1 e4 3f
       0.22001115204686716 0.6447645811858874
000080 f8 47 5d d6 5d 7d d3 bf 04 d6 c0 21 e9 aa d8 bf
       -0.3045267671014922 -0.3854315595266089
000090 20 28 2f fa e6 d7 e3 bf 1c ff 3c a9 c7 cb e0 3f
       -0.6201052557382845 0.5248754792628207

hidden_layer2.weight f8 [20, 20]
000000 89 8e 2f 3f 0f 2d c0 bf f8 44 fe bb 89 e6 b0 3f
       -0.12637510857813464 0.06601773109129627
000010 23 ce 06 94 57 7c cb 3f 51 80 12 80 82 2b bb bf
       0.21473211982594007 -0.10613265635265746
000020 0f 2c a6 07 66 b9 be 3f d1 70 a5 c3 c5 2a c9 3f
       0.12001645743127674 0.1966178136161774
000030 4b f9 b2 cc 34 20 8e 3f a9 d9 8b 07 e0 de c3 3f
       0.014709866043969419 0.15523910873862448
000040 c0 86 83 e6 4b a9 c3 3f 3a 92 b2 69 17 0e c3 bf
       0.15360401874118246 -0.14886753712666395
000050 f3 c8 84 8f ad 57 be 3f ef 8f 37 99 60 3e 7c 3f
       0.1185253596675329 0.0068954251650872175
000060 98 68 9a 58 ee 88 b6 bf 79 62 17 c9 81 9b bc bf
       -0.08802690184748696 -0.11174784812409112
000070 f7 cb 49 6e 79 18 c5 3f 3a db 08 50 9f e9 a7 bf
       0.16480939755601273 -0.04670427181229404
000080 f3 76 84 31 52 a9 b7 bf 34 29 55 f6 35 83 c8 3f
       -0.09242738446161151 0.19150423553430473
000090 3f d2 6e b7 ff 43 cc bf d9 3f 67 0f 72 9f af bf
       -0.22082516152080875 -0.06176334798840317
0000a0 14 de 71 9b b5 34 b7 bf f8 84 c8 fb 23 4e 98 bf
       -0.090648031664266 -0.02373558258307626
0000b0 6e 8d 84 d8 33 f0 c2 3f 07 b2 cd a9 8d 7c 97 3f
       0.14795539924771667 0.02293607090853025
0000c0 fe fc b0 96 b0 3c c2 bf 24 a6 9c 37 62 e3 cc bf
       -0.1424771056935938 -0.22568919864106463
0000d0 22 0d 3b 45 6b fe c5 bf 9b e5 8a 6f 6f c6 c7 bf
       -0.17182675247577445 -0.185743264640945
0000e0 05 38 35 af c4 6c bc bf 6c ee 1c 15 a5 86 c6 bf
       -0.11103467252289086 -0.1759840348330387
0000f0 af ee db 0e 6f be be 3f 1e 39 a1 bf e7 ef 79 bf
       0.1200932894971014 -0.00633230711726032
000100 7a 69 41 79 d2 cb 71 bf 29 26 de ef b3 88 89 3f
       -0.004344770586693131 0.012467771299060253
000110 12 2d ae ee 44 66 71 3f 89 5c 24 f8 9b 70 ba 3f
       0.00424792219827032 0.10328078087001037
000120 de 17 80 ad 79 57 c2 3f 4a 9d e3 00 ac 8d ca bf
       0.14329453441331358 -0.20744848292745593
000130 2a a5 46 63 2c c3 be 3f b8 07 69 d4 6c 19 a4 bf
       0.12016560958604275 -0.03925647824190953
000140 09 6b 4a 49 72 cd 9f 3f b5 b0 91 d3 47 d3 c1 3f
       0.03105715343790919 0.13926027136347377
000150 33 33 27 cd 5d c3 c2 bf ab 80 1a 1e 96 31 c5 bf
       -0.1465871097301715 -0.1655757567396042
000160 d9 6e 20 3b fe 58 b7 3f 6d 1e 49 0e 7e 62 c9 bf
       0.09120167678377857 -0.19831824967899384
000170 0e df a7 f6 70 1c a9 3f da c3 72 a8 fc 13 bd bf
       0.049045114621490624 -0.11358622658259723
000180 f1 b0 14 0c f3 d6 be 3f 75 36 ff 10 4e 6e c5 3f
       0.12046736760084166 0.1674287398331448
000190 d0 08 00 ba a0 fb c9 3f ce 2a 46 28 5a 2b cb bf
       0.20299157220876518 -0.21226050344951947
0001a0 88 f5 eb a0 a8 47 c3 bf d8 e7 74 9f 60 8d c7 bf
       -0.15062435014253261 -0.18400199686021668
0001b0 e6 c6 15 9a 13 06 c7 3f b3 44 82 af 13 3e c6 bf
       0.17987294219670175 -0.1737694365479335
0001c0 61 e0 24 77 ef 59 b2 bf 47 ea 2f e7 6e e0 b4 3f
       -0.07168480547704938 0.08154957908838255
0001d0 0b 00 58 37 c4 bb c9 3f 44 5f b7 f0 b1 62 c1 bf
       0.20104267790156913 -0.1358244347927614
0001e0 a9 e5 c5 ec 1c 31 b4 3f 7e 90 4b 79 dc eb b5 3f
       0.07887440472213449 0.08563020669277141
0001f0 9c c7 10 07 0f 00 b0 bf 5f 03 63 23 3f 3d c6 3f
       -0.0625008957147472 0.17374409892911566
000200 c1 cf 67 30 fc 80 cc bf 52 98 0e 3e 16 27 b9 bf
       -0.22268631328154068 -0.09825266852439654
000210 47 80 46 ca 5e 78 87 3f ec 9c e0 70 0f aa bc bf
       0.011460056827502408 -0.11196991449161303
000220 66 a8 62 59 bb 6a c0 bf d5 4a 91 78 99 ed cb 3f
       -0.12825719704170807 0.21818846118056592
000230 a6 e0 a1 21 7b de a8 3f 7c 3f a7 e2 bf 14 a7 3f
       0.048572395186910186 0.04508018152011936
000240 c4 46 09 d3 70 bb ac 3f 87 c9 44 f2 1e 84 c2 bf
       0.05611755920530251 -0.14465700940634127
000250 7b 19 23 00 76 72 ac bf d6 28 e9 02 2a f8 c2 3f
       -0.05556076766656567 0.1481983675205984
000260 68 59 c8 35 d9 c6 7a 3f 94 f3 55 1b 12 bb bf bf
       0.006537292935283247 -0.12394822280289325
000270 bd 3d f9 5f 74 e2 cc 3f 54 06 d2 42 e7 59 c6 3f
       0.22566084562502722 0.17461863291468893
000280 96 82 5d 84 cd 7e c1 bf 4d 99 c6 44 7d 86 a5 bf
       -0.13668221438549172 -0.04204169716404014
000290 03 ed 9a a5 05 f0 c5 bf a3 04 d0 06 9e 8e a8 3f
       -0.1713873919123686 0.04796308358346237
0002a0 d7 1b 78 e1 2c c3 cb 3f 72 1a 00 45 6f b1 c8 bf
       0.21689377793538142 -0.19291487569008187
0002b0 e9 bc be 59 8e 16 b3 bf b2 1e 1c da 91 49 ba 3f
       -0.07456292811433553 0.10268508505771015
0002c0 cf 10 50 cf e9 70 cb 3f 7f e5 b8 5e bc fe c3 3f
       0.2143833410519904 0.15621142029867127
0002d0 bb 79 ac 4b 12 1c b4 bf 30 d3 40 91 dc ab c2 3f
       -0.0785533365965198 0.14586979954187873
0002e0 12 c1 80 cc e9 98 b3 bf a9 13 fc 38 0d 9c bc 3f
       -0.07655202143428522 0.11175615922191064
0002f0 a5 c9 ea cc a2 c0 c4 bf 70 79 da df 2d 9f b4 3f
       -0.16212878232688613 0.0805538817898872
000300 7c 9c b5 1e 69 41 cc bf 83 21 46 a5 f7 c6 cb 3f
       -0.22074617385371542 0.21700950212494882
000310 c8 fd 9a d7 98 4d c3 bf 99 aa 33 55 d5 a6 ca bf
       -0.15080557372674108 -0.20821634922261437
000320 c2 3c 9f 6b 1c 8b cb bf a2 9d 36 26 8a a5 c4 3f
       -0.2151828313348912 0.1613018690670574
000330 e3 05 bc 37 ad bd bb 3f d6 4b 70 7d ce 6c c4 bf
       0.10836298571304996 -0.15957051396307403
000340 ca ed 7b 9d eb 31 b9 3f 60 d1 7e 81 e9 65 c2 3f
       0.09841797442270842 0.14373511145607676
000350 f9 a2 90 f7 81 af c3 3f dd 8b 15 10 c7 b0 a5 bf
       0.15379356945165748 -0.04236433097209844
000360 9c 2a b4 36 47 f5 b5 bf f4 bf 42 34 60 ce 97 bf
       -0.08577389798680674 -0.023248198690168878
000370 1c c0 dc bc cb 54 b3 3f 9f c8 7e a9 18 94 c2 3f
       0.07551263199707176 0.14514454151282494
000380 1f 5a b1 16 70 b9 b9 bf 7c 2f 3a 13 3b 03 b7 bf
       -0.10048580698035224 -0.08989304751793087
000390 c4 20 00 8b fe 8d a9 bf ec ba b6 ba 09 df b4 bf
       -0.04991145560058066 -0.08152828987543231
0003a0 ee a0 03 d3 ac ef c4 3f 8c cb 9d f5 05 63 c4 bf
       0.1635643034308098 -0.15927195065486577
0003b0 06 b2 69 87 6d bd c7 bf 89 e3 c9 4c 55 fc 92 bf
       -0.18546837913471864 -0.018540699779325407
0003c0 9b 5e 34 c8 60 23 9b 3f 40 db c7 48 fb e1 79 3f
       0.026502144069211125 0.00631902845315474
0003d0 9d 1f b1 98 fd 7b bb bf f5 c5 b3 38 eb bf b0 bf
       -0.10736069658116638 -0.0654284490044786
0003e0 1e c0 4a 1b 94 bb 83 bf f9 b2 22 52 e4 88 bd bf
       -0.009635121424565848 -0.11537005429518023
0003f0 e8 44 05 43 df c1 a8 3f 35 20 90 00 0e 80 a0 bf
       0.04835412686464641 -0.03222697979805426
000400 5e a3 41 93 2f 84 c4 3f be 26 62 77 99 7d c4 bf
       0.16028399172071323 -0.1600829918791557
000410 0c 2f 19 e7 93 90 cb bf 40 37 6b 0b fb 1f bf bf
       -0.21534966262913036 -0.12158173588542542
000420 f5 b6 79 99 1c 22 b4 bf dd 64 f0 f6 8c ae c1 bf
       -0.07864550349196604 -0.13813936288423792
000430 a6 65 d6 b1 76 48 b3 3f b4 55 23 37 3b 86 c1 3f
       0.07532445756660042 0.13690891449247788
000440 d2 fb 54 d6 23 a2 78 3f 6d 8f 7f b8 64 2c b0 3f
       0.00601400374335888 0.06317739014008135
000450 83 16 11 2f d7 bc ae 3f 7d 47 48 24 58 86 bc 3f
       0.060034489150479174 0.111424931390756
000460 cc c9 0d 4e 24 f5 c5 bf 93 4e a9 69 af 1b c2 bf
       -0.17154363452170995 -0.14146988543744907
000470 be 65 5f 38 f4 39 b6 3f ae 8e 7f 60 8c 83 b2 bf
       0.0868218076351672 -0.07231976848521057
000480 4a d4 94 91 99 a6 c8 3f 42 43 a6 b4 7c 5a a4 bf
       0.19258422478165677 -0.03975286202615404
000490 c3 38 e1 21 70 a4 b4 3f 04 38 91 d5 93 44 9f 3f
       0.08063412501471405 0.030535039816008705
0004a0 18 1b 27 d7 6b 63 99 bf c7 91 7c b5 a9 50 a1 3f
       -0.02479332447708335 0.033818534282804395
0004b0 43 94 ef d5 f1 0a ca bf 42 76 81 1a f2 7f c0 bf
       -0.20345900484167787 -0.12890459341262966
0004c0 1f f5 8e da 82 bb b0 3f 97 11 69 ae d9 85 c3 3f
       0.06536119304560771 0.15252228752264038
0004d0 54 57 12 f4 11 26 b7 bf 73 43 c5 81 e1 b2 97 3f
       -0.09042465409069439 0.023143313928190645
0004e0 f8 b4 77 30 ee 25 b4 3f c7 e8 4e 8c 97 a7 c6 bf
       0.07870377238551274 -0.17698950148571255
0004f0 fe 49 fe cb d3 9c cb 3f 65 4b 83 84 ae ad ca 3f
       0.2157234903393856 0.20842534513812008
000500 6c 5b b3 74 2f 6e c2 3f 70 05 74 d2 2d 11 be 3f
       0.1439875907733169 0.11744963062303326
000510 b7 26 48 5f 2b ec c1 bf 44 23 05 36 1f 68 b6 bf
       -0.1400198188060153 -0.08752627438401556
000520 46 c1 62 69 29 b1 b4 3f 14 a4 7e f2 47 3e c9 bf
       0.080828273991533 -0.19721316662369814
000530 2f a6 eb 46 99 d9 9f 3f c2 bb 8f 37 2a 0b 95 3f
       0.031103510812419962 0.020550403252794565
000540 84 1d d2 e1 55 f9 a2 3f cf 45 65 02 c6 c5 b9 bf
       0.03705852872468099 -0.10067403372274629
000550 04 72 22 a2 14 8d a7 bf 51 41 a3 30 1f ca a9 bf
       -0.04599823455030008 -0.05037019222948181
000560 95 0d 33 dc 9f f4 9a bf f4 49 0a b0 dd e7 c5 bf
       -0.026323793234735843 -0.17113848777496765
000570 e2 cb 63 b6 a3 87 cb bf 19 62 b5 1a 14 13 ba bf
       -0.2150768890929547 -0.1018536153036468
000580 10 48 23 16 4c ac bc 3f 90 a5 6e ab 65 62 8f bf
       0.11200404682611542 -0.015324396413989999
000590 ec f7 1f 93 e2 5e b5 3f d8 76 60 40 94 d7 c3 3f
       0.08347908107677399 0.15501645224951832
0005a0 27 cb e3 ba 8b dc a2 3f 7e 64 ac 0b eb fb ca 3f
       0.03683888107652527 0.2108129317282738
0005b0 75 d5 2c 9c 8d 5a b8 bf da 8d 29 72 85 e3 c3 bf
       -0.09513173163289486 -0.1553808982308585
0005c0 1d 41 e9 cf 3f 8a c5 3f f3 7b 30 46 2d bc c3 bf
       0.16828153278266536 -0.1541802017900121
0005d0 2e 52 30 86 57 0f 9d bf fe 97 40 50 ba 9b c0 3f
       -0.02837883717082173 0.12975243490762972
0005e0 55 f2 74 28 6f e4 bb 3f 4d b6 c5 fd 15 5a 8f 3f
       0.10895437944140814 0.01530854397489203
0005f0 09 73 22 3c db 47 b6 3f 31 9b 58 25 5c 7b c3 3f
       0.08703394144181344 0.15220214675465507
000600 80 81 50 e4 4f fa bb 3f 30 98 bb 66 f9 62 9d 3f
       0.10928820919116866 0.028697869201003978
000610 79 96 46 08 ac 8b b3 bf d4 26 9a f6 84 96 c2 3f
       -0.07634997560543323 0.14521848717804764
000620 d0 b5 2f 99 6a e4 af bf 5f 4f 26 4d d3 a7 c9 bf
       -0.062289553832538425 -0.2004341246325749
000630 de b0 95 29 32 65 b8 bf 06 ad cc fb 13 0e ae 3f
       -0.09529412760975073 0.058701157080884456
000640 0e 45 b0 5a d7 22 bf 3f 92 92 be 9e 78 d6 bc bf
       0.12162538494182604 -0.11264757037731446
000650 88 ad a7 c2 9a b0 bc bf 03 91 34 71 2b 30 c0 bf
       -0.1120697713119424 -0.12647002246479397
000660 86 44 ea 37 e1 5e a0 bf c1 fd 17 05 0b 71 a4 bf
       -0.031973875117850034 -0.03992495000056407
000670 ff 89 08 cf 05 7d 8d 3f d0 87 5e 64 7e 0c 90 bf
       0.014398618107468229 -0.015672659755757767
000680 73 bc 1d dd 00 fc b6 3f d8 85 75 1e db dc a2 bf
       0.0897827663263671 -0.036841247051380754
000690 76 4f d5 0f 45 e4 b5 bf 75 1c d3 fc ad 63 74 bf
       -0.08551437031320383 -0.00497787441162877
0006a0 a0 35 9f f2 63 97 c6 3f 2d c8 da c3 e7 b5 a1 bf
       0.1764950689961724 -0.03459095254710607
0006b0 cc 32 e2 6f 14 ac a9 bf f6 4f e5 55 98 ed c5 bf
       -0.05014098993078661 -0.17131332582596287
0006c0 63 66 67 31 d9 b2 c6 bf f6 26 3d 68 13 25 ca bf
       -0.177333020327569 -0.20425646390713553
0006d0 06 b8 e7 1d be 6e b4 bf ab f0 21 94 31 2e b8 bf
       -0.07981479864221805 -0.0944548594142726
0006e0 ad 37 f9 2f 86 aa a4 3f 48 95 64 47 62 8b b6 bf
       0.04036349616636357 -0.08806432955733101
0006f0 8f c8 91 06 5b 5f a6 bf 66 65 ef 51 20 5e bc 3f
       -0.04369625525659259 0.11081125259751942
000700 57 6d 69 f5 04 1f 96 3f 6f e4 96 96 f9 85 b3 bf
       0.021602704504727423 -0.07626304556369388
000710 01 d4 3b a3 b0 e0 a1 3f 8f 17 af 29 71 3c a5 bf
       0.03491737358664438 -0.04147676118695564
000720 29 d3 10 54 c7 21 b1 3f 2a 6a e3 36 c0 c2 ae 3f
       0.06692167093644898 0.06007958097480455
000730 f2 04 42 39 13 3d b6 3f 59 ed d0 18 ff 1f c7 bf
       0.08686943195245414 -0.1806639548466176
000740 7b d8 0d 2c 34 5f 9d 3f 04 1c 27 8d 4b 0b bf bf
       0.028683486164901666 -0.12126609989273623
000750 43 5a fd dd 4d 30 c2 bf 9a 59 b6 15 d3 72 99 3f
       -0.14209912623728557 0.024852083397115622
000760 5f 71 92 6a 6f 83 bd 3f 3e 69 18 36 32 c7 c6 bf
       0.1152867922959948 -0.1779539837014656
000770 69 2a fd 79 7c 9d 96 bf b1 9f f4 90 4d 4f 76 3f
       -0.02208513731538134 0.005446722977730121
000780 39 c4 ca 64 21 34 a6 3f 4e 49 eb 56 3b 75 c4 3f
       0.0433664737260035 0.15982763046356258
000790 82 1b 3b d9 47 09 3e 3f 0c a9 ec 44 3b a5 bb 3f
       0.0004583168422240201 0.10798998291707934
0007a0 df 18 85 1a af 92 a7 bf ac 73 39 c1 b2 c2 b0 3f
       -0.04604098509530429 0.06547085969346139
0007b0 a0 b3 5c 49 c9 0a be bf ab 38 7e 7f 2c 5d c5 bf
       -0.11735208550517351 -0.16690593934294404
0007c0 0f dc 3b 55 da 31 c9 bf 78 a2 d0 58 17 a4 c8 3f
       -0.19683388864334048 0.19250766598385716
0007d0 2a 0e 59 3d 1d 23 a1 3f cb f6 40 b7 2e c5 c5 3f
       0.0334710252177753 0.1700800318521288
0007e0 16 2e 34 de 8e 2d a4 bf b4 5e 8f e6 2b 2d b9 3f
       -0.039410080551615476 0.09834551218898008
0007f0 a4 a5 81 b8 17 ef c6 bf 31 6b 78 db f2 de c6 3f
       -0.1791715289030381 0.17867885319068358

hidden_layer2.bias f8 [20]
000000 2f 66 1d f9 6c b5 a6 bf 86 94 03 42 66 70 c7 bf
       -0.044352918061758444 -0.18311765883769143
000010 fe f8 44 8e e1 b2 c1 bf 0c 4b 82 6e 60 23 91 3f
       -0.1382715172457622 0.016736513848239418
000020 ee 9a 1b 18 f3 71 97 3f 13 34 6a ef db 2d b1 bf
       0.022895620676446286 -0.06710600466813359
000030 d7 4c 6a 7d 2b 60 bf 3f fe 9a 74 f3 df 56 c0 3f
       0.12256118595023523 0.1276512087581167
000040 42 bd 72 54 20 72 b3 3f 07 58 5d 1b 55 62 9e bf
       0.07596017896388665 -0.029671983523563508
000050 3b 74 30 36 6e a1 ab 3f 37 a4 13 e6 26 d1 ba bf
       0.053965992083455615 -0.10475390545947581
000060 13 97 a2 1e 0a 18 b9 bf 6e 0a f0 1b 56 1d b2 3f
       -0.09802306411674193 0.07076013738700634
000070 15 28 60 02 31 d3 a9 bf 86 67 c0 5d d5 4f b9 3f
       -0.050439387836448336 0.09887441195351529
000080 8e d6 de 1b 2e 69 b9 bf 5f 71 08 61 60 ae a6 3f
       -0.09926117115431962 0.0442991369675123
000090 fa 9a cc 07 ad fb c0 bf 2b 90 24 cb 02 c5 c4 bf
       -0.1326805389482713 -0.16226229590495342

hidden_layer3.weight f8 [20, 20]
000000 0f e9 10 57 68 0b 9c 3f 5b 26 e0 63 fc 73 c7 3f
       0.02738726645859751 0.1832271087335354
000010 8c 99 10 56 00 ec a1 bf 71 e6 a8 83 8c 8b c3 3f
       -0.03500367212864139 0.15269619396876835
000020 e0 6a b1 82 04 f4 ab 3f 04 55 d9 3a df 24 92 3f
       0.05459608168958652 0.017718780485968658
000030 ff c2 8f 39 47 c4 c8 3f 85 92 0e 8b b4 a4 cc bf
       0.1934899359762525 -0.223776405238045
000040 b0 75 87 68 cd 0f c5 3f aa f9 fc 19 53 31 c2 3f
       0.16454475025140658 0.1421302678008492
000050 02 76 b7 4f 4b e3 bf 3f 0d 71 dc d6 9f 64 c7 3f
       0.12456198402602328 0.182758312142035
000060 20 73 a8 2b 51 95 a0 bf eb f6 df ce 8c 0e ca bf
       -0.03238919885573055 -0.2035690317279014
000070 06 d4 bc 62 7a 4d 53 bf 9f 96 c8 d3 3d cb a8 bf
       -0.0011781401799002568 -0.04842560968635933
000080 54 23 8f 5d 11 a1 a0 bf ae 53 24 9f 31 ad cb bf
       -0.0324788500507284 -0.21622295637703587
000090 70 44 24 57 7b 7c c3 bf 70 48 9f 9f c2 76 ca bf
       -0.15223638300861664 -0.20674927515080155
0000a0 f0 36 df 7d ff 73 93 bf f8 fb b1 db db 9c 6b bf
       -0.018997184808362044 -0.0033706945519607033
0000b0 fc 99 c1 17 03 1d c2 3f 3c 62 28 2d 87 e8 bb 3f
       0.14151037845586234 0.10901684620365243
0000c0 ef 9d 60 6e 6c d7 c7 bf 5a 41 8a 9d ee 2e c1 bf
       -0.18626170529863326 -0.13424475376497008
0000d0 26 2f 47 76 34 d0 ab bf 87 9b 1e f9 f7 71 c3 3f
       -0.05432285255264295 0.15191554702797935
0000e0 b8 e3 07 44 82 01 b4 3f d3 c9 f7 15 3f e1 bf bf
       0.07814802323254255 -0.12453073774648908
0000f0 fb e1 44 d8 d5 e9 c9 bf 99 d8 29 b0 92 d8 b2 3f
       -0.20244858798993434 0.07361714173188928
000100 c9 70 cf bc ea 7b cc 3f 08 c1 31 54 37 06 c0 3f
       0.2225316450047841 0.12518970118572548
000110 f4 ff 98 37 b2 84 a8 bf 7f 62 1e 88 f5 7d 75 bf
       -0.04788739136392897 -0.005247077091461549
000120 e9 18 1d 28 16 7b c0 3f 7b 44 f5 60 9e 97 c7 bf
       0.1287563033931243 -0.1843145345142466
000130 74 4b b4 92 46 de ac 3f 74 d8 4f c5 88 49 83 bf
       0.05638332882713018 -0.009417599221688479
000140 2a b5 3a 52 12 7b c4 bf 46 16 6b cf ad 81 6a 3f
       -0.1600058461676011 0.003235663865185842
000150 ce ba c2 43 55 c4 cc 3f 35 e4 ac 14 33 bc c5 bf
       0.22474160965562934 -0.16980589398898052
000160 c2 7c db f0 8f 2e 7f bf dd 0d a8 bc 28 39 64 3f
       -0.007612764615003433 0.002468661846479965
000170 56 4e 07 e8 d8 ae a5 3f c5 67 bf 38 21 fb c4 3f
       0.04234960396175029 0.16391387244112657
000180 9f e0 82 2e a7 6d bb 3f 1a f5 b7 f2 00 55 b8 bf
       0.10714192281273192 -0.09504705358263657
000190 b3 60 6b f4 38 37 97 bf e2 ab 52 cb 96 f1 c4 3f
       -0.022671594541720363 0.16362271240117737
0001a0 67 ce a1 f1 67 ee c3 3f a8 0a 50 61 4d 0f ab bf
       0.15571307466926784 -0.05285112202547754
0001b0 80 30 f7 8e 14 29 8f 3f d5 36 8e 19 4a fc c0 3f
       0.015215073216403363 0.13269926307514504
0001c0 8a 91 db 55 8c 8b 91 bf 19 41 85 54 a6 c6 c7 bf
       -0.01713389658006429 -0.1857498085687517
0001d0 c9 98 63 e6 bf d4 c1 3f f3 16 13 d8 68 6b c2 bf
       0.13930510282006583 -0.1439028792430502
0001e0 42 c9 80 b8 59 32 b2 bf 1b 35 49 0d 4a f3 cc 3f
       -0.07108078722447878 0.22617459915856206
0001f0 81 20 2a 78 88 d6 ca 3f 47 cb 70 02 b4 f7 bb 3f
       0.2096720301381119 0.10924840030274395
000200 d8 34 20 23 16 bb c9 bf 49 5f dc 46 f1 e2 85 3f
       -0.2010219260704733 0.010686764693261035
000210 41 3a 2c d3 20 c4 a4 3f cb 66 f2 ed bc 80 b9 3f
       0.040558839586186675 0.09962063607454323
000220 8c fc 2d 85 1c 19 cd 3f 2d 1a 68 a7 d3 e9 c3 bf
       0.2273288393298326 -0.15557332681801608
000230 6e 3d af 2a a0 04 bc 3f 1c a4 48 c7 f8 42 c7 3f
       0.10944558183768091 0.18173131685878807
000240 98 d4 b2 a4 d2 a0 b7 bf d6 e5 cf 12 b5 7c bc 3f
       -0.09229771157227373 0.11127788266448788
000250 cd d7 7d b9 7f cf 78 bf 23 2c 35 81 61 40 af 3f
       -0.00605726139462166 0.061038062117028134
000260 79 dc c8 4d 0d 06 b4 3f db 61 f8 3d e2 41 9f 3f
       0.07821734570539886 0.030524764091838335
000270 bd 7d 75 07 30 b2 c5 3f 95 24 b3 38 7a e4 bb 3f
       0.16950035442549263 0.10895503887435816
000280 1f 05 2b 57 53 97 8c bf c7 aa dc 70 74 d9 cb 3f
       -0.01396050557866829 0.21757369528616818
000290 69 e9 c0 97 5a 98 b9 3f ae 2a c0 3e 24 a7 bd bf
       0.0999809856884092 -0.11583162815092393
0002a0 a3 04 86 a3 62 52 b7 3f ac f1 dc 56 32 48 b8 bf
       0.09110085003159667 -0.09485163326912155
0002b0 d2 4e 70 4e 94 a2 8a 3f ce 81 82 44 83 97 8b bf
       0.013005407947310674 -0.01347258141351029
0002c0 be 32 84 df c5 04 c8 bf fa 24 da 6d ec 68 81 bf
       -0.18764565862547572 -0.008500907041951045
0002d0 b4 f8 bf a4 ef 7e b7 bf f7 bf c8 0d a2 01 c6 3f
       -0.09178064129079894 0.17192483590179083
0002e0 cf e4 26 99 99 57 c3 bf 32 40 80 3d 35 8b c0 bf
       -0.1511108396351006 -0.1292482900903465
0002f0 6c a6 e6 1a 7a dd c1 bf ec 55 5d 3c b1 20 c9 bf
       -0.13957144082569373 -0.19631019065370425
000300 cf 28 a0 b9 a9 1f c7 bf 68 e9 78 f2 b4 29 c5 bf
       -0.1806537777304755 -0.16533529128521285
000310 d8 32 6f 3f 5b 17 cb bf 22 5d 24 57 a4 21 c2 bf
       -0.2116502818811543 -0.1416516709802887
000320 54 4e 49 16 18 2b bc bf 71 50 b2 06 34 80 ab 3f
       -0.11003256363010766 0.05371248800034401
000330 2d ba ca 6f 9e e1 88 bf e2 c6 d4 fe 92 af ae bf
       -0.012149083887689727 -0.05993327484828882
000340 04 25 de 4b d0 35 b3 bf b2 ea 10 7d f5 9b b5 bf
       -0.07503988125076339 -0.08441099456187365
000350 5c 5b 5c 8a 34 68 c5 bf 1b d1 2f b1 0c aa ba 3f
       -0.16724259143731046 0.10415725065087537
000360 45 11 e5 fd 4f 1c c3 bf a0 86 a8 46 2a d6 c4 3f
       -0.14930152795035148 0.16278580141174803
000370 f3 d5 cb ad 0d 76 c8 3f 2e 94 30 87 bc cd cb bf
       0.19110270486969191 -0.2172160778146987
000380 3e 52 93 f9 8c 0b bc bf b5 6c 77 5a 31 b9 c8 3f
       -0.10955124943877423 0.193151635335061
000390 0e e3 6c eb 1e 1b b3 bf 9b f9 2d 65 8c ec c7 3f
       -0.07463258025826411 0.1869063848534552
0003a0 1a 75 45 32 e5 6f c3 bf 05 cc 0b b1 04 a6 a6 bf
       -0.15185227350858882 -0.044235369312353646
0003b0 fa 2f 28 fd f0 6c c0 bf 3f b1 ef b9 80 d9 bd 3f
       -0.12832462655239835 0.11660007991276176
0003c0 7e 07 ea 68 f4 9d bb bf a0 93 a3 30 de 06 c6 3f
       -0.10787894784337301 0.17208459258031628
0003d0 49 45 27 f3 a4 a8 b7 bf f5 d1 a0 8d bd 9e ca 3f
       -0.09241705833780602 0.20796937385024675
0003e0 17 4b 97 38 6b c0 9e 3f 7e 85 47 b1 6c e8 89 3f
       0.03003089459327687 0.012650345955026007
0003f0 ab 8d fd 17 da 09 a0 bf 73 d3 4f f7 75 5a cb bf
       -0.0313251642499169 -0.213698144681668
000400 87 02 f8 da 7f 54 c5 bf c2 49 32 b2 88 97 cc 3f
       -0.1666412181075609 0.2233744497394366
000410 27 c4 cf 8e 91 b8 a3 bf d4 1b 82 ad ab 27 c4 bf
       -0.03851752155595305 -0.15746065113145724
000420 56 37 8d 0f f6 08 ad 3f 47 86 7a 77 41 6b b9 bf
       0.05670899333800487 -0.0992928425498799
000430 40 d1 20 f7 78 7f c5 3f fc 61 3e 90 83 74 bc 3f
       0.16795265261465353 0.11115286132406504
000440 a1 f3 03 b6 27 1a cb 3f 47 fe ff 46 cf c5 c5 bf
       0.21173569095108483 -0.17009917227550117
000450 4a 28 d8 31 3e 1e c8 3f 4b 42 e6 93 85 27 c0 3f
       0.1884229415302932 0.1262061092534331
000460 8a f2 fc 3a e5 f5 c9 3f ba e8 9d b0 14 d0 95 bf
       0.20281663303639547 -0.021301577834926567
000470 5f 22 7d 81 8c 34 9b 3f b7 b1 92 80 06 af 93 bf
       0.026567645457620134 -0.019222356412386534
000480 9f 85 e9 84 cd 55 92 bf 62 c2 0d d2 6d 1e 74 3f
       -0.01790543674213085 0.004911831842819044
000490 cc d8 8f b9 79 52 c8 3f e8 4f bb b6 10 95 b3 bf
       0.19001695213927972 -0.07649330579016544
0004a0 3d 20 f8 f3 ba 3d b7 3f 08 6b fd d2 19 c4 b9 3f
       0.09078567940025635 0.10064851189728696
0004b0 5a 97 a4 82 c5 5f c8 3f 58 2a 8a 29 87 e6 b1 bf
       0.19042271498727353 -0.06992382778313677
0004c0 c7 81 72 9d 37 ff b7 3f a4 c0 8c ac 57 65 c1 3f
       0.09373805612495466 0.13590522694858465
0004d0 66 1f a9 ac 68 7b c9 bf ba dd a8 72 4a db ac bf
       -0.199078640276862 -0.05636055612233855
0004e0 28 92 7c ab ed 33 c9 bf b5 29 6d e4 e6 b4 c2 bf
       -0.19689722894067185 -0.14614568856843638
0004f0 af d1 bb 1b 4c 54 b7 3f ad 31 35 bb b4 a4 ac 3f
       0.09113002469150076 0.05594410691500982
000500 79 d2 66 69 28 6f c6 bf 04 a3 66 62 cb f3 c6 3f
       -0.17526726862492462 0.17931501679165518
000510 2e 86 40 79 f4 43 c1 bf a9 41 4f cf 7a 95 c6 3f
       -0.13488632126340988 0.17643675921000337
000520 fe 66 31 11 28 fe ac bf 42 8c 5a ab 0c 8e 97 bf
       -0.05662656030535905 -0.023002813299751297
000530 c8 05 c7 2a 33 a0 c0 3f 2e 76 bd fb ed 3d b4 3f
       0.12988891209356113 0.07906997104643018
000540 54 b2 4d c3 7a 77 c7 bf b8 ec 69 7a 68 61 cc 3f
       -0.1833337262754805 0.2217226598475912
000550 b5 82 d2 4f ba e4 c7 bf 65 bb 9f e7 76 6e cb 3f
       -0.18666771791051465 0.2143086081482252
000560 ee da 36 67 3e 1e b6 3f bc 6c af 5f de 2c b3 bf
       0.08639898319129788 -0.07490339122834916
000570 2b a2 63 3f 41 35 c1 3f a9 3d b7 bf 12 70 c5 3f
       0.13443770976233912 0.16748270379183097
000580 34 71 93 68 bd 81 c0 bf ca 0f d2 35 98 5f c8 bf
       -0.12895934683081978 -0.1904173147960349
000590 41 ac 22 67 88 db b0 bf c6 00 ef 50 96 07 c0 3f
       -0.06584980504946804 0.12523154212795456
0005a0 59 65 4a c2 53 d7 cb 3f 41 8f 73 6c e4 33 af bf
       0.2175087641415228 -0.06094278167600332
0005b0 06 15 23 1f 6f 7b ca bf 96 60 6a fe bb 7b c9 bf
       -0.20689190883982905 -0.19908857271798713
0005c0 1a 1d da e3 ac b0 ca bf 22 ff 50 09 14 ca c1 bf
       -0.20851670384966142 -0.13897943930532458
0005d0 9d 07 82 f9 c4 13 c9 bf 11 77 79 a9 10 c6 c4 bf
       -0.1959158151913102 -0.1622944667350841
0005e0 34 f8 1a 1f 72 72 cb bf 34 a3 2e d8 05 3f cb bf
       -0.214430108249816 -0.21286080413599395
0005f0 7b 63 74 7b 06 c7 ca 3f 41 68 ff 21 89 eb bc bf
       0.20919877079066027 -0.1129689891817245
000600 71 87 54 30 a8 68 a8 bf 30 b8 ff 05 39 36 b6 3f
       -0.04767346944778595 0.08676487347085593
000610 0c 8b a9 d2 d8 84 a9 3f 6e b7 0f 0c ba 4e ad bf
       0.049841666904077625 -0.05724126240953252
000620 68 e4 5a f6 c8 0f cd 3f c1 87 1a d9 28 88 a9 bf
       0.2270442202477938 -0.04986694002333492
000630 9f 1a c8 bc 8f d7 c6 bf bb db 43 ff 0b bd c6 3f
       -0.1784534141335898 0.1776442524348719
000640 fd d5 f8 4a fb fc c3 bf 81 9f 57 4e 9a cd c7 bf
       -0.15615788613074236 -0.18596199822718165
000650 ed 24 7a 4c fe 3f 9d bf fd c6 03 4d ce 9e 9e bf
       -0.028564427774232227 -0.02990267129002343
000660 e1 4e f1 2f f5 46 bf bf bc ac 4f 72 24 e1 b5 3f
       -0.12217647953485368 0.08546664992143155
000670 76 11 bd 33 66 31 c5 bf 65 1a f8 91 09 e0 c2 3f
       -0.1655700447682979 0.14746207835578953
000680 2b a6 52 b0 4f c7 bc bf 0c d5 d0 62 f3 de cc bf
       -0.11241624884373695 -0.22555391621578058
000690 b2 fd 98 fb 3a d1 b9 3f 93 87 b6 af 46 ff 5c 3f
       0.10084885256309553 0.0017698469444913142
0006a0 a1 a8 6f 55 e9 2c b3 bf 22 8e 52 94 3c 98 a6 bf
       -0.07490404449314038 -0.044130223375102653
0006b0 66 6e 26 2f 89 c4 a3 bf 42 73 c0 1d 31 d9 99 bf
       -0.038608824735288746 -0.025242583695319405
0006c0 24 7f 9d cb 61 73 c4 3f cc 97 d5 8d b0 69 af 3f
       0.15977117960118747 0.06135322314621269
0006d0 13 d1 93 71 b8 23 be 3f 3d 38 34 cf 64 3d b2 3f
       0.1177325513161274 0.0712492948407268
0006e0 59 7d 09 8d 4c 68 c1 bf 76 9b cc b2 e0 28 bf 3f
       -0.13599545370650892 0.12171749463287349
0006f0 fe 27 d0 69 19 8b b1 bf d6 ff 7b 1e 93 b2 b8 3f
       -0.06852873643234145 0.09647483343360305
000700 20 ed 37 72 c7 f3 c2 3f 25 c3 09 6e 19 7b bb bf
       0.14806454732011165 -0.10734709679105643
000710 80 33 15 fa bf ac b6 bf 37 d6 b6 52 db c7 c4 3f
       -0.08857345443284537 0.16234914339809034
000720 cf 52 23 a6 ae 0c c6 3f 4e 1a 6f 1c d8 80 82 bf
       0.17226203071790855 -0.009034813277947109
000730 8c 01 d4 ef 57 60 c5 3f 50 56 b1 79 42 90 44 3f
       0.16700267038687533 0.0006275486551980489
000740 2f 27 ca 26 9c 17 af 3f 82 e6 4e 3d 63 cd c2 3f
       0.06072700475222203 0.14689293378414808
000750 35 85 82 17 97 c8 b3 bf 10 99 88 77 a8 9d c3 3f
       -0.07727951358767345 0.15324884258843285
000760 e1 7d 99 6f 1b d1 c4 3f 16 2a 2b 69 66 c4 b4 3f
       0.16263144444654556 0.08112182681649246
000770 23 33 a0 3e a9 d6 b0 bf fa 5d 2e 79 da 69 b6 bf
       -0.06577546862554277 -0.08755269487880205
000780 67 5f 23 23 c9 98 7e 3f 2e 16 2f 5d a4 4e c1 bf
       0.007469926540771477 -0.13521246480938615
000790 a5 09 bb f6 44 79 c9 3f 37 8a ae 6f 99 a6 ad bf
       0.19901334807771068 -0.0579116772489851
0007a0 bd 86 3e 7b 36 31 b8 3f 2c 24 53 fb 8e 2f bc bf
       0.0945009280099169 -0.11010068546160373
0007b0 93 be 3d 1c 5f 0a 6a bf ec b8 7a 09 69 0a c3 bf
       -0.0031787736533529037 -0.14875519717083507
0007c0 d1 5f 84 7d 7e 7f bc bf 50 e1 51 f8 22 a4 ae bf
       -0.11132040562040336 -0.059846012890320766
0007d0 2c a5 71 f8 0f 1c 84 3f 1c 0e eb 2f 1e 7b 88 bf
       0.00981914975109762 -0.01195357879385655
0007e0 6b 9e 26 1d 7a cc c3 3f 3d 12 08 27 a0 1f c4 bf
       0.15467764304524975 -0.15721513658367484
0007f0 76 3a fc fe 15 65 b5 3f dc b4 e8 1b 98 d9 b3 bf
       0.08357369876123663 -0.07753897363064105

hidden_layer3.bias f8 [20]
000000 5e 26 bf 64 0e c5 b3 bf 59 1c e3 fd c4 dd c3 3f
       -0.07722558936725352 0.15520536801179466
000010 dd a6 3f 9f 5e 93 c0 3f 3c 26 a6 c1 bd e0 c7 3f
       0.12949736381351942 0.18654605823057746
000020 f3 fe ad 52 92 46 b0 bf 48 06 6a 1f 46 6c cb 3f
       -0.06357683676287333 0.21424175771612597
000030 63 d5 89 d5 cf f8 5d 3f 05 e5 b2 b3 f0 bc c2 3f
       0.0018293408994883513 0.14639099859577
000040 0f e1 52 56 19 05 ca bf 40 09 98 0a 88 69 c2 bf
       -0.20328060832049075 -0.1438455630996689
000050 09 3e 1a 1c 9b 22 c8 3f 82 63 4a 21 b1 15 b2 3f
       0.18855608818238093 0.07064349234350512
000060 d2 4a be 88 f3 01 88 3f 00 1a 60 f3 67 76 ca 3f
       0.011722471819472533 0.20673846610607427
000070 86 09 12 8a 7c 59 ac 3f ae 56 2f 3d 44 d4 c8 3f
       0.055370227674774106 0.19397786128563638
000080 49 39 0c e2 c4 2d b6 3f 7d 95 97 3f e9 9c 92 bf
       0.0866358806490314 -0.0181766934455445
000090 41 d2 63 57 2c 7b b0 bf 8f 91 39 33 14 25 99 bf
       -0.06437947400611056 -0.02455550730373229

hidden_layer4.weight f8 [20, 20]
000000 be 4e 4d 10 d9 fc b5 3f 58 a5 72 5a f5 b4 be 3f
       0.0858894028472674 0.11994870622824771
000010 65 d5 56 66 f1 21 c5 bf e3 c9 29 f5 e8 d4 c3 3f
       -0.1650983571723074 0.15493499728070423
000020 7f b2 a0 4e c9 65 83 3f f1 5e 15 81 58 90 c6 bf
       0.009471485816981982 -0.1762800817766599
000030 d3 c7 e4 43 1d c7 99 3f cb 9d dc a8 00 a4 bf 3f
       0.025173623341465955 0.12359623072244756
000040 d0 cd c9 6e dc d3 bc bf 36 9c 96 1b 40 1e bf bf
       -0.11260774330894852 -0.12155533479254718
000050 a1 b8 4d 4f 93 d9 ae bf 36 6c aa 86 f7 b1 c8 bf
       -0.06025371878682618 -0.19293111873125363
000060 aa be 2a c6 49 af c5 bf 86 07 f9 7d c5 c5 c8 bf
       -0.1694118707286994 -0.19353550578130924
000070 3d e1 69 9f c6 09 c1 3f 8a 9b da 1f ea 23 b3 3f
       0.13311083587519504 0.07476676252063733
000080 63 07 2e 15 db d8 8f bf 26 08 03 eb c5 81 90 bf
       -0.01555033834825154 -0.016120045155510486
000090 da e5 7a 00 f3 59 ca 3f 73 87 80 fd 0b a0 c1 3f
       0.20587003253403574 0.13769674184828382
0000a0 66 21 2f 43 0d 71 b3 3f 2a 68 6e 33 78 4a c4 3f
       0.07594378366696261 0.1585226298455507
0000b0 38 81 e2 52 02 fe c1 bf 9c 41 87 6e ee 9c c6 3f
       -0.14056424185856442 0.17666416546718444
0000c0 54 a3 10 d8 ac a0 c4 bf 0f 57 ac 18 07 00 ab bf
       -0.16115341711090514 -0.05273458648859563
0000d0 b3 f0 61 0f eb eb c3 bf 6b ad 89 a6 fe d4 c2 3f
       -0.155637152205491 0.14712508327225335
0000e0 69 62 77 70 5a 77 b7 bf f5 01 41 95 b3 35 7b bf
       -0.09166493650207887 -0.006643010612663582
0000f0 85 b7 23 63 09 35 a5 3f 32 8d af 07 e6 4c c9 bf
       0.041420262672416754 -0.1976592576530521
000100 52 ca a2 36 9a 24 b7 bf d5 c2 0c f5 93 cc c2 3f
       -0.0904022582424571 0.1468682238132916
000110 30 45 bc ea 43 6d c0 bf 91 55 e6 ed 77 19 b2 bf
       -0.12833451234522775 -0.07070111806964109
000120 e3 a7 ae 80 a4 d0 c2 3f 0b 8a 41 81 dc 5b bf 3f
       0.14699226649582817 0.1224954429212987
000130 4e f2 80 53 74 6e a5 bf 5e fd 79 61 0d f7 c9 bf
       -0.041858325188944265 -0.20285193690868203
000140 3f 89 d1 a8 eb 29 c0 bf c4 c9 77 d1 38 06 ad 3f
       -0.12627931349840968 0.056688094682516815
000150 7f a7 49 03 6b a3 b3 3f 71 2a 3f 94 11 d2 c4 bf
       0.07671231107965858 -0.16266078699694078
000160 7e e5 89 cf 73 43 b8 bf bd 2b 41 f4 25 cf c9 3f
       -0.094779241722696 0.20163416315548757
000170 b6 f3 0c 24 ff 6a ab bf 46 4f 05 e2 01 84 b0 bf
       -0.053550694609362834 -0.06451427238544935
000180 bd d5 60 2f d3 7f 85 bf 0f 27 b6 96 37 05 c5 bf
       -0.010497712977762025 -0.164221714582077
000190 71 94 c6 9b 90 39 c2 3f b7 fa 8a 87 85 db c8 3f
       0.1423817406295345 0.19419926756196101
0001a0 0d 29 54 02 23 a8 c1 bf e0 90 19 7d a0 22 97 3f
       -0.13794362653454365 0.022593028674592897
0001b0 24 72 a4 6c b7 3a c6 bf 0b 57 e2 d1 6e 0e ba 3f
       -0.1736668854217821 0.10178272842525986
0001c0 fa 0e 71 99 8d ea b4 bf af cb 8b 68 93 78 c7 bf
       -0.08170399662145292 -0.18336718182362463
0001d0 5d f4 76 9a 34 13 b4 bf 30 f4 b2 69 7e fc cc bf
       -0.07841805239782347 -0.22645549927793374
0001e0 38 3c a0 b0 ad 9f c2 bf 3f 76 41 90 cd 6a cc 3f
       -0.14549800037682004 0.22200936835990778
0001f0 2b 1b 6a 7c 89 c4 b1 3f 07 91 ec dd a4 52 b7 bf
       0.069405167460087 -0.0911047975355964
000200 51 5c 83 85 da a4 c0 3f 06 19 13 85 25 a0 83 bf
       0.13003093260951684 -0.0095827990757127
000210 73 7a 40 ce 83 29 bc 3f 16 5a e4 7c 38 ec c4 3f
       0.11000846658178336 0.16345888231508415
000220 6d c5 dd 9a f9 91 ca bf a7 97 58 a8 d7 25 b9 bf
       -0.20757980405646084 -0.09823367939006165
000230 06 c9 3e 35 13 f9 b8 bf b5 db cc 72 eb 20 a7 3f
       -0.0975505833619402 0.045173032535266534
000240 45 94 b5 5c ed 3f ca bf 2e 40 51 01 28 bd b4 bf
       -0.20507590319462757 -0.08101129562533124
000250 79 58 d0 62 7b 03 ca bf be f3 12 50 79 5b ba 3f
       -0.20323126149077433 0.10295828061039367
000260 13 5e 0b 46 3f 1c b3 bf 73 29 e8 6b 1e da c7 bf
       -0.07464976749485457 -0.18634395855799432
000270 0d 04 af c7 3e 63 87 bf 53 2e 47 a3 f3 e1 bc bf
       -0.011419764012204703 -0.11282274948387654
000280 60 3d 93 d7 b9 7f b1 bf 2d 62 4b c3 70 69 0c 3f
       -0.0683551932627231 5.419135451284851e-05
000290 95 e8 04 22 a2 4a a2 bf 21 d0 0f de 5e e9 a5 bf
       -0.03572565713189239 -0.04279610119547806
0002a0 64 52 55 d0 a1 8b cb bf 39 1e b9 56 9e b6 be 3f
       -0.21519873306773996 0.11997403733504876
0002b0 cc 14 d4 c7 38 b2 b8 3f 5b d0 7a fd 83 46 be 3f
       0.09646944883941727 0.118263482460692
0002c0 5d 3e 22 da 99 71 2f bf 7c 6d 99 3e 72 9c 4e 3f
       -0.00023989680363855045 0.0009341771921741872
0002d0 f1 fc e8 90 21 cf 98 3f e5 a1 8e f7 cf a3 b4 bf
       0.024227642507182293 -0.0806245784175484
0002e0 6e f1 de f7 a4 79 b4 3f 3c 7d a4 2e d2 54 c3 bf
       0.0799811463502402 -0.151026032232929
0002f0 1a de 47 42 3d d5 c1 3f 8d 0c c0 1e 29 a4 b8 bf
       0.13932004677165893 -0.09625489235627267
000300 ea 0f d0 13 f1 0e c7 3f 4c 77 a9 1e d6 4d 83 bf
       0.18014348475855907 -0.009425804911355272
000310 0f 51 6f e2 33 ad c4 3f 06 62 c8 c8 0d 05 b7 bf
       0.1615357261313268 -0.0899208655540705
000320 da aa 10 c2 cb 63 aa bf 24 71 cd 05 cb 8e c6 3f
       -0.05154263252219034 0.17623269828153199
000330 06 d2 57 55 7b 22 ae 3f de d4 1b 1b d7 21 b3 3f
       0.05885682503495464 0.0747351113494292
000340 63 a3 ef 6f 36 ba b2 3f c9 b0 5a 9e 9a 33 b4 3f
       0.07315387947859402 0.0789124142272072
000350 e9 64 91 21 75 19 c5 3f e6 6a d9 ef e0 04 c0 bf
       0.1648394025712954 -0.1251488848818873
000360 0a 3f fe ba cd d1 c2 bf 5f d1 2c 76 fb e3 c4 3f
       -0.14702769880795358 0.16320746679560735
000370 58 95 a6 a1 39 c4 bd 3f 10 67 a6 37 03 91 b0 bf
       0.11627540775824252 -0.0647127161850245
000380 2a 39 8a bd 85 74 cb 3f f2 cb fd 2f 42 10 89 3f
       0.21449348215942027 0.012238041963177768
000390 9e 7d da 27 00 20 cc bf 62 06 75 03 b5 e9 c4 bf
       -0.21972658105822246 -0.16338217419438467
0003a0 b2 88 ce 9f 90 b4 bb 3f 16 75 ff 80 b7 a9 c1 3f
       0.10822395230801155 0.1379918460724318
0003b0 d2 89 0a a5 c8 b2 b4 bf 7b ef 9f 5b e1 55 c2 bf
       -0.08085302380872086 -0.143245858896872
0003c0 d5 8f 97 8f d8 ef c6 3f 78 59 5b 7e 12 fa 7e bf
       0.17919451724367144 -0.007562706223060871
0003d0 06 99 08 df 7c c9 c6 bf 73 58 be 10 48 1e c3 3f
       -0.17802391901313558 0.1493616182094147
0003e0 ab 99 0b 4b b8 7e ad bf 40 cc 37 e8 da a6 93 bf
       -0.05760742107468116 -0.019191189216098303
0003f0 ea bb 52 ec dc ba c6 3f 73 ef d0 87 0a 89 a7 3f
       0.17757760562150732 0.04596741588508637
000400 9f 4a 76 f0 f9 db ca bf 78 20 84 8d 69 7e c2 bf
       -0.20983814469635306 -0.14448279771773165
000410 d8 15 67 d9 34 6d c9 3f df d8 4a f7 3e 34 c0 3f
       0.1986452161346921 0.1265944201929363
000420 c0 e9 d0 99 80 55 c8 3f bf 23 e4 07 89 d4 8f 3f
       0.19010932455587515 0.015542097619361315
000430 f6 9b 95 98 17 e6 c1 bf 11 2a a5 78 c7 37 a8 bf
       -0.13983435583506293 -0.04730056140632056
000440 a3 89 ce 72 60 ff c7 bf 86 87 ef 64 1d 3a bd bf
       -0.1874809799747484 -0.11416801180123856
000450 64 dc 38 04 15 f5 a5 bf 3d d2 4b 7a 71 c7 b9 3f
       -0.04288545300044502 0.10069951282259466
000460 e8 b6 97 90 f8 0d 8f 3f f2 a7 78 c9 3a dd b8 3f
       0.015163366234414125 0.09712569636090487
000470 5b 2e 3a a0 b6 c1 ad 3f 92 88 10 6e e2 b5 cb bf
       0.05811854082011499 -0.2164881741928793
000480 c6 9e e3 06 7a 07 c3 3f 97 9d ee 65 4e 0a ba 3f
       0.14866566978820667 0.1017197607858321
000490 a0 f5 24 20 2d 1e ae bf d8 ad 4a d9 d2 17 bc bf
       -0.05882397668254247 -0.10973851971601023
0004a0 2f 01 66 f8 b9 7c c5 3f 93 f4 52 f1 2d 95 b6 bf
       0.16786884907561148 -0.08821379796695998
0004b0 b5 b6 76 2d 02 14 aa 3f ff 9d 43 21 1a 76 c0 3f
       0.050933902787944 0.12860418915009572
0004c0 30 66 17 3b f2 8a ac 3f f3 66 9a 52 f3 e3 b1 bf
       0.05574757548647502 -0.06988449827840863
0004d0 00 8d c8 9e 8d 86 7e bf 81 24 9b b2 56 31 96 bf
       -0.007452538684933119 -0.02167258706211728
0004e0 86 26 06 8c d6 4b bb 3f b5 91 bf ce e5 2f c7 3f
       0.10662594717555338 0.1811492213738696
0004f0 c6 f3 ad 3a 11 02 b7 3f f6 b5 ff c6 99 ea c2 3f
       0.08987529451947215 0.14778444496862136
000500 88 2d 08 06 86 cd b1 3f 9b 6c 30 a4 0c 01 cb bf
       0.06954229018463398 -0.2109695245461339
000510 28 9f f5 dc c6 fa ca 3f 4c 54 85 92 f1 5a bb 3f
       0.21077810086284754 0.10685643984955212
000520 33 ce fe 83 6b 45 86 3f 43 e0 36 57 65 8e c6 bf
       0.01087459560935775 -0.17622057684434553
000530 d0 7d 9d 89 cc 63 c3 3f 5e f6 7f 9b 27 0f c2 3f
       0.151483123011515 0.1410874852444292
000540 cb 24 37 05 2f 7d ca bf 64 c7 71 bb 0b 30 c7 3f
       -0.20694530253084617 0.18115374233780834
000550 6b 2b 7e 7f 82 44 c7 3f d3 b1 83 94 13 11 b3 bf
       0.18177825188862626 -0.07447931648102406
000560 7e 74 a0 e5 36 a1 ca bf 52 c9 9c ed 2a 03 bf 3f
       -0.20804487430806157 0.12114208508572702
000570 df d9 ac ef d0 fd c2 bf c9 e2 93 0d 87 0a a1 bf
       -0.14837085440531347 -0.033283443839484735
000580 d4 e4 a4 15 0d 6e c0 bf a4 ab 39 81 96 92 ae 3f
       -0.12835849339334138 0.059712126993722664
000590 19 a1 12 b4 77 a1 24 bf 55 c6 b6 b4 f2 74 c9 3f
       -0.00015739999984033177 0.1988814718620683
0005a0 34 c0 87 6c fd d6 c8 3f 2b ba 3d c0 f8 11 c1 3f
       0.19406097220735463 0.1333609522511819
0005b0 a4 f7 68 d8 29 21 bf 3f 16 b6 46 20 e4 1a bf bf
       0.12159978421638457 -0.12150407588952591
0005c0 19 c2 c5 c8 b4 b7 a2 bf d3 4f 92 58 88 4e a3 3f
       -0.036557816990242915 0.03770853120036546
0005d0 24 e0 d6 96 80 32 b3 bf bf 6c 77 cf dc 98 c0 3f
       -0.07498935396768097 0.12966499452782007
0005e0 19 54 ef c5 03 ae cc bf ef 1e 1a a2 2b 03 bd 3f
       -0.22406050839222827 0.11332962710923387
0005f0 07 9c 37 5a a9 b1 cb 3f 2b 10 27 7e 38 8c c2 3f
       0.216359299708728 0.1449041954020925
000600 7c 8c f6 d6 8e cd a2 bf 36 e2 69 62 3c b5 a1 3f
       -0.03672453283368157 0.034585845006351354
000610 38 74 4a bc 12 56 b3 bf a6 59 f3 17 b7 4c b4 3f
       -0.07553212258285746 0.07929558119517441
000620 02 93 f5 db 3e d3 c8 3f e2 46 f9 df 99 c7 c0 3f
       0.19394670238684603 0.13109134136407535
000630 27 eb 50 ec 2f ab b2 3f da cf f7 b2 32 bd 9d bf
       0.07292460936961885 -0.029042045758572367
000640 5a 5c 7d 6c 1d 0b c5 3f 86 f0 94 01 77 98 52 3f
       0.16440170094822087 0.0011349832696643538
000650 52 20 98 d6 5a 0e b7 3f 64 9e ec fc da 95 bd 3f
       0.09006278742902055 0.1155678622713992
000660 aa ca 51 0b b5 48 c8 3f 76 0e 02 50 1a 58 c7 bf
       0.189718847777461 -0.18237618357317203
000670 4e 43 c4 66 8f b6 c1 3f f1 53 ec 00 b2 1a c8 bf
       0.13838379400160722 -0.18831467671466798
000680 d7 25 ba 19 9a a5 b4 bf 18 9a 24 63 c5 77 cc bf
       -0.08065188530067445 -0.22240512219396247
000690 36 70 48 62 16 2a c1 3f be 98 41 da a7 db c0 bf
       0.13409690665219082 -0.13170335919421022
0006a0 da 23 8b 08 ed 92 9a bf 86 c4 2a 73 59 ff c4 bf
       -0.025951102873282263 -0.164042645677487
0006b0 3c 69 cf cc 35 50 bd 3f 91 8b f2 80 2b ee c9 3f
       0.11450515985726367 0.20258086963903257
0006c0 9f 3a f2 27 83 45 c8 bf 2a 79 fb 1e ac bd a1 bf
       -0.18962134790895832 -0.034650210172673404
0006d0 94 2d 9b e2 6e c2 b5 3f c8 67 0f 67 72 8d b3 bf
       0.08499806434990936 -0.07637705818288432
0006e0 03 ca d7 68 42 4a c7 3f df 00 67 3a 77 5d 59 3f
       0.18195371741565233 0.0015481628739593618
0006f0 1c 9c 0a c7 29 06 cb 3f 9a d0 3f 87 50 f8 95 bf
       0.21112558573551687 -0.021455057387314548
000700 d9 bd 78 13 5e 78 b1 3f 90 3b 06 3e 4b ee b7 bf
       0.06824291205770495 -0.09347982658640164
000710 11 bc 3d 7b 52 7e ae bf 00 5d 09 29 c4 96 a6 3f
       -0.05955751184853154 0.04411900521216161
000720 62 ad e6 5f a0 e0 a2 bf 6a 04 2a 93 40 6c 7d bf
       -0.036870013910937485 -0.007183315511270919
000730 ab c3 4e ba 58 02 c2 3f df 74 84 1d d1 ae cc 3f
       0.14069661233000139 0.22408498708038047
000740 e5 b6 e7 cf 56 b9 b4 3f c5 70 85 d4 8a dd 9a bf
       0.08095305038269947 -0.026235741826312848
000750 ad 1e 41 e2 84 05 b2 bf d7 47 23 4b 96 af b5 3f
       -0.07039671443737446 0.08471049627703962
000760 29 f2 11 02 5d b4 ab 3f 04 15 f7 9b 32 60 bb bf
       0.05411043787259857 -0.10693661029570839
000770 fa cd 1a 23 a3 0d cd 3f 77 fc a3 0b 1f 66 b1 bf
       0.2269786759767241 -0.06796449693864469
000780 b3 5b 2e e8 aa e5 b8 bf 09 4c 95 04 6c f9 c0 bf
       -0.09725444954379618 -0.13261175369061132
000790 da 51 58 25 ee 1a bc 3f 35 3b 34 fa 1a 4f ca bf
       0.10978592311614169 -0.2055391046237333
0007a0 2f 52 a7 1c 38 e1 ad bf 7e 33 05 ae 21 4c ca bf
       -0.05835891103530277 -0.20544835087858
0007b0 e8 8a 8d 02 20 95 b4 bf 28 05 37 43 ab 79 bb bf
       -0.08040046751333885 -0.10732527152051274
0007c0 11 75 72 8a 76 6d a2 bf 70 d6 4e 71 a5 72 b0 3f
       -0.03599138679531156 0.0642493631010781
0007d0 65 93 7b 9c e9 ed cb 3f 5a 1d 9c 5f 0e 62 af 3f
       0.21819801464803415 0.06129498402702423
0007e0 95 a9 f8 0e 44 72 98 3f ef 04 70 5a 16 bd af bf
       0.023873389638688975 -0.06198949674581821
0007f0 e8 84 b6 5a 39 9b 90 bf 74 e5 e7 79 a6 6b c4 bf
       -0.01621713272254946 -0.1595352263682731

hidden_layer4.bias f8 [20]
000000 11 5c d4 b8 a7 84 ba bf f2 f2 1a f5 6d 27 a0 bf
       -0.10358665716590588 -0.031550823373867845
000010 8b 3c f2 0e 74 b5 c8 bf 71 84 db 34 36 a3 cb 3f
       -0.19303751687809653 0.21591832714969741
000020 95 e8 ae 3b 38 1b cd 3f 2e 52 f5 50 24 5c ba bf
       0.22739317812176255 -0.10296847321053157
000030 4d 81 f2 10 00 68 b8 bf 3d 2a 4d 74 0e 51 b6 3f
       -0.09533691800834738 0.08717432345762517
000040 44 b5 e6 a4 8f d2 b9 3f 47 26 53 f9 60 02 c0 bf
       0.1008691575613812 -0.1250725953489555
000050 86 71 ce 0e 1f 78 a9 bf 8d b9 3b 9f 1a 34 ad bf
       -0.04974457793943814 -0.05703814691320295
000060 67 f1 ee 8d 86 9a 98 bf 13 05 d9 10 24 da c4 3f
       -0.024026968396115757 0.16290713141101118
000070 eb 6a 3f 6b 9c b4 a7 3f db 38 e4 84 b2 f3 6c 3f
       0.046299827663195924 0.0035341726971927895
000080 4a 35 ec ed 79 1a c7 3f a4 e5 df 5d 20 4d c6 bf
       0.18049549214667088 -0.17422871192665668
000090 29 42 df f9 b8 b3 bd bf 2b a3 49 a5 5f ee 71 3f
       -0.11602359867470881 0.004377721420134854
