net_param/net_0.04.pth (torch, 17999 bytes, 12 tensors)

hidden_layer1.weight f8 [20, 2]
000000 11 84 89 7e cb 69 f2 bf 45 41 fb b0 c8 09 e8 bf
       -1.1508288328989276 -0.7511943298978073
000010 e0 33 ae 16 bb d8 f2 3f 91 fa ec 99 cd 14 f6 bf
       1.1779127965885365 -1.380078889152774
000020 bb a5 28 91 e6 eb fa bf c6 3a 42 f0 71 d2 fc 3f
       -1.682592932726364 1.8013781914811928
000030 0d 75 b4 73 88 76 fd 3f 67 20 04 ab 6d ff e9 bf
       1.8414387244914139 -0.8124302234800894
000040 a6 24 5c 50 87 bb df bf 8a 83 b7 be ec 09 ee bf
       -0.49582083556794954 -0.9387115216196531
000050 62 41 bf ae da 54 da bf 72 5b d0 ee 1d 82 f9 bf
       -0.4114290911211552 -1.5942668274562632
000060 2c 74 d3 3e 2a 7e ec 3f 64 c1 3f 46 26 c5 c8 3f
       0.8904010035581726 0.1935165255558885
000070 ad 05 1d 95 89 5c e2 3f a3 44 e6 ce 84 ad f9 3f
       0.5737960731859651 1.6048629838954092
000080 53 c2 df e4 da 83 d3 3f 61 3c 31 5d 83 5f e8 bf
       0.30492279387457194 -0.7616593189394615
000090 e5 6f 7f a1 d0 2d f7 bf 46 c0 62 61 68 c2 f3 3f
       -1.4486852940090043 1.2349628261690824
0000a0 1c 29 5e 80 dc 8e f3 bf 57 e4 04 a7 f1 42 f0 3f
       -1.2223782553069844 1.016343738954921
0000b0 74 c7 be dc 50 d6 e6 3f 89 6b db ba 0d 79 f3 bf
       0.7136616050176898 -1.217054109488091
0000c0 23 82 1a 2a 3d 0e ee bf e9 88 86 1d 9e 8c e1 3f
       -0.9392381498656203 0.548415239016575
0000d0 6a 7d 67 cb 86 ea fd 3f 71 00 75 e5 17 71 f0 3f
       1.8697574563483053 1.0276106799283549
0000e0 fb 0a 19 4d df b5 f3 3f ad fe fc a0 78 ae fd 3f
       1.2319024097093336 1.8550955093959758
0000f0 9e 54 ba 99 38 c9 fe 3f 01 24 cc ff 69 00 df bf
       1.9241262440676006 -0.4844002721807215
000100 37 8c 9a 10 3b c6 d3 bf be b1 d4 f7 fe ed f4 bf
       -0.3089740430970695 -1.3081044846431804
000110 c7 0c fb 09 55 7d 07 40 a1 d4 09 66 b2 23 f7 3f
       2.9361973552455285 1.4462150560259845
000120 e1 d4 3d 98 e5 c2 f8 3f 14 d2 3c 2f 8e 94 f5 3f
       1.54758223981235 1.3487684102266302
000130 d9 8c e9 7d 67 bc ec 3f 2b 52 8b 18 73 8f be bf
       0.8979985675072398 -0.1193763670847338

hidden_layer1.bias f8 [20]
000000 fb de c4 18 f7 e6 c8 3f 5a f7 e9 f2 f3 53 d8 3f
       0.19454849919724623 0.3801240799146989
000010 fa 82 ee 4d e8 24 e0 bf ae df 77 ca 6c 25 cf 3f
       -0.5045053026297801 0.2433296192755256
000020 c7 00 9c 90 a1 82 cd 3f 8a 83 a0 a2 63 a1 c7 bf
       0.23054904519086092 -0.18461270752689202
000030 0f 8b e6 4b c8 ec cb bf 95 0e 0f 03 15 9a dc bf
       -0.21816352563936234 -0.44690442370140576
000040 b3 33 5e 9f 1e 4b c9 3f 32 ff c2 08 a4 85 d0 bf
       0.19760496884955855 -0.2581567845881977
000050 8f 9d 57 8a c8 2c d1 bf 89 2d b8 5b fb aa d4 3f
       -0.2683583594320788 0.322935905046244
000060 21 90 cc 0c ce db d3 bf 13 6d 8f 25 96 5e d0 bf
       -0.3102908253661117 -0.2557731024550815
000070 2f 61 2d 0c d8 f9 cb bf 38 d8 f6 4e 5c 68 ba 3f
       -0.21856213183014847 0.1031549160751134
000080 14 21 24 d2 ef 25 d1 3f f7 c2 b6 75 89 a1 d1 bf
       0.26794047853083325 -0.2754844331312109
000090 5d 34 57 11 65 d7 d2 bf e1 f8 64 2a ff 69 9f 3f
       -0.2943966550199713 0.03067778297667523

hidden_layer2.weight f8 [20, 20]
000000 94 ca e8 34 87 e3 e9 3f c8 47 97 40 5a 91 01 40
       0.809024432505185 2.1959729238669503
000010 c4 c0 9d 1b 66 ab 03 c0 8d f2 a5 d2 e7 ce f4 3f
       -2.4586908490674393 1.300514052242906
000020 8b 99 41 f6 f1 22 f2 3f 17 81 ef e3 1b 7a d3 3f
       1.1335315341362697 0.3043279386456716
000030 9b 44 32 c6 cb af b4 bf 52 10 76 5f ce 79 fc bf
       -0.08080743397501282 -1.7797378281548117
000040 cc de 1d 80 5b 24 e1 3f 4b 1b 42 2a f9 c2 f2 bf
       0.5356881620673106 -1.1726009035789555
000050 41 b0 f0 b5 e1 32 fd bf af 72 1b a8 38 e9 f6 3f
       -1.824922285751214 1.4319387976349096
000060 a5 87 b5 ed 79 20 de bf 11 29 fb a4 1e c6 ea bf
       -0.47073219503192326 -0.8366845342909831
000070 2d 11 b7 4f 60 43 ec bf 9f 13 97 77 35 a6 e6 3f
       -0.8832246357856427 0.7077891669983848
000080 0a 5a af 36 64 9f e3 3f e4 df e1 2c 46 3b ec bf
       0.61320696526201 -0.8822356106384146
000090 bd 12 75 82 cf e4 f4 bf 20 14 99 ac 6c d7 da 3f
       -1.3058619590748741 0.41939846854467255
0000a0 01 d7 c1 fb 7c eb e1 bf 17 22 89 bf 39 8d d1 bf
       -0.5599961201794202 -0.2742447252717581
0000b0 e6 64 a6 71 b6 66 c5 3f 31 a1 c8 1a 40 d9 ba bf
       0.16719704198184288 -0.10487747815989647
0000c0 e2 c3 56 56 a2 f8 e1 bf e1 b0 b7 0e 69 84 c5 3f
       -0.5616008459384114 0.16810334414129272
0000d0 35 78 70 f6 26 3b cc 3f 27 85 1f 34 5c c0 e4 3f
       0.22055518181963554 0.6484814661054416
0000e0 13 d7 a0 ff 04 5b de bf 9d fe 3f 49 72 26 dd 3f
       -0.47430539096545593 0.45547158387487646
0000f0 5f e7 5f d4 22 e2 d6 3f 09 fb 68 4f 81 a9 d4 bf
       0.35755224933347124 -0.3228457713593547
000100 ad 32 93 67 10 91 c2 bf 08 68 00 9e 1b 67 da 3f
       -0.14505200440762192 0.4125432055458309
000110 9f f3 72 cc 2f ce ad bf fc e8 93 3a 88 a6 cf bf
       -0.05821370478358933 -0.24726965770953047
000120 7b 65 aa 59 36 f7 e3 bf 42 53 00 ef 74 77 e3 3f
       -0.6239272834092583 0.6083321254724086
000130 52 af f9 a7 f7 2b cf 3f 19 fa 32 51 3f 98 b8 bf
       0.2435292787735031 -0.09607310993576625
000140 08 c9 8e 08 c2 0c d4 bf d6 41 8a 5d af 7e ca 3f
       -0.3132786830493761 0.20699112002740944
000150 49 6f 61 6a 26 69 c0 bf 77 7f af a0 22 6d a2 3f
       -0.12820892519345709 0.03598888598912613
000160 cc 13 7a 02 46 4f a8 bf e4 38 b0 be 37 82 a0 bf
       -0.047479808618880875 -0.03224348261584156
000170 01 53 8e f0 3f 26 dd 3f 66 11 fc 4b b4 d9 cf bf
       0.45545958034317385 -0.24883130750834964
000180 03 78 0e 75 04 70 9f 3f 7a c8 71 39 fe 17 c1 bf
       0.030700750011980926 -0.13354471020608455
000190 0c a2 b4 38 e5 09 cc bf 14 8c 4b f4 c7 f2 ca 3f
       -0.21905198353603372 0.21053409031364423
0001a0 62 6a 3f 4a dd 9a ad 3f e8 58 4e 9d be d2 c9 3f
       0.05782214671463205 0.20174391442259965
0001b0 2b 40 e0 b8 3c 80 cc 3f 9b 55 99 11 25 a2 d1 3f
       0.22266348864695948 0.2755215331902378
0001c0 0e 59 86 89 58 df b5 3f 1c 86 89 14 8c 8c c6 bf
       0.08543923718966459 -0.1761641598014173
0001d0 a0 c5 a2 11 ee 88 d0 bf 4d 07 5e bd fc 3d de 3f
       -0.2583575412964709 0.47253340237522395
0001e0 6d e9 c1 c8 6b 1e d8 3f 7d 2a 9c b4 9b f9 81 3f
       0.3768567524454259 0.008776871156006333
0001f0 a9 30 a2 7f 20 62 c9 bf 33 d4 48 5c 84 98 d1 bf
       -0.19830709678752115 -0.2749339009490683
000200 92 d4 e4 84 6e 26 bc bf 79 89 65 b9 9d f1 c0 bf
       -0.10996142143706525 -0.13237353851861736
000210 1f 87 65 2b 86 5f e1 bf 72 7f d8 6e 0e b4 c0 3f
       -0.5429106566991527 0.13049488460910258
000220 74 be ba 4a e6 71 db bf ae 19 a4 39 de 31 d2 3f
       -0.42882687852668444 0.28429370526319075
000230 2c 64 24 01 61 e0 d4 3f 09 af ae b3 6e 57 ce bf
       0.3261950026658862 -0.23704322598984387
000240 d0 93 4b 4d 9c 81 95 3f c3 65 35 77 2f 11 d3 bf
       0.021002237527586065 -0.29792391435111315
000250 97 8d 4f 85 94 3f c4 bf e8 5a bf 7b da 52 dc bf
       -0.15819031247438595 -0.4425569733115666
000260 d8 1f 8f 0f 36 04 b7 bf 6c 47 0d 25 48 76 d2 bf
       -0.0899080074296984 -0.28846934908243926
000270 6b 0a 77 80 5f 85 d1 bf 3b 1c 4c b6 a9 1b df bf
       -0.2737654451886217 -0.4860634117362143
000280 21 6d 52 b5 16 02 d8 bf 04 2b ba dc 6f 18 d3 bf
       -0.3751274843904913 -0.29836651378052204
000290 5b f4 6e a7 74 0b c7 3f b5 af 77 50 65 78 69 3f
       0.18003709960422296 0.0031091669841227473
0002a0 a3 6c b1 94 7e b5 d0 bf fb 4f 29 48 4b 07 e1 bf
       -0.2610775425034239 -0.5321403893854034
0002b0 15 3e 2c 68 1b f5 c5 3f 37 2e 83 88 59 a1 c7 bf
       0.1715425738006934 -0.18461150327344608
0002c0 d4 7e 08 a5 d7 64 b2 bf 81 66 48 2b 5e 94 d2 3f
       -0.07185123232965945 0.2903056547816974
0002d0 43 c6 46 c6 2c 7f a2 3f 17 66 90 cb aa 76 be 3f
       0.03612651749007203 0.11899821729493741
0002e0 92 ad e8 ac 91 d9 92 bf 16 b1 11 6c 1c 46 d2 3f
       -0.018408085039636264 0.2855292373049151
0002f0 7b 49 d8 f2 01 ab bd 3f 26 f5 b1 df 25 56 c4 3f
       0.11589061907605995 0.15887902662863346
000300 00 ea f7 f4 f4 7a d5 bf ed eb 81 8b 6b b3 d5 3f
       -0.3356296913404151 0.3390759336832037
000310 87 b1 01 c6 79 1e d6 3f 9f 8e 33 5a 0d cb c2 3f
       0.34561008774360186 0.14682166008343686
000320 66 97 97 1a e5 de d6 bf 71 cd aa 7e a4 68 bd bf
       -0.3573544273079875 -0.11487796871624824
000330 32 5b 4e 4e d5 b8 cd 3f c6 56 86 9a 16 ff c9 bf
       0.23220316241778388 -0.2030971769824445
000340 e9 24 73 e4 7c 0e ca bf d3 18 95 4a 97 af a7 bf
       -0.20356713442587385 -0.04626152787618456
000350 70 48 24 18 75 9a e1 3f 9b f8 81 fd 6c 6e d3 3f
       0.5501046630399866 0.3036148524914865
000360 e4 00 a7 0e a6 95 c9 bf b0 41 bc f5 cc 1e b6 bf
       -0.199879414705726 -0.08640748023413525
000370 d3 a5 4e 3b 92 50 b7 3f d7 10 20 be 5d 01 c0 3f
       0.0910731692116749 0.12504169257602513
000380 21 9b e5 5f b0 18 d2 bf e4 51 c7 66 91 bc cc 3f
       -0.2827568947308681 0.22450463789449693
000390 dd df 96 a4 1b c7 cf bf d0 78 b2 72 29 71 a5 bf
       -0.24826379334058304 -0.04187898182975547
0003a0 37 fc 17 67 f8 82 c1 3f 50 df c4 e0 7a 32 c7 bf
       0.13680939706680004 -0.1812280271058122
0003b0 8f c9 e5 21 15 d2 b2 3f 8a 3b a0 8f 68 74 d5 3f
       0.07351810529306689 0.33523000741927744
0003c0 94 42 ad 5e 09 db c2 bf ce 2e 69 0b 5c 6c b1 bf
       -0.1473094665803002 -0.06805968550286964
0003d0 ae a7 b1 2a 2c 53 e1 3f 27 23 27 48 e3 12 c1 bf
       0.5414028962961674 -0.13338891051378107
0003e0 e6 21 38 e4 39 7e 82 3f 43 09 e2 cb 6a 81 b5 3f
       0.00902981975288326 0.08400599935160806
0003f0 b6 cc f1 f6 9f 1d e1 3f e6 bc 21 d5 dd 0c d1 3f
       0.534866316140685 0.26641031087542755
000400 85 ec 46 d9 68 af 94 3f 06 1e 39 dc 41 77 a4 3f
       0.020200384389437182 0.03997236073751868
000410 48 73 da f6 72 9a c7 bf 2d 63 a9 50 c5 d1 be bf
       -0.18440091184029428 -0.12038834780959169
000420 01 24 fc a9 6c 76 b8 bf aa ad 1a f1 34 01 a7 3f
       -0.0955570139887101 0.04493108218351989
000430 76 4c fb 0b 31 00 d6 3f 9a 11 a9 a7 f6 04 a7 3f
       0.34376169366914355 0.04495974346767469
000440 7e f5 6c 02 12 8f ca bf f6 d7 cb 70 9f dc b6 bf
       -0.20749116056860467 -0.08930393699469605
000450 e1 af 16 5b 2b 20 d7 3f f5 4e c7 1f 09 aa d9 3f
       0.3613384618317906 0.40100315192579156
000460 31 32 bb 6f e1 cd d3 bf 2d 82 7a 4f 26 70 b6 3f
       -0.30944095526936893 0.08764876785654314
000470 68 52 10 92 6f 69 c1 bf 00 5b 02 43 80 f6 ac 3f
       -0.13603014595050245 0.05656815355285083
000480 51 89 f5 95 81 f7 d6 bf 2f 54 fd 49 c7 d5 d5 3f
       -0.3588565792507739 0.3411730024866441
000490 27 bf be 0e 3d 31 9c 3f 62 26 41 e5 f5 6a da 3f
       0.027531579995126478 0.41277835262426354
0004a0 3b eb 9d 3c d0 02 d1 bf 05 77 59 09 f5 21 cc 3f
       -0.2657967178308131 0.21978629070775227
0004b0 95 40 84 c0 8b 1c c6 3f 60 37 cc 46 c5 e6 c5 bf
       0.1727461519262802 -0.17110506016654892
0004c0 a1 45 e9 65 75 14 ce bf 3d 14 d3 b5 cc 68 bb 3f
       -0.23499934650548673 0.10706786574435596
0004d0 af 59 25 e9 17 bb c3 bf 95 24 54 9f 12 25 93 bf
       -0.15414713749005446 -0.01869610879387958
0004e0 41 c7 e2 9d 99 d6 cc bf 43 4e 4b b7 bd 5d d4 bf
       -0.22529907426138077 -0.3182215013486919
0004f0 56 84 c0 15 31 20 b8 3f 0d 5a 58 69 69 ab c8 3f
       0.09424120694213065 0.19273107188992392
000500 b3 27 1c 5d 43 b6 be 3f 3e 6c a3 f3 b3 1a c8 3f
       0.1199686147994317 0.18831490894703679
000510 45 16 e7 fd d0 10 d0 3f 8c 3e e4 9d 1b 1b b8 3f
       0.2510263900297541 0.09416363339209449
000520 be f1 48 54 33 96 88 bf 94 d9 fe 50 bb ba cc bf
       -0.012005234727546884 -0.22444859938486827
000530 03 5c 45 bf 61 e1 93 bf 86 4c e6 da 41 a9 98 bf
       -0.01941445093083517 -0.024083165155002216
000540 1c 4a 7e 33 10 81 c6 3f e2 65 15 d9 93 7a d2 bf
       0.1758136989052027 -0.288731538768472
000550 42 46 3b 30 ce 87 d2 bf 1b 03 2e 23 e3 c9 cc 3f
       -0.2895389052401677 0.22491111009369366
000560 fc 69 8a 5a 7a 83 c7 bf e7 1c 59 de 8f cf a4 3f
       -0.18369988842898965 0.04064607228479549
000570 02 66 5c b5 fb ac c9 3f 77 a5 3e 2f 7b 43 df 3f
       0.20059152942194208 0.4884937249540466
000580 7a fe 54 fc 74 4d c1 bf fa 77 38 ab 45 e9 d2 3f
       -0.13517629929446057 0.29548780174980005
000590 c5 28 b8 fa 27 9d d7 3f ca 6f dd 64 8f 30 d7 3f
       0.3689670513564461 0.3623388752946509
0005a0 5e 42 d7 d7 12 10 c1 bf 04 87 35 69 3f b7 d3 bf
       -0.13330302752594297 -0.3080595519478353
0005b0 01 9f 3a bd 57 88 d8 3f 4a 0b b6 84 68 49 c3 bf
       0.3833216998996108 -0.1506777427676645
0005c0 70 cf b3 0e 5b 84 8b bf 42 d6 66 15 1a 3d c8 bf
       -0.013436042200261261 -0.18936468167309967
0005d0 3e 52 ee 25 eb 32 bd bf 67 56 0d ba a1 d4 d5 3f
       -0.11405820537613295 0.3411030117907558
0005e0 a7 c9 1e 57 9b fe b7 bf 69 13 6b c1 b0 8e 74 3f
       -0.09372874142608244 0.005018892718628412
0005f0 01 fc 7d 70 4c 55 d9 3f 4e 2c e1 5c 06 21 a8 bf
       0.3958312128597186 -0.04712695964607204
000600 ef 8c 3f 2a 34 b9 d6 3f 42 c5 10 4a d3 33 d3 3f
       0.35505394101910687 0.3000381682678218
000610 8c 12 2e 0a 99 8c 32 bf 4e f5 37 ea 87 3d 89 bf
       -0.00028303848574066297 -0.012324392161640187
000620 b8 67 8e 2a 0f 85 af bf 2a f9 9c 48 d2 1d b4 bf
       -0.06156203646169395 -0.07858003876478806
000630 95 d2 a5 42 fb 5b 85 3f a8 e6 57 1c 7b 95 a2 bf
       0.010429347011020421 -0.036296698770411695
000640 93 95 bd d1 02 ef bd 3f 8e 88 fa 35 40 da c2 3f
       0.11692826862925747 0.1472854865615471
000650 e0 54 c8 ce ad 34 b3 bf 27 0c 0b 70 2a 2b ac bf
       -0.07502256678010921 -0.055016828705923886
000660 e5 28 69 5a 8f cd cf 3f 94 d1 ac 08 bf 5c cc 3f
       0.24846069254483108 0.22158039020144982
000670 1f 4d 3b 2e 2f d1 db bf ab 5f f8 ef ac b0 c0 bf
       -0.4346425963860429 -0.13039170949263953
000680 33 25 74 be c4 84 a3 3f 31 10 1f 01 9e 52 ce bf
       0.03812231850504091 -0.23689627699616403
000690 1f d0 31 ca 72 d4 c2 3f 60 3f 58 c8 b5 d5 c9 3f
       0.1471084105756981 0.20183441431481253
0006a0 85 ca e8 f2 13 e7 c7 3f 34 db 6f 9c a9 98 c3 bf
       0.18673943863685252 -0.15309639109156026
0006b0 5b 0a 8c 2d cd 8d 89 bf 4c 81 65 28 aa 36 ca 3f
       -0.012477496101842058 0.20479323360906176
0006c0 05 09 c7 12 ea 07 9c 3f e7 81 7f a1 0d 73 d2 3f
       0.027373940845572004 0.28827229281708217
0006d0 2c e6 69 1c 98 6a a4 3f a7 d0 3c bd b7 2b d6 bf
       0.03987574908110178 -0.34641831855993604
0006e0 5a 55 ec 80 58 4a db 3f e9 45 8c 13 94 5f cd 3f
       0.4264127024665264 0.22947932199944823
0006f0 a2 81 e1 5b 4c 13 dd bf 18 9e 2d 75 25 38 c0 3f
       -0.45430287335150343 0.12671344968406184
000700 12 47 00 be bb 05 ce 3f 63 fc d9 40 2f b2 d7 3f
       0.23454996850392057 0.3702505238833906
000710 4c b5 eb 72 11 a5 b0 3f 73 cf 3f 2d 2b 4d dc bf
       0.06501874023134241 -0.4422100011718079
000720 f4 6f 80 2e ce a9 97 3f 15 7d 25 e0 32 16 de bf
       0.023108693683852224 -0.47010490311909453
000730 ab f8 5c 4a e5 45 d9 bf ab a8 e8 a9 35 29 e0 3f
       -0.3948910928919626 0.505030471661731
000740 90 90 8e bf e2 31 c0 3f 48 25 e3 a2 b1 9e d3 bf
       0.12652239182819303 -0.30656090647660905
000750 f4 c2 be 6d 47 48 e5 bf 0b 2e 0e ec 38 a4 9b 3f
       -0.6650731223545265 0.026993646056821457
000760 9f 6b 0e 51 25 5e dd 3f a1 ba 9c bf c7 4b d0 bf
       0.4588712016645164 -0.2546252604687798
000770 2c 24 2d 16 aa 01 d9 bf a5 3d 46 a3 67 e0 90 bf
       -0.390726586968017 -0.016481036510922604
000780 c7 c8 1d 01 76 81 70 bf d1 10 3e 28 9b 95 bd bf
       -0.004029713587316581 -0.11556405765992685
000790 8b 67 e7 7f d5 8d d1 3f a8 3a b3 b9 4a 08 b6 3f
       0.27428185930841015 0.0860640242928904
0007a0 9b ca 72 0c ab ca aa 3f 96 a8 e4 49 46 b0 ce bf
       0.052327485341625755 -0.23975447280947
0007b0 21 ca 48 a1 78 61 bf 3f 0a 5e 62 b0 23 3f c1 3f
       0.1225810426483709 0.134739361882325
0007c0 18 7d 0f f4 ea 17 b8 bf a0 fe 17 9a d5 24 b4 3f
       -0.09411495646007884 0.07868704807332927
0007d0 ae 8c 12 e6 b5 60 c7 bf e3 46 fe 86 38 b9 b1 bf
       -0.18263887151724617 -0.06923249526723967
0007e0 3a 8e b6 37 e9 5c 7a bf 36 29 8b 15 70 10 d6 3f
       -0.006436263090481337 0.34475328544489814
0007f0 3f 74 1a 97 50 ef e2 3f 3e cf d9 fa 61 03 c2 3f
       0.5917132331120526 0.1407282328469765

hidden_layer2.bias f8 [20]
000000 e0 e0 8c d2 44 81 dd 3f ef 3b 85 37 ad 10 af bf
       0.4610149437098823 -0.06067410757770363
000010 f9 a4 76 09 d7 47 a7 bf 1c ec db e8 26 42 b1 3f
       -0.04546997061272324 0.06741564927135396
000020 1b b4 40 cb 1d e6 b6 3f 08 54 f5 51 2e 8f b1 bf
       0.08944879734254167 -0.06859101773200404
000030 e4 fb 25 75 de b4 ac bf e6 4f e4 18 44 b5 ca 3f
       -0.05606742076906082 0.20865679946348265
000040 46 1e b2 b4 a5 5b d4 bf c9 03 ac b0 24 b0 b5 3f
       -0.3180937065703556 0.08471898377685173
000050 4f 29 a2 49 74 14 a3 3f a1 e7 51 8f 25 fb ba bf
       0.037265428532082916 -0.10539469479581821
000060 47 07 5a b2 6e 1b c2 bf d0 04 1c 2a 99 5f c0 3f
       -0.14146217068269548 0.12791742855191623
000070 78 49 c0 f3 28 5c ca bf fd ff 0a 41 cc 23 c9 3f
       -0.20593749906454284 0.19640496421743583
000080 60 65 f3 6a dd 3c 8b 3f 92 06 81 a2 b3 37 b5 bf
       0.01329968435895762 -0.08288119046576473
000090 b0 8c 30 49 54 39 a6 bf 3b cb 66 86 05 fd c9 bf
       -0.043406137403758094 -0.2030341058976662

hidden_layer3.weight f8 [20, 20]
000000 ab 47 50 95 b0 61 91 bf 4f 0b e3 b8 42 45 c9 bf
       -0.016974219430330766 -0.19742616679840316
000010 3b 6e 1d 2f 94 1f cc bf 68 87 36 2b 74 93 d3 3f
       -0.21971370983634295 0.3058748647691716
000020 15 5a d0 ab a3 b0 df bf c1 8b 15 6a 01 cd d9 bf
       -0.49515620974253355 -0.4031375442484056
000030 03 82 d8 83 19 3d d6 bf f4 bc a8 3e c5 c8 d8 bf
       -0.3474792277866358 -0.38725405806594826
000040 85 bd a2 b3 70 66 ad bf 15 a4 bf 01 60 59 cc bf
       -0.057422182014643254 -0.221477509359176
000050 52 b1 a9 b2 e6 e1 d7 3f 75 23 22 a0 1f 1e a1 3f
       0.37316291282219993 0.033432949349907405
000060 e6 f6 49 c8 51 40 c7 bf e8 e8 c9 5d 23 52 c7 bf
       -0.18165037421925162 -0.18219415740515577
000070 25 36 70 f5 ec 47 bc 3f 01 31 d3 cf e9 8a b3 3f
       0.11047249786516795 0.07633839916087838
000080 81 d9 f1 48 0d 61 c4 3f 6e cd 28 62 17 5a e2 3f
       0.15921178876642375 0.5734974782157403
000090 b3 2b bc 37 18 5e d6 3f 5b 3b 4d 43 1b 4c c0 3f
       0.34949307864070106 0.12732258592810805
0000a0 eb a1 73 56 f0 e5 d0 bf 73 f8 54 f2 2f 7f af 3f
       -0.26403435175464435 0.061517237025768966
0000b0 02 89 d2 5b 1c 14 89 3f 77 75 49 2b 55 57 63 3f
       0.012245389511296615 0.00236097941005536
0000c0 b1 f8 c6 1f cc e6 81 bf ed 2f ac 8a 25 01 de bf
       -0.008740992278827827 -0.4688199857926055
0000d0 f9 20 48 22 97 31 d8 bf 11 2b d5 f9 84 bb cd bf
       -0.3780267557890649 -0.232285139073007
0000e0 97 4e 75 77 a4 ed b4 3f 1f 6c 6e 29 a4 cc ca bf
       0.08175113598309235 -0.2093701555539562
0000f0 07 c8 c5 73 49 26 cb 3f e4 ef ef 8c 5a 16 da bf
       0.21210592415769744 -0.4076143623676656
000100 14 a3 26 04 e4 66 c7 3f 09 ec b1 bd 94 6b bb 3f
       0.18282747461969306 0.10711030608392504
000110 6b be 5e 72 05 b4 bf bf 81 dd 14 21 2b d6 c5 bf
       -0.12384065668333626 -0.17059840312297683
000120 3f cc 5a 40 ae 1f d3 3f 17 63 7b cc cb 52 ca bf
       0.29880863461147905 -0.2056517361113712
000130 12 10 f4 f2 21 4e 9b 3f c5 5d 5a 86 ea ab b0 3f
       0.026665239766785538 0.06512323169805885
000140 ce fc 59 9d 61 d0 e3 bf fe 2c 67 47 8f b6 d5 3f
       -0.6191871712943795 0.3392675587935655
000150 fd 22 6c 82 b4 df a6 bf d2 9c eb 2c 83 35 cb bf
       -0.04467548458166524 -0.21257056897522958
000160 4f 76 84 38 9b ed 59 bf 9e bd df c0 64 f1 c2 3f
       -0.0015825286701053492 0.1479917470710292
000170 7d a7 fa 52 48 ba dd 3f 24 15 06 a7 b6 3e c6 3f
       0.4644947824805213 0.17378886371094737
000180 ba 59 fc ba 57 ea 6d bf 8f 2c c0 06 cd e8 c5 3f
       -0.003651782368147863 0.1711670191728882
000190 4e 86 6b db 66 14 cb bf ef 69 8f b8 7a 54 06 3f
       -0.21156011308544226 4.2591090341398986e-05
0001a0 f8 99 63 1c b3 2c af bf 05 6d b0 f7 c2 8e f0 3f
       -0.0608879062800049 1.0348539042814207
0001b0 63 61 30 f6 70 70 e3 3f e7 71 3a 65 1e 4c e5 bf
       0.6074757393244393 -0.665541837417149
0001c0 48 1e f0 ef 68 f6 db bf 27 89 ef f6 8b b1 e6 3f
       -0.43691466742936713 0.7091731856310489
0001d0 d8 2a 82 9a 27 37 e5 bf a3 01 96 3b bb 03 80 bf
       -0.6629827516311151 -0.007819617038649812
0001e0 ac 81 8b ac 4b 1a d0 bf 18 fd 22 8e d3 cf ae bf
       -0.25160495615093725 -0.06017933950487925
0001f0 d1 ec b5 70 f6 61 68 bf ba e3 2c dd 32 33 c4 bf
       -0.002976399735130288 -0.15781245994165066
000200 8a 4b c9 65 dd 33 9c bf d8 11 10 c2 b0 42 b1 bf
       -0.02754159864191367 -0.06742386567936565
000210 ea dc 0f 0e 83 f3 a8 3f 8e ea 14 5b c9 29 d7 3f
       0.048732848612354676 0.3619254483670965
000220 6d 39 a7 60 68 54 d1 3f 91 fd f0 b7 99 85 97 3f
       0.27077683867255226 0.022970582820787625
000230 f4 95 26 fd e1 e4 a5 3f 55 7d cd b6 97 f9 d3 3f
       0.04276186194628542 0.31210892535996965
000240 1e 61 fd 8c 8e e1 c7 3f 3a 4e 90 0b cc f5 d0 bf
       0.1865709484507158 -0.26500226144091565
000250 cc 48 33 6e 0c 78 d0 bf 3b 8c 84 a5 8c 29 c9 3f
       -0.25732718240500385 0.1965804870788775
000260 d6 8d 29 c1 9e 4e d0 3f 48 8e a6 22 eb 50 db bf
       0.2547985922194277 -0.4268138731369828
000270 a4 0a 50 cd 3b 88 b7 bf 1d 78 d3 42 8c 71 bf bf
       -0.09192250978962108 -0.12282635337348365
000280 58 0a 3c 39 b5 9e cb bf 99 a1 ff 01 bd 84 ca bf
       -0.21578088087706493 -0.2071758517988769
000290 20 9d d2 62 c7 ea a5 3f fb 2c 91 39 69 94 cc bf
       0.042806845486945244 -0.22327914534466928
0002a0 56 5e 88 3a 0a 34 b3 bf c7 95 fb 6a 61 58 c5 bf
       -0.07501281670590151 -0.16675965999381345
0002b0 d7 e9 3c f9 d2 4d da bf 38 1e d7 18 82 e9 cd bf
       -0.4110000070537842 -0.23368860447793494
0002c0 7f 75 9b 87 45 08 b1 3f 68 54 9d 2d 96 13 c3 bf
       0.0665324646065155 -0.14903523661874662
0002d0 09 2d 79 4b 4d fa d0 3f e1 cf f7 95 4b d1 91 3f
       0.26527721758311934 0.01739996054489257
0002e0 19 2c 70 d7 4a 86 ad bf 24 78 0d fd 7f 6f d3 bf
       -0.05766519431934842 -0.3036804171769083
0002f0 05 b6 89 a4 0d b1 88 3f 38 46 66 61 89 09 d6 3f
       0.012056452354239697 0.34433207046194836
000300 5c dc a7 e3 4a 37 d0 bf f3 03 69 8d 2f 1d e4 bf
       -0.2533747885895019 -0.6285627138059894
000310 bb dc 4d 92 b0 31 c8 3f d4 6f 43 27 0d 93 78 3f
       0.18901641029126445 0.0059996141246436326
000320 35 f5 6f 2a 31 fd c2 bf 61 07 c5 dc b1 50 9f 3f
       -0.14835180828223718 0.03058126363726588
000330 f3 be 94 2b 3e 48 88 3f 80 0b 46 0d 84 14 b7 3f
       0.01185654230593467 0.0901567966848642
000340 f6 8f b8 76 b5 74 b7 3f a6 86 fb f6 f2 dd da bf
       0.09162458561382877 -0.4197966968477921
000350 6f 1d 88 e1 86 20 cf bf 7f 7b ff bc 33 21 d8 bf
       -0.24318014156618115 -0.3770264955218678
000360 43 3c 6f f4 3d b6 d2 3f 81 21 b2 a7 0c d1 c9 bf
       0.2923731696182054 -0.20169218242905276
000370 5c 23 b9 c0 2c 54 c9 3f 6e 76 3a 7a d0 51 b7 bf
       0.19788131151497168 -0.09109213813868575
000380 d7 45 30 60 a6 b8 bf bf 99 2d 99 82 4d 9a b2 3f
       -0.12391128395417837 0.07266697348057106
000390 65 22 49 dd f2 c4 ad bf 14 38 77 dd ab 94 cd 3f
       -0.0581432242511866 0.23109958947901588
0003a0 4d e2 18 40 3c af bb 3f d1 e0 2c 42 aa d7 bf bf
       0.10814262928841707 -0.12438453784568827
0003b0 03 95 a3 20 1b 07 b8 3f 5f 92 01 5c 52 c0 af bf
       0.09385842844820406 -0.062014173251360154
0003c0 cb 51 2b 50 07 88 d6 bf 54 47 cb 38 a4 5d e7 bf
       -0.3520525248434551 -0.7301808461436203
0003d0 b9 72 d9 1c 99 06 c1 bf 69 a7 24 5b 10 72 78 3f
       -0.13301385792410317 0.005968154803022909
0003e0 12 1d dc ce 12 e2 cf 3f db 54 ad df 9c 29 c4 3f
       0.24908671475007133 0.1575199215100501
0003f0 41 a5 e5 cc 84 1a b5 bf ee 0a b4 ef 46 31 c2 bf
       -0.08243589403504804 -0.14212881759893697
000400 e4 a0 04 69 2d 0f 9e bf 60 2b 03 03 07 43 a1 bf
       -0.02935477212409489 -0.03371450340053772
000410 bd a1 54 f8 c0 fe d6 bf e9 99 ab bd 65 40 c0 bf
       -0.35929893733057466 -0.12696525346036872
000420 67 db ce 6c cb 18 c2 3f 16 3c 09 69 0d 73 d9 3f
       0.1413816720284686 0.39764724023274434
000430 79 23 9f fa bc 2c 98 bf b3 38 2f b0 4a 3b ab bf
       -0.023608162686091092 -0.053186735159770925
000440 1b 26 45 c5 4f c1 dc 3f fd b6 5e b4 72 ec c6 3f
       0.44929880394610827 0.17909082228782572
000450 63 15 aa 69 aa 47 ca bf b9 e0 7d e1 b7 ba cd 3f
       -0.20531206282991396 0.23226068983399786
000460 f9 fa 0f ad 1c 59 b2 bf 6e 8d 73 79 fe a8 d8 3f
       -0.07167224145085162 0.3853145776795007
000470 66 bd d1 be e7 6f d5 bf 0f ad 11 02 3e 53 d7 3f
       -0.3349551547498407 0.3644557018476044
000480 09 2b 02 93 91 92 91 3f 06 55 df 77 ae 2d cf 3f
       0.017160677526173482 0.2435815892519388
000490 32 ef 28 e0 30 04 d1 3f cb b5 f3 b3 09 54 dd 3f
       0.2658807934819719 0.45825426648556505
0004a0 b7 18 1e fd 81 12 c9 bf 37 8f 7a b5 ec 2f b0 3f
       -0.19587731227165303 0.06323127203591815
0004b0 1f f4 be 39 ff 57 c9 bf 27 26 03 eb 53 9a e1 3f
       -0.1979979545557464 0.5500888433536532
0004c0 e2 72 e5 b4 c1 a9 d7 3f ab f0 fa 0c 2c d1 68 3f
       0.36973612466480976 0.0030294285168946575
0004d0 03 d3 8a 7f e7 15 ae bf 75 74 19 4a 8c 03 e2 3f
       -0.058760866469503646 0.5629331061605983
0004e0 46 ab 30 0e b8 6c ba 3f 30 f1 ae 28 d0 cf a5 3f
       0.10322141977728191 0.04260111328719274
0004f0 1c b6 f1 4c b1 1d a6 3f bc 29 a5 c0 60 f0 bc 3f
       0.043195286409950934 0.11304287627459692
000500 ed 5c e8 dc 12 74 c2 3f de f0 a4 f0 b0 94 b5 bf
       0.14416728769786094 -0.08430009722809781
000510 9e e2 15 bc af ea c2 bf 7b 72 cc 73 2f da c0 3f
       -0.1477870624910524 0.1316584887907942
000520 22 d6 1e d0 de 80 dd bf 54 d5 d1 9a cb b4 8a 3f
       -0.46099062275183844 0.013040152227612602
000530 98 07 bf 17 b9 a3 c0 bf e2 94 5a 5d ae b2 c4 3f
       -0.12999643001063244 0.16170291479389848
000540 6d e4 f0 e9 88 4a c2 bf bd 6f bd aa 1b 11 d1 bf
       -0.14289962218188937 -0.2666691939718893
000550 6b 6c db 52 40 38 a9 3f 04 61 ee de 11 d6 cd 3f
       0.04925728808822146 0.23309539208708696
000560 a1 4b 17 3a 07 fd d1 bf bd 15 49 0b 3a 30 9f bf
       -0.2810686175627613 -0.0304574078930011
000570 7d 25 be e8 4a 75 9a bf 47 8e 15 b0 8a fe c2 bf
       -0.025838060813418096 -0.1483929977213043
000580 9f 08 ee 4c a2 f8 ad bf cd 7f a2 42 5f 73 e7 3f
       -0.05853755177578645 0.7328335095844466
000590 a3 01 95 10 55 48 a6 bf a9 bb 7b 52 3d 0f c9 bf
       -0.043520601534058366 -0.19577757384783226
0005a0 09 26 b0 4d 26 ac be bf b1 81 f9 7b 0c f3 c7 bf
       -0.11981429478341722 -0.18710475972603782
0005b0 3e 57 b2 a4 78 73 d6 3f 72 72 9e 38 81 5f d3 bf
       0.35079780658394444 -0.3027041485709453
0005c0 ae c8 77 40 35 a0 be 3f 0d 5c b4 5e 41 b9 92 bf
       0.11963208030627712 -0.01828481808214737
0005d0 44 43 fa 2d 38 24 bd 3f 6f 1f 2a 24 b7 2d a9 3f
       0.11383391497134904 0.04917690578901001
0005e0 d6 71 19 95 75 de d2 3f cf 3f 35 a7 c2 ac d3 bf
       0.2948278385208857 -0.3074194558039353
0005f0 9f ae 71 24 e3 35 c2 bf 58 39 63 39 b5 ae a4 3f
       -0.14226950911994593 0.04039541554958487
000600 c6 74 34 08 16 07 d8 3f 87 6a 2c ee 3c a9 b1 bf
       0.3754324989439052 -0.06898861708433844
000610 b6 c8 fa fb 64 a1 d7 bf fd 83 20 ab 3f 85 b1 bf
       -0.36922573668847336 -0.06843946388154616
000620 16 a2 e3 c0 d5 6a c7 bf a5 e2 a3 12 5c c5 b9 3f
       -0.18294784468095376 0.10066771941263626
000630 73 90 9f da 63 28 c8 bf b0 b7 98 0f b4 62 d0 3f
       -0.18873260664907185 0.25602437518216004
000640 83 02 d0 83 95 0f b9 3f 4c 92 ee ca 4f a6 d7 bf
       0.09789404361800717 -0.36952586000032706
000650 e0 46 07 44 82 b6 9c bf 85 df de a9 49 3b c3 3f
       -0.028039966013074458 0.1502468184896736
000660 26 aa 86 aa f0 2b af bf e2 bf b5 dd 20 69 d6 bf
       -0.0608821113740599 -0.3501665272842712
000670 d1 87 f9 97 50 6a d3 bf 64 9b 87 9e 1b 9c c9 bf
       -0.3033639415863237 -0.20007653465946895
000680 a6 14 5d 3a 2b e3 b8 bf 23 5b 35 e0 23 2a c2 3f
       -0.09721632170574654 0.14191101501156664
000690 c9 b6 3a 2c 63 2d c2 3f ac 31 31 46 c2 fd d7 bf
       0.14201011333118732 -0.37486321310714277
0006a0 d7 16 60 b6 7d 5d b9 3f 10 b7 74 19 58 3e c4 3f
       0.0990828104259792 0.15815259211506616
0006b0 8b d9 d8 1b ed bd c9 3f 69 be 4d 87 eb cc d7 bf
       0.20110858783455074 -0.3718823262524667
0006c0 b3 be 13 36 f6 74 d1 bf bf 5a b0 b5 6d 9f 99 bf
       -0.2727637794587096 -0.025022234167489495
0006d0 e2 72 a1 be 98 5a c0 bf 9d e1 da 92 97 85 c3 3f
       -0.1277647906125799 0.15251440687803788
0006e0 80 60 10 de 4a 1d dd bf 4a 18 4a 6e 95 ab d0 3f
       -0.4549128693192941 0.26047263880207494
0006f0 51 fe 22 8d 33 e3 73 bf 09 c3 2c aa ba 9c c4 bf
       -0.004855347988438633 -0.16103299435919663
000700 58 e3 41 ad 83 cb dc 3f d6 6b 5f 4a 86 8b b5 3f
       0.4499215309111171 0.08416022601834014
000710 f5 85 81 92 ea 7b d4 3f 4c a6 fb 1e 35 cd a5 3f
       0.32006325061055857 0.04258123400888944
000720 25 43 c5 2c b4 a1 b1 3f 93 5c f0 48 34 4b cc 3f
       0.06887365429907939 0.22104505120725956
000730 39 3f 1e e9 1a 61 bf bf c4 62 3e ca 1e 69 dd bf
       -0.12257545653687608 -0.45954103231774135
000740 a3 6f ad 16 4d ee d4 3f cc c9 fa 5e 50 79 dd 3f
       0.32704474653814425 0.46052941584926255
000750 59 7f 80 7f 64 ad db 3f d4 51 6f 5d 14 ed e9 bf
       0.43245804263459814 -0.8101903748416199
000760 bd f7 4d 7c 94 bd e5 bf d1 6e e1 e9 f4 c9 f2 3f
       -0.6793920924972024 1.1743058334313228
000770 12 94 15 7e f4 4f d5 3f 79 b3 05 09 df c6 70 bf
       0.33300506890219694 -0.0040959083856763
000780 21 db 73 44 41 2f b9 3f d1 f8 69 ec e9 d9 d0 bf
       0.09837730332570206 -0.26330040061283194
000790 3d 0b 44 7a d3 16 cf 3f 1f 3a 48 31 89 89 ac bf
       0.2428840968132934 -0.05573681570614419
0007a0 e2 f6 8a cd 35 33 82 3f 49 5b c3 d6 63 81 cb 3f
       0.00888673814312874 0.21488616930465756
0007b0 9c e4 a4 f1 1d 81 c0 3f 2b e6 98 44 fc 10 c2 bf
       0.12894033717183084 -0.14114335393405616
0007c0 4b 43 bc 60 fc f3 c8 3f 9a bb ee 3b ff cd aa 3f
       0.19494585727127353 0.05235288244818222
0007d0 6e a8 8d af 92 e3 d9 bf 0f 26 86 ba f9 c6 c3 bf
       -0.4045149530780979 -0.1545097504388626
0007e0 e0 5b 26 93 83 3f c0 3f 7e 60 f6 53 f0 fd b6 3f
       0.1269382923607898 0.08981229829658052
0007f0 c6 74 d7 bf 38 1c 84 3f 71 d2 f9 5d e0 1a db bf
       0.009819453577558323 -0.42351540734606546

hidden_layer3.bias f8 [20]
000000 23 39 1f c0 f6 28 92 bf bc fb 15 08 e9 d4 b5 bf
       -0.017734389759248913 -0.08528000304612154
000010 fb 2a 05 12 0b e6 c5 bf 8a 99 54 21 e0 c5 d5 3f
       -0.17108286266223857 0.34020236258438585
000020 cc b2 05 38 1c 80 cc 3f bb 2d 3b 12 35 8d b3 3f
       0.2226596139475049 0.07637340254875984
000030 29 8a 45 4b 91 41 bf bf 3c 3b a5 cc 16 f5 cc 3f
       -0.12209423148809918 0.22622952454045187
000040 7c 17 f9 60 c5 64 ba bf 29 2e 3a 77 5c 0d a1 3f
       -0.10310014359956016 0.03330506282244656
000050 ee 74 19 e9 3a 52 cc bf 9b 05 66 ce 10 9f 9d 3f
       -0.22125946409042946 0.02892709979778872
000060 0d 05 2e 51 c2 cd 82 3f 10 b3 98 b2 18 0c d0 3f
       0.00918151674500447 0.25073831025183413
000070 4b 30 0f af 4d 01 d8 3f c4 44 92 1d f4 b1 d3 3f
       0.37507955642354734 0.30773642433002757
000080 b9 37 77 37 f2 4f e6 3f d1 e6 87 c5 a8 bf d3 3f
       0.697259052592691 0.3085729531299935
000090 41 ca 5b db 5a a8 c0 3f 98 f1 67 2e 50 ad d7 bf
       0.13013778410784663 -0.36995319873656163

hidden_layer4.weight f8 [20, 20]
000000 cf ba 89 d9 3d f5 c0 3f 54 aa f9 cc e3 4f c0 bf
       0.13248417970631585 -0.12743804462964425
000010 f4 d9 0a 7d 1a 40 cc 3f aa ae 88 91 b5 87 c8 bf
       0.22070628266892778 -0.19164151769779397
000020 c0 97 b5 f2 ce d0 bc bf aa 1d 15 07 71 6a aa 3f
       -0.11256116319199716 0.05159333430725195
000030 8c f5 43 aa 2d 48 ad bf 4a dc e4 b1 2f 02 d4 3f
       -0.05719130233226641 0.31263344166240314
000040 47 d9 c6 0f 9b 54 a1 bf e5 69 72 d2 3b 76 d1 bf
       -0.03384861533725086 -0.2728414111276421
000050 d8 11 e6 fe bf fe 94 bf c4 e3 28 11 c1 d7 e7 bf
       -0.02050304406431444 -0.7450871787215125
000060 61 91 5a 38 b8 8a b3 3f ef 35 1a e2 be a7 a9 bf
       0.07633544326615073 -0.05010792264975438
000070 f6 78 f9 56 63 19 e5 bf 16 bc c4 1f f9 a6 d1 3f
       -0.6593491266937963 0.2758162317504128
000080 c5 bd 05 2e 55 76 d5 3f 40 c0 95 f4 cf 69 c3 3f
       0.33534745687844875 0.15166663591981155
000090 db d1 ed c1 4e c4 93 3f fe 74 85 55 cb 0b da bf
       0.019303541742788127 -0.4069698653382402
0000a0 ea 93 57 7f 16 aa b0 3f 7e 13 d7 b6 4a 4f cd bf
       0.06509533509195334 -0.22898229530087727
0000b0 0a 79 3a 1b 74 2c d2 bf 17 02 a1 21 20 63 b1 3f
       -0.28396322878860814 0.06791878529566762
0000c0 73 49 c0 84 da a4 d1 bf bd 13 dd 2f 13 fa cc bf
       -0.2756868645093597 -0.22638168179596888
0000d0 ce 21 4a 7d 57 40 b3 3f ca 44 bf 69 b2 ff d4 3f
       0.07520052727534862 0.3281065018355319
0000e0 9f 53 ae ff cf 73 c1 bf c4 22 6b 29 96 fd d9 bf
       -0.1363468168680386 -0.4061026958920986
0000f0 67 90 e8 6c 43 3c c5 3f 43 01 be 5f 5f 56 b8 3f
       0.1659015924243505 0.09506794059234829
000100 4d 25 12 20 8f 01 31 3f 93 e5 c3 1f 25 35 b4 bf
       0.00025949234265761485 -0.07893592858808622
000110 55 b8 1b 8e 3d 96 bf 3f 97 3d 4e 8e ff b3 b4 bf
       0.12338623732986893 -0.08087155555971602
000120 15 27 bf e2 9b d2 9f bf b4 e8 d1 e0 a3 d6 d3 bf
       -0.031076846804160747 -0.30997559504579475
000130 11 f5 bb a3 05 f9 cb bf f8 5e 8a 9b 39 53 c1 bf
       -0.2185370492442549 -0.13535232634307426
000140 5d 6e ff f5 ef 51 ad bf a9 a3 e9 cf ff 5d b3 3f
       -0.057265757349992376 0.07565306497566716
000150 8f 1b 81 30 d8 82 63 3f a2 1a 82 13 94 02 8e 3f
       0.0023817274523340658 0.014653355450957865
000160 43 3e 2b 6f cd c6 b3 3f ae da 01 97 e5 a1 c2 bf
       0.07725223507008487 -0.14556569932365931
000170 1b 60 67 f6 68 5b b2 3f 20 86 dc e7 b7 1e af bf
       0.07170730605810187 -0.06078123765315646
000180 20 7d f2 21 c5 1b b1 3f 38 71 5e bc fd 87 b5 3f
       0.06682998732366174 0.08410631035662142
000190 18 53 9a 86 44 d4 9d bf 23 d9 71 0f 47 c2 95 3f
       -0.029130049434189592 0.02124892265097701
0001a0 24 dd de a7 61 74 d1 3f a0 02 3b d2 5a 78 a7 bf
       0.2727283610688167 -0.04584010902681723
0001b0 98 2b d2 f8 75 56 54 3f d5 35 6e f2 3a ec 73 bf
       0.001241316992749408 -0.0048639586083374
0001c0 2b 42 63 f5 64 c4 aa 3f 30 43 a6 64 14 0f c7 3f
       0.05227962012725514 0.18014769472622438
0001d0 8b 83 65 01 ac ed 6d bf 9d ba 92 9d 4b 47 73 3f
       -0.003653369854120963 0.004706664441228495
0001e0 36 1d 46 20 87 85 a6 bf cb 85 e3 16 cf 1c d6 3f
       -0.04398748654335309 0.34550835833769317
0001f0 61 94 7b 82 79 f7 d4 bf db 1f 68 10 39 cc bf 3f
       -0.327604653763336 0.12420994425349312
000200 09 08 f5 1b 90 aa e2 3f c7 da 5c ad 41 f5 e2 3f
       0.5833206697500383 0.5924385438910001
000210 c5 0f 3b 26 c5 b9 c8 bf aa 9a c2 2a 06 85 c0 3f
       -0.19316925398572785 0.12905957305811927
000220 43 dd d2 fb cc 47 d2 bf ab eb 9d f4 b5 15 c2 bf
       -0.2856323680129728 -0.14128755993064365
000230 28 fe 5c 4d c1 ba b5 3f 21 19 4f d8 5b 25 a5 bf
       0.08488090647460267 -0.041300649790672724
000240 94 ac c1 f2 27 c5 cd bf 14 a1 58 83 44 01 d5 3f
       -0.2325792250952402 0.3282023699453174
000250 ad 6d 32 6f e9 f1 71 bf 4f 0a bf 7e 95 ce 74 3f
       -0.004381095746022562 0.005079826321834859
000260 51 f9 eb ca 28 ea f6 3f b7 0e 24 de 24 c1 e4 3f
       1.4321678091651686 0.6485771502197711
000270 b9 4b c2 70 ae 7b ce 3f 7f c1 d6 4a 28 5d cf bf
       0.238149457033243 -0.2450304379867809
000280 ee b4 1f 54 d4 00 cf bf a1 c6 46 cf 30 15 d0 bf
       -0.24221281154260715 -0.251293375414301
000290 27 3c 73 4e a9 a6 91 3f 04 59 9b 1e 7f 09 c0 3f
       0.01723732510873446 0.12528981203531242
0002a0 be 22 dd 98 2b ae d0 bf e2 ee 56 8e 9e 2a d3 bf
       -0.26063051155191974 -0.29947627926206455
0002b0 4b 57 e9 31 5a 72 cc bf 7a dd ed 3c 37 0e 8b bf
       -0.22223975598415743 -0.013210708186064169
0002c0 45 06 93 a1 fe 23 ae 3f 5d 00 ab 06 18 0e ce bf
       0.058868367408206036 -0.2348051102217167
0002d0 84 81 53 d8 eb 75 ae 3f 89 a4 cc 27 94 63 e1 3f
       0.05949341788960097 0.5434056069690466
0002e0 2a 35 2d db bd 77 ce 3f a4 52 11 4c 73 61 8f 3f
       0.2380292244146543 0.01532259059801195
0002f0 20 33 6c 23 73 93 e1 3f cf b7 ff f3 01 8e c7 bf
       0.5492492381905301 -0.1840212289238807
000300 a9 71 6f 0b a1 f3 d2 bf b8 d0 6e e6 28 e5 c1 bf
       -0.29611993900996453 -0.13980590106587498
000310 53 0e a8 86 4d 4a d6 bf 9c 63 cc 2c d1 5f d3 3f
       -0.3482850852016998 0.3027232110485387
000320 a1 a7 09 b7 29 46 c0 bf 0a 2d 50 4b b8 0c 99 3f
       -0.12714120328319914 0.024462585064651633
000330 6f 56 ae 0d dd c0 d7 bf 00 58 f0 cc db d6 c2 bf
       -0.3711464532474115 -0.14718196398524697
000340 f5 4d d5 24 8d 13 ca 3f 03 5c 19 df ea ed a6 3f
       0.20372165964600666 0.04478391621949387
000350 af f9 45 6a d0 b8 bc bf b9 20 72 b9 9b 2d cb bf
       -0.1121950396973037 -0.21232935481044082
000360 38 64 ec a2 e4 2c c8 3f 17 91 00 d6 ae cc ce 3f
       0.18887002902263972 0.24062142800642825
000370 22 3e 37 d1 4f b8 cd 3f d3 d8 99 47 5e 81 c2 3f
       0.23218724933256946 0.14457300659314018
000380 3c d3 b5 f4 21 4e a3 3f 4f 29 14 ae 2a 1e c0 3f
       0.03770547973809932 0.12592061519564843
000390 be cb 6a 23 d1 a1 a6 3f aa ed 85 ea 95 c7 e5 bf
       0.04420331532801168 -0.6806134777574944
0003a0 2c f7 1d d0 ea 42 dc bf 09 77 50 b6 cd ee e5 bf
       -0.4415843040841192 -0.6854008255793086
0003b0 8b 19 a9 ba c3 f3 c8 bf 8c ea 6c f1 cf 05 bc bf
       -0.19493910421642754 -0.10946368831802483
0003c0 41 f0 42 61 f4 a3 b6 bf 4d 99 47 2f 2e 01 e0 bf
       -0.08843924879596533 -0.5001440928870494
0003d0 a5 4b 6e d1 e3 aa dc bf 37 2e a4 6f 14 aa f0 bf
       -0.4479302926276268 -1.0415233956326924
0003e0 cb 33 03 69 94 d5 c7 bf cd d3 e5 95 fc 79 d9 bf
       -0.18620543601573866 -0.39807047499135423
0003f0 fa 29 0c 29 22 70 e1 bf 42 69 f5 9e 02 34 da bf
       -0.5449381639203346 -0.4094244530039256
000400 7b a3 5b 9b 4e ad e7 3f f6 a6 9d 2b de 9c bb 3f
       0.7399056467375965 0.10786236347999165
000410 3b 66 b2 5c 29 24 dd 3f 3c 86 a7 2f 61 9c bf bf
       0.45533212711743304 -0.12347991383969598
000420 9c bf 1e 19 cf ba 7f bf 27 49 ea c1 20 21 e5 3f
       -0.007746514298489073 0.6602939402967295
000430 19 74 91 7b 3b b8 e4 3f 12 f9 a2 83 ed 17 d7 bf
       0.6474893010560009 -0.3608354363931464
000440 2d b5 ec ff 0c 8c d4 bf 34 fc 97 bc f0 4b e1 bf
       -0.3210480212463434 -0.5405200656385944
000450 05 a5 5c 76 d2 bd d2 bf ce 98 87 eb 97 6d c4 3f
       -0.29283582266596425 0.159594526295399
000460 9e 53 a7 04 4d ae d0 bf 68 69 3d cf b9 d9 ba bf
       -0.26063847975211185 -0.10488473233764284
000470 f8 39 74 d4 4a 95 e6 bf 48 49 0b 15 4b dc b8 bf
       -0.7057241582386373 -0.09711140884181646
000480 e2 5a bd 2b ea df 05 bf 11 5f 3d e6 32 3e c1 bf
       -4.172261603112793e-05 -0.13471065752195746
000490 41 74 a3 bf 5f 14 bb bf d0 cd 8a 45 84 9e bb bf
       -0.10577963284181725 -0.10788752267654123
0004a0 eb 89 88 44 0b a7 98 bf 09 b5 ad 9e 9f 81 b5 bf
       -0.024074722345298765 -0.08400914787280923
0004b0 96 ab 6c f3 68 9c e2 3f 74 f4 3d d3 5f b8 d3 3f
       0.5815930132279046 0.3081283152494685
0004c0 05 4c d4 84 29 7f 9e 3f 36 b4 8f dd b9 87 a3 3f
       0.0297819602320253 0.03814488248449559
0004d0 94 49 34 e6 d9 64 b9 3f 1d 18 08 e1 3b 23 95 bf
       0.09919511671276943 -0.020642219171371424
0004e0 af a4 76 d4 15 48 c9 bf 27 b7 9c 41 7a e1 d3 bf
       -0.19751236795608437 -0.3106370583289952
0004f0 6c 6f d0 1a 63 34 e0 bf ce 80 36 47 56 44 ad 3f
       -0.506394913074002 0.05716199511812335
000500 c4 b2 c7 44 3f ac dd bf 95 9c f5 8e ea d1 a6 bf
       -0.46363813130191667 -0.04457028384313692
000510 55 df 96 04 1a e4 b1 3f 93 42 6c a9 3a 0c d3 3f
       0.06988680469555437 0.2976214079399508
000520 2b 9c 5a 4f 75 b1 b5 bf 02 85 2f dd 58 38 82 bf
       -0.08473904788353141 -0.008896536111878909
000530 b4 93 66 ac ae ca b3 3f 0f e7 8b 26 67 f2 d8 3f
       0.07731143673897983 0.3897951008253679
000540 e2 b2 28 6a 08 cb 9f bf 89 07 1d 9e 9c 9a ac bf
       -0.03104794643347731 -0.05586709432692689
000550 74 05 28 e6 44 63 d5 bf 9f 00 ac fb 67 b1 b3 3f
       -0.3341839072819177 0.07692575353940122
000560 ce bd c6 ab 72 7e aa 3f b1 ad 6e c3 b7 97 ec bf
       0.051745971173086866 -0.8935202424085472
000570 6b c8 46 66 da 9f c3 bf a1 59 f8 8f 52 cf d6 3f
       -0.1533158301732017 0.35640396174985695
000580 45 ea 05 e5 c5 a3 d9 bf 79 5f 25 bb d3 b7 c2 bf
       -0.40062091222322166 -0.14623495710361192
000590 a1 6e e6 cb 83 ee b4 3f d1 b0 db 56 99 7c c7 3f
       0.08176444747953805 0.183489959155287
0005a0 0b 5e 50 8a 2d 48 d0 3f b9 ec 57 67 49 f9 b6 bf
       0.2544053889009496 -0.08974131367715445
0005b0 3a 1e 11 f0 ad 98 bc 3f f3 c2 96 d4 3d e5 d3 bf
       0.11170470343596942 -0.31086679230342823
0005c0 48 85 b1 35 81 01 a8 3f 6c 14 2f 6d bc ed b1 bf
       0.046886480144858356 -0.07003381410238924
0005d0 a1 36 00 28 84 41 d3 bf 10 d9 f4 96 6d a4 c5 3f
       -0.3008737936623707 0.16908044691962987
0005e0 1a a1 f0 61 f1 f7 c4 3f 5d a1 ab 51 29 4d ae 3f
       0.16381661684250376 0.05918244478181365
0005f0 02 fa 39 49 5e b0 da bf 2e 02 7d 4a 21 3d a9 3f
       -0.4170146670439011 0.04929451021462615
000600 be 89 ea 4f a3 63 cc bf e7 eb 72 14 ea dc d7 bf
       -0.2217907085624357 -0.3728585433670432
000610 64 4b 79 97 37 c6 be 3f 0c 95 84 cf e3 8f d3 3f
       0.12021205375758154 0.3056573416273103
000620 56 8d bb d8 33 94 c0 bf c7 c3 1d 5e 33 bb d3 3f
       -0.12952278216026042 0.30830082121888974
000630 27 8c fb bb 9c 19 91 bf d6 e8 a9 38 d6 34 bf 3f
       -0.01669926545481473 0.12189997561827978
000640 80 1d e3 d9 f5 d0 d7 3f 59 98 59 15 40 f3 df 3f
       0.372128927975119 0.49922182164153167
000650 70 38 38 d9 c5 ab d8 3f dc 39 cb b0 e3 7e bd bf
       0.38548418248036054 -0.11521742883926528
000660 0b ed 80 76 30 87 74 bf c2 db 69 4f 29 bd be 3f
       -0.005011739071103759 0.12007387341314682
000670 c3 66 d5 3c e0 eb d2 3f 43 3e 47 6c 4a d1 c0 bf
       0.29564672413617304 -0.13138704573656143
000680 d4 41 e7 e6 3a 7b d0 bf 70 52 9e 86 1b a8 c4 bf
       -0.25752136754183863 -0.16138023446241645
000690 d1 96 0a 41 6d d8 b2 bf 48 5c d2 2d 54 f0 c5 bf
       -0.07361491048740311 -0.17139675366772367
0006a0 d5 df 0a 5e 39 da dd 3f a6 10 51 42 40 c1 b1 3f
       0.46644434150539144 0.06935502642687882
0006b0 61 04 e0 df 4b bc b4 bf 5d be 06 98 50 83 b0 3f
       -0.08099817481708406 0.06450370513516064
0006c0 f7 9b 4f 14 df f8 db 3f 82 57 10 3d 93 48 e0 3f
       0.43706490500920786 0.5088592713025124
0006d0 85 d6 9a d9 0f f2 d1 3f 2e 30 c3 17 22 26 b2 3f
       0.28039928675148246 0.0708943660749248
0006e0 15 ae e0 1a 63 6a d6 3f 29 95 ef aa d6 8b ae 3f
       0.3502433550335991 0.059660633436389006
0006f0 f3 4b 8a d4 63 19 a9 bf f5 ee a7 51 bb a9 d1 bf
       -0.049021835036135906 -0.2759846017286088
000700 63 f7 5d 42 b5 b1 b0 3f 08 21 3a b4 51 1d bf 3f
       0.06521160955705123 0.12154112482142321
000710 04 27 a8 57 2d b6 d3 bf 2c f4 9a 2c 7a 06 db 3f
       -0.30799420891035845 0.4222703395460623
000720 18 3d 93 d3 fd d5 d3 bf b0 f0 68 76 85 73 ce bf
       -0.309936005226477 -0.23790043145880224
000730 26 5b d6 60 f9 b8 79 3f 4b 0b 62 77 e5 ca c4 3f
       0.00627992070567166 0.16244190530059152
000740 fd a6 6b f6 d8 de b9 3f 74 f3 a2 52 96 59 cf bf
       0.10105663314939402 -0.2449214843271893
000750 e1 16 81 44 5f 9c c7 3f b1 ec f1 6e 5d 67 b0 bf
       0.18445959896978706 -0.06407722433680153
000760 3f 2b 79 92 5b b5 c1 3f 8b 3e 0c f5 a9 03 c6 3f
       0.13834709789292707 0.17198681321359674
000770 93 c6 80 dc 11 56 c3 bf 51 59 8d 5a f9 c2 84 bf
       -0.15106414095639717 -0.010137508464748509
000780 0b 43 db 6d e2 8c cc bf c7 3d 2d 7a 7e c5 af 3f
       -0.22304945339285384 0.06205363503851973
000790 b2 87 83 62 01 b0 be bf d4 a9 1f 72 ba ee af 3f
       -0.11987312941667375 0.06236822741614714
0007a0 30 f3 38 72 1b d8 c5 bf aa 35 28 3e f7 7b bd bf
       -0.17065756871479598 -0.11517281787401737
0007b0 aa c7 55 a7 64 04 cc bf 74 5c d0 f4 c3 6b c7 bf
       -0.21888406916292286 -0.18297624067119822
0007c0 82 89 f5 e9 50 30 c7 bf 6c a0 d8 28 76 3d d5 bf
       -0.18116198943887346 -0.3318763159645701
0007d0 05 e2 84 0c b6 11 d0 3f f0 9a b3 6f 1d 84 d5 bf
       0.2510810014969425 -0.33618865879399973
0007e0 37 e1 99 44 81 3f d0 3f b4 1e c6 d6 b4 f0 ce 3f
       0.25387603473020043 0.24172077643401269
0007f0 68 a0 c6 fd 28 b4 bc bf a2 28 0a 56 cf df a9 3f
       -0.11212402530384369 0.05053565907754033

hidden_layer4.bias f8 [20]
000000 2f fc dd cd af 49 db 3f 99 25 39 08 9f bc bd bf
       0.42637248138629763 -0.11615938139688921
000010 22 72 5d e7 07 41 b3 bf 45 bc 24 f9 81 e7 da 3f
       -0.0752110423904431 0.4203801091234179
000020 ee ad b1 21 81 dc d8 bf 3c 49 47 b9 85 94 da bf
       -0.388458521751743 -0.41531508535003403
000030 2c de 1e c2 30 15 e0 bf 82 41 7a 15 6f 55 dd bf
       -0.5025867263238459 -0.4583394727460687
000040 06 34 99 99 a6 a1 b9 3f 01 b3 bb 59 60 97 b6 3f
       0.10012284517252121 0.08824732008697468
000050 7d a5 e4 f9 99 3d e0 3f b0 00 35 9d 7b 5e d1 bf
       0.507519710609969 -0.27139177658319635
000060 b6 f7 88 75 ef e5 c0 3f 9c f4 79 af aa 43 b6 3f
       0.1320170711423409 0.08697001251307984
000070 fa a8 74 d4 bf f9 c0 bf 8f ab 19 b9 aa 18 c7 bf
       -0.13262174485982553 -0.18044027364825552
000080 04 e7 c7 f0 1c 61 e0 bf 0d ac 97 bf 72 44 bd 3f
       -0.5118546202422469 0.11432568719435228
000090 8c f4 07 34 6f bc ce bf db 44 d6 61 70 90 ac bf
       -0.2401255611474976 -0.055789482062331884
