net_param/net_0.16.pth (torch, 17999 bytes, 12 tensors)

hidden_layer1.weight f8 [20, 2]
00000000: a06a 3aa7 f1d9 ee3f c184 6ee1 a8a1 e2bf
00000010: 9a56 5846 2172 0140 ceb4 076a d237 ff3f
00000020: 4ca6 8ecc 1a95 f1bf f2ac b010 837d f23f
00000030: dd75 d0b8 4e5b e83f 8e2a c7a2 6f5f f6bf
00000040: 2487 0404 4841 0140 fedb 071a 6463 05c0
00000050: 08ba 566f cc5d f13f df23 abec 1065 dcbf
00000060: 89c3 7c3a e7d1 ebbf 859a e026 3914 f2bf
00000070: 384a bf37 873c 0340 b3f1 d29e 9345 08c0
00000080: 3170 1336 a60f a3bf 62b7 0712 79a7 eabf
00000090: 262b 9081 6e86 afbf 4ba1 e1ec 634b e7bf
000000a0: 883a 5569 84df e43f 610e 8379 950f cb3f
000000b0: 80d2 e6df ff38 ec3f 80a5 7ff2 4567 d4bf
000000c0: 24b2 353f f519 eb3f bcdd ab42 5413 ecbf
000000d0: 775a f7ff e40b 0240 384d 0f9e b379 f23f
000000e0: 102a 5f4d 31d3 f53f caa6 c4d9 e222 01c0
000000f0: 85a7 73e2 e0fd e53f 6a7f d806 1b7f d93f
00000100: 670d 6e47 2bc1 f13f 11f9 4df2 1b6a 00c0
00000110: 705e 431b 1537 f43f 1907 f5ac e040 f13f
00000120: 5dc6 9ce1 aaf4 de3f f4e6 57a7 5a26 f9bf
00000130: e31e 0293 3472 bfbf 9cab e398 ac89 eebf
0.9641044870544029 -0.5822338488543651 2.180727529116507 1.951128400974358 -1.0989025106922723 1.1556425716360619 0.7611459359792964 -1.3982998236193995
2.156875640285664 -2.673530772557114 1.0854000424548094 -0.44366858589324737 -0.8693729536372398 -1.129937316765479 2.404554782414632 -3.03397296983004
-0.03722876939875198 -0.832943473067399 -0.06157250720578693 -0.727952921542092 0.6522848183902434 0.2114130824394236 0.8819579480246631 -0.31880329782014627
0.846918700653593 -0.8773595144438597 2.2558078763352643 1.154712312146172 1.3640606901486798 -2.1420342457903176 0.6872410223852375 0.3983829085209353
1.1096604147176892 -2.051811116222901 1.263447863098829 1.078339267362429 0.48368331940137016 -1.5718637978411012 -0.12283638562268666 -0.9543059335822934

hidden_layer1.bias f8 [20]
00000000: 1154 744e 1658 aebf b663 3d91 0a8e c13f
00000010: 2b2f 1626 4a59 c23f 40fd 2aa9 54d0 c0bf
00000020: 2e94 5d0e 6d26 dabf 207a 3af2 3346 db3f
00000030: e697 e014 d9e9 c73f 9d29 a60f 0a4d e9bf
00000040: a639 d59a c82f 8d3f c0f3 89ed 2505 ca3f
00000050: f444 bbff f705 eebf 1b9f dd59 bbb2 b1bf
00000060: db84 8bfb 5b7c bebf b0da 500a 180b c3bf
00000070: 9569 b892 9efd d03f 641f 0a67 93b9 cdbf
00000080: 12bb 9c16 c3fc cf3f 1ef5 f5de 6e8d b83f
00000090: c3e8 0291 3d51 c7bf 7ddf fbe5 4251 debf
-0.059265801503137656 0.137147255819199 0.1433499036760336 -0.13135774860527683 -0.4085953369415759 0.4261598458778355 0.1868239738407162 -0.790654211582751
0.01425129625809236 0.20328210924699697 -0.9382286066776531 -0.06913348144518887 -0.11908507243380788 -0.1487760591860101 0.26547970131073245 -0.2322258237002145
0.24990118602860228 0.09590809768083772 -0.1821667631209661 -0.47370979747164893

hidden_layer2.weight f8 [20, 20]
00000000: 4431 dc43 021f d53f bd27 3295 66e8 d0bf
00000010: 9672 cc24 01a5 d7bf fe06 2a0b 51d9 d33f
00000020: 31ab aad5 a47f c23f 73e5 1f0b b967 ca3f
00000030: e89f 80f9 871c b8bf 6e2a ccd4 7df4 db3f
00000040: 0672 1cf8 405c c33f e520 0a73 7c72 c43f
00000050: 87d2 7244 126f c03f ccbb 7f6a 34a6 d23f
00000060: baa5 d098 123a db3f d340 af10 cf8c c3bf
00000070: d9e7 1ba0 1088 cf3f f5bb fb74 4571 8dbf
00000080: 7e9b 9ac1 3f69 db3f 674b 34e5 189a b8bf
00000090: 78e5 65ec a8db d03f 248c c932 6b27 b33f
000000a0: 2fb2 7042 7217 bfbf 0cf6 197c 987e d1bf
000000b0: 4c53 f5f4 0315 ca3f a0b1 2854 0bad 843f
000000c0: dca9 aa7d 1df2 c6bf 9954 a713 ab05 92bf
000000d0: addd 7916 04c8 d33f 4dc6 10fd ec8b b63f
000000e0: e6cd eafd 623a 99bf b00f f803 6ca0 b13f
000000f0: 9644 0721 b4c9 d7bf e52d 1258 26f1 a3bf
00000100: 0831 aa61 6388 cabf dccd cc7b 23df d6bf
00000110: c57a 1031 0967 ccbf 3165 0a01 9496 84bf
00000120: c96a 6d9f e35e b4bf f887 7278 c72d d2bf
00000130: 348d aa93 47b0 b53f d017 3235 f9ee c53f
00000140: c167 ff7b 26a6 c2bf ac50 56f9 222f e73f
00000150: b8a3 c956 4241 bf3f 9ac5 98fd 6156 ad3f
00000160: 5f36 21c5 e275 d2bf fa09 49ed 407e c5bf
00000170: 4e80 17ef 90c6 c6bf 292c 1740 f496 a4bf
00000180: 7cd6 d21c bf44 d1bf 13b4 caaf b0b5 c8bf
00000190: b2f7 c6a5 7d8e c33f dc63 7e6a 2cba b33f
000001a0: 18f3 26a2 7121 a3bf ccf4 4f0e ecfe e33f
000001b0: 18c5 5cfb dee2 a1bf 3697 4e84 0dab d83f
000001c0: 49cb 7f59 8e20 c3bf d4c4 22cc 9473 e03f
000001d0: 7435 8e67 933c d3bf 61f0 713f 0d5a ccbf
000001e0: ee56 ce76 a8e1 ec3f dbd5 6e6f 4ac3 dd3f
000001f0: de61 ccea 753e f3bf 8c25 e000 d2fe fc3f
00000200: fcfc 7ae8 7fc0 fd3f 3c43 2cad 552d d33f
00000210: 9cfa ff43 201e d03f ef34 0725 13f0 0040
00000220: 8540 8173 fda6 e63f cc41 b492 068d c33f
00000230: 8974 855b 66da c3bf b75c 466c 5543 e53f
00000240: 5541 e390 b6a4 f93f 5c1f 763d 21b5 db3f
00000250: 4e00 d7dd 8ed7 c7bf 552b 0ba0 3f8a b43f
00000260: 8ed9 047b 54c6 ab3f 422b 2281 bdd3 c93f
00000270: 044f e532 2d58 f03f 1706 8620 2eb6 d23f
00000280: f955 216b 5fd7 b8bf d418 4699 f6fe c9bf
00000290: e3e7 1618 1090 b33f 38f1 315a 6359 95bf
000002a0: 147d 46c2 ffda c03f 4b33 d828 3253 d13f
000002b0: e4f7 4d21 8705 99bf 162f 7496 98aa cebf
000002c0: 3dcb 7072 6439 d4bf cd39 0ad1 5a7a a7bf
000002d0: 455e b17f 04fc dd3f 07ed 7f6b b993 c73f
000002e0: d77a 13f0 08c9 b7bf 8f58 6dbc 766d ba3f
000002f0: 8875 5df4 3a69 cf3f db5e 632b 3bd0 c83f
00000300: 1875 8724 fbd1 743f a5d4 d512 5181 bc3f
00000310: 731c 4823 b49e c93f 291a 5bec a2ed ce3f
00000320: e337 945a b1d4 b43f b292 1d68 7c2e df3f
00000330: a6bf 565a a185 a2bf 7e9f c8f8 1752 93bf
00000340: 87fd 9056 9f0c a4bf f947 5a1e 8e74 c7bf
00000350: 39b7 ca28 dd59 b1bf ff5f 7d92 8838 943f
00000360: 3fe2 dbbf 4f89 d8bf d9b6 48ef 62a5 bb3f
00000370: 5e26 e9b6 5450 c23f db2b eef3 20e5 d03f
00000380: fb3e 6bfc 0feb d73f 5520 0ea6 5f87 d93f
00000390: faa2 1fdd c69e a3bf 0f9c ba71 38da d33f
000003a0: c1ea ad60 8345 cabf e8d2 431d 5e6b db3f
000003b0: 7781 b078 869b bfbf aabc adb5 0e18 ccbf
000003c0: 21db 31e8 b7b9 e23f 44ec 204c 9da1 e63f
000003d0: d248 fa1f caba debf f7e4 c15c 1871 c63f
000003e0: a2f6 a083 d7b7 dd3f 046d 96b6 4868 a43f
000003f0: 6146 eee1 81c8 e3bf 0796 a9e4 5298 dd3f
00000400: 1cf5 d4a1 c5d8 b2bf 349c b615 de49 c5bf
00000410: cbee edae 83a7 c93f 0ac7 bc55 4419 e03f
00000420: c139 7cb3 f53f e93f bac2 a182 7f7d f23f
00000430: fd5b 4b54 3690 903f b063 1357 c276 e33f
00000440: 74ad 367a 992c d3bf ee89 13b0 c413 d03f
00000450: d05a 76bd f6f9 ce3f b580 313a dc8d 733f
00000460: 4122 53db 30a3 cebf a6f0 5be2 96a8 c9bf
00000470: 20af f99c a999 c83f 5374 2698 7733 be3f
00000480: b210 48f0 bd56 153f a1b0 cf3d a7f1 e1bf
00000490: 43c2 69e9 82c4 97bf 10b5 d83d 7dc5 b23f
000004a0: 77eb 8bf9 72eb cbbf 0343 4e60 e171 9abf
000004b0: a17a de8e 20fb c63f 98a2 b087 22d0 dabf
000004c0: 59bc a7bd c6ca 6abf 0127 af5b dc43 babf
000004d0: 1379 2521 bc35 bc3f dcc8 691c bf1e 95bf
000004e0: da91 6e69 d5ea 8cbf efc3 bea8 dee9 a5bf
000004f0: 2ce0 1f0f 0cc0 c5bf 2f3d 866a 98e1 bb3f
00000500: cc7e f7c6 db5c d03f 0fb3 c6ba a6d1 d8bf
00000510: 087e a428 d7f8 e2bf 5d3e 1bd8 71c3 e03f
00000520: 2961 9e2d 6abe d93f edd9 3700 8641 d43f
00000530: 9dc0 8b57 3244 d63f ccdc 58ea e571 c9bf
00000540: 8195 7d35 f868 e63f dd52 ec86 146e c83f
00000550: cf5f a677 5d5a 8fbf 4369 f34a a8c0 963f
00000560: f349 346e 9347 d63f 778d 1845 24ad e5bf
00000570: 11d1 8413 cc22 ec3f e009 6602 83ad bb3f
00000580: fe87 84c6 b71e e43f 7dd0 2de4 d3e0 e0bf
00000590: 1fae 3e58 b5d7 e13f cede 37f5 a61a c13f
000005a0: 650c d119 527c d0bf 82d3 e00b bbee a5bf
000005b0: 5516 5547 33b1 a6bf 3b47 95f8 4364 d1bf
000005c0: 510b 7ea0 515f a0bf 34a8 1d1b e7c5 cabf
000005d0: a341 8b02 3f30 d93f 636e a865 7baf cdbf
000005e0: 06ff e866 cbdc c53f f85c 6274 2b7d d43f
000005f0: cf4e ab3b 4e73 d1bf f26a a536 2a31 97bf
00000600: 5fc9 1330 42fd b13f 9b8a 0a6d 3c73 813f
00000610: ac98 9963 9f9b c23f e699 0da1 6e9c c8bf
00000620: 0969 7266 2939 97bf 1aff c0ef 951b cbbf
00000630: 2684 62d5 4f81 bd3f ea98 2969 896d c6bf
00000640: a6d1 2018 a81d c0bf 9994 e828 ad2a e0bf
00000650: d7f9 365c 1132 d33f 5afb 2ae2 0e4c c8bf
00000660: 1650 681a 69bc cbbf e48f ead4 0475 d1bf
00000670: 5859 466d 13ae a7bf 636c ac0c 278a dbbf
00000680: 5f9c eb47 4598 a6bf 2603 4099 a2bf d0bf
00000690: e2a8 97e3 7918 cf3f c944 5018 3d7f cdbf
000006a0: a67c 70e0 fa07 bcbf 49a7 5f50 c660 b4bf
000006b0: 9659 3033 9cbf d63f cbe4 a62b 082f be3f
000006c0: e897 424f 3b6d d63f 655b 4435 8a18 afbf
000006d0: 8bc3 2fa4 925c c83f 90d7 a0f3 473b d33f
000006e0: ece6 f880 31bd bbbf 60f7 90be 3e3b d3bf
000006f0: 6368 b0a6 7d8e 833f 0d73 5b38 cccd dd3f
00000700: 02ee d110 3544 b03f 9db0 2312 af2b cfbf
00000710: 5fd8 8762 31e1 c13f 3bb4 b345 845d e2bf
00000720: cc62 4261 a00d b83f 6c46 1f19 dae3 a8bf
00000730: c863 81ed c705 d63f 7f44 55f8 6a44 8c3f
00000740: bc07 16a8 b30c a63f 8275 6fcc e308 dfbf
00000750: 5926 d9e5 c626 dd3f 1b06 e6d5 cded c33f
00000760: 6aaa 0af5 e8da d93f c4a1 7c06 9ecc d3bf
00000770: 783c 2ffb 10fe d83f 1b46 be97 47b8 df3f
00000780: 67f0 1835 ddf0 c43f 7e72 1862 f095 e9bf
00000790: 18e3 37a3 9e6c d3bf 5d93 b857 71c8 b03f
000007a0: f0a3 992e b4c4 ae3f 23b6 9a74 08b1 aabf
000007b0: 1bc0 e68e dbbd c23f 3c32 b4f8 6dda e6bf
000007c0: 2643 d655 4c6a b83f c0f5 9a6b 7f53 b73f
000007d0: 9213 ab61 4074 db3f 97a7 2b77 ad28 cc3f
000007e0: 574f 538a 5b69 ce3f e6ef de1f a3a8 dcbf
000007f0: fdc3 ace5 9b61 e53f 7adc 7476 5872 d33f
0.33001762988057615 -0.26418461389459563 -0.36944607347121783 0.3101389512086 0.1445203822416601 0.20629036944573506 -0.09418535081260837 0.43679757863052415
0.1512528621177724 0.15974383942762596 0.12838962881291513 0.29139433288849825 0.4254194729170099 -0.15273464502980136 0.24633987253019887 -0.0143762041402322
0.4282988920844487 -0.09610133739287861 0.2634069737028635 0.07482023229526696 -0.12145151254726082 -0.2733517848899687 0.20376634083609202 0.010095680719211242
-0.179263769493743 -0.017599747728884372 0.3090830058567587 0.08807259729726376 -0.024636790035129773 0.06885409447573809 -0.37168601251057376 -0.03894920182309728
-0.20728723782338698 -0.35736929979176835 -0.2218944062778602 -0.010052830011135857 -0.07957289354582565 -0.284044139503862 0.08472106318599942 0.17135539147801504
-0.14569550566267078 0.7245039815775463 0.12208952540244311 0.05729967327750814 -0.2884451794715001 -0.16791545473286346 -0.1779347579422414 -0.04021418840746833
-0.26982095541766404 -0.19304474433502658 0.15278597445097614 0.07705953216499445 -0.037364531558955416 0.6248684196031262 -0.03493401354206521 0.38544023438076935
-0.14943103189542686 0.5141090380695013 -0.3005722533497057 -0.22149816129592906 0.9025461502485237 0.46504460222362604 -1.2027491733371032 1.8122119936182086
1.859496982695247 0.29964200889030557 0.2518387474118897 2.11722401550525 0.7078845268206498 0.15274126208579586 -0.15510253399671495 0.6644694437735755
1.6027131709743874 0.43293028833476455 -0.1862658103182206 0.08023450524630722 0.054247512833558095 0.20177429967255917 1.0215274799456333 0.29236939598203676
-0.0970363270328888 -0.20309336170266212 0.07641697490808456 -0.020848801021643854 0.13168332086659318 0.2707028769371404 -0.02443514958167005 -0.23958117815379215
-0.3160029523452755 -0.0458553676772798 0.4685069319725453 0.18419568776139547 -0.092911299335792 0.10323278522750655 0.24539887363327417 0.1938547098022728
0.00508306601156263 0.11134821615071873 0.20015575144518358 0.24162708798230995 0.08137043439293694 0.4872122780564424 -0.03617576816338834 -0.018867849883605008
-0.039158801381286294 -0.18324448091567527 -0.06777746435065247 0.019746908131622828 -0.3833808301565433 0.10799234716315755 0.1430765050047737 0.26398490735362906
0.37372207308088407 0.3988875505097032 -0.03832074593794306 0.3101941214212624 -0.20524637432739293 0.42842820032028195 -0.12346687742729566 -0.21948417540577242
0.5851707015088757 0.707228325546915 -0.48015072939700787 0.1753263905446045 0.4643458161770956 0.03985812405445624 -0.618225995322245 0.4624221070319838
-0.07362017823193806 -0.16631675777645827 0.20042463342166736 0.5030843424376326 0.7890575891086017 1.1556391814048497 0.016175125975532712 0.6082469654748959
-0.2995971387378724 0.25120656199410873 0.2420032906636238 0.004773960364303932 -0.23935518941131487 -0.2004574399251215 0.1921894089203926 0.11797282662014767
8.140119832239742e-05 -0.5607486922504173 -0.023210568901449468 0.0733259464256728 -0.21812283692255693 -0.025825044158014353 0.1795387933352304 -0.4189535451028319
-0.0032705194146199043 -0.1025979732359268 0.11019492921102296 -0.020625101193623915 -0.014119784622217791 -0.04279990968587543 -0.16992331255437543 0.10891106224720624
0.2556676333460757 -0.3877960990892441 -0.5928760331916587 0.5238579960659525 0.402246994542582 0.31649923344903536 0.3479123930874353 -0.19878839438181328
0.7003136677491711 0.1908593806080238 -0.015309076513219026 0.02221930463279277 0.3481186462605869 -0.6773854589013543 0.8792477017618997 0.1081163292747429
0.6287497403429823 -0.5274447876568186 0.5575815890819661 0.13362585996195836 -0.2575879337420644 -0.04283699531553166 -0.04432068105465407 -0.2717447211808694
-0.031977225152351914 -0.20916451286331184 0.39356971023974036 -0.23191778625265433 0.1708006145945477 0.3201397549214131 -0.27266269518916614 -0.0226484866956111
0.07027066873323438 0.008520576551125194 0.1453742252662712 -0.19227393020555822 -0.022678992154944875 -0.2117793484376243 0.11525439223852682 -0.1752177966583937
-0.12590504816183773 -0.5052095221514207 0.2999308968100229 -0.18982111018518816 -0.21668733395984024 -0.2727672652492841 -0.046249968613823966 -0.4303071616902285
-0.044130482701626 -0.26169648137879375 0.24293445218001525 -0.2304455155104164 -0.10949676494100177 -0.07960166418311333 0.3554449558154372 0.11790515008660234
0.3504169725441657 -0.06073409939033673 0.19032509819910745 0.3004932288343918 -0.10835561178910397 -0.30049103364932783 0.009549123429725087 0.46568589690814194
0.06354076061864336 -0.2435206259318691 0.13968484221522012 -0.573915611397417 0.09395792364592664 -0.048613372389479576 0.34410284227265864 0.013802371696018277
0.043065656917874645 -0.4849175926627468 0.45549175687901805 0.15569470352424805 0.40398620538568386 -0.3093638480518417 0.39050697831857617 0.4956225377910372
0.16360058872840286 -0.7995531001975704 -0.30350461901939374 0.06555851356149618 0.060094481171127145 -0.052131904825142315 0.14641899564367197 -0.7141637666223413
0.09537198157910307 0.09111782433588811 0.4289704278747247 0.21999138182519282 0.23759025816127163 -0.4477927981604338 0.6681651578747957 0.30385409896866344

hidden_layer2.bias f8 [20]
00000000: 970b 8415 32b7 cb3f d849 f7d4 0687 ca3f
00000010: df45 45be 3bac d0bf 17de 1a65 d508 cdbf
00000020: 8d0e 1612 9984 bebf f998 7870 d34d c6bf
00000030: 1a2b 1f57 a815 b33f 8fc1 3cb0 654b cabf
00000040: 7de8 922b 2104 c7bf 51f4 f0bb 19cd a63f
00000050: 4b65 0e8f c462 d4bf d4f5 ac18 aa32 bbbf
00000060: 0926 0e02 0bd8 c9bf f7a6 75a7 f4a6 d0bf
00000070: 3838 5141 f2f1 d13f ddc0 a6db 487f ce3f
00000080: a8a1 c0a5 e040 753f 7604 0465 809f c8bf
00000090: 5d5d fe62 df4f b4bf 5be1 fa0d a4e9 d0bf
0.21652818728042852 0.2072456874726203 -0.26051229077446963 -0.2268320792843361 -0.1192107838779128 -0.17425005904915006 0.07454921843524823 -0.20542594056452088
-0.1798135245097149 0.04453354281620448 -0.31852830858550324 -0.10624182798797871 -0.20190560913424374 -0.260190166029687 0.28039223078383513 0.2382594177738672
0.0051888251582926995 -0.19236760075003517 -0.07934375922046884 -0.2642603050731133

hidden_layer3.weight f8 [20, 20]
00000000: 53d7 ae6f b9e5 9e3f 7f28 9d99 7fe0 b03f
00000010: a022 13a2 362c b83f 3a6b 7156 699c d13f
00000020: 9e7e 00de 8526 c3bf 8982 afab 80e8 a03f
00000030: 0515 10c3 00f0 ae3f 879d 8ba4 f408 a73f
00000040: ba17 4548 2ff0 d4bf 3cad f176 eeae c03f
00000050: 7438 56ad d770 d1bf d9e3 b683 0b46 b4bf
00000060: b45c f01c d405 d2bf 8e6e 10cf 0561 d2bf
00000070: 6e7c 7078 b6ff a43f a2a9 168c b534 d33f
00000080: 1c30 b8c6 3c4c acbf c0a7 d4d0 76a6 b5bf
00000090: a618 5e70 7e78 b0bf d0ea f58f 13c8 d13f
000000a0: 72de 9e00 a365 ee3f 0f13 24c6 41f2 cdbf
000000b0: c49d a2e3 c61d d5bf 6b86 52bb 1ee0 ebbf
000000c0: b220 2cff 0abb d43f 81c5 d4db ed25 be3f
000000d0: 2694 b50c d2b7 af3f 9f5c a864 3ba2 aabf
000000e0: a861 58e4 f6aa f13f 3caa fb09 cd60 d0bf
000000f0: 09f3 9569 b24a d13f 85b0 a798 98fd e73f
00000100: b7c6 83d4 93be e53f 320a 407f d209 d33f
00000110: 30f0 2734 6eec c43f ae13 7d01 09de dabf
00000120: 7117 c786 ee61 cbbf 1b3e abcc 2379 c63f
00000130: 00c2 d848 6728 d73f 1123 49d7 0474 cf3f
00000140: 4484 4c4b 42e6 d5bf 16e8 de82 dc68 c6bf
00000150: 0416 f2b5 736e dc3f 3ce2 7a24 0209 d5bf
00000160: 4a2a 54e6 3ff0 b73f ba11 4cd0 ab86 d33f
00000170: 443b 7ba2 7b12 b63f 3ea1 a94d b986 9cbf
00000180: e9db c398 86d6 d4bf d2fb 62d4 dcc3 a13f
00000190: 72c3 3026 9acb b93f 5f64 6743 825b c9bf
000001a0: c116 a593 d9d8 c1bf ca07 ef6a ab11 9bbf
000001b0: d210 0d24 a104 da3f 250d 51be 8139 b5bf
000001c0: 7b9a f01a b2a0 dbbf 20dc 10c3 78c4 bbbf
000001d0: ef2e 4be4 483f b33f a631 1285 e134 b83f
000001e0: 4976 cd5b 1239 c53f b410 776c cb3d b73f
000001f0: b318 6e12 3a4b ccbf 4ed2 b649 e355 b2bf
00000200: 5d2c 2b7f 1e8e 933f 111c 3064 2100 b9bf
00000210: bb53 6a55 2cfb b03f de39 f0f7 ea76 933f
00000220: 7f1f 769d b4f5 bfbf a37a 1e33 940b cdbf
00000230: a3c7 cd1e b186 bdbf 53e2 4abf 26bb babf
00000240: 26db 8424 f5d5 d03f 6557 3b54 dc95 cd3f
00000250: 3931 2e22 7982 7fbf 3a39 0295 592c 903f
00000260: 7761 a51a 12dc b53f e9c4 ed20 8065 cabf
00000270: 24b9 ce2a c16f ab3f 61fd 9860 f0db d43f
00000280: d6fd 486d 910d c13f 5e15 d220 eab2 b0bf
00000290: 761d 9716 c5fc bbbf 03ea c09d 629e c73f
000002a0: 07da 46e4 3f0c c9bf bbee c11b 19d3 c43f
000002b0: 872f fd04 a624 b6bf ce82 ab3e 63b5 b13f
000002c0: b691 cc64 7edc c5bf 847f c193 b274 b7bf
000002d0: 0a54 3e82 f162 b1bf 5f3b af43 db00 9bbf
000002e0: 9059 11e8 938b d1bf 4422 952c 4333 a63f
000002f0: 755b 7412 289d d03f 0375 8cd5 3240 c33f
00000300: b364 1a40 703e d43f 5e57 7032 93d7 d33f
00000310: c23a 8205 2a5e b4bf 451e 53ca 5107 c43f
00000320: f77d 69ad 56fd c9bf ae41 19ea 18bd c3bf
00000330: 4594 0c57 e841 c13f 8253 4c34 9a9e c23f
00000340: 15c9 b57c 35a6 c2bf 119f ba21 6c13 90bf
00000350: 8d15 c951 3d8b c5bf 90c4 50be e2d9 9d3f
00000360: 3c22 54de ba81 d0bf 0bb4 c8eb 33e1 c2bf
00000370: 9ab2 4b7e 1c09 c43f b899 f45a 1f0c d5bf
00000380: b7ae 7e04 03c7 a5bf c98b 13ab 8d5a 903f
00000390: 2b8b 854b 7710 d23f b674 d70b 711e bf3f
000003a0: c193 f591 9e56 cebf 6af0 e22f 91f0 c0bf
000003b0: 1336 000d d692 a3bf c8be 5db9 3c9d a23f
000003c0: e307 6a3b 01f6 d53f 0218 99a7 d101 d23f
000003d0: 8672 49a9 06ca 6a3f d535 c29a dec5 b0bf
000003e0: b7b1 69af f504 b1bf f15d 5d4d 1f11 d1bf
000003f0: 5a07 407c 0a54 b0bf c2ff 07f2 2aea d5bf
00000400: 8fb1 2e7e 8c03 c23f a5e2 1a82 661c d03f
00000410: 8fa6 a7d7 31c6 d3bf 0b77 72be baec cbbf
00000420: 240a 6983 21fc d0bf 15af 3bb7 ceae d5bf
00000430: 7f96 71a8 2a15 af3f 0cb3 ea09 2ae9 a23f
00000440: 523f b2da fd41 c13f 6365 6cf8 f738 be3f
00000450: d713 281c 7a17 d73f cca9 9e84 3236 debf
00000460: 76cc a804 40d2 b0bf 41ae 6254 2936 cebf
00000470: 8551 ebc8 a6a9 c53f 52a6 1e73 f533 d03f
00000480: 6835 7eff 26b6 d63f 3f9b 68ef afcb c83f
00000490: 0def 7bfb c89c b6bf 6904 2d79 2cc9 d8bf
000004a0: b8d5 9e96 e010 d0bf 59eb 5b65 ae49 c2bf
000004b0: 6b2a 041e 7826 bd3f 5249 a723 2d46 b9bf
000004c0: 2edd 3dba 5663 43bf 0a7b 8c09 ed5e a53f
000004d0: 83d5 040a 62b3 c43f 9eee 372d 3e8a b13f
000004e0: 3167 3a36 0974 c0bf 8e29 e005 9d6e d73f
000004f0: 555c 9a66 77fb c33f c09f 4ca7 02ae b7bf
00000500: 13ac 54d9 72d3 d7bf e01f a01a 8dc5 99bf
00000510: f93b 593b 77d1 b73f 6e81 a8cb b244 d83f
00000520: 6322 1c02 8c5d a4bf 5fdd b447 193a b03f
00000530: f8a5 19dd 4196 943f 9d4c 6f9c df9f babf
00000540: 76cd 450d 8f5a e0bf df9f afe0 b653 b7bf
00000550: 7244 679b 82dc c13f 5ef6 ff87 8e84 b5bf
00000560: ebcc 748f 2478 e2bf e816 8b42 b13a cbbf
00000570: b2b6 e147 699a d8bf e6b9 66c6 2714 b53f
00000580: e8b9 5cd9 c227 96bf 8236 799e 0a2f bcbf
00000590: d664 d5ee 818a dcbf 007e 8ae5 ad06 d0bf
000005a0: ce96 2a20 a37a aebf df55 b9ee bbb6 d1bf
000005b0: 7099 3ea2 b909 c33f 95ff 1505 669c c8bf
000005c0: 1574 3169 068e d13f 399e f875 87f8 b4bf
000005d0: 4940 a5c0 d003 a1bf 5c59 2adb 4480 953f
000005e0: e4f1 799a 5193 d43f 5edf 6a54 c182 a53f
000005f0: c464 74c7 24d2 d03f fbe3 018d 0683 b63f
00000600: 9edb c692 57d1 d93f 5b27 1bcd 5b3f d13f
00000610: 13ee 443f 89ef b4bf 9c24 e531 f56d cb3f
00000620: 1ed7 e728 7c94 93bf 14d1 7dfa 956f d13f
00000630: b1d0 928f e73e c13f 41cb 0b76 8282 d43f
00000640: d5a4 b7cd bf69 8e3f 30c6 f9b4 fee5 b93f
00000650: dff7 6cbf f83b c6bf e584 267d 34d0 a4bf
00000660: 5621 3741 66ce d7bf ff3e 1715 1c3e d1bf
00000670: 6479 1ac9 eb05 2bbf 237e fc41 24e5 abbf
00000680: 22b9 8953 fc8c 9c3f 6500 9f40 12b9 a93f
00000690: e292 a9a4 af35 b23f 9847 8f14 fdee d9bf
000006a0: 417d 6b8d 102b 7dbf e82b 28c7 6eb2 ccbf
000006b0: ab77 2e69 3ef8 babf 03ae 2712 7a7c cabf
000006c0: 6fbc 6333 ae2c aa3f e855 c032 de3e d63f
000006d0: 7ef8 547b 512f 98bf f549 39d1 18c7 d8bf
000006e0: 23e4 f516 ee36 c5bf 661f 3a52 ec5d d3bf
000006f0: fb4a 1d06 a0cb e43f 7570 c52f 397a dc3f
00000700: f1be 2fcd dfcd bbbf 26e3 6019 2b96 d83f
00000710: ea3e 6adc 9b56 e13f 68ac fc24 4e60 a33f
00000720: 3b63 bb67 bf49 e4bf c8f3 a6d8 73a6 d2bf
00000730: 92c2 f303 b348 9f3f a2cd a1e7 6dbe d1bf
00000740: 188c 45d9 a2e6 e5bf 38cf 7d47 bfcf d63f
00000750: 37a6 6795 db4a e7bf f2d1 7fc8 e799 e23f
00000760: 4a1e e300 227f bcbf 0cf3 0d82 6939 923f
00000770: 7fb6 d538 95b3 c63f eb82 4428 c8a2 c73f
00000780: f063 4a04 0689 d8bf c5f2 f5b4 bcfe 893f
00000790: f5e4 e6e4 5740 de3f 341c d25c 188a de3f
000007a0: e48d 5c1d 9cb2 e0bf fb78 b71f ecba d23f
000007b0: 5685 1eac d9e5 d03f 4b62 1092 3b88 cb3f
000007c0: aff9 5e27 0202 dbbf d661 0a3b c54d ca3f
000007d0: 6985 c1c8 9442 bebf 7e64 6e4b 0ad5 c2bf
000007e0: 7d31 0bac 8019 d9bf 1dce 95d1 f49d c9bf
000007f0: cd53 3a23 3184 babf f11d f21f 7990 d03f
0.030173203889453614 0.06592557430590949 0.09442464310553556 0.27517159883216247 -0.1496131261819657 0.03302385421534832 0.06042482739580105 0.044990201078515084
-0.32715971047980086 0.13033848579230234 -0.27251235892698067 -0.07919380155261936 -0.2816057474714839 -0.2871717950926972 0.041013433649134665 0.300092112355424
-0.055269145257710955 -0.08457129095464122 -0.06433859103535386 0.2778366952767728 0.9499068271752107 -0.23395559477662473 -0.3299424384117311 -0.8711084040298379
0.32391619605233324 0.11776625267954978 0.06194931416647646 -0.05201898196917764 1.1042393607841436 -0.25590826010617085 0.270184138403963 0.7497065526527115
0.6795138502768258 0.29747450281880383 0.16346528574638475 -0.4198019518410615 -0.21392613964979604 0.17557189458465036 0.36184103120743316 0.24572811614987036
-0.3421788916912798 -0.17507511511013324 0.4442414547741864 -0.3286748272180693 0.09350966809521669 0.3050946745063602 0.08621952740507505 -0.027857680668973865
-0.32559361380066193 0.03469743816957983 0.10076297218689748 -0.19810512820439194 -0.13943023404333668 -0.026434591676441056 0.4065325595913808 -0.08290873428727659
-0.43168308859677723 -0.10846667063093252 0.07518439839912693 0.09455689905934736 0.16580419046924735 0.09078666112970063 -0.22104574108033645 -0.07162304448758869
0.019096828948743972 -0.09765824028009741 0.06633259854636624 0.019008323080976434 -0.1248429188182154 -0.22691586013839524 -0.11533648492857522 -0.10441820306994858
0.26305893484407006 0.23113588440781566 -0.007692788293649771 0.015794181556480803 0.08538926268136558 -0.2062225495133483 0.05358699462463992 0.32592400964127505
0.13322656475246103 -0.06523001958165284 -0.10932571221848328 0.1845210333138568 -0.19568632742239364 0.16269220214222976 -0.0864967119388763 0.06917400627163348
-0.1707914344962213 -0.09162441356011014 -0.06791600637218678 -0.02637045479405786 -0.27414415037983364 0.04335985106678611 0.25959207346152563 0.15039668490582167
0.3163109422690226 0.31003265309970185 -0.07956183084955185 0.15647337321409985 -0.203043780015818 -0.15420829229925687 0.13482383966871417 0.1454651599275643
-0.14569729413376167 -0.015699090536741404 -0.16831175321037187 0.029151480546890485 -0.2579180880716512 -0.14749764454737177 0.15652805487424787 -0.32886489755983517
-0.04253396444195572 0.015970433775588853 0.28225500464593506 0.1215582517538277 -0.23701841475408794 -0.13234152639586522 -0.038229645812048706 0.03635587466021445
0.34313994218984883 0.2813610207271041 0.003270161638552263 -0.06551924970900498 -0.06648192913571092 -0.2666700606837074 -0.06378236325693135 -0.3424174655519857
0.14073330079316945 0.2517334242398113 -0.3089718442921389 -0.21816191004921168 -0.2653888495734995 -0.3387944020639549 0.060708363592124386 0.03693515177778836
0.134826404366772 0.11805677237534477 0.3608079218832336 -0.47205794287824854 -0.0657081614852347 -0.23602787609466883 0.16923985300548963 0.2531713127342289
0.35486769628990666 0.19371604146837204 -0.08832985057591376 -0.3872786696775337 -0.2510301085379427 -0.14287357281849714 0.11386824353045603 -0.09872705574460852
-0.0005916760896828349 0.04173985234796447 0.1617243336601569 0.06851566890684999 -0.12854113719805008 0.3661263043765296 0.15611164579306328 -0.09249893745857118
-0.3722808000918018 -0.02516766047486374 0.09303994368495684 0.37919301880358247 -0.03977620626216518 0.0633865165772156 0.020104436035046164 -0.10400197571952892
-0.5110545405608906 -0.09112112985133035 0.13954193676048338 -0.08405390568074142 -0.5771658708457869 -0.21272865056214774 -0.38442451495834995 0.08233879655629259
-0.021636051670776896 -0.11009279602986946 -0.4459538299902993 -0.2504076711283858 -0.059529397656019264 -0.27677820504081113 0.14873428747268802 -0.1922729039033554
0.27429352066775553 -0.08191725378184679 -0.03323223449353969 0.020997119786067983 0.3214916237409666 0.04201320796477036 0.2628261516379775 0.08793679182589635
0.4034022267691685 0.26949210195436074 -0.08178003115329373 0.21429314552577672 -0.019121112820321355 0.2724356600003983 0.1347321940462556 0.3204656746667532
0.01485013815450246 0.10116569441176959 -0.17370519015270156 -0.040650978352695856 -0.3719726216190983 -0.26941587505005765 -0.00020617011300756293 -0.05448258691307852
0.02788156757235883 0.050240106952970355 0.07113168497160019 -0.40521170623571257 -0.007121147783180349 -0.2241953346677683 -0.10535039966495556 -0.20692373167490538
0.051122134946006585 0.347587155877902 -0.023618004944403463 -0.3871519129944823 -0.16573883172148482 -0.30260761289581806 0.6498565787718172 0.44495992341194973
-0.10861014136730397 0.38416554907193967 0.541822367189494 0.03784412576200041 -0.6340024019255915 -0.2914094558471416 0.030550763241026298 -0.2772478830367736
-0.6844038241946491 0.3564298818739533 -0.7278879087509215 0.5812872806550884 -0.11131489297542277 0.017797134936233625 0.1773554351342916 0.18465520826523316
-0.38336325091364554 0.012692903778537165 0.47267720559791765 0.47717866005445164 -0.5218029569118099 0.29265883538563714 0.26402894791143205 0.2150949919894337
-0.42199758381675684 0.20549836523856752 -0.11820344830768693 -0.14712647135891993 -0.39218155671257887 -0.20013294442797838 -0.10357958898596493 0.25881794089988747

hidden_layer3.bias f8 [20]
00000000: 9861 929d 2d92 c43f d83c d65d d100 d2bf
00000010: ab72 1bc5 9d31 c9bf 38a6 3b03 b943 af3f
00000020: a5ae f5d0 72d0 b3bf e11d 39d5 7662 a73f
00000030: dcfc e71d ba81 b4bf c4ca b4b4 6ece aebf
00000040: 8e9e f875 75e7 d03f bb12 d4ac 0528 a13f
00000050: c0e5 47ae 918e c23f 76f8 9ef7 8a7e 74bf
00000060: 0144 9351 6fd9 cd3f 8005 5898 effe b73f
00000070: 711e b66c 2a3a c13f b279 b76e bc10 d2bf
00000080: 1e96 1d44 cb7a b4bf 4492 4947 d5e3 b0bf
00000090: c086 5ad1 a6b1 bdbf d6fc 0fde 3aad a2bf
0.1607110041993678 -0.28129991687542377 -0.19682666897178555 0.0610635582396068 -0.07739942170672494 0.04567309716054147 -0.080104477216071 -0.06016870456587278
0.26412712593671805 0.033508469912737 0.14497586259657957 -0.005003493157287866 0.23319808467070405 0.09373376340228923 0.13458757694410253 -0.2822714883058338
-0.07999868786790684 -0.06597645750441311 -0.11599199877903299 -0.03647788964007652

hidden_layer4.weight f8 [20, 20]
00000000: 49d3 215c 4b2c b13f a488 d172 3670 8a3f
00000010: 80c9 4aad 7a2e afbf 3e68 9ced e514 b2bf
00000020: 04d0 ae59 6531 98bf 105d 40a6 eb71 b13f
00000030: 51e8 19c0 f276 c43f 5475 9b77 007c b6bf
00000040: 9d00 5abc 4ce1 7dbf fd94 bcfc bd70 cf3f
00000050: 6523 71e0 be71 c9bf c8e6 1c82 350f 883f
00000060: d6ec 471f cbad a53f 86ce d415 40eb a9bf
00000070: e94a e537 3de2 abbf 97e4 7597 21be 9d3f
00000080: cfea 60df e80e 913f e87b 6225 c6f6 6f3f
00000090: c0cd 79f8 0a8c a03f c4fb 6b89 4683 c93f
000000a0: d845 b397 a797 9bbf c978 18fb 0e3f 893f
000000b0: f8cf 3057 a12b d5bf 13e6 e180 e683 adbf
000000c0: f1c2 9213 68f2 bc3f ce83 6f26 09c6 c4bf
000000d0: 1e09 ce42 3813 b43f c06c 8053 d6c8 d6bf
000000e0: 9973 0a5b 149a aebf a84f 484e db90 c23f
000000f0: ae63 8c41 064e b3bf 159b a29b 264f a4bf
00000100: 82bd 33b3 cb38 b43f fe53 282c 4f45 b33f
00000110: b947 8563 07aa e2bf e844 97c4 5eca a73f
00000120: be40 dcab 08d3 d03f e2be 0f7a 681e e03f
00000130: 52bd 8dba 62e3 b8bf 3fe2 b3a0 d86d b93f
00000140: ecb9 8851 984c d13f bed2 7e3e 9d80 9ebf
00000150: 1186 a78d 69c9 993f b25c aebe 5941 b63f
00000160: 3ea2 1488 7a81 c5bf 2470 e0d5 16b8 b3bf
00000170: f0d1 1f37 be9b c93f 518a 37ce d26f bc3f
00000180: 9091 e925 39d1 a4bf 9b55 732d 3069 7abf
00000190: 4bf6 ae23 f398 b6bf c458 0347 2fa9 b0bf
000001a0: ece5 cb68 ba19 a5bf 484a 504f 1ed9 c63f
000001b0: f48d 2523 23b5 a33f d27a 53c4 6736 b7bf
000001c0: fae5 f5c4 820d 85bf 9577 e992 fb56 a0bf
000001d0: f99b 457f 203d adbf 01bb 330e 9ebb bbbf
000001e0: 085a 95e6 f0af b4bf c289 2336 4c5e c3bf
000001f0: b1ed 0eed 0c37 823f e42d 53b9 a7f7 c1bf
00000200: ca99 adf9 82fb c9bf 7169 21d9 1490 9dbf
00000210: bc06 68ce 1f98 df3f 57cb c739 b40d c6bf
00000220: db7b 0e34 a8c0 afbf fef5 8c39 a2aa b5bf
00000230: 0d9d e039 f854 cf3f 7a0c e9ea ab89 aabf
00000240: e47d 8347 3b57 babf 0bdd 882d 876d c63f
00000250: 0413 78ab 1934 b2bf ab33 f8f4 958c dbbf
00000260: 4def 5771 08b0 c7bf d51f 5796 5f7f b93f
00000270: 598e 7793 b807 d53f c13f 0001 3f2e d53f
00000280: 46a1 7b81 1a2f c7bf 4deb bc08 171b acbf
00000290: 1812 36b0 bdc2 82bf a23c 8fa2 6b85 c5bf
000002a0: 15ed e8c4 0a3f 48bf c433 85f7 4092 953f
000002b0: 3fc4 9ec0 c9a7 a1bf 44ef e643 7bec b63f
000002c0: ae5c 2149 c9d2 b93f 3402 8cb4 75d7 ab3f
000002d0: 7866 a0c2 df9b 7ebf 36db c90b 92db a1bf
000002e0: ad8b ed7b a80c a6bf a4be c21b 8cb5 9fbf
000002f0: 450f 0c11 317d a7bf 8e86 a902 e026 a0bf
00000300: c4ed d678 3304 983f 8344 6150 f19c b03f
00000310: c373 75ca adea 983f 215f 6e5c 5a06 a6bf
00000320: 1f64 7358 48fd 903f 3522 c45a 01d3 a0bf
00000330: 7aac 5bb4 aff4 93bf f922 fcfa 5b66 b7bf
00000340: 2455 284b 1d06 bbbf 09fa 6cbf cfa6 9f3f
00000350: 772b 7062 c5a2 bbbf b0d3 0cb6 2a6f b33f
00000360: 1c14 3afe f582 b53f fc89 10f5 3251 b33f
00000370: 3a87 e0e9 b408 c03f c8f0 ca4b d8d0 98bf
00000380: c7b2 98ee c859 b6bf a440 c85d a498 b53f
00000390: fed5 ce38 dfa8 c63f 1a03 1e7d 8840 9cbf
000003a0: 6c0f d960 6cd2 653f 4b2a 16fb 5a8b cb3f
000003b0: 9eb1 0dcf 6b4f ad3f f9bb 34f5 a1cf 9ebf
000003c0: 43b8 94d7 f150 b43f c180 9750 0371 723f
000003d0: 690a 53e6 f272 ad3f ab42 ecff aa0e c73f
000003e0: 1890 c59e 3e3b c63f f91b 0818 bf6c b9bf
000003f0: d6c0 d511 5a3b b4bf 4efc ec41 5568 afbf
00000400: 11de 6671 b856 cabf 0c71 a5b6 1319 cabf
00000410: ba44 c779 64ad c63f b33e c90b b8c6 a53f
00000420: d23e 071b 2803 b13f 46e2 c499 d9a8 bbbf
00000430: 3704 c3f6 b145 c03f 32d5 b602 7415 91bf
00000440: 9eb6 aeea 5cfd b1bf fe38 3ce4 8b7c 603f
00000450: 9e36 738a 7ac6 d43f 3518 5e3d ff08 b03f
00000460: c006 692b 4784 d93f 3465 0885 2c97 e2bf
00000470: 1440 73a2 0d79 c53f 8e2a 8a83 9c2c c3bf
00000480: 2eef 5b59 a819 c13f f3b1 d3f9 d5d0 ca3f
00000490: b78c 9fb7 f0c0 bd3f d340 5c0d af9d d03f
000004a0: 8276 0f52 46e1 dc3f 22c1 d544 0b6e dabf
000004b0: 5b38 105e d1d0 c53f d0d0 cc9c 1f4c df3f
000004c0: 572b a257 3d61 df3f e3bf e31d 90f2 bc3f
000004d0: 476d 953f 8fcc d3bf 90d6 475a 4571 e03f
000004e0: df27 125d 65f4 d73f 8c25 d6af 2bdd c1bf
000004f0: fcfa 628e e23a cc3f 5dc6 6410 3107 dc3f
00000500: 159a 0486 0dcc a93f a38c d0f5 8711 c5bf
00000510: 7a0c 27bd 8366 c2bf e9d6 3256 f9ab c03f
00000520: 1f1b 470c ec19 b4bf d092 72a2 3805 923f
00000530: 2224 fe91 91f0 cabf c70b 61ea 5424 a43f
00000540: f405 c6f9 694b d4bf 6e07 5296 98e5 a5bf
00000550: 1560 a4a4 0d13 b9bf 84c7 05bc 00c4 b83f
00000560: 27b2 1f3b b79b c3bf fec1 e99e f5bb b83f
00000570: 307b 8947 f12d d53f 9d20 8511 5707 b23f
00000580: 4ceb 1b32 8e5e ba3f 099a 2441 6cd8 dabf
00000590: eae2 781d 6343 d1bf f5a0 22dc a0d4 cb3f
000005a0: 42b8 9815 762e b1bf 9dce e8d3 52c9 b3bf
000005b0: 78ae e148 d9b4 be3f 7f07 21f9 6074 d23f
000005c0: e348 7699 c1f4 c93f 0e6a 25c1 59b6 86bf
000005d0: 79f5 6a59 dfa8 bfbf 6c5f 511a dcd3 adbf
000005e0: 2810 5a6d 0e3b 9b3f 9cc0 d59c ef37 5f3f
000005f0: dff2 503a d16b d8bf 9fe1 3b81 0b39 ba3f
00000600: 53c8 a286 54aa d1bf a0c2 a85d ce96 d63f
00000610: d14c b8df b98e c4bf 86cd a148 ba32 bb3f
00000620: 14fc 7fdf 0106 adbf 32d7 3fb4 f73c d63f
00000630: f7dc d35c 8b17 d7bf afaa 358c 80c6 c73f
00000640: 04fa 745e 3799 90bf f20b 96a1 a3a2 c03f
00000650: 4e68 8561 2d14 a0bf 9a4e 5dd5 5e21 aebf
00000660: a253 325e 0e45 c4bf a8a9 0386 12c5 a33f
00000670: f373 2f53 78ca cabf 2891 c2aa 06f9 b03f
00000680: 1eb4 e7ce a956 c2bf 90e1 c515 bb34 b73f
00000690: 61b0 75a1 e7dd cfbf 7a76 fd3d bd3c b23f
000006a0: 797a 787e de19 c63f cf00 ecaf 7dde b8bf
000006b0: 5b14 64d5 982c 983f dfe8 336b a939 c53f
000006c0: 6053 3487 c8b1 b83f 0b36 3e3b fc03 bb3f
000006d0: a614 3b86 040e c7bf dea9 b372 5e95 9b3f
000006e0: ff7a 145a 63e9 b0bf d609 7b1b 0567 b23f
000006f0: 8850 772b 615c acbf d1a3 ddad b646 be3f
00000700: d990 1450 ca63 a33f 7e7a fe4d d609 c83f
00000710: 24bf d674 0730 ab3f 7400 731f 34d8 c7bf
00000720: 16a0 d972 7681 cd3f fb3c 63af 84c8 b03f
00000730: 3587 2943 65d3 bbbf fe79 3b63 bd1b 75bf
00000740: 6d91 2d14 a857 a33f 3d29 b36c ccbc 9dbf
00000750: f69d 3a89 3a4a b3bf 1b38 3a15 5023 b13f
00000760: df20 8be4 1c94 b23f e457 33b7 9db3 213f
00000770: 3ec9 442d 1dff 95bf 35d6 2fc6 b3c3 9abf
00000780: e794 56ba a9b7 b2bf 08d8 21ed e393 9cbf
00000790: 890f fdf7 93a5 bdbf 19df c3fa 8a35 d53f
000007a0: 96f2 1ed1 b137 c33f fc05 5f83 7752 b63f
000007b0: 4ea8 aa34 233c cfbf 0ecf 0d9a 1fec c83f
000007c0: 442c fbaa be64 d2bf 412c aab8 9fcf d03f
000007d0: c3a6 2ea6 9486 aabf d72f 1976 5296 d4bf
000007e0: dde5 a678 a89b d0bf 2307 119f 41f7 d8bf
000007f0: 2e3e 7fec 3890 c33f bd57 9ad6 9e5a c2bf
0.06708212851829133 0.012909341219885136 -0.060901483205628715 -0.07063138056801763 -0.0236259304035258 0.06814453896400985 0.1598800123209139 -0.0878296176919851
-0.007294940709130196 0.24562811699539813 -0.1987837406070653 0.011747758897047503 0.042341563766933696 -0.05062294260497162 -0.05446044261284106 0.029045605534950693
0.01665843833346053 0.003901850704167032 0.032318442183988605 0.19931871137666068 -0.026945704111147467 0.012327305829839113 -0.33078797831262774 -0.05764694522163096
0.11307383039344267 -0.16229357125032923 0.0784182704065057 -0.35600813059290815 -0.059769283402807356 0.14504567453752526 -0.07540930843641888 -0.03966637277453892
0.07899163365413212 0.07527632549347626 -0.583255476356718 0.046465836999809274 0.26288048537481845 0.5037119277967259 -0.09721962980778656 0.09933237002759031
0.2702999874335592 -0.02978749937001867 0.025182389517686646 0.0869346704988512 -0.16801387447891786 -0.07702772828673737 0.20006540004364082 0.11108129057496653
-0.04065874660298896 -0.006447971528549169 -0.08827132817438003 -0.06508155330388649 -0.04121191529516097 0.17850092766510017 0.038491342583053895 -0.09067390959851743
-0.010279676090010337 -0.03191362541541235 -0.05710698655712316 -0.10833156439523962 -0.0808096468875662 -0.15131523746010883 0.00889406298107684 -0.14037033604687033
-0.20298802558245505 -0.028869939568133277 0.493659926956848 -0.17229321309386122 -0.06201673160034434 -0.0846349134926285 0.2447805674175715 -0.05183160059507315
-0.102893547973046 0.17521753047342545 -0.07110748707061637 -0.43045567438894733 -0.18505960020399428 0.09959981365602684 0.3285962524516655 0.33094763849021197
-0.181124985908591 -0.05489418012299172 -0.009160501422919728 -0.16813416898228178 -0.0007399370750315349 0.021065726382676578 -0.03448324657745915 0.08954592139974432
0.10087259326370443 0.05437820271436458 -0.00747287184096878 -0.03487831491377451 -0.043065323951643954 -0.030965985483531924 -0.04587701161474781 -0.03154659302232431
0.02345352578207184 0.06489475452805675 0.024332728845695827 -0.04301721933660319 0.01659119644032014 -0.03285984261498635 -0.019488091834244582 -0.09140562894402739
-0.10556204876805403 0.030909772928902544 -0.10795243886256665 0.07591502136786121 0.0840295549079006 0.0754577492048511 0.12526570720461355 -0.02423418009378578
-0.08730750870808911 0.08436038293462161 0.17702856324983424 -0.027589924465703942 0.0026638142360599273 0.21519028911673596 0.05724656012066308 -0.030088930693803893
0.0793601180382391 0.004502308796389965 0.057517614951866865 0.1801351308463571 0.1736830020191753 -0.09931558930121288 -0.07903063712524569 -0.06134287290341743
-0.2057714990348676 -0.20389028948091725 0.17716651865206307 0.04253173011659097 0.06645441684599554 -0.10804519657256959 0.12712692784228505 -0.016683399835263298
-0.07027226190140332 0.0020125133759228966 0.3246141769458094 0.06263728378516549 0.3986986087730706 -0.5809538458153498 0.1677567523206568 -0.14979893133962147
0.1335955082248516 0.20949816416340603 0.11622528536786346 0.2596242552254015 0.451249675881492 -0.41296655389943926 0.17043511479318138 0.48902120888238887
0.49031003530460765 0.11307621698119834 -0.3093603249487455 0.5138270152371707 0.3742917450805389 -0.13956209264533148 0.2205470271346356 0.43793894387190396
0.05038492451631186 -0.16459750654857883 -0.1437534974666937 0.13024822911182035 -0.0785205392813677 0.017598042407047043 -0.21046657208015157 0.03933968888352229
-0.31710290328928115 -0.042767303800259934 -0.09794698018629362 0.0967407664336673 -0.15318956744103326 0.09661803369250063 0.33092910753286997 0.07042450120673256
0.10300530169835759 -0.4194594036256665 -0.2697379863562178 0.21742640255730064 -0.06711519267329982 -0.0772907035214367 0.11994703320822875 0.28835319832807466
0.2027818679167189 -0.01108999367413779 -0.12367053921749073 -0.05825698682082145 0.02659246962004161 0.001905426022258217 -0.38158064551298126 0.10243293671726982
-0.2760211291125689 0.3529544748917406 -0.16060565399002383 0.10624279282801838 -0.05668645718832735 0.3474711666343523 -0.3608120352286756 0.18574530454801194
-0.016209473743623817 0.12996335401484732 -0.031403940348085344 -0.05884834627673037 -0.15835742568438343 0.038612917765777965 -0.2093038946321993 0.06629983586259824
-0.14326975443637563 0.09064835816923833 -0.2489594972970535 0.07123930705480488 0.17266446280787642 -0.09714494271247819 0.023607624077176186 0.16582219824323993
0.0964627580727444 0.10552956053125954 -0.1801152854369878 0.02693698477825445 -0.06606121968478006 0.07188445969499155 -0.05539230018226343 0.1182665037610058
0.03787071445029406 0.18780020530990166 0.05310080815558951 -0.18628551040274355 0.23051338775553692 0.06555966646122961 -0.10869439019873257 -0.005153407855429835
0.03777814146340828 -0.02904052174998494 -0.07535138941113204 0.06694508093116307 0.07257252292322701 0.00013505268325414356 -0.021480995071393887 -0.02613716981064425
-0.07311497496864981 -0.02790790686454872 -0.11580776981742082 0.33139299858838595 0.1501371642206279 0.08719584424309085 -0.2440227515374453 0.1947059156624324
-0.2873989743936287 0.26267235788026616 -0.05180801895705891 -0.32167493374867945 -0.25950061590591905 -0.390091328943628 0.15283881709773212 -0.1433905170312623

hidden_layer4.bias f8 [20]
00000000: 9126 ab65 feea b3bf 804a 028c df3d d4bf
00000010: bc94 f9a1 a88c b5bf c88c f856 0309 d43f
00000020: f73b 276a 58e4 a9bf 46cc ba82 8e2a bdbf
00000030: 393c 777e fed9 c3bf 8f97 8b14 16ee d03f
00000040: 964f f1fb 0a92 b93f e210 2069 2f4f d8bf
00000050: 00bf 58a1 6bca d5bf ba5b e370 5b59 bc3f
00000060: 55bf ff83 2888 cfbf 9084 7884 f9ce cc3f
00000070: 437b 4dd4 6fec cc3f 1f41 7aed 8c26 60bf
00000080: edba 67a5 0a9b c3bf eb6e 43d2 0115 d3bf
00000090: fe7d 95f2 4682 b63f ba27 41e0 2d11 85bf
-0.07780446989195357 -0.31627644226788476 -0.08417753176179849 0.3130501126599481 -0.050570261915360896 -0.11393061343805852 -0.15509015250288075 0.26453163153052456
0.09988468790953528 -0.37983308092249335 -0.3404797626162548 0.11073848253305033 -0.24634272046341246 0.2250663658933587 0.22596547952977106 -0.001971507310209244
-0.153168993725067 -0.2981571725228906 0.08792537138423737 -0.010286672979549983
