net_param/net_0.08.pth (torch, 17999 bytes, 12 tensors)

hidden_layer1.weight f8 [20, 2]
-0.004756822797949701 0.2069921651759625 0.37214547596142883 0.5717759148209524 -0.1841207803680644 0.3893332591656548 0.20445480356154827 -0.5073290235539705
-0.527216615211387 0.009170282578727897 -0.1338031756570717 -0.25160119574333917 0.4420225404942196 0.5790663169867278 0.27956946364214025 -0.5611974696565212
-0.03319959441608488 -0.06502820687231607 -0.40775266953254574 0.2400920838444196 -0.4420394076560784 0.5607901260846099 -0.5380935405495401 -0.46776479534199583
0.6161525326124778 -0.28479966180362104 0.00506585249194583 0.41062582802334563 0.008693661318966296 0.24385163647651395 -0.10929586846788315 0.5895830857714074
0.700405115532391 0.13927800548773278 0.1040026206809062 0.6085849563868043 0.5493467491337368 -0.25636178277982274 -0.3057252813106052 0.22368641461040606
00000000: c1d9 99e5 e37b 73bf 27c0 fa21 b87e ca3f
00000010: cbf4 2642 3bd1 d73f b37c d900 fd4b e23f
00000020: 5ef0 180d 4591 c7bf 1f24 d70b d6ea d83f
00000030: 464a 6733 932b ca3f b63a 8f13 0a3c e0bf
00000040: 01b4 0761 f5de e0bf 8e6c 2a7e dec7 823f
00000050: 0927 c663 7620 c1bf 6689 d6e6 3b1a d0bf
00000060: dd1e e1e8 184a dc3f 928a b515 b687 e23f
00000070: 8168 d351 77e4 d13f 0cba 5865 54f5 e1bf
00000080: 6fdd 8388 89ff a0bf e388 d545 b0a5 b0bf
00000090: 48ef 1fa7 9e18 dabf 70f4 1160 56bb ce3f
000000a0: b644 dba7 5f4a dcbf ed7f 6e22 fef1 e13f
000000b0: 072c dbf1 0f38 e1bf 43b2 8dc0 dbef ddbf
000000c0: 9d61 1d84 85b7 e33f 3cf0 565c 283a d2bf
000000d0: 23e1 776c eebf 743f 4334 908d b147 da3f
000000e0: f432 6178 fbcd 813f 0f11 dfc9 8736 cf3f
000000f0: 5550 a864 d0fa bbbf f336 f558 dddd e23f
00000100: 0335 25fd b769 e63f 1a9b 4f97 dcd3 c13f
00000110: 43d5 856e ea9f ba3f eb9a 9028 8779 e33f
00000120: a52f 36a2 3f94 e13f 37f3 3e40 3b68 d0bf
00000130: 5786 32c5 0091 d3bf 18d5 a7a5 c1a1 cc3f

hidden_layer1.bias f8 [20]
-0.01653974997510272 0.4162969808830136 -0.2170028649469328 0.2730616604876839 -0.5364208179942493 0.33259221368942077 0.5988297255745207 0.16977170942000339
0.17351837302869166 -0.34892011585488053 -0.5864640779508152 -0.2675207551204011 0.03229187735300618 -0.2843826409760627 0.08829813239940959 0.48283319566625876
-0.4140454421239683 0.5392355561382435 -0.47644478349295205 -0.5581324912503252
00000000: 7288 e8d4 cbef 90bf aa3a 9417 9ca4 da3f
00000010: c5ed 0af8 bfc6 cbbf f881 659d d779 d13f
00000020: 4cb9 c5fd 5b2a e1bf cfd1 2cda 3049 d53f
00000030: 18e3 e6f4 9c29 e33f db59 df51 14bb c53f
00000040: f4e8 b49c d935 c63f f9d8 a009 b554 d6bf
00000050: 427b 6250 50c4 e2bf 0093 8f5f 0f1f d1bf
00000060: 8db1 509a 8f88 a03f 06b5 a23f 5333 d2bf
00000070: 3c0e f4d6 b49a b63f f3d2 3334 bde6 de3f
00000080: 50bd 3e74 b87f dabf 3788 ceec 6a41 e13f
00000090: 0eee dc42 127e debf 362a 98ab 38dc e1bf

hidden_layer2.weight f8 [20, 20]
-0.19290192595733066 0.18089879684538718 -0.028086426968967276 -0.11787071884381091 0.03404234122908207 0.14963874234205848 -0.04243536807944363 0.11901948954462857
0.05481534022476145 0.24979303550013957 -0.07040323299222671 0.19965386476651306 -0.07678179469755723 -0.04175662034773031 -0.22125479514739924 0.14172169661661407
-0.3057415359164851 -0.16855209143910602 -0.04679826750247304 0.050515222866093 0.20551296205282374 0.17328021363179186 0.18391184744165157 0.17689357483497994
0.11492301138654648 -0.21412191717507964 -0.027212984016452096 0.07719575726694153 -0.23234836119992958 -0.08516060243966939 0.05145973702766116 0.059407564706774274
-0.21321757675069625 0.17467781226419807 -0.10286779178447429 -0.18029162314752895 -0.049075743005225256 -0.23561942506059005 0.08238565161279043 0.06449567478417007
-0.11133533047953822 0.09633508547860775 -0.043790984733817574 -0.1450025313807226 -0.11875555569425675 -0.20061483739608657 -0.17037890738252556 -0.15478934441957312
0.22840588520435304 0.11084613613139539 -0.2126186231714388 -0.004044367465002908 -0.11425374470553482 -0.22634716739485003 0.18333214987555246 -0.1642077707282591
0.05067955636477024 -0.12366312596761708 -0.1299736062203582 0.15630954231457012 -0.03215770758942728 0.23854415485250907 -0.11446427637669661 -0.010600496232550704
0.05806599723098735 -0.08101451906911156 -0.16317305003254828 0.0049802251393930705 0.08164035300846373 -0.17219407735936337 0.1023276578025381 0.10417972044057791
0.04394919225550905 -0.17608001125475753 0.22217837206547614 -0.021837945283668468 0.16131503241134137 0.055313057060581726 -0.15538906101643193 -0.1267854404073319
-0.04498403648107567 -0.05213955345183686 -0.14755728116447406 -0.018200477631119982 -0.1203009247953004 0.12522628842628145 0.24702928405872127 -0.0665110139961669
-0.1982875229877197 -0.09751848550406242 -0.21520143359431704 0.10580468998479546 0.1217798700898611 -0.05421798661353822 0.010104543123758261 -0.20438810379451286
0.1595287272511972 0.13903273483143294 0.04372345576787345 0.10842468314711343 -0.0416709349873804 0.17188751292922266 -0.06968431082248011 0.14915908011625584
0.002219618191138872 0.09928096162736703 -0.08383979491928865 0.10284373103298494 -0.18345810759851483 0.016371029685334333 0.06967283846567526 -0.06616673131928659
0.024005120210455776 0.12776864493306134 0.1353691929011456 0.06238579200973411 -0.13591388574003238 -0.10683257491678105 0.060446308415419744 0.01072986450578152
0.04464952309483154 -0.12095520359493601 -0.1503881333693633 -0.07168363977081517 0.08721996421504359 0.07782490002214976 0.21999647577655088 -0.014250885577941613
-0.042782336725841634 0.06921343187274795 0.03578481536952603 -0.10101761668519202 -0.23243275265912616 0.06318837979239898 0.1784996734971858 -0.07487767912467075
-0.10647805628234115 0.11907164970959712 -0.11263007187541832 -0.1838010097847316 -0.12660156781049037 0.0465775910127148 -0.19449990690771354 0.09566627956622722
-0.19590352004210876 0.033336615097905295 0.180966518892438 0.21568277075303027 0.15855294815403234 -0.2340176987397229 0.01830661535385756 0.04521493340265268
-0.12935033205480728 0.1207368908276052 -0.1297211142175927 -0.05713289477858798 0.01695339941079373 0.005409603074875698 0.09304696129291515 0.03679598383962613
-0.12508232494796484 -0.21952372485953692 0.02204387048919052 -0.21167726457401098 -0.1013884940623332 0.13362848284542836 -0.21368905441121666 0.026236554007739634
0.17266559292265518 -0.060701983768040896 -0.05203719220972378 0.07669962957065803 0.17043860720383322 0.20949231147574904 -0.06757650083724176 0.1878567690989833
0.08087854067415966 -0.11702090696255757 -0.13286997225558625 0.14561610322972812 -0.17437378102517045 -0.11355307706574339 -0.23774921380540803 -0.11987560350628924
-0.16429860734137114 -0.006442863948061058 0.11040453290780185 0.11415339247504461 0.1327166312873904 -0.11908277252491745 0.08819470517344634 0.0957057567047141
0.08324515984963236 -0.16452830010308664 0.18490170855083077 -0.15106705563000455 -0.10586382112772624 -0.11479012949382901 -0.24648308606644478 -0.030076437469953574
-0.13525374312044322 0.1327596491210675 0.027586759398114002 -0.05446007683920462 0.08658172167753607 -0.11000162703190179 -0.2278951970764405 0.12423291028239912
0.13136063315812768 -0.13245325659177928 -0.22110477688351673 0.08913753774495045 -0.12709660827566702 -0.20259775417418868 -0.06962043918529258 0.07329672998283203
-0.024955222361015394 -0.04557574670191753 0.17459547507580525 -0.00025809466079400914 0.039069001154340345 -0.07347381425978146 -0.06776783531683471 -0.05595148977918674
0.19681368344613145 -0.04072157381249159 -0.011336424838042538 -0.016479806054577023 -0.19008389361494196 0.13311492253915302 0.14085794649503594 0.07072686220445207
0.19887159654736417 -0.17695284400043756 -0.16341357842813195 -0.10264058659687936 0.0745327093061939 -0.04976811026296811 -0.04418516042177395 0.1341881978746682
0.11915598518920123 -0.11537085511393068 -0.07742518749209991 0.24543322680574195 -0.10861913300166035 -0.17462115535457776 0.20894350736493114 0.0029156100794228697
-0.10632828329404449 0.10310105976268306 0.0629439920747176 -0.1666984058987516 0.023595391001227574 0.17012019371343098 -0.1313930979993486 -0.057628549461340245
00000000: 2b3c a9a3 02b1 c8bf 8618 2b18 b127 c73f
00000010: 6b3e 2c35 b0c2 9cbf f515 9782 c62c bebf
00000020: 2930 846c ff6d a13f 626f 49c0 5c27 c33f
00000030: 069b 30ac 16ba a5bf 7e48 2eaf 0f78 be3f
00000040: d43e 2b9b c110 ac3f edee 1edb 37f9 cf3f
00000050: e7f9 3b3f f205 b2bf 5d99 d801 428e c93f
00000060: 4b79 27c1 f8a7 b3bf 30ea 91ad 1f61 a5bf
00000070: 95e1 9ebe 1352 ccbf 0d0e 0dc2 ef23 c23f
00000080: 3691 72f2 4491 d3bf 5da1 336c 1d93 c5bf
00000090: 4c7b dd48 f1f5 a7bf 40ee 519c 21dd a93f
000000a0: 3fe2 75ad 3f4e ca3f 0ed5 4bc9 0b2e c63f
000000b0: 4cee 0d65 6c8a c73f 55f6 64db 72a4 c63f
000000c0: a08a 762f 986b bd3f 47d8 cfd3 5868 cbbf
000000d0: 3b49 8271 b8dd 9bbf d2f9 d9e4 19c3 b33f
000000e0: a202 5152 97bd cdbf 60d3 62d2 15cd b5bf
000000f0: d06a 303f ee58 aa3f 28e8 1917 ab6a ae3f
00000100: 5ece 89ab b64a cbbf bf7a 81b1 d75b c63f
00000110: 83ab 8629 8b55 babf 8aa8 94c0 cb13 c7bf
00000120: d6fb 77ae 7420 a9bf df01 78fe c628 cebf
00000130: 682a 56df 3917 b53f 5074 eedd c982 b03f
00000140: 3689 4ce3 7880 bcbf 2c86 9689 6aa9 b83f
00000150: fd2f 959e c56b a6bf 8807 0f65 718f c2bf
00000160: eed5 ec9b c366 bebf c1b1 da3a bfad c9bf
00000170: b36d 91dd f9ce c5bf 8792 0622 23d0 c3bf
00000180: 0554 956f 673c cd3f b982 9291 6960 bc3f
00000190: 3d5c 8548 1637 cbbf 7450 ec9f d390 70bf
000001a0: a6af f4c0 bb3f bdbf 2f66 c0a8 f1f8 ccbf
000001b0: d0ab 028a 6d77 c73f bc72 839e c204 c5bf
000001c0: 2a30 53ba abf2 a93f f085 c0f9 62a8 bfbf
000001d0: a6a1 07a2 f9a2 c0bf 769b 257a f301 c43f
000001e0: 4264 d29c f976 a0bf 8e2a df67 9d88 ce3f
000001f0: c524 99e3 874d bdbf d914 1f85 b6b5 85bf
00000200: 5cc2 3b8e d3ba ad3f 2c2b e715 5ebd b4bf
00000210: 1e3b bdc0 dae2 c4bf cf47 9b01 2566 743f
00000220: 108b 34d6 61e6 b43f da63 699d 740a c6bf
00000230: 63f9 bc37 2532 ba3f 52de 32ac 85ab ba3f
00000240: 1b97 d82e 8280 a63f 76c4 e830 ca89 c6bf
00000250: ae2a f344 5770 cc3f a684 38b3 af5c 96bf
00000260: 84aa 4792 f8a5 c43f dbe4 3b36 fe51 ac3f
00000270: 7161 9ceb c9e3 c3bf 0148 145c 813a c0bf
00000280: 267c 0ecb 2508 a7bf 91af ce19 09b2 aabf
00000290: 07ad 7130 28e3 c2bf 40f9 c960 25a3 92bf
000002a0: 8fa3 ac99 0acc bebf bbf6 b13e 6a07 c03f
000002b0: 4cdf 17d4 a79e cf3f 32f5 efa5 dd06 b1bf
000002c0: 09f3 374d 7c61 c9bf 6ad2 feb1 f8f6 b8bf
000002d0: 1682 ab77 b88b cbbf 7b84 3f23 0416 bb3f
000002e0: 5eda 582f f72c bf3f a960 b8be 75c2 abbf
000002f0: 687d 0fd2 b0b1 843f d393 beae 6329 cabf
00000300: aa7f 28f5 6f6b c43f 3354 961c d3cb c13f
00000310: 27a7 2eb9 eb62 a63f 022e 3254 b8c1 bb3f
00000320: 51d8 ed8d e455 a5bf c496 4ff7 6800 c63f
00000330: b4df 06bc d4d6 b1bf fe18 800d a517 c33f
00000340: 992b 4c71 e02e 623f ab12 4e23 7a6a b93f
00000350: f31c 4859 8676 b5bf 68a2 627d f753 ba3f
00000360: 7e2c 2926 8e7b c7bf c2c3 6634 91c3 903f
00000370: 3e2b a142 14d6 b13f 6d7c 198b 4df0 b0bf
00000380: 263a f658 cc94 983f c28a b813 b95a c03f
00000390: 21bb 3218 c753 c13f 7a6f d5d0 07f1 af3f
000003a0: 30b1 294f a065 c1bf 5c40 6a2f 6159 bbbf
000003b0: cec6 9d8b d1f2 ae3f c88a 2409 8af9 853f
000003c0: 36d7 f262 4ddc a63f 45a5 b893 ebf6 bebf
000003d0: 4892 4319 eb3f c3bf 4151 79e8 db59 b2bf
000003e0: a5a5 dc2d 0c54 b63f bcdb 6828 55ec b33f
000003f0: 8707 5932 d828 cc3f b66a f87b 912f 8dbf
00000400: 6ffb 2a02 91e7 a5bf 4e5e 56b2 f8b7 b13f
00000410: ee38 6927 6352 a23f 6696 fb5f 4adc b9bf
00000420: 9a58 983f 5bc0 cdbf 9711 b218 1d2d b03f
00000430: 0930 02ca 13d9 c63f ac74 0aff 2e2b b3bf
00000440: e56b 7959 2542 bbbf 3d2c 62c9 7a7b be3f
00000450: e244 400b 53d5 bcbf 31a4 ff9e ca86 c7bf
00000460: 2827 afec 7a34 c0bf b88c 409c 04d9 a73f
00000470: b730 9f79 5fe5 c8bf ea22 11d6 957d b83f
00000480: 0c46 e0d5 5d13 c9bf fead 352f 7f11 a13f
00000490: bd30 2830 e929 c73f 7af3 5837 7e9b cb3f
000004a0: 0dc3 8087 764b c43f 68da 62bd 4af4 cdbf
000004b0: fa27 fb28 f8be 923f 0dab 8268 6926 a73f
000004c0: 4079 f33a 8d8e c0bf 3179 86e5 9ce8 be3f
000004d0: a026 9593 b39a c0bf d31e 33d5 8540 adbf
000004e0: 75fe 1960 3b5c 913f 7ca8 a744 6128 763f
000004f0: 9ac8 bef7 ecd1 b73f e140 6e56 ecd6 a23f
00000500: 8ec5 7a97 b202 c0bf 4ee1 7b79 5a19 ccbf
00000510: 7a36 501b ab92 963f 8e78 5398 3d18 cbbf
00000520: b93b 30aa 98f4 b9bf 9f4e d1f5 bc1a c13f
00000530: a8cb 1ab6 295a cbbf 8721 b155 c1dd 9a3f
00000540: fda5 5ff9 e719 c63f dc0f 2c96 5414 afbf
00000550: ddcf 6e6d 9ea4 aabf e90c 9f40 96a2 b33f
00000560: cd47 f5a9 eed0 c53f faa0 46e1 a4d0 ca3f
00000570: 40f6 128d b14c b1bf b461 cecb b00b c83f
00000580: efca 24bf 74b4 b43f bc39 5a08 15f5 bdbf
00000590: 53a5 ba1c e201 c1bf 1a42 9268 8ca3 c23f
000005a0: 7138 644b e151 c6bf 7287 5b80 d011 bdbf
000005b0: 00d3 f8f4 906e cebf 99d4 a5e4 2ab0 bebf
000005c0: d49e a79c bc07 c5bf 9526 311f d563 7abf
000005d0: 614e 2bb2 7843 bc3f 8e63 681f 2839 bd3f
000005e0: 77df 81cb dbfc c03f 7cf3 8265 357c bebf
000005f0: fb7a 669e ed93 b63f 1cef 1527 2c80 b83f
00000600: 1bbe 1a07 8e4f b53f 11c8 1a6a 430f c5bf
00000610: cca4 99f3 dbaa c73f 7489 b74f 2a56 c3bf
00000620: ccbb 9231 e419 bbbf b560 14cc e262 bdbf
00000630: 9515 d6fc c18c cfbf bc2a 418d 5bcc 9ebf
00000640: e793 aea1 fe4f c1bf ab09 9aa7 44fe c03f
00000650: 708a ab15 b43f 9c3f 508f ecf1 30e2 abbf
00000660: f750 093f 382a b63f d3da 9b0e 1129 bcbf
00000670: b9ec 2d79 ab2b cdbf 4ff3 bf5e bacd bf3f
00000680: 82b0 b2db 6cd0 c03f cfba a772 3af4 c0bf
00000690: 551f da4c 294d ccbf 26e5 75b9 b7d1 b63f
000006a0: 5ffe fc9f b344 c0bf 7ce9 3524 b9ee c9bf
000006b0: df19 6f25 a5d2 b1bf e314 2e12 93c3 b23f
000006c0: 33b0 9e9f dc8d 99bf fda9 264b b455 a7bf
000006d0: 1a76 bdff 2459 c63f 6d23 9c20 1cea 30bf
000006e0: 1595 7d24 da00 a43f 0daf 5b0d 2ecf b2bf
000006f0: 9f11 689c 3b59 b1bf 3136 8775 aca5 acbf
00000700: 2339 e7d6 3031 c93f a958 8847 75d9 a4bf
00000710: 01b1 762f 8d37 87bf c800 3210 15e0 90bf
00000720: 4d48 4945 ab54 c8bf 7026 75e7 e809 c13f
00000730: 89f8 c918 a207 c23f ece7 1dd8 271b b23f
00000740: 271a a3dd 9f74 c93f c141 f50a 64a6 c6bf
00000750: b31b 8973 bcea c4bf b004 ad4a a746 babf
00000760: 06cf f35c 9314 b33f 9e24 edab 347b a9bf
00000770: d8c6 f5f5 6f9f a6bf 91c0 b030 142d c13f
00000780: b0a1 82b3 0181 be3f 1b3a a0c1 f188 bdbf
00000790: ff4c 2a18 23d2 b3bf afbf 3d21 5b6a cf3f
000007a0: fe45 f6a7 76ce bbbf cf04 b86b fc59 c6bf
000007b0: 6305 6c2d a9be ca3f ff5c 0c3e 7ae2 673f
000007c0: 3543 6393 5438 bbbf 2b19 ddbf d464 ba3f
000007d0: daca 70f3 181d b03f 4bb3 d094 5f56 c5bf
000007e0: 6a15 bfe2 6329 983f 23b6 319e 7fc6 c53f
000007f0: cbe5 6931 7dd1 c0bf 4437 813e 7d81 adbf

hidden_layer2.bias f8 [20]
0.03748573969510627 -0.011039635195102943 0.19374205623236693 -0.09142225351144578 0.2275354183879137 -0.07052208565684588 -0.1754545776905966 0.07027720182311722
-0.12908567328611367 -0.03479975000000787 0.1129305135951588 0.11762225007686486 0.20458755024178954 0.0945270042647402 -0.10536838552882732 -0.13066273006337709
0.028252939975155426 0.05239610411728307 -0.16670396956005293 0.15789627117375576
00000000: 801b 1db4 5431 a33f ea5d fbc0 f29b 86bf
00000010: 0b5c b029 8acc c83f e451 f5e4 7267 b7bf
00000020: b031 546e e11f cd3f 95b7 8a43 bc0d b2bf
00000030: 55ab 8eac 4b75 c6bf fe13 7ccb affd b13f
00000040: 19b0 921c e185 c0bf bc69 51d8 45d1 a1bf
00000050: be97 9c9e 03e9 bc3f 7eb0 5ce5 7d1c be3f
00000060: f086 bac2 ec2f ca3f d4e9 e7f7 eb32 b83f
00000070: 18ee e029 6cf9 babf e6d1 366c 8eb9 c0bf
00000080: be29 d6b4 56ee 9c3f b83a 3e83 a9d3 aa3f
00000090: e7d8 af40 8e56 c5bf 2a02 6dec f135 c43f

hidden_layer3.weight f8 [20, 20]
-0.09556315768963503 -0.1271696988034005 -0.000798754846037016 0.09436042912927906 0.0317293748669574 -0.07855779349928581 0.17254256526872272 -0.16585236524216557
0.26405429725799145 0.11058489247803527 -0.13743493226658415 0.03273274636151867 -0.19678444207238038 -0.03594087604484932 -0.06424167621503417 -0.07471689074969325
0.05543830926015516 0.15400129048473937 0.18113246872297628 0.03742023365432936 0.16855430892387605 0.193833967987727 -0.10019313072399832 0.04901247863108448
0.18256508607015343 -0.08603335546633004 0.03601735294454314 -0.1084172982498401 0.09269307417556066 -0.15121556268212438 0.08261379524541342 -0.2004419017153218
0.19969083490287154 -0.1674158077893558 -0.13252983044970693 -0.14707161636633506 0.17163711598778972 -0.16742133845956816 -0.02473580965639391 0.01740666828593638
-0.14863016534967988 -0.11175524767262011 -0.21113359866877895 -0.015047662479169527 -0.015509641653360598 -0.11606965851463164 0.17257630732404372 0.05038750890365693
0.04526776549141575 -0.24245925306273836 -0.04474256408632904 -0.0208896710919757 0.005170664956154267 0.0006728148566075903 0.17642418130770957 0.110308002120658
0.22481504163501312 0.13614825748440068 -0.10372931096555921 -0.017224644740426173 -0.13116434828252466 -0.20964067816970175 0.05569124530396287 -0.20122705704240063
0.015605129612574969 0.14297905347985285 -0.11103278526724658 -0.033433158187638534 0.039772688196556105 0.08294721101686982 0.03481890706346642 -0.259450529891168
-0.13123584689941573 -0.03115943658514336 -0.012190408701357106 0.06893687510596128 -0.1553063397502114 0.06007167960259818 0.15570870846084636 0.20634133450509845
-0.15943228891481873 -0.00555198724066845 -0.044391956257206315 0.11361734032912417 0.06591442060938073 -0.08759651275674775 -0.04940444561711403 0.11674913226495602
0.09183636777747563 0.034187319019214304 0.08965266644225149 -0.15780927662471173 0.15137000190400368 0.12199260335133419 -0.036914332683750085 0.043049052131023745
-0.10860213475551922 0.04134401818117416 0.24936873008740346 -0.13269285561514374 0.06510300747857035 -0.13682469660688729 -0.13721066831822853 -0.19768191509339839
0.13418097610840035 -0.15618419581713697 0.045034669038820564 -0.1337919622994966 -0.050612072313621075 0.12906910741227778 -0.11403446693246103 -0.182649169835744
-0.019235824910173487 -0.022989840378852988 0.003272726084539394 0.05058845324303384 -0.013981104665817165 -0.0683861860545719 0.24081430453156744 -0.0888932429957428
0.18363175797882755 -0.07362893897180944 0.1033195684975868 -0.10512742349814469 -0.1893187410975172 0.08302850506713373 0.03125272035643747 -0.18762914508577863
0.03857898746344614 0.07451303583496571 -0.14273740176117874 0.03846475060207083 0.22212439035796935 -0.03753382936994948 0.11704937069458891 -0.15645065274659714
0.17292407834371815 0.2119455149458457 -0.16946327509784553 0.008516007535560387 -0.11718179550032592 -0.02452180962231377 0.18023847874133736 0.18508545053649783
-0.011109310358673555 -0.020174857885381196 -0.05632944144286665 0.12502537437182132 -0.11824771329854888 -0.10586418877562692 -0.04082902398489979 -0.21413618309225532
0.01645432317590539 0.09738612388097469 0.004479654552256119 -0.019061626664527088 -0.07280167737790223 -0.1849148801465047 0.08299689554308945 -0.10198134238278175
-0.06806752654692663 0.07578274171249812 0.15740752353346696 -0.16612339788043812 -0.13316669424406166 -0.12221008286906393 0.12026795422414659 0.04014883347915622
-0.0791155701129785 0.033337507326574256 0.13489505603262641 0.14754714847162342 -0.22654156912469006 0.12121240094405335 -0.1536017559837965 0.16438006403096114
0.22102238384724734 -0.05825393094109434 -0.08736992760843039 -0.10374510771234322 -0.11701639975059451 0.20572095940612595 -0.060771488730547246 -0.1050365343201174
-0.03428598297440121 0.046608556368297395 0.05717618836757513 0.0897740891065148 -0.19763100118098004 -0.0718908229936944 0.21099927832404883 0.1535689881590864
-0.05305370133727109 0.021457064128004046 -0.12006057899587377 -0.21895668630930976 0.21574108820555102 0.02623271443320728 0.21630463044404497 0.13315999338458684
-0.2262035709460127 0.17767963055446662 -0.2519578224040886 0.025290719297594935 -0.11905456893781718 -0.008571332688129348 -0.12427432575101426 0.0034941553097119133
0.08962378381353873 0.019356355643962063 0.12127008714593632 0.1377839781783163 0.22815377759926297 -0.2231600334046848 0.04745011094944998 -0.04811198812674493
-0.23602057248923172 -0.11342014361390453 -0.005317914160937778 -0.013786352111220182 0.2405041916701177 0.15483426772329423 -0.13675171994795593 -0.1133941627449412
-0.12736982015003637 0.026362094590425444 -0.037387134596982695 0.03304576980786497 -0.13300492808231884 -0.13619329703776512 -0.0023165616460713244 -0.027474635261657606
0.11657138966362539 -0.10167555440657665 0.036901706967026666 -0.11576275472148392 0.11309720161809869 0.10408029658897316 0.002509934802289335 -0.08499539799144364
-0.1732592229088278 0.12067713360970432 -0.0761618770992248 -0.13432996107284714 0.1765246294806897 -0.04843045754868093 -0.13959330721294683 -0.10710398953426632
-0.07198311959605251 -0.19354938770884408 -0.02323281090335969 -0.03822397196019978 -0.018848518044011147 0.12344010340672633 0.18737119666538246 -0.156374965582051
00000000: c4be fabc d376 b8bf 268e b3c0 1847 c0bf
00000010: 77e5 7af8 702c 4abf 5493 254d 0128 b83f
00000020: 0491 c026 d53e a03f ffe3 ec11 5d1c b4bf
00000030: 49a1 7ff1 df15 c63f e2f4 567a a63a c5bf
00000040: 72d8 c5fe 43e6 d03f 60f5 9fa0 4a4f bc3f
00000050: aedb b4c5 7797 c1bf 8e10 43b6 58c2 a03f
00000060: 5aff 878b 3b30 c9bf 1389 67ae d766 a2bf
00000070: 3f40 627a 2472 b0bf 898e 3a6a a520 b3bf
00000080: a390 6ffa 6862 ac3f 7e3d 1675 50b6 c33f
00000090: b057 b446 592f c73f 530f 82af be28 a33f
000000a0: 5dc6 3606 3093 c53f c03b ae2c 8dcf c83f
000000b0: 2451 becb 41a6 b9bf 0f00 a2e1 2918 a93f
000000c0: ac07 08f1 4a5e c73f d6d0 1730 4806 b6bf
000000d0: 8479 f8d1 dd70 a23f fdc1 4d6e 3cc1 bbbf
000000e0: 0c55 26ba bbba b73f dad7 2e14 085b c3bf
000000f0: a509 c77c 2d26 b53f e7c3 4e8a 14a8 c9bf
00000100: 9c00 9c22 788f c93f 4bf4 a495 e16d c5bf
00000110: 3951 c3cb bcf6 c0bf 594c 3b23 3ed3 c2bf
00000120: a341 f97b 34f8 c53f e70e abfa 0f6e c5bf
00000130: c8a2 0e16 5854 99bf 3ae8 14bc 0dd3 913f
00000140: 0c1f b031 5006 c3bf 5708 e9ed fd9b bcbf
00000150: c641 affe 6c06 cbbf 7090 d511 4fd1 8ebf
00000160: 5b12 64dd 84c3 8fbf bcd3 60bb bdb6 bdbf
00000170: 1cb7 02fe fa16 c63f 9d79 bc3d 64cc a93f
00000180: 5f7f b228 562d a73f aa2e 42a1 e708 cfbf
00000190: 00dd fa52 7fe8 a6bf 7f2c a818 1a64 95bf
000001a0: 0a02 2ace d52d 753f 381a 17e7 fa0b 463f
000001b0: 0d58 784c 1195 c63f 3467 982d 253d bc3f
000001c0: 3d52 bc41 bdc6 cc3f 0ac5 a65c 4e6d c13f
000001d0: 2cd3 3b0e 018e babf 1fa3 6157 56a3 91bf
000001e0: 0026 234d fec9 c0bf 7737 5378 81d5 cabf
000001f0: c210 821a 9083 ac3f c8a1 88e6 cec1 c9bf
00000200: 76d2 af0a 95f5 8f3f 9cc0 5a3b 234d c23f
00000210: 80b1 8105 a56c bcbf 782a 09a2 261e a1bf
00000220: a00b 28f6 155d a43f 4da3 9c46 073c b53f
00000230: 6a77 3da6 c8d3 a13f f8fe 3365 d69a d0bf
00000240: 2178 3f13 56cc c0bf 8f41 6164 42e8 9fbf
00000250: f5de 93f5 48f7 88bf da8b 11d8 d8a5 b13f
00000260: fe57 0b01 14e1 c3bf a02e 9e16 b7c1 ae3f
00000270: 8757 4551 43ee c33f 2296 c191 6469 ca3f
00000280: 9764 68f9 4668 c4bf 2e10 063a aebd 76bf
00000290: 370b a9e0 8aba a6bf e7da f8a8 0616 bd3f
000002a0: d321 da78 c4df b03f 41ac 889d b96c b6bf
000002b0: 16b0 671c 8a4b a9bf cb13 ea68 45e3 bd3f
000002c0: 310c 3094 9682 b73f 3a3a 4012 0081 a13f
000002d0: f360 5e26 7af3 b63f 1ae5 0d29 1833 c4bf
000002e0: b2f6 e29b 1760 c33f 1675 bf41 e83a bf3f
000002f0: edbf 4277 6fe6 a2bf 7397 0d7e 860a a63f
00000300: 4cfd 0c79 59cd bbbf df5d f20b 0b2b a53f
00000310: e06a 2f86 50eb cf3f 83d3 a359 14fc c0bf
00000320: 41e0 fd37 97aa b03f 1619 9bbe 7883 c1bf
00000330: 7667 8b82 1e90 c1bf 181c 2b18 a44d c9bf
00000340: 8ac2 109c d72c c13f 95e4 97fe d7fd c3bf
00000350: 3d74 6abd c80e a73f e3a1 4553 1820 c1bf
00000360: 0f55 bd56 d3e9 a9bf 063c a125 5685 c03f
00000370: 8a7a 17e2 5c31 bdbf 5904 8b49 0c61 c7bf
00000380: 5b65 9a5b 8eb2 93bf 600d 4512 a68a 97bf
00000390: a242 0f70 67cf 6a3f 1fd6 77d0 bae6 a93f
000003a0: 0bc1 691a 20a2 8cbf 3741 9ad0 c181 b1bf
000003b0: e29f 2fcd 00d3 ce3f 6489 8023 b5c1 b6bf
000003c0: a755 83d5 3e81 c73f 6050 ec9c 58d9 b2bf
000003d0: 46e5 bbb7 2673 ba3f 8c57 d67d a1e9 babf
000003e0: 2f51 c4b4 983b c8bf 0d2c e629 5b41 b53f
000003f0: c311 af47 5b00 a03f ebbd f558 3b04 c8bf
00000400: 62c4 ef02 a0c0 a33f 406f 094c 4913 b33f
00000410: ab79 3d1c 3845 c2bf 28f6 c4db a6b1 a33f
00000420: 0b9f 1d70 926e cc3f 8870 4653 a237 a3bf
00000430: 5b90 2693 f2f6 bd3f ae03 7e32 9306 c4bf
00000440: dcae 964e 6022 c63f f5f6 9cd7 0721 cb3f
00000450: c88a 35fc f8b0 c5bf 0c9d dc2e d770 813f
00000460: 1847 5c4b a0ff bdbf a25f 77c9 3e1c 99bf
00000470: 0061 d6f1 0d12 c73f 0085 824a e1b0 c73f
00000480: b578 5f65 7ac0 86bf ded1 46cb b7a8 94bf
00000490: 4d1e 9969 36d7 acbf ba6e 0cdb d400 c03f
000004a0: 60ad 716d 7b45 bebf 14e0 9b5c ea19 bbbf
000004b0: f848 7cb5 8ae7 a4bf abc0 a27f d068 cbbf
000004c0: 4f5e acef 66d9 903f 692a 2709 4cee b83f
000004d0: 3401 ca1c 4259 723f ede3 871c e484 93bf
000004e0: b999 6e77 21a3 b2bf 94f1 6271 4aab c7bf
000004f0: daef 06d8 483f b53f ee12 5602 731b babf
00000500: 224c 7098 df6c b1bf 11a3 416d 7f66 b33f
00000510: 533c dc02 ee25 c43f ae99 7f10 8843 c5bf
00000520: 27eb 5832 9b0b c1bf 1c01 2af5 2849 bfbf
00000530: e747 2672 e1c9 be3f 02f3 874d 638e a43f
00000540: e558 3d02 eb40 b4bf a045 651f 9d11 a13f
00000550: 14af 06bf 3d44 c13f f4de a630 d3e2 c23f
00000560: cd9b 496b 50ff ccbf 1da2 eca1 c607 bf3f
00000570: 7e7f 47eb 38a9 c3bf 774d 90eb 670a c53f
00000580: cf68 2723 764a cc3f 62c9 8290 75d3 adbf
00000590: a56a bb25 e05d b6bf 4e98 be14 0a8f babf
000005a0: 6743 066a c9f4 bdbf 8e22 607c 1055 ca3f
000005b0: 5cfd 40c9 701d afbf 1143 ca9f ace3 babf
000005c0: 0f2b 2caf ee8d a1bf 9d97 a1a2 13dd a73f
000005d0: 951e 4c86 3246 ad3f 9c9c bd48 6ffb b63f
000005e0: febf 5fff f84b c9bf 06f4 a3dd 6f67 b2bf
000005f0: 6fd1 f03b 0602 cb3f ed5a e90a 26a8 c33f
00000600: f5c4 59d0 da29 abbf f7b3 ca32 d7f8 953f
00000610: 727b 5344 4abc bebf b031 78cf c506 ccbf
00000620: 8786 1f6b 679d cb3f 3cc1 4daa bfdc 9a3f
00000630: 4e82 ddc0 deaf cb3f d876 5cfc 620b c13f
00000640: 13cc b915 3df4 ccbf 3aca 32c5 34be c63f
00000650: 9c9a ccb3 1320 d0bf 1719 1a71 cfe5 993f
00000660: 48fd 0638 5c7a bebf f113 a1cc d88d 81bf
00000670: 3743 d534 71d0 bfbf 6d12 0959 c69f 6c3f
00000680: af44 6c94 95f1 b63f 969d d709 27d2 933f
00000690: a65d 4672 8e0b bf3f 8f25 18c8 e7a2 c13f
000006a0: 5eb4 9f9a 2434 cd3f 6faa 9f0a 8290 ccbf
000006b0: f45c 7085 614b a83f c68d 196f 22a2 a8bf
000006c0: 1921 0310 ec35 cebf 0983 873f 1a09 bdbf
000006d0: a973 77b6 3cc8 75bf d534 97db 043c 8cbf
000006e0: c314 e362 d7c8 ce3f dcf8 15fa 9bd1 c33f
000006f0: 8692 6c92 1481 c1bf a9fc 8b5c 6607 bdbf
00000700: f759 057e a74d c0bf 73d0 7a38 aafe 9a3f
00000710: bb37 c510 6824 a3bf fc1c 3109 60eb a03f
00000720: 9602 2934 4e06 c1bf 3216 5b2e c86e c1bf
00000730: 3317 4a90 2efa 62bf 5f63 ac8f 4f22 9cbf
00000740: c329 4162 9fd7 bd3f 339a fabc 6807 babf
00000750: 910e 2ed1 c7e4 a23f 12a7 9fbd a0a2 bdbf
00000760: b206 382e f0f3 bc3f 64f3 019e 01a5 ba3f
00000770: fa74 82fc b68f 643f 890a af26 42c2 b5bf
00000780: 55d8 0fb4 5b2d c6bf 3f8c 3a56 b2e4 be3f
00000790: 25d8 5743 587f b3bf 7d25 d762 b931 c1bf
000007a0: 286f 47eb 5b98 c63f c292 9a7e e0cb a8bf
000007b0: d42b 9c88 31de c1bf f51f 52c4 2a6b bbbf
000007c0: 3f73 8758 7c6d b2bf 4f66 2ff1 39c6 c8bf
000007d0: f9a8 188c 57ca 97bf 010c fcaa 1792 a3bf
000007e0: abf1 4ea2 064d 93bf 4391 2547 c599 bf3f
000007f0: 23f2 f184 c7fb c73f b844 8b49 1804 c4bf

hidden_layer3.bias f8 [20]
0.10998681890417068 0.22056971538724954 -0.112402111162968 -0.10534521205771057 -0.07854273610383732 0.10291691638397224 -0.01936430059129234 -0.04957983772621591
0.11608622363184651 0.15100813798391977 0.030052987066336214 0.12203522118385834 -0.08904336772290494 -0.10301020245589698 0.11228944249573251 -0.01671292074525066
-0.03190976211609371 -0.10967745391436867 -0.0423167180546837 0.04637360919854342
00000000: 953a 2f9e 1828 bc3f 0bc3 09e1 a03b cc3f
00000010: fc40 727f 62c6 bcbf 33fb 9360 e7f7 babf
00000020: cf82 e772 601b b4bf 1e07 1356 c358 ba3f
00000030: 9d80 ff36 3cd4 93bf 7471 264b 8762 a9bf
00000040: 00d2 03a6 d3b7 bd3f ac0f 0913 3c54 c33f
00000050: 875a 63d2 35c6 9e3f 48de f143 b33d bf3f
00000060: 0cab 4bd0 8bcb b6bf 90d1 b36a e05e babf
00000070: db8a 343b 00bf bc3f e001 1620 311d 91bf
00000080: 1a6c 6cf1 7956 a0bf f8b6 ab55 d213 bcbf
00000090: fbe2 3c70 89aa a5bf 257a cf1d 48be a73f

hidden_layer4.weight f8 [20, 20]
-0.14814905545871052 -0.04148185560691926 0.049647593273148764 -0.13726456526370784 -0.09074276718972667 -0.046163730378502715 0.06522786699958906 0.02939876608768473
-0.11632939236300384 -0.08324020806558649 0.06316368951993888 -0.11761234224160258 0.03566751762737704 -0.006270244437091696 0.08403762389641799 -0.008886542616793197
0.2943370492125516 -0.04284038311779003 0.08971291730093303 0.1298550574559691 -0.1441431446216267 0.06133593038695816 0.15593426235002827 -0.11700377108054891
0.13331738843966012 0.10684735871113787 0.05728216947417682 -0.24209527683458956 -0.1950148535121112 0.17044199988115485 0.018186548022280355 -0.2349649046073458
0.07914479789765427 0.09932883512523524 -0.12179326380945492 -0.21444195757764253 -0.07999897631983123 0.1521195989308987 -0.06042216242877713 0.05495645273972089
-0.17445183137402862 -0.11858409157889326 0.09681093366431791 0.028139072455611022 0.047496733585540775 -0.08285688006182589 0.07464818762910758 0.04217257637026848
0.03125590549300497 -0.023747057012893372 0.10675306818103586 -0.17603452936401742 -0.15117263654122295 -0.2238062163329333 -0.11944725690104682 -0.01707080316326733
0.1287321553433595 -0.13798945192245296 -0.3312752648590117 -0.017605436737518926 0.11304145927124205 -0.17621217889874763 -0.20271967120818538 0.20869123882799204
-0.04695799951307734 0.039584336568166435 -0.13803909771928063 -0.12972016628124033 -0.06562038054489211 0.053916636693543005 0.1354119812502106 0.015713843857762203
0.044850999473139044 0.15704720136587336 -0.17396074705274714 -0.24745221357811759 -0.15616969922915125 0.11450839770250804 -0.0007391703494456314 0.13007433861146278
0.037807207874403635 0.12729737933103388 -0.1279550592135007 -0.040473720820779616 0.0080701308529476 -0.0023707830391632287 -0.03703407653673853 0.12558324877493174
-0.0032888199298858004 0.003666034917454728 -0.1490889843149234 -0.0671875060011617 0.05044007294996701 0.09349163461669596 0.04236515699504248 0.011470483469215668
0.19356795961065446 0.1325948794391176 -0.1564205084236927 0.0509558795813843 -0.024509316793340813 -0.1637697321233097 0.18055318390115274 0.1997083187406904
-0.003371450756005355 -0.05380889854326981 0.014294746075851062 -0.1641318428354983 -0.03566148990859397 -0.13249140237193108 -0.03836761047515679 0.27522280750063655
-0.0314335341651274 0.08750833421133561 -0.1769921122641161 -0.04510199235081056 -0.014232472317583083 0.12165103767011595 0.012652876099052267 0.11328141687358174
-0.18806333415431623 -0.21580103700919692 0.24437182494318183 -0.06219194737428368 0.22636055986543113 0.012507277173687712 -0.08503146430902347 0.13466387878230243
-0.15387744974862916 -0.0823608182755405 -0.015922417898332198 0.27716663363499905 0.11997017602625197 -0.08142310300853177 0.07894012113721013 0.05033395045085163
-0.0680687595469595 0.13067724638600903 -0.01691129126967797 -0.16127205556755994 0.14178566522527664 -0.16648688929489336 0.05090410795144579 0.05638936217622638
0.07239052416350832 0.001675598410399184 -0.22605737296116127 0.2676982223403114 0.20678080280177247 0.05944455333514212 0.1079972816169437 -0.119078801906643
0.18805004525928262 -0.1091698389386267 0.030340333061971196 -0.07099607184781528 -4.56493928194692e-05 -0.24210000707342236 0.1610119836162276 -0.0379801468420855
0.04361688648093161 -0.03869843118999538 0.09467204174799494 0.06438524029481164 -0.11760793226831673 -0.010399496930480513 0.18007378472207505 0.09604711160758402
0.04161155601113465 0.13623315128829813 -0.18639876911971973 -0.16836905083741832 0.10184328054405492 0.00298826733707575 0.06891052548426499 0.04589633971235063
-0.08053926420907967 0.04808402272405247 0.1548258375480163 0.20130718291901187 0.00948172060192016 -0.12778379092321857 -0.18948658897199877 -0.010609709903508112
0.021213452760069352 0.18624305288837892 -0.16700659274816784 0.013370344297128856 0.0025941801050792883 0.17153627337928085 0.027136833021862997 -0.13465641128612704
-0.10784627445453622 -0.05214108512949765 -0.23251257932404104 -0.06943158640523182 -0.03432616935946004 -0.06276772510819557 0.07405077163640367 0.13270626809730104
-0.13785238381204318 -0.09520170982191731 0.02639651700386892 0.08545000806201264 0.059019748389516215 -0.042985668881547215 0.010328884135839683 0.14342450643527677
-0.0975318480396782 0.1223536279502151 -0.04257779684051207 -0.05538579475170082 -0.08824338317044787 -0.07664357738533062 0.1297699176086515 0.10202861250893804
0.1419840849460967 -0.01443049764257454 0.24216312668930542 -0.019846209340096517 -0.1890808212798042 0.14338456154766843 0.23462187121508266 -0.1046368053332204
0.0054561112820331785 -0.15217162585988123 0.0952748543214035 -0.11896801584940793 -0.10467316066640042 -0.22981338594779827 0.01678570152876807 -0.026661280953657836
0.06716512591346178 0.11686958208446331 -0.04795334206734706 0.06078423152581189 -0.04276051869621903 0.04877737779233868 0.0032040633529172194 -0.12422465418679456
-0.1639922085513272 -0.07069746074346275 -0.08923483595092414 -0.10680240911639918 0.03517308137755702 -0.13525684493145546 0.13209446865307375 -0.11383709249495828
0.2713192666491724 0.12180516765876521 0.010430532673222567 -0.010219720429129126 -0.0346606268504041 -0.1569590762027762 -0.08123604765833492 0.125205805575529
00000000: 1d71 105a 8cf6 c2bf ca10 6b1a 1c3d a5bf
00000010: 57d7 ddca 686b a93f 3e88 5aa1 e291 c1bf
00000020: cbac 6d01 eb3a b7bf 1c5c 79c0 c5a2 a7bf
00000030: 1913 8d03 c6b2 b03f 55b4 8ecb b51a 9e3f
00000040: 453d c357 c3c7 bdbf 1e9b 5af3 3a4f b5bf
00000050: e767 c8dc 7e2b b03f ca9c 88ab d71b bebf
00000060: bb69 7a4b 0343 a23f 1648 b9ec d3ae 79bf
00000070: 1fc7 445e 7d83 b53f f020 4f8f 1b33 82bf
00000080: 8b9e 1710 6bd6 d23f 0fc7 e0b8 2cef a5bf
00000090: 2215 d6fd 6cf7 b63f e62d 7f2c 179f c03f
000000a0: 8cd6 0b56 4873 c2bf eed6 294e 6c67 af3f
000000b0: c443 8f66 a7f5 c33f 6eb4 4c8a f5f3 bdbf
000000c0: 6811 ab4f 8b10 c13f a40c 5437 595a bb3f
000000d0: 8a2f 12a9 1654 ad3f f5a3 4260 fafc cebf
000000e0: bfcc 0829 3ff6 c8bf d95c ad1f 0bd1 c53f
000000f0: 5c6a ee93 7e9f 923f 1587 7f7a 5413 cebf
00000100: d073 9e5e d542 b43f 2ea4 6952 9d6d b93f
00000110: 1b49 efe4 d72d bfbf 35d5 5785 d572 cbbf
00000120: d1d4 011b d07a b4bf 8592 3eaf a778 c33f
00000130: 099f 2b57 a7ef aebf 694a 718e 4023 ac3f
00000140: ff47 3d07 7054 c6bf 473f 28eb 865b bebf
00000150: bfc4 fbf1 99c8 b83f 4c1a bf2f 7dd0 9c3f
00000160: a55c d5ea 7d51 a83f 0f38 1dc6 1b36 b5bf
00000170: bc9b 92c4 241c b33f 5dc3 98d8 a497 a53f
00000180: 1474 cc27 c600 a03f 218b fc04 2651 98bf
00000190: 24d0 9548 2b54 bb3f 0ce8 4aa9 4c88 c6bf
000001a0: 9950 fffc 9f59 c3bf 384e e59d aea5 ccbf
000001b0: e6a5 fc6d 1894 bebf 75f3 3535 027b 91bf
000001c0: 5558 9296 4b7a c03f 5196 996b a3a9 c1bf
000001d0: aec3 222b 9d33 d5bf 45e8 13dc 2807 92bf
000001e0: 6d7f a9fa 48f0 bc3f 7875 c3e4 1e8e c6bf
000001f0: e929 0cdb b7f2 c9bf 812d ddfe 64b6 ca3f
00000200: e174 6300 e10a a8bf d5fe fced 6544 a43f
00000210: 3e07 23e1 43ab c1bf 46a1 e79f ab9a c0bf
00000220: e431 644c 7fcc b0bf d63f 9e1e f69a ab3f
00000230: 6865 7a07 2e55 c13f 01aa da35 4a17 903f
00000240: ea2e dccf b5f6 a63f 74ba e568 1f1a c43f
00000250: 298c b083 5844 c6bf 7606 529e 83ac cfbf
00000260: c05d 6863 5efd c3bf fce7 3f1f 6c50 bd3f
00000270: 52b5 0f3d 9c38 48bf bc49 31a3 46a6 c03f
00000280: 634d bf62 775b a33f 27f1 8bd0 474b c03f
00000290: 5c01 57d5 d460 c0bf 129d 8bb6 f8b8 a4bf
000002a0: faea b3a0 1287 803f 9ecf cf73 e46b 63bf
000002b0: 422e 2067 21f6 a2bf 37f6 34a5 1c13 c03f
000002c0: b444 52c1 27f1 6abf ae60 7282 3b08 6e3f
000002d0: 36c9 e90b 5915 c3bf 0d8c f94c 3333 b1bf
000002e0: 82b7 74ff 47d3 a93f a8d7 2059 11ef b73f
000002f0: bc35 91c7 e2b0 a53f 8feb f43a d67d 873f
00000300: 1565 0abc d5c6 c83f ef6e 6777 def8 c03f
00000310: f03d 0d54 9605 c4bf 4692 ae98 e316 aa3f
00000320: c87e 4c68 f818 99bf 7cab c515 68f6 c4bf
00000330: e1a5 05e2 5d1c c73f 0c7e ddcc 0a90 c93f
00000340: 6377 96d7 719e 6bbf d849 f406 d78c abbf
00000350: 5a07 3457 9046 8d3f 78f7 9ab0 4502 c5bf
00000360: 90a1 c409 3942 a2bf ba24 1870 7af5 c0bf
00000370: 8fd4 6e60 eba4 a3bf c206 551f 409d d13f
00000380: b04d 7962 0e18 a0bf feab 9039 f266 b63f
00000390: f283 e972 ada7 c6bf 2d29 43bc 9b17 a7bf
000003a0: 0976 2919 ea25 8dbf 064f 51bc 8524 bf3f
000003b0: 6cbc 5d48 c0e9 893f 8971 b7cc 0200 bd3f
000003c0: 3d7f e296 7512 c8bf 8fdd 324e 5e9f cbbf
000003d0: 4eef 1872 9347 cf3f af1d 1878 9fd7 afbf
000003e0: a4f6 dc00 62f9 cc3f bf4b 6253 6a9d 893f
000003f0: 5c97 563e 9fc4 b5bf 9747 a97d aa3c c13f
00000400: 4491 219b 41b2 c3bf 551a f73c 9915 b5bf
00000410: 8d19 9660 f74d 90bf 924d c01e 19bd d13f
00000420: 9332 878e 5db6 be3f d37b 8ffc 24d8 b4bf
00000430: 9668 a076 6b35 b43f 8d39 211e 5fc5 a93f
00000440: ab2b 2248 f46c b1bf 4695 c731 08ba c03f
00000450: e8de be8b 3151 91bf 47ef 350e 90a4 c4bf
00000460: ce92 975d 0826 c23f d6fe 5d40 714f c5bf
00000470: d85b c46d 1a10 aa3f 2244 c704 11df ac3f
00000480: af93 d275 2f88 b23f 71e1 ed17 f873 5b3f
00000490: 79a5 f1af 72ef ccbf ca88 89b9 f721 d13f
000004a0: d4b3 bc18 cb77 ca3f f4e0 ff38 846f ae3f
000004b0: 6307 9ab8 b5a5 bb3f 28fd d5c7 f27b bebf
000004c0: 3131 331d 0612 c83f 0474 f3f7 8df2 bbbf
000004d0: 8eef 0049 8911 9f3f de17 bb6e cc2c b2bf
000004e0: b7b9 a531 f5ee 07bf 9bf0 5e0e 22fd cebf
000004f0: 18a9 f269 0a9c c43f 9f06 2b41 2272 a3bf
00000500: 1a57 fad9 f354 a63f bf2d bce0 47d0 a3bf
00000510: 2137 274b 6d3c b83f 194c 6915 8d7b b03f
00000520: dcb4 d7ae 8d1b bebf 54ac b0d9 544c 85bf
00000530: e1c6 1f64 a80c c73f 7dd6 3a23 8b96 b83f
00000540: 9130 6820 1c4e a53f 7f06 b580 1670 c13f
00000550: 0722 b134 eadb c7bf caac 80f7 1d8d c5bf
00000560: aa0a 41b7 6612 ba3f 8b93 80cf d97a 683f
00000570: 8e1a 4ec5 1ea4 b13f 802c 249c b97f a73f
00000580: 1268 d2a1 389e b4bf a5ae 1e12 789e a83f
00000590: d919 6c42 55d1 c33f 5124 8b0b 6fc4 c93f
000005a0: 6513 29ff 266b 833f 24b0 7c21 385b c0bf
000005b0: 8029 55b7 1841 c8bf 19e6 7128 8bba 85bf
000005c0: 7de4 5bb7 fab8 953f f7a2 a1f6 cfd6 c73f
000005d0: 47ee 08d7 7860 c5bf 607e f03b e961 8b3f
000005e0: 138e c2d6 6340 653f e6f0 1e8e e6f4 c53f
000005f0: 6437 6209 c2c9 9b3f 90d7 55d9 6b3c c1bf
00000600: 9915 c73d d09b bbbf 5e7b d17e 3cb2 aabf
00000610: 817c 0de2 f8c2 cdbf 877c ebb8 44c6 b1bf
00000620: 1978 971d 3393 a1bf 3582 95ae 8b11 b0bf
00000630: d402 6cca fdf4 b23f f1de b9dc 84fc c03f
00000640: a2fd 129c 25a5 c1bf ce5a 35a6 235f b8bf
00000650: c229 0a45 b007 9b3f 60bc 113e 0de0 b53f
00000660: b55f 4d22 d637 ae3f f2fa 15b4 3702 a6bf
00000670: 5074 8a5c 4f27 853f 6ecf 4af6 bb5b c23f
00000680: a91b a6e1 d8f7 b8bf 10d7 973e 9152 bf3f
00000690: 5b74 eec9 c1cc a5bf 5338 3ee2 865b acbf
000006a0: 4f33 ce4c 1e97 b6bf 4c85 51da e99e b3bf
000006b0: 771f 11f8 4c9c c03f e16d fb11 8c1e ba3f
000006c0: 30af b2d4 882c c23f c2d6 849b bc8d 8dbf
000006d0: f1bd b68a 33ff ce3f e2d9 4290 9052 94bf
000006e0: 4c4a d9e3 cc33 c8bf cc9c 4ce1 6c5a c23f
000006f0: f6c5 e5e7 1608 ce3f a835 dd48 7ac9 babf
00000700: 9590 50b8 2559 763f 5d42 391e 5c7a c3bf
00000710: 310c 71cf ee63 b83f 0ddd 5719 b074 bebf
00000720: d0c5 d439 dccb babf c216 6a68 866a cdbf
00000730: 1008 6d5c 4530 913f 62cc 0f47 184d 9bbf
00000740: efe3 3ad3 bb31 b13f 6930 f338 2aeb bd3f
00000750: 4589 d327 578d a8bf 0c1e 085d 1c1f af3f
00000760: a573 b8ea b4e4 a5bf cc32 ce34 59f9 a83f
00000770: e73a 156a 683f 6a3f 4bd5 16db 2fcd bfbf
00000780: ef6c 435a b2fd c4bf b2ac cd91 3a19 b2bf
00000790: 95b9 121e 18d8 b6bf 6af8 4916 6757 bbbf
000007a0: beab 6ec4 3402 a23f 1e37 c5a6 1850 c1bf
000007b0: 3579 6cb7 78e8 c03f 2d6b 567d 6d24 bdbf
000007c0: 041b 427c 4b5d d13f 7d04 949b 9f2e bf3f
000007d0: 78d8 b065 9a5c 853f 4a94 23a8 13ee 84bf
000007e0: 770c 90a5 09bf a1bf 41f7 8c29 3c17 c4bf
000007f0: 90e7 f2b7 e2cb b4bf 79ad 1b6c be06 c03f

hidden_layer4.bias f8 [20]
0.0002081209535215892 0.1187599071684733 0.18316335562480235 0.17389265017425795 -0.19067727984703003 -0.04130947265803355 -0.0409395532364761 -0.04126324154632802
0.005838287040649842 -0.23092803860060312 -0.2113249834464859 -0.13235349585858927 0.11977686960221799 -0.019241491751163686 -0.08816920125431195 -0.14897785179050602
-0.09593974455147238 -0.05069816053697132 -0.09508786655073596 0.12840665943740873
00000000: 49fa c260 6147 2b3f b155 5d9d 0c67 be3f
00000010: 6cf8 1d97 e571 c73f c1b0 c146 1d42 c63f
00000020: 0241 84f4 1c68 c8bf f39a 29e4 8326 a5bf
00000030: 8beb 8674 07f6 a4bf b4d5 efa1 7420 a5bf
00000040: a0d0 773e e3e9 773f 1e6f c2ca 0c8f cdbf
00000050: b17d 5d72 b20c cbbf 29a9 1c98 f5f0 c0bf
00000060: 973f c269 b2a9 be3f 50a4 30a7 0ab4 93bf
00000070: 99d6 e6bb 4192 b6bf 1f60 a2cc b411 c3bf
00000080: f933 3cd1 818f b8bf 3482 f2fa 1bf5 a9bf
00000090: 5ff2 14ad ad57 b8bf e1a6 6f21 a16f c03f
