net_param/net_0.04.pth (torch, 17999 bytes, 12 tensors)

hidden_layer1.weight f8 [20, 2]
2.39110080018024 0.5479933154463787 2.533145347369285 -0.8870830570530883 -0.8052709685196744 -0.08919761569097681 0.7843315126920722 2.136922669694713
0.40896424418466254 0.555526609355658 -1.1108651405761243 1.320788055232528 -1.3525687661231476 0.7435209719561924 -0.9041838426669528 0.06055957844829321
-1.4087650234132225 1.663998586527613 0.2350934655031033 1.8195396939904833 -0.9020846358795302 0.6386685601423125 3.603467825408285 0.2986039741924724
3.763037870417162 -0.011420397299997291 -1.0043049499178458 -2.606036844359838 0.9778005446919044 -2.354613320892906 -1.2381524210933244 2.8524821345661686
0.28667901607297536 2.068853073853683 0.1390541920451182 1.3888575099228309 0.5333540690582691 1.127238216898541 0.5296205819441976 -0.8007606998450069
00000000: 60b5 d174 f920 0340 149a 0847 2989 e13f
00000010: a1b9 37b5 e143 0440 721e dc01 fc62 ecbf
00000020: 58ba 469f c7c4 e9bf be1f 46aa a7d5 b6bf
00000030: 5482 8766 3e19 e93f c15b a3e9 6a18 0140
00000040: 3b6a 805d 782c da3f b1b0 67bd dfc6 e13f
00000050: 83a7 9086 1ac6 f1bf 07bd e2a7 f221 f53f
00000060: 9b70 8125 1fa4 f5bf b224 4e7e ecca e73f
00000070: 0070 3af4 12ef ecbf f438 ca41 aa01 af3f
00000080: 79ef 7431 4d8a f6bf 069f 5bfb bc9f fa3f
00000090: b568 ebec 8a17 ce3f 5768 77a7 d51c fd3f
000000a0: ec73 2a99 e0dd ecbf b46d 590c f96f e43f
000000b0: da88 72f0 e6d3 0c40 e02f e7d7 531c d33f
000000c0: da68 5899 b31a 0e40 6959 49c7 9363 87bf
000000d0: a3ba 3111 a211 f0bf 8792 55d8 29d9 04c0
000000e0: 91ce 2e5e 244a ef3f 19b0 3f82 3fd6 02c0
000000f0: ddf1 c0e9 78cf f3bf 7516 4327 e2d1 0640
00000100: a1e7 9ef1 f258 d23f f471 23d7 028d 0040
00000110: 5e4d 9a1b 87cc c13f c8c2 fea6 c238 f63f
00000120: bd66 798d 3c11 e13f e416 c6f0 2a09 f23f
00000130: 63a4 d7dc a6f2 e03f 3d34 38e7 d49f e9bf

hidden_layer1.bias f8 [20]
-0.10645657133696046 0.26652036967285225 0.06076195285889308 -0.6097798366176528 -0.20612192139891888 -0.364015230001447 -0.18372795942137515 0.01617410929131607
-0.4193392820751146 0.09848977132747747 -0.15519722797646573 0.024866909908232534 0.08452154483011382 0.6214286689903046 0.5512230570398137 -0.6964542913689296
-0.0018954732459224894 -0.34929492612005353 -0.5035508819718866 0.3329380412048945
00000000: 3c27 56e4 bc40 bbbf 619d dd73 ab0e d13f
00000010: d175 bdd0 301c af3f ae0e 0101 5183 e3bf
00000020: 2ed2 b2ff 3362 cabf 5889 0689 064c d7bf
00000030: f6ad 89d4 6584 c7bf 2fe3 ca19 f28f 903f
00000040: 0635 9c6d 74d6 dabf 8e8f d72a a036 b93f
00000050: 085d 4bb5 80dd c3bf efd6 3b13 b676 993f
00000060: f44c da36 34a3 b53f 7e86 4360 bee2 e33f
00000070: 4530 5989 9ea3 e13f 3cd4 9282 5a49 e6bf
00000080: 12ed 81e6 300e 5fbf 180a 161b d95a d6bf
00000090: 621e 3ebd 161d e0bf c76f a45b db4e d53f

hidden_layer2.weight f8 [20, 20]
-0.08904249940401282 -0.2253295678739816 -0.4332676053742137 -0.4817672610351021 0.2551025149478329 -0.19739722295694748 0.070416099852118 -0.6653662886021067
0.052468307940556604 0.07415960895779841 -0.3951601959022439 -0.23947056250487742 -0.3224241447531549 -0.005615301357136413 0.07679011662772184 0.22421175126118675
-0.04218345642304114 0.09118044481422419 0.27298552866445486 0.06931000650564413 0.013163854081152046 0.6727049066545376 0.4621764444189274 0.056935030482695353
0.036475184054630745 -0.1074537565545032 -0.0033038248135839206 0.3780973161914511 -0.0626570949409615 0.20542446482672835 -0.06855581112049383 0.045880317039487695
0.23276634724807557 0.062366360141793524 -0.07627373285595174 -0.05383938024215006 0.3650548952278101 -0.2826083449040337 -0.6747599361761275 -0.28719573243155433
-0.25594218611948094 -0.20667529734849266 0.15686686775057182 -0.4950004357660208 -0.05830557977461991 0.4976930502483383 0.356388106397842 0.3124279398352436
0.32995529382982136 -0.059632226044738966 0.3541210811145283 -0.39055672251026513 -0.48285923425137994 0.4381837874162605 -0.24242959066991157 -0.03270820235882387
0.21087960182482945 -0.07723952009160691 0.13914842071125408 0.058702548176584074 -0.03518043691961173 0.20585458655199268 -0.4115085909675981 -0.2814969241810274
0.46348716848532373 -0.10597691474471489 -0.05578274081328687 -0.4286433819387305 0.05325476923640858 0.23098924943783145 -0.4262673034355582 -0.3433202963656107
-0.31303447128933864 0.06687643242913388 0.06885942968635617 -0.03535315516457664 0.41332021800217317 0.25798713400161694 0.2764745507900068 0.0308503181865263
-0.1336447930983213 0.21084115708848028 -0.4450000449673071 -0.36421856337293795 0.09679004650285034 -0.18839460647805062 -0.4208091449198955 -0.2924953148331491
0.14160447873909385 -0.05389773767009148 -0.47274260606540325 -0.167156888637243 0.05894556300813419 0.13433240658130566 -0.26692256089295746 0.4011118367769347
0.07969351355318359 -0.07798112970106529 0.10071788773731041 0.1154176704103508 0.057275705345302554 -0.072476870759599 -0.18758290421489943 0.4692212667861639
-0.15690301082559271 -0.08942511415239811 -0.20495697062128887 -0.08182905510056461 -0.008547383649246246 0.006944781230133576 -0.06894299640530252 -0.06042511753991222
0.15286405718597076 -0.3105889278251614 -0.03137043519255749 0.04924628240800007 -0.1160746368259609 0.027578617159258422 0.26896321741378276 0.17269739111462754
-0.42502833354598085 0.31832670420992426 0.188115337373276 -1.0940596785091703 -0.3029217942477156 -0.29406001476843857 -0.13432959298702593 0.028740073851184288
-0.36640369950919877 0.026725152508089822 -0.11754675960389777 -0.39687165886389253 -0.12464406793212943 1.5274631597944506 0.7584925076073626 -0.8556015645966241
-0.24219481724939376 -0.976312656757461 -0.46651446309104755 0.17481663475927578 0.21683103047111826 0.26293282575923166 -0.23613614897700946 0.570976676677651
-0.013808438053140925 -0.15135581838274145 0.03426777866562372 -0.32857068097437225 0.1140592520918652 -0.0691500106878165 -0.05076203066300675 0.14012581695848708
0.20458923054708122 -0.7285929899961111 -0.11935442419451539 -0.09675363126682188 0.05828087655856287 0.4251855026040774 0.24433823635862825 -0.044228424969977906
-0.16494464745583898 0.03662466353094795 0.543218388649756 -0.12014174217777851 -0.34652500313778645 0.008797917228168516 0.13490852406978002 0.45579496085917687
0.14039802532597648 0.2032336712689655 0.3618231512687134 -0.09916917049836751 -0.3106992299849099 0.0732077823407701 -0.05956400192510998 -0.16934552849713694
0.19627702703686772 0.10651844468160303 -0.8160122173701829 -0.26925952445955914 -0.1521122414605701 1.1294787028057007 0.1171580446523102 -2.3978444105432954
-0.44461148719849575 -1.2926221458770182 -1.0073524365857736 -0.0685333241198907 -1.9760566129019133 -0.15854858086304835 -1.0584147467659306 0.34014139762766193
0.5127219494087479 2.304411286365431 1.794790699594398 -2.571663856365379 -0.4354060720229282 -1.4717511441160724 -0.49561931759887107 0.4941819185985735
-0.112429538123867 0.10602457573730723 0.09989704572433736 0.4885866681357281 -0.03522085400463307 0.2505805746284957 0.11436539850924854 0.22738242293242333
0.19898585238074562 -0.21694921504290304 0.1819656547975136 0.05428365724075068 -0.03510004305477915 -0.40987400027948057 -0.22178128364876962 0.4125724870361062
-0.1670830236961306 0.527272654525652 0.39684513805449506 0.10540019059856258 0.2098312397019864 0.5251439726410945 0.05845470070202885 0.1422815602059607
-0.029294909311061837 -0.5843624583705427 -0.378303200183437 -0.08501838811760941 -0.32788987466555525 -0.15956579214408823 -0.3781835053862966 0.5326864710375668
0.6761840014902011 0.386205403614101 0.6768451768274951 -0.8011089238402797 -0.0847281981331733 -0.34929311220278114 -0.1459430361458899 -0.0057679238574435176
-0.4544661180949768 -0.32820258609946434 -0.28792422206189766 -0.5883549487861824 0.00985431502737865 0.0012369307612462692 0.2572700340973303 -0.22512272550982743
0.12564755263901278 -0.01125672037777373 0.1097815779372578 -0.5777582517376636 -0.6565085032715359 0.5398861755115801 0.05844893045263299 -0.021441504724212655
00000000: 1cf3 e43e 7dcb b6bf 9397 6b6a 99d7 ccbf
00000010: 20e7 df0c a8ba dbbf f978 9b59 46d5 debf
00000020: c302 b57f 9953 d03f 7bed 75ec 4f44 c9bf
00000030: 240a fa1d ca06 b23f b305 2d3e ae4a e5bf
00000040: 65bf 5c45 20dd aa3f aa6b 28c7 1ffc b23f
00000050: 9730 85fd 4d4a d9bf 0816 28ad f8a6 cebf
00000060: ddf4 49e1 98a2 d4bf 9734 fafa 1100 77bf
00000070: 9074 925f 84a8 b33f f8d8 857d f8b2 cc3f
00000080: f4d4 89eb 1199 a5bf 0207 8304 9a57 b73f
00000090: 6349 794b 9878 d13f 992f 3af3 4cbe b13f
000000a0: f895 2496 a6f5 8a3f 4014 be70 cc86 e53f
000000b0: d9b1 7082 4c94 dd3f 5402 d79b 9626 ad3f
000000c0: 29ac 4215 e0ac a23f 4ae3 3be2 1682 bbbf
000000d0: e373 d570 9f10 6bbf 8fd9 ef15 bf32 d83f
000000e0: 8040 a29d 4b0a b0bf 2b53 1d4f 594b ca3f
000000f0: 2299 b6a6 df8c b1bf a0ee 6dfa 9f7d a73f
00000100: 451a 85a4 49cb cd3f 6fef 5bca 7bee af3f
00000110: d0ff 28e4 ac86 b3bf affe c0d2 d590 abbf
00000120: b4e1 0f35 0f5d d73f fb20 bc4f 4116 d2bf
00000130: 67e1 5026 a297 e5bf e308 9635 6a61 d2bf
00000140: d231 c355 5b61 d0bf 705d 800d 5674 cabf
00000150: e146 68a9 3614 c43f 52bb c74e 16ae dfbf
00000160: dfd4 9c9c 3ada adbf 98d6 90f3 33da df3f
00000170: d85f 6a0f 10cf d63f dbbc fcc1 d1fe d33f
00000180: a808 09cf fc1d d53f f3b6 4c79 1d88 aebf
00000190: 0b82 8d77 eba9 d63f c187 9a9f e1fe d8bf
000001a0: 179a eb6a 2ae7 debf bec6 2503 340b dc3f
000001b0: 9d45 c1cd ee07 cfbf bf5a e226 21bf a0bf
000001c0: 2496 9d50 1afe ca3f 4d8f c01c f8c5 b3bf
000001d0: 6758 1f8e 9dcf c13f 5478 38a9 420e ae3f
000001e0: d4b4 0e94 2b03 a2bf ee77 7c6e 7159 ca3f
000001f0: e3a5 0e21 2856 dabf ff0d d2ac 0b04 d2bf
00000200: 99a5 b015 c6a9 dd3f cda3 f596 4d21 bbbf
00000210: f7d8 f22e 8e8f acbf 40b7 c4a6 e46e dbbf
00000220: eeea 7388 3544 ab3f c212 0844 0e91 cd3f
00000230: 7807 e7a7 f647 dbbf 725f 3cb1 f5f8 d5bf
00000240: c755 2dbc c108 d4bf 3802 285a d01e b13f
00000250: 282c 8686 c5a0 b13f d60a 7c0a cf19 a2bf
00000260: 3d13 c6a4 d673 da3f 81d8 d477 dc82 d03f
00000270: 9070 7450 c2b1 d13f 45b3 bace 3997 9f3f
00000280: 37a9 d1c7 451b c1bf e043 2cd1 d7fc ca3f
00000290: 6999 f677 e17a dcbf 931a 9260 5b4f d7bf
000002a0: 1cdd 4e84 3bc7 b83f 4073 c880 501d c8bf
000002b0: aa79 d27a 89ee dabf 2943 dc44 3eb8 d2bf
000002c0: 8365 9376 1820 c23f 182c 3ef9 7b98 abbf
000002d0: 8d82 1e34 6a41 debf d9c0 ff9c 6565 c5bf
000002e0: 277e bae2 1c2e ae3f b1a3 87e6 cd31 c13f
000002f0: 7763 665d 4215 d1bf 09b5 3ffb d0ab d93f
00000300: b30c 6a4a cb66 b43f ff6d c541 92f6 b3bf
00000310: ea35 f4c1 a5c8 b93f a9ff ca2f 038c bd3f
00000320: dd76 a0c2 3d53 ad3f 5aff a01d d88d b2bf
00000330: 0423 7273 b702 c8bf ffca dba2 b807 de3f
00000340: c2e6 11da 6515 c4bf 03c2 b974 90e4 b6bf
00000350: f2ec f3ae 073c cabf 69fe 84bb bff2 b4bf
00000360: 0845 eb69 4a81 81bf 3047 2e84 2172 7c3f
00000370: 5e59 d98a 3fa6 b1bf e3ba 617f 0af0 aebf
00000380: c17e 2ca7 0c91 c33f bb8f e061 b0e0 d3bf
00000390: 8738 6d22 c90f a0bf 6aac c808 cf36 a93f
000003a0: 3305 1041 11b7 bdbf 7359 12ab 913d 9c3f
000003b0: e79f a77f b136 d13f 6b8e 78b7 f21a c63f
000003c0: f903 1d0a aa33 dbbf 149b 01f8 765f d43f
000003d0: 0776 f2d2 2914 c83f 481b b1b8 4481 f1bf
000003e0: 7888 e217 1263 d3bf 5a78 9f18 e1d1 d2bf
000003f0: 83d3 614c b631 c1bf 8612 1ab5 096e 9d3f
00000400: 7ba0 a180 2873 d7bf 40ed 02a0 d65d 9b3f
00000410: 34e0 3f60 8b17 bebf 64e6 e162 5866 d9bf
00000420: 8ead 6873 ace8 bfbf 8097 d235 7d70 f83f
00000430: afe8 4d14 9245 e83f 732a 4b88 1661 ebbf
00000440: 5965 ac61 3d00 cfbf a136 6e0a f43d efbf
00000450: 3392 857a 5fdb ddbf 343f 8b38 6460 c63f
00000460: c7d2 5084 1ec1 cb3f ad91 eb33 e4d3 d03f
00000470: de3b a196 b539 cebf 327f 23e1 7045 e23f
00000480: 06d3 c62e 9947 8cbf 37b0 01a1 a05f c3bf
00000490: b4d0 59d9 8b8b a13f 7466 4d52 4d07 d5bf
000004a0: 9970 8ab5 fc32 bd3f c316 6caa d0b3 b1bf
000004b0: ddfe 261b 7bfd a9bf e6bb 948c a4ef c13f
000004c0: 5c21 28db fa2f ca3f d319 043f a250 e7bf
000004d0: fa60 8cf4 028e bebf 166c 0f92 d8c4 b8bf
000004e0: 343c 9ab5 fdd6 ad3f d0bd 1a41 3d36 db3f
000004f0: d34b 29af 7946 cf3f 0e6b 99ad 1ba5 a6bf
00000500: d28d 3cfd e71c c5bf 5f52 2fc8 77c0 a23f
00000510: c5c4 ba87 0b62 e13f d8bb 89f5 9bc1 bebf
00000520: 1c47 ee34 772d d6bf 19a8 2476 a404 823f
00000530: 2769 6ab9 ae44 c13f cb97 a4a0 be2b dd3f
00000540: a959 99ff 8ff8 c13f 97ea c599 8f03 ca3f
00000550: 51a0 684a 1c28 d73f 12db 0f98 2663 b9bf
00000560: 515d eb05 7fe2 d3bf 0a5f f7c6 bebd b23f
00000570: 9a0f 9340 2c7f aebf ad3c 4f41 1dad c5bf
00000580: 922b 0a0a 9b1f c93f 8309 54f4 ca44 bb3f
00000590: 60b9 57a7 c51c eabf 2e2e ec4c 8c3b d1bf
000005a0: d37b 32f7 6978 c3bf 8943 a142 5812 f23f
000005b0: 02b7 3ed2 11fe bd3f 5670 e10c c92e 03c0
000005c0: ae61 3cbd 8374 dcbf be08 2a8f 94ae f4bf
000005d0: b3e8 aa96 1d1e f0bf 13f6 c761 668b b1bf
000005e0: fd54 f789 ed9d ffbf 0c27 d1e4 514b c4bf
000005f0: b36b 2f4d 44ef f0bf 08e6 b46c e0c4 d53f
00000600: afdc 94dc 3768 e03f 54c8 3b2f 6f6f 0240
00000610: 33c4 de73 76b7 fc3f 0728 fb7f c492 04c0
00000620: fb5e f46d b1dd dbbf 0d44 7ded 4a8c f7bf
00000630: 5d97 1616 3ab8 dfbf 32f2 a932 ada0 df3f
00000640: 46ad 58a5 2ec8 bcbf bc2f 5d35 6d24 bb3f
00000650: 3261 5a50 da92 b93f 45e4 3904 0145 df3f
00000660: 0497 2cc0 7708 a2bf a8b4 421b 8309 d03f
00000670: a027 64fe 0c47 bd3f 320a 1703 de1a cd3f
00000680: 34c6 2b50 5e78 c93f 1e46 c0eb fdc4 cbbf
00000690: b4de 2c8c a64a c73f 10d3 1c49 11cb ab3f
000006a0: f855 0402 a2f8 a1bf 8d96 ab28 603b dabf
000006b0: 6974 1140 5463 ccbf 5b2a c36e 9667 da3f
000006c0: 2cef 3efd f962 c5bf b568 e8e6 6adf e03f
000006d0: 8452 6126 e965 d93f 1bed 9cc3 81fb ba3f
000006e0: 597e 1904 c0db ca3f aeeb 85bb facd e03f
000006f0: e017 a047 c6ed ad3f 4b48 f43b 4836 c23f
00000700: a49f b815 7cff 9dbf c6c5 f6e5 18b3 e2bf
00000710: e4a3 30a0 1e36 d8bf 9f15 86dc c3c3 b5bf
00000720: c532 18d0 25fc d4bf 4edb 68e1 a66c c4bf
00000730: 8554 e196 2834 d8bf 9518 847f c40b e13f
00000740: 9152 8fa1 4ca3 e53f 25e8 83de 96b7 d83f
00000750: e1bd 5d37 b7a8 e53f 2db0 8d2e afa2 e9bf
00000760: cdee 0748 bfb0 b5bf 9841 687f d15a d6bf
00000770: 65ab a9eb 42ae c2bf 052c 5645 1ba0 77bf
00000780: 75e9 960e f915 ddbf f3a0 706b 4501 d5bf
00000790: 99da 5eb7 596d d2bf bd3e efc1 cdd3 e2bf
000007a0: fcf6 22c6 7f2e 843f 359f af4a 1044 543f
000007b0: ee15 acbb 1c77 d03f 0a57 d34b d2d0 ccbf
000007c0: 8618 b410 3815 c03f d2e1 0f6f c30d 87bf
000007d0: b59c f13e a51a bc3f 06a3 86df fe7c e2bf
000007e0: e61b e31e 1e02 e5bf e54f 6c5f bf46 e13f
000007f0: 3f7b 8fa9 04ed ad3f b624 4506 c3f4 95bf

hidden_layer2.bias f8 [20]
0.08156194755153154 -0.42632122710983145 -0.003994782276169268 -0.1524923122862089 -0.013409852135877387 0.2818753009337836 -0.005543153345117796 0.12544996731814653
0.1442882043272015 0.1942357662021039 0.32777316261319334 -0.10601326377715399 -0.37859197540180517 0.3909675110508962 -0.10306869590672035 0.09638264593169037
-0.09152714262476876 0.12325573653858146 0.12695700462874954 -0.3410407581670565
00000000: 16f7 5469 3ee1 b43f 86bf 01d4 d848 dbbf
00000010: 2d4e b133 d55c 70bf 5e91 143b de84 c3bf
00000020: 6d3b f1e2 9f76 8bbf 79e3 c3b3 3e0a d23f
00000030: 060a 58e5 6ab4 76bf ed35 7599 be0e c03f
00000040: b556 642f 0978 c23f cf98 c6b3 b7dc c83f
00000050: aa87 7b49 3cfa d43f 0d77 dd6c af23 bbbf
00000060: 173e 38d6 d93a d8bf 8ac6 7098 9c05 d93f
00000070: cc25 29c6 b562 babf f3b5 2d78 88ac b83f
00000080: ad0b 45a4 526e b7bf f843 7a1d b08d bf3f
00000090: f675 708b 2040 c03f 2c8e bb9d 9cd3 d5bf

hidden_layer3.weight f8 [20, 20]
-0.032960614098854715 0.1367561863336329 -0.09172505674784252 -0.17168358576108345 0.21230354155998896 0.26333292617498927 -0.2228216657613495 0.4462598253313764
-0.1819477094594209 0.10819196493512334 -0.27647041769573466 0.37460318059928477 -0.3233265696351665 -0.013958173763641382 -0.1025410373814621 0.311595244071262
-0.2697735765890894 0.5233560631803302 0.3526659344673122 -0.3533830846239714 0.30499166263289107 -0.058194734101884804 0.03565960479793293 0.14699868334680796
0.031495049968767105 0.014548142204262933 -0.22648521454149603 -0.07924022534059251 0.05852564893485548 0.007075721066850019 -0.34475505209287416 0.01250563014497099
-0.2321525624869785 0.040351979269346125 -0.013758617588753392 -0.03420921690406753 0.038572769475956184 0.010434948258376731 0.0696957793814301 0.15067471180237496
-0.17456545642314952 0.21147571790858596 -0.3590527808606959 -0.12807715067512782 -0.016436759338967693 0.0490236753575016 0.13394572346184036 0.1684051876044811
-0.2713308192583805 0.29488963255561024 -0.018122557087476822 0.40909169176693333 -0.11484112984321512 1.2494056994282272 0.19996286690763823 0.22976434205124185
-0.7542972585957998 0.366480057262249 0.12919704418565728 -0.014587742368483066 -0.47033026166723724 0.6871258085478148 -0.24885692848282476 -0.09116082305190196
-0.17535628760651525 0.13188149736226396 -0.08259274695666682 -0.0033029348878558062 0.8143518722947708 0.011811529495820382 0.10118479038973544 0.40165087637751706
-0.2823238098708183 0.03547834729069744 0.29462524700187986 -0.8168877377922301 -0.11540812128883256 0.31691191401794616 0.2640203777604824 0.31890344893334416
-0.0675194116206074 -0.16987828899829224 0.46004196570701933 -0.20689423520021719 0.12661466206102132 0.3356195947326347 -0.21823815092254295 -0.08745510499387445
0.09002260650457286 0.0010980180008967888 0.7055546622879161 -0.6229837608139653 -0.06375346188401435 0.03941217461807549 0.2979648019840305 -0.18575539234964636
-0.08269872777030116 -0.20576677628474224 0.05767410794105038 0.10495956167865264 -0.1673994879492702 -0.24464045605164927 0.07735978676203108 -0.2998191042595452
-0.28254885460062523 0.04756948634852087 -0.2653789810671259 0.08673585794049565 -0.11934446206889543 -0.14541713443257462 -0.03957253117762661 0.3385138517961412
-0.03955098994366867 0.14142442113450057 0.07227400323970781 -0.12337059002155987 0.2677094370518007 0.10218917082078423 -0.0584857126134951 0.14056911313320808
0.05730496053928689 0.021897240636577345 -0.17097221104761554 0.246009148563382 0.0019904041563545524 0.322799046745146 -0.3984704639891749 0.3566882746853197
-0.26631530544737975 -0.16891709330248353 0.06380571168454449 0.238783720302888 -0.18353799481890226 0.8800240551700416 -0.1248854898541687 0.0214942760185434
-0.34012893124918386 0.12725298910027247 0.16278866419460847 -0.2658496520907704 -0.20531580289676485 -0.3039097101213632 -0.12281000679233098 -0.7871477897147394
-0.17987972887833228 0.034723176375302776 0.029141268642939075 -0.30036702725633363 0.3093085110378045 -0.07832427087093838 -0.1468332885425969 -0.09625923483835547
-0.12401071228650327 0.27089553738760475 0.023737226794046103 -0.32804609844061644 -0.14581010866942626 -0.1905884654090007 0.2220113010788878 0.3879550328894207
0.37050440635275683 0.2423678716544801 -0.20839889203271844 0.19756675942292246 0.35038027312576814 0.16441778956433953 0.2517147726160389 -0.13487371843788076
0.06515478178615093 -0.033095756990639616 -0.37032619998480226 0.6195816988522912 0.040758773777008525 0.08084796174147872 0.2117108811544039 0.14353840695906664
-0.8921812305505139 -0.04549954640026779 0.21083801887940884 0.4147438683413476 0.40023024151543257 -0.21927160382238228 0.3543814641958503 0.7459155808359409
0.3306783538957599 0.17467736657717092 -0.024066925038915426 -0.0661750861462071 -0.21493553428823967 0.10100137951647209 0.37772702822399545 -0.09388887498986215
0.23531830852257632 0.011990484108492436 0.21412651801446986 -0.05200156714697407 0.0007907067050587019 -0.05565715838664895 0.014387520905376448 -0.22675093595209694
-0.07761712956307976 -0.12336517543970901 0.019374033067636492 0.28634988821218305 -0.1969692613729042 0.13239834521070218 -0.20677960979430374 0.09541733367861978
0.19722233497390534 -0.30628166292889236 0.12267272246842224 0.027337878659784178 -0.12086654282274242 0.21122648637078353 0.38148532393421697 -0.0653593897254866
0.01491684778713302 -0.1615175239437953 -0.07988534136602433 -0.06790958304516247 -0.1928469158188415 0.0925842607902413 -0.158383000120202 -0.3061566529873439
-0.00647987522279764 0.27367943477830725 0.11904110758366852 0.38275878255488627 -0.6738772999635042 0.1001046714054403 0.12105004659677097 -0.06019678229888977
-0.06212753372377383 0.16091193217733973 -0.18663541344592327 0.35639359932599357 -0.08678562505606237 0.1880596683950707 0.16233150980772107 -0.11100113750460429
0.1311506953971862 0.6565331479603396 -0.13249417359417767 0.40045395043217064 0.24973178635391546 0.26109613429652384 0.511490519186824 -0.06844042743070382
-0.239928928981504 -0.09909091239638788 0.08232990085975155 -0.25951821102388517 0.1384918192231087 -0.044147461406444634 0.02527391036053793 0.19680506512727677
00000000: 1aa8 38af 36e0 a0bf ba10 ea09 3a81 c13f
00000010: 93aa f416 4b7b b7bf 704b 0d4d baf9 c5bf
00000020: d79d e92f c32c cb3f 806b 7858 72da d03f
00000030: b782 a49b 6b85 ccbf a648 d45e 858f dc3f
00000040: daeb da02 104a c7bf f419 16f7 77b2 bb3f
00000050: 1023 94fa b0b1 d1bf 56b2 699e 7ff9 d73f
00000060: b2b2 a0ec 61b1 d4bf fb21 9d5e 1a96 8cbf
00000070: 8d21 0d22 2140 babf 6903 b82d 2df1 d33f
00000080: 149b 3164 f843 d1bf 02bb f036 55bf e03f
00000090: 1cd3 bc23 1492 d63f 08da da15 d49d d6bf
000000a0: 51e6 23c0 fb84 d33f b0b5 883f b3cb adbf
000000b0: bd72 cac8 f941 a23f efc9 c354 dad0 c23f
000000c0: 5617 3483 1e20 a03f c401 e197 6acb 8d3f
000000d0: c3db bdae 77fd ccbf 6992 5d60 1649 b4bf
000000e0: f304 4ee8 12f7 ad3f 506b 3e69 6efb 7c3f
000000f0: b0a8 777e 7710 d6bf 4c7e e843 8d9c 893f
00000100: b136 c8d7 2cb7 cdbf 26d8 94be 03a9 a43f
00000110: 77a9 a764 7a2d 8cbf 6044 a6d7 de83 a1bf
00000120: 8aac d45e cfbf a33f ed9b 0a0c eb5e 853f
00000130: 0ecb 1c25 95d7 b13f 2641 c317 4f49 c33f
00000140: 86a3 2c2f 2958 c6bf 3f62 28e6 a211 cb3f
00000150: 2a69 d583 b8fa d6bf 64dc c102 d564 c0bf
00000160: 5b9a 403f ccd4 90bf 0cc7 c794 a119 a93f
00000170: be94 da2a 2225 c13f 7c76 9e1a 4d8e c53f
00000180: f724 c7f0 7b5d d1bf 135f f0c3 78df d23f
00000190: 4adc 0a38 b88e 92bf 1b13 4deb 8e2e da3f
000001a0: 668c e970 3a66 bdbf 12af a7d4 90fd f33f
000001b0: bd2f e41a 6298 c93f 40d2 72ff ea68 cd3f
000001c0: 8d34 2401 3423 e8bf dbf6 24c5 6874 d73f
000001d0: bd35 c25b 8789 c03f 912e 29a3 2de0 8dbf
000001e0: 9683 0b19 e419 debf db69 7e43 effc e53f
000001f0: 3ebe 9b38 8bda cfbf 5632 afd1 5056 b7bf
00000200: 7d7f 3528 1372 c6bf d828 0f2f 7ee1 c03f
00000210: e6d0 105b cc24 b5bf d780 5faa c10e 6bbf
00000220: 3728 5ea8 2b0f ea3f 26ca 33a7 a430 883f
00000230: 6497 9315 3fe7 b93f 0ce0 9ce0 a5b4 d93f
00000240: 10bf 91e2 9711 d2bf 41cb a8ca 372a a23f
00000250: 5abc 1cda 23db d23f 0e46 cac0 f123 eabf
00000260: b5da a0fa 628b bdbf b4de 9ae8 4848 d43f
00000270: 995d fdb9 b5e5 d03f 3b05 f002 ea68 d43f
00000280: aa73 c1c0 f348 b1bf 3328 c65f 92be c5bf
00000290: ebf2 5fdb 5371 dd3f 0f3b f5a2 827b cabf
000002a0: c782 5fc4 e834 c03f 0a80 d19b ca7a d53f
000002b0: b4d5 794c 3aef cbbf c922 d12f 7563 b6bf
000002c0: 327b d6b6 b80b b73f 8093 dfd9 6bfd 513f
000002d0: 3e24 025f e793 e63f 7952 d4a3 7bef e3bf
000002e0: a272 cc99 2552 b0bf 3606 1922 d52d a43f
000002f0: 8e5a f8f5 da11 d33f bd43 992b d5c6 c7bf
00000300: 66ba 316b be2b b5bf 4b87 5fd3 9056 cabf
00000310: 0896 ddee 7587 ad3f 6af3 cf3c a1de ba3f
00000320: 49fc 0daf 586d c5bf 1f9b 02e3 6050 cfbf
00000330: 0320 2bda d9cd b33f 4fb0 e077 3c30 d3bf
00000340: 610b 82ca 4715 d2bf 900f 4f18 075b a83f
00000350: b8a9 2e1f f8fb d0bf c8b3 3e39 5234 b63f
00000360: 1c6c 8bd1 5b8d bebf a33d 5556 079d c2bf
00000370: 51a8 74ce d942 a4bf 5346 ad00 36aa d53f
00000380: 0f3b aa00 0740 a4bf c76f d007 321a c23f
00000390: a2fa 4390 8c80 b23f 744a 6e09 3795 bfbf
000003a0: 9cf4 3dc3 2622 d13f 7d3d aeca 1129 ba3f
000003b0: 4e9b eadd d6f1 adbf a80f de2f 2bfe c13f
000003c0: ad61 d466 1357 ad3f f480 a0f1 3a6c 963f
000003d0: 79b6 7cdb 6ae2 c5bf 215b cc4f 3a7d cf3f
000003e0: 1956 3c18 2e4e 603f fbd2 3c55 bda8 d43f
000003f0: 5359 d042 8a80 d9bf 9cf7 a80e fbd3 d63f
00000400: 1d87 d459 4f0b d1bf 211a bc47 139f c5bf
00000410: fead fb34 9255 b03f 9951 c206 7790 ce3f
00000420: 8209 a94a 2c7e c7bf 90c1 1435 2829 ec3f
00000430: 0029 abd6 7ef8 bfbf a90f 3472 9802 963f
00000440: 16e0 0823 acc4 d5bf 4780 4071 d349 c03f
00000450: 1c0c 704a 42d6 c43f 6680 5842 ae03 d1bf
00000460: 4394 65c9 c947 cabf 3b1e 7ab6 4173 d3bf
00000470: de6a cb02 7a70 bfbf 1431 be8f 5030 e9bf
00000480: d975 5f88 4c06 c7bf b3ec e375 3cc7 a13f
00000490: fc38 246f 35d7 9d3f 5f36 b79f 3639 d3bf
000004a0: 6d09 d2ec b5cb d33f 7eac df35 0f0d b4bf
000004b0: 3f96 20e6 6ecb c2bf ac97 91f9 71a4 b8bf
000004c0: 5fcb 9f81 2abf bfbf 2c93 6d3c 5a56 d13f
000004d0: bfd6 1c53 924e 983f 8580 1810 b5fe d4bf
000004e0: 7da8 14d8 e7a9 c2bf 1297 f6ec 3365 c8bf
000004f0: 31f5 bcc6 dd6a cc3f de08 a558 41d4 d83f
00000500: 6ac6 131d 58b6 d73f 06b6 2d11 e905 cf3f
00000510: f8cd e69c d0ac cabf 70c3 3f19 de49 c93f
00000520: 3847 8f61 a16c d63f 019c 8762 a40b c53f
00000530: e894 1347 181c d03f 08eb e3c0 8a43 c1bf
00000540: b514 f3d8 fbad b03f a283 d253 edf1 a0bf
00000550: fd58 72a9 6cb3 d7bf aba9 b8ff 9cd3 e33f
00000560: be6c cb80 55de a43f bbbe a0b7 73b2 b43f
00000570: 26fc 6197 5719 cb3f f9f7 cd6d 775f c23f
00000580: 4a39 eaa6 bf8c ecbf 9441 8b6f b74b a7bf
00000590: 3a95 eb7d bdfc ca3f 0c87 afdd 298b da3f
000005a0: 2774 8b4d 5f9d d93f 9fe6 ad87 1711 ccbf
000005b0: c9e7 c197 2fae d63f fd8c 285a 8ade e73f
000005c0: c58d de8a d529 d53f f471 66f4 d35b c63f
000005d0: 4b67 d4ff ffa4 98bf 4cd5 ceb6 d9f0 b0bf
000005e0: 5515 42f1 0183 cbbf 1cc7 dff5 39db b93f
000005f0: 9b63 42fc ad2c d83f 2429 8aef 1909 b8bf
00000600: 9193 a00b e91e ce3f 329b df88 778e 883f
00000610: 620c 0a6c 7f68 cb3f 4858 790c f39f aabf
00000620: c8ad 2fb8 ede8 493f 9c2e 1e56 187f acbf
00000630: 4ca7 125e 3477 8d3f f835 20b7 2c06 cdbf
00000640: d833 1559 b7de b3bf 1696 fa31 dc94 bfbf
00000650: d821 ab59 c9d6 933f cb69 457b 8e53 d23f
00000660: a9fa f4eb 4936 c9bf e5bb 5cd1 6df2 c03f
00000670: 17e9 c516 c177 cabf 6506 9f37 456d b83f
00000680: 9a78 60db 943e c93f be38 6967 1e9a d3bf
00000690: ebf7 1cc3 7a67 bf3f f7a5 24fb 75fe 9b3f
000006a0: eeb0 9a18 1cf1 bebf ff78 8131 7809 cb3f
000006b0: 32e4 8c6b 416a d83f 0884 5b99 64bb b0bf
000006c0: 57bd 3d6b b98c 8e3f 4de5 8831 9bac c4bf
000006d0: 81cc 98a0 5d73 b4bf 7793 43be 8562 b1bf
000006e0: 20c7 492e 35af c8bf 79ea 3724 9ab3 b73f
000006f0: d81a e1e6 e445 c4bf 4124 0213 1298 d3bf
00000700: c30e a042 a48a 7abf 627a 7dbf f683 d13f
00000710: cb93 f35f 7a79 be3f ea1e 55b1 1e7f d83f
00000720: 6385 9b20 6790 e5bf 2efa dcb1 75a0 b93f
00000730: eff9 4fc7 22fd be3f dba8 98d6 1cd2 aebf
00000740: 78ab 0c1b 2ecf afbf ae71 1e1f c398 c43f
00000750: 7449 8352 abe3 c7bf baf7 6619 27cf d63f
00000760: e1f2 602d 9537 b6bf 1c0a bad6 5612 c83f
00000770: f502 de66 47c7 c43f d1ac 660f 926a bcbf
00000780: aa0e cac5 8bc9 c03f c858 e7cd 5102 e53f
00000790: 63af 3faf 91f5 c0bf 5b40 2a9b 09a1 d93f
000007a0: 70b3 940f 36f7 cf3f 1799 7a8f ccb5 d03f
000007b0: 14e3 835d 215e e03f b304 8ad5 4f85 b1bf
000007c0: bd80 abbb fdb5 cebf efc2 12a4 055e b9bf
000007d0: 2ff1 ac87 9213 b53f cc18 4445 f29b d0bf
000007e0: 73d4 2995 19ba c13f 2d5b e2fd 7e9a a6bf
000007f0: 7c1e c369 67e1 993f af53 348b e830 c93f

hidden_layer3.bias f8 [20]
-0.12844643632174743 -0.0798610683958285 0.006698223740655619 0.12197889544950975 0.10266616565306101 0.2549014582558437 0.44317556271666964 -0.025535934862451228
0.12527265629692821 -0.29567838502819094 0.20521901298558407 -0.44231565364104297 0.2760375490833252 0.5519007517152401 -0.04101253908284186 0.2636121981279189
-0.36518918301051007 0.3017741983743492 -0.5057147217797214 -0.43066664112463576
00000000: 4f13 a5cd ee70 c0bf efd3 fb64 c671 b4bf
00000010: dbbc 84be 986f 7b3f 4d02 c246 023a bf3f
00000020: b3b7 e26f 5448 ba3f f756 ba34 4e50 d03f
00000030: 9d49 1009 fd5c dc3f 2795 6d94 1726 9abf
00000040: f16d f034 ef08 c03f 9b21 7508 65ec d2bf
00000050: 8b2e a5da 9d44 ca3f ca6a b950 e64e dcbf
00000060: e1f9 7165 99aa d13f 1827 e8c3 2ba9 e13f
00000070: 9067 2c74 98ff a4bf 344f 72b2 05df d03f
00000080: b484 7873 425f d7bf 35d8 32ba 4450 d33f
00000090: dfc9 e4a3 d02e e0bf 53f1 c6d0 0a90 dbbf

hidden_layer4.weight f8 [20, 20]
0.012097249656280708 -0.05967940881324908 -0.010719425458908463 0.014558193828194002 0.12669456214361782 0.17920405224084196 -0.036952350679486955 0.021610552954192456
0.012807701654444498 -0.036330252489284495 -0.151276939527247 0.08404363771366845 -0.09151005094155708 -0.05200468605898447 0.01083927784428085 -0.025107365378795064
0.01116295182234342 0.023111311119529562 -0.0779650934167856 -0.020834683698223454 0.4326550299123252 -0.07417081436594893 0.16099855257220327 -0.16449191412535566
0.005207529311165755 -0.03321165411491551 0.1461932105321956 0.2365795930623681 -0.16876109682020565 -0.2711405107035461 -0.11861856282931324 -0.4678359176285966
0.03559779427418445 0.1381866762503813 -0.13271810758467606 0.06503768880194878 0.041734594439206164 -0.1150421783304758 0.19851001957010103 -0.12116003477000017
0.05233639690140931 -0.0685887319766389 0.026286160452285594 -0.07542863090054985 -0.021430502384737704 0.06882815115327562 0.1173703816166952 0.08554275896288742
0.01748710314370784 0.032604249380072704 -0.08372016096327108 -0.0896728711421406 0.09441359455774208 0.197146104733747 -0.10905610001041298 -0.11794634841383479
0.007826029735612713 0.11123998620088121 0.20251209650736168 0.1423379688187963 -0.3613230414950004 0.037364827162419116 0.9239976052214083 0.1619231838406484
0.47162275165370693 0.15656106152071458 0.021313522857386233 0.04399059282547422 -0.256273855102417 -0.13199824929607332 0.27669096381324865 -0.39636402844184143
0.029453737633021733 0.22747229561179508 -0.5903617648513163 0.03982270515782949 0.1027455837867952 0.34068834782869356 -0.8198267911062218 -0.4376317961056493
0.028720209592082012 -0.01454788313256904 0.18910917134391825 -0.0798271365793195 -0.07593684034745429 0.024932192550878588 0.5383405878683075 0.09331842160643518
-0.006630522084012197 -0.0680237828154681 0.008049679649620577 0.27037260696204835 0.062399375045978124 -0.17829647863206563 -0.10749936468841476 -0.012304660856544787
0.32459939463737547 0.07125299276579565 -0.10816681495000487 0.15819186442851899 -0.010328699478193697 -0.13413767608940586 0.0003193608276614555 -0.006056139114947068
0.0035064365847761823 0.013129660955664866 0.011457266477491413 0.018593233945995293 0.003900935497173056 -0.011374001627751497 -0.06767284880338831 -0.03373456055943907
0.05033651303128143 -0.00019274581343636877 0.001528820656453002 0.044486100208351344 0.0035886674405621543 -0.0015293721610664304 -0.029440021803017902 0.0030399600641059423
0.05493460254193988 0.17872844114446718 0.0006970703832808742 0.05012236107778095 0.006103136213946048 0.10283808118488563 0.012511844581785427 -0.08831939469693792
-0.015525877644633698 0.0015632076785619404 -0.0489685318966073 -0.06253142861079815 0.045382995508373894 -0.06490420516913048 -0.02522653669696404 -0.060834428056324795
-0.002305369573992504 0.03623724663192431 0.0509964184582374 0.025833597866545883 -0.03789247923473746 0.025231833837517897 0.04666092131626304 0.206008079119821
0.3279815172467074 0.12489646819165205 0.4301674634736926 0.1645715130142447 -0.022492908877775206 0.04426787330346 0.24055009871102445 -0.23439686100423687
-0.160880928240579 -0.5392798615326195 -0.12017183718874878 0.3007833303160238 -0.6199513035927713 0.4818438224271942 -0.39604711389752884 -0.15384291359551672
-0.00811587188321399 -0.11090782987891729 0.003052251012386284 0.06644487112709484 0.007722054679201033 0.025311104747943434 -0.00327445678161806 0.003592904620880096
-0.0139108679310507 -0.023890228760842857 0.011732368279091191 0.01634884661671085 -0.0486760431031061 -0.018098888121018012 -0.004850368573711053 -0.02953270468407801
0.0005358874002020533 -0.0004446139604935555 0.018669941626071024 0.03395441912663884 0.3403905008320767 0.05977999317542492 0.05993399429767074 -0.5084385227264554
-0.2927467371622716 0.1440095564672687 -0.10961671374185487 0.17834688898338516 -0.15322189858674923 -0.12323713140359217 0.06405604377636231 -0.02532903521262407
-0.10079805913225878 -0.5355255212987748 0.14747741984688786 0.16188461823103967 -0.09379539708058032 -0.00925601742620194 -0.44927998802394703 0.06072553520046005
0.02733022499840295 0.15807158770696803 -0.005704586181738823 0.09983006692343444 -0.01659251526648748 -0.05090479982935217 -0.11909866786508722 0.09503293440152369
-0.03399753467294038 0.15510139619426155 0.11831725841057804 0.1331658530377645 -0.040764363713903844 -0.03782588823435706 0.029762125759165103 -0.026203325576220016
0.0052043468228031705 -0.046178452812243545 -0.02659025287311601 -0.1058611341603077 0.1999038715288689 -0.3170490354609398 -0.05982147757662598 -0.6169810682047836
-0.026485576087960108 0.043768388766931135 -0.2030501363733429 -0.2697393948494273 -0.3487730246055315 0.2653952533869839 0.10943316760082338 -0.07213275605368069
-0.22818678586866062 -0.5956472911603324 0.15764613630984176 -0.18355623966647414 -0.03812886399072087 -0.04087635328095207 -0.07761189818871791 0.05536714867200996
0.057935692214898915 -0.15747892293801624 0.06807947207956429 0.18147691956767215 0.089514698984958 -0.12174280279824619 0.25023376465458746 0.37665891672677704
-0.2513483190642124 -0.17934925222187262 -0.1329886051088649 -0.11837882806359858 0.0021757906100994587 0.06921042579008319 -0.15994817766952105 0.1153617233255157
00000000: d484 295d 71c6 883f 02ee 31aa 4c8e aebf
00000010: fb2e 39ee 10f4 85bf fb20 0cb3 afd0 8d3f
00000020: cb72 7e04 8737 c03f 16b1 d78b 28f0 c63f
00000030: 2b81 5b23 6beb a2bf e136 bfa8 1321 963f
00000040: 5d2e f19d ec3a 8a3f 3603 98fc e099 a2bf
00000050: 9549 f4f1 0a5d c3bf a3c5 6a43 e283 b53f
00000060: b99d 0ce4 336d b7bf 4363 b9b3 5ba0 aabf
00000070: 41da d33e e732 863f 1639 c3c4 beb5 99bf
00000080: 50c2 0708 9adc 863f 3c49 b4d5 7daa 973f
00000090: d965 7436 85f5 b3bf 53ed 6cf4 af55 95bf
000000a0: fa17 fbb8 9eb0 db3f ddf9 04c6 dbfc b2bf
000000b0: 1f1f 00bf 999b c43f dbfa cf2f 120e c5bf
000000c0: 08c7 5981 7d54 753f 690c 8a30 1e01 a1bf
000000d0: e506 1189 75b6 c23f 444b 8d77 3d48 ce3f
000000e0: 1306 d7af f699 c5bf 01eb 85ba 5d5a d1bf
000000f0: 6ee8 0c40 c95d bebf 67f9 860f 06f1 ddbf
00000100: 9549 6fc4 df39 a23f 8581 9edb 19b0 c13f
00000110: 84e3 d42d e8fc c0bf 6d6b 695a 4fa6 b03f
00000120: 75d8 749c 3c5e a53f cf09 9779 6773 bdbf
00000130: 07af fdbc c668 c93f 125c eb12 5804 bfbf
00000140: abff 2912 d6cb aa3f dcb9 b6f8 078f b1bf
00000150: 9e7e eb5d c2ea 9a3f f060 e66e 4a4f b3bf
00000160: d066 84ab e0f1 95bf c459 3fc2 b89e b13f
00000170: 1710 903e fc0b be3f ffbb 2758 21e6 b53f
00000180: 0480 6aa0 23e8 913f c598 9811 81b1 a03f
00000190: 1965 5a39 af6e b5bf afd7 e420 cdf4 b6bf
000001a0: c55d ec44 7d2b b83f febf 2e64 153c c93f
000001b0: f759 f9be 19eb bbbf 11bb 1e5d bb31 bebf
000001c0: eb03 2dee 1707 803f bc82 bd46 397a bc3f
000001d0: e091 c597 eaeb c93f 6224 876c 2138 c23f
000001e0: 28c9 a0ad ea1f d7bf 37d7 5d8d 7b21 a33f
000001f0: ba43 006d 6391 ed3f e4a6 871d e6b9 c43f
00000200: aabd 9931 112f de3f 5c7d 875f 310a c43f
00000210: 4c43 8a4e 36d3 953f 9dbc 085b ef85 a63f
00000220: b705 9f74 ca66 d0bf cd8d ed91 51e5 c0bf
00000230: c84d 2b04 4eb5 d13f 47fc dd3a 075e d9bf
00000240: 42e2 83df 1e29 9e3f bd08 33eb cf1d cd3f
00000250: 410c 1b5b 3ee4 e2bf c10e 9540 a463 a43f
00000260: ef36 2cda 884d ba3f 595c 0380 d6cd d53f
00000270: 74f2 0565 053c eabf 0caa fdca 2802 dcbf
00000280: c6a1 baa3 d468 9d3f ba49 3ed2 47cb 8dbf
00000290: 6cdc 25b5 ba34 c83f 5006 f11c 8d6f b4bf
000002a0: 8098 dac5 9870 b3bf 9190 7e1e d387 993f
000002b0: 171f 600a 163a e13f 85fa e950 b7e3 b73f
000002c0: 2d8d 1938 9b28 7bbf 9bea 8ab2 016a b1bf
000002d0: 8c09 b5b6 597c 803f 7ab8 28e8 c84d d13f
000002e0: 5d04 3a96 cff2 af3f 53bc 5b44 6bd2 c6bf
000002f0: dc71 ad0f 1485 bbbf b7e3 bc9f 2f33 89bf
00000300: 1336 118a 3cc6 d43f dfd4 abd9 a23d b23f
00000310: 7506 b904 d2b0 bbbf 515c 1b8a a13f c43f
00000320: 7c9f c093 3627 85bf 8493 fb61 6c2b c1bf
00000330: d44d 784f fced 343f 8003 0577 52ce 78bf
00000340: 94a8 a0ce 87b9 6c3f 9f14 4c43 b9e3 8a3f
00000350: 673d 9446 e876 873f 3753 e6ce 1a0a 933f
00000360: d511 4bcc daf4 6f3f 8772 20a8 404b 87bf
00000370: 780d 7000 0253 b1bf a708 b204 a845 a1bf
00000380: 252f 871a b5c5 a93f 1d28 28ee 7943 29bf
00000390: 3a78 23ae 560c 593f 35fb 0ad3 e1c6 a63f
000003a0: b3d0 6329 fb65 6d3f 5886 92da a60e 59bf
000003b0: ad96 596b 8625 9ebf 6cb1 ce21 42e7 683f
000003c0: 583b ac62 6320 ac3f 604f cad4 92e0 c63f
000003d0: 08d6 e53f 73d7 463f f836 415b a3a9 a93f
000003e0: cd26 1227 9aff 783f 3cf4 78b3 9853 ba3f
000003f0: 34cb 545a cf9f 893f d66b d38f 199c b6bf
00000400: 1e9e cd05 08cc 8fbf 0349 cd76 919c 593f
00000410: 1ce1 0e46 6712 a9bf 7504 db48 0f02 b0bf
00000420: b286 01a3 703c a73f a404 93de 8f9d b0bf
00000430: d951 6b38 fcd4 99bf 3310 f2ad b025 afbf
00000440: d79f 9ddd b5e2 62bf 63c6 5c3a b08d a23f
00000450: 7b86 fbda 331c aa3f d239 e667 1f74 9a3f
00000460: 7cb5 279e a466 a3bf f8d9 99b4 5fd6 993f
00000470: c8f1 1bb6 f0e3 a73f 4c05 4405 795e ca3f
00000480: a517 9130 a6fd d43f 73e0 4406 37f9 bf3f
00000490: e60e db1c dd87 db3f f9ec 1fe9 ad10 c53f
000004a0: bc7a 1690 6108 97bf 5923 3458 47aa a63f
000004b0: ceb7 817b 58ca ce3f 392d 2662 b700 cebf
000004c0: d9f4 ab0a bf97 c4bf 7c91 15d7 c741 e1bf
000004d0: cf3b a0de 94c3 bebf 16ea b8b9 0840 d33f
000004e0: 8464 c11d a4d6 e3bf fdae c678 87d6 de3f
000004f0: 5d5d 77fe d558 d9bf c49a 4ee5 1fb1 c3bf
00000500: 9b12 89e2 0d9f 80bf a445 339e 7464 bcbf
00000510: 2d50 e0c8 0801 693f 8f51 7af4 8702 b13f
00000520: 5ea8 e144 29a1 7f3f 69e1 787c 27eb 993f
00000530: c73f 4199 08d3 6abf abba 04fb dd6e 6d3f
00000540: 0f2c 9516 4d7d 8cbf f319 e31c ae76 98bf
00000550: 42b0 81d0 2307 883f 1833 2f86 c0bd 903f
00000560: 5bfb 73fa 10ec a8bf 4181 4bd2 8388 92bf
00000570: aab6 5ce6 fadd 73bf 2846 1f43 d23d 9ebf
00000580: 17b4 d96d 598f 413f f427 6f6b 6223 3dbf
00000590: 980e cf92 361e 933f 0a3d 683f 7962 a13f
000005a0: 5557 3c3d f5c8 d53f cf7f 49b7 7b9b ae3f
000005b0: ecb2 da22 abaf ae3f ac5f 64dd 2045 e0bf
000005c0: bcd9 87cf 5cbc d2bf 2e50 abb7 e76e c23f
000005d0: 3fc3 9d48 d70f bcbf 2574 c323 12d4 c63f
000005e0: de05 bb71 c69c c3bf 2902 08f9 778c bfbf
000005f0: 5870 2115 fa65 b03f fc82 82c7 daef 99bf
00000600: de2b 79cf e6cd b9bf d2d9 046b 0623 e1bf
00000610: 3307 9243 8ae0 c23f aa8d 839a a2b8 c43f
00000620: 14f7 f9a2 f902 b8bf f00c 18a1 d1f4 82bf
00000630: 13d9 d3d9 00c1 dcbf 3aa7 6fd7 6a17 af3f
00000640: d6e9 3d5a 74fc 9b3f 9f69 d095 b03b c43f
00000650: d88d 6731 b15d 77bf f0f8 9798 768e b93f
00000660: 1237 b6d9 a0fd 90bf 04f7 f3a4 3110 aabf
00000670: 944b 7a13 407d bebf 2e26 4c11 1454 b83f
00000680: 3a3b 21f7 1f68 a1bf 00f1 1bd0 5cda c33f
00000690: 1f02 6d33 0a4a be3f b3dd de23 940b c13f
000006a0: 97a7 fc11 11df a4bf 0f43 d131 ea5d a3bf
000006b0: 7322 2e73 f679 9e3f 10d1 9569 0bd5 9abf
000006c0: 2f6b 6a36 2751 753f c288 37c1 b3a4 a7bf
000006d0: 21fb eda9 793a 9bbf 3dd0 221d b719 bbbf
000006e0: 2cb7 4737 7396 c93f ff1d a209 884a d4bf
000006f0: a87b 94b3 eba0 aebf 241a c614 4fbe e3bf
00000700: 843b 74ec 081f 9bbf c285 b46c cf68 a63f
00000710: 1cff 95ff 8bfd c9bf 408d d405 6943 d1bf
00000720: c218 9a17 4c52 d6bf fce2 735f 3cfc d03f
00000730: 1377 f1e3 cf03 bc3f 348d 38d4 4a77 b2bf
00000740: 59b6 577f 3935 cdbf fd81 6fe8 8a0f e3bf
00000750: ce50 e5a3 bf2d c43f 3310 2c57 c57e c7bf
00000760: db5f bf5f a085 a3bf 10f9 0ad1 beed a4bf
00000770: 2e43 8094 5fde b3bf dd5a a339 1559 ac3f
00000780: d010 ab3e bfa9 ad3f a8fe e9f3 4428 c4bf
00000790: 1d55 1c02 a86d b13f 0ed0 42bd a23a c73f
000007a0: 6fd4 a670 6fea b63f 55b6 8a4c 892a bfbf
000007b0: 72f8 e27a d403 d03f 9fa6 4500 2e1b d83f
000007c0: 6e43 9242 1716 d0bf 9570 6d92 eaf4 c6bf
000007d0: 3074 d746 c505 c1bf 296c 122b 134e bebf
000007e0: 4b20 6db0 f6d2 613f 4086 4f43 c6b7 b13f
000007f0: 279c 1290 2e79 c4bf acae e48c 5888 bd3f

hidden_layer4.bias f8 [20]
0.05253618847882277 0.3257846823893913 -0.18689550015543135 0.5348919810259851 0.21702167243557044 -0.03513870639571008 0.05821856954098957 0.5145591524370545
-0.003487496270712485 0.06517722557117399 0.22172414708126778 -0.15343452686071732 0.6929474172211345 0.045627466422811715 0.34524665909792096 0.4175273510867842
0.048836405203940364 0.0364577712917614 -0.04421261387276218 -0.012767523927315191
00000000: 8cfe bef6 05e6 aa3f 989c 19ff a7d9 d43f
00000010: 39f4 7716 31ec c7bf bac6 acc9 d51d e13f
00000020: e726 d1bc 5dc7 cb3f 262e 9655 b3fd a1bf
00000030: 7e9b 6508 d3ce ad3f 5a63 72c1 4477 e03f
00000040: 7c29 af4d cf91 6cbf 5faf 4564 74af b03f
00000050: f548 39f4 7461 cc3f 77d5 7819 bea3 c3bf
00000060: 82ff d90f a02c e63f 55ae 2bb8 7b5c a73f
00000070: c63e 7871 8518 d63f 9e9b 86a3 c4b8 da3f
00000080: 8c06 69d6 1501 a93f ed2d c4ce 97aa a23f
00000090: ecf1 4e25 09a3 a6bf 4bee bf0d dc25 8abf
