net_param/net_5.33149242.pth (torch, 731879 bytes, 13 tensors)

weight f4 [200, 100]
000000 ba fe 2f be f1 6f 33 3e 80 50 43 be c4 bb 7f 3d
       -0.17187014 0.17523171 -0.19073677 0.062434927
000010 e3 97 a3 3d 78 98 4a 3e 18 40 62 be 52 c8 ac 3c
       0.079879545 0.19784725 -0.22094762 0.021091614
000020 50 bd 4b be cf b9 11 bd 83 6e 57 be 0a 78 56 3e
       -0.19896436 -0.03557759 -0.2103825 0.20944229
000030 e7 15 26 3e ad 17 55 be 13 f5 61 be 74 a6 64 3e
       0.16219293 -0.20809813 -0.22066145 0.22329122
000040 fe 05 38 be 89 b0 23 3d ad 9c 34 3e a8 99 ed bd
       -0.17971036 0.03996328 0.17637892 -0.11601573
000050 40 c8 ba bd 95 a0 1c bd 68 a3 e7 bd 68 d3 1f be
       -0.09120226 -0.03823908 -0.11310464 -0.15607989
000060 ba 6f 5b bd f5 65 ff bc 0f 56 0a bc 30 f8 06 3e
       -0.053573348 -0.031176547 -0.0084433695 0.13180614
000070 3f 47 82 bd b1 32 93 bd 1d 92 dd 3d 84 94 94 3d
       -0.06361245 -0.07187403 0.108188845 0.072548896
000080 63 7b 86 3c bf 04 ba 3d a9 32 03 be 7c bf f2 bc
       0.016416257 0.090829365 -0.12812294 -0.029632322
000090 84 a9 2b 3d 2e c0 56 3e 40 36 4f be 31 85 0a 3e
       0.04190971 0.20971748 -0.20235538 0.13527371
0000a0 88 0e 01 3d 9f bf 94 bd 4f cd e0 3d e7 56 03 be
       0.031508 -0.07263111 0.109766595 -0.1282612
0000b0 fd f0 b9 3d f5 16 3a be a9 d1 b8 3c 82 b0 5b 3e
       0.09079168 -0.1817282 0.022560911 0.21454051
0000c0 5d 3e 90 bc 69 1d c1 3d 84 1c 6c 3c 69 62 94 bd
       -0.017607862 0.09429438 0.0144110955 -0.07245333
0000d0 1a 2b 63 be a6 0b 23 3e a0 7f 59 bd 6e 22 f3 bd
       -0.2218441 0.15922412 -0.05310023 -0.11871801
0000e0 3b 0a c2 bd 84 09 e0 3d a6 62 21 be eb cc bd bd
       -0.094746076 0.10939315 -0.15760288 -0.092676006
0000f0 bb 89 66 3d ed f9 d2 bd fc 3d 58 bd 4b b1 2c bd
       0.056283694 -0.10301576 -0.052793488 -0.042161267
000100 7d 05 af bc 4f 90 40 3e 7f 51 fc 3d a1 02 4b 3e
       -0.021364922 0.1880505 0.12320232 0.19825222
000110 a4 90 3b bd 23 ab 55 be d1 f7 40 bd e9 ff 4e be
       -0.045792237 -0.20866065 -0.047111336 -0.2021481
000120 b0 b9 c6 bd b2 9e 1b be b8 af 58 3e b6 28 c2 bd
       -0.09703386 -0.15197256 0.21160781 -0.09480421
000130 4f d5 85 bd ab a8 ba bc e1 24 61 be 42 d2 45 3d
       -0.06534826 -0.022785505 -0.21986724 0.04829622
000140 b6 e9 41 be 47 12 57 3e 82 c5 74 bc ce e1 3c be
       -0.1893681 0.21003066 -0.014939668 -0.18445513
000150 e2 c8 4f 3e b9 54 43 be 2f 73 62 3d 70 c8 3a 3c
       0.20291474 -0.19075288 0.05528563 0.011400327
000160 7c e3 2b 3e 9f e0 45 be e3 42 22 3d 1a 2c ee 3c
       0.16785997 -0.19323967 0.03961457 0.029073764
000170 8e f2 4b 3e 21 5d 30 be d9 9f 07 3c 55 8e 06 3e
       0.19916746 -0.17223026 0.008277857 0.13140233
000180 29 48 18 bd 74 64 3b 3e 43 2d 57 be 05 41 1b 3e
       -0.037178192 0.18300039 -0.2101336 0.15161522
000190 b4 2c 8a 3b ac 10 ad 3d 9e a9 67 3e 34 c0 92 bd
       0.004216755 0.084504455 0.22623298 -0.07165566
0001a0 9a 78 4b bc c9 d2 04 3e 93 cc 8b 3d ec 73 3f 3e
       -0.01241889 0.12971033 0.06826129 0.18696564
0001b0 fb 01 84 bd 27 36 db 3d 28 cb 9a 3d 92 0c be 3c
       -0.0644569 0.10703688 0.0755828 0.023199353
0001c0 ef cb 57 bc 28 91 74 be 23 a5 4e 3e 96 08 d3 bd
       -0.01317118 -0.23883498 0.20180182 -0.10304372
0001d0 ec 35 08 3e 6b 91 d6 bc f6 3b 37 3e 7d 67 09 3e
       0.1330182 -0.026192388 0.17893967 0.13418384
0001e0 81 26 2f be a4 0d 1a 3c 92 36 3e be ea e3 a0 ba
       -0.17104532 0.009402666 -0.18575504 -0.0012274955
0001f0 37 f1 f5 3d 95 d4 95 bd 8b 2f 94 bd 66 5a 98 bd
       0.12008899 -0.073159374 -0.072356306 -0.07439117
000200 48 53 3c 3d 65 b2 d4 bc 95 0c 40 be 2c f6 03 bd
       0.04597786 -0.025963971 -0.187548 -0.03221719
000210 89 c7 49 be e1 6f 99 3c db 10 98 bd 3c e9 60 be
       -0.19705023 0.018730106 -0.0742509 -0.21963972
000220 a8 27 33 be cd c4 da bd 4d 00 e5 3d 38 c9 18 3e
       -0.17495596 -0.10682068 0.11181698 0.14920509
000230 30 f8 93 bd f1 df 41 3e 62 80 10 3d 63 53 a9 bc
       -0.072250724 0.18933083 0.035278685 -0.020669645
000240 6d 56 0e be dc 5b 34 3e 27 fd ca 3b eb de c5 3d
       -0.13900156 0.17613167 0.006194729 0.09661659
000250 e2 69 8c bd 35 64 8f bd 0c 2a 5c be e1 1a 4a 3e
       -0.06856133 -0.07001535 -0.21500415 0.19736816
000260 35 1f 45 bd 4d 76 9e 3d 33 15 11 3d 3b e7 12 3e
       -0.048125464 0.07737408 0.035420608 0.1434602
000270 96 76 f8 3d d6 6b 75 3e 78 c6 52 3d 0e ec 50 be
       0.121319935 0.23966917 0.051458806 -0.20402548
000280 75 12 79 bd 36 92 26 3d 40 b7 2f bd f8 2c 64 be
       -0.060808618 0.04066678 -0.04289937 -0.22282779
000290 27 00 8c 3d db 31 57 3e 27 65 45 be 79 44 d7 3d
       0.068359666 0.21015112 -0.19276868 0.10511107
0002a0 11 82 51 3e f6 3a b4 bd cb 7b 8e 3c 00 6b 77 3c
       0.20459773 -0.088003084 0.017393013 0.015101194
0002b0 8f 71 3e 3e 41 25 5c 3e 0b 3a 1e 3e 99 11 74 bc
       0.18598007 0.21498586 0.15451829 -0.014896774
0002c0 bb 74 88 3c c2 0f d1 3c 2b 9a a2 3c 10 ca 61 3e
       0.016657224 0.02552021 0.019848904 0.22049737
0002d0 7f d7 70 3e bb c1 4f 3d 38 dc 64 3e 98 a5 8e bd
       0.23519705 0.050721865 0.22349632 -0.06965178
0002e0 a9 9f fa 3d 0f ca 0d be 66 e2 0b 3d 35 99 29 3c
       0.12237484 -0.1384661 0.034151457 0.010351469
0002f0 80 05 56 be c2 35 8d 3d 66 ba 51 3e 8b 8e 1e 3e
       -0.20900536 0.06895019 0.20481262 0.15484063
000300 fb 76 32 3e 17 77 ee bd 04 c8 3c be c2 47 3b be
       0.174282 -0.11643808 -0.18435675 -0.18289092
000310 65 5b 3f be d6 73 8e bd ef cc 61 3e 85 34 e0 bd
       -0.18687208 -0.06955688 0.22050832 -0.10947517
000320 77 dd f5 bb 3b 3f 34 be 63 98 e5 bd 1b ed 52 3e
       -0.0075032073 -0.17602246 -0.11210706 0.20598261
000330 4b 43 38 3e 87 fc 58 3e db 9b ab 3d 60 51 12 be
       0.1799442 0.21190082 0.083793364 -0.14288855
000340 ab d1 eb ba 22 82 2f be 80 0c c0 bd 3d 88 25 3c
       -0.0017991563 -0.17139485 -0.09377384 0.0101032825
000350 34 74 a4 3d 92 cf 57 be a8 cb dd 3c 8a 86 1c 3e
       0.080299765 -0.21075276 0.02707465 0.15285698
000360 6d 15 95 3c aa 82 9a 3b 3e ff 6d bc 65 af f0 3d
       0.018198693 0.0047152834 -0.0145261865 0.11752204
000370 e1 1c 05 3e 56 56 15 be 74 3a 81 3c 00 c4 22 3e
       0.12999298 -0.14583716 0.015774943 0.1589508
000380 79 63 21 3e 0e 78 bd bd 67 fa 33 be fb cf 1b 3e
       0.15760602 -0.09251414 -0.1757599 0.15216057
000390 7b ba 1e be 04 c2 4b 3d 3c 72 4e be c5 84 32 be
       -0.15500824 0.049745575 -0.20160764 -0.1743346
0003a0 c5 07 24 3d 7f 8a 59 bd 6e b8 0d be c4 03 ea 3d
       0.040046472 -0.053110596 -0.13839886 0.114264995
0003b0 ff bb f6 bd 6e 6a cd 3d c6 bf 19 be fc 58 56 be
       -0.12047576 0.100300655 -0.15014562 -0.20932382
0003c0 fc 74 88 3d 63 7a 0b be 49 e2 6d bd 79 82 b5 bd
       0.06662938 -0.13620906 -0.05807713 -0.08862776
0003d0 ff f8 06 3d 0c f0 84 3d df bb ef bd 76 4c 90 39
       0.032952305 0.06491098 -0.117057554 0.00027522788
0003e0 11 d2 71 3d 95 f0 5c bd e8 0a 59 3e 5e 28 34 3d
       0.059038226 -0.053940374 0.21195567 0.04398381
0003f0 c4 7a 1d be a4 20 61 be dd 49 d9 bc 50 b5 2d 3b
       -0.15378863 -0.21985108 -0.026524479 0.0026505776

bias f4 [200]
000000 f3 97 ff bb fb c5 b1 bd 74 0d 10 bd bd d8 c0 3d
       -0.007800096 -0.0868034 -0.03516908 0.094163395
000010 24 c6 08 bd 4d 38 93 3d 52 cb d5 bc 22 8c 5b bb
       -0.033392087 0.07188473 -0.026097927 -0.0033500274
000020 23 a5 f2 3c bb 88 59 bd 56 63 95 bd 0f c8 8f bd
       0.029619759 -0.053108912 -0.072943375 -0.0702058
000030 dc b0 f6 bc 02 19 60 bd 79 22 98 bd 42 00 47 bd
       -0.03011363 -0.05471135 -0.0742845 -0.04858423
000040 43 95 98 bd f4 22 87 3d b7 ff b9 3c d4 85 30 3d
       -0.074503444 0.06598464 0.022704942 0.04309638
000050 a8 e7 1d 3c 71 89 99 3d ba 67 ad 3b ce 05 cf 3b
       0.009637751 0.07496918 0.005291906 0.0063178306
000060 b7 6a 98 bd 8a 20 d0 bd e6 ff 51 3d 52 ef 48 bd
       -0.07442229 -0.10162456 0.051269434 -0.04905636
000070 89 76 f7 3c cf e9 2b bd 4f ab da bc 5b 3e 9a bd
       0.03020789 -0.041971024 -0.026693014 -0.075314246
000080 97 aa de 3b 21 90 78 bd 92 fd b4 bd a2 21 ce 3c
       0.0067952382 -0.060684327 -0.08837427 0.025162522
000090 bf 77 a9 bb 6c 56 ae bd 2f d8 32 bd 22 b5 9e bc
       -0.0051717455 -0.085125774 -0.0436632 -0.01937348
0000a0 31 22 b8 bc 73 ac 3a 3d 03 f4 55 bd 1e af 67 bd
       -0.022477241 0.045574617 -0.05223466 -0.05656349
0000b0 67 46 0a 3d 92 b4 ea bc f2 98 56 3d 27 9d 01 3d
       0.033758547 -0.028650556 0.052391954 0.031644013
0000c0 bf 26 91 bd ac 3c 9c bd 40 9c 63 bd 33 8a 01 bd
       -0.07087468 -0.0762876 -0.055568933 -0.031625938
0000d0 33 44 9a bc 60 05 45 bd fd ce 52 bc 75 84 9c 3c
       -0.018831348 -0.04810083 -0.012866733 0.01910613
0000e0 f1 3e 38 3c af 0c cc 3d 4b f0 28 3c bc 6d 27 bc
       0.011245475 0.09963357 0.010311197 -0.010219034
0000f0 d7 44 16 bd 8b 37 c3 bd d7 b1 c8 bd a1 4b 07 3d
       -0.036686745 -0.09532078 -0.09799545 0.03303111
000100 94 1a 6e 3d c6 29 89 bd 94 54 85 bd b2 86 47 bc
       0.058130816 -0.06697421 -0.065102726 -0.01217811
000110 69 07 b0 bd da 2e 38 bd c5 86 d7 3c 19 04 9c bd
       -0.085951634 -0.044966556 0.02630938 -0.07617969
000120 9a 74 b3 bd c5 1f 29 bd b5 42 f4 3c 43 3d e8 3d
       -0.08762474 -0.041290063 0.029816965 0.1133981
000130 af df b2 bd 65 33 8d 3d 2a 4e 2a 3d 6b 41 dd 3c
       -0.087340705 0.06894568 0.04157845 0.027008733
000140 0a 1b 15 bd af 27 0c bb 3f 38 b6 bd 40 6b 13 3d
       -0.03640274 -0.0021385958 -0.08897447 0.035990953
000150 9d 59 38 3b e1 8b 12 bd a2 78 02 bd e8 ed ac bc
       0.0028129586 -0.03577793 -0.031853326 -0.021109536
000160 04 26 9a ba 87 94 a8 bb 7e 44 c9 bd 00 68 87 bd
       -0.0011760597 -0.005144659 -0.09827517 -0.06611633
000170 a1 bf 00 bd 5d 5c 84 3d 7a 49 13 bd f7 a6 ae 3d
       -0.03143275 0.064629294 -0.035958745 0.0852794
000180 d0 8d 7f bd 88 78 11 3d dd 06 a8 bd 62 96 12 3d
       -0.062391102 0.03551534 -0.08204434 0.035787947
000190 5b f2 aa bc e6 b1 90 bd 99 44 95 bd db 3b ad bd
       -0.020867517 -0.070651814 -0.072884746 -0.08458682
0001a0 ad eb ab 3d 9f e3 c5 3b ed 2e d0 bd dd 42 de bc
       0.08394561 0.0060390974 -0.101652004 -0.027131492
0001b0 87 1b ac 3d e4 1e 45 3d af f4 f4 3c 2c c0 a8 3d
       0.08403688 0.048125163 0.02990183 0.08239779
0001c0 02 5d 48 bd 75 9b 4f bd ab 15 04 bd 45 ed db bd
       -0.048916824 -0.050685365 -0.032247227 -0.10738615
0001d0 a6 33 a9 bd 9f 44 2d 3b 84 1d c6 3d e3 c8 99 3d
       -0.08261804 0.0026438606 0.096735984 0.07509019
0001e0 2e cf 67 bd 7a f7 a2 bc 3c 1e ae 3d e3 ab a1 bd
       -0.056594066 -0.019893397 0.085018605 -0.07894113
0001f0 37 49 8a 3d 49 af 5d 3d 45 60 b8 3c f9 8d b9 3b
       0.06752246 0.054122243 0.022506842 0.0056626764
000200 93 57 5c bb da 6d af bd f4 24 65 3d e2 dc d1 bd
       -0.0033621534 -0.085658744 0.055943444 -0.10247208
000210 66 6d 6e 3d 30 74 ce 3d 30 34 42 3c d5 bf 01 bd
       0.0582098 0.10080755 0.011853263 -0.031677086
000220 ef 25 e1 ba 27 e8 f8 3c e9 c3 ac 3a d4 11 b3 3d
       -0.0017177443 0.030384136 0.0013180944 0.08743635
000230 f6 35 c4 3d 64 ed 87 3c 98 21 5b bd ef a1 14 3d
       0.09580605 0.016592689 -0.053498834 0.036287244
000240 f5 b8 90 3d 6b 80 c8 bc ae f7 cc bc 30 35 8b bd
       0.07066528 -0.024475297 -0.025020447 -0.06797254
000250 86 41 83 3d af 2f 15 bd 67 34 8e bd 3c 08 dd 3d
       0.06408982 -0.036422428 -0.06943589 0.10792586
000260 80 09 0f bc c1 a1 d5 bd 5a 47 85 3d 8f 7e 95 bd
       -0.008730292 -0.10431243 0.0650775 -0.0729953
000270 59 e5 2e 3d 86 14 23 bc 7d d5 96 bd d8 a9 df 3c
       0.04269919 -0.009953624 -0.073649384 0.027302667
000280 b9 28 cf bd 80 7d 96 3d 65 31 4b bc 7f 4b c7 bd
       -0.10115189 0.07348156 -0.012401913 -0.097311966
000290 02 7a 0f 3d 81 6e 70 bd 8b ff df 3b 10 80 b4 bd
       0.035028465 -0.058699135 0.006835883 -0.088134885
0002a0 f3 25 40 3d 65 ce bb 3c 62 1f 3c 3c 9c 1a 2b bc
       0.04691119 0.022925565 0.011482092 -0.010443356
0002b0 79 21 be bc 56 4b 8b bd 9f 0f 9a bd d5 76 a1 bd
       -0.02320932 -0.068014786 -0.07522511 -0.078839935
0002c0 0e 91 a8 bd 6e f5 ab bd 6b f3 b7 bd 33 70 b5 bd
       -0.08230792 -0.083964214 -0.08981975 -0.08859291
0002d0 0b 19 47 bd ea 57 3c bd c3 29 0d bd 00 61 01 3c
       -0.048607867 -0.04598228 -0.034463655 0.007896662
0002e0 ab 73 67 3c 64 b6 9d bd d9 c7 db bc a9 29 9f bd
       0.0141266985 -0.07700804 -0.026828693 -0.07771618
0002f0 a1 24 55 bc 09 43 e9 3d 77 01 9d 3b 93 40 e6 3d
       -0.013009221 0.11389739 0.0047914344 0.11242785
000300 b1 0e 88 3d 4b 9a f9 bc a0 e4 ad 3d 06 93 18 3d
       0.06643427 -0.03046908 0.084908724 0.037249587
000310 df a4 4b 3d 44 6d c5 3d 02 3d 8f 3d 57 0f ad 3c
       0.04971778 0.096399814 0.06994058 0.021125479

weight f4 [200, 200]
000000 e1 33 4d 3d 1a d1 2c 3e 11 fe c6 bd a0 cd 49 3e
       0.050098304 0.16876641 -0.09716428 0.19707346
000010 4b a4 44 be a6 b1 ef 3d 90 44 43 bd ce 02 31 3e
       -0.19203298 0.117038056 -0.04767281 0.17286226
000020 91 13 10 3d 11 3a 91 bd dc 49 2f be 97 4c d8 3d
       0.03517491 -0.070911534 -0.17118019 0.10561483
000030 ca c9 16 bc 65 51 1e 3e f5 0b a2 bd a7 74 1e 3d
       -0.009203384 0.15460737 -0.07912437 0.038685467
000040 70 a0 32 3e 1a 46 3a 3d 16 a2 c6 3d 95 08 21 be
       0.17444015 0.04547701 0.09698884 -0.1572593
000050 be 5c 25 bc 87 d0 0c 3e 37 1f 02 bb 90 d3 45 be
       -0.010092912 0.13751422 -0.0019855031 -0.19318986
000060 31 e3 65 ba a3 10 dc bb 0b 6d 82 3d 58 7d bc bd
       -0.0008769511 -0.0067158504 0.063684545 -0.09203595
000070 f1 4b 2d 3c 3e ea 00 bd 0f 4d d0 3d ee 85 29 bd
       0.010577188 -0.03147339 0.10170948 -0.04138749
000080 c1 e5 17 be 1b 86 af 3d c2 7a 27 bd a4 4b 18 be
       -0.14833738 0.085705005 -0.040888555 -0.14872605
000090 c7 b7 15 3e 38 e3 c5 bd 49 0f 99 bc 51 c2 d5 3c
       0.14620887 -0.09662479 -0.018684046 0.026093634
0000a0 b0 b1 b8 bd dd 49 38 be 7f 14 85 3d 06 31 17 3e
       -0.09018266 -0.17996927 0.0649805 0.14764795
0000b0 e9 70 e5 bd 0b 12 62 bc 09 dd 26 be 60 81 78 bb
       -0.112031765 -0.013798247 -0.16295256 -0.003791891
0000c0 0d 56 25 3e 35 e8 17 3e 74 f6 ea 3b 7a ea c0 bd
       0.16146107 0.14834674 0.007170493 -0.09419723
0000d0 05 40 40 bd 11 7d 4d bc 7c 4c db bd 05 39 40 bd
       -0.046936054 -0.012542025 -0.107079476 -0.046929378
0000e0 05 76 58 3d 88 38 3b be f9 07 54 bd f5 ce f7 bb
       0.052846927 -0.18283284 -0.051765416 -0.007562513
0000f0 65 54 e0 bd da 8b 53 3d 33 9b 47 3e ef fa 59 3d
       -0.10953597 0.051647045 0.19492798 0.053217825
000100 59 46 02 3d 09 de 44 3e 87 24 9e bd 51 3e 50 be
       0.03180537 0.19225325 -0.07721811 -0.20336272
000110 eb 62 00 bd 30 46 b0 bd 8e 04 49 3d e7 fb 1c bd
       -0.031344336 -0.08607137 0.04907661 -0.03832617
000120 a9 5e 33 3d c8 1e cf 3d 88 10 e8 3d ef 0b 30 3e
       0.043791447 0.10113293 0.11331278 0.17192052
000130 e4 60 01 be a1 94 0d 3c ec 6c 3e 3e 34 a2 01 bd
       -0.12634617 0.008641393 0.18596238 -0.03164883
000140 86 5d b5 3d 35 05 43 be da 51 0a 3e 3b 29 74 3d
       0.08855729 -0.19044955 0.13507786 0.059609633
000150 1e fe fb 3c a0 14 ce 3c 1d 3e 13 ba 2e d3 2b bc
       0.030760821 0.02515632 -0.00056168606 -0.010487361
000160 82 98 04 3c 3b c0 08 3e 21 e7 07 bc 21 2b 34 be
       0.008093001 0.1335458 -0.0082948515 -0.17594577
000170 52 b0 ce 3d db a6 e5 3d 7f 34 f0 bc 97 2f 37 3e
       0.10092224 0.11213466 -0.029321907 0.17889248
000180 4c 03 b8 3d bd 02 36 be bd 81 34 3e 35 07 3a be
       0.08985004 -0.17774482 0.17627616 -0.18166812
000190 7b a9 c0 3d 8a 1a a5 3c fa b2 9c 3d 9d f1 d5 3d
       0.09407326 0.020154256 0.076513246 0.10446475
0001a0 32 08 42 3d c3 39 7b bd aa 98 2a be c8 93 df 3d
       0.047371097 -0.061334383 -0.16659799 0.10916859
0001b0 fb 4a 92 bd e5 2f 0e be f2 83 90 bd d6 76 a1 bd
       -0.07143208 -0.13885458 -0.070564166 -0.07883994
0001c0 2c 63 41 3e 63 ec ca bd 97 1c 57 bd ce 3b cb 3d
       0.18885487 -0.099083684 -0.0525175 0.09923516
0001d0 48 b7 cc 3c 0c 47 3c 3e b2 2d 2a 3d 44 95 31 3e
       0.024989739 0.18386477 0.041547485 0.17342097
0001e0 81 8c c6 3d 6f 17 2b be 20 ae 39 be 67 d1 8e 3d
       0.09694768 -0.16708158 -0.1813283 0.06973534
0001f0 6a 92 13 be 6b f5 94 bd 4c 1d 1d be 76 59 9a 3d
       -0.14411321 -0.07273372 -0.15343207 0.075365946
000200 f7 13 7f bd 44 d1 a1 3c cc 42 54 bd 38 c0 e6 3d
       -0.0622749 0.019753106 -0.051821515 0.112671316
000210 2d 37 3a 3e 14 fc 33 3e 21 74 16 be c1 0b 16 3d
       0.1818511 0.17576629 -0.14692737 0.036632303
000220 eb 2e 46 3c 91 e6 8f 3d 4c ab a2 3d de 72 6b 3d
       0.012096147 0.07026399 0.079428285 0.057482593
000230 ea 82 d7 3d 01 07 0c be 3c 93 46 be 37 66 2d 3c
       0.10523017 -0.13674547 -0.19392103 0.010583452
000240 78 5d da bd 63 19 44 bd 36 f1 f8 bd 82 42 90 bd
       -0.10662359 -0.047875773 -0.12155382 -0.07043935
000250 f1 0c 44 bd 6e f0 07 be 39 f2 05 3e 06 27 0c bd
       -0.047863904 -0.1327531 0.13080682 -0.034216903
000260 97 8e 9b 3d 92 8c 66 3c 28 68 4c be 15 f8 d0 bd
       0.07595556 0.0140716005 -0.19961607 -0.10203568
000270 52 f6 42 3e 9a d4 9b 3d 51 01 ca 3c 95 a0 95 3d
       0.19039276 0.0760891 0.02465883 0.07306019
000280 a6 a2 c6 ba de 45 3f be a2 f5 0d be 8a f4 d2 bc
       -0.0015154674 -0.18678996 -0.13863233 -0.025751371
000290 1d e8 32 bd ff 65 0a be b6 aa 16 3e de d3 82 3d
       -0.04367839 -0.13515471 0.14713559 0.06388067
0002a0 8a 96 1b 3e de 87 2b 3d 29 43 fd bd 68 54 42 bc
       0.15194145 0.04187762 -0.123663254 -0.011860944
0002b0 ad 8b 07 be 29 18 90 3c 1d e4 c5 bd 8b f9 9b bd
       -0.13236876 0.017589645 -0.0966265 -0.07615956
0002c0 55 51 21 3e 99 28 3d 3e 20 fb fd bd e5 df 22 3e
       0.15753682 0.18472518 -0.12401414 0.15905721
0002d0 03 56 1e bd 3b 9d d9 3c 1c 4a 35 be 92 dc cf 3d
       -0.038656246 0.026564231 -0.17704052 0.10149492
0002e0 22 0b 44 3e a5 a7 3a 3e 08 50 d1 3d 8a 77 50 be
       0.19144872 0.18228014 0.10220343 -0.203581
0002f0 69 90 08 be a3 a8 17 3e 86 d5 b8 bd 12 a2 2f bd
       -0.13336338 0.14810424 -0.09025101 -0.04287917
000300 42 17 49 be 47 7b 48 3d 72 e9 ef bd 27 9b 57 be
       -0.19637778 0.04894569 -0.11714448 -0.2105528
000310 f7 67 74 bd 93 61 7e 3d 47 d6 bd 3d 5f 75 10 be
       -0.05966946 0.062104773 0.09269386 -0.14107274
000320 c3 2c 0c 3d 2b fb f2 3d 6d 63 1b bd a0 7b 43 3d
       0.034222376 0.11864313 -0.037936617 0.04772532
000330 f0 34 45 be 03 61 1f 3e b4 54 ee 3d a0 c5 3d be
       -0.19258475 0.15564351 0.116372496 -0.18532419
000340 1f 26 28 be f7 9d 42 3e 44 99 6b bd b6 15 3d 3e
       -0.16420792 0.19005571 -0.057519212 0.18465313
000350 27 40 16 be 50 f0 e0 3d 21 ad dd bc ca 94 d8 3d
       -0.1467291 0.10983336 -0.027060093 0.10575254
000360 1d 4a 08 be aa a5 14 3e e0 6d 0b bd 30 e9 1d 3e
       -0.13309522 0.14516321 -0.03404033 0.15420985
000370 17 8a e1 3d b8 fd f7 3d 4f 93 2a be 38 0c 26 be
       0.11012667 0.1210894 -0.16657756 -0.16215599
000380 22 ca 34 3d 39 e4 39 3d 25 d2 ef 3d ac c9 5e bc
       0.04413808 0.045383666 0.11710004 -0.013597887
000390 07 7b 11 bc 13 b8 7b bd ef 0e f3 bd f4 ac 0d 3e
       -0.00887943 -0.061454844 -0.11868083 0.13835508
0003a0 6e a1 e4 bd a6 d5 b7 3d fe e9 16 be ab 1d 5a 3d
       -0.11163603 0.08976297 -0.14737698 0.05325095
0003b0 2c 23 dd bd a4 3f 36 3e 50 7a dc 3d 84 bf 9a 3d
       -0.10797724 0.17797714 0.10765517 0.0755606
0003c0 07 9d 1f be 0c 14 94 3d 83 46 98 3d 82 79 4d 3d
       -0.15587245 0.07230386 0.07435324 0.050164707
0003d0 22 79 1a 3c 6c fe 40 be e4 36 3b 3e 7e c9 b0 3d
       0.009428294 -0.18847054 0.18282658 0.086321816
0003e0 63 41 92 bd 22 e1 d5 3d 27 38 e3 bc db dc f4 bd
       -0.07141378 0.10443331 -0.027736736 -0.11956187
0003f0 33 db 2e be ef 9f 9d bd 3f 21 c2 3d e0 8d 31 3d
       -0.17075805 -0.076965205 0.094789974 0.043348193

bias f4 [200]
000000 49 df 5e 3d 8c 5b 08 bd 19 18 43 bd 4a bf fb bb
       0.05441216 -0.03329043 -0.047630403 -0.0076827155
000010 39 46 5b 3d f5 3b e7 3b 39 8c 38 3d 48 e0 cf bc
       0.053533766 0.007056708 0.0450556 -0.0253755
000020 46 e4 bb 3c 3b ee 5e 3d f1 76 9e 3b 98 8d da 3b
       0.022935998 0.054426413 0.0048359563 0.0066697113
000030 6a ec 8c bb db 21 5d bd e7 ff 21 3d d1 10 c4 ba
       -0.0043006437 -0.053987365 0.039550688 -0.0014958625
000040 73 02 a1 bd 70 33 9b 3c a7 ef 76 bd 4c cb 83 bd
       -0.07861795 0.018945426 -0.060287144 -0.0643526
000050 e1 5d 70 bc 15 00 13 bd 6c 80 1a bd 41 6c fe 3c
       -0.01467082 -0.03588875 -0.03772013 0.031057479
000060 df fd 94 bd 20 f6 b0 3c 1c 1b 7c bc 55 42 4d bd
       -0.072749846 0.021601737 -0.015387323 -0.050112087
000070 ce 8c 5f 3d 6d ed 8e 3c 13 b5 7d bc 59 9c 0d bd
       0.05457764 0.017447198 -0.015485066 -0.034572933
000080 79 d2 1e 3d 0a 02 2b 3d cc 3f b9 bb 89 ab 01 bd
       0.03877494 0.04174999 -0.005653357 -0.03165773
000090 5d aa dc 3c b6 fe 3a 3c f7 3e c2 bb 6a 5d a1 b9
       0.026936704 0.011413267 -0.005927916 -0.00030777912
0000a0 05 b6 a2 bd df 95 90 3b 86 36 74 3b 99 f3 8a 3d
       -0.07944874 0.0044123973 0.0037263944 0.06784744
0000b0 80 c8 dc bb 79 10 93 3d ef 40 f3 3a 7a 64 11 bd
       -0.0067377687 0.07180876 0.001855878 -0.035496213
0000c0 37 aa 8c 3c 06 d2 72 bb f1 65 5d 3d 24 0d d7 3c
       0.017171009 -0.0037051453 0.054052297 0.026251383
0000d0 30 86 9b 3b 48 36 1c bb 6e 8f 91 3d f5 b0 78 3d
       0.004746221 -0.0023836065 0.07107435 0.060715634
0000e0 8a 3e 59 bb 0f 85 da bc 38 71 78 bd c7 bd 7d 3d
       -0.0033148848 -0.026674775 -0.06065485 0.061948564
0000f0 73 01 89 bd 00 3e d3 bb 12 54 b9 bb 33 44 17 3c
       -0.066897295 -0.0064466 -0.005655774 0.009232569
000100 c5 b3 ba 3c 66 dc 79 bd 0f 43 87 bd 2a fd 3b ba
       0.022790799 -0.061001204 -0.06604587 -0.0007171208
000110 5a 37 19 3c 3d 5e 4a 3a 4a 37 2b bc f2 7e 3e bb
       0.009351576 0.0007719731 -0.010450194 -0.0029067365
000120 1e 00 82 3c ce b2 0f 3d 1c 2c 36 bd 47 56 27 bd
       0.015869197 0.03508263 -0.04447566 -0.040853765
000130 95 9b 69 bd 27 c2 31 bd 7d 56 88 bd 3c cd ac 3c
       -0.05703314 -0.04339805 -0.06657121 0.021093957
000140 e4 cc 76 bd 52 57 7a 3d 05 08 20 bc 3f 62 41 3d
       -0.060253993 0.06111843 -0.009767537 0.047212835
000150 10 46 5f bd 42 b2 8a bd 63 f7 84 bd 5c f2 60 3d
       -0.054510176 -0.06772281 -0.06492498 0.054918632
000160 dd 31 36 3d 7e d1 2b 3d b4 6b 2c 3d 50 c4 bb 3c
       0.044481147 0.041947834 0.0420949 0.022920758
000170 09 28 69 3d 2c f0 67 3d 3b 3a 7c ba 93 5f 1b bd
       0.056922946 0.05662553 -0.0009621714 -0.037932944
000180 26 ff 42 3d 91 2f 05 bd 22 c7 53 3d 37 59 8a 3d
       0.04760661 -0.032516066 0.05170358 0.06755298
000190 be cf f9 bc 98 bd 45 3d 9b 9a 66 bd 3f 83 04 3d
       -0.030494567 0.048276514 -0.056299787 0.03235173
0001a0 d9 e4 2a bd ab 7e 38 bd 58 ab 81 bc f7 e6 c6 3b
       -0.041722152 -0.045042675 -0.015828773 0.0060700136
0001b0 fd b5 cb bc ca 32 12 bd 6e d8 2d bd de 04 0e 3d
       -0.024867052 -0.035692967 -0.04244273 0.03467261
0001c0 b1 fc bd bb a4 86 7e bd ef 3b 54 bd 84 6d 29 3d
       -0.0057979454 -0.062140122 -0.05181497 0.041364208
0001d0 f8 ff 48 bd c0 7e 90 bc 86 da 80 3c b1 5b 40 bd
       -0.049072236 -0.017638564 0.0157292 -0.046962444
0001e0 ed 0f 1e 3c 39 bf 04 3d a0 6f 86 bd f4 a3 4c bd
       0.009647352 0.032408927 -0.065642595 -0.049961045
0001f0 d6 c4 fe 3b 92 25 2b 3d 3e 18 5c 3d a5 55 34 3d
       0.0077749295 0.041783877 0.053734057 0.04402699
000200 a1 2c 70 3d e9 90 88 3b 55 be fc bb 2c ea 08 bc
       0.05863631 0.0041676653 -0.007713119 -0.008356612
000210 9b 0f 31 bd ac 49 9a 3d bd a6 1b 3a 87 6d bb 3a
       -0.043227773 0.07533583 0.00059376267 0.001429961
000220 0a 5e 94 bd 1b 4e b3 3c ac a8 98 3b 59 ef f2 bc
       -0.07244499 0.02188783 0.004658779 -0.029655145
000230 b0 80 6c 3d 28 09 8d 3c d5 28 06 3d 57 25 f6 3c
       0.057739913 0.01721628 0.032753784 0.030047102
000240 cb 78 75 3d ce da dc bc 12 84 f3 3c 12 55 10 bd
       0.05992965 -0.026959803 0.029726062 -0.03523738
000250 11 9b 32 3d 09 31 39 bc 2c c5 20 bd 23 65 29 bd
       0.043604914 -0.011303195 -0.039250538 -0.041356217
000260 a5 25 bc 3b e4 f8 84 bd b6 e0 13 bc 23 f5 54 bd
       0.0057417923 -0.064927846 -0.009025743 -0.051991593
000270 6b 0d 0d bc f5 31 43 bd d3 22 4e bd d3 09 7b ba
       -0.008609156 -0.047655065 -0.05032618 -0.0009576354
000280 92 49 53 3d a3 49 fc 3b 5b ee 2d 3d e3 0a 38 3d
       0.051583834 0.007699208 0.04246364 0.044932257
000290 e8 37 31 bd 28 8b 7a bd eb dc 25 bd d2 87 87 bc
       -0.043266207 -0.061167866 -0.040493887 -0.016544256
0002a0 88 ac 92 bd fe 03 01 3c 4e 72 05 3d 88 1a 37 bc
       -0.07161814 0.007874487 0.032579713 -0.011175759
0002b0 1e 2e 45 bd d1 f0 6f b8 81 cc 0b 3d 71 e9 94 3d
       -0.048139684 -5.7206318e-05 0.034130577 0.07271088
0002c0 ba 5d 00 bd 8d bb 21 3d 5c 04 be bb 6c d3 9a 3b
       -0.031339385 0.039485503 -0.0057988595 0.0047249105
0002d0 fe 31 80 bc fa 87 80 3b 1f ea 47 bd 73 86 3d bd
       -0.015648838 0.0039224597 -0.04880726 -0.0462708
0002e0 9b 24 b0 bc c5 06 7a bd 1a 16 50 3c 65 a8 2b bd
       -0.02150183 -0.061041612 0.012700582 -0.04190864
0002f0 98 cb 6e bd 60 97 90 bb 3c 9a 86 3d 9e c2 3b 3d
       -0.05829963 -0.0044125766 0.065723866 0.0458399
000300 eb 35 4b 3d ff b8 48 3c 56 1f 23 3d c2 66 8d bd
       0.049611967 0.012251138 0.039824806 -0.06904365
000310 26 80 8b 3d b0 9a 53 bc fc fa ac bb 6a 9a 92 3d
       0.06811552 -0.012915298 -0.005278943 0.071583584

weight f4 [200, 200]
000000 60 ed 1d be d6 0d e7 bd 3d 18 0f 3e 63 72 28 bd
       -0.15422583 -0.11281936 0.1397409 -0.041124713
000010 66 8c 3c bd 90 19 2c 3e 9c 23 14 3e 04 98 73 bc
       -0.046032332 0.16806626 0.14466709 -0.014867786
000020 62 11 86 bd 59 43 c4 3c 35 59 18 bc 75 73 0c 3d
       -0.06546284 0.023957895 -0.009298612 0.034289796
000030 bb 2a f3 bc 4a ae d9 3d 05 ab f1 3c 88 80 29 3e
       -0.029683461 0.10628946 0.029500494 0.16552937
000040 b4 81 44 3d 52 84 88 3d 87 31 47 3d 18 c7 da bd
       0.047975257 0.06665863 0.048631217 -0.10682505
000050 b7 9e e4 bd 6c 91 0a be b9 0e b8 3d ef 40 21 bd
       -0.11163085 -0.13532037 0.08987183 -0.039368566
000060 6e 92 4d 3e 6b 7e 3f be cd e5 52 3e 10 9a b0 bc
       0.2007539 -0.18700568 0.20595475 -0.021557838
000070 54 18 28 be 95 79 2f bd 14 c3 2a bd 09 89 31 be
       -0.1641553 -0.04284056 -0.041689947 -0.17337431
000080 2f 12 cc 3d a1 a5 53 3e db 3a e9 3d 0a 3d 2d 3d
       0.09964406 0.20668651 0.11388179 0.04229454
000090 11 9d 3b 3d 50 85 44 be e0 67 03 3e b2 1b 15 3e
       0.045804087 -0.1919148 0.12832594 0.14561346
0000a0 65 ee 0a be ad cb 28 be 9f 98 76 bd 39 7e b1 3d
       -0.13567503 -0.16483946 -0.060204145 0.08666653
0000b0 79 58 ba bd eb b4 2c be b8 2e 05 3e 7f b7 2b be
       -0.09098906 -0.1686589 0.13006103 -0.16769217
0000c0 7e e5 ad bd d2 a2 4a be 26 28 e8 3d 8b 8f 0c 3e
       -0.08491038 -0.19788674 0.11335783 0.13726632
0000d0 06 75 4f bc 03 04 4e 3d f7 cb d6 3d ec c6 bc bd
       -0.012662178 0.050296795 0.10488122 -0.09217629
0000e0 e3 cb 88 bd 2a 05 a4 bd fa d6 f2 bd 3e dd 4e be
       -0.06679513 -0.080087975 -0.1185741 -0.20201585
0000f0 ec 07 89 bb c3 65 09 be c9 de aa 3b e6 70 42 3e
       -0.0041818526 -0.13417725 0.0052145463 0.1898838
000100 8b ef 47 3e 72 55 41 3e ae a1 9d 3b db 24 a7 3d
       0.19524972 0.18880251 0.0048105335 0.081613265
000110 7b 9a 6b bd 87 cb 44 be 82 94 51 3e 79 48 75 3c
       -0.05752037 -0.19218265 0.20466807 0.014970892
000120 fe 69 fe 3d 5f ee 25 bd 51 dc 99 bd 99 52 93 bd
       0.1242256 -0.04051053 -0.07512725 -0.07193489
000130 94 6c f4 3c 14 03 e2 3d 73 7c 04 bd 42 da 2e bd
       0.02983693 0.11035743 -0.032345247 -0.042688616
000140 41 23 f0 3c a8 92 19 be e9 61 12 be 9e af 43 3e
       0.029313685 -0.14997351 -0.14295162 0.19109961
000150 bd 56 dd 3d fa 7a 28 3e 82 d7 8e bd 9b 9e 05 3e
       0.1080756 0.16453162 -0.069746986 0.13048784
000160 6c 0f 32 be 0c 02 3b be 77 5d 20 be cd 8d 4d bd
       -0.17388695 -0.182625 -0.15660654 -0.05018406
000170 db cc 33 be 42 49 ce bd 21 cc 1d be 7b 4d 75 bd
       -0.17558615 -0.100725666 -0.154099 -0.059888344
000180 23 a9 44 be 43 3d b3 bd 78 8b b3 3d ad bb 4a 3e
       -0.19205146 -0.08751919 0.08766836 0.19798155
000190 85 51 35 3d a2 0c c8 bd e5 11 61 bc 99 8a 3e be
       0.044267196 -0.097680345 -0.013737177 -0.18607558
0001a0 3d 49 1e be 09 cc 14 3e 4c c8 26 3e e7 f6 23 3e
       -0.15457626 0.14530958 0.16287345 0.16012155
0001b0 c7 fa 0c 3e fe 93 e2 3d 1b 03 09 3e b5 ca cc bd
       0.13767539 0.110633835 0.13380091 -0.09999601
0001c0 cb 8d d8 3d bc 9f 22 be 55 85 1a be 0e 74 1a 3e
       0.1057392 -0.15881246 -0.15089925 0.15083334
0001d0 6f 68 40 be 93 3d 23 bc 77 26 13 be 68 9d 56 3d
       -0.18789838 -0.009963411 -0.14370142 0.052396208
0001e0 7d 5b 0f 3e 85 35 49 3e e5 2e d9 3d 9a 52 74 3d
       0.13999744 0.19649322 0.106046475 0.059649087
0001f0 9f 57 61 bd 09 60 18 3d e4 f4 93 bd 5d 88 3a be
       -0.055015203 0.03720096 -0.072244436 -0.18216081
000200 97 b3 38 be 9d 98 cf 3d d4 2e 9d bd 63 48 fb 3d
       -0.18037258 0.101365305 -0.076749474 0.12269666
000210 9f 20 68 bc f1 60 8d 3d d8 b7 41 3e 8e fa 47 bd
       -0.014167934 0.06903256 0.18917787 -0.048822932
000220 75 3e ff bd 45 e4 dd bb 0b dd 07 3e 57 21 48 3e
       -0.124630846 -0.0067715966 0.13267915 0.19543968
000230 68 eb 42 be ac e1 4e 3d 4d 3d 41 bc 19 6f 3b be
       -0.19035113 0.050508186 -0.0117944 -0.18304099
000240 d6 14 ed bd 88 ed 6d 3d 9e 3b 34 be 85 20 b5 3c
       -0.1157624 0.058087856 -0.17600867 0.022110233
000250 fe 91 16 be c6 1e f3 bb 36 10 f3 3d 7a 6d 09 be
       -0.14704129 -0.00741944 0.11868326 -0.13420668
000260 be ac 81 bd 6e 55 02 be a3 47 b2 3d 4e 69 06 3c
       -0.06331776 -0.12727901 0.0870507 0.0082038175
000270 b9 73 8c 3d 2e 7c 4f 3e 5c c9 83 3c b7 2c 31 3d
       0.0685801 0.20262215 0.016087227 0.043255534
000280 fa 3e fa 3d e5 0a 89 3d bb a6 12 3e 5d 0e b2 bd
       0.12219043 0.06691531 0.14321415 -0.08694146
000290 2c b2 11 3e 49 aa 10 3d 19 a1 bd 3c 24 75 db bc
       0.14228123 0.035318647 0.023148106 -0.026789255
0002a0 d0 1f 00 be 2b 2f a8 bd 19 a5 ca bd 1c 70 4e 3e
       -0.12512136 -0.082121216 -0.09894771 0.20159954
0002b0 e8 13 fd bd 58 31 11 3e 50 7f 1c bb e3 8a e7 bd
       -0.123573124 0.1417898 -0.0023879595 -0.113057874
0002c0 35 da f4 3d 2a 23 1f be 8c 74 ee 3c b4 33 13 be
       0.11955682 -0.15540758 0.029108308 -0.14375192
0002d0 68 4d 82 3d ff 3b 14 be 58 23 04 3d 5f dd 51 3d
       0.0636242 -0.14476012 0.03226027 0.051236507
0002e0 8f 91 ce bd 5a 44 d8 3c 05 25 16 3e 03 36 a6 bd
       -0.10086357 0.02639978 0.1466256 -0.08115771
0002f0 69 bd a9 3d 2f 39 ab bd dc 38 b5 3d 3f 67 bd bd
       0.0828808 -0.08360516 0.08848736 -0.09248208
000300 5c c2 eb bd cd e2 a5 bd 5a a9 27 be be 28 4a be
       -0.115116805 -0.080998994 -0.16373196 -0.19742104
000310 3d f3 fa bd 5f 98 55 bd af de bc 3c 64 f8 ec bd
       -0.12253425 -0.052147266 0.023055403 -0.11570814
000320 2e f2 4d 3d 59 b4 a4 3d ac e0 e6 3d 15 d5 45 be
       0.05027979 0.08042211 0.112733215 -0.19319566
000330 1b b0 2f 3d 77 2d 32 bd ab 95 57 3e 03 be 37 3e
       0.042892557 -0.04350039 0.21053188 0.17943577
000340 66 f9 74 3d 5f 2f 34 3e da 12 30 be c6 4d c7 3d
       0.059808157 0.17596196 -0.17194691 0.09731631
000350 06 65 8a bb ce cf 10 3e ac 1f 0f 3e d0 b0 92 bc
       -0.0042234687 0.14141771 0.13976926 -0.017906576
000360 07 24 e8 bd 26 04 20 be 13 7e 1b 3e 50 48 22 be
       -0.11334997 -0.15626583 0.15184812 -0.15847898
000370 30 b7 24 3d 17 64 93 bb f5 33 20 be 10 4d e2 bd
       0.040213764 -0.0044980156 -0.1564482 -0.11049855
000380 03 93 4f 3b e2 6f fe bd 9f 3a 0a be e9 80 89 bd
       0.003167332 -0.12423684 -0.13498925 -0.06714041
000390 0c bf 53 bd e9 ac ae bd f2 40 0a 3e bc b4 f2 3d
       -0.05169587 -0.08529074 0.13501337 0.118508786
0003a0 4d bb 1e 3d c6 4c 06 be 5f 94 c6 3d b8 8e d5 bd
       0.038752843 -0.13115224 0.09696268 -0.10427612
0003b0 da 97 2c bd d8 7a 52 be 66 64 8e bd 08 7c 0c be
       -0.042137004 -0.20554674 -0.06952743 -0.13719189
0003c0 51 ce 0a be e2 19 af bd 9f 32 f1 3d 1e f3 1b be
       -0.13555266 -0.08549859 0.11777233 -0.1522946
0003d0 1f f6 62 bd 90 f6 39 be e4 c7 a5 bd d9 71 fc 3d
       -0.0554105 -0.18160462 -0.08094767 0.12326402
0003e0 eb 9a 9d 3a 44 66 07 be 4d c7 29 3e 72 2c db bd
       0.0012024319 -0.13222605 0.16579933 -0.10701837
0003f0 7c 47 43 3d 16 dd c6 3d 97 c9 3d bd 49 bc d5 bc
       0.047675595 0.097101375 -0.04633483 -0.026090758

bias f4 [200]
000000 40 58 80 3d 2b 38 ec 3c d2 42 5b 3c 35 96 1d 3d
       0.06266832 0.028835377 0.01338263 0.038473327
000010 46 1c 13 3d b3 a4 dc 3c 79 67 8b 3d 12 14 70 3d
       0.035915636 0.026934003 0.06806845 0.05861289
000020 14 ed 01 3d 09 72 ce bc cd 19 ec bc 04 04 db bc
       0.031720236 -0.02520086 -0.028820897 -0.026735313
000030 7d 87 c7 bc 4b f4 71 3d eb 50 cf 3a 2b 07 5e bd
       -0.024356598 0.059070867 0.0015816962 -0.054206055
000040 fd 13 17 3c 78 70 6a bd c9 65 14 bc 92 b7 5d 3c
       0.009221074 -0.057236165 -0.009057471 0.013532536
000050 4e e3 92 bd bc c4 41 3c 4a 2e 06 bc 40 9b 03 3c
       -0.07172261 0.01182669 -0.008189747 0.00803262
000060 84 6a 37 3d 3d 67 13 bc e7 70 71 bd db 7d 4e bc
       0.044779316 -0.008996782 -0.058945563 -0.0126032485
000070 ee d6 6d 3d da e9 87 bd d9 43 6e bd 56 66 8d 3d
       0.0580663 -0.066364005 -0.058170173 0.06904285
000080 6c a2 0d bd e0 aa 07 bd 61 e9 ce bc 85 21 95 3b
       -0.034578726 -0.033121943 -0.025257768 0.004551115
000090 28 56 73 bd 38 ce d5 3c 21 e7 58 bd c8 9f c5 3c
       -0.059408337 0.02609931 -0.052954797 0.024124041
0000a0 6a ba 34 bd 67 fc 16 3d c1 30 a1 3c 54 77 2a bc
       -0.04412309 0.036861803 0.019676568 -0.010404427
0000b0 b7 4a 8f bc bb c1 63 3d 4f a4 b4 3d 8b 18 4e bc
       -0.017491682 0.055604678 0.08820402 -0.012579094
0000c0 cb d6 70 3b 34 30 a0 bd 44 aa 19 3d c6 04 f9 bc
       0.003674912 -0.07821694 0.037515894 -0.030397784
0000d0 87 80 d1 bc 52 07 cf 3c 14 c5 45 3d 35 1d 44 bd
       -0.025573982 0.025272045 0.04828365 -0.047879416
0000e0 3b ab c2 3c 12 08 7b 3c ee 5b 62 3c 84 6a 28 bd
       0.02376329 0.015321748 0.013815863 -0.041117206
0000f0 c5 9c 37 bc 2a a7 95 bc 40 d7 82 3d 11 1e 8f 3d
       -0.01120681 -0.018268187 0.06388712 0.069881566
000100 d5 6f 45 3d e8 30 53 bd de ae 05 3d ef 39 bf 3c
       0.048202354 -0.051560313 0.03263747 0.023343055
000110 16 59 0e bd 63 9a 98 bb b3 80 d3 3c 08 12 83 3d
       -0.034752928 -0.004657076 0.025818205 0.063999236
000120 cd b6 a0 3d e4 58 2e 3d 34 04 2c 3b 77 c1 48 3d
       0.078473665 0.04256524 0.0026247622 0.049012627
000130 6c 45 d1 3c 33 26 c0 3b cb 88 8f 3d 69 21 18 3d
       0.025545798 0.0058639287 0.07008513 0.037141237
000140 8c 83 38 3c cc 27 37 3d 61 a3 a5 bb c2 0d 64 bd
       0.011261832 0.044715688 -0.0050548767 -0.055677183
000150 bf b5 4c bc 11 8c bf 3b 1c da 2a 3c a1 c3 25 3d
       -0.0124945035 0.0058455546 0.010427978 0.04046977
000160 dc 0c 89 bd 89 56 22 bd 95 c9 01 3d 77 42 47 bd
       -0.06691906 -0.039633308 0.031686384 -0.04864737
000170 54 c3 00 38 73 59 8f 3b de 86 5a 3c 5e 86 d5 3c
       3.069949e-05 0.004374677 0.013337819 0.026065048
000180 11 80 d1 3b 1d 57 7e 3d 00 0c 48 bd 3d 21 01 bd
       0.0063934405 0.062094796 -0.04883957 -0.03152584
000190 52 3c 0b 3c 54 4f 90 bc fe 6f ca 3c 29 01 2f 3d
       0.008498268 -0.017615952 0.024711605 0.042725716
0001a0 e8 b0 17 bd da 44 8b 3d e2 89 5a bd ab 78 1a bd
       -0.037033945 0.06800242 -0.05335415 -0.037712734
0001b0 c5 a5 a7 3d 93 7d 35 3d 18 18 40 bd 85 a6 26 3c
       0.08185915 0.04430921 -0.046897978 0.010171537
0001c0 c8 52 53 3d 18 7f 36 3d 38 63 81 bd 7a 48 96 bb
       0.05159262 0.0445548 -0.063177526 -0.0045862766
0001d0 c1 4e 01 bd ea 14 42 3d 2a 6f 0d 3c b3 09 27 bd
       -0.031569246 0.047383226 0.008632461 -0.040780734
0001e0 7d d2 56 bd 32 91 20 3d 9e e4 96 ba fa 6b 62 3d
       -0.05244683 0.03920097 -0.0011512225 0.055278756
0001f0 6e d4 ad bc 1b 55 42 3d d3 da bf bb 83 59 6c bd
       -0.021219458 0.047444444 -0.0058549433 -0.057702553
000200 b9 7d 28 3d 5c 8f 55 bc 9d 1f e0 bc ec 0e 9b bc
       0.041135523 -0.013034668 -0.027358824 -0.018928014
000210 83 b7 7e bd f7 a4 8a 3d a2 2d 8b bd 32 92 29 3d
       -0.06218673 0.06769746 -0.06795813 0.04139919
000220 02 46 83 3d bb 28 fa 3c 4b 3c 57 3d 5d 9b 78 bd
       0.06409837 0.030537 0.052547734 -0.06069504
000230 0b 4d 21 3d 9c 81 6f 3d 29 b3 21 3d 5b 9d d8 3c
       0.039380115 0.058473215 0.0394775 0.02644222
000240 e5 99 46 bd bc f1 38 bc d7 63 6b 3d ba da 45 bd
       -0.04848661 -0.011288103 0.05746826 -0.048304297
000250 3b 10 06 bd 1e 65 f8 bc e2 89 ce bc 3c 3d 5b bd
       -0.032730322 -0.030321654 -0.025212232 -0.053525195
000260 c3 c9 dd bc ea 2b 81 bd 61 24 8d bd 3a 3b 57 bd
       -0.027073747 -0.06307204 -0.06891704 -0.052546717
000270 4e 18 6d bd a0 ce 30 3d 2e 3a 6c 3d f2 55 10 bc
       -0.057884507 0.043165803 0.057672672 -0.008809553
000280 5a 68 8b 3d 3a e2 44 bc a1 29 2f 3d ae 7c 66 bd
       0.06807013 -0.012016827 0.04276431 -0.056271248
000290 b9 e5 11 3d b2 2b 8c 3d 9d b9 28 3d 28 21 5d bd
       0.03561947 0.06844272 0.04119264 -0.0539867
0002a0 3b 76 57 3d f9 ff 8e 3d f0 a2 69 ba d9 95 1d 3d
       0.052602988 0.06982417 -0.0008912524 0.038472984
0002b0 20 29 03 bd 75 89 a7 3a ed 70 b2 3a f0 a1 70 bd
       -0.03202164 0.0012782054 0.0013613977 -0.058748186
0002c0 09 2f 48 3b 14 c4 88 3d 82 13 05 bd 0a 96 55 bd
       0.0030545613 0.06678024 -0.032489307 -0.05214504
0002d0 31 cd 02 bd ff 72 5a bd b9 96 8e bd a8 95 b7 3b
       -0.031933967 -0.053332325 -0.06962342 0.005602557
0002e0 e4 df 88 bc bf cc 03 bb 0b 74 05 bd 85 72 46 3d
       -0.016708322 -0.0020111052 -0.03258137 0.048449058
0002f0 ee fa 7a 3c 90 d5 6c bd 5e b4 86 3d 36 e9 80 bd
       0.015318615 -0.057820857 0.06577371 -0.062944815
000300 b2 4e 8a 3c 1d cb 01 bd fa de 21 3d 7e 83 3e bb
       0.016883228 -0.031687845 0.039519288 -0.0029070075
000310 49 86 7c 3c 87 78 91 bc 68 60 2f bd ec fb e2 bc
       0.015412875 -0.017757667 -0.04281655 -0.027708016

weight f4 [200, 200]
000000 34 e1 22 3e 02 45 97 bd 0f 1a 86 bd e8 56 40 be
       0.1590622 -0.07386209 -0.06547939 -0.18783152
000010 b5 b7 02 be 6e cb f3 bd 46 44 66 bc 8d 8a 32 3d
       -0.12765391 -0.119040355 -0.014054364 0.043589164
000020 38 cc 25 be 68 9e ff 3d 5f 23 8d bc 7b 69 d1 3d
       -0.16191185 0.124813855 -0.01722878 0.10225197
000030 9a c0 8f 3d 2d 3c 3c bd 2f da 75 bd 52 0e 76 3d
       0.07019158 -0.045955826 -0.06002253 0.06007225
000040 ec 0f 13 3c 92 b0 84 bd be 5f 15 bd 2c f9 20 be
       0.008975964 -0.064789906 -0.03646826 -0.15720052
000050 ab 09 3b 3d 57 47 2d bd 0d 6b 0a be e2 4e ae bd
       0.045663517 -0.042304363 -0.13517399 -0.085111395
000060 a0 0f f3 bd 9d 18 16 3e 93 a9 51 be 6f 98 2a be
       -0.118682146 0.14657827 -0.20474844 -0.16659711
000070 df 1f 4e 3e a5 3c 54 be f4 50 3c bd f8 0c 39 3d
       0.20129345 -0.20726259 -0.04597564 0.045178384
000080 e6 d8 f2 3d 07 e3 0d 3e 00 5a 83 bd 2b be 6e 3d
       0.11857776 0.13856135 -0.064136505 0.058286827
000090 0a ff 21 be f9 13 8d 3d ba 1f ef bd 1f fe fc 3d
       -0.15819946 0.06888575 -0.11675973 0.12353157
0000a0 fc 61 d8 3c e2 cd 0b 3d df e5 40 3d de da f2 3d
       0.02641391 0.034131892 0.047094222 0.11858152
0000b0 5a a7 ec bc c2 36 d0 3d d0 3e 10 3d d5 69 14 3d
       -0.028888393 0.10166694 0.035216153 0.03623374
0000c0 da df ab bd b2 e0 ca bd 45 9a 2b 3c 63 11 28 3e
       -0.08392306 -0.099061385 0.010473792 0.16412883
0000d0 52 01 13 3e f5 25 11 3d 26 10 9b 3c a0 ce b3 3c
       0.14355972 0.03543659 0.018928599 0.021949112
0000e0 89 91 0d be ce 17 8d 3d a6 a8 0a be 28 34 40 bd
       -0.13825049 0.06889306 -0.13540897 -0.04692474
0000f0 70 40 ac 3d cc 3a 09 be b7 ca 31 be 2d 33 42 be
       0.08410728 -0.13401335 -0.17362486 -0.18964835
000100 a6 1c 9c 3a df d5 d6 3d 10 10 21 bd 64 2f d1 3c
       0.0011910393 0.104900114 -0.03932196 0.025535293
000110 3c 46 88 bd b4 51 2f 3e 6e 29 db 3d 76 52 37 3e
       -0.06654021 0.17121011 0.107012615 0.1790255
000120 40 25 4a 3c 5c 1a 0f be 05 15 02 3e 27 46 57 bd
       0.012337983 -0.13974899 0.12703331 -0.052557137
000130 a0 a7 b7 bd 2c b2 e4 3c 30 93 28 be 62 4b c1 bd
       -0.08967519 0.02791699 -0.16462398 -0.09438206
000140 bf 1b c8 3c cc 0d 47 3d 0f 02 99 ba ee 41 5d 3d
       0.024427293 0.048597142 -0.0011673587 0.054017954
000150 fa 61 92 3d 92 19 41 be 89 c7 49 be d8 60 23 3e
       0.07147594 -0.1885741 -0.19705023 0.15954912
000160 78 6b ba bd 7d 7c 31 3e 12 86 22 be 10 97 2f 3e
       -0.09102529 0.17332645 -0.15871456 0.1714747
000170 82 6c 25 be dd 85 4a 3e 53 46 29 be 11 41 b9 3b
       -0.16154674 0.19777627 -0.16530733 0.0056535085
000180 c2 f9 fc 3b 3a f7 1e be aa e4 7b 3d 38 29 5f 3d
       0.007720203 -0.15523997 0.061497368 0.05448267
000190 34 0c e8 3d 6d f2 af ba e7 7b 1c 3e fd 64 87 bd
       0.113304526 -0.0013423689 0.1528164 -0.06611059
0001a0 0c 6a 25 3e 8e 7f b8 bd de b8 54 3d a0 61 31 3e
       0.16153735 -0.09008704 0.051934116 0.17322397
0001b0 49 60 d5 bd 07 51 3d be 06 6e 6c 3d 39 16 96 3d
       -0.104187556 -0.1848794 0.057722114 0.073284574
0001c0 dc e2 b5 bd 67 de 34 be 8d ab 6d bd 8a 67 39 be
       -0.088811606 -0.17662965 -0.05802493 -0.18105903
0001d0 a6 b8 c0 bd 0f 6a 15 be bc a8 a7 bd 42 c5 da 3d
       -0.09410219 -0.1459124 -0.081864804 0.10682155
0001e0 59 fd c6 3d 44 bd 07 bd 8d cb 9e 3d e4 25 e7 bd
       0.09716291 -0.033139482 0.07753668 -0.11286524
0001f0 8d 8f 4e 3d 65 c6 09 be a9 88 13 be 65 1a cc bd
       0.05042987 -0.13454588 -0.144076 -0.09965972
000200 ab 06 02 be 4f e6 21 be bc 96 26 3e c7 21 d8 3d
       -0.12697856 -0.15810512 0.16268438 0.105533175
000210 56 73 2f 3e a9 0d ef 3d 32 2e 1f 3e 17 cd f2 3d
       0.17133841 0.11672527 0.15544966 0.11855524
000220 a0 da e6 ba f4 90 b6 bd 27 67 3a 3d c9 c4 c7 bd
       -0.0017612763 -0.08914366 0.04550853 -0.09754331
000230 38 97 39 3d 38 53 d5 bd af d8 1b be f0 dc 2f 3e
       0.04531023 -0.10416263 -0.15219377 0.17174125
000240 c5 6a 22 3e 4f 99 2c bd c1 ab ae bd 4f e1 23 3e
       0.15861042 -0.042138394 -0.08528853 0.16003917
000250 81 7b 29 be 40 e5 40 be 25 08 59 3d 95 40 23 3e
       -0.16551019 -0.18837452 0.052986283 0.15942605
000260 3c 7d db bd ee 10 9b bb 67 83 00 3e d7 27 03 bd
       -0.10717246 -0.004732243 0.12550126 -0.032020416
000270 27 ac ee bd 0d 28 95 bd b0 e6 d5 3c 3c 64 5c 3d
       -0.11653929 -0.0728303 0.026110977 0.05380653
000280 67 fe 3c be 4d 74 d9 bd 3b d6 26 be 83 f5 39 bc
       -0.18456422 -0.10617886 -0.1629266 -0.011350038
000290 6f 53 30 bd c1 28 96 3b 42 57 b8 3d 28 9b 8e bd
       -0.04304832 0.004582495 0.09001018 -0.069631875
0002a0 96 be 32 3e af 7f 9a 3d ed bd 50 be 99 d1 45 be
       0.17455515 0.07543885 -0.20384951 -0.19318236
0002b0 d4 94 91 3d 36 b4 3f 3d c0 72 fd bd 99 d5 c2 3c
       0.07108465 0.046802722 -0.123754025 0.023783492
0002c0 41 08 1d be 97 d2 e2 3d 6c d9 cf bd 2e 9c eb 3d
       -0.1533518 0.11075323 -0.10148892 0.11504398
0002d0 7b 58 25 be 74 36 ce bc 54 38 11 3e 56 db 0a be
       -0.16147034 -0.02517245 0.14181644 -0.13560233
0002e0 03 62 6a bb 51 36 3f 3e a0 4e 28 3e ac 48 24 be
       -0.0035763986 0.18673064 0.16436243 -0.16043347
0002f0 ce 8e 1c 3e 17 e0 e0 3d 29 d5 ad 3b 89 36 f2 bd
       0.1528885 0.10980242 0.0053049517 -0.11826808
000300 43 cb d9 3d a0 c5 3b 3e 64 bf 08 be 4b 8a f2 bd
       0.10634472 0.18337107 -0.1335426 -0.118427835
000310 95 8b e0 bd 6d 21 40 3e 17 8a 03 be 4c 90 1b 3d
       -0.10964123 0.18762751 -0.12845646 0.03797941
000320 3e 3f 24 be 3c a2 1d 3c f7 d8 d4 3d 17 a0 1f be
       -0.1603975 0.009621199 0.10392945 -0.15588413
000330 d6 c3 c9 bd 3e 7e c8 bd 43 dc 52 3e 62 17 22 3e
       -0.09851806 -0.09789704 0.20591836 0.15829232
000340 34 5e a8 3d ba 16 a8 3b c4 f7 3c 3e ba cf 30 bc
       0.08221093 0.0051296623 0.1845389 -0.010791713
000350 5e 1f 25 3e 3e 71 09 3d a2 c4 b8 3c 77 74 28 be
       0.16125247 0.03355526 0.0225547 -0.16450678
000360 d0 03 15 3e bf 7b f3 bd 30 71 c4 bd a6 e9 71 3d
       0.14552236 -0.11888837 -0.09591901 0.059060715
000370 a2 9a 19 3e e2 c1 e3 bd a9 e9 2d 3e 86 4d 1e be
       0.15000394 -0.111209646 0.16983666 -0.1545926
000380 2d 8c 41 3d 31 dd e2 bd c9 23 29 be ef 91 c4 3d
       0.047252823 -0.11077345 -0.16517557 0.09598147
000390 8a b8 13 be 03 d4 2f be d1 bd 26 3c 50 d4 40 be
       -0.14425865 -0.1717072 0.010177092 -0.18830991
0003a0 b2 9f 9a 3d af 1c f3 bd b8 0a fe b9 f8 de 39 3d
       0.07549991 -0.11870705 -0.0004845464 0.045378655
0003b0 a9 ce 42 3e e4 94 cc bd 74 a7 f2 3c e5 e2 c3 3d
       0.19024147 -0.09989336 0.029620863 0.09564761
0003c0 4c 10 a1 bd 92 1e d4 3d 49 e8 38 be dc d4 2e bd
       -0.078644365 0.10357393 -0.1805736 -0.042683467
0003d0 94 7a 19 be 4e 10 35 be cb 7b f5 3d dc 64 0b be
       -0.14988166 -0.17682001 0.11986502 -0.13612694
0003e0 df 7e 0f bc 2f 7f 29 be 13 f0 c6 bd 85 60 14 3e
       -0.008758276 -0.16552423 -0.09713759 0.14489944
0003f0 56 cb 94 3d e3 35 0f 3e 2e 0d 0f 3e dc 13 11 3c
       0.07265346 0.139854 0.13969871 0.0088548325
