net_param/net_0.55357177.pth (torch, 69339 bytes, 10 tensors)

layers.0.weight f8 [40, 80]
00000000: 8a96 a590 4273 b7bf 80b7 a871 feec b1bf
00000010: 08b2 4996 6db6 c0bf d95d dd51 4972 a3bf
00000020: dc0d 1876 6841 c83f 30f8 84b2 312c c4bf
00000030: ab2c 9eba 22e4 c0bf 9f58 1e2d 5ad1 8bbf
00000040: de8b f220 7223 a8bf a596 da56 2d2d 983f
00000050: 8a5c e90c ab01 bdbf d0ee a65d 3dfd b5bf
00000060: 97d0 4605 cd9b a0bf e8fb b752 6a58 ad3f
00000070: 9475 e219 e418 c03f e449 25fe 93ae a33f
00000080: 679c 2da8 df1d c0bf afff 2c80 b7e3 be3f
00000090: 3ce4 0de5 b0db c53f fb63 777d 2b50 ac3f
000000a0: ed85 5cba 56f8 c13f 1979 f70d 4c5a b03f
000000b0: 46dc fb9a 3309 c73f 04b6 6558 cdbb cdbf
000000c0: d541 7cbb 0115 c53f 7e11 dde4 5e4c ba3f
000000d0: 6e3d 7b5f 75db c3bf 09fd 5a1d 02ce a6bf
000000e0: edfe a784 52e7 b1bf ce9c db6b ca61 b03f
000000f0: 2b2c d1b0 cde8 c1bf 1a2f fdbb 918e c3bf
00000100: ce68 65b9 ad8f a6bf 3bbf 0ba8 f822 bd3f
00000110: 47e9 d6e5 ed46 c3bf 2c3a 3ead 88c6 a0bf
00000120: 4da3 4ba6 3d3a c33f 6077 e9a6 9b83 c6bf
00000130: d8d1 442d ea7e c1bf 841e 2233 8c44 c2bf
00000140: f14d 0814 ae52 c63f ca6c e6f3 cb64 acbf
00000150: e00b fc19 181a a73f e00b 6e29 a338 b3bf
00000160: add2 6774 02ae a33f e8fa e936 f95a b23f
00000170: e4ef fd06 45bc c6bf 4cba cdf0 e8ad cebf
00000180: 4ad0 5962 4347 c6bf 5331 9c01 a5fe c9bf
00000190: 2b84 6ced 3322 bc3f 72a8 1fc6 81a4 953f
000001a0: b202 340d 26d2 c73f 417d 2a1d fe14 c6bf
000001b0: e443 5bf4 a42a b6bf 7c0c 4b79 351b 91bf
000001c0: efe7 aec7 a513 c43f ab07 7449 1c84 b6bf
000001d0: a49a ce35 1dfe a5bf 5ac9 6d1a b1aa bf3f
000001e0: f8de a23c 4871 a5bf 7c69 3679 8cf6 923f
000001f0: f5e3 a34c 67e3 a3bf 4eed cc00 34e0 c2bf
00000200: a305 fb7f d118 a13f 01ca e11a 5de9 abbf
00000210: 9b9d 8ca4 7dad b5bf 5ca7 99b0 36df b2bf
00000220: fed3 721e dc9b b33f 5584 5304 bac2 b23f
00000230: d73b d6a0 02b2 ccbf 7a06 b556 b4ec b23f
00000240: f9fc f070 f6da c0bf 998f 8867 1d23 bcbf
00000250: 64c2 702c e729 ce3f 0034 9dc3 8a46 873f
00000260: 9855 d02d ee66 b53f e0be a670 01f2 cf3f
00000270: 9152 036d 5130 d03f 0ade 7f43 90dc a83f
00000280: 9fbd 9775 33ec bcbf d0e4 bd95 37c7 ba3f
00000290: e4c6 58dd 1f71 a63f 73e5 5f0d f9f1 ab3f
000002a0: 3125 903b cfb2 74bf 9e6c e2a3 6335 b43f
000002b0: c8ab 0796 3f54 b9bf 5ad2 9c35 9e6b c0bf
000002c0: 3b0d 17a8 492d b23f cb94 e014 6388 9a3f
000002d0: 6f61 666c 58a8 c23f 2fc8 4f61 dd5d 903f
000002e0: 7788 ed11 07bc ccbf b329 49c2 233c ba3f
000002f0: 444f 249b ad1e bfbf f4c8 e3a7 03a6 b13f
00000300: 7733 1b55 1827 bdbf dd55 baef b73c 9cbf
00000310: e3a2 7584 ebba 263f 5855 8de5 7238 c53f
00000320: e949 d1f7 8934 b93f d351 007e 522c c43f
00000330: 9f25 26ce 6061 85bf 2af6 c96f f947 9bbf
00000340: 1de2 9978 d8e8 a1bf a234 6600 db10 c53f
00000350: f3de 7acd 7c2f c33f c0d6 5eda 94b8 ad3f
00000360: 7d07 617d 8933 99bf b167 27df f6be c7bf
00000370: c94f b2ad 1e6a ba3f 0abb bea7 9ced c0bf
00000380: 2ab5 5169 a8b3 b7bf 3f31 9097 5c9b b2bf
00000390: 4e8b 99f8 b0e0 ab3f ae05 dcc2 2a7d b3bf
000003a0: 8303 1fc1 9845 cdbf 133e 4311 ba2b c6bf
000003b0: 5847 69fc 4a67 c2bf 4ad2 d9d3 3161 b83f
000003c0: 2745 a6da 3d34 af3f 71f9 c04f d898 c63f
000003d0: cc35 26f5 e50a b1bf f21b f980 3dcc bc3f
000003e0: 2c68 1483 31c7 aa3f 9533 042c f510 a9bf
000003f0: 022b 83fb 3d56 c2bf 9dac 7900 0da8 943f
00000400: 08e8 5138 af3d c7bf bbff 1f87 2b3a 85bf
00000410: c00b 5bb8 87cc ab3f cd84 c4f0 a994 ce3f
00000420: 96ed 9998 ba26 cb3f f304 6608 f942 873f
00000430: 3bb4 0aaf 2341 c5bf 6e40 58e4 a908 b93f
00000440: fc96 306e 4c54 c63f e7d6 df84 49ca ba3f
00000450: 19db d25a 9714 a9bf dfaa 74db 8956 b13f
00000460: ad5f 1913 69af 473f f68a a33e 0516 853f
00000470: 6d5a 1722 9174 9bbf 0a05 6f4b bdfd b93f
00000480: 5af0 20c4 45ba b23f d4f0 60cf ba12 c7bf
00000490: 4613 af0d 3d10 b0bf e676 11db 03ea 9b3f
000004a0: 5752 6cca 3230 ba3f 9f42 c213 6f08 bebf
000004b0: bd6b 88b4 f554 c2bf 9d14 a8a5 1dc1 cc3f
000004c0: 5f6d 3d68 5689 9a3f 63e8 06d9 7d30 b3bf
000004d0: 4d9f 9330 7677 a63f f77f af8b 4021 b6bf
000004e0: a515 2acf d5da b33f fc58 5d4b a5bd c6bf
000004f0: fa4b 3289 d2d5 c6bf 6ba9 756c 7357 ba3f
00000500: f73f 8b81 7b6b b3bf 19ce e880 16b9 9cbf
00000510: 3c66 fa1f 0667 babf b5fd a164 c570 c03f
00000520: 4df7 3e87 3452 ce3f 1bde fa8c a31f ca3f
00000530: 8ec7 5ae5 ed38 c93f 7c52 e6f2 5c7a c93f
00000540: 4b2b d622 ee02 af3f 28de 5eb6 dd1c 983f
00000550: 23b0 8084 e669 b13f a2e7 61de 76fe bebf
00000560: ef58 a8ff d194 93bf 58d7 794d 478f cbbf
00000570: 21ea cbae d15e 9dbf be04 e9bf c5db be3f
00000580: 3e4c ea83 85a8 c83f 3cfe 3027 ddac c63f
00000590: 1dec f4fb bb06 c03f 706b 467f ab70 913f
000005a0: 61a6 ff72 9323 c0bf be7a 03e4 4a41 79bf
000005b0: 7c52 5c16 ab51 9ebf c24f a8ca 5715 c13f
000005c0: 5adc 9707 88b4 c4bf 1485 514c 2596 c33f
000005d0: 906d 1d62 8f1f c5bf 8f75 3bb6 687e c43f
000005e0: ad17 f209 52b0 bdbf 80ca b7f1 57f3 c6bf
000005f0: 0a4c 59fb ea75 7abf a848 b056 1350 c43f
00000600: 3766 f1f7 8786 8e3f 55c3 321b c3d4 a53f
00000610: 9ac7 19e3 6f38 a53f a53b 55c1 8714 c23f
00000620: 0a87 b35f 3367 b4bf f1a9 fd3a 1019 b63f
00000630: 8890 e8a3 967f b0bf c820 76ea 11d9 d03f
00000640: 81c4 1cdb 673b c3bf c027 711b f943 c13f
00000650: 5508 4497 9b9a c93f 07d1 43c8 db84 c3bf
00000660: 4e77 ae36 bbf7 c93f 6138 de1d 4aed c3bf
00000670: 1249 5ae7 9541 b93f 4a67 00d0 49fd 8c3f
00000680: 0e5e 7e26 8b52 c03f 7d1e e6a8 f496 c53f
00000690: 9eeb 01ae a650 ae3f 2b45 325a 66a6 c4bf
000006a0: 888f fad2 31c6 c63f 6e1e 775f 2b00 a23f
000006b0: 4fb8 c824 f0f3 bd3f aa2d c2be 6be7 b03f
000006c0: 2e3e daeb 80d0 98bf 80d1 2ba2 8a70 c7bf
000006d0: 971d d95a b1dd ae3f af10 4395 32bc c63f
000006e0: 73e3 6bf6 d44f ad3f 86d8 8b7b aca7 a43f
000006f0: 2f17 be9c 138f bc3f 6f3b 408b 0991 ba3f
00000700: 2f98 770b 4043 b73f 1f40 b877 bd5c c53f
00000710: 27df 43d7 568e c63f cd23 68c7 2b3a bfbf
00000720: 9fe7 3ed6 1b31 c93f 4b43 8b9f b9af c23f
00000730: 9bae 1e52 69f5 cb3f ea29 4c14 656e c03f
00000740: d475 976b 1861 a5bf 186a 4f74 7145 b93f
00000750: a2a4 2507 3959 c83f f63b 008f 4b4b a53f
00000760: 9025 4514 ae87 cbbf 63a2 b338 b6ad c3bf
00000770: 2047 3507 a9bc c0bf 05f2 d55c 856d c1bf
00000780: c6a7 53f7 8674 cb3f 6c75 2575 54cf afbf
00000790: b49c 81c2 9c8f cc3f cb6d 76f7 6bda bc3f
000007a0: 69fb 86b0 061d b43f 3dbd 2529 5bb4 96bf
000007b0: 039d 2214 b5ea bd3f 21f4 7c74 b27f b7bf
000007c0: c5e4 8231 07c7 c53f 805b 4c34 7b06 873f
000007d0: 88b0 b4f0 30b2 ab3f 1e79 7320 066b bf3f
000007e0: 0015 16bd 82e6 c53f 4ddc e257 fe3e d0bf
000007f0: 300c fd25 33f9 c03f e07b ef67 828e adbf
-0.09160247832695681 -0.07002249026183271 -0.13056726301455535 -0.03798131107640374 0.1894960953360244 -0.1575986978222672 -0.13196214782906188 -0.013582901479633867
-0.04714543010893356 0.023609836984766947 -0.11330670418952785 -0.08589538132121821 -0.03243866624271268 0.057315180394645726 0.1257596136464768 0.03844130017627714
-0.12591167175125692 0.12066218261042992 0.1707669371060393 0.055299147668570435 0.14039119815519943 0.06387782422050171 0.1799683100468618 -0.23229376617693742
0.16470357565459773 0.10272782409180611 -0.15513484155824692 -0.04454046829550335 -0.06993594874074534 0.06399216778992242 -0.1399170983662271 -0.15278836897993459
-0.04406493080269201 0.11381486990626126 -0.1506020900977296 -0.03276469340118057 0.15021486873527082 -0.1758913578987018 -0.13668563089744512 -0.14271690842382523
0.1743981931509633 -0.055456517718278045 0.04512095753855028 -0.07508296739074138 0.03843696280447282 0.0717006453578325 -0.17762053338435557 -0.23968230970372628
-0.1740497808674511 -0.20308363512629998 0.10989689394456607 0.02113535663367156 0.18610072750745627 -0.17251564430351077 -0.08658820119605043 -0.016705356147906233
0.1568495965018992 -0.08795334618846933 -0.04295436174225145 0.12369830031619725 -0.04187989940822762 0.018518633745409727 -0.03884432611989289 -0.14746713675581663
0.0333924740530265 -0.05451479867123866 -0.08467850940052417 -0.07371846972969592 0.07659698241589294 0.073283792549334 -0.224182442220324 0.07392432324288647
-0.1316822101088986 -0.10991081025764372 0.2356537787432159 0.011365017027538116 0.0836018430566895 0.24957292557291222 0.25294910093115514 0.048557766189272725
-0.11297914143482622 0.10460231214337345 0.04383182122218246 0.05458048141731355 -0.005053338530168803 0.07893965483747187 -0.09894177830544415 -0.12828424089242924
0.07100353578339462 0.025910900258300267 0.14576249402012872 0.015983065666610393 -0.22448814750083887 0.10248015874200327 -0.12156186139719433 0.06893942688819604
-0.11387779310025602 -0.027575372702434698 0.00017341732948785498 0.1657851811275275 0.09845793056710019 0.15760260727314676 -0.010439640322845998 -0.02664174790196775
-0.034979595872702364 0.16457688827032252 0.14988670380784405 0.05804886975913126 -0.024610660817649944 -0.18551526924312392 0.10318176022184312 -0.13225134077716688
-0.09258511134404004 -0.07268313122057622 0.05444863352456385 -0.07612864739714695 -0.2286864226316788 -0.17320943682578668 -0.14377724957244697 0.09523307249202975
0.06094544691144171 0.17653945821980302 -0.06657254443253818 0.11249145888096715 0.0523009750852029 -0.04895750200566976 -0.1432569006049889 0.020172312883386046
-0.1815699601173153 -0.010364856778323763 0.054294816259719436 0.23891186004860857 0.21211941195711564 0.011358209198763158 -0.16605039641345506 0.09778844666311823
0.17444758777963176 0.10464915746691937 -0.048985223614570646 0.06772672279172863 0.0007228148517226439 0.010295906995855014 -0.026811855035555988 0.10152800647394514
0.07315479315087839 -0.1802590859023271 -0.06274777969435971 0.027259884115088527 0.10229794923754675 -0.11731619102853096 -0.14321776690561974 0.22464342678737106
0.025914526092816966 -0.07495867298612917 0.04388017027832678 -0.08644488725940379 0.07755791003918107 -0.1776625268927957 -0.17840034197851634 0.10289689443530896
-0.07585880196279492 -0.02804980432320123 -0.10313452034679299 0.12844149984083023 0.23688370326811495 0.2040905416849775 0.1970498437781853 0.19904672489487385
0.06056923079730455 0.023547615295426066 0.06802216277054689 -0.1210703175474053 -0.019122391919233313 -0.21531001360898006 -0.028682018560156067 0.1205409616022903
0.19264286938832414 0.17715038694039886 0.1252055149323902 0.017031364100698665 -0.1260856925503502 -0.006165783445082949 -0.029608414878639952 0.1334638347185529
-0.161759380061741 0.15301958300100493 -0.1650256375386161 0.16010769746837325 -0.1159716867715292 -0.17930125525125007 -0.006460111520556042 0.15869371159403056
0.014905035261267503 0.04263887125978864 0.041446205589536336 0.1412515348442557 -0.0796997173925115 0.08631993713576215 -0.06444684507056497 0.26324890038132454
-0.1502504176983486 0.13488687362615615 0.20003075490973524 -0.1524920204025266 0.20287265939708238 -0.15567900141144533 0.09865700624712684 0.014154984150127742
0.12751902942248744 0.16866930243508085 0.05920906900515564 -0.16132811931724098 0.17792341996857552 0.03515754261348723 0.1170034494213905 0.06603120238485496
-0.024232878108305815 -0.18312199514879168 0.060285131778580574 0.17761833465750018 0.05724969394754611 0.04034174926884852 0.111558175818655 0.10377559327774376
0.09086990623436074 0.16689270349206795 0.17621884833328602 -0.12198136919336307 0.19681117974488146 0.14598770418390425 0.21842686185606372 0.1283689831837614
-0.041756404050584145 0.09871586885075379 0.1902228627107308 0.04159008141152036 -0.21507812490225975 -0.15373876351010826 -0.1307574544139749 -0.13615481408113808
0.214493628277806 -0.062128676700676205 0.22313270089509774 0.11270785132949539 0.07856790361163991 -0.02217237890857614 0.11686259976942286 -0.09179225295970685
0.17013635556739906 0.011242830785290314 0.054093865759882453 0.12272680561315893 0.17109712822654188 -0.25384481985696966 0.13260497431665064 -0.05772788542503071

layers.0.bias f8 [40]
00000000: d688 06e6 94a3 adbf 97bf 585b b67d a73f
00000010: f522 3bf6 3232 a9bf 84a7 9c78 e426 b4bf
00000020: b6e4 3598 03b8 b03f 164e 1026 07bf bf3f
00000030: bd89 403a 08c0 b1bf 8a5e 9424 c26a b43f
00000040: ed68 6f98 1bff b7bf 609e b2ec 60d2 b93f
00000050: 240f e8e3 4c0e bcbf ab7e d3cc 0ebc 9c3f
00000060: ec77 9f11 499f a3bf ffef b6fb f479 b4bf
00000070: 64d4 a87e 87d3 babf e081 6717 4f05 b63f
00000080: 497f f3b6 8965 b6bf a0ae f9cf ced7 a43f
00000090: 6a5a 97e4 a66c 933f e19e e9c1 7047 8e3f
000000a0: 7627 7b9f 14a0 a5bf fbd8 30e3 8812 85bf
000000b0: 7d18 1db3 34ee 8ebf 9105 bd4c f611 a0bf
000000c0: b58e 51d5 92e1 aabf 95fa 9844 c7d0 b73f
000000d0: 4915 2372 6697 413f 9b72 604d a2d4 b1bf
000000e0: f691 2a8f d53c 88bf e97d 00bd 9858 c1bf
000000f0: f895 7d03 fa33 813f 6c29 a61a e4ad b33f
00000100: 7589 8e66 a8c9 a13f 9987 3e4c 805d b5bf
00000110: bfa8 6c08 b1fc b03f c084 0860 0c70 bebf
00000120: 1443 591a 103c a63f d1cd 6132 0f59 ab3f
00000130: ed3d 5198 fd60 aabf 8d64 c8ea 1819 a23f
-0.0578886538308027 0.045880983973233196 -0.049211113507743244 -0.07871845192553734 0.06530783144070793 0.12400860480584472 -0.06933642790003254 0.07975400345855568
-0.09373638602793095 0.10086637285950806 -0.1095932060634906 0.02806113362464539 -0.038324626351581376 -0.07998591561675993 -0.10479018060944295 0.08601850816149392
-0.0874868461282833 0.04070898331414452 0.018969161703206096 0.01478469936155541 -0.042236942737487945 -0.010289258416474647 -0.01510277911769386 -0.03138704001186022
-0.05250223974215144 0.09302945542092751 0.0005368471359125461 -0.06965078724938183 -0.011834782058323317 -0.13551625469788967 0.008399918777011614 0.0768721165715413
0.034741652030123506 -0.08345796452934308 0.06635576682734533 -0.11889722199022668 0.04342699357642324 0.05341384401335925 -0.05152122959463754 0.035347727451331946

layers.1.weight f8 [40, 40]
00000000: 9840 675a 1100 ce3f 82ab 9a84 d25a cb3f
00000010: 5c10 d7ab ebbe c0bf c9f2 734c bb1b c6bf
00000020: f35d 7cc2 4399 b4bf 81fb 2663 e81b a0bf
00000030: c94c 2df8 d670 b1bf 4900 7d99 1961 c93f
00000040: db7b be53 bb41 c3bf 5f24 e026 71c3 d03f
00000050: 6821 b198 9fe1 c13f 32a0 4495 e051 c0bf
00000060: 8ee4 d25e e046 bb3f 3b96 2357 9f5e c1bf
00000070: 9f04 b191 6bcd c63f 37c4 b472 21a5 bdbf
00000080: eb0f 4cbd 15cf 903f e96f 747d 262c c83f
00000090: 8c10 2e36 0783 ab3f 9339 a2bf 182b b6bf
000000a0: 2b55 894d dde4 bebf fd74 44ff f1ca b1bf
000000b0: 1c84 6c4b ed9d b13f c42f 0aa1 5739 9b3f
000000c0: 2ee6 9429 42a6 c43f 601d 4388 d6f3 76bf
000000d0: 5108 e89c d9b2 a2bf 4cf0 715a 8a7b bfbf
000000e0: 70d7 4e7d 2242 b1bf c58f 5de3 bbb0 c43f
000000f0: d433 51d8 690b a5bf 7cf1 9a1b dc06 823f
00000100: 0450 f80f 4ade b7bf 7755 6c89 b610 ccbf
00000110: 1ca0 61e2 b545 c43f 9511 80be 0cb7 c53f
00000120: 7148 9966 dbdd 6e3f 7310 689e 6bc8 c73f
00000130: 5588 0e12 0d93 cabf cfab 8809 4665 cd3f
00000140: 52fe f528 89e3 ad3f baef fc02 595b a83f
00000150: 7972 495c 584c aabf 22dd 8173 2e59 c43f
00000160: ca82 8c32 9366 c33f 053b 99af 42d7 b1bf
00000170: dcef f5a5 1cb1 c9bf 6bac 754e 050d cabf
00000180: 3319 1c88 1a6a c93f c55e 9b05 3a06 d1bf
00000190: d2b7 41f5 8d21 ca3f 6a9c 74b7 39b0 c03f
000001a0: 3d12 d408 dd34 cbbf 293d e851 2f88 cebf
000001b0: d004 5087 f53b 9dbf 3702 6189 ba70 b6bf
000001c0: bea0 67b6 250f c0bf 3db4 7a37 8f0a aebf
000001d0: 2f95 cad3 0953 aa3f bcf9 f8e6 526e cb3f
000001e0: 4086 d340 f2c1 9b3f 8447 c2ea a3d6 813f
000001f0: 1b59 5260 0d0d c5bf 4d9b 7bc6 7ced adbf
00000200: 0e11 af08 4a0c c8bf 0d1f 3d02 6577 d0bf
00000210: b357 27f7 5a2f c33f 9058 a3bc 8b37 cbbf
00000220: 226d 9ac9 4a18 c6bf 5ddb 1106 8458 9d3f
00000230: 6b64 6211 bc94 babf 66fe 1beb 70c7 b4bf
00000240: 3fa1 881b 5520 a0bf 6506 d6c6 27fb c63f
00000250: 506c 51ba 799e a6bf 52f5 54bd 325e c43f
00000260: 1bba 61d9 3f5c b0bf d375 768b 4fa0 c9bf
00000270: 154e 4874 3d67 d03f 6400 49ef c262 ba3f
00000280: c4dc 35cf bd26 c2bf 95e9 42c4 7d3c a3bf
00000290: 274c 86a7 3677 c9bf e014 7d66 2b50 bcbf
000002a0: 6d50 8d48 b062 c5bf c102 2621 5390 c73f
000002b0: 480a c1de 0351 c53f cc37 2d2d 1eb9 cb3f
000002c0: 0ee7 01ad 398a 6f3f 23a9 18ef 7239 b5bf
000002d0: 2920 4bd1 9209 af3f f83a 8de2 5b5b 99bf
000002e0: 79fb 348e d213 c3bf e154 b332 8ca1 88bf
000002f0: 254d a3d9 a652 c63f 8876 d34a 9085 a13f
00000300: 03ab 125d 7504 b3bf db3e 5ec0 6390 bebf
00000310: e8f9 e4a3 8b7d b9bf bce1 06d8 0293 a8bf
00000320: 2c6a 50d7 8987 c03f 49f1 bfe0 998c c8bf
00000330: 9149 ed58 3aef c4bf a88c e40c 2119 ba3f
00000340: aa51 114c 08e1 bb3f 9e88 124e 076c c63f
00000350: f666 9c44 a904 b23f bec4 ed08 b434 bbbf
00000360: 3704 6ce5 a783 c3bf ce9e 7155 d5a8 4b3f
00000370: 1195 2c98 fa7e a23f a015 51d2 26f5 c03f
00000380: 2936 4643 3115 cd3f d6da 5756 2c6c c1bf
00000390: 1c89 bacb 4c92 b83f 499b 2c8e 55e8 c7bf
000003a0: 9a66 219a 97db a9bf f1ab be6f 1b0c 633f
000003b0: 229b d8c8 b993 c13f 2b1b aa0e 9cfe c2bf
000003c0: 35be 1108 57a6 a13f 44b8 c533 6a0f c33f
000003d0: 9438 f87f 0015 cebf 7118 822e b70b abbf
000003e0: 6c43 c651 ed52 c73f c9ff c8ea 5e18 ca3f
000003f0: 9a83 06b0 47a7 c9bf f856 272e 421f b2bf
00000400: 327f 4347 bf10 d4bf d932 d875 e839 cdbf
00000410: 07f6 16da 0c6a cabf e55c 7354 b400 c83f
00000420: 4ecf 8948 b0ae a93f 8f31 3c38 63d0 c13f
00000430: a425 897f 237d d0bf 7e0d 11e4 411c c13f
00000440: 2745 4fdc 22b2 cdbf 1ffb 5896 cf3d afbf
00000450: ab9a b2cb bb3d b4bf 12ab b7e4 f7e1 c8bf
00000460: 4dfb 3eae 3cdb b53f 29a4 fe31 4a6f bc3f
00000470: 2ec8 868a 8d04 973f a7d5 aaa9 f085 b13f
00000480: 121f 645b 704a b43f e193 5b98 cef2 d0bf
00000490: 882e 0c84 5bb1 b6bf e6ec 22e3 8bc0 c5bf
000004a0: c760 35c3 6127 b3bf b617 59d5 8b92 bb3f
000004b0: fbfc 26c7 d8f3 7ebf b671 323f 60b2 7d3f
000004c0: 1872 525b 8dd0 bcbf 22aa 97c0 8061 cbbf
000004d0: 9c95 a9bf 8a0f c8bf 0459 7a13 f749 953f
000004e0: 4ce0 6884 baa5 7a3f 7a30 c17c a9b1 b0bf
000004f0: af68 5c59 0754 c0bf 5f18 e43f caee 9dbf
00000500: dc83 4938 9639 8dbf 51d0 6d91 cfe9 c7bf
00000510: b93a bc8d da3f 2bbf 5cb9 87a6 30a3 a93f
00000520: bc99 e045 7f2b 93bf af76 c1ca 5ebb c3bf
00000530: 671b e2e8 feaf b73f ad4e ab65 ebf1 c5bf
00000540: d07e 0abc 2b7e c43f fc5e 8ee1 c72d c8bf
00000550: 9852 505e eeae c03f 1540 b25f aa47 ca3f
00000560: 92f2 6b40 e8d2 aa3f da5a 0d64 25ab cb3f
00000570: 1a62 0904 7373 b53f b959 bdd7 3a1a 9f3f
00000580: 7d6f 4440 ce3f b1bf 8e66 50b7 105d cb3f
00000590: f7cc 160f 41a1 cf3f b521 1234 3197 a8bf
000005a0: c536 2d1d 9fe5 c73f 3a55 6387 9a5b 8e3f
000005b0: aecc 79bd abc3 b7bf 454f 6084 8b5d 96bf
000005c0: 3f4c 9b51 291a c0bf 551e 4470 8b1d c33f
000005d0: abfe d25d 149e c1bf afe4 0cd6 e7d6 cdbf
000005e0: 5c2f 595c e2b6 91bf 5348 b1e3 0b91 b73f
000005f0: ced9 beb0 2690 8bbf 370f 387d d189 c0bf
00000600: 5fe9 9efd 1b78 b83f 5002 3b0f fa5f b73f
00000610: f97d f24d d53b c73f ca77 a195 9c32 a0bf
00000620: 4cef 3c22 0d8b bf3f 2140 c692 a353 c5bf
00000630: f9ff 846a bf48 ce3f a85a a536 2a96 c43f
00000640: 12e9 737c ce34 bbbf 6ea9 5f3a 41b7 bbbf
00000650: f20f 7504 f29b c63f 4631 6200 c41a bcbf
00000660: 5fe5 752b 9767 c53f da14 9262 9545 c3bf
00000670: 2198 d3a8 667b c5bf d60c 63e8 d0f6 d03f
00000680: f18f 48c5 7f08 b9bf 4252 4dbd 5205 8c3f
00000690: d806 d3f6 9848 c1bf 3764 165d ad03 b5bf
000006a0: 4e48 63d0 7953 bf3f e931 32ec b00c b7bf
000006b0: b98b f8b8 3642 ce3f 9e3d f339 8bfa cfbf
000006c0: 589d 79cb f5f0 ccbf 2595 060b 3d67 c83f
000006d0: f02a 82dc 9473 cd3f fbfe 7cce 107f a5bf
000006e0: 2b7e 5daa 6070 93bf 47b6 8ad5 7c0a a13f
000006f0: 6bea ba8a 2e4f 9b3f 83ca 1fd0 1c26 c7bf
00000700: 1d73 53fc d5c8 783f 7cda a8c1 14e6 cb3f
00000710: 551e 875e f126 c03f 580c 159d 7241 a6bf
00000720: f654 44e6 b95f ac3f a87c faf5 bbfc a93f
00000730: be60 5340 7e41 a6bf 88d4 9469 5ab4 a2bf
00000740: df5e 2e39 c0b7 c53f d720 86b0 8526 9b3f
00000750: b407 7ba1 b754 ccbf d0cb 5b0d 3ae4 a1bf
00000760: 0b51 c00b bc9f cb3f 1589 9739 c2e1 a6bf
00000770: e9a3 2add fb05 adbf 6ed0 1d4b fed2 c63f
00000780: 7f80 53da 0c27 c1bf b8c8 c458 674b c6bf
00000790: 2f56 7e61 d6a2 b1bf 00f4 294d bdd4 c0bf
000007a0: 9dd7 47c1 df07 aabf 90e3 fcd5 10b6 7fbf
000007b0: 8e30 e423 464a bebf 7191 ef48 943d b33f
000007c0: 316a ebb0 db04 cc3f 3a32 2258 7c7b ccbf
000007d0: 623f 0129 b515 c83f a302 601f a724 b5bf
000007e0: 14c8 a891 2688 8dbf b41f 5140 d62e cb3f
000007f0: f8f6 9e56 2fa7 9e3f 7877 0d3b f8cd b63f
0.2343770686552531 0.2137091777306886 -0.13082643404607353 -0.1727213023476877 -0.08046363352001844 -0.031462919333981716 -0.06812804755218162 0.19827575678391643
-0.15044347371164588 0.26192883297387043 0.13969798045787774 -0.12749869621734572 0.10655023875269107 -0.13570014719805265 0.17814392675248755 -0.1158009438556896
0.016414966276911896 0.18884736180996178 0.053734040607225614 -0.08659510305935773 -0.12067969458560827 -0.06950294954409127 0.06881602374461732 0.026585931018914058
0.1613238051448191 -0.005603635803886092 -0.03652076759682699 -0.12297882755405104 -0.0674153858115838 0.16164349176244577 -0.04110270276633057 0.008802146522946634
-0.09323561563388699 -0.21926004133335272 0.15837739518906424 0.16964873601694977 0.003767899052754813 0.1858038447827571 -0.20761264211347688 0.22965312448044847
0.0583765852452386 0.04757192765688907 -0.051363717332354626 0.15897160186771325 0.15156784027296616 -0.06969086443971768 -0.20071752646970153 -0.20352236109770003
0.19855052610382415 -0.26600504443693423 0.20414900279450748 0.13037797410763413 -0.21255076342653637 -0.23853103160261327 -0.02854903829939276 -0.08765760282495526
-0.12546225935444072 -0.058674312136055985 0.05141478262275211 0.2143043163104731 0.027107033926659918 0.008710175134442506 -0.164460823089663 -0.05845251009832584
-0.18787503646866138 -0.2572872659552424 0.14988267009783626 -0.21263262472956912 -0.1726163372412453 0.02865797316595874 -0.10383201050207595 -0.08116822948431376
-0.031496677027748714 0.17953965386191154 -0.04417782210722321 0.15912470097274906 -0.06390761429950269 -0.2002047949762714 0.25630127292353794 0.10306948034212976
-0.14180729501433664 -0.03757088681000479 -0.1989506071082314 -0.110598289987212 -0.1670742372758726 0.18409194105699636 0.16653488518393744 0.21658684926882044
0.0038500906449002786 -0.0829078515750195 0.060619915054815295 -0.024762569143883945 -0.14904243415545773 -0.012026877686745542 0.1743973314938582 0.03422213471797614
-0.07428678056991704 -0.11939071127403215 -0.09957192183808383 -0.04799660574957751 0.12913630498299378 -0.19179080461607104 -0.16355065672048544 0.10194593968167232
0.10890247208710116 0.1751717692578198 0.07038362431594777 -0.10627293794620393 -0.15245531751864558 0.0008441011112951481 0.03612502200693702 0.13248143452999006
0.22720924172283333 -0.13611368385291794 0.09598236059040172 -0.18677777711965352 -0.05050348049617277 0.002325109087867976 0.13732073122920335 -0.14839506832159918
0.034472198233626385 0.14890792396494323 -0.23501592873111987 -0.052823757579106075 0.18221823208707677 0.20386873687857435 -0.2004174813746687 -0.07078946711348155
-0.31352216681806333 -0.2283297133839344 -0.20636139534865114 0.1875214969975111 0.05016089330174954 0.13917198415618912 -0.25763785795842353 0.133674846993113
-0.23199878461176945 -0.061018454649902625 -0.07906697962844571 -0.19439600627750814 0.08537654165318749 0.11107314796994729 0.022478305416093906 0.06845001356381052
0.07926084738948827 -0.2648197639339838 -0.08864376043146127 -0.16993855085988868 -0.07481966987450327 0.10770486792270514 -0.00755676916963854 0.007250190700827044
-0.11255725364248581 -0.21391305355003093 -0.18797430380361113 0.020789967120969713 0.006505707343016875 -0.06521090789573405 -0.12756435263947227 -0.02923122420272539
-0.014269994347332053 -0.1868228397466987 -0.0002078966416480721 0.05007316620673194 -0.018720615997290344 -0.15415558719808106 0.09252923188806293 -0.17144529785456566
0.16010042840661365 -0.18889711869700665 0.1303384743229301 0.20531205818815637 0.0523903444900259 0.2161604631935095 0.08379286621619322 0.030373496453955904
-0.06737984723116415 0.21377762747652124 0.24710858570833924 -0.04802850494985781 0.1866949932540846 0.01482315755530782 -0.09282945037721177 -0.02184122081241859
-0.12579838261317097 0.14933913213484354 -0.13763670521983803 -0.23312089873960448 -0.017299210440156684 0.09205698307894865 -0.013458540219159067 -0.12920588125427354
0.09558272306359104 0.0913082396682594 0.18151346498505896 -0.031636136308165044 0.1232155045117313 -0.1666149584457353 0.23659508420132605 0.16083266895539805
-0.10627451456449347 -0.10826499629152916 0.1766340753330265 -0.10978341111530651 0.16722383138748406 -0.15056102097529483 -0.16782840007289315 0.26506445592913275
-0.09778593603601828 0.013682028200187383 -0.1350280003735438 -0.08208735964434842 0.12236749017327606 -0.09003740087991442 0.23639568359166477 -0.24983349160764318
-0.22610351977639698 0.19065058744778543 0.23008976714148544 -0.04198505898102486 -0.018983374021784776 0.03328313929283105 0.026669242112556207 -0.18085060274423279
0.006050907021941024 0.2179590173343121 0.12618844142547184 -0.043468076396060595 0.055417832716708235 0.05075633409182362 -0.043468423225648575 -0.036532235515928824
0.16967013160750974 0.026514138125578093 -0.22133536705774548 -0.03494435704296672 0.21581221174040652 -0.044691152124658164 -0.05668627810275224 0.17831400554462412
-0.13400421772439938 -0.17417613825234013 -0.06889095192158189 -0.1314922930504565 -0.05084132418043839 -0.007741990819163727 -0.1183208310723691 0.07515837460193155
0.21889825953151523 -0.2225184851016751 0.18816246511641582 -0.0825905276869983 -0.01441984302536884 0.21236684933159966 0.029934634839938717 0.08908034745897264

layers.1.bias f8 [40]
00000000: f68a d590 da9d c73f 453e b433 4c25 aebf
00000010: cc2a aba3 cdaf bebf 9444 f330 c668 c03f
00000020: d0ff 23c1 6ca6 ac3f d234 cb56 3284 be3f
00000030: 6c3a 3256 c875 c3bf 2ffb ce79 91d4 51bf
00000040: 2664 dfcd 0ffe c83f f8fc 8616 c9fc c3bf
00000050: 7cb2 3098 b1e4 b83f 161e 7991 e6be 603f
00000060: 2c49 8d54 d5a9 c0bf 143d 9f18 d0d5 c2bf
00000070: 668d 0339 00e6 a6bf ffcf 9e9b 643c a83f
00000080: 2753 6e9b 5ec5 bf3f f927 4057 94b0 abbf
00000090: 7b96 2ae3 d539 b3bf d1db d138 777a 853f
000000a0: 6ecf 8c53 8d41 a6bf 0440 e6f8 ab51 bd3f
000000b0: 8bf6 b495 a9d3 b8bf 99ad f237 6e79 9c3f
000000c0: 6c2d 8962 80ef b83f 414e bc8a 6c31 aebf
000000d0: 1d7f ce93 a9eb 93bf 2c07 46cd 9423 c83f
000000e0: 33de 9d90 9c5f bc3f 9bc6 cb2c af52 afbf
000000f0: 2630 fedd dc97 ad3f 7989 f11c 8dfd 99bf
00000100: ce27 63a2 5b8e c23f 2cb2 d0b9 c784 bb3f
00000110: 266a 2a1e 2311 b8bf 6203 b1c3 92a9 b3bf
00000120: 8597 2a7e 5bd3 b7bf b6b5 f2be d5e1 9d3f
00000130: 132d c7c1 dfe9 b93f dd21 72fc df4b 84bf
0.18450481483440456 -0.058878308593304264 -0.11987004514518701 0.12819745435857455 0.055957220627533055 0.1192046605967392 -0.15203193863677045 -0.0010882778799296657
0.1952533488500034 -0.15615190124479006 0.09723958936292293 0.002044153526899138 -0.13018290165434487 -0.14715005113837576 -0.04472351737947626 0.04733576202070821
0.12410537047101099 -0.054081569338521214 -0.07510124965718916 0.010487491055966832 -0.043468872498492725 0.11452746225972993 -0.09697971253350539 0.027806970753471914
0.09740450292263397 -0.05897082513379504 -0.019453668257141666 0.18858585379717263 0.11083391695671523 -0.061177705972921013 0.05779924592852152 -0.02538128365666512
0.14496941975659045 0.10749481474403727 -0.09401149260012484 -0.0768062331926678 -0.09306880789026024 0.02918180444674131 0.10122488480481122 -0.009910344974074664

layers.2.weight f8 [40, 40]
00000000: b019 d169 c2df c13f 3dc0 bb18 dcbd bebf
00000010: 0485 17d0 d4b8 923f 7eac 3222 c901 953f
00000020: 0e2d 4b8c 5805 6c3f 0539 d933 fdad b6bf
00000030: 4e10 f5d2 9b75 ce3f 5080 1103 0674 74bf
00000040: d7f1 781d c598 cf3f 656c 36f8 6316 c03f
00000050: bd65 af42 b6aa cb3f 7672 a988 c562 c4bf
00000060: d6f5 db4b 9378 c23f 9461 c0c3 ff52 b03f
00000070: 1f17 44dd c0e8 c53f 3fb2 3738 9453 d33f
00000080: 8cc5 355e 09f2 ca3f 980b bd47 3f6a bb3f
00000090: 147a 4525 0181 c7bf 6f0b 01dd ed70 c03f
000000a0: 49b8 40da 6c9e a13f 720d c1ea 63da c3bf
000000b0: 8e1f af22 a1e4 bfbf d6af ab35 e9a1 c73f
000000c0: 81c0 f40d 02d8 a4bf e022 21f0 156d ca3f
000000d0: 2e6b 46c3 96f8 abbf 5505 14c2 185c 40bf
000000e0: c0e9 bc23 7d79 c03f 9c6c d6cd 802b cdbf
000000f0: ce0d 5086 7902 c03f 93f4 f5b1 80dc a03f
00000100: a3a4 2b5e d49a 86bf 4b07 113b 662a b5bf
00000110: 44d4 024e 9a8e cbbf f030 6f0f a92d b53f
00000120: a1df a994 ed3b bfbf 5642 913f f147 a5bf
00000130: 2b26 5cc5 dbe6 bd3f 51b1 7d19 ee74 c1bf
00000140: 6708 d28f a359 c3bf 7aa3 6fde 2425 a3bf
00000150: 1cc8 f20e 39b5 cb3f d1db 3dfe 7e1c c83f
00000160: 2f71 6c3e a34e 853f eed7 6a3d 30db cd3f
00000170: f938 fa05 70de b13f 9a0f df5f c4e3 cbbf
00000180: 8b88 9637 ef0c a9bf 3b48 9b1a 01d1 ba3f
00000190: f1e3 8fd1 2293 99bf 73e3 e2bc 292d c7bf
000001a0: d6af 7d1f d572 cf3f 2aa5 17f9 61fa 87bf
000001b0: efe3 7901 4d0a b53f 2157 e75c 1504 b7bf
000001c0: f8e6 a415 7c80 bfbf ef7c 0641 198c b53f
000001d0: 742f 726f 1ec7 d1bf dcca c44c bc52 8e3f
000001e0: 3f6d a27e c7f0 c5bf 6366 8d45 0150 c23f
000001f0: b45a 49be ea1c cc3f 6c92 21ff 38e8 c4bf
00000200: 122c 8501 60f6 bc3f 9ff7 040f c1b6 b23f
00000210: 1369 1ba9 6701 cebf e884 2768 342f bc3f
00000220: a7de 1cf5 da40 cbbf abac fa82 6a98 c4bf
00000230: 0cd6 89cd 6697 c13f d6e1 65b8 496b b1bf
00000240: 7f6e 61fd 094c b63f 6304 50f3 d83b bdbf
00000250: a9c7 c509 5b92 c2bf 7e3d 844f 2d39 cc3f
00000260: 8c3c 588a 6f36 e13e 9261 d85b 0ba3 a53f
00000270: 79b5 78f1 1e83 a73f 7b16 eafb 940f 7b3f
00000280: 95f5 c530 8ca5 c33f 3f03 af97 5b08 b0bf
00000290: 8f77 db86 8787 c1bf 4026 7366 026f 933f
000002a0: fdfa 3ce0 628c b9bf c166 a394 728f 9d3f
000002b0: 895c f623 1574 bbbf 9672 e2ac 55c9 d03f
000002c0: 7225 8302 8830 bd3f f2e0 d898 042e 81bf
000002d0: 66e2 9137 1432 cabf 845f a026 b24e cbbf
000002e0: 5776 3d98 ce1c c33f dd80 5ddc 5a5b ca3f
000002f0: d299 0c97 620d bcbf 3974 bfab f2d1 b63f
00000300: 7d70 baef be1f bd3f 93b9 020f c3ef b5bf
00000310: 678b 5dd7 5fb9 c4bf 1b43 7eb7 0bab c23f
00000320: 0240 d098 0079 b83f 757c 159a e0b4 d33f
00000330: 7498 7898 039b c23f 703b dfc1 fdf6 9abf
00000340: fb16 d581 0bae cf3f 7ca8 b5f1 d55d 803f
00000350: 4bdc 57ba f184 c73f 9291 5010 7827 b13f
00000360: 0911 d4d7 586f c6bf c03e 32e7 3edc c23f
00000370: 74f5 05da b97e b53f d481 2c1a 4bb6 ccbf
00000380: b09f d04c 7687 b93f 5418 c70a eaa8 d03f
00000390: 208b de81 5b1d aabf 7058 ce8b 4636 a4bf
000003a0: c8b5 095e 9816 c93f 95c1 9ff9 428e be3f
000003b0: b9dd 1642 66dc c1bf e23f c291 39c3 cebf
000003c0: 29a4 b2be 27ed bbbf 02dd e0ff 384d c0bf
000003d0: 6afc dcd8 7ee1 cabf b21b ef28 9002 cdbf
000003e0: 5d7c 3a17 6d48 ca3f 3785 6805 fc3c cc3f
000003f0: 003e 51c4 2774 c0bf 4704 64c9 7577 c3bf
00000400: 7056 442f da8a b3bf 0162 0b91 1db3 cc3f
00000410: 7240 fa15 6623 c9bf d1bf 0629 188c ce3f
00000420: e2b0 e509 431a b23f 89ff 37f1 3360 b53f
00000430: 5e00 9ccc 01a8 9fbf 1658 a49f 4600 bebf
00000440: bf3a b891 c9ae b3bf 1c3b 255d 13b0 a03f
00000450: ea70 5116 67b8 c73f 6c24 928c d192 b33f
00000460: 0fcd 41ee f7a6 bfbf 2d4f fd2c cb20 93bf
00000470: a342 5192 a830 c0bf b69e 59c8 21c7 bfbf
00000480: 4cd1 a4e8 6e90 c1bf 73b1 b097 246e c5bf
00000490: da2d ae20 083c d13f 8a6c 5bff 5d55 cb3f
000004a0: 63f5 5cfd 8a03 c4bf 2135 5ee6 163f c1bf
000004b0: dc8c c0fd 2b8f bf3f 457f d377 aa18 b33f
000004c0: 940b 28ca e083 d03f 3395 34a3 61f7 c8bf
000004d0: c803 c41f 6438 c3bf 6407 854f 8969 ba3f
000004e0: e293 74ca 002c c13f 6dc5 5da4 1ede ba3f
000004f0: 9a76 6328 b2b8 c83f 5665 b018 9029 c33f
00000500: 3f74 2e89 c143 b7bf 1bbd 3215 0e4e ad3f
00000510: 491e 8e88 1aac 7dbf 0cfa 9e3e 5b53 773f
00000520: ae0d 1279 491e c83f 5103 71c3 2beb c0bf
00000530: 23e0 1b51 fbc5 b1bf edf7 e458 78c5 c3bf
00000540: 63b3 7abe cbd2 cd3f a018 19bb 8798 c6bf
00000550: 3c1b 7b6f 2b28 853f cd23 35a3 2e1d 9d3f
00000560: e810 5328 141b bcbf 025e 6e99 00ca b7bf
00000570: e7ba 3159 254b bdbf 8db2 27e8 9bab a5bf
00000580: 1563 c4b7 1fb9 c6bf 381d 72e7 760b c5bf
00000590: 4cb1 d084 ae96 a03f f0ad d670 c92d b1bf
000005a0: 1bd8 4f28 a2af 923f 653a b70d 3a51 55bf
000005b0: 9f7a fd1b 9262 c03f 50e6 763b b012 a83f
000005c0: 2fb6 893e 9dfa c33f 8dac 80e3 b75e c73f
000005d0: 7ab7 eafe 846f b43f e311 ae64 f68e c4bf
000005e0: aab1 366d d6e9 b53f d2ab 9873 7f04 97bf
000005f0: 47f7 1307 4864 c6bf 782c ac69 482a cabf
00000600: c141 41e8 5a88 c03f 65d1 118c 921d a83f
00000610: 4b47 e1de 04fc be3f e85d c56e 7a98 b1bf
00000620: 9368 6bf6 7e7a a63f 9380 8b53 b227 cdbf
00000630: f7dc bb94 dfca 963f 3399 51b6 6548 953f
00000640: e6ac 1aee abbe bdbf e389 eca0 4a8f c73f
00000650: 61aa 127f 32d1 a13f 1b7a 5cfd a92e cbbf
00000660: 5a08 83b8 e8a5 963f 6bed 8e4f a281 543f
00000670: 713a 896c 6bf1 c2bf 1c28 d6a0 6cee c0bf
00000680: 67f0 7dfa e493 74bf 792e 689f d7b6 c13f
00000690: 1719 45c4 98e8 cf3f 2d0e 40bd b5d1 c53f
000006a0: cab7 50cc f439 b73f 9aab db70 c1cd bfbf
000006b0: c801 4639 4cb1 c7bf ce11 f721 ae80 ac3f
000006c0: e210 46d7 9464 c7bf a379 0770 1507 afbf
000006d0: 671e b755 0944 a1bf 9def f31a 0a22 c3bf
000006e0: 73ec 8267 c990 cd3f 3ff0 5996 460a aabf
000006f0: 3bdf 6fee 2883 bebf 6392 0532 9173 c3bf
00000700: 0fd2 ba22 7231 9ebf 3af4 bc5a cca3 af3f
00000710: e7f7 f8e0 7db9 ae3f da03 bcaf 5fba c5bf
00000720: 4e46 6a7f 2899 c53f aed3 ebcb 651d c7bf
00000730: d9a8 69fa ebae c83f acfb af2c 0748 b4bf
00000740: 5559 bfa6 4cfd ca3f a760 522c fc67 a7bf
00000750: 5d84 56f2 726d babf 4ba7 44aa 1a71 bdbf
00000760: 9598 8962 2004 cbbf 32a0 8649 62cf be3f
00000770: 5aef a378 3d3c cc3f 141c ca5f d67c c0bf
00000780: a885 23b6 7de5 b13f 04f4 2ed7 d3a1 cbbf
00000790: a931 041d fa04 c5bf 92b9 77dd bd05 c93f
000007a0: 7fb4 dd4b 96d9 c23f f5be 562b bb69 c33f
000007b0: 963b 907f ebd9 c83f d097 4e71 ef86 afbf
000007c0: a881 6a55 f296 c4bf 624a 03d7 cac8 833f
000007d0: 259d 793c 1f92 cabf ebc6 cc3e b710 a7bf
000007e0: 210a 797e 471f d03f b1f5 34c2 4c72 cabf
000007f0: 5a5e 33c1 3cc6 b0bf 6e03 225d 3f60 b63f
0.13964109579883432 -0.12008452991335701 0.018283200455589302 0.020514624321247947 0.0034205178693348442 -0.08859236255486642 0.23796413231514396 -0.004993461117095491
0.24684966982921594 0.1256833040214104 0.21614721542463924 -0.15926427052444908 0.14430466846526596 0.06376646546448789 0.1711655693435938 0.3019762562751431
0.21051137065982706 0.10708995343615724 -0.18362440414325987 0.12844632426466826 0.034411813394726716 -0.15510224306681725 -0.1245823583295744 0.18462863083493514
-0.04071051044809427 0.20645403122968897 -0.054630957925118614 -0.0004992600335357681 0.1287075447560948 -0.22789011049903685 0.12507552202451538 0.03293230221150014
-0.011037501453261383 -0.08267821256688739 -0.21528939065106745 0.08272797228636697 -0.12200817946893362 -0.04156450177163566 0.11680387085302672 -0.13638092274357885
-0.15117306253893334 -0.037392761376231 0.21646798353100472 0.18836963094847062 0.010403895704762604 0.2332516002549591 0.06980037828381914 -0.21788839989869474
-0.04892680696072301 0.1047516527135323 -0.024975341835645485 -0.18106576655352632 0.2456919101490473 -0.011708035864062955 0.08218842779196199 -0.08990605848461232
-0.12305427101537336 0.08416898572476204 -0.27777825244333276 0.01480624303130667 -0.17141050036739533 0.14306655784712338 0.21963247577033018 -0.16333687264991015
0.11313438450922345 0.07310110680279401 -0.2344178748815656 0.11009528677779523 -0.2129167267646512 -0.16090136905163396 0.13743290935569552 -0.06804333450225583
0.08709776340531937 -0.11419444980858055 -0.1450914190023103 0.22049490339894 8.207626090798893e-06 0.04225955482633305 0.04592224786424998 0.00660665699854734
0.15348961240298978 -0.06262752965177486 -0.13694852909878505 0.01897815466217012 -0.09979837393346354 0.02886752159324746 -0.10724002960192726 0.26228849299676804
0.11402177869162758 -0.008388553537870245 -0.20465328896877394 -0.21333910833413594 0.14931662019346234 0.20591293106099942 -0.1095792406818881 0.0891410512262646
0.11376565315953431 -0.08568972698660664 -0.16190717712296562 0.1458449026072451 0.09559634905622263 0.30791487738856144 0.1453556532371213 -0.02633282180596147
0.24749893035384915 0.007991477431193987 0.18374463652409853 0.06700849912937759 -0.17527304209227904 0.14734636582260485 0.08396493504365826 -0.2243131521036178
0.09972323775639214 0.260309706235039 -0.051005229571521093 -0.03947658974281942 0.19600205032058526 0.11935824007355784 -0.13953855731027234 -0.2403327905381039
-0.1090874519892543 -0.1273566483884921 -0.21000657643341764 -0.22664072035533206 0.20533527025415568 0.22061109794689468 -0.12854477964218347 -0.15208313306360052
-0.07633746770837901 0.22421617109536388 -0.19639278481600148 0.23865034106483887 0.07071322433120344 0.08349918974999872 -0.03091433345161964 -0.1171917094946767
-0.07688579375847392 0.03259335052518095 0.1853150233245125 0.07645902330308879 -0.12364148680517338 -0.018679785366955293 -0.1264849390450041 -0.1241322626243527
-0.13722025260507065 -0.1674237957644312 0.2692890471596151 0.21354269951448074 -0.1563581215977293 -0.1347378372997037 0.1232783789169391 0.07459512162631395
0.2580491995033125 -0.19504948109639883 -0.15015842009600378 0.10317285720250663 0.13415536771313358 0.10495177758072823 0.1931364724359142 0.14970589833755338
-0.09087762450367708 0.05723613747374597 -0.007244208952108596 0.005694729255934405 0.18842428599974198 -0.13217684786834608 -0.06942721109578591 -0.15446380940005558
0.23299547959086472 -0.1765298522533998 0.010330523814798924 0.028431633674049373 -0.10978818878635688 -0.09292606111409188 -0.11442788531870073 -0.04232489785122082
-0.1775245330143426 -0.16441236783087176 0.03239961024550783 -0.06710490231369426 0.018248113356058675 -0.0013011042527641067 0.12800814024645477 0.04701758123287603
0.15608563951120533 0.1825780735829067 0.07982665275150494 -0.16061286846173947 0.0855993286738285 -0.02247809546512853 -0.17493534417729448 -0.20441537055771497
0.12916122761317975 0.047100619886722574 0.12103300515562158 -0.06873288349503748 0.04390331991244625 -0.227773943704055 0.022258275464051427 0.0207839863327532
-0.1161906677540859 0.18406041009536897 0.03479917336638461 -0.2123615729442044 0.022117267858228075 0.0012516102853926357 -0.14799254226314276 -0.13227613309237618
-0.0050238556358373826 0.1383924034456532 0.24928578933231257 0.17046233883603304 0.09072809208075153 -0.12423333173107523 -0.18509819790416615 0.0556692520581553
-0.1827570010319795 -0.06060091965240424 -0.033722202027601615 -0.14947630230005596 0.230981040518461 -0.05085964761107719 -0.11918884106841869 -0.15196433012455932
-0.029485495919930268 0.06179655654566614 0.06000893946882951 -0.16975017624647998 0.16873651715700294 -0.18058464486207754 0.19283818938430988 -0.07922406044961744
0.21085508481946627 -0.04571521798169558 -0.10323255936101945 -0.11500708252847607 -0.2110634308948575 0.1203519277102039 0.22058838263171304 -0.12880973508092153
0.06990800568339373 -0.21587608344080433 -0.16421438614669384 0.1954877215752729 0.14726523117443333 0.15166415802149627 0.19415038803751078 -0.06157634981290949
-0.16085652514176485 0.00966032475154072 -0.2075842900551176 -0.04504940644836871 0.25190913534985 -0.2066131542468788 -0.06552486149609518 0.08740612052680571

layers.2.bias f8 [40]
00000000: 83e8 996b f2f4 b93f 1fe3 01e4 2506 c1bf
00000010: 6bdd ca09 5482 64bf 6cb0 28ab a643 c2bf
00000020: e35f a72d c6fa c33f 2396 d75e 0879 b4bf
00000030: 3581 7245 028e a53f 7dc8 dd72 84f0 95bf
00000040: 3216 9470 606e a6bf 5f3c e4c3 5f95 a6bf
00000050: 78ac 6cfc de29 b83f 375b d4d4 6e1b bc3f
00000060: 3602 740f 21a9 b23f c9bf b986 5bb7 c2bf
00000070: aad9 feac 0e37 b0bf 05fc e1dd 8362 c1bf
00000080: 1956 409f fa59 b4bf 8881 55f8 9132 b5bf
00000090: 51db 62da e478 c13f 8eb4 cc3d 2c62 ad3f
000000a0: 5bd2 2831 2ee8 ba3f af5e 59c7 cedd 903f
000000b0: cd4e d5ef 02f6 bcbf 5148 a835 38ab 8a3f
000000c0: 7695 225d 01ad b63f 82f6 be20 ce76 ae3f
000000d0: 753e d074 d81f b8bf 5cef 50dd 02fe c03f
000000e0: ddf8 eae5 ce3d bbbf fa3b 3a39 dd58 9d3f
000000f0: 3254 705d e6ac 67bf 8ea7 f089 083b acbf
00000100: d723 0e7f c4ce 7c3f dbbf c78a bae8 c73f
00000110: 1330 00c1 09e8 b0bf 2abc 6f51 2b15 b43f
00000120: a859 1c22 20f0 983f 4529 e4c8 d359 b43f
00000130: 0fb1 582d 9e25 aebf 6cbe 18da ca03 683f
0.10139384390814325 -0.13300012238666967 -0.002503551614008328 -0.1426895461785337 0.15609051922979153 -0.07997181239587596 0.0420990667128102 -0.021425313483128584
-0.0438108575272448 -0.044108383810560474 0.094388901354863 0.10979359336884618 0.07289320590280898 -0.14622062757871238 -0.06334010814212002 -0.13581894239538897
-0.07949797046634223 -0.0828028899463843 0.1365018907869975 0.05738962416067138 0.10510529232198833 0.016471129338553932 -0.11312883715919071 0.013021887910358883
0.08857735179716095 0.059500161645229546 -0.09423592426196044 0.1327518063206935 -0.10641186822155953 0.028659302347076455 -0.0028900622669518978 -0.05513788875425894
0.007033126414975186 0.1867898156774562 -0.066040620440788 0.07844801653094238 0.024353506166414768 0.07949565558025025 -0.058880751643615274 0.002931495852656776
