net_param/net_4.02712409.pth (torch, 44699 bytes, 10 tensors)

input_layer.weight f8 [40, 3]
000000 78 1a 2c 0f ff 0d cc 3f e1 00 14 f4 7c 9b af 3f
       0.21917713394960336 0.06173315505475486
000010 6d 6b 90 80 4e ce bb 3f a0 f4 d4 44 09 1b bc 3f
       0.10861673964283876 0.1097875397726562
000020 4b a3 5a 77 7a f1 e2 bf 0f cf 22 44 68 22 a4 bf
       -0.5919773417600508 -0.039325006787661924
000030 d2 e1 ef d1 c3 ca c9 bf 29 91 04 cd 9e 11 e5 3f
       -0.20150039435226447 0.6584009174589812
000040 5e 00 c2 79 d4 2f ac bf 91 77 4a a7 1c 5d e0 3f
       -0.05505241380979052 0.5113662021064888
000050 29 ad 47 8d a4 f1 b4 3f 2c 73 07 a5 37 2c d6 bf
       0.08181217622011573 -0.34644881359217794
000060 85 5e c8 5a 5b f7 dc bf a2 72 08 78 5d 27 dd 3f
       -0.4525974642324189 0.45552765581104826
000070 fa 55 cf 8e f8 aa a7 bf 5c ba e1 a5 1a dc e4 bf
       -0.046226279671525775 -0.65186817549495
000080 21 0e 43 0c a2 3e d8 bf cf 3f 42 f2 24 cd cb 3f
       -0.3788228149171307 0.21719800786058704
000090 61 6c 4b 38 39 9c d9 bf 04 54 fa ad 40 df db 3f
       -0.40016012666246153 0.43550126066230654
0000a0 59 93 49 37 6a 4d df 3f 14 ad 92 05 b2 6d db bf
       0.48910003089104276 -0.42857027572854745
0000b0 b3 3e 01 b3 92 76 ce bf c8 d7 18 aa 83 cd d0 bf
       -0.23799356213065934 -0.2625435982803279
0000c0 f2 fb fb 45 cb 80 c6 3f 9a d7 88 d1 72 11 d4 3f
       0.17580548207476415 0.3135649725185147
0000d0 b7 72 81 5a 23 2d b6 bf de 3d 32 21 be 58 db bf
       -0.08662625274286993 -0.4272914241964524
0000e0 26 ab bb 92 6d cf a9 3f b5 f7 ec af a4 eb d3 bf
       0.05041067520308777 -0.31125752620925634
0000f0 f4 77 47 43 3b 15 c4 bf 3f a8 2e de bd 40 6a 3f
       -0.1568979338180153 0.0032046993596468727
000100 cc 51 4f 98 e8 fc c8 bf 1b 92 8b 9a 66 43 d2 bf
       -0.19521815716747282 -0.2853638180952502
000110 eb 93 db cd 9a 39 c3 3f 24 80 75 5b 86 24 2f 3f
       0.15019545604368942 0.00023759975531856368
000120 88 09 17 91 9c 03 c2 bf ab 93 ee 76 28 42 e3 3f
       -0.14073521694633606 0.6018259356393306
000130 89 2a 27 26 76 fc a0 3f 8d 39 7e 99 e4 8a 81 bf
       0.03317612853750968 -0.008565698560940383
000140 fc ab 96 9f 81 ab d9 3f cd 79 0b 97 f5 ff d5 3f
       0.40109291634388433 0.3437475180670873
000150 d6 7d b4 bf f4 9a d0 bf 0e 74 c3 da 8c 79 c3 3f
       -0.25945776673503695 0.1521469181233503
000160 23 c3 3b 3d a2 71 d1 bf 21 45 a5 94 d5 f9 c3 3f
       -0.2725606534941553 0.15606183775029428
000170 b5 ec b9 8e 97 21 d2 3f 0a c7 10 0f ce 41 dd bf
       0.2833002942858898 -0.4571414134144197
000180 f1 70 19 71 cd ff c0 bf 0f e1 63 ad c9 02 c7 3f
       -0.1328064729922356 0.1797725769645315
000190 fb 39 fb 9a a6 52 d6 3f 77 c3 75 e7 ea d0 f0 3f
       0.348794604634264 1.051005272045783
0001a0 68 f7 56 71 a8 94 c9 3f ff b6 9c bd 23 57 c6 bf
       0.199849181501061 -0.1745342899170552
0001b0 36 05 b2 d7 47 c9 b2 3f 97 12 18 a7 da 75 e1 bf
       0.07338379875183851 -0.5456364882998795
0001c0 83 4a d3 82 8d e5 a3 bf 76 50 d2 6a bc 45 c3 bf
       -0.0388607237051888 -0.15056567397971649
0001d0 d3 14 92 2a fc 6f ae 3f ba 3a 4d 4d 48 1b a9 bf
       0.05944812793408407 -0.04903627341865531
0001e0 2c 37 23 06 af 28 c5 bf 0d fa 3c 7d a4 8a dd 3f
       -0.16530406760869576 0.46158706884662665
0001f0 de a0 06 cc 89 1a e3 3f 57 cb 36 ea dc ed e3 3f
       0.5969895348435121 0.6227860044949506
000200 25 ad 03 b3 15 3a e4 bf db 46 9e 0f 8f 8a a4 3f
       -0.6320904251455529 0.040119619995619714
000210 da 7f 9f 7c 07 3f d8 3f 54 1f d4 70 a5 6e dc bf
       0.3788469998380585 -0.4442533113328768
000220 15 a6 40 53 57 2b ee 3f b7 ff a4 3d c6 c9 ce bf
       0.9427906633401927 -0.2405326653479258
000230 db 0b 37 13 83 5a b6 bf 24 0f 0f dc cc 46 d0 bf
       -0.08731860369793713 -0.254321303273388
000240 85 66 b0 de 17 fb db bf 44 c0 bf 08 ac 18 e5 bf
       -0.43720051524142206 -0.6592617197875446
000250 bc 66 51 c5 8b 5c d7 bf e8 2f 07 77 3e d8 d2 bf
       -0.36502355832417854 -0.2944484865554373
000260 ad cd d6 db e3 a6 d8 bf eb 50 62 22 f3 75 d2 3f
       -0.3851861616960502 0.28844908101861105
000270 22 ef da be c5 49 e1 bf 53 49 47 60 84 f4 e6 bf
       -0.5402554252281997 -0.7173482780874941
000280 6a a0 80 af 29 50 c5 3f bb df eb 55 41 5a d2 bf
       0.16650887555556732 -0.28675874129066486
000290 da 0f 8e 8d 4b 2d de 3f 88 f1 85 e1 79 92 ce bf
       0.4715145952579839 -0.23884509574771706
0002a0 51 3e 81 cb d6 25 ec bf c5 57 aa 44 2c d3 ca bf
       -0.8796190237716904 -0.2095694861679346
0002b0 1a 20 23 f9 5f 57 b7 bf 79 70 64 4f 2d 92 d1 3f
       -0.0911769850964678 0.2745469355884392
0002c0 2e 2d cc 77 b7 05 c1 bf ed 62 dd 07 77 d5 da 3f
       -0.13298695897570084 0.41927886741682024
0002d0 1a 99 07 98 5e 28 d7 3f 6d 7b 2a 16 06 21 c3 3f
       0.36183895918510844 0.14944530565568517
0002e0 8f 90 e0 6c 18 3d 96 3f 00 a7 9e f3 63 4c cd bf
       0.021717435498559253 -0.22889375110144528
0002f0 bc ae a7 a9 0e 93 ca 3f 22 06 ac 80 51 a1 da bf
       0.20761283191619906 -0.4160960918962663
000300 81 2a 01 17 32 39 dc 3f f3 4e 07 ef 16 6d c8 3f
       0.4409909462598663 0.19082914992633668
000310 2b af 54 93 8c 46 d3 bf c7 1f 18 d0 f4 a3 a8 bf
       -0.3011809767510722 -0.04812588730061367
000320 fc 15 8b 2d 14 06 d7 bf bd 9e c4 52 a3 2c d6 bf
       -0.35974602172458936 -0.3464744861871443
000330 48 a7 6d 49 57 22 df bf 6e 82 4a 69 b1 76 e2 bf
       -0.4864710061143467 -0.5769888931718705
000340 49 b1 2e 3d 71 71 bd 3f df f4 0d a2 ac 2b b0 3f
       0.11501224273405798 0.06316641765984653
000350 ef 5a 25 3a 53 6c c7 3f 1a b1 7e c1 18 24 cc bf
       0.1829933198848361 -0.21985158393852872
000360 d4 76 20 d0 ae 3d e8 bf 9e 12 51 f2 7b ee c1 3f
       -0.7575296463944263 0.1400904591738667
000370 cd b1 77 fe 41 2e e4 bf be 3e 10 17 7b 4f e8 bf
       -0.6306467027730435 -0.759702248616996
000380 2a 75 ea b1 a3 63 a5 3f 2f 69 9b c2 b2 63 e1 bf
       0.04177581354927391 -0.543420200435582
000390 bc 9d cb 9e 85 95 b1 3f 57 0b c5 06 b1 5e d7 3f
       0.06868777396049713 0.3651545110807794
0003a0 70 ca e5 09 2f bb de bf 25 b1 27 6c e4 df cd 3f
       -0.4801747891098449 0.23339515000351088
0003b0 a2 d3 5d c7 d0 7d b9 3f 72 17 75 53 03 a3 d6 bf
       0.09957604281755875 -0.3536995234502377

input_layer.bias f8 [40]
000000 af 58 af 08 79 3e 7a bf 90 af 18 16 37 48 77 bf
       -0.006407234944125913 -0.005684104138293025
000010 a7 ae 4e 6f ee 47 70 3f 3b c3 42 c8 fd f8 95 3f
       0.003974849115291035 0.021457639072369288
000020 f0 de 3f 72 ce 93 79 bf 71 11 7e 43 9a cf 8a 3f
       -0.006244474821862175 0.013091283020693041
000030 c4 32 c8 e6 89 8c 9c 3f bd 2d dd b0 cc fb 7d bf
       0.02787986250955289 -0.007320212911348487
000040 c6 ca ac cf e2 4b 8c 3f 52 09 ab 3e d4 14 44 bf
       0.013816616022812932 -0.0006128345824765547
000050 50 64 56 a1 d5 8b 6b bf fe df 9f 0a 76 7c 8a 3f
       -0.0033625767197916004 0.012932703208193171
000060 51 f9 97 d1 49 40 48 bf 8d 52 97 20 ab 04 80 bf
       -0.0007400856440538483 -0.007821404392339271
000070 e4 c8 4a 96 db e9 99 3f fc 8d 37 b5 81 5b a6 3f
       0.025306159065345293 0.04366689049836833
000080 fc ec 10 f1 dd 11 67 3f aa 65 63 fb 37 5b 9c 3f
       0.002816136817754276 0.027691721647760716
000090 b3 3e 4e 90 8b 44 9f bf 63 d3 b4 7f ee ee 8b 3f
       -0.03053491657516245 0.013639319679535416
0000a0 84 0a e2 57 25 fc a1 3f 94 91 7d b8 ef 30 90 3f
       0.035126845338727924 0.015811677585035946
0000b0 e6 00 e3 e7 7a ca 98 bf 64 26 9f d9 59 f2 96 bf
       -0.024209900286906193 -0.022408870608876433
0000c0 d1 2d 06 e3 a0 18 8c bf 25 23 85 aa 49 50 96 3f
       -0.013718850067354989 0.02179064849159142
0000d0 1b b9 18 00 96 6c 82 3f ab 9e 20 25 21 3a 91 bf
       0.008996173742243976 -0.016823308840825984
0000e0 c4 99 3d 59 c5 55 73 bf 41 d7 d3 1c 8f 46 83 bf
       -0.004720469372705375 -0.009411924426313003
0000f0 6a f7 f7 b5 ea 0a 83 bf cc 70 d7 1f 59 96 91 3f
       -0.00929816596817164 0.017175095146613015
000100 6f bd 1c 39 3e b4 92 bf f9 7c f0 b3 5b 7f 9e bf
       -0.018265697704177904 -0.029782708032255
000110 24 c4 50 b7 25 23 63 bf 4c f6 a5 88 1c 9c a0 bf
       -0.002336095489703387 -0.03244103591985645
000120 ba 4c cf 1a 28 65 86 3f e2 04 7c 3d 7b 1b 53 bf
       0.01093512851540478 -0.0011662200467415442
000130 4f db ea d4 08 c1 6d bf 81 0d 3e 20 a0 4c 97 3f
       -0.0036320850843724393 0.022753240554732827

hidden_layer1.weight f8 [40, 40]
000000 c2 f7 6f 1d a4 47 d9 3f e6 21 bd a0 95 c5 8f bf
       0.3949976241564138 -0.015513581245287743
000010 f4 2f a5 b3 2e 3b cd 3f ba b5 c8 93 68 bb c7 bf
       0.22836860439053874 -0.18540675369278664
000020 59 3c fd 56 5e 5a b4 3f 57 38 9d 3c a3 10 bb 3f
       0.0795039141059858 0.10572262029492784
000030 69 82 ee dd 79 7e c8 bf b7 d0 3e 72 9e 75 e6 3f
       -0.19135974251277624 0.7018577796320845
000040 0b 99 31 50 8b 6f 9d 3f 18 72 bf 78 9f 5d c5 3f
       0.028745819825780432 0.1669196452702557
000050 a7 4f 02 e1 1e d6 c6 3f 7a a3 4e 00 04 3f d9 bf
       0.1784094427754301 -0.3944711688041519
000060 bd 05 cc f4 11 bb d1 bf b8 cf e1 9c b8 76 c1 3f
       -0.27704285531953216 0.1364355817819367
000070 ec 47 c9 d6 66 23 d1 bf 6c cf bb 5a 4d f3 dc bf
       -0.26778574919910514 -0.4523499857016222
000080 a9 c1 ee d6 d7 cc c5 3f e2 d8 b8 85 8e eb bc 3f
       0.17031381602056442 0.11296931042383876
000090 cf 26 cd 43 b8 5b d7 bf b0 47 aa 3c 7f c5 cc bf
       -0.36497313138225435 -0.22477713071981276
0000a0 9d b0 9b 7a e3 89 c1 3f d5 a8 36 94 a5 94 cb bf
       0.13702052580572835 -0.21547384011257145
0000b0 cd 81 f5 dd 67 09 cd 3f e8 54 09 0f 04 53 d2 3f
       0.22684954011766792 0.2863168856468534
0000c0 bf 4c 98 c7 26 16 cd 3f a5 0f 96 c1 ee 1f d9 3f
       0.2272385096153808 0.3925740137567522
0000d0 3c 0f 73 45 65 90 bf bf 03 8e 5c b3 b6 e3 a4 3f
       -0.12329705186408274 0.04079981746169994
0000e0 2a e4 3b 2b 0b 16 ca 3f 24 16 f1 a1 e7 0f c2 3f
       0.203797718153312 0.14111037642776225
0000f0 f2 f3 5b ef 48 2d c3 3f 42 1f 24 dd ed ed 9b 3f
       0.1498194855447817 0.027274815199262344
000100 30 d4 42 cb d0 ea d1 3f c2 cb 1e 29 1d ae bc 3f
       0.27995700692855774 0.11203176740563861
000110 af 69 5e ea b3 a9 e2 bf ee 9a f1 fe fb 3e e0 bf
       -0.583215673209727 -0.507688520371486
000120 b5 05 47 81 11 49 78 bf c2 51 d6 02 b8 e2 cf bf
       -0.0059290584362669445 -0.24910640848669457
000130 a6 1c c7 d4 95 9e b2 3f 46 d9 fb 34 75 92 d1 3f
       0.07273231930513421 0.2745640771312491
000140 b8 f5 53 1d 33 54 b0 bf c1 06 05 4f 74 41 a2 3f
       -0.06378478494658324 0.03565562691302438
000150 d3 90 0a 25 47 20 cb 3f f9 94 c7 27 f3 ed c0 3f
       0.21192254360824467 0.13226165239681345
000160 26 12 5a 58 a9 b9 91 bf 74 a5 9a 20 d2 47 c0 3f
       -0.017309804933136295 0.12719179718014184
000170 1a d4 82 22 17 46 b2 bf ce 90 bf 77 4e 26 ce bf
       -0.07138199417643457 -0.23554402205548403
000180 a0 c9 d0 f1 ec 2d e1 3f 38 e0 31 10 96 14 c1 3f
       0.5368561480484466 0.13344074049723686
000190 a2 df 9a 6e d5 f6 c3 bf 9f 7b bc 6e 1f 5b c0 3f
       -0.1559702673018793 0.12778084666294107
0001a0 57 22 5e ef 44 41 d1 bf 75 33 15 8b 90 7a b5 3f
       -0.26960872054818225 0.08390143771721432
0001b0 b8 50 70 92 1b 14 9f 3f 4b 36 96 e2 d4 23 cf bf
       0.03035014230052077 -0.24328099311644488
0001c0 8a be 34 20 54 0c c0 3f 82 3e 24 af 8a ba c4 bf
       0.12537623951492477 -0.16194280196986105
0001d0 d8 fd cc f9 75 0c c1 bf 83 2a 72 7f df af 97 bf
       -0.1331927747469155 -0.023131839898761896
0001e0 d4 28 7b d6 0a 8c e2 bf 18 77 3c 8b 59 c5 72 3f
       -0.5795950116237472 0.00458273866732186
0001f0 95 54 77 6e 29 6a 9e bf 9a c7 b4 f6 5b 76 c2 3f
       -0.02970185028774049 0.14423703714561215
000200 f5 e0 a4 69 91 2e ad 3f 4f 35 5e 20 95 58 c8 3f
       0.05699591078377068 0.19020332413166804
000210 47 fc 82 90 b6 bd da 3f d0 8d 43 df b2 28 c4 3f
       0.41782917129961955 0.15749202634388704
000220 80 07 f4 8b ff 24 c7 3f 35 66 1c 66 09 1d 74 bf
       0.1808165963521411 -0.004910504068698131
000230 b2 b0 4f 75 f4 93 c6 bf 63 87 32 81 b9 10 d8 3f
       -0.17639022567835166 0.3760207902615688
000240 88 70 25 8d 71 1b d5 3f 9a a2 1c 29 4e 62 db 3f
       0.3298000219708759 0.4278750802500696
000250 c1 f5 41 2b ef e0 cf bf 09 39 08 14 9a 05 ce 3f
       -0.2490519486636185 0.23454595544939874
000260 4e 4b 86 1b 2b 6c e0 3f de 36 48 6b c1 f8 c5 3f
       0.5132041490163404 0.17165391672499813
000270 fc 5e c9 cb fb f8 c8 bf 0e 14 2b 27 99 73 d5 3f
       -0.19509837580221034 0.33518055748965103
000280 18 f3 db 7a 87 29 ca 3f 18 d5 5c a7 0f 43 e7 bf
       0.20439237116797737 -0.7269361752320576
000290 3e a3 3e 55 bf eb d4 3f 1f f7 15 46 8b 6c df 3f
       0.32688887905765174 0.4910000023299847
0002a0 5a 3b 22 ef 0e c4 c0 bf 98 ab 8c 55 92 60 c8 bf
       -0.13098322559786874 -0.1904471318933616
0002b0 84 93 6a e2 d1 78 cc bf e6 34 27 2e fc 3c be bf
       -0.22243712954982808 -0.11811805846010123
0002c0 68 ff d6 7f 1a 03 cf bf ee cf 86 32 18 00 e4 bf
       -0.2422822117059653 -0.6250115382049424
0002d0 da 9b 42 a2 54 1b d4 bf 88 50 29 9a 9d b4 d5 bf
       -0.314168127495973 -0.339148903415897
0002e0 68 d0 9c 9c b5 10 d3 bf fa 21 40 a6 39 b9 d4 3f
       -0.29789486211962535 0.32380524859811965
0002f0 a8 24 d7 19 3d 0e d1 bf 20 cd 90 bd 7f 90 d1 bf
       -0.2664940597865759 -0.27444451820629645
000300 12 80 7d 9e af 0b 9e bf ca 9f 70 12 5c a2 d8 3f
       -0.02934145359847668 0.38490964699530805
000310 c1 d2 c1 a7 86 c7 c4 3f c9 c5 fd 4e 42 a9 b2 3f
       0.16233905020967224 0.07289518764971271
000320 2b c5 9c 07 87 11 d5 bf 70 db 72 23 52 c2 b6 3f
       -0.32919479125401335 0.0889026009125311
000330 ff f9 9e 90 58 11 c9 3f fe ba 4f 90 0b 5d 7e 3f
       0.1958418565900075 0.007412953539627008
000340 1e 37 9b 74 17 7d cb 3f 14 e8 c9 22 4e 49 a0 bf
       0.21475499337832898 -0.0318092744318649
000350 79 39 46 81 7c bb d0 bf 3f 94 73 99 56 1b df 3f
       -0.26144325851864597 0.4860435961293809
000360 6b 92 c9 b6 6e a6 d0 bf 87 98 c3 64 57 30 b3 3f
       -0.2601582322152242 0.07495638094005318
000370 bc ab 4e 4c 07 48 d4 bf 31 81 72 1c 89 a3 cc 3f
       -0.3168962712467722 0.22374071015384225
000380 18 e4 3f 45 85 51 5f bf 7e 14 ab 3a b7 2a cb bf
       -0.0019115258664881337 -0.21224108090078525
000390 7e 51 51 88 32 58 bc 3f b2 b2 2a 2b 3d 01 d3 bf
       0.1107207854086649 -0.2969506188917804
0003a0 35 06 3f 2e 00 be d0 3f 72 b1 79 9f de 9a c9 3f
       0.2615967227576193 0.2000387457550335
0003b0 5a 10 02 2f 6a 47 e3 bf e8 84 b7 00 bd 8f d3 bf
       -0.6024676244856082 -0.30564808912283903
0003c0 dc 67 a4 31 50 8a e0 bf b3 69 1d 05 36 39 d1 bf
       -0.5168839425634775 -0.2691168832731378
0003d0 c3 83 63 a8 a9 44 d3 3f 76 3c 94 ba 62 cd dc bf
       0.30106584018909305 -0.4500357458172809
0003e0 2a 4e f5 2d a7 f6 d6 bf 52 62 ce 02 69 ff c1 bf
       -0.3588045071421414 -0.14060700070401083
0003f0 2b 32 34 4f f9 c0 d2 bf b2 3f 51 58 ef 1f d7 3f
       -0.2930281899905675 0.3613241541361233
000400 51 4e 65 9f 73 f6 c9 3f 16 77 8f 30 2c cc bb 3f
       0.20283360751146742 0.10858417687947183
000410 68 ed 78 1d f6 49 c3 bf 53 48 81 ba 63 c9 a6 bf
       -0.15069462241249743 -0.044505230442738374
000420 47 42 9f ae f6 b4 d7 3f 2f 44 69 53 27 51 c7 bf
       0.37042014172496746 -0.1821641118317827
000430 e0 8f 95 73 ba dc c0 bf 1b c6 90 fd a2 fd a9 bf
       -0.1317360939384562 -0.050763219311545
000440 00 1b e3 de cc ca c6 3f dd 56 41 3d 9d ec ca 3f
       0.17806397326622658 0.2103458928201495
000450 da 2f f4 ed 4c e4 d5 bf e9 5e cf 1b c9 29 d9 bf
       -0.34205935704880874 -0.3931753894407693
000460 27 82 14 04 76 98 c1 3f 87 e2 37 ac d5 ee c7 3f
       0.13746524047111672 0.18697615536781972
000470 ee 05 19 58 1b c7 d0 bf 7f 3e 19 9d 86 45 af bf
       -0.26215251544280604 -0.06107731502254143
000480 17 83 70 92 7f 0f c1 3f 2e 51 f2 6e a7 c8 e4 3f
       0.13328547144285416 0.6494939009594753
000490 0b 6f a3 ee ef ee b8 bf 2d 74 84 55 38 9d ca bf
       -0.09739589286931165 -0.20792297530798134
0004a0 4e 85 06 69 9f 4c c6 3f 87 4b 94 28 56 bf cb 3f
       0.17421333912083486 0.21677662831697495
0004b0 bc c7 77 b2 4f 54 ba bf f0 1f c7 7a e0 c4 d9 bf
       -0.1028489886009813 -0.4026414107324845
0004c0 ac 03 f9 67 5f 2a d0 bf d4 9e c9 34 bd d1 d6 3f
       -0.25258622315964874 0.3565514579299649
0004d0 af c7 d8 89 2d 3d a1 bf 81 9d b2 7e 98 26 e2 3f
       -0.033669875218392924 0.5672113871159327
0004e0 1b dc 13 df 21 d4 c5 3f 2d a1 de 46 a9 40 d6 bf
       0.170536264347647 -0.34769660874237013
0004f0 0f ee d8 2b a6 ce e0 bf 30 00 02 84 d8 b7 d8 bf
       -0.525225721015376 -0.3862210549486944
000500 74 2f 5d a5 69 f2 d8 bf f0 23 18 08 8a 0b 85 3f
       -0.38979569577053685 0.0102759155006584
000510 d3 df 2d f6 d6 0e ce bf 60 4a 2d 53 dc e4 d9 3f
       -0.23482787151783543 0.404593545176942
000520 32 f4 e5 13 af 72 e4 bf f4 4e d0 01 21 82 cb 3f
       -0.6389994991910781 0.21490871990737725
000530 68 9c e1 9c 35 f5 db 3f b7 c3 05 83 43 7b df bf
       0.4368413955730319 -0.49189842028777825
000540 32 4c 02 3d 5c dc bc 3f 0b 46 a7 9a a1 a5 ce 3f
       0.11273743142582829 0.23942966510234984
000550 bc ef c9 60 b3 28 c2 bf 37 6a 3a 72 e1 cf d6 bf
       -0.14186708665863346 -0.35643802790733353
000560 3c 16 b5 8c 47 fb c8 bf 3e 61 ca ad d9 2a db bf
       -0.1951684414909084 -0.42449037524922406
000570 6e ee 1a 0f 36 55 e6 bf 2f c9 2e 87 95 be c3 3f
       -0.6979017539046717 0.15425366497726986
000580 af 19 7a 56 5c 4d b9 3f 21 90 e9 aa 8e 30 b8 3f
       0.09883668051961679 0.09449092552819184
000590 b9 7c bc 47 86 82 ba 3f 18 15 7c 04 60 7d e9 3f
       0.10355414630292871 0.7965545737830864
0005a0 69 8c f6 57 2b 9d c0 3f 59 a9 9f 42 0f 71 d3 bf
       0.12979642672607675 -0.30377561098307165
0005b0 d7 0a 10 e9 ab c3 cb bf f4 b6 b0 a7 cc 9d d2 3f
       -0.21690892105114898 0.29088131309514087
0005c0 52 b4 05 d0 2e b8 d3 3f 99 66 ac e9 1d e9 bf bf
       0.3081166297404866 -0.12465083079259855
0005d0 73 19 c8 34 ee 06 e2 bf 05 bc 6c da 67 bf 42 3f
       -0.5633460074321149 0.0005721337409790866
0005e0 6f 96 15 80 b9 7f cd bf d7 16 86 97 3a 12 dd 3f
       -0.23046034578435434 0.4542376022076104
0005f0 65 06 08 9a 45 fa c7 3f cc 5b 18 ad f5 b4 d6 3f
       0.1873251916986646 0.3547949018843013
000600 7b 75 48 02 2d 2c a8 3f 7a 41 20 49 4b 26 cb bf
       0.047212034729663586 -0.21210614271741318
000610 02 43 34 ba 3d 96 d4 bf 54 99 7d 96 c2 de d2 bf
       -0.3216699903869512 -0.29484619804715817
000620 28 bc c2 fe 72 b4 c0 3f 5c 93 b9 7a 87 2f cc 3f
       0.13050687255369664 0.2202004765742015
000630 db 36 e4 35 20 35 cf 3f 46 5c 08 95 86 08 d7 3f
       0.2438087714330582 0.35989536813707834
000640 d8 35 5a 0c ee 47 d0 3f a3 72 7b 0c f3 11 d8 3f
       0.2543902512196303 0.37609554499594305
000650 22 9b af b5 91 0c e1 3f 92 95 01 db 81 3b b8 3f
       0.5327843235544132 0.09465800854521536
000660 c8 21 07 c1 7c 0a b2 3f e0 c2 e1 9d 68 f7 cb 3f
       0.07047252380937785 0.21848781308246767
000670 75 bd 99 bd 06 42 bd 3f 53 31 ed 44 df 6a c6 3f
       0.11428873185081108 0.17513647904923832
000680 23 bb 24 4a 96 e3 c3 3f 36 7d c8 62 46 a3 b9 3f
       0.15538290615355618 0.10014762794206863
000690 45 02 0d a5 a1 36 90 3f 49 a2 ee ef e5 44 d7 3f
       0.015833402346517884 0.36358021193385476
0006a0 13 5b 93 58 40 45 cf 3f a0 46 30 4d 1b 28 bf bf
       0.2443008835313881 -0.12170572885977515
0006b0 91 0e 9c b5 f0 de df bf ca e5 2b d0 fc ed d3 3f
       -0.4979821942836021 0.3114006073879777
0006c0 83 1f ee 60 00 b0 dd bf 8e 5b 79 a6 d8 6d c1 bf
       -0.4638672777732539 -0.13616474274268991
0006d0 4c d9 ef b2 4d 31 bf 3f 14 e4 c7 4c 8c f7 d3 bf
       0.121846061883706 -0.31198413370253886
0006e0 88 29 53 2f 01 4b c7 3f a5 94 3a 5a c4 b3 ac 3f
       0.18197645960601627 0.056059013380300095
0006f0 b3 10 aa cc ab 45 d6 bf e6 0d 56 c7 dd 0d de 3f
       -0.3480023859667753 0.4695963331834875
000700 9a 01 5e e7 16 4c cd 3f d1 08 6d cf c1 74 a5 3f
       0.22888456628062387 0.041906410761400566
000710 3f 95 4e 41 d7 7b d4 bf 62 53 49 71 5c b2 d1 3f
       -0.32005864503510745 0.27651129782798567
000720 57 db 99 68 77 75 a4 3f 00 db 66 65 6c e5 c4 bf
       0.039958697813679826 -0.1632514472127795
000730 87 ee 75 9d 7a 0a d2 3f 53 39 21 de de ab d1 bf
       0.2818895852758278 -0.27611514751779004
000740 cf 55 f8 47 ea b2 d5 bf 05 27 9a c6 ad 36 a8 3f
       -0.3390451147873507 0.0472921662267947
000750 5b 5c 11 ad a0 6c e2 3f 43 b7 0d 65 62 5c bc 3f
       0.5757602100592395 0.1107846733773075
000760 f2 50 ea d1 81 55 c1 3f 34 8c 33 cb d3 20 90 bf
       0.13542196988840477 -0.01575022628538765
000770 95 3b 4f aa a5 0b b9 3f 20 0d ca ce 77 0d c1 3f
       0.09783397109934662 0.13322351071483585
000780 54 0f 5b 4a 8f 78 ca 3f 76 95 5f f0 57 65 bd bf
       0.20680419092797797 -0.11482762926569542
000790 80 d1 ec f2 22 b8 68 3f a8 d1 d1 ae 98 5f dc bf
       0.003017490634556974 -0.4433347422812184
0007a0 7a ab 73 9a 56 e6 d0 3f 56 25 b1 1f f3 c3 bb bf
       0.2640587337797836 -0.10845870517473108
0007b0 da 57 ee 46 b4 62 d4 bf f4 ff a6 e2 4c 8e d1 3f
       -0.3185244267164059 0.2743103230859554
0007c0 c2 5d 4c 77 63 1a c4 bf d8 14 46 8e 6e c6 d2 bf
       -0.1570553143035181 -0.2933613194839615
0007d0 de 1e 14 d9 fd d8 a4 bf 90 1e da 3b bc c3 b6 bf
       -0.0407180144775887 -0.08892418347579167
0007e0 aa 90 2b ea 76 fc ba 3f cd 96 91 b1 ce 47 c1 bf
       0.10541480271382633 -0.13500388784739528
0007f0 e4 5c 98 6c 86 35 c4 3f 80 d5 17 f9 15 d1 ad bf
       0.15788345625399025 -0.05823582330405497

hidden_layer1.bias f8 [40]
000000 9a 41 a3 d7 ec 2a 83 bf 83 c6 44 d5 27 67 80 3f
       -0.009359217005482635 0.008009253688757717
000010 90 3c c3 37 81 5c 5f 3f fe 9c 7a a7 e5 ba 67 3f
       0.001914144696502782 0.002896736663234755
000020 db 14 cb 80 65 01 9e 3f b8 5b c2 2f 6a b6 78 3f
       0.02930220221130218 0.006033339301345579
000030 2d c3 fe 57 80 ba 92 bf 5d 93 a8 7f c7 77 96 bf
       -0.018289571162031826 -0.02194129673638955
000040 b4 a3 3d 12 ad f9 95 bf d3 8c 5c c4 67 3a 78 bf
       -0.02146025108178025 -0.005915074672688553
000050 b9 ee 52 a8 e5 d6 ac 3f 8c 11 b2 7b 5c 98 8b bf
       0.05632703475700169 -0.013474199795617613
000060 ac 77 34 bc 98 f9 a8 3f 71 3b 6e 94 59 86 82 bf
       0.048779271101224125 -0.009045314638368858
000070 bc a0 13 ff 87 6d 7c 3f 9e 7d 25 db 88 4f 91 3f
       0.006940394626532672 0.016904962897908875
000080 e2 9f 3e 20 f9 de 90 bf 2b a8 9e aa 16 06 92 bf
       -0.01647557505899034 -0.017601350940516774
000090 7d e4 a0 1d 08 4d a2 3f 37 5d cc d7 50 06 89 3f
       0.03574395524669514 0.012219077668801688
0000a0 92 da 6d c2 ab 54 8d 3f 3f ec ce d9 bd c1 8e bf
       0.014321653243070363 -0.015017970284921243
0000b0 f1 70 5b 96 af 79 90 bf 2d ab ef 5c 29 55 49 3f
       -0.016089194824290002 0.0007730915038995694
0000c0 2e 54 4e 01 9e ba 73 bf bd bd e2 e6 27 e0 77 3f
       -0.004816643912723113 0.0058290060680258856
0000d0 3c cb b2 30 72 a4 84 bf 0e a9 55 58 4a 40 a3 3f
       -0.010079280959279673 0.037599871905358836
0000e0 49 8b 1b b4 f9 a7 9f 3f 0c e4 41 13 2d 7c 71 bf
       0.030914212816138407 -0.004268814158529654
0000f0 6b 5d 64 73 24 b7 8a bf 73 49 fd 6d a8 31 92 bf
       -0.013044628879056849 -0.017767554963322007
000100 2e 29 b6 c2 3d a8 65 3f d9 94 d1 6d 69 5b 90 3f
       0.0026437002431453282 0.01597370846538557
000110 03 13 5f 0a 65 95 8f bf d0 59 12 b1 de 47 91 3f
       -0.015421666506776349 0.016875724370572887
000120 2a ef 3b d6 3f ed 93 3f fb 4e 36 25 bc 58 86 bf
       0.01945972199517524 -0.010911435971855612
000130 40 54 52 7a be d6 91 3f 13 a5 de 91 dd fd 8c 3f
       0.017420746055524683 0.014156085027780685

hidden_layer2.weight f8 [40, 40]
000000 86 0a 76 a0 ed 1f c4 bf 1f 4d eb af 0a 1b c9 bf
       -0.15722437224402003 -0.19613774862100627
000010 b6 af 0d d8 01 84 a2 3f 3d 0e 2e 4c 82 2d bb bf
       0.03616338503238074 -0.10616316184864956
000020 a9 33 d7 33 27 26 d2 3f 5c 8c 51 28 08 c9 93 3f
       0.28357868254243584 0.019321563206528544
000030 bb 0e 9e b0 82 36 c2 3f a5 74 dc 1a 5a d5 ce 3f
       0.14228852867028316 0.24088598548488452
000040 eb ee e2 88 ee a0 e0 bf 4b 6b 03 0a b3 43 d6 3f
       -0.5196449922145495 0.3478820417200736
000050 f8 29 1f 86 dd 5d be bf 48 22 38 2e 39 fe d1 bf
       -0.11861977123695755 -0.2811415625915612
000060 00 79 c7 03 61 b9 de bf 7e 80 f3 d8 01 2e c6 3f
       -0.48006463402806787 0.17327902882880503
000070 3c 2a e7 3f f8 98 b5 3f f4 df dd b3 34 d5 af 3f
       0.08436538276797817 0.06217350669516
000080 d3 0b 6c ff 34 9c c0 3f 26 14 f8 c2 e2 7f a5 3f
       0.12976706001071978 0.04199131612771394
000090 d4 c3 d9 95 ed bd 9b bf 2b c3 28 a1 3a 19 86 bf
       -0.02709170558086156 -0.010790308039845783
0000a0 7b 3a 19 02 95 e7 d4 bf d3 8e 30 ab de 00 d3 3f
       -0.3266346474164618 0.29692808835737344
0000b0 50 9a 88 eb 33 1e a5 3f a6 c7 2b 60 59 41 c8 3f
       0.041246054174099656 0.18949429698801373
0000c0 2a c0 07 8f ba b6 bf 3f 64 b5 9a 64 70 9b ab 3f
       0.12388196937513443 0.05392028072433666
0000d0 85 f4 dc d4 af c7 d0 bf 1c 86 71 ef 23 42 d3 3f
       -0.26218791758930876 0.3009118879618613
0000e0 3b 64 99 e0 04 22 97 3f 5a 85 2e da b2 95 eb 3f
       0.022590709885069265 0.8620237599717868
0000f0 09 b2 c9 21 ea 5d 84 3f 04 c5 ca 4d d4 28 b5 3f
       0.009944752842067766 0.08265425585956981
000100 ff 83 17 9f 86 d9 c0 bf cf 25 bf 4d 17 6a ba 3f
       -0.13163836258084413 0.1031813206492622
000110 2e 25 57 fc d6 91 c0 bf 79 9b 06 f7 a1 09 bf bf
       -0.12945067712124952 -0.12124073296454964
000120 fd e3 d5 ac c2 c8 d3 bf 96 44 5d 25 f3 5f 8a 3f
       -0.30912844541995793 0.012878322198647301
000130 31 39 9e 94 e6 e2 ad bf d8 b1 e4 38 4b b1 df bf
       -0.058371739999630974 -0.4951961570357333
000140 0e 11 41 bb 1b ed d9 bf 00 8c 06 0a 43 7c d5 3f
       -0.4050969437269182 0.33570934275684294
000150 0f bf 67 b4 10 e9 d8 3f 0e 90 6d bf ff b2 d0 3f
       0.389225174119006 0.2609252328313695
000160 2a ad 80 18 c5 39 cc 3f 70 03 f2 9e f9 7f cc bf
       0.22051299759309845 -0.2226554895496764
000170 21 f9 4e c9 ef e9 c1 3f f8 05 ad 4f d2 82 cb 3f
       0.13995168046489773 0.21492985620902494
000180 4c 9b 16 af a2 6b dc bf ac 2a 18 85 dd eb ce 3f
       -0.44406954859225745 0.24157303808927588
000190 13 9c a4 b8 e6 65 d6 bf 5c b8 ad 96 be 3f d1 bf
       -0.34996955901664356 -0.2695156547041557
0001a0 9f 44 ba 99 6f 2d ab 3f fe 3a de ab c5 32 bf bf
       0.053081023707940427 -0.12186847158430322
0001b0 30 62 db 25 cb fa c2 3f 35 bb 95 c9 58 91 b6 bf
       0.14827861164555278 -0.08815531655794191
0001c0 bc 2d 82 1a 9f fe dd 3f a2 6c c3 cf 8f f2 c7 3f
       0.46866586292955126 0.18708989758201705
0001d0 02 2e d3 f0 92 1b d5 3f a5 44 62 bd 94 15 d8 bf
       0.3298079826169841 -0.37631720060842105
0001e0 59 a6 bb c1 73 a9 d1 bf 94 ce 6d 8e 53 f7 ca bf
       -0.27596753997076956 -0.21067280249154818
0001f0 46 c9 0c 44 08 1a d5 bf bc fe 42 f4 b1 6f a5 bf
       -0.3297138847875839 -0.04186779123983572
000200 38 1c d5 51 bf f1 a8 bf 6e 76 7b ec 0a 51 d0 bf
       -0.04871938585215968 -0.254946452083323
000210 a7 97 05 21 a0 97 d4 bf 2c 69 40 c6 0d cd bb 3f
       -0.3217544863203962 0.10859762277724333
000220 a9 25 5b 08 dc 21 c6 bf d4 89 1e 47 85 43 c5 bf
       -0.1729083100129121 -0.16612306568738566
000230 96 d4 bd b3 a5 b3 a9 bf 53 19 c0 85 ea 4b bb 3f
       -0.050198724928955205 0.1066271378077535
000240 cf 21 96 85 f4 c7 d5 bf e5 f7 31 ff 3b 7b e0 3f
       -0.3403292946391305 0.5150432571679145
000250 a8 74 09 ba a8 87 b9 3f 51 4d 1c 7a 9c b6 c7 3f
       0.09972624341885938 0.18526035273007804
000260 ca c2 4b f4 c6 d1 c7 3f bf 5f df ac b2 be db bf
       0.18608939102661842 -0.4335142791946928
000270 74 c3 0b 6a a1 43 b0 bf fc 41 0a 6d bd 2c c2 3f
       -0.0635319599057434 0.14199035476896416
000280 3f e2 79 ca 9a c5 c6 3f 3d bb 16 d9 17 b5 af 3f
       0.17790541540650115 0.06192850613603305
000290 db 9f c0 36 da 4d d3 3f 1e 5b 06 fe 44 6a ca bf
       0.3016267332736768 -0.2063680878024678
0002a0 a9 c3 d3 42 bc de b7 3f 9b 51 bf bb cf 8c c0 3f
       0.09324242240451376 0.12929722468710456
0002b0 fc 2a 79 7b 21 f4 d0 3f f3 7a 30 11 77 73 dc bf
       0.2649005609315933 -0.44454743078851705
0002c0 95 da f9 f6 6c 8c bd bf ce 3b a4 d7 20 3e dd bf
       -0.11542397527396482 -0.4569170099138632
0002d0 20 52 69 3b 08 6f d2 3f fa d1 16 14 23 0c b9 3f
       0.28802686502356956 0.09784144630868488
0002e0 57 0a e7 bc e4 46 d0 3f e9 be 89 63 0d d9 de 3f
       0.2543269963026992 0.4819978210498293
0002f0 d1 3f 10 20 74 23 bf 3f f5 27 62 48 57 6a 85 3f
       0.12163472922134068 0.010456735512224905
000300 96 d9 ab e8 29 49 bf bf 77 51 6e ed 67 ee ab 3f
       -0.12221013956500423 0.054553268178241625
000310 0c d1 c4 65 23 b5 d0 bf 20 93 e9 49 c4 3c b0 bf
       -0.26105580271111317 -0.06342722706319792
000320 2c f9 98 cc 49 e9 bf bf 9f 57 f3 c7 d8 a6 b8 bf
       -0.12465344662721084 -0.09629588014226308
000330 64 8d 1f 2e 23 d3 d8 bf 6f 61 19 42 af 75 db 3f
       -0.3878868055746436 0.4290578980922168
000340 9b f7 20 e2 b0 94 b4 3f 0d d0 bf 15 0a cb 93 bf
       0.08039384384843944 -0.01932922132250785
000350 fb 8b 59 79 f6 fa ca bf 0e c1 f7 cf d4 bc d3 3f
       -0.21078377652437993 0.3084003477988667
000360 16 d7 86 4f 3e 0c ce 3f 2f 32 96 6d bf d2 cf bf
       0.2347486389459667 -0.2486190114108395
000370 a5 d4 c7 b0 d2 85 b3 bf dd f5 b8 74 68 91 d8 bf
       -0.07626072708065353 -0.38387500189477725
000380 c4 e2 85 ec 17 64 bc bf 6c e1 f2 63 5f 33 ce 3f
       -0.11090230488288016 0.23594276790914692
000390 f8 68 58 33 c0 d7 b1 3f 5e 16 c2 bd 5d 16 c0 3f
       0.06969834569500566 0.1256825615457044
0003a0 5e c2 46 64 a8 f0 de 3f 2a 83 2a 6f 87 55 ba 3f
       0.48343858521096716 0.10286756958022339
0003b0 8d 4b 5a 7b ad 12 d1 3f 0a e7 55 b9 ca ab d8 3f
       0.266764994107853 0.3854853448789163
0003c0 34 15 d3 e7 d4 4d cd 3f 3a d9 91 34 76 96 b2 bf
       0.22893773383672456 -0.07260836394730044
0003d0 81 b3 39 ef 2f ff d9 3f 49 9f bf 5a be 7c c2 bf
       0.4062003933129788 -0.14443187171058927
0003e0 db 4a 82 cb f2 3b d0 bf a2 58 1e 55 18 84 93 bf
       -0.25365896104737623 -0.019058590121482262
0003f0 97 d6 91 58 ff 76 b0 3f 12 7c 03 b8 8d a8 96 3f
       0.06431575691552847 0.022127355915355258
000400 f7 0a b4 73 21 39 87 3f 63 e6 62 85 2e c8 e4 3f
       0.011339436858639014 0.649436245460674
000410 61 aa 8e a6 4a 13 bd 3f cd bf 3e 4f a6 c3 91 bf
       0.11357561651554128 -0.017347906672227787
000420 bb 60 55 c1 e7 a8 d8 3f 30 32 77 7b b0 cd e0 3f
       0.3853091609976322 0.5251085673749625
000430 8a 71 b3 5b c7 8c a2 3f 6a c2 50 d4 c8 2b c1 bf
       0.0362303065719259 -0.1341486965843786
000440 61 12 d6 32 87 f3 d2 3f 76 e0 8c 65 f0 91 a7 bf
       0.2961137768218461 -0.04603530158641515
000450 2b 54 70 2b 32 e0 d3 3f f3 c4 21 79 53 53 e8 bf
       0.3105588363844755 -0.7601716390473982
000460 70 87 27 67 fd 03 ca 3f 69 1c 81 09 4c ad d0 bf
       0.20324676071964687 -0.2605772106948679
000470 ef aa 67 f8 d4 58 bd bf 33 63 df 24 28 df b5 3f
       -0.11463671745847724 0.08543635273180143
000480 7f aa 54 0d 80 9c c8 bf da 32 71 a3 55 93 d7 bf
       -0.1922760071841658 -0.36836758576536754
000490 49 5a 4c ab ac 9d ad 3f 4a 47 4c a9 29 17 c5 bf
       0.05784358588259814 -0.16476937071325387
0004a0 fb a1 86 cf 38 a3 a3 3f fe a3 aa e5 b5 36 7a bf
       0.03835465939784296 -0.006399832282718341
0004b0 f2 12 f2 e6 9f c0 b9 3f d3 ef 36 d7 3e 40 ce 3f
       0.10059546840973235 0.2363356161930584
0004c0 6d 76 24 43 14 7f e0 bf f6 d9 ec cb 85 98 c7 3f
       -0.5155125914931894 0.18434212167058178
0004d0 89 75 c2 45 44 17 b7 3f f2 2a 13 44 c0 66 d0 bf
       0.09019877150645618 -0.25627142570435446
0004e0 20 31 d8 91 5c 84 ac bf 21 ba a8 ab f2 44 cc bf
       -0.055697338870319024 -0.22085412389556416
0004f0 ea 7b ff 69 7a 7e d1 bf 05 5c a6 4b 26 d2 df 3f
       -0.27334461547246625 0.4972015131729111
000500 cf 24 49 b4 ac 82 c4 3f 6f 36 17 78 1b 17 d5 3f
       0.16023787310613222 0.32953535773854176
000510 09 ce 74 e0 af 7a d3 3f f7 9e 94 22 a8 53 ce 3f
       0.30436322135503296 0.23692800224784324
000520 41 44 20 1f ad 8d c0 bf 0a 5a cd 7a 45 79 a1 bf
       -0.12932361621690983 -0.03412835239457841
000530 5d e6 05 2c e4 2b d8 bf a3 68 26 11 b1 38 b1 bf
       -0.377678912154442 -0.06727129620267873
000540 b1 76 3e 96 43 93 a6 3f 3b 5e e6 e3 1b 68 a5 3f
       0.044092285242397174 0.0418099132249918
000550 ee f0 01 6c be 08 d2 3f e1 07 43 f3 23 ab 90 3f
       0.28178368136992915 0.016277848932766296
000560 2a 06 94 2d 5f a5 d0 bf 03 f1 30 60 dd 34 c1 bf
       -0.26009349299428897 -0.1344258041079983
000570 11 f2 f6 47 15 4c c1 bf 61 b0 aa 8c 6e d1 bc 3f
       -0.13513437284372334 0.11257067617651863
000580 2d 25 f0 d4 f5 59 cc bf 57 c5 1c 81 76 fe d3 3f
       -0.22149536988607946 0.3124061833251139
000590 48 7d fe d8 70 30 da 3f 9d dc f1 64 bf 8a ab bf
       0.40920659247236246 -0.05379293544040673
0005a0 13 18 33 4d e9 ba d5 bf 44 c5 77 5f de e5 cc bf
       -0.33953316248914794 -0.22576503430858896
0005b0 ef 7f f4 32 8f 29 cf bf 4d 57 af a9 f1 ef da bf
       -0.24345579135933756 -0.4208950192527155
0005c0 7a bd 66 51 a2 1a e6 bf 10 4b 74 6e d8 c5 d8 3f
       -0.6907512273664189 0.3870755270628914
0005d0 77 50 14 1e 8b 69 bc 3f e4 19 5c 35 63 13 d4 3f
       0.11098546490058135 0.3136833211032395
0005e0 27 b5 e3 39 6f e5 c3 bf 05 1a 60 3a c5 da ac 3f
       -0.15543928457865627 0.05635658586111351
0005f0 aa 31 91 11 2a 9a 55 bf 34 83 a1 ba e3 0a c4 bf
       -0.001318493921888745 -0.15658232319676701
000600 82 db d8 89 aa d3 70 bf 7e 7f d9 83 cf 3f ce 3f
       -0.0041081105860517626 0.23632234514206724
000610 31 c7 36 a2 c4 89 d7 bf ae 13 00 9b bd 37 b0 3f
       -0.36778369752129253 0.06335053476511973
000620 df f8 8a 20 92 cb cf 3f 34 f2 be bc a9 ce dd 3f
       0.24839998806959948 0.4657387107106701
000630 6b d5 9a a7 84 49 bc 3f 51 79 be c5 ce 51 e4 bf
       0.11049679843821074 -0.6349862920940642
000640 79 d6 e7 31 69 3a e2 3f dd a8 17 4d ae 59 cb bf
       0.5696302389830655 -0.21367434276846256
000650 b1 ec 59 9a 2d 97 d4 3f d3 b1 b1 af f1 66 d9 3f
       0.32172718118062976 0.3969082084429633
000660 0f 43 69 ed 3f e0 c8 bf dd cd 36 2f 42 be d4 bf
       -0.19434355823843716 -0.32411245928525806
000670 29 17 ce c2 d5 f8 c3 3f 50 73 da 97 04 ee d8 bf
       0.15603134166684043 -0.38952746228624324
000680 74 6d ca 5a 05 78 cd bf 55 c8 31 25 35 6b d1 3f
       -0.23022524769917718 0.2721684325434855
000690 e4 c1 63 cd 76 cf d3 3f 93 bd f8 b5 72 62 88 3f
       0.30953760202012703 0.01190652482827551
0006a0 31 69 20 86 55 93 ad bf dc e7 35 d0 98 b5 b5 bf
       -0.0577646948078886 -0.08480219920411919
0006b0 73 df 43 8a 02 de c4 bf c5 23 e2 4a ef 6b 91 bf
       -0.16302520514704674 -0.017013300843732333
0006c0 58 c6 f5 d1 ef 5f c7 3f 00 e2 dc 25 74 ab d1 bf
       0.1826152587123484 -0.27608970353642803
0006d0 1f b2 9f ac 45 ea ca bf 67 8b 1e 01 0c 67 97 bf
       -0.21027441910645536 -0.022854030197446387
0006e0 92 b9 2c 02 9e 42 d6 bf 9d c1 12 0e ff b0 d9 3f
       -0.3478159924733514 0.40142799734442197
0006f0 a9 68 2e d7 0e 2a e5 bf 92 21 0e 84 ea 60 bb bf
       -0.6613840296515906 -0.1069475719833746
000700 70 fc c5 99 27 63 c1 bf c9 14 53 08 13 2f d5 3f
       -0.13583846100297903 0.33099819004958114
000710 a0 61 09 5f 36 2f c7 3f 8e f0 de 9b f3 a8 c2 bf
       0.1811283077283976 -0.14578099356538526
000720 18 1e 7d 6b 96 ac d5 3f d8 25 f1 7a 0d 33 d0 3f
       0.3386589097685557 0.2531160069089231
000730 b4 b4 42 64 13 31 b1 3f 7e 86 32 ff d7 bd ce 3f
       0.06715508649604623 0.24016857109841178
000740 67 a1 1d 0b da ac c4 bf 74 90 cc f5 84 8f c3 bf
       -0.16152501623879376 -0.15281736375721133
000750 1e f0 58 f2 70 e7 bc 3f c4 9a 9b 34 12 0a c2 bf
       0.11290651241955671 -0.1409323460458919
000760 9a 8e f9 37 a0 b1 bb 3f 66 6d df 5f 58 19 b9 3f
       0.10817910543988277 0.09804298725741986
000770 97 fc 35 c8 1e 01 b2 bf 09 4f 86 2e b0 cf dc bf
       -0.07032959354363509 -0.4501762823431226
000780 d8 4f de 2b 65 22 da 3f ac f4 0c 51 65 5f d0 bf
       0.4083493164446259 -0.25582249560450054
000790 06 2b b9 4a 96 0c af 3f 56 7b 04 94 99 3e 84 3f
       0.060642906781671654 0.009885024861942131
0007a0 86 d3 37 7a a2 ea cf 3f a3 99 9d 88 fd be aa bf
       0.24934798209838166 -0.0522383908526536
0007b0 8a dd 53 12 4e 38 42 3f 7b e3 9a a0 24 70 d1 3f
       0.0005560284813829624 0.272469670143941
0007c0 ef 90 79 ba fb e5 d5 bf 7b bd f2 75 0d 8f cf bf
       -0.34216206751285844 -0.24655311831655155
0007d0 44 d9 68 01 d7 32 d0 3f ff e8 5a 3a d2 07 d4 3f
       0.25310301911976674 0.3129773683427998
0007e0 ac e1 2d 77 05 f5 cf bf c6 63 dc bd d5 49 d6 3f
       -0.24966495818422396 0.34825652638533844
0007f0 18 88 4a 38 f9 2b 8a 3f 22 c7 31 e0 45 b8 c1 bf
       0.012779185324067341 -0.13843606421465277

hidden_layer2.bias f8 [40]
000000 17 b4 a7 53 d9 8f 7e bf e3 e7 79 08 e7 92 7c 3f
       -0.007461403782582663 0.006976034615599122
000010 6d 94 e9 9e 23 ea 8c 3f d6 0d 91 ce 9e ea 71 bf
       0.014118459975359177 -0.0043741420168461245
000020 ef c4 f6 83 05 7d 95 3f 4f 86 1d 7a 22 90 72 bf
       0.02098473184532151 -0.004531988788444587
000030 2c 2c 59 06 db 05 73 3f d0 57 a8 2f 60 68 a3 bf
       0.004644256177537758 -0.037905698602272886
000040 7c 84 df ef 1a f1 4b 3f f2 30 e8 9e f1 fb 8c bf
       0.0008527165916768632 -0.01415241972156209
000050 92 b0 52 2a 0b 4c 57 3f 8e 87 fd 7c 36 bd 90 3f
       0.0014219388042802411 0.016346789721303483
000060 c2 03 8f 60 5b 76 8e 3f be 2d 04 b0 25 d1 8e 3f
       0.014874185451732806 0.01504735415848912
000070 71 34 b9 0a 64 0a 60 3f 8f a0 8a 64 01 dd 87 bf
       0.001958079714120369 -0.011652003174575291
000080 64 b8 1b fb 17 fc 91 bf 41 ef b8 da 9d 0f 79 bf
       -0.01756322355407071 -0.006118408793152786
000090 5a 7f b7 28 29 b9 76 3f 04 3d 1e a2 24 e1 8a 3f
       0.005547676827944626 0.013124738881542537
0000a0 7f b0 28 79 6d 53 90 3f 08 d6 4b 2f dc 93 b3 bf
       0.015943251151995682 -0.07647491602605083
0000b0 c7 ad c6 38 f6 5d 99 bf a6 67 50 9e 78 d1 9f 3f
       -0.024772498336160156 0.031072506582951263
0000c0 50 74 63 9d 6c bf 78 3f 1b fd 10 ac 3e 56 6b bf
       0.0060419314160898435 -0.0033370231690522784
0000d0 88 a8 79 1c 54 1e 73 bf 3f c8 03 0c 30 ca 76 3f
       -0.00466759544324636 0.005563914950686365
0000e0 2c cc 11 32 d2 6b 8b 3f 4d 45 e5 e4 78 00 7f bf
       0.013389246132851161 -0.007568809740705018
0000f0 df 8f 15 99 f5 7f 9d 3f 21 b5 88 37 e4 79 94 3f
       0.028808438747901618 0.019996229066397867
000100 48 e9 b4 20 1d 4c 9f bf cb 0d 03 7b 64 74 8d 3f
       -0.030563788529641728 0.014382157329584274
000110 86 8c 10 a2 1c f4 98 bf 9f 38 6b 7e fc 4d 07 bf
       -0.024368712798729784 -4.445006179808305e-05
000120 8f 96 3d 56 81 a5 66 bf 9d 1a a0 2a d9 8d 84 bf
       -0.002764465914810561 -0.010036179173778687
000130 37 db 3a 97 a5 7c 77 bf 54 fb b8 d1 17 50 97 3f
       -0.0057341068638184145 0.02276646821541857
