net_param/net_747171456.00000000.pth (torch, 732063 bytes, 13 tensors)

weight f4 [200, 100]
0	0xbdd4f4ea	-0.10398276
1	0xbe55173c	-0.20809644
2	0x3e06f0be	0.13177773
3	0x3e8829d7	0.2659442
4	0xbe1c21f7	-0.15247332
5	0xbced11c6	-0.02893914
6	0xbde67728	-0.11253196
7	0xbe0ad439	-0.13557519
8	0x3e32ceb1	0.17461659
9	0xbe19b2a2	-0.1500955
10	0x3d213880	0.039360523
11	0xbd9d2a15	-0.07674042
12	0x3b4b054c	0.00309785
13	0xbd9acdf8	-0.07558817
14	0x3e271bc5	0.16319187
15	0x3d969007	0.0735169
16	0x3ce954da	0.028482843
17	0xbe300acd	-0.1719162
18	0xbe4daec1	-0.20086195
19	0x3df5d217	0.12002962
20	0xbe4a8b23	-0.19779639
21	0x3b7e6c0c	0.0038821725
22	0xbe75dfda	-0.24011174
23	0x3e92896d	0.28620473
24	0x3df88da9	0.121363945
25	0xbd4960cf	-0.04916459
26	0xbe44bbc9	-0.1921226
27	0x3dedb19d	0.11606143
28	0x3cfd6ce1	0.030935707
29	0xbe486185	-0.19568451
30	0xbdc98a09	-0.09840781
31	0xbd832009	-0.064025946
32	0xbeaa64b8	-0.33279967
33	0x3d40b9c0	0.047052145
34	0xbe105754	-0.14095813
35	0xbd692483	-0.056919586
36	0x3d88772c	0.06663355
37	0x3e3c9487	0.18416034
38	0xbd063a00	-0.032770157
39	0x3caf11d1	0.0213708
40	0x3d1b401f	0.037902948
41	0xbc81a9ff	-0.01582813
42	0x3e716e09	0.23577131
43	0xbdfa5f5e	-0.12225221
44	0x3dae4bda	0.08510561
45	0x3e64f9bb	0.2236089
46	0xbe6db4c2	-0.23213485
47	0x3d355eda	0.04427991
48	0xbd8b0fdc	-0.06790134
49	0xbcf06b03	-0.029347902
50	0x3e4b01ab	0.19824855
51	0xbdd13336	-0.10214846
52	0x3ea7a69a	0.32744294
53	0x3d843ada	0.064565375
54	0x3ccabf84	0.024749525
55	0x3e2f78c1	0.17135908
56	0x3d62c51a	0.055363752
57	0xbdb723fc	-0.0894241
58	0x3dd3153b	0.10306784
59	0xbe1571d7	-0.14594208
60	0x3dedeac8	0.116170466
61	0x3e963a43	0.29341325
62	0x3d147e76	0.036253415
63	0xbd107c7a	-0.03527496
64	0x3e3a1236	0.1817101
65	0x3e168703	0.1469994
66	0x3cb97bfa	0.022642124
67	0xbe472177	-0.1944636
68	0x3d4194f6	0.0472612
69	0x3d8183b1	0.06323946
70	0x3e82b222	0.2552653
71	0xbdefa58e	-0.11701499
72	0xbd2eb1c3	-0.042649996
73	0x3e48ae7f	0.19597815
74	0x3e982bc4	0.2972089
75	0x3dad2276	0.084538385
76	0xbd515bb6	-0.051112853
77	0xbe9c8a32	-0.30574185
78	0xbb6ec782	-0.0036434834
79	0x3decc6c8	0.11561352
80	0x3e2aa295	0.16663583
81	0x3cb8e048	0.022567883
82	0xbe81b414	-0.253327
83	0xbe1ae57e	-0.15126607
84	0x3dcf0e79	0.10110182
85	0xbd8244dc	-0.0636079
86	0xbe703266	-0.23456725
87	0xbdea7be6	-0.11449413
88	0xbe3c6430	-0.18397593
89	0xbdd117a5	-0.10209588
90	0x3c9030ba	0.01760136
91	0x3e74e5aa	0.23915735
92	0xbd650412	-0.055912085
93	0x3db5d734	0.08878937
94	0x3daa4a28	0.083149254
95	0xbd0f01b1	-0.034913722
96	0xbcd5e3eb	-0.026109656
97	0x3d738850	0.05945617
98	0x3e0062ce	0.12537691
99	0xbc9a41c0	-0.01883018
100	0xbe70ca03	-0.23514561
101	0x3e6d5804	0.23178107
102	0x3dfac4af	0.12244546
103	0x3dbe2099	0.09283561
104	0x3d6f15fb	0.05837057
105	0xbdb2edc1	-0.08736754
106	0x3e963963	0.29340658
107	0x3d9c158f	0.076212995
108	0x3de94699	0.113904186
109	0x3d513ce9	0.05108348
110	0xbe5e7a2b	-0.21726291
111	0x3e11642f	0.14198373
112	0x3d834b68	0.06410867
113	0x3e038023	0.12841849
114	0xbc9bbae9	-0.019010024
115	0xbe5ff687	-0.21871386
116	0x3dac5f01	0.08416558
117	0x3e559ec6	0.20861349
118	0xbdc9fe13	-0.09862914
119	0x3e147033	0.14495926
120	0x3d62d7b5	0.055381496
121	0x3e133afc	0.1437797
122	0x3d93739b	0.07199784
123	0xbe36caf7	-0.17850862
124	0x3e558c68	0.20854342
125	0xbd8fa6ac	-0.07014212
126	0x3e0aa5b0	0.13539767
127	0xb9a50546	-0.00031475181
128	0xbd93c0b3	-0.07214489
129	0x3d20b1bd	0.039232004
130	0x3dc9745c	0.09836647
131	0xbbb9f55c	-0.005675001
132	0xbe519d04	-0.20470053
133	0x3e50e1a0	0.20398569
134	0x3e587850	0.21139646
135	0xbec87666	-0.3915283
136	0xbdffb3fd	-0.12485502
137	0x3e97c45b	0.29641995
138	0x3e82d5d8	0.25553775
139	0x3d007c56	0.031368576
140	0x3e7a8027	0.24462949
141	0x3e2ed154	0.1707204
142	0xbd60dbc8	-0.0548971
143	0xbe45d766	-0.19320449
144	0xbe534f3f	-0.20635699
145	0xbdfa5a78	-0.12224287
146	0xbdcfd7bc	-0.1014857
147	0xbd2e625b	-0.042574268
148	0xbdf16279	-0.1178636
149	0xbd2e00bc	-0.04248117
150	0x3dd8ddd6	0.10589187
151	0xbe0f0c21	-0.1396947
152	0xbe37d9ac	-0.17954129
153	0x3c441e3b	0.011970098
154	0xbe375124	-0.17902046
155	0xbd62d956	-0.05538305
156	0x3daeb344	0.08530286
157	0xbe34a11c	-0.17639583
158	0x3e802629	0.25029114
159	0x3dc52802	0.096267715
160	0xbe26558a	-0.16243568
161	0xbe4384d2	-0.19093636
162	0x3d5c0442	0.053714998
163	0x3dde8441	0.10865069
164	0x3d63da64	0.055628195
165	0xbd47f09a	-0.04881344
166	0x3e83856d	0.25687733
167	0x3d0b1b6a	0.03396169
168	0x3d43aaa5	0.04777016
169	0xbe3aa3c0	-0.18226528
170	0x3c2e8d6c	0.010653835
171	0xbe3c2fa4	-0.18377548
172	0x3cd57ac8	0.026059523
173	0xbd22a854	-0.03971131
174	0xbd38c338	-0.04510805
175	0x3d05c791	0.032661024
176	0x3e40945d	0.18806596
177	0x3e443bfc	0.19163507
178	0x3e10c880	0.14138985
179	0x3e10a051	0.14123656
180	0x3cf8677b	0.03032278
181	0x3e486e20	0.1957326
182	0xbe41e442	-0.1893473
183	0xbda1585b	-0.078781806
184	0xbd58c704	-0.05292417
185	0x3e0ed4e3	0.13948397
186	0xbe89dce3	-0.26926336
187	0xbe3873d6	-0.18012938
188	0xbe48ae8d	-0.19597836
189	0x3e6cda95	0.23130257
190	0xbc5859ac	-0.013204973
191	0xbdd18861	-0.1023109
192	0xbc92118b	-0.01783063
193	0x3e1a5442	0.15071204
194	0x3da3d5f5	0.079997934
195	0x3d8301c3	0.063968204
196	0x3db6b659	0.08921499
197	0xbe39bf29	-0.18139328
198	0xbdb140ed	-0.08654962
199	0x3e4f664c	0.20253867
200	0x3daaa96a	0.083330944
201	0x3dd2d2b9	0.102940984
202	0x3dc7dab2	0.0975851
203	0xbd3d0216	-0.046144567
204	0xbe298bc3	-0.16557221
205	0xbd9a031c	-0.07520124
206	0xbdec8fff	-0.115509026
207	0xbe0b34ac	-0.13594311
208	0xbdb76b06	-0.0895596
209	0x3d461914	0.04836376
210	0xbe668a57	-0.2251371
211	0x3e02ec25	0.12785394
212	0xbe7a3597	-0.24434505
213	0xbc8e83c9	-0.017396824
214	0x3e5d3958	0.21603906
215	0xbd9ab1d7	-0.075534515
216	0xbcbb08c0	-0.02283132
217	0xbe0ba99c	-0.1363892
218	0xbe6f19fa	-0.23349753
219	0xbc03e867	-0.0080510145
220	0x3d1e36ae	0.038626365
221	0xbe0f9ca1	-0.14024593
222	0xbd9009f1	-0.07033146
223	0x3e32cc33	0.17460708
224	0x3c974068	0.018463328
225	0xbe60941b	-0.21931498
226	0xbd6e33cc	-0.058154866
227	0xbe1da672	-0.15395525
228	0xbe298aca	-0.1655685
229	0xbe1232cd	-0.14277191
230	0x3deb253f	0.114817135
231	0xbe371465	-0.17878874
232	0x3e406c5e	0.18791339
233	0xbe3b9e0d	-0.1832201
234	0xbd32b805	-0.043632526
235	0xbd07860a	-0.033086814
236	0xbe6d4dbc	-0.23174185
237	0x3e3c0082	0.18359569
238	0xbe42189c	-0.189547
239	0xbdaab190	-0.083346486
240	0x3e3cfe77	0.18456446
241	0xbd9422fa	-0.07233234
242	0xbda6f295	-0.081517376
243	0x3e309091	0.17242648
244	0xbd122b8a	-0.035686053
245	0xbe3b4d42	-0.1829119
246	0xbe3cd88e	-0.18441984
247	0xbc4dd6ae	-0.012563391
248	0xbe04c6af	-0.12966417
249	0x3cf02660	0.029315174
250	0x3dbe648c	0.092965215
251	0xbe5e8dce	-0.21733782
252	0xbb278f8d	-0.002556774
253	0xbe3e2a27	-0.18570767
254	0xbe21cc9e	-0.15800712
255	0x3e05918f	0.13043807

bias f4 [200]
0	0xbb9e81e5	-0.004837262
1	0x3d9ac7db	0.07557651
2	0xbd0d3675	-0.034475762
3	0x3d3510bb	0.04420541
4	0x3c165550	0.0091756135
5	0x3aab84ec	0.0013085878
6	0xbbe33bcd	-0.006934619
7	0x3da0d609	0.07853324
8	0x3de5be0c	0.11217889
9	0x3c2866b9	0.010278397
10	0x3d8dfce5	0.069330014
11	0x3c183271	0.00928937
12	0xbd8b8af8	-0.068136156
13	0xbc359065	-0.01108179
14	0xbd3e82aa	-0.04651133
15	0x3d7ee13e	0.062226526
16	0x3d6053ce	0.054767422
17	0xbd9b9cb1	-0.07598246
18	0xbdaecf78	-0.08535665
19	0x3cc09411	0.023508104
20	0x3d054ac4	0.032542005
21	0x3c952921	0.018208088
22	0x3da6145d	0.08109353
23	0xbcc6c98d	-0.024266029
24	0xbc6335ca	-0.013867805
25	0x3cab6f75	0.02092717
26	0xbcbdc660	-0.023165882
27	0xbb33eef0	-0.002745565
28	0xbbc83312	-0.0061096037
29	0xbe0ff579	-0.14058484
30	0xbca000d9	-0.019531654
31	0x3d77f8a1	0.060539845
32	0xbc765271	-0.015034304
33	0xbb2a89ca	-0.002602207
34	0x3dfd47db	0.12367221
35	0xbdba1304	-0.09085658
36	0x3c244107	0.010025269
37	0x3ce21778	0.027599081
38	0x3c6e265c	0.014535513
39	0xbde4d2f8	-0.111730516
40	0xbd438ff1	-0.047744695
41	0x3db20da8	0.08694011
42	0xbd7c8553	-0.061650585
43	0xbdca15fa	-0.09867473
44	0xbde4311e	-0.11142181
45	0xbce10d67	-0.027472211
46	0x3d1a2cd2	0.0376404
47	0x3de13406	0.10996251
48	0x3da359bd	0.079761006
49	0xbdd1ed59	-0.102503486
50	0xbdbc3c93	-0.09191241
51	0x3d01e07f	0.031708237
52	0xbc9c30fb	-0.019066324
53	0x3b5c7e86	0.003364475
54	0xbd380c61	-0.04493368
55	0x3d2fd3c0	0.04292655
56	0xbd4aeaa0	-0.049540162
57	0x3d5e98ab	0.054344814
58	0x3e189656	0.14901099
59	0x3d4df02a	0.050277866
60	0x3d01de2e	0.031706028
61	0x3e0d3a22	0.13791707
62	0x3d3fb9e0	0.046808124
63	0x3dee9540	0.11649561
64	0xbd3d83f5	-0.046268422
65	0xbc417e3d	-0.011809883
66	0x3d510762	0.05103243
67	0xbc834dac	-0.016028248
68	0xbbd85b7b	-0.006602702
69	0x3dbc8b45	0.09206251
70	0x3d3651f0	0.044511735
71	0xbc60ae6b	-0.0137134595
72	0x3d502f4b	0.050826352
73	0xbd38dd7f	-0.04513311
74	0xbc52a39c	-0.01285639
75	0x3ce6c776	0.028171282
76	0xbc9a345a	-0.018823791
77	0x3de07422	0.109596506
78	0xbe0ae0eb	-0.13562362
79	0xbe22dd1c	-0.15904659
80	0x3deb9e1f	0.115047686
81	0x3e0b8664	0.13625485
82	0x3d3064ee	0.043065004
83	0x3dc5fd02	0.09667398
84	0xbbc1080e	-0.005890853
85	0xbd155f6e	-0.036467962
86	0x3c9ef20e	0.01940253
87	0x3d7a57d3	0.061118912
88	0xbd802f12	-0.06258978
89	0x3d2afa04	0.04174234
90	0xbd59a05d	-0.05313145
91	0xbd8109cb	-0.06300696
92	0x3ca64c04	0.020299919
93	0x3daf04eb	0.0854586
94	0xbd70cbd3	-0.058788132
95	0x3e46540b	0.19367997
96	0xbd494429	-0.04913727
97	0x3cba82b3	0.0227674
98	0x3d4a057b	0.049321633
99	0x3d05b654	0.032644585
100	0xbb310e44	-0.002701656
101	0x3dc2632d	0.094915725
102	0xbc786b14	-0.015162248
103	0xbdae3098	-0.08505362
104	0x3df8743c	0.12131545
105	0xbc8a5bcd	-0.016889477
106	0xbdddb08a	-0.10824688
107	0xbdaf8f72	-0.08572282
108	0xbd06fb71	-0.032954637
109	0x3c28f162	0.010311456
110	0x3df8f276	0.12155621
111	0x3dc8b401	0.09799958
112	0xbcde08fb	-0.027103892
113	0xbe2a0859	-0.16604747
114	0xbcaa8a47	-0.020817889
115	0xbc2e84ed	-0.010651809
116	0xbd30a18d	-0.043122817
117	0x3dce9205	0.10086445
118	0x3e209c60	0.15684652
119	0xbe1a8e34	-0.15093309
120	0x3e043e09	0.1291429
121	0x3d546d41	0.051862005
122	0x3d80c4d4	0.06287542
123	0x3d7a26b2	0.06107206
124	0x3c9e8adf	0.019353328
125	0x3d3501ec	0.044191286
126	0xbd2bbb52	-0.04192669
127	0x3c9ada09	0.018902795
128	0x3d7c2c5c	0.061565742
129	0x3d4b0703	0.049567234
130	0x3d85907a	0.06521697
131	0x3b96eccf	0.0046058665
132	0x3d884c93	0.066552304
133	0xbbed8aec	-0.007249227
134	0xbd798cc4	-0.06092526
135	0xbba8ab43	-0.005147369
136	0xbd3a7986	-0.04552605
137	0xbe0d4635	-0.13796313
138	0xbd14cc23	-0.036327492
139	0xbd824fbf	-0.063628666
140	0x3dde049e	0.108407244
141	0x3e05e211	0.13074519
142	0xbd37bf33	-0.044860076
143	0x3d5af7bf	0.053458925
144	0xbdab5273	-0.08365335
145	0x3d0f7750	0.035025895
146	0xbc46aee9	-0.012126663
147	0x3e01b36d	0.12666102
148	0xbd5ef7bf	-0.054435488
149	0x3d313a57	0.043268528
150	0xb7833803	-1.56425e-05
151	0x3d8583d3	0.06519284
152	0xbd9f66b3	-0.0778326
153	0x3c6efcbb	0.014586623
154	0x3dd3fc97	0.10350912
155	0x3d282287	0.041048553
156	0xbdca5852	-0.09880127
157	0x3d561cd3	0.052273583
158	0x3caf27fc	0.02138137
159	0x3e0aa2ea	0.1353871
160	0xbd136ada	-0.035990573
161	0xba948317	-0.0011330572
162	0x3e0855e2	0.13314012
163	0xbb839d0e	-0.004016525
164	0x3c4d559b	0.012532617
165	0x3d6287b5	0.0553052
166	0x3d86424f	0.06555616
167	0xbe13dd51	-0.14439894
168	0x3a8c55a7	0.0010706679
169	0x3cd1df6d	0.025619233
170	0x3c904a3a	0.017613519
171	0x3dfdb7ce	0.123885736
172	0x3dae90a9	0.085236855
173	0xbe23aa68	-0.15982974
174	0x3d24386b	0.040092867
175	0x3de51bd5	0.11186949
176	0x3e1135ef	0.1418073
177	0xbcd8eac9	-0.026479142
178	0xbbcd7088	-0.0062695183
179	0xbd8f7427	-0.07004576
180	0x3dd8d223	0.105869554
181	0x3da4a797	0.08039778
182	0x3c883045	0.01662458
183	0x3dc99ce7	0.0984438
184	0xbd8f46fa	-0.069959596
185	0x3d49c4bd	0.04925989
186	0xbb089072	-0.002083805
187	0xbd7b62c9	-0.061373506
188	0xbd2528a7	-0.040321972
189	0x3dbcdd4e	0.09221898
190	0xbdaa766e	-0.0832337
191	0x3d00de17	0.0314618
192	0xbe12255d	-0.14272065
193	0x39a0012b	0.00030518448
194	0x3e039161	0.12848426
195	0xbcedd2c3	-0.029031163
196	0xbd4bf6a0	-0.049795747
197	0xbc9f9ac9	-0.019482987
198	0xbdd6f3ad	-0.10495696
199	0x3c216040	0.009849608

weight f4 [200, 200]
0	0x3b84735d	0.0040420727
1	0xbe0eba89	-0.13938345
2	0x3d8a1c9e	0.067437395
3	0x3d030e9c	0.031996354
4	0x3de8b3d1	0.11362422
5	0xbe13e435	-0.14442523
6	0x3d1d05b5	0.03833552
7	0xbe46e42b	-0.19422977
8	0x3e1314d7	0.14363419
9	0x3db20841	0.086929806
10	0xbd3e51d3	-0.046464752
11	0xbe37ac9c	-0.17936939
12	0xbcfca275	-0.030839184
13	0xbd69a18e	-0.057038836
14	0xbc46f037	-0.012142233
15	0x3bef68b2	0.007306182
16	0x3dbfda67	0.09367829
17	0xbd84cf21	-0.06484819
18	0x3e2b978a	0.16757026
19	0xbe735243	-0.23761849
20	0xbd94ee7c	-0.0727205
21	0xbda62d39	-0.08114094
22	0x3da0bd49	0.07848603
23	0x3e3939d3	0.18088464
24	0xbd692a39	-0.056925032
25	0xbc8e6a20	-0.017384589
26	0xbcb0976c	-0.021556579
27	0xbd44925c	-0.04799114
28	0x3e0432e6	0.12910041
29	0x3e636bf5	0.22209151
30	0xbd874d65	-0.06606559
31	0x3e4ff979	0.2031001
32	0xbe1b9e7d	-0.15197177
33	0x3db0f3ac	0.08640227
34	0x3e05439b	0.1301407
35	0x3d9a69ba	0.07539697
36	0x3e37ab9c	0.17936558
37	0x3e40e5ed	0.1883771
38	0x3dbcf903	0.09227183
39	0x3cb9d28c	0.022683404
40	0x3e2c65a5	0.1683565
41	0xbd60e996	-0.054910265
42	0x3d90df8d	0.07073889
43	0x3dd14ae6	0.10219364
44	0xbdb758b1	-0.089524634
45	0x3d25bb47	0.040461805
46	0xbdf5df02	-0.12005426
47	0xbe519ba3	-0.20469527
48	0x3d8f7665	0.07005004
49	0x3d6b8c1c	0.057506666
50	0x3d83aa1e	0.06428932
51	0x3d519b57	0.051173534
52	0xbd1a0a28	-0.037607342
53	0x3d18bca3	0.037289273
54	0x3e1d0c4c	0.15336722
55	0x3da229f7	0.079181604
56	0x3db2bfff	0.087280266
57	0xbdd73f10	-0.10510075
58	0xbc8c2de9	-0.017111735
59	0x3c748a03	0.014925483
60	0x3e0546e9	0.13015331
61	0x3e209bbb	0.15684406
62	0xbdc52546	-0.0962625
63	0xbe53be40	-0.20678043
64	0xbdcdef8b	-0.10055455
65	0x3e10e835	0.1415108
66	0x3a3ef5a7	0.000728453
67	0x3e05fa5a	0.13083783
68	0xbe15a232	-0.14612654
69	0x3c5ce394	0.013481993
70	0x3c458b61	0.012057156
71	0x3c0256dc	0.007955279
72	0xbca7d955	-0.020489374
73	0x3e015ea1	0.12633754
74	0xbd016799	-0.03159294
75	0xbe11a371	-0.14222504
76	0x3e908dfb	0.28233323
77	0xbcade589	-0.021227615
78	0x3c67ce66	0.01414833
79	0x3e232294	0.1593116
80	0xbe2d5c18	-0.16929662
81	0x3d40df46	0.04708793
82	0xbde14a51	-0.11000503
83	0xbe3503d7	-0.17677246
84	0xbe244a0b	-0.1604387
85	0x3d40d27c	0.047075734
86	0x3c4572d5	0.012051304
87	0xbe101085	-0.14068802
88	0xbe01b1da	-0.12665501
89	0x3e12cdf7	0.14336382
90	0x3e3ef8b9	0.18649568
91	0x3de982d4	0.114019066
92	0xbe5f2900	-0.21792984
93	0xbe19b95b	-0.15012114
94	0x3d55a931	0.052163307
95	0xbcaa7e33	-0.02081213
96	0x3def0a0a	0.11671837
97	0x3c9f59e2	0.01945204
98	0xbe37b363	-0.17939524
99	0x3e356830	0.17715526
100	0xbe28592d	-0.16440268
101	0x3d469bbe	0.04848837
102	0x3e3756e0	0.17904234
103	0x3e16e55d	0.14735933
104	0xbcc65f9c	-0.024215512
105	0x3c4bc559	0.012437188
106	0xbdefd12c	-0.11709818
107	0x3d6405ae	0.05566948
108	0xbc83cfb5	-0.016090253
109	0xbde8f277	-0.113743715
110	0x3d8872b1	0.06662501
111	0x3dda0ebf	0.10647344
112	0xbd126be7	-0.035747435
113	0xbd3f49d2	-0.04670126
114	0xbe1f631f	-0.15565155
115	0xbdf0ffbd	-0.11767528
116	0x3d943b47	0.07237869
117	0xbe3e58e3	-0.18588595
118	0xbe045ed2	-0.12926796
119	0xbd835c3e	-0.06414078
120	0xbdfa52c6	-0.12222819
121	0xba9e26c7	-0.0012066
122	0x3dcc08e0	0.0996263
123	0xbe607868	-0.21920931
124	0x3d7d3bef	0.061824735
125	0xbe0aa0a4	-0.13537842
126	0x3e0b9404	0.13630682
127	0x3dc3b9e2	0.09556939
128	0xbd951d65	-0.07280997
129	0x3e0f36ee	0.13985798
130	0x3d607760	0.054801345
131	0x3e17e280	0.14832497
132	0x3e263138	0.16229713
133	0x3d294c37	0.04133245
134	0xbe1bf90c	-0.15231723
135	0x3d707a5a	0.058710434
136	0x3de07ab7	0.10960906
137	0x3e23e888	0.16006672
138	0x3e09094e	0.13382456
139	0x3e3184c9	0.1733581
140	0x3db8aa5b	0.09016868
141	0x3df3864a	0.11890848
142	0xbe1123e3	-0.14173846
143	0x3e1f887c	0.15579408
144	0xbc8d9938	-0.017284974
145	0xbe26d5a6	-0.16292438
146	0x3e128b1a	0.14310876
147	0xbddc8a63	-0.10768583
148	0x3e2b12b4	0.16706353
149	0x3de47f23	0.11157062
150	0xbe10864d	-0.14113732
151	0x3e14acf9	0.14519109
152	0xbdb2fb21	-0.08739305
153	0x3de86303	0.1134701
154	0x3e1646db	0.14675467
155	0xbd5ad061	-0.05342138
156	0x3d591942	0.053002603
157	0xbd924bce	-0.07143365
158	0xbdd24b59	-0.10268278
159	0x3e27e324	0.16395241
160	0x3dfb465f	0.122692816
161	0xbd006606	-0.031347297
162	0xbe0aec35	-0.13566668
163	0x3c568683	0.0130935935
164	0xbd585695	-0.052816946
165	0xbd59ab20	-0.053141713
166	0x3bb07a11	0.005385645
167	0x3bf85bbf	0.0075792964
168	0x3e7973d1	0.24360587
169	0xbe29f571	-0.16597535
170	0x3e1e6589	0.1546842
171	0x3dd80262	0.105473295
172	0x3da53ef1	0.08068646
173	0x3e2e2cdb	0.17009299
174	0x3c91914e	0.017769482
175	0x3e46a76a	0.19399801
176	0xbd475107	-0.048661258
177	0x3da481aa	0.08032544
178	0xbcf798fd	-0.030224318
179	0x3e133ca5	0.14378603
180	0xbe34f436	-0.17671284
181	0xbe1977a0	-0.1498704
182	0xbe07c508	-0.13258755
183	0x3e2c10ab	0.16803233
184	0xbe0b32d4	-0.13593608
185	0xbdf7f295	-0.12106816
186	0xbde391e5	-0.111118115
187	0x3e12d713	0.14339857
188	0x3ddf6e68	0.1090973
189	0x3c07e35b	0.008293952
190	0xbe19888c	-0.14993495
191	0xbe2f0779	-0.17092694
192	0xbda12a5f	-0.0786941
193	0x3e4e9450	0.20173764
194	0x3defd556	0.117106125
195	0x3ddd5eed	0.10809121
196	0xbd2f3ca6	-0.04278245
197	0x3d99bd6a	0.07506831
198	0x3d9873b4	0.074439436
199	0x3e10eb46	0.1415225
200	0x3c97563d	0.018473739
201	0xbd5dd877	-0.054161515
202	0x3de7b611	0.11314023
203	0x3dc74234	0.09729424
204	0xbdaf986f	-0.08573996
205	0x3d963eea	0.07336219
206	0x3d43e04c	0.047821328
207	0xbdb059a9	-0.08610851
208	0x3e0541da	0.13013402
209	0xbdc44af5	-0.095846094
210	0xbe2f48b4	-0.17117578
211	0xbe20d891	-0.15707614
212	0x3da6bc60	0.081413984
213	0xbe360439	-0.17775048
214	0xbdaa9480	-0.083291054
215	0xbd627f20	-0.055297017
216	0xbd976061	-0.0739143
217	0xbdc6144e	-0.096718416
218	0x3dc98549	0.09839875
219	0x3e2f3d92	0.17113331
220	0x3c309b08	0.01077915
221	0xbcf8bcbe	-0.030363437
222	0x3dac7cf1	0.08422268
223	0x3d078aec	0.03309147
224	0x3d58b9da	0.052911617
225	0xbd220130	-0.039551914
226	0xbdf7971f	-0.12089371
227	0x3c8cb712	0.017177138
228	0x3cc0ff13	0.023559129
229	0xbe0e4fd8	-0.13897645
230	0xbe6c8051	-0.23095824
231	0x3e13e051	0.14441039
232	0xbd11b42f	-0.035572227
233	0xbd5fb78c	-0.054618403
234	0xbe405afe	-0.18784711
235	0xbdb3032a	-0.08740838
236	0x3d595eaa	0.053068794
237	0x3d4b3b72	0.04961724
238	0x3e02fe88	0.12792408
239	0x3e08ad61	0.13347389
240	0xbd86b5e0	-0.06577659
241	0xbd40705a	-0.046982147
242	0x3a948e4c	0.0011333912
243	0x3e4c2cf0	0.19939017
244	0xbd0c1b92	-0.03420598
245	0xbcd5e15d	-0.026108438
246	0x3de21075	0.11038295
247	0xbd59ac19	-0.05314264
248	0xbe05b38d	-0.13056774
249	0xbdfcfccc	-0.12352905
250	0xbe04fb6f	-0.1298654
251	0xbb6b257d	-0.00358805
252	0x3e0140fa	0.12622443
253	0xbda741dd	-0.08166859
254	0x3c457fbe	0.012054382
255	0xbe4b14d2	-0.19832161

bias f4 [200]
0	0x3d25d426	0.040485524
1	0xbda519d2	-0.080615655
2	0xbc279447	-0.010228223
3	0xbc3a1bc3	-0.011359158
4	0x3ca14ca0	0.019689858
5	0xbd963a03	-0.073352836
6	0x3d5eef9c	0.054427728
7	0x3d164c14	0.036693648
8	0x3d11f712	0.035636015
9	0xbb3133e1	-0.002703898
10	0xbdb8e1fb	-0.09027477
11	0x3beae9ce	0.007168985
12	0xbdbeb796	-0.0931236
13	0xbc75abdf	-0.014994591
14	0xbdf6d5a4	-0.120524675
15	0x3c958863	0.01825351
16	0xbe027972	-0.1274164
17	0xbdf38f4f	-0.11892568
18	0xbd1870ad	-0.03721683
19	0xbd32fb57	-0.043696728
20	0x3dc23733	0.09483185
21	0x3c473b00	0.012160063
22	0xbc99fcdb	-0.018797329
23	0xbdd56eef	-0.104215495
24	0x3cd44fec	0.025917016
25	0xbb9cd48c	-0.0047860797
26	0x3d505ae6	0.050867938
27	0xbe07878e	-0.13235304
28	0x3d051429	0.03248993
29	0x3d37b38c	0.044848964
30	0xbd86360d	-0.06553278
31	0x3dae94a2	0.08524443
32	0x3cdd9798	0.027049825
33	0x3d4ba3cb	0.049716752
34	0xbe399959	-0.18124904
35	0x3d6b982b	0.057518166
36	0xbc8c88f2	-0.017155144
37	0x3b8f33a1	0.0043701683
38	0x3d24dc0b	0.04024891
39	0xbd412095	-0.047150213
40	0x3d8a47d9	0.06751985
41	0x3d994ff2	0.074859515
42	0x3cd254b6	0.025675159
43	0x3dbebe7e	0.09313677
44	0xbd19536f	-0.037433084
45	0x3df2cc81	0.11855412
46	0xbd9c41c3	-0.076297306
47	0xbd843853	-0.064560555
48	0x3d75b553	0.059987377
49	0xbc1e4f55	-0.009662469
50	0xbcd49fea	-0.02595516
51	0x3c743d04	0.014907125
52	0xbceb148e	-0.028696325
53	0x3d422315	0.047396738
54	0xbd7a5ea3	-0.06112541
55	0xbe157452	-0.14595154
56	0x3acb5191	0.001551198
57	0xbb8c6932	-0.004285001
58	0x3bc71715	0.0060757496
59	0xbd21cb3f	-0.03950047
60	0x3ccb0cf7	0.024786456
61	0xbd23a3dc	-0.03995119
62	0xbca2efbf	-0.01988971
63	0x3d8c9d07	0.06865888
64	0x3d3c4d16	0.045971952
65	0x3cf68f16	0.030097526
66	0x3d2dd531	0.042439643
67	0xbc0de499	-0.008660459
68	0xbe034608	-0.12819684
69	0x3d5008c7	0.05078962
70	0xbd8dcc1b	-0.06923696
71	0xbd8f0a77	-0.06984418
72	0xbd5d07f8	-0.053962678
73	0x3c3fab49	0.011698552
74	0x3c601452	0.01367672
75	0xbd029310	-0.03187853
76	0xbca6de98	-0.020369813
77	0xbd3b2d30	-0.04569739
78	0x3d878e0c	0.0661889
79	0x3d288bc9	0.041148935
80	0xbcd0d4ea	-0.02549215
81	0x3de9f6ae	0.114240035
82	0x3e0a28ed	0.13492174
83	0x3d7dfb54	0.062007263
84	0xbdbed27e	-0.09317492
85	0x3d270e48	0.040785104
86	0x3a116e5a	0.00055477547
87	0xbc45df72	-0.012077199
88	0xbd1ead49	-0.038739476
89	0x3d45aee1	0.04826248
90	0x3e223c99	0.15843429
91	0xbc43e1aa	-0.011955658
92	0xbd176e38	-0.036970347
93	0xbcd062a1	-0.025437655
94	0x3d4246dc	0.047430858
95	0xbc190f40	-0.009342015
96	0x3c953aaa	0.01821645
97	0xbd6f65bc	-0.05844663
98	0xbd9ea606	-0.0774651
99	0x3d3dd717	0.046347704
100	0x3d1f69cf	0.038919266
101	0xbc0d8f04	-0.008640055
102	0xbd1660f5	-0.03671356
103	0x3ca93103	0.020653253
104	0xbd097ed8	-0.033568233
105	0xbd1dfaff	-0.038569447
106	0xbd7ff1fd	-0.062486637
107	0xbcbb6cd7	-0.022879047
108	0xbd73a7c8	-0.05948618
109	0x3d6aadef	0.057294782
110	0x3c5ce1f1	0.013481603
111	0x3cc4e59f	0.024035273
112	0xbde2193b	-0.110399686
113	0xbdf8e084	-0.12152198
114	0xbdd93928	-0.10606605
115	0xbd6adb81	-0.05733824
116	0xbccbaa23	-0.024861401
117	0xbd269b75	-0.0406756
118	0xbd9366c2	-0.07197334
119	0xbd155efe	-0.036467545
120	0x3b5592a0	0.0032588616
121	0x3b9247a6	0.0044641076
122	0xbd1d370d	-0.03838258
123	0xbcf37aca	-0.029721636
124	0x3dbc742c	0.092018455
125	0xba470295	-0.00075916323
126	0x3ca8ae8a	0.02059104
127	0xbdb507c3	-0.08839371
128	0x3deaca35	0.11464349
129	0xbd0a32c7	-0.03373983
130	0xbd65136d	-0.05592673
131	0xbd6023b1	-0.054721538
132	0x3d2a7913	0.04161937
133	0x3cbf32f2	0.023339722
134	0xbdd9e61a	-0.106395915
135	0xbccec341	-0.025239589
136	0x3d579c44	0.05263926
137	0x3d311812	0.043235846
138	0x3d80945e	0.06278299
139	0xbc4c04e2	-0.012452336
140	0x3d343893	0.043999266
141	0x3c75fd7b	0.015014048
142	0x3d2378ca	0.039910115
143	0xbc751673	-0.014958966
144	0x3d50dd4d	0.0509923
145	0xbd10e1ee	-0.035371713
146	0xbdcffca8	-0.10155612
147	0x3d113f4b	0.03546075
148	0xbd9cc180	-0.07654095
149	0x3aed6638	0.0018112129
150	0xbd5e6a97	-0.05430087
151	0xbd874088	-0.06604105
152	0x3d7e4d43	0.0620854
153	0x3e08c723	0.13357215
154	0x3de1b881	0.110215195
155	0x3d1f56e0	0.03890121
156	0x3c01422a	0.00788931
157	0xbbda5eaa	-0.006664117
158	0xbc6e0886	-0.014528399
159	0x3dc1407c	0.094361275
160	0xbb028d75	-0.001992074
161	0x3d2d721b	0.042345148
162	0xbdbd25e8	-0.09235746
163	0xbd4f1812	-0.050560065
164	0x3d8749fd	0.06605909
165	0xbd94df3f	-0.07269143
166	0x3d8bf3ed	0.068336345
167	0xbd691538	-0.056905
168	0xbdad14da	-0.08451243
169	0x3d2a3902	0.041558273
170	0x3d5523d1	0.05203611
171	0x3e346cb5	0.17619593
172	0x3cdfcefe	0.027320381
173	0x3d5783c4	0.052615896
174	0x3d4388e6	0.04773798
175	0xbd076989	-0.03305963
176	0xbd2cad7e	-0.042157643
177	0x3d93ca8e	0.072163686
178	0xbd4f55a2	-0.050618775
179	0xbc29c661	-0.010362239
180	0xbddb42e9	-0.107061215
181	0x3d4ab98f	0.04949337
182	0xbbbeb03a	-0.0058193477
183	0xbda90297	-0.08252447
184	0x3dfe1d31	0.124079116
185	0xbd7e8de3	-0.062147032
186	0xbcf7aa43	-0.030232554
187	0x3a3d40ee	0.0007219453
188	0xbc4473b5	-0.011990477
189	0x3d39ea52	0.04538948
190	0xbc3ba835	-0.011453678
191	0xbd0dbc66	-0.0346035
192	0xbcf98967	-0.030461026
193	0xbdb54ab8	-0.08852142
194	0xbda9b541	-0.082865246
195	0xbd9ae1d2	-0.07562603
196	0x3d987dd0	0.07445872
197	0x3be56267	0.007000256
198	0xbd960275	-0.073246874
199	0xbd732c07	-0.05936816

weight f4 [200, 200]
0	0xbcf42ba6	-0.02980597
1	0xbdaa7f70	-0.08325088
2	0x3d261d6b	0.0405554
3	0xbd260bd4	-0.040538624
4	0xbd72dc45	-0.059292097
5	0xbdbaa2f5	-0.09113113
6	0xbdc3aa02	-0.09553911
7	0x3c85a5c7	0.0163144
8	0xbdd46378	-0.10370535
9	0xbe2f17cd	-0.17098923
10	0x3d172850	0.03690368
11	0x3da47ed5	0.08032004
12	0x3d8d0e4a	0.06887491
13	0xbdf7ae09	-0.120937414
14	0x3d328ffc	0.043594345
15	0xbe13a61d	-0.14418836
16	0x3deb2df6	0.11483376
17	0x3d206646	0.039160036
18	0x3e714807	0.23562633
19	0x3dc127a3	0.09431388
20	0x3d987104	0.07443431
21	0x3d3769eb	0.044778746
22	0xbd747560	-0.05968225
23	0x3dd3cd2e	0.10341869
24	0x3cf534b8	0.029932365
25	0xbde9b1dd	-0.11410878
26	0x3e0d03b4	0.13770944
27	0xbdefc7dc	-0.11708042
28	0xbe4a8ebb	-0.1978101
29	0xbdd926c7	-0.10603099
30	0xbc0547d1	-0.008134798
31	0xbe1bd01d	-0.15216108
32	0x3e149b75	0.14512427
33	0xbddcd05d	-0.1078193
34	0x3e17aca4	0.14811951
35	0x3e243c17	0.16038547
36	0x3d764d0e	0.06013208
37	0xbcefa5bb	-0.029253831
38	0xbc5b09f3	-0.013369071
39	0xbe36f3ae	-0.17866394
40	0xbd7245cc	-0.059148595
41	0xbd248c45	-0.040172834
42	0xbe3e47b4	-0.1858204
43	0x3e0ff428	0.14057982
44	0x3df37bdd	0.118888594
45	0xbd664820	-0.056221128
46	0xbe1e785c	-0.15475601
47	0x3e3f39e5	0.18674429
48	0xbcd6df01	-0.026229383
49	0x3e5c55af	0.2151706
50	0xbe253442	-0.16133216
51	0x3e3c60ec	0.18396348
52	0xbdc90a96	-0.09816472
53	0xbcd6cebb	-0.026221624
54	0xbd14ecb7	-0.03635856
55	0x3dea15ba	0.11429925
56	0x3e36a4fd	0.17836376
57	0xbd94b9fb	-0.072620355
58	0x3deee662	0.11665036
59	0xbd8dec6a	-0.06929858
60	0x3e40d37d	0.18830676
61	0xbe0d7703	-0.1381493
62	0x3da8a744	0.082350284
63	0x3e03919f	0.12848519
64	0xbe2175e9	-0.15767635
65	0xbdcfcafe	-0.101461396
66	0x3e209eea	0.15685621
67	0xbe43076e	-0.19045803
68	0x3b917d57	0.0044399905
69	0xbcfc31d3	-0.030785477
70	0x3dd3a5a4	0.10334328
71	0xbd9e184e	-0.077194795
72	0x3e48678b	0.19570749
73	0x3d558b84	0.052135006
74	0x3de37e15	0.111080326
75	0x3e2adc69	0.16685642
76	0xbda3876a	-0.079848126
77	0xbe067b0d	-0.13132878
78	0x3c1ca834	0.009561587
79	0xbc742c59	-0.014903151
80	0xbd8f1d82	-0.0698805
81	0xbdea1637	-0.114300184
82	0x3e19111f	0.14947937
83	0xbb82b9df	-0.0039894427
84	0xbe25d19a	-0.16193238
85	0xbc16217a	-0.009163255
86	0x3dd7495d	0.1051204
87	0xbd8acac4	-0.06776956
88	0xbe35e152	-0.17761734
89	0x3e078ef2	0.13238123
90	0xbdfe0b65	-0.12404517
91	0x3d326b3a	0.04355929
92	0x3e5c1476	0.2149218
93	0xbe831cb4	-0.25607836
94	0xbe40249a	-0.18763962
95	0x3d34a8ef	0.04410642
96	0xbd4ba048	-0.049713403
97	0xbdd0fd7e	-0.102046
98	0x3c90c6c7	0.01767291
99	0x3e0c7ae1	0.1371875
100	0xbd665050	-0.056228936
101	0xbc405f09	-0.011741408
102	0xbb765917	-0.0037589723
103	0xbdbdcef3	-0.09267988
104	0xbdc436fd	-0.09580801
105	0xbdfd046b	-0.12354358
106	0x3e0ae973	0.13565616
107	0xbd8f193f	-0.06987237
108	0x3deefc31	0.116691954
109	0x3e3fe88f	0.18741058
110	0xbe10367c	-0.14083284
111	0x3e379d78	0.17931163
112	0x3b718dd8	0.0036858227
113	0x3dd504a6	0.10401277
114	0x3e07a378	0.13245952
115	0x3d538c52	0.05164749
116	0xbdf282da	-0.11841364
117	0xbe54dca2	-0.2078729
118	0x3dda2491	0.10651506
119	0x3e2913d2	0.16511467
120	0x3df29036	0.11843912
121	0xbc92cbbe	-0.017919417
122	0x3d886abb	0.06660982
123	0xbc0cb503	-0.008588078
124	0x3dc6ebfb	0.097129785
125	0xbd8f912c	-0.07010111
126	0x3e3e3453	0.18574648
127	0xbd63dd0e	-0.055630736
128	0xbc998865	-0.018741796
129	0x3d1fae98	0.038984865
130	0x3e270da4	0.16313797
131	0x3c60872a	0.013704101
132	0x3e19a736	0.15005192
133	0x3d5c7a54	0.0538276
134	0xbdf306cd	-0.118665315
135	0x3e1b9d6e	0.15196773
136	0xbd8658f5	-0.06559936
137	0x3c49f53e	0.012326537
138	0x3d1a3960	0.037652373
139	0xbdac0eca	-0.08401258
140	0x3e2a7182	0.16644862
141	0xbd901d97	-0.07036894
142	0x3cbea879	0.023273693
143	0x3e06333c	0.13105482
144	0xbdac5842	-0.08415271
145	0xbe45370b	-0.19259278
146	0xbd5b470a	-0.053534545
147	0x3d93a052	0.07208313
148	0xbd2a33cb	-0.0415533
149	0x3d0bdf3d	0.034148443
150	0xbe2ca693	-0.16860418
151	0x3dcbbfc1	0.099486835
152	0x3cb02866	0.021503638
153	0x3e38edaf	0.18059419
154	0x3d09d8ea	0.03365413
155	0x3dc7fe04	0.097652465
156	0xbe369820	-0.17831469
157	0xbdf5b27b	-0.11996933
158	0xbd8afb06	-0.0678616
159	0x3cfc261c	0.03077989
160	0xbd6a5cba	-0.057217337
161	0xbe1ddc49	-0.15416063
162	0x3e2b32b5	0.16718562
163	0x3e1d0f11	0.15337779
164	0xbe0a8b96	-0.1352981
165	0x3e5e92fc	0.21735758
166	0x3daeb817	0.08531206
167	0xbd6dfa6d	-0.058100153
168	0xbdbbc6ed	-0.091688015
169	0xbe3e578d	-0.18588085
170	0xbbac7f8d	-0.0052642287
171	0xbda00a00	-0.07814407
172	0x3d70ce2f	0.058790382
173	0x3e1d02db	0.1533312
174	0xbdb60481	-0.08887578
175	0x3e460a06	0.19339761
176	0xbe157433	-0.14595108
177	0x3dfb0f2e	0.12258755
178	0x3e0e65f5	0.13906081
179	0xbda849fc	-0.082172364
180	0x3e41e5ca	0.18935314
181	0x3e143839	0.14474572
182	0xbe557880	-0.20846748
183	0xbe5121d3	-0.20423059
184	0x3df90fc3	0.121612094
185	0x3db727f8	0.0894317
186	0x3cd78e36	0.026312929
187	0xbd2530bc	-0.04032968
188	0x3e18331c	0.14863247
189	0xbd231ec5	-0.039824266
190	0xbddd83cb	-0.10816153
191	0xbe58e5e1	-0.21181442
192	0x3e35e257	0.17762123
193	0xbdf83ad8	-0.121205986
194	0xbd909c8d	-0.0706111
195	0xbd167c87	-0.036739852
196	0x3db2d24f	0.087315194
197	0x3d41ba45	0.04729678
198	0xbcf41af7	-0.029798014
199	0x3e13e657	0.14443336
200	0xbdb581cd	-0.08862648
201	0x3e3cd048	0.18438828
202	0x3d96424e	0.07336865
203	0xbdd18cd2	-0.102319375
204	0xbe39bc8b	-0.1813833
205	0xbe0798c5	-0.1324187
206	0xbe6ed655	-0.23323949
207	0xbd2aca57	-0.041696873
208	0x3e069e56	0.13146338
209	0x3d14c6a1	0.03632224
210	0x3e5faca7	0.21843205
211	0x3d1648d5	0.03669055
212	0x3cb23895	0.021755496
213	0xbd855266	-0.06509857
214	0x3dea2a85	0.11433891
215	0x3dee6873	0.11641016
216	0xbe19ff2d	-0.15038748
217	0xbb3c344c	-0.0028717695
218	0xbdfc317c	-0.12314126
219	0x3d6a693d	0.05722927
220	0x3db3b1f8	0.08774179
221	0x3cc9d7d0	0.02463904
222	0xbda4b0b5	-0.08041517
223	0x3dd5b921	0.10435701
224	0x3d605058	0.05476412
225	0x3d7a3be4	0.061092272
226	0x3df93feb	0.121703945
227	0x3e7d41ba	0.24732104
228	0x3daf1e51	0.08550704
229	0x3c5b70d0	0.013393596
230	0x3c9fb4fb	0.019495478
231	0xbd683f7e	-0.056701176
232	0xbdc712a6	-0.09720354
233	0xbe172746	-0.14761075
234	0xbe03c0ce	-0.12866518
235	0xbe468842	-0.19387916
236	0xbd94fb64	-0.072745115
237	0xbdeac40f	-0.114631765
238	0x3ca57386	0.020196687
239	0x3d03d4e0	0.032185435
240	0x3dbbce29	0.09170181
241	0xbd5b7554	-0.05357869
242	0xbe29e3d2	-0.16590813
243	0xbe67328f	-0.2257788
244	0x3e2fbb3b	0.17161267
245	0xbd8b7dc6	-0.06811099
246	0x39903a28	0.0002750915
247	0x3d1a78f4	0.037713006
248	0x3b299bb8	0.002588017
249	0xbe6468f0	-0.22305655
250	0xbe18c81d	-0.14920087
251	0xbd8a1488	-0.06742197
252	0xbe0c8eaa	-0.13726297
253	0xbe11b8ed	-0.142307
254	0xbdf9b643	-0.12192967
255	0x3d956fee	0.072967395

bias f4 [200]
0	0x3d9a58f9	0.075365014
1	0xbd824987	-0.063616805
2	0x3d95a182	0.07306196
3	0x3db197ac	0.08671507
4	0xbd3e0978	-0.04639575
5	0x3d942a4b	0.07234629
6	0x3dfbfe04	0.12304309
7	0xbcb65715	-0.02225832
8	0x3c964857	0.018345041
9	0x3c4f29cb	0.012644242
10	0xbd1077a9	-0.035270367
11	0x3aabb436	0.0013099972
12	0xbdb4f0d3	-0.08834996
13	0x3cccec08	0.025014892
14	0xbaef53cc	-0.0018259226
15	0xbdb7ae7f	-0.08968829
16	0x3cefe8d7	0.029285831
17	0xbdb4a519	-0.088205524
18	0xbe05d529	-0.13069595
19	0x3df13572	0.11777772
20	0xbbdd5d84	-0.0067555327
21	0xbcfcfed1	-0.030883225
22	0xbb00512e	-0.0019579637
23	0xbcb68a32	-0.022282694
24	0xbd9479f1	-0.07249821
25	0x3da43205	0.08017353
26	0xbc2c99db	-0.010534729
27	0x3d46fecf	0.04858285
28	0xbd1d0e9a	-0.038344003
29	0x3e005247	0.12531386
30	0x3d3c23ea	0.045932688
31	0xbb241e8e	-0.0025042626
32	0x3cd3fc53	0.025877154
33	0x3cdcb101	0.02693987
34	0xbd5321f7	-0.051546063
35	0x3d411458	0.047138542
36	0x3cf0886a	0.029361922
37	0x3cba60fb	0.022751322
38	0x3dcc6ad5	0.09981314
39	0xbd83c3d1	-0.064338334
40	0x3d73572d	0.05940931
41	0xbd5d0443	-0.053959142
42	0x3d198d25	0.03748812
43	0xbb8e343a	-0.004339722
44	0x3c3bdae2	0.01146576
45	0xbd085944	-0.033288255
46	0x3c6edf8e	0.014579667
47	0xba884974	-0.0010397867
48	0xbd0287a6	-0.031867646
49	0x3d75b302	0.05998517
50	0x3c4b4db7	0.012408665
51	0xbd35d90a	-0.044396438
52	0xbcadd99c	-0.021221928
53	0x3d8de707	0.069288306
54	0xbd02557e	-0.031819813
55	0xbd166ad2	-0.036722966
56	0xbd898d61	-0.06716419
57	0x3d6ae3c8	0.057346135
58	0xbdd89a2f	-0.10576283
59	0xbd9d282f	-0.0767368
60	0xbd19ef1c	-0.037581548
61	0x3d3c668d	0.045996238
62	0x3d644f3b	0.055739623
63	0xbcd2ae0c	-0.025717758
64	0xbbd03b59	-0.006354731
65	0x3d0483f5	0.032352407
66	0x3d2c45b0	0.042058647
67	0xbd0a6501	-0.03378773
68	0xbb414385	-0.0029489708
69	0xbcadfb16	-0.021237891
70	0xbd2fc1d7	-0.04290947
71	0x3d6d6b0e	0.057963423
72	0xbd972f5f	-0.07382082
73	0xbdf27286	-0.1183825
74	0xbcc19c9a	-0.023634244
75	0x3dcd807c	0.10034272
76	0x3da5f36b	0.08103069
77	0x3d26f2a6	0.04075875
78	0xbd4b9d94	-0.049710825
79	0x3d66c093	0.056335997
80	0x3a6f0d25	0.0009119085
81	0x3e1329ac	0.14371365
82	0x3da67154	0.081270844
83	0x3c589ce6	0.013221001
84	0x3dc02bec	0.093833774
85	0xbd9cac04	-0.07649997
86	0x3b75fcb4	0.0037534656
87	0x3db5ba4a	0.088734224
88	0xbdb83a18	-0.089954555
89	0xbc73593e	-0.01485282
90	0xbde52cf3	-0.11190214
91	0x3d66df33	0.056365203
92	0xbd7cd17e	-0.061723225
93	0xbc1c2464	-0.009530161
94	0x3da4cd18	0.08046931
95	0xbd6d51a9	-0.057939205
96	0x3d7b6f60	0.061385512
97	0xbb745010	-0.0037279166
98	0xba98d15d	-0.0011659075
99	0xbd6a3ad8	-0.057185024
100	0x3ca559da	0.020184446
101	0xba9b294f	-0.0011837872
102	0xbdbb2b6b	-0.09139141
103	0xbcd282dc	-0.025697164
104	0xbd71ab30	-0.059001148
105	0x3cfbf4d4	0.030756392
106	0x3d4200ac	0.047363922
107	0xbd6830fe	-0.056687348
108	0xbdba5dfe	-0.09099959
109	0xbd06ada2	-0.032880433
110	0x3d99140c	0.07474527
111	0x3e010fc8	0.12603676
112	0xbd6177c8	-0.055045873
113	0xbb879e1e	-0.004138722
114	0xbda4191d	-0.080126025
115	0x3cb64f7f	0.022254704
116	0x3d9d2e14	0.07674804
117	0xbcc8315b	-0.024437597
118	0xbcb0b259	-0.021569418
119	0x3df71b71	0.12065781
120	0xbd27eb1e	-0.04099571
121	0xbd9600e4	-0.073243886
122	0xbd37b70d	-0.044852305
123	0x3d50cf02	0.050978668
124	0xbca08685	-0.019595394
125	0xbd2d012d	-0.04223745
126	0x3d5e42e3	0.054263007
127	0xbc2af296	-0.010433814
128	0x3c1cb1df	0.009563892
129	0xbda45076	-0.08023159
130	0x3dbcf142	0.09225704
131	0x3c9b4512	0.018953834
132	0xbe097ced	-0.13426562
133	0xbda233fc	-0.079200715
134	0x3da73b65	0.081656255
135	0x3bb9b70d	0.0056675733
136	0xbd62c2da	-0.055361606
137	0x3d860cd7	0.06545418
138	0xbdcaf6dd	-0.09910367
139	0xbd273fcc	-0.040832326
140	0x3c6893fc	0.0141954385
141	0xba96e4b0	-0.0011512246
142	0xbdb23872	-0.08702172
143	0xbd9d9a15	-0.076954044
144	0x3c169eb2	0.009193109
145	0x3e05902c	0.13043278
146	0x3c495d5b	0.012290324
147	0x3c189c4a	0.009314606
148	0xbbbd036c	-0.00576823
149	0xbdf552ba	-0.119786695
150	0x3aae5c68	0.0013302686
151	0xbd553b9f	-0.052058812
152	0x3c00bf1f	0.007858067
153	0xbd89cc01	-0.06728364
154	0xbad81cc4	-0.0016488065
155	0x3ca6547c	0.020303957
156	0x3c64a02d	0.0139542045
157	0x3d3e91f4	0.04652591
158	0xbcd5872e	-0.026065435
159	0xbca4d09d	-0.020119006
160	0xbd79f90d	-0.06102853
161	0xbd3fb034	-0.0467989
162	0x3d4dc0e1	0.05023277
163	0xbc973036	-0.018455606
164	0xbc0bfbd1	-0.008543924
165	0x3c68081d	0.014162091
166	0x3dba2166	0.090884015
167	0xbe120b93	-0.14262228
168	0xbd3cfa47	-0.04613712
169	0x3c9bd00f	0.019020109
170	0x3c17f706	0.009275204
171	0xbd6640fb	-0.056214314
172	0xbbba72de	-0.0056899628
173	0xbdb0d7fb	-0.08634945
174	0xbda8deaf	-0.082455985
175	0x3cbe0b34	0.023198701
176	0x3d4610be	0.04835581
177	0xbd9e0f25	-0.07717732
178	0xbd5329cf	-0.051553544
179	0xbdd14788	-0.10218722
180	0xbdfa58b2	-0.122239485
181	0x3d978e0e	0.07400142
182	0xbd9863ad	-0.07440887
183	0x3d662f00	0.056197166
184	0xbc7fc255	-0.015610297
185	0x3d68a541	0.056798223
186	0xbcddfaf5	-0.027097205
187	0xbcb9b302	-0.022668365
188	0xbba97340	-0.0051712096
189	0xbd064826	-0.03278365
190	0xbd436931	-0.04770774
191	0xbd16bc74	-0.036800817
192	0x3d6f5716	0.05843266
193	0x3e071edc	0.13195366
194	0x3d90c717	0.070692234
195	0xbceaf6fb	-0.028682223
196	0x3d850f85	0.06497101
197	0x3d7d8e4f	0.061903294
198	0xbd0aae8b	-0.033857863
199	0x3dce894b	0.1008478

weight f4 [200, 200]
0	0x3dc8e33c	0.098089665
1	0xbe1d602a	-0.15368715
2	0xbd42bb41	-0.04754186
3	0x3d9ce730	0.07661283
4	0x3dcfbd92	0.101435795
5	0x3d92559e	0.071452364
6	0xbd71134a	-0.058856286
7	0x3decc1b7	0.11560386
8	0xbc20f3f1	-0.009823785
9	0xbe2d7345	-0.16938503
10	0xbe07fc84	-0.13279921
11	0xbd918355	-0.07105128
12	0x3e4fadec	0.2028119
13	0x3d50bffd	0.050964344
14	0x3d312477	0.043247666
15	0x3e308f8b	0.17242257
16	0x3d8bd13d	0.068270184
17	0x3cf079e4	0.029354997
18	0x3d3069aa	0.04306952
19	0x3e34323d	0.1759729
20	0xbe0ecfcc	-0.13946456
21	0xbe10d80e	-0.14144918
22	0xbe0698ba	-0.13144198
23	0x3d9777ee	0.07395922
24	0xbcc9a1ff	-0.024613379
25	0xbdf8b772	-0.121443644
26	0xbdd40f98	-0.10354537
27	0x3e201393	0.15632467
28	0xbc2d1bfb	-0.010565753
29	0x3d9055ae	0.07047592
30	0xbe31e20c	-0.17371386
31	0xbe1b334a	-0.15156284
32	0x3dbab8ae	0.09117256
33	0x3e2e896f	0.17044614
34	0x3b78c4ad	0.0037959025
35	0x3d1734c5	0.03691556
36	0xbd8c071b	-0.06837293
37	0xbd46b91f	-0.04851639
38	0xbde99c54	-0.1140677
39	0xbe150c22	-0.1455541
40	0xbd56ad8b	-0.052411597
41	0x3d9980fc	0.07495305
42	0x3e5d682b	0.21621768
43	0x3d7707d9	0.06031022
44	0x3d832c72	0.06404962
45	0x3cee89f1	0.02911851
46	0x3c9f3d1d	0.01943832
47	0xbe19f29d	-0.15033956
48	0xbdc77cee	-0.09740625
49	0xbdb61fbb	-0.08892771
50	0xbd45d45f	-0.048298236
51	0xbe0107c3	-0.12600617
52	0x3bfab631	0.0076511134
53	0x3d89682e	0.06709324
54	0xbd3a42bc	-0.0454738
55	0xbe2eb90e	-0.1706278
56	0x3e7079cb	0.2348396
57	0x3d4fc3d6	0.050723873
58	0xbd60ab54	-0.05485089
59	0xbd811c2c	-0.063042015
60	0xbe14bbd1	-0.14524771
61	0xbe25c2f7	-0.16187654
62	0x3d5e3e77	0.05425879
63	0x3de1fc1a	0.11034413
64	0xbe4ccb91	-0.1999953
65	0x3e1a9094	0.15094215
66	0xbbc03e88	-0.0058668293
67	0x3e2c3f8d	0.16821118
68	0xbd9db628	-0.07700759
69	0x3d07cf2a	0.03315655
70	0xbd94a742	-0.072584644
71	0x3e13d2d8	0.144359
72	0xbe11c8eb	-0.142368
73	0xbe2a53f2	-0.16633585
74	0xbdb662eb	-0.08905586
75	0xbde9f1b0	-0.11423051
76	0xbd4f252b	-0.050572556
77	0x3d420b06	0.047373794
78	0x3d398d9b	0.04530106
79	0xbdb811fe	-0.08987807
80	0x3e0c680c	0.13711566
81	0x3dd7c433	0.10535469
82	0x3de1a583	0.11017897
83	0x3e16db8b	0.14732186
84	0x3d3faab3	0.04679365
85	0xbd1edaa3	-0.038782727
86	0x3e3879c9	0.18015207
87	0x3df0e6ab	0.117627464
88	0xbd099ece	-0.033598714
89	0x3e30a441	0.17250158
90	0xbe0d360e	-0.13790151
91	0x3d6036a0	0.054739594
92	0xbc314817	-0.01082041
93	0xbcd99199	-0.026558684
94	0xbe44b63c	-0.19210142
95	0xbe06d678	-0.13167751
96	0x3e8094c2	0.25113493
97	0xbda5a2ab	-0.08087667
98	0x3e143f2e	0.14477226
99	0x3e3f2f78	0.18670452
100	0xbe015e7a	-0.12633696
101	0xbe10d535	-0.14143832
102	0xbdcc67ed	-0.0998076
103	0x3e1ee471	0.15516831
104	0xbd3e8f51	-0.046523396
105	0xbdcfe930	-0.10151899
106	0x3d3b401c	0.045715436
107	0xbd9459fa	-0.07243724
108	0x3e2b50a4	0.1672998
109	0x3e082073	0.13293628
110	0xbd56f634	-0.05248089
111	0x3d739604	0.059469238
112	0x3e1ee103	0.15515523
113	0x3e2dd186	0.16974458
114	0xbca189e8	-0.01971908
115	0x3bac5e1a	0.005260241
116	0xbdac0fd7	-0.08401459
117	0x3e151bc5	0.14561374
118	0x3ccf3b89	0.025296943
119	0xbe5c7d89	-0.21532263
120	0xbd7f7b24	-0.062373295
121	0xbddb4440	-0.10706377
122	0x3c2e670a	0.010644684
123	0xbe1c10e5	-0.1524082
124	0xbe3cd691	-0.18441226
125	0xbd8dea5d	-0.06929467
126	0x3e2750bf	0.16339396
127	0xbd2e5812	-0.04256446
128	0xbe384601	-0.17995454
129	0xbe38cafd	-0.18046184
130	0xbbfbda94	-0.0076859687
131	0xbe5459a8	-0.20737326
132	0x3dc3e008	0.09564215
133	0x3d88d961	0.06682087
134	0xbe40203c	-0.18762296
135	0x3d9e4543	0.077280544
136	0xbda466c1	-0.08027411
137	0x3e79d63f	0.24398135
138	0x3df2704c	0.11837825
139	0xbdb57923	-0.088609956
140	0xb94846fd	-0.00019099932
141	0x3d9928ba	0.07478471
142	0x3de59809	0.11210639
143	0x3e265b65	0.16245802
144	0xbdb73d2a	-0.08947213
145	0xbd1f4a00	-0.03888893
146	0x3e31425f	0.17310475
147	0x3d0cae68	0.034346014
148	0xbe0c0a2d	-0.13675757
149	0x3b04d095	0.0020265926
150	0x3e1ae13a	0.1512498
151	0xbe22a085	-0.15881546
152	0x3d9f54dd	0.07779858
153	0xbe204131	-0.15649869
154	0xbde2f3b5	-0.1108164
155	0xbe18155a	-0.14851895
156	0x3dfde6cd	0.123975374
157	0xbd7e2478	-0.062046498
158	0xbe20017c	-0.15625566
159	0x3e023a98	0.12717664
160	0xbddc2715	-0.10749642
161	0x3e1e4161	0.15454628
162	0x3c54a83a	0.012979561
163	0x3d09960e	0.03359037
164	0xbe385fd7	-0.1800531
165	0x3e0c1555	0.13680013
166	0x3db52941	0.08845759
167	0x3e202f49	0.15643038
168	0xbd07e3d8	-0.033176273
169	0x3e14b11f	0.14520691
170	0xbe4d4461	-0.20045616
171	0xbe3f86ca	-0.18703762
172	0xbc72b1e5	-0.014812921
173	0xbe04ab6f	-0.12956022
174	0x3d6ad38f	0.057330664
175	0x3e140916	0.14456591
176	0x3cabd8a2	0.020977322
177	0xbe13e0af	-0.14441179
178	0xbe3c63de	-0.18397471
179	0xbdb528d0	-0.08845675
180	0xbe1687c8	-0.14700234
181	0x3d9d775c	0.076887816
182	0xbe4cb431	-0.19990613
183	0xbe06a2c4	-0.13148028
184	0xbc9f41b4	-0.01944051
185	0x3e3c09a0	0.18363047
186	0xbe2c1044	-0.1680308
187	0x3b963abc	0.0045846384
188	0xbd138840	-0.03601861
189	0xbca35884	-0.019939668
190	0x3d8d3dda	0.06896563
191	0xbc677e51	-0.014129237
192	0xbc2b6512	-0.010461109
193	0xbdab86a9	-0.08375294
194	0x3dccb267	0.09994965
195	0x3b3840b2	0.0028114733
196	0x3d40ed86	0.04710152
197	0x3ccfa112	0.025345359
198	0xbcb7868b	-0.022403022
199	0xbe403888	-0.18771565
200	0xbdcdee32	-0.10055198
201	0x3e0b5861	0.13607933
202	0x3e098bed	0.13432284
203	0x3e1737c9	0.14767374
204	0x3dc01ded	0.09380708
205	0xbd0db3d4	-0.034595326
206	0xbd82ba57	-0.06383198
207	0x3ac6726f	0.0015140305
208	0x3e284b7a	0.16435042
209	0xbe242d35	-0.1603287
210	0xbd68e89c	-0.05686246
211	0x3e1cf956	0.15329489
212	0x3e0ab3f2	0.13545206
213	0x3e3d0689	0.18459524
214	0xbdc997cc	-0.09843406
215	0xbe0e586d	-0.1390092
216	0xbd23e501	-0.040013317
217	0xbe0e9989	-0.13925757
218	0x3e194057	0.1496595
219	0x3e0c1960	0.13681555
220	0xbccb1fd7	-0.024795456
221	0x3de7c3b1	0.11316622
222	0xbdf99db9	-0.12188286
223	0x3e12a05f	0.14318989
224	0xbe543278	-0.20722377
225	0x3e228d97	0.15874325
226	0xbd9a2e68	-0.075283825
227	0x3cd19236	0.025582414
228	0x3c315e10	0.010825649
229	0x3e0c87e7	0.13723718
230	0xbe33213a	-0.17493144
231	0x3e3df3f3	0.1855009
232	0x3de5daa9	0.11223347
233	0x3dc742dc	0.09729549
234	0xbe1c2591	-0.15248705
235	0x3e37d95f	0.17954014
236	0xbd92dc14	-0.07170883
237	0x3e295ec8	0.16540062
238	0x3e3ee470	0.1864183
239	0x3e09ea29	0.13468231
240	0x3e489c4e	0.19590876
241	0xbe334fcc	-0.17510909
242	0x3e11729d	0.14203878
243	0xbdfad284	-0.12247184
244	0x3e56b0cd	0.20965882
245	0x3d923e66	0.07140808
246	0xbcf1865b	-0.029483011
247	0xbe25d5ee	-0.16194889
248	0x3deb4f6d	0.11489759
249	0x3e29dc3d	0.1658792
250	0x3e12c0fa	0.14331427
251	0xbd6cb79f	-0.057792302
252	0x3dddd28c	0.10831174
253	0x3e0200a1	0.12695552
254	0xbcc49f46	-0.024001729
255	0xbe4a7fe4	-0.19775349

bias f4 [200]
0	0xbc94838e	-0.018129136
1	0xbceacc06	-0.02866174
2	0x3a959ecb	0.0011415122
3	0xbd26c082	-0.040710934
4	0xbd9a2a53	-0.07527604
5	0x3cc130ce	0.023582842
6	0x3d5e74cc	0.054310605
7	0x3c87f05f	0.01659411
8	0xbc6bfac0	-0.014403045
9	0xbd8eb9f3	-0.06969061
10	0x3c878524	0.016542979
11	0x3cc41e7a	0.023940314
12	0xbdd86eed	-0.105680324
13	0x3d442b8a	0.047893085
14	0x3cea24a9	0.028581934
15	0xbdb3c3c6	-0.08777575
16	0x3e073566	0.13203964
17	0x3c4b7ebc	0.012420353
18	0xbd7e246e	-0.06204646
19	0xbd40cb0a	-0.047068633
20	0x3d351c21	0.04421628
21	0x3bfd9703	0.0077389493
22	0xbd555496	-0.05208262
23	0x3cf52620	0.029925406
24	0xbdb8b1b3	-0.090182684
25	0x3df186c9	0.11793286
26	0x3dfe3abb	0.12413546
27	0x3d80d76b	0.06291088
28	0xbd344039	-0.04400656
29	0xbbc81799	-0.0061063287
30	0x3b2b39ad	0.0026126907
31	0xbd457222	-0.04820455
32	0x3c27227e	0.010201095
33	0x3ddb3d1e	0.107050166
34	0xbd9bbbac	-0.07604155
35	0xbc93fd76	-0.018065196
36	0xbce5569b	-0.027995398
37	0x3d4c5be7	0.049892332
38	0x3e06b74f	0.13155864
39	0xbc1654e5	-0.009175514
40	0x3d17c6c0	0.037054777
41	0xbd41c87a	-0.04731033
42	0x3d8298b6	0.063767835
43	0xbc4a854a	-0.01236088
44	0xbd95560f	-0.07291805
45	0x3d7e201f	0.06204235
46	0x3d863b22	0.065542474
47	0xbcac56d4	-0.021037497
48	0x3d8c5047	0.06851249
49	0xbc9d5c04	-0.019208916
50	0xbd88d9d4	-0.066821724
51	0x3c9432bc	0.018090598
52	0x3dfe3e2e	0.124142036
53	0x3c52fc67	0.01287756
54	0xbc164d6f	-0.009173735
55	0xbdadda32	-0.08488883
56	0x3dc9f12e	0.098604545
57	0xbd73687d	-0.05942582
58	0xbcc94ca0	-0.02457267
59	0xbdaa6651	-0.083202966
60	0x3cb5afca	0.02217855
61	0xbd4b8dfa	-0.049695946
62	0x3c8e72f7	0.017388804
63	0xbc8412da	-0.01612227
64	0xbc859cff	-0.016310213
65	0x3d4426b7	0.047888484
66	0xbce495e6	-0.027903508
67	0x3d936abc	0.07198092
68	0x3cc692c2	0.024239901
69	0x3cff43c7	0.031160248
70	0x3d02e78a	0.031959094
71	0xbca5073c	-0.020145051
72	0x3d82f2ac	0.06393942
73	0xbc9bbd36	-0.019011121
74	0x3dc6e5f8	0.09711832
75	0xbd073d43	-0.033017408
76	0x3dc4bc4e	0.09606229
77	0x3dc88663	0.09791257
78	0xbc54ef14	-0.012996454
79	0xbcae140a	-0.02124979
80	0x3a7b4a85	0.00095859944
81	0xbde97756	-0.11399715
82	0x3c0f13d2	0.008732753
83	0x3d84db9c	0.064872
84	0x3b6c1701	0.0036024454
85	0xbd80b4e4	-0.06284502
86	0x3d6a6cdf	0.057232734
87	0xb9bbf802	-0.000358522
88	0x3ccc0e4e	0.024909165
89	0x3bdef22b	0.006803771
90	0x3d228c97	0.03968486
91	0x3d287c01	0.041133884
92	0x3d9e013a	0.07715078
93	0x3db8d644	0.09025243
94	0x3ccf3762	0.025294963
95	0x3dcf60d2	0.10125889
96	0x3d15e0c9	0.036591325
97	0x3b326491	0.0027220587
98	0xbd4f004a	-0.050537385
99	0xbcf0156c	-0.02930709
100	0xbdcf08f0	-0.101091266
101	0x3e006213	0.12537412
102	0x3d8f4e01	0.069973
103	0x3daa0ba1	0.08302999
104	0x3dc850a9	0.0978101
105	0x3d4e0c3f	0.050304648
106	0x3d13aaf3	0.0360517
107	0xbd767864	-0.060173407
108	0x3d0fda0e	0.035120063
109	0xbd9571a3	-0.07297065
110	0xbdb098e5	-0.08622912
111	0x3d7c04ed	0.061528135
112	0x3ddb144f	0.10697233
113	0x3c8e2a78	0.017354235
114	0x3cf6c86e	0.03012487
115	0xbb828c4b	-0.0039840094
116	0xbc20851c	-0.009797361
117	0xbd4815f4	-0.04884906
118	0x3ca8b259	0.020592855
119	0x3d3d901e	0.04628002
120	0x3d10177f	0.035178658
121	0xbd9f47ca	-0.077773646
122	0xbb2fcecc	-0.0026826141
123	0xbd9ccc65	-0.07656173
124	0x3d62f2f7	0.05540749
125	0x3d03b70a	0.03215698
126	0x3d473358	0.04863295
127	0xbc2e70d5	-0.010647018
128	0xbbd4f724	-0.006499188
129	0xbd8c08c1	-0.06837607
130	0xbc53501e	-0.012897519
131	0x3bb6fb12	0.005584129
132	0x3d6932d6	0.056933247
133	0xbd9f0498	-0.07764548
134	0xbd5fb1e8	-0.054613024
135	0x3cc85f01	0.024459364
136	0x3cd3d889	0.025860088
137	0x3d60f84f	0.054924306
138	0xbc83d2ab	-0.016091665
139	0xbda2ad63	-0.07943227
140	0x3d3e34b4	0.04643698
141	0xbdffc8aa	-0.124894455
142	0xbd84858e	-0.06470786
143	0x3b622487	0.0034506635
144	0x3ce7366b	0.02822419
145	0x3ca3d253	0.019997751
146	0x3c882826	0.016620707
147	0xbcc25f7d	-0.023727173
148	0xbb90c9ed	-0.0044186027
149	0xbe05de1f	-0.13073014
150	0xbd8b6b27	-0.06807547
151	0x3dc7d22c	0.09756884
152	0x3d1983fc	0.037479386
153	0x3df50b7f	0.11965083
154	0x3c0796cc	0.008275699
155	0x3bdb5d2d	0.006694457
156	0xbd533036	-0.05155965
157	0x3d0e81d8	0.034791797
158	0xbb6c2aaa	-0.0036036172
159	0xbd9c25c1	-0.076243885
160	0x3c3245c2	0.010880889
161	0xbd0050b9	-0.031326983
162	0xbd558173	-0.052125406
163	0xbd296d0f	-0.041363772
164	0xbd0f2c4f	-0.034954365
165	0x3cad656b	0.021166524
166	0xbd7560b4	-0.059906676
167	0xbdb40688	-0.08790308
168	0x3daa759d	0.08323214
169	0xbb2a24a6	-0.0025961786
170	0x3d50265d	0.050817836
171	0xbd5f5ca8	-0.054531723
172	0x3d9d1e69	0.07671816
173	0xbd1d4b30	-0.038401783
174	0x3d6d866b	0.05798952
175	0xbb6410c3	-0.003480003
176	0xbd0de792	-0.03464467
177	0xbc923c97	-0.017851157
178	0x3d63e6a4	0.055639878
179	0x38d6e4db	0.00010246943
180	0xbd99df46	-0.07513289
181	0x3b1b63ad	0.0023710534
182	0xbcf3ed12	-0.02977613
183	0xbdd6c147	-0.104860835
184	0x3d3a68c3	0.045510065
185	0x3c613f3c	0.013747986
186	0xbdf1f6e9	-0.118146725
187	0x3ce0d9f5	0.02744768
188	0xbc2d98b7	-0.010595492
189	0xbd0967d7	-0.033546295
190	0x3db7aab6	0.089681074
191	0xbcc56622	-0.024096552
192	0x3d58ed0e	0.052960448
193	0xbdd01e86	-0.10162072
194	0xbcad9ed6	-0.021193903
195	0xbdc8df6f	-0.098082416
196	0x3d07c8b1	0.03315038
197	0x3d61f460	0.055164695
198	0xbc174c93	-0.009234565
199	0xbc18719d	-0.009304431
