net_param/net_0.09.pth (torch, 17999 bytes, 12 tensors)

hidden_layer1.weight f8 [20, 2]
0	0xbfd7115e24f04e29	-0.36043504340452387
1	0xbfe97eed2241eea6	-0.7967439335911493
2	0xbfe3f4bb21a122d0	-0.6236243874382925
3	0xbff5b2fe072e0c39	-1.3561992912734822
4	0xbfe5575289a6e600	-0.6669094742312041
5	0xbfb307a2bafa903a	-0.0743352610102769
6	0x3ff373827c795a98	1.2157006132380612
7	0x3fe3361b9a045d41	0.6003549583573787
8	0x3fef5bb849ec95dd	0.9799462741690906
9	0xbfe7a8b7e2abefc8	-0.7393454959087586
10	0xbfdd6f43ce974af0	-0.4599160687913999
11	0xbfd5287778b5a14b	-0.3305948904803883
12	0xbfe5c787626eeccd	-0.6806065485501677
13	0xbfc25805f96e11ed	-0.1433112590713245
14	0x3fe375ab1bbc3aba	0.6081138173775209
15	0xbfde8c77c21d31eb	-0.4773234744687033
16	0xbfe63e574419cdb7	-0.6951099710553795
17	0x4000908aac479685	2.070576997694675
18	0xbfbca21c6dee0e56	-0.11184861835322954
19	0x401600783c4ba5fc	5.500458662144862
20	0xbfda1e54ecc39070	-0.4081013023517306
21	0x3ff70a5b8d3858f2	1.4400287166986883
22	0xbff936df7e5a5650	-1.5758967338237149
23	0x3fe253b1dad53810	0.5727166437225168
24	0xbfc007cdd82123c3	-0.12523816159435172
25	0xbff8972ab63fa82c	-1.5369059676254535
26	0x3fe7075d3f49e692	0.7196489559275554
27	0x4000fe595ee9fc24	2.124193898692754
28	0xbffd6e2df7cc218c	-1.8393993072114396
29	0xbfdddeff3f2a1b4f	-0.4667356602516763
30	0x3fdd84a5a5724479	0.4612211337744792
31	0x3fdb53c79042821a	0.4269884976183974
32	0x4006003d17a780bf	2.7501165245049317
33	0x3ffdfbd8cbb5d678	1.8739860494073621
34	0xc007cb07be659bde	-2.97413586375795
35	0xbff43cb751a41209	-1.2648232640359558
36	0xc004971b8667f148	-2.573782968566011
37	0xbff1fa51e33ed3bd	-1.1236132504247813
38	0x3fdcb610f1ce1bc1	0.44861243833332415
39	0x4000c91fba65c461	2.098205047827421

hidden_layer1.bias f8 [20]
0	0x3fdb14bd8e3b3996	0.4231408966997149
1	0x3fc1f26f36dad9e9	0.14021101168118769
2	0x3fd5faec1d5b5d19	0.3434400831879017
3	0xbf35135937ef75ca	-0.00032158783136345943
4	0x3fb00de6834c7543	0.06271210389646335
5	0x3fe0fc765c6d7043	0.5308181576942917
6	0x3fdfff9e694073be	0.4999767330025938
7	0x3fb388e69fe4d671	0.07630769160899732
8	0xbfc337a2462bceac	-0.15013531137775737
9	0x3f732b893c44b815	0.004680191112397499
10	0x3fc0e1a589fe73a9	0.13188618886934236
11	0xbfd9ee9df49b8475	-0.4051890267128962
12	0x3fc415c124ac0863	0.1569138936102404
13	0xbfcb7f3651f79562	-0.21481970789242683
14	0xbfa6fb21ab8ea1fd	-0.04488473147586445
15	0xbfc8d2bd24277f90	-0.1939312387976284
16	0xbfac73c104029ce6	-0.055570632686164065
17	0xbfb4656722bb64c3	-0.07967228506039974
18	0xbf92be5003ec49a9	-0.01830410980171285
19	0xbfd36f1d1c7e5fb2	-0.3036568430193213

hidden_layer2.weight f8 [20, 20]
0	0xbfd788e66a4653c5	-0.3677307164992352
1	0xbfb952c67b6cf462	-0.09891930116005335
2	0xbfd08c705f66899c	-0.25857171360453335
3	0x3fb3271bf002384b	0.0748155079802199
4	0x3fab4f57a8492c5e	0.053339709561065915
5	0x3fabc751e9507ba6	0.05425506566120157
6	0xbfd6f73d072aec06	-0.3588402338024824
7	0x3fd379652971a3b0	0.30428437278038256
8	0xbfcae1a7704f1b2f	-0.21001141532743747
9	0xbf9806d6d83700d9	-0.023463589617450296
10	0x3fcac21358d8f95c	0.20904771650561826
11	0xbfb436f594ce86e3	-0.07896361239411535
12	0xbfc7006595567b26	-0.17969960967908455
13	0x3fc8e40a5d1de8a5	0.19445924326629896
14	0xbfc8376aa9acfb0e	-0.18919118199297497
15	0x3fc8a8ffe7d6e1f6	0.1926574594524621
16	0xbfd00a931bf49a92	-0.25064542512920085
17	0x3fc6da4e501cf61e	0.17853716766141842
18	0xbfc07804d07440a7	-0.12866268328116812
19	0x3faa8fb9ccbdbe9f	0.05187779068262199
20	0xbfc47e5591c61b39	-0.1601054155146018
21	0xbfca950889b1e01e	-0.20767313693409134
22	0xbfe11fa9e6c71907	-0.5351151950242475
23	0x3fad971d9bad213a	0.05779354596467319
24	0x3fd290345c0317e7	0.29005154595904376
25	0xbfcd49da0f97af4f	-0.22881627808907942
26	0xbfda23742b787a71	-0.40841392750909394
27	0xbfa3117963d28c4b	-0.037242692408903176
28	0xbfdb613b25f9b0ef	-0.42780951221972335
29	0x3f993597a3810c57	0.02461850104760929
30	0xbfe08c9ffecb59c3	-0.5171661354495928
31	0x3fb737fcf6cf541f	0.0906980612338235
32	0xbf7af1648bc54d27	-0.006577866323215254
33	0x3fc1c55a9e481a81	0.13883526543232352
34	0xbfd72900723df0aa	-0.36187754780236026
35	0x3fd5d53518be522f	0.34113814751006805
36	0x3fdf4489243bee67	0.48855808771597825
37	0xbfc3200c41d02b5d	-0.1494155236581162
38	0xbfd880e740db0ca0	-0.382867635093314
39	0x3fc80d809d09fca3	0.1879120604316756
40	0xbf98f85581e9125b	-0.024384819082359104
41	0xbfd462ed0ee0c886	-0.31853796437202
42	0xbfd51b67c138f9b6	-0.3297976862849298
43	0x3fd9e8081ac60c16	0.4047870885335113
44	0x3feb0573eb9c7481	0.8444156266956641
45	0x3fb863f05e9276fd	0.09527494725122305
46	0x3f855237b69b65bb	0.010410723934387236
47	0x3fdd79ce1d25ab29	0.46055939527893713
48	0xbfe42edae70a14f2	-0.6307196152198726
49	0xbfe8626cd94bc233	-0.7620147937832996
50	0xbfcf17cc79e104ec	-0.2429137797462667
51	0xbfe5908ba053f8d5	-0.6738947039991908
52	0x3fbc7c2307e6b59f	0.11126917784596067
53	0x3fcef5703f1143bf	0.24186518744911997
54	0xbfe8e3e3f6988e27	-0.7778186622931046
55	0x3fc2b0e24a6cf1e0	0.14602306970654322
56	0x3fe8416418ac543d	0.7579822999856628
57	0xbfeaba31b883f541	-0.8352287868325804
58	0xbfe3f4b7a400c0dd	-0.6236227229292371
59	0x3fe25398938c8ebd	0.5727045900170747
60	0x3fb4312814025b8a	0.07887506950861059
61	0x3fcbfb715dd7287d	0.21861092645696437
62	0x3faa92e330c5b656	0.051901912406589076
63	0xbfd01cb4c9879bb9	-0.25175208740841587
64	0xbf83c2d1b8493468	-0.009648931919537598
65	0xbfbad3a8fdeee9f0	-0.10479217719595346
66	0xbfce34aa956d2905	-0.23598224922381675
67	0xbfc8371c090b2f4e	-0.189181808868279
68	0xbf969e3949988c11	-0.02208795081800125
69	0x3fef46161abe2be0	0.9773054621049333
70	0xbfd355ce483a7a4e	-0.3021121697765111
71	0x3fba0cef9832f002	0.10175988641543657
72	0x3fcd17f20fd4a1dd	0.22729326031664146
73	0xbfc8e44712a8ad44	-0.19446648036078262
74	0x3fc7027d259cb465	0.1797634538319556
75	0xbfbda6801b475185	-0.11582184473019737
76	0xbfddaaf4be9769a3	-0.46355932819792595
77	0x3fd345b6928095bd	0.3011299544035316
78	0x3fdd1e4c5b7108ed	0.45497425966108446
79	0xbfca067dc3b01793	-0.2033230977542045
80	0x3faca720bcceaeef	0.05596258454110436
81	0xbfba5c375fcfe09a	-0.10296960915718714
82	0xbfc4508ea5236e36	-0.15870841086767634
83	0x3fc10d90c1824b55	0.13322648476295265
84	0x3fbcab4df602cf0e	0.11198889976622814
85	0x3fa533bacde227ad	0.041410291321042215
86	0x3fa93f4247a771bf	0.04931075215037905
87	0xbfb2264d2ff5a2a6	-0.070896934708467
88	0xbfb71de94fb5cd49	-0.09030016132401388
89	0xbfe221f63c40bdd5	-0.5666457344831836
90	0xbf9288fc54470ab3	-0.0181006838263424
91	0xbfcceb8253737021	-0.22593716692688395
92	0x3fcab58679b81650	0.20866471236529316
93	0x3fd2479a99eed0f8	0.28562035591609414
94	0xbfbb093feb2efc20	-0.10560988895211709
95	0xbfb67589e6ad8f90	-0.08773099786554739
96	0xbfb8e6f6893ef33d	-0.09727421618204075
97	0xbf8d059a74fa728b	-0.014170843787092898
98	0xbfca024a8047bca4	-0.20319491637881015
99	0x3fd8eb9bf0a481ae	0.38938044071440003
100	0xbfd12e03ae6143a6	-0.2684334948472106
101	0xbfa9d69faa54d1f8	-0.05046557382812361
102	0xbfc522eb809f8b26	-0.16512817173414723
103	0x3fca8a55073640a1	0.20734656192917547
104	0x3fc7a83e02ff6eee	0.18482184549690522
105	0xbfd18df100e5dd3f	-0.2742884167450547
106	0xbfa0713c4743fd15	-0.03211391801778
107	0x3fba09c6662060ae	0.10171165459940099
108	0xbfc6218a6fcf409e	-0.17289858302547584
109	0x3fa0dd508b7955ea	0.03293849661410404
110	0xbfc6dffbbb518f0a	-0.17871042868056747
111	0xbfcc20cfb166c997	-0.21975132143195417
112	0xbfa1fd7d623ecd1f	-0.035137098543964955
113	0x3fc5df695caa2bbc	0.17088048004765521
114	0xbfbfef55b67a6a01	-0.12474570946725551
115	0x3fd0d432ae7fa37f	0.2629515365684298
116	0xbfa4a6cac92995b4	-0.04033502297970007
117	0x3fc5dd56c8128e24	0.1708172299305356
118	0x3f9ceee213341df4	0.028255016729444152
119	0xbfb73dae346b9e3d	-0.090784919546075
120	0xbfcd62226dcbf04c	-0.2295573269001373
121	0xbfb26258a46ef6cd	-0.07181314482201202
122	0x3fa4a7b8b1c05e38	0.04034211320702891
123	0x3fb2feb9868c0f5b	0.07419929060784851
124	0xbfcdb2f33024d058	-0.23202361918231662
125	0x3fc41cbff97a5697	0.1571273773339967
126	0xbfc316c95d294583	-0.1491328911675219
127	0xbfa4f08550ce82d3	-0.040897527803513654
128	0xbfc123bba9a90364	-0.13390298637571185
129	0x3fed36bdb794845a	0.9129322610425661
130	0x3f89d360517993d6	0.012610199438492769
131	0x3fd59b84567bcbd8	0.337617001015301
132	0xbfd5b27fe7c3f685	-0.33901975282046976
133	0x3fa18c4af4476a80	0.03427347404404646
134	0xbf946f73acf8d9a6	-0.019956405098321327
135	0x3faa98350c366d60	0.051942498913571056
136	0x3f932f8ec2c0f9c1	0.01873610557253769
137	0x3f6e04a6e217088a	0.003664327567748653
138	0x3fcb5be9c2411c28	0.21374246583056444
139	0xbfc0b9631af220e8	-0.13065756622041325
140	0x3fd6aa2a677567b1	0.3541360864961645
141	0x3fa5e9c05fc29f32	0.042799007119639035
142	0x3fdb57ca9f1fdc41	0.4272333673429252
143	0x3f99c80a7a9aa870	0.02517715810123672
144	0xbfd45c7c640abdc5	-0.31814489145014263
145	0x3fdadda7af098068	0.4197787484499771
146	0x3fe2c742fe4c2fb3	0.5868239371061378
147	0xbfce742de4170e94	-0.23792050969324363
148	0x3fc131efd7d935ef	0.13433645286060833
149	0x3fe022cba2c62787	0.5042474917583925
150	0x3fbfde03acd1875b	0.1244814202232453
151	0xbfb95044a2511337	-0.09888104403314633
152	0xbf941b02daf8cbf6	-0.019634289374334167
153	0x3fcc5403278efc5d	0.2213138526112485
154	0x3f9fff452eab5344	0.031247216199364006
155	0xbfd4fe03e242a064	-0.32800385566452506
156	0x3fd87d42e3dbff1c	0.3826453423680378
157	0xbfd12a52144f1ad5	-0.26820804580021945
158	0xbfd20adab2f76bf3	-0.28191249348827724
159	0xbf5057b93ceb23c6	-0.000997477432678405
160	0x3fc48f78227f6165	0.16062833485080855
161	0xbfc3ce58732fbcd6	-0.15473466514911277
162	0xbfa048d2feae4182	-0.031805604542685564
163	0x3fd646a591d52d79	0.34806193582036077
164	0xbfa8f4946d3d9d48	-0.048740995726627434
165	0x3fb3c57560942deb	0.07723172767526136
166	0x3fa0074de779d7d3	0.031305727487889755
167	0x3fa152003e3d21f0	0.03382874259711233
168	0x3fd03e728b910471	0.2538114893869255
169	0x3fd80aaa2c1e81b3	0.37565092381012305
170	0xbfc314a461ed02d7	-0.14906744748625186
171	0x3fc229c9c859163b	0.14190027506463018
172	0xbfc13aed0f695e84	-0.1346107793094583
173	0x3fd263a13015939c	0.28733091064196414
174	0xbfa66f5560480d1c	-0.043818157199007696
175	0x3fd0251cb27d7d39	0.25226514273341
176	0x3fce41c8f89cd272	0.23638260020529206
177	0xbfd01e89ac868ac3	-0.25186387870978083
178	0xbfc7ab197c0e73a6	-0.18490904385990098
179	0x3fd520694ddcb354	0.33010323146554765
180	0xbfda7323538e20df	-0.41327746543585236
181	0xbff5e72621e0bc61	-1.3689328502039404
182	0xbfc5e527b2307325	-0.17105575752875626
183	0x3fd8d385dbd7ba37	0.38791033238422606
184	0xbfbc38a8fbaa1734	-0.11023956436301036
185	0xbfb5b76a01cd3de6	-0.08482992691028066
186	0xbfcfdec185cf36c5	-0.24898547204650448
187	0xbfcef9c0b53e2add	-0.24199684953449366
188	0x3fe5882be05cd6e0	0.6728724844058114
189	0x3fe318820a9a73b2	0.5967416960808036
190	0x3fd8149a079f1f0e	0.3762574266843196
191	0x3fd0e044defb622c	0.26368829513151826
192	0xbff0aedd5f20e37e	-1.0426915851550969
193	0x3ff8db4e9895de12	1.5535417518966637
194	0xbfddcca3ad8ebdf9	-0.4656151957414916
195	0x3fc217198e20b88b	0.14132995071253548
196	0x3ff09c7787beb9d2	1.0381999304332692
197	0xbfea19147ac6c1e9	-0.8155615232445231
198	0xbfe38ee294517a73	-0.6111920258370688
199	0x3ff79b0ead899d9b	1.4753557947932225
200	0x3fd395447781e993	0.30598556204463384
201	0x3fc20df7783e3664	0.14105122920266233
202	0xbfa261081789a7fc	-0.03589654242826154
203	0xbfcdbe5d44d781b6	-0.23237195836465013
204	0x3fca8dedb9e86476	0.20745631768730605
205	0x3fcdca7b0d41ab5e	0.23274171969691343
206	0x3fbcc8e99006305d	0.11244067922797414
207	0x3fbe00ca1067887f	0.11719954395769781
208	0xbfb699b9a264c4be	-0.08828315939605866
209	0x3fd8bc066af22996	0.38647613948764936
210	0xbfa3a89acf20ad8d	-0.03839572695172953
211	0xbf9249698a3ec45d	-0.01785817056924476
212	0x3fcd20961a083e5f	0.22755695601562118
213	0xbfa7d0cd77781115	-0.0465149124466128
214	0xbfc61cb038ff1e76	-0.17275049956355176
215	0xbfd008b2ec5f36ae	-0.2505309398955927
216	0xbf800426e89c63de	-0.007820419286462096
217	0x3fcd35b8356438a9	0.2282018910122521
218	0xbfc47573d46dae96	-0.1598343646286266
219	0xbfb61bb94ef5f93b	-0.0863605325484728
220	0x3fbd46fe7c851857	0.11436453380619703
221	0xbfc77823cd722f52	-0.1833538773683992
222	0x3fb324b79ce63424	0.07477901058719333
223	0x3fc978805d060d62	0.19898991148157125
224	0x3fcd18d50a9703d0	0.22732031838498168
225	0x3fb9afb35e95b1e2	0.10033722933957948
226	0xbfb9839b03111350	-0.09966439080114964
227	0x3fd9f6a456533c45	0.4056788294810228
228	0xbfbb02cadcdb6a0f	-0.10551135913866737
229	0xbfc3deafed2cfa91	-0.1552333744129624
230	0xbfb0f4ac02ee50bd	-0.06623339721255923
231	0xbfdcf02f5a644862	-0.452159727357076
232	0x3fb57ad6735433a4	0.08390560451171197
233	0x3fc9b23bea6fdeb2	0.2007517714225649
234	0xbfd99ea2e1f8bff3	-0.40030738894984025
235	0x3fcc47c4eed48d53	0.22094022428164325
236	0xbfa0a514ffd5bba9	-0.03250947592720561
237	0x3fb3510813714c65	0.07545519327804724
238	0xbfa09fac1d6d20b0	-0.03246820315558929
239	0x3fd1e5462baaacd4	0.27961878074957025
240	0xbfd48205705d6fed	-0.32043586705344645
241	0xbfcc63fc8e905002	-0.22180134736174756
242	0xbf9a2655b048ad0f	-0.02553686035586816
243	0xbfc378c450d590ec	-0.1521230120371294
244	0xbfc7500dfbc77d79	-0.1821305732146177
245	0xbfc7b5ea7ee2a112	-0.18523913569993816
246	0xbfc7b1849350d45a	-0.18510491555358294
247	0xbfcde2050abec15b	-0.2334600737062925
248	0x3fa1ba0ad7c3c160	0.034622515524349806
249	0x3fd18e08c30ddddd	0.27429408119448145
250	0x3fd005d0506ac715	0.250354841739964
251	0x3fd48b4f0f3934f3	0.3210027359644549
252	0x3fad0675a9a236b1	0.05668990798686247
253	0xbf9667390a3c7133	-0.021878138780366995
254	0x3fd53afbfa246f1e	0.33172511508904445
255	0x3fd059c822595431	0.2554798446120144

hidden_layer2.bias f8 [20]
0	0xbfc6c0d9eb85607c	-0.1777603530888462
1	0xbfc0e58278fbf6b5	-0.13200407893594038
2	0xbfa47e3497c847b3	-0.04002537110149209
3	0x3fb5490185fefd27	0.08314523240459391
4	0x3fb34970304289b3	0.0753393285581641
5	0x3fc814c4b9e0c110	0.18813380313941552
6	0x3f81563e547a010f	0.008465277627010907
7	0xbfc875f96d2fff31	-0.1911002905981092
8	0x3fb38c9cff9f2632	0.07636433830989445
9	0xbfc5d080c1952803	-0.17042550518300467
10	0xbfbecdc447f912e8	-0.12032725102569553
11	0xbfa4b5fc61fee358	-0.04045094200359384
12	0x3f844f73f8234a7c	0.009917169580522904
13	0xbfcae12e016b37ec	-0.20999693936613484
14	0xbfc42fa83f503a0b	-0.1577043828151122
15	0x3fa2be3455e8f317	0.036607394682937215
16	0x3f9c0b0cb390ee43	0.027385900935980933
17	0x3faeccc2d02752e5	0.06015595236718755
18	0xbfc5ef571dea416a	-0.17136658631035157
19	0xbfa1541902f28239	-0.03384473954179552

hidden_layer3.weight f8 [20, 20]
0	0x3fae285870b0c186	0.05890156150451546
1	0x3fc49daa4a3bfca9	0.16106155991289953
2	0xbfd033d7f87614bb	-0.25316428436083144
3	0x3fbc71958ca5737f	0.1111081570029011
4	0xbfbd5bb25db0f64c	-0.11468043124565347
5	0xbfc1c48dd1ca01f7	-0.13881085151298553
6	0x3fc017bbba3e2a3d	0.1257242831600979
7	0xbfd2108f56878184	-0.2822607369435206
8	0xbfc094c7e675e6d0	-0.12954043152767847
9	0x3fcaad47e5204b5c	0.20841311157036102
10	0xbfc9e4f3958ebe76	-0.20229954531304245
11	0xbfce9cd0e4f4ca32	-0.23916064433577017
12	0x3fca5563f6136f45	0.20573091044831862
13	0xbfae84052331a484	-0.05960098318684806
14	0x3fdddfa855d67eb6	0.46677597410778604
15	0xbf5477dcb5ce4600	-0.0012492804882849873
16	0xbf939109a15f22e6	-0.019107962107031272
17	0x3fb638cd90d29a28	0.0868042448588332
18	0xbfb3b553e080efaf	-0.07698559027715988
19	0xbfd047414788a60a	-0.2543490599224191
20	0x3fbe1006775f9e45	0.11743202604667953
21	0x3fd0c8ed775c0d32	0.262263647615515
22	0x3fafc60d12bebb47	0.062057884729589
23	0xbfb46c2b622c4af7	-0.07977553507616252
24	0x3fbfe44c02175e02	0.12457728434616658
25	0x3f882ebf20443aae	0.011807912037082726
26	0xbfc62c6c0eba677e	-0.1732306548990969
27	0x3fcc01a43167ee19	0.2188000909080621
28	0x3fae73ce5144fc91	0.05947727911051815
29	0x3fccda2b12aaae7e	0.2254079667230719
30	0x3fb122e7cb103703	0.06693886478043613
31	0x3fddef3a49e7c53e	0.4677262994510619
32	0xbfd16c81b1e96cc6	-0.27224771856499463
33	0x3fcf941a87e17671	0.2467072642784163
34	0xbfa66a7fa63ea3c9	-0.04378127006868444
35	0xbfcfabead7027a2a	-0.24743400095481266
36	0x3f9b37c162644db7	0.02657987750087695
37	0x3fc5e9e2ac28be08	0.17120011717041472
38	0xbfd0ba43f1239560	-0.2613687376854923
39	0x3fbeba15c71b0655	0.12002693282104222
40	0x3fcb34ceae22b1c5	0.21254905226432022
41	0x3fce794fe49ccb56	0.23807715094298015
42	0xbfc046bf43e59df9	-0.12715903106003149
43	0xbfc8f12dd1182b51	-0.19486019811332736
44	0xbfc68b9635a7fa76	-0.1761348497384067
45	0x3fc2fa5b765e461b	0.14826529769611416
46	0xbf8fb21c6cd113f6	-0.015476438589880442
47	0xbfdb487076e99b0b	-0.42629634487677553
48	0xbfcac98c13e86cd6	-0.20927573177400544
49	0x3fa6474e4ea8c99e	0.04351277075001579
50	0x3fd669fb7c5b29f8	0.35021865028525623
51	0x3fcab917670ac810	0.20877354174950868
52	0xbfb888ff5cff5378	-0.09584041614955463
53	0xbfa1edef3b282d67	-0.03501842114573144
54	0x3fbb69bdbb77a705	0.10708223177757865
55	0x3f94396b912569a0	0.01975029061700584
56	0xbfc2536db10c508b	-0.14317103524138405
57	0x3fa473f3f3171442	0.03994715063485234
58	0xbfbbdb2318ff78a8	-0.10881251678753989
59	0x3fc88409b7c70bc7	0.1915294787741841
60	0x3fe0163b92ff9dd2	0.5027139540733805
61	0x3fd0596277ab8de0	0.2554556053784989
62	0x3f750a54a1aabdde	0.005136805145113025
63	0x3fd5378264a525d4	0.33151302174209474
64	0xbfd86a6165cf3235	-0.381492947982028
65	0x3fd9640934a41bce	0.39673071041800945
66	0x3fd8e815addb8042	0.38916532495750655
67	0xbfd854c88d3af529	-0.38017476837179004
68	0xbfd58bff6e2fdca9	-0.3366697860760249
69	0xbfe7ed9339c09e62	-0.7477508666970147
70	0x3fbc63a9e076abdd	0.11089574556414968
71	0x3fc3e642806aa7fc	0.1554644705805116
72	0xbfc64b29c8d1cb9b	-0.17416879945411953
73	0x3fd47901380c574c	0.3198855445237896
74	0x3fb2f44d5bfffadb	0.07404025550929864
75	0x3fd1ce19eb400571	0.27820442174569054
76	0xbfe4b1a08db945ea	-0.6466830032388178
77	0x3fad697a06bc629d	0.057445348093272154
78	0xbfccdf582719d7ab	-0.22556592854715282
79	0x3fa541b21e85f875	0.04151684401129866
80	0xbfd180d2d72f7ec4	-0.2734877683087513
81	0xbfd37d01614db4a1	-0.3045047235708101
82	0x3fc3a5fc6f81c95b	0.15350299305607504
83	0x3fb2a512c71960f0	0.0728313194352983
84	0xbfc225b7bcebe5e4	-0.1417760536640308
85	0xbfc5590d0bc7e418	-0.16678011965976292
86	0xbfa572e51417b8b3	-0.041892203047483
87	0xbfa07000d2c612e1	-0.032104516724791095
88	0xbfa6ea878ab56329	-0.044758067781634665
89	0x3fc6f355ebd2ca5c	0.17930101408781496
90	0x3fc01307e972256d	0.12558077715611252
91	0x3fc00788bf5b9536	0.12522992461814803
92	0xbfd3c095b2694035	-0.3086294405266046
93	0x3fa7e98e61cd78ff	0.04670376724128466
94	0xbfc0b82e123893b3	-0.13062072648713538
95	0xbfb20c5216366153	-0.07050049822135422
96	0xbfbad3f5507c9de0	-0.10479672636994719
97	0x3fb61175114d1537	0.08620387718572863
98	0xbfc921d507a602cd	-0.19634497521840047
99	0x3f8ade02db8e670b	0.01311876518757373
100	0x3fa490840adad2cd	0.040165067982717774
101	0xbfc8efc31850ecf4	-0.1948169583064111
102	0x3f78c65a24616696	0.006048538320180838
103	0xbfd5c9672d459d74	-0.3404176656826714
104	0x3fd250ad143273a0	0.28617407772417813
105	0xbfc423edac853fba	-0.15734644817211835
106	0x3f8bd5b025720d65	0.013591171400782096
107	0xbfd1084341854982	-0.26612931631566294
108	0xbfbc5dcfea64fd40	-0.11080646011850082
109	0xbfc26ef6a58b3ea3	-0.14401133616637649
110	0xbf9f2a446e65027d	-0.030434674489927083
111	0x3f904f06474183a3	0.01592645463859167
112	0xbfcda2deaad7c621	-0.23153289167343963
113	0x3fd0eff7e30f506d	0.2646465031987251
114	0xbfac8823d8870526	-0.05572616594464312
115	0x3f81d9d2f54c5981	0.008716247664364076
116	0x3fd2b6392de0d81f	0.29237203102400317
117	0xbfc57b2862272c27	-0.1678209761870175
118	0x3fd753ef7f13e98a	0.36449801835956264
119	0x3fd1473f43f95578	0.2699735797699172
120	0x3fc61ce3e0a409c6	0.1727566573027401
121	0x3fd3601ea53960ee	0.3027416814343401
122	0x3fca39e7f44b8102	0.2048921530577062
123	0xbfce7f7173ac9aef	-0.23826425693660933
124	0x3fcb996be47158a4	0.21561955122405607
125	0xbf5b8f7eb9190408	-0.0016821610955874994
126	0xbfbf75b8a7d32ff7	-0.12289003464974245
127	0xbfa697f6b48eb361	-0.04412814096517682
128	0xbfa31d4817a1aa6f	-0.03733277595968764
129	0x3fa43b92e1a38cbd	0.039517011684233584
130	0xbfcdb0f2f0827dba	-0.2319625543941422
131	0x3fb522f446bae20f	0.08256460882956439
132	0x3fc03f7791cb8288	0.12693686121840053
133	0xbfc6ae13b3cb73a3	-0.1771874072936984
134	0x3fc425a712946bd2	0.1573990669938597
135	0xbfa4f4144a2e80b4	-0.04092467694795357
136	0xbfc6d98196eca8d0	-0.17851276273115113
137	0xbfcf1a990e16f0c2	-0.24299920261353775
138	0xbfb7edc9c6128ef6	-0.0934721096587586
139	0x3fb162e9c855256c	0.0679155458539264
140	0xbfc71f4e92288df5	-0.18064291130677615
141	0x3fb9cd328b371e2b	0.10078731440364012
142	0x3fc3388967c18fb3	0.15016286436286705
143	0xbfb4fe3d609d01fd	-0.08200439079974582
144	0xbfc5c62ff2658b31	-0.17011069618009736
145	0xbfb20ad378765246	-0.07047769251796251
146	0x3fccf28033140c1a	0.22615053648050393
147	0x3fdcf8a8f6d49cb8	0.45267700295012103
148	0x3fd713eb80a11894	0.3605908161301923
149	0x3fe535d0264b3438	0.6628189800191029
150	0x3fbff3723d548dd1	0.12480844495126255
151	0xbf9eb4e4dd4b5987	-0.0299869308535903
152	0xbf90df77e239278b	-0.01647746389634323
153	0x3fd8c3061704e317	0.3869033074184229
154	0xbfea739a469017f6	-0.8266116502934426
155	0x3fb46ac6fd487f08	0.0797542923323783
156	0xbfc6f5c05472a9f0	-0.17937473414833915
157	0xbfd7a48352722ecc	-0.36941607524270803
158	0x3fafedd8acecda4b	0.06236149893668549
159	0xbfa5e8426fe7e188	-0.04278762451207557
160	0x3fc7d8ad7102a884	0.1862999727066531
161	0xbfb84a6e877cacbd	-0.09488573844707822
162	0x3ff01ff790518cf3	1.0078044545596725
163	0xbfdb10701a0dac3e	-0.42287828964498775
164	0x3fd3e3e752832d73	0.3107851320061947
165	0x3fbb3a6be0a00516	0.10636018976221737
166	0xbfe0c3d36054e52e	-0.5239045030095093
167	0xbfdacd91bf20ca3b	-0.41879695572712067
168	0xbfd1c54525544d85	-0.2776654114288351
169	0xbfbe1b0216eb19d2	-0.1175996118500742
170	0xbfca1b4113d2c3fe	-0.20395673244414064
171	0x3fcdfa6a22c80e5c	0.23420454691232606
172	0xbfd7a7e7eeb3cdcb	-0.3696231680944179
173	0xbfe56a8fe645f702	-0.6692580697560688
174	0xbfd903b049552439	-0.3908501354349628
175	0xbfdd86d85a65b7a5	-0.46135529353966326
176	0x3fd8bd3eee5baaaf	0.3865506484714087
177	0x3feb522941222849	0.8537794372689486
178	0x3fd3ea7e968f2920	0.3111874075226684
179	0x3fd64391fc4cc248	0.3478741611352558
180	0xbfcad9e4660233af	-0.2097745416725991
181	0x3fa7de17b0c8badf	0.04661630661973048
182	0x3fc2e2874d571150	0.14753810192463357
183	0x3fd03261ee9d5e99	0.2530751066419526
184	0x3fc9a44effe5062f	0.20032680029730573
185	0xbfa40557dd376775	-0.039103265527684984
186	0x3fa17cd1f1ea215c	0.03415542676981673
187	0xbfc64b4fb8a3d482	-0.1741733218729316
188	0xbf8c124622a1eba8	-0.013706729823970878
189	0xbfb21c7b534df00d	-0.07074709686088472
190	0xbfc229d3bb11093c	-0.14190146097286938
191	0xbfb39aae0f816e5f	-0.0765789783339925
192	0xbfaf21ae7ea0ba7a	-0.060803845365048084
193	0xbf993fb0386df27a	-0.024657014316732596
194	0x3fc07de69b7b97eb	0.12884218780453635
195	0xbfcee116fe84db00	-0.24124419620212478
196	0x3fb031adbb755cdd	0.0632580359136798
197	0xbfbf2e8bfff7d6df	-0.12180399893972148
198	0xbf8d9cb7551e12ff	-0.014459068570212617
199	0xbfc046d58b865cbe	-0.1271616870187468
200	0x3fd0db3be96c9a4b	0.2633809833081712
201	0x3fdb93a5d62c0a79	0.4308867064975526
202	0x3fbdf00ffe4838ea	0.11694431264934094
203	0x3fcf6aab0c0d1291	0.24544275368147742
204	0x3fbedfc3de7bbd32	0.1206018846676116
205	0x3fc501c481c691a2	0.1641164430303777
206	0x3fb1fa20a6762ff0	0.07022289337163534
207	0xbfdeec8641fb784c	-0.48318630641540916
208	0xbf8429df84bc16fb	-0.009845491636507378
209	0xbfc0e6f9e2426264	-0.13204883144205148
210	0xbfc3a2189d3e37f4	-0.15338428190119624
211	0xbfcd6963d221931d	-0.22977874527273282
212	0x3fbe2534c3277640	0.11775522007470673
213	0x3fc79b03434bd411	0.18441811357448093
214	0x3fbdb16297eff372	0.1159879322949118
215	0x3fb14f3b3deced72	0.06761522542813284
216	0xbfc7dd3904cafc1b	-0.18643868192700172
217	0x3fc3b8895f4ef9e7	0.1540691104291476
218	0xbfd26cecce2c7cbe	-0.2878982556739621
219	0xbfd4732f1262c7b2	-0.3195302657651339
220	0xbfc335471d2b34a0	-0.1500634090829509
221	0xbfb850b6374a20c4	-0.09498156404345354
222	0x3fc8a02261b08fbd	0.19238691110615305
223	0xbfe3c7aebf5f3b97	-0.6181253183111605
224	0x3fd9c96d654d43a3	0.40291914837603765
225	0xbfb49a0fa3711101	-0.08047578563952486
226	0xbfe3b346db5b3676	-0.6156343731215219
227	0x3fb1406c1e8596b9	0.06738925690805332
228	0xbfa21a7a4764e51e	-0.03535825845251338
229	0x3fea3053c1e605db	0.8183993136482813
230	0xbfd81d15f1115e48	-0.37677525083333707
231	0xbfb144561fdda19c	-0.06744898107502312
232	0x3fc86921bc7de0a5	0.19070836738297206
233	0xbff1225ffda1274b	-1.070892325153596
234	0xbfdcdf870f806db1	-0.4511430407889874
235	0xbfe7b3d11ddaef25	-0.7407003005132294
236	0x3fd194ed13746810	0.27471472644686035
237	0xbfc01efc85c281c3	-0.12594563037147397
238	0x3fd539e788370a28	0.33165920545812577
239	0x3fbdf0ddd7d4648b	0.11695658225325382
240	0x3fd4fa9d10cd6a3a	0.32779623642787536
241	0x3fdf958ff0146415	0.49350355572966126
242	0x3fb38bb459e523d3	0.07635047144607592
243	0x3fbac79845d112ff	0.10460807518490965
244	0x3fd7ced04d7767f6	0.3719979053981882
245	0x3fc3fbec51a3c253	0.15612558351814929
246	0x3fb98fbd7e5cb89e	0.09984955153479055
247	0xbfd354b268674508	-0.30204448886532065
248	0x3fbfdb7689aa5516	0.12444249020548556
249	0x3fc73467b84ad71a	0.1812867784371342
250	0xbfc8612bc62b79bc	-0.1904654233575921
251	0x3fc8597b27215b12	0.1902307454172037
252	0x3fc414d1595d144a	0.15688530791718086
253	0x3fc0a1c3fac43aaa	0.12993669266184799
254	0x3fe0d6f79fdc4621	0.5262411234163588
255	0x3fd09c0fc2f8af7a	0.2595252422349784

hidden_layer3.bias f8 [20]
0	0x3fc2f0ecdfd01a4e	0.14797745636333776
1	0x3fc29effd282174f	0.14547727373809002
2	0x3fbf28c6a32e18b1	0.12171594127548492
3	0x3f9892bc5d6d3076	0.02399725265722493
4	0x3fbeb70b1f4d8ef3	0.11998052133781893
5	0xbfc8f5aea93afe7d	-0.19499762786107402
6	0x3fc2bd94ba731e36	0.1464105520628764
7	0x3fd079c09604d8e4	0.2574311699894578
8	0x3f9b92774966873d	0.026925910811434795
9	0x3facb7d8b52bf81e	0.056090137592022624
10	0xbfd0f9f52c7d0f82	-0.2652562078912909
11	0xbfbe8ef353ae6d48	-0.11936875145913917
12	0x3fc1a5014eb9b2fc	0.13784805625927976
13	0xbfd6be54f73131dc	-0.35536693706378997
14	0x3fb65753430011cb	0.0872699774336702
15	0xbfac5ff84144583f	-0.055419691054496394
16	0x3fd076c7427f5d22	0.25724965566537794
17	0xbfb9efc7bacc031a	-0.10131500540229546
18	0xbfc617b2d20d6dd4	-0.1725982213637126
19	0x3fa590f99761d8d8	0.04212169621398382

hidden_layer4.weight f8 [20, 20]
0	0x3fc1522184feb3a5	0.13531893724339486
1	0x3fa3783cad325df8	0.03802671064584823
2	0x3fcf79677a87404f	0.2458924625666463
3	0x3fd28cb59933fb50	0.2898382183192796
4	0xbfc98776801b5090	-0.1994464993973719
5	0x3faf9a756c5e9a97	0.061725301245407475
6	0x3fd0a62ff8a0e0d8	0.2601432731639881
7	0x3fd2d758fb8eb158	0.29439377370979036
8	0x3fbff23fd5476c53	0.12479018170363192
9	0x3f7a919bbda97b78	0.006486519205821099
10	0x3fd6dad0c5287a67	0.3571054387447589
11	0xbfd739b1ebe64bc8	-0.36289642369336805
12	0x3fd1b38239a6c890	0.2765813410761746
13	0x3fd47f0493d1c388	0.3202525561856011
14	0x3fb0224c2c0ce828	0.06302333903741497
15	0xbfd58cca5dc32591	-0.3367181697509177
16	0x3fcdccc8d375190d	0.23281202626294153
17	0x3fd2e39dc9c9aae4	0.2951426001151687
18	0x3fd0824c53f3e1f3	0.2579527683115252
19	0x3fcc09e9e7e740f6	0.21905254195599583
20	0xbfd3561fe3ab56e9	-0.30213162644700603
21	0x3fd23a178e0abafb	0.28479565497666187
22	0xbfad4ef6f21105f5	-0.05724307732499404
23	0x3fd0e70c1c7fe8db	0.2641020086590637
24	0x3fd0193233be7ebf	0.2515378480256735
25	0xbfb774879f8de95b	-0.09162185330743482
26	0xbfc72fff533cfb7a	-0.1811522633015235
27	0x3fd19d9825d79dae	0.2752437943986149
28	0x3fbacb8ccf222c33	0.10466842705697914
29	0xbfb3cec855d61c2d	-0.07737400146116676
30	0x3fabca7512991d08	0.05427900173213557
31	0xbfc0949e847ade10	-0.1295354983210335
32	0x3fbebbb72c20659b	0.12005181147869452
33	0xbfcb26c3ae10312e	-0.21212049483472967
34	0xbfc2fb12eb212a43	-0.14828716736731637
35	0xbfa7173342ee7ec3	-0.04509887878452681
36	0x3fcde65b4a2a447a	0.2335924255499185
37	0xbfcd51118ce115fb	-0.22903651598805638
38	0xbfd374c73fa9f7f0	-0.30400258271390523
39	0xbf9e4f5959d2d028	-0.0295995675157458
40	0xbfc9e7abcb02c734	-0.2023825398696829
41	0xbf92fa9ad4831f10	-0.018534106465067757
42	0x3f992521818dfb94	0.024555705578218914
43	0x3f9d594fa988ee7a	0.028661007616604263
44	0xbfc8cad56377ff4e	-0.19368998867866555
45	0x3f7e16dcc73b0c31	0.007346022048014198
46	0x3f99e3da5473d7c0	0.025283252148220248
47	0x3fb58aebe6fe6505	0.0841510237645658
48	0x3fa4a8eb3cb230b1	0.04035124889296194
49	0x3fd7ffe767bab443	0.3749941361409734
50	0xbfb291d150557d6e	-0.07253750048902471
51	0x3fafe4e449fe4dc5	0.06229318049659186
52	0xbf978cc5199e0dcd	-0.02299793213707151
53	0x3fc68fb623f3cffd	0.17626072650421057
54	0x3fd417fc2c5ec56d	0.3139639313986525
55	0xbfcdfbd488a2cd66	-0.23424774810483057
56	0x3fa2a5d2a9b845a7	0.036421378343344295
57	0x3fa8d8a5b5e8c82a	0.04852788777897417
58	0x3f9cde108199eaa1	0.028190858755332674
59	0x3fc6841afa16a297	0.17590653621052318
60	0xbfc6fc287a22203d	-0.1795702549318338
61	0xbfc520545cbc858b	-0.16504911926407959
62	0xbfbb142c94108fc6	-0.10577658285961808
63	0xbfc5aede77b0e3c5	-0.169399078791484
64	0xbfc268bcf4c70bd2	-0.14382135345485253
65	0xbfc40f98afd4af67	-0.15672596536148406
66	0x3fc4de45d941f7e9	0.16303322895322417
67	0xbfc27b540dd88fd9	-0.1443886821372178
68	0xbfa08d1f558623d2	-0.0323266784572024
69	0x3f7eb9040eb76649	0.007500663613848221
70	0x3fc3cbe050d79980	0.15465930888531076
71	0xbfc213f2d9989e7f	-0.1412337839585582
72	0xbfa510a52dd5ebe1	-0.04114261803166364
73	0xbfc656a3795cda2f	-0.17451899934685985
74	0xbfc9f27d54db77ab	-0.20271269458220095
75	0x3fc1826e1b982523	0.1367929110277056
76	0xbfcfa0f9b28fc625	-0.24710007876233067
77	0xbfba229cac5c4495	-0.10209063728349783
78	0xbfb9c2aa36555498	-0.10062660051819916
79	0xbfacfdfe00ec7761	-0.05662530671382516
80	0xbf6de56b6c60bbab	-0.003649434863312225
81	0x3f99a8f43f3473e6	0.025058571202965306
82	0xbfbe9b752a1804af	-0.11955959584885777
83	0xbfd87d82051bd490	-0.3826603937043922
84	0x3fcb36cf68e6f8c2	0.21261017439059599
85	0xbfcf90514ff7e7ac	-0.24659172444063182
86	0x3fd0c173bada2a0b	0.2618073773125224
87	0x3fd5bd854a78cb46	0.3396924235595872
88	0x3fedd1334ebcd03b	0.9317871606676883
89	0xbf3e993474d17e6d	-0.00046689539596476184
90	0xbfcb9e085df539e3	-0.21576027477062984
91	0x3fd565498cf0870e	0.334307086597719
92	0xbfc1bc2ab743f61c	-0.1385548968172977
93	0xbfd47119b76f1e93	-0.3194031039570088
94	0xbfc11f4fa03edf12	-0.13376803707591783
95	0x3fc74e84d91e286b	0.18208370782332692
96	0x3fb758b10cd7cc01	0.0911970764498591
97	0xbfc701117ef401d6	-0.17972010325321602
98	0x3f9748ff4b28acdd	0.02273939987405248
99	0xbfb0a39712234420	-0.06499618714157451
100	0x3fd34af2b07ea755	0.30144946323217897
101	0xbfcb8e819a7616ec	-0.21528644601874392
102	0x3fcfc9006b41494a	0.2483215831476378
103	0x3f853b0c5c1cbc72	0.01036653190712242
104	0x3faa87ab0469f316	0.05181631497268861
105	0xbfca60394df9dd86	-0.2060615187399259
106	0x3f92bb9467839a9c	0.01829368478584091
107	0xbfc8d7f26f85bae9	-0.19409017987660285
108	0x3fca59fee3bc65f5	0.20587144966047757
109	0x3f95748f0ed99491	0.020952449113242514
110	0x3fd150120676cf46	0.2705121100545863
111	0x3fddbbecb1d81689	0.46459500663363734
112	0x3f9fcc65b1b5cafa	0.031053151103558975
113	0x3fc7e3a3d2ac506b	0.1866345194508797
114	0xbf9e53c260a0988c	-0.029616391322769206
115	0x3fd5b71d181311de	0.33930137015366124
116	0xbfd1b7272cd2efcf	-0.2768037736639117
117	0x3fc2463ebc216286	0.14276870904975086
118	0xbfc6fa46768e0ea6	-0.17951279438795104
119	0x3fca9f793ed592f9	0.2079917485053995
120	0xbf6c7025ea46b202	-0.0034714451341726358
121	0x3fa9192598455317	0.04901998027586368
122	0xbf8ac34d3a234073	-0.013067820870134228
123	0x3fb08b7f0f4751bb	0.06462854502689812
124	0x3fc04076ff050e05	0.12696731044898982
125	0x3f941b75c3fa3e0e	0.019636001669423968
126	0x3fa07c4cceb88008	0.0321983339638337
127	0xbf87ecaec914d137	-0.011681905280604183
128	0x3f75d7ea13cda3ee	0.005332865109132874
129	0xbfc7d9d5aa6b92a9	-0.1863352853898921
130	0x3fc9138f7ed26127	0.19590943996878105
131	0xbf8a54ca7b398663	-0.012857038388747804
132	0xbf8a9a76b6bc944d	-0.01298992867629969
133	0xbfc3480884a36b9a	-0.15063578106386616
134	0xbfa580b9eb9a0785	-0.0419977283572868
135	0x3f9aa8a318dcc8eb	0.02603392447708412
136	0xbfa7d95b8af10d1a	-0.04658018179955033
137	0x3fab94fb22f7bd59	0.0538710098443242
138	0xbf4fe9943183a1b1	-0.0009738896942766332
139	0x3f94b3fb397d3966	0.020217824348315892
140	0x3fb2493270e321eb	0.07142939811740916
141	0x3fac3af5d178fbc9	0.05513733083761669
142	0xbf9fee915d060340	-0.03118350153227145
143	0xbfa404e1a9513ac3	-0.03909974281179054
144	0x3fabfae6369ec89d	0.05464858452559549
145	0x3fc1bb5cdec6dede	0.13853035810256292
146	0x3fae64fea944d41b	0.05936427894850046
147	0xbfb6bbc9679ad8ac	-0.08880289821067561
148	0xbf894aa47258f2de	-0.012349400271994989
149	0xbfc75a62fd320c76	-0.18244588244496968
150	0xbfb10bea5a3aa182	-0.06658806517464735
151	0xbfa8889fe4cd964f	-0.04791736286169323
152	0x3fc8b15a233f7bf1	0.19291235657780662
153	0xbfa4b1ae9260be56	-0.040418105476757546
154	0xbfc3ec40858282d5	-0.1556473400023807
155	0x3fd3d0eb5165f833	0.3096264166741804
156	0xbfc73b5df6a6a510	-0.18149923842910498
157	0xbfc38b87084a4bb7	-0.15269554047389786
158	0xbfc25ee7d9ac4345	-0.14352129105147973
159	0x3fa27e14642c892a	0.03611816141916997
160	0xbfa0cb5dbbf1604f	-0.03280156058525618
161	0xbfbc209828601bea	-0.10987235055664227
162	0xbfa02899040d1404	-0.031559736008183875
163	0xbfa347d1923a43a9	-0.0376573077202303
164	0x3f8eae54fcf8d573	0.014980949373333918
165	0x3f9a0c453219e2e3	0.02543743246357878
166	0x3fa9808323cd26fb	0.0498085957720615
167	0xbfb14cadc6bd35ab	-0.06757627584484875
168	0x3f810ebeb8419d24	0.008328905103737023
169	0x3fa324aceb927002	0.03738918662676839
170	0x3fcfd63f3c9d195b	0.24872580012943044
171	0xbf8c16ff9cec31fc	-0.013715741135023933
172	0x3f8b62c081d86d4f	0.013371948206489263
173	0xbfc240e627ea1ea4	-0.14260556172324812
174	0xbfb5db47ab420d45	-0.08537719660858041
175	0x3f71c3f2147397ca	0.004337258934560448
176	0xbfa3d2775edb7d38	-0.03871510537077899
177	0xbfc030765d46f517	-0.12647895388173744
178	0xbf9dda1ce91d4a92	-0.02915234730546474
179	0x3fb2fdb1d53fc41c	0.07418357330585973
180	0xbfb37acb82e44209	-0.07609245248409748
181	0x3fc0cdd9b5dcfa56	0.13128205661810693
182	0xbfa67ac5cfb2aca8	-0.04390543136954622
183	0x3faf6ff3477ccc19	0.06140098807954803
184	0xbfc43bed94c178c3	-0.15807885898079208
185	0x3fa55b319efb28b7	0.041711378723975505
186	0x3f68cd3166702202	0.0030275311323786367
187	0x3fa0492d8eb6cb5a	0.03180830351938964
188	0x3f92bec766a61198	0.018305888786487395
189	0xbfce564deefd52ec	-0.2370088021222253
190	0xbfb24ff0ad13acf6	-0.07153228974827983
191	0x3fa4ae5145135c4e	0.040392436678012275
192	0xbfc2a1d2f0c92b32	-0.1455634761535634
193	0xbf74bf82b7e584ae	-0.005065451258219484
194	0xbf9c9f87eaeb322b	-0.02795231219606557
195	0xbfc082525f185554	-0.1289771046000775
196	0xbfc6863ce2e67a88	-0.17597161368481218
197	0x3fc685eee5790015	0.17596231655807118
198	0x3fa5b6124e7d7174	0.04240472038393053
199	0x3fc98cd3536aaea2	0.19961015294153578
200	0xbfbf0bf00f97af84	-0.1212759054248505
201	0x3fd3d10a0c44a7e6	0.30963374326768045
202	0x3fc4ed7967a02bad	0.16349713859412188
203	0x3fc0c9989ce09638	0.13115222606681853
204	0x3fb26e7d6b43be6d	0.07199844235196347
205	0x3fc6c837f92f1f93	0.17798518817130268
206	0x3fcc8981e34bc50b	0.22294639204441355
207	0xbfbd1506d577d277	-0.11360209190008584
208	0xbfca77a5d052cb09	-0.20677635833779842
209	0xbfb8635f860d91a2	-0.09526631377008823
210	0xbfc4d0bac7288f04	-0.16261992191822838
211	0xbfbe087e463d9d19	-0.11731709685192405
212	0xbfccbba289d9f1c7	-0.22447616320631722
213	0x3fcce77b2e6fb250	0.22581424491308377
214	0x3fc1a58f1a9dd46b	0.1378649597133149
215	0x3fa02b9ffe0c05eb	0.03158283210906262
216	0x3fa229b267f08fbc	0.035474372089339096
217	0x3fbb84c7f594ebbd	0.10749482865951072
218	0xbfc1be3249c39ddc	-0.1386168346573261
219	0xbf8542b3d57435cd	-0.010381131126019927
220	0x3fa4b1ba2fdcab46	0.04041845163586415
221	0xbf653a3ed284f831	-0.002591250133405353
222	0xbf9a850a839d55d4	-0.02589813640891754
223	0x3fb516c201515b6a	0.08237850696728591
224	0x3fab2285046996d3	0.05299773863661774
225	0xbfbfe739a37761f9	-0.12462196579816255
226	0x3fa4e10ea4ccb9ce	0.04077955018725597
227	0x3fb44a843282a91b	0.07926202996410263
228	0xbfa1d47588deddad	-0.034824059446175816
229	0xbfb31ea151377168	-0.07468612892939108
230	0xbfb33f28657ab010	-0.07518246152420738
231	0xbf90899152656470	-0.016149778989845875
232	0xbf169141a8bff438	-8.608783008408414e-05
233	0x3fb11f31a7fbcfd9	0.06688223220027058
234	0xbf760af9e7acdede	-0.005381561461767352
235	0xbf84f8c3485de814	-0.010240102430305632
236	0xbfaced44929feb88	-0.056497710131188816
237	0x3fabd227c53652c7	0.05433773310065742
238	0xbf68d63dcad55a45	-0.003031845749016856
239	0xbfc5a7c9102618f2	-0.16918290413395415
240	0xbfd29b7e9d35f588	-0.2907406363736631
241	0xbf92d14a656ea34e	-0.01837650531857387
242	0x3fb741c083a11ca3	0.09084704602820408
243	0xbfb5d560fcdb2d4b	-0.08528715298887339
244	0xbfc9ef519a3d82a4	-0.20261592894805347
245	0xbf984469223bfe93	-0.02369846602868948
246	0xbf9581b65215087a	-0.021002625236413476
247	0x3fa96d2b502fbf59	0.049661019838707694
248	0x3f84966ae5608e36	0.010052523732219414
249	0x3fc92c4ff163c54a	0.19666480337722653
250	0x3fa2b63c7abbef17	0.03654660223216249
251	0xbf7c265505f971fb	-0.006872493860637703
252	0xbf84c205c4d50910	-0.0101356936162387
253	0x3f958f6ddd8fb66f	0.021054951332124035
254	0x3f9bed3c5674433b	0.027272169853918653
255	0xbfc8fd55d9220375	-0.19523118116560637

hidden_layer4.bias f8 [20]
0	0xbfcccdb72299295e	-0.22502793492669587
1	0x3fc1231e27f854f9	0.13388421012556487
2	0x3fb3a8a63b94161a	0.07679213480522443
3	0x3f72cda88d6e4c4d	0.004590662391723188
4	0x3fd6d1e13949e83a	0.3565600451908072
5	0x3fb372df9fc5ead7	0.07597158098898703
6	0x3fa04026b3ef8e69	0.03173943468553093
7	0x3f89013605cb6635	0.012209341098628016
8	0xbfbeb767de55d380	-0.1199860494433107
9	0x3fb585c633330956	0.08407248258575825
10	0x3f8d7b120f47da19	0.01439489468701276
11	0xbfc3989fb47f3fcb	-0.15309521020253522
12	0x3fb360072eec7258	0.07568402190777002
13	0x3fa68f0c70911a51	0.04406012415033856
14	0xbfbbede170ddd3a1	-0.10909852033166924
15	0xbfb6f981dbde152e	-0.08974467866763255
16	0xbfb2fccbd14bbed7	-0.07416986331713403
17	0xbfd51b0be3b6e175	-0.32977578389866063
18	0xbfc7bee3f10ad60f	-0.18551301259655914
19	0xbfd299a46f047556	-0.2906275829462478

hidden_layer5.weight f8 [20, 20]
0	0x3fd19af84b8a5df6	0.2750836122226866
1	0x3f88cedb38e0861a	0.012113297150850012
2	0xbfd09bbed0c20112	-0.2595059431696579
3	0xbfaf906d2ab5372c	-0.06164876123749105
4	0x3fc492368bd2782d	0.16071206881764635
5	0x3fb53b5a27baeb15	0.08293689222311358
6	0x3f85e62361d217d0	0.010692860052824132
7	0xbfb7ded8c32d49e2	-0.09324412121831174
8	0x3f9222fca7a318d9	0.01771158955741545
9	0x3f322b17670174ff	0.0002772266516382765
10	0x3fb4a0dfc1ff67f5	0.08057974325438962
11	0xbfa56ab6785a6043	-0.041829778853923937
12	0xbfb7811048591aa4	-0.09181310430822492
13	0xbfc294eb9d1816e5	-0.14516968889818496
14	0xbfa43027d6620681	-0.039429898185528785
15	0xbfa27bd46c340537	-0.036100996216200824
16	0xbfbea678429b996e	-0.1197276270500873
17	0x3fcf5f047579018a	0.24508720146151247
18	0xbf6655fee0a6b19e	-0.002726552779867399
19	0x3fb633b938e9e411	0.08672673835270951
20	0x3fb63569b2b2c6ae	0.0867525159144644
21	0x3fa7e8b2cb027e41	0.04669722297807911
22	0x3f7326b47ddb7abc	0.004675583882742525
23	0xbf89a274798a8d78	-0.012516889533179962
24	0x3f8b934e6733f408	0.013464558147910935
25	0x3fa7fa692d286407	0.04683235813372027
26	0xbfd202dc442c128f	-0.2814245858901722
27	0x3fbb15aedd885510	0.10579960735806915
28	0x3fc544deb421082b	0.16616424365389668
29	0xbf9f728515f87b83	-0.030710296121579283
30	0x3fb39704dad51b58	0.07652311651791643
31	0x3fbc4fc403031c6a	0.11059212754763484
32	0x3f9153a41bbf9129	0.01692062777864681
33	0x3f9541c8a84c696e	0.020758757850765468
34	0x3fa3f15630e7c719	0.038950627775092346
35	0xbf936087831cc996	-0.018922917726010256
36	0xbfc114d213492cc8	-0.13344789449397454
37	0xbfc87ee3b02fd00c	-0.19137235739583536
38	0x3fb5da077e13d1a0	0.08535811260282467
39	0x3f79ddbda784f7aa	0.0063149841665203574
40	0x3f98aaad3bdfa9eb	0.024088579921150027
41	0x3fa5c236b0c1b7e4	0.04249735744166097
42	0xbfbfb5f927643ba0	-0.12387044154841798
43	0x3fb060876377ab1b	0.06397291353611616
44	0xbf9e54e713ab65a4	-0.02962075288346501
45	0xbfb96e92f6f78ff5	-0.09934347657650718
46	0xbfc24d4975521798	-0.1429836104254576
47	0xbfa65b9a8e8b1a55	-0.04366763105422381
48	0xbfc4284fcffbc4ee	-0.1574802175087266
49	0x3fb67f98bdb4a870	0.08788447028624247
50	0xbf9f40ab4d627be0	-0.03052013072794668
51	0xbf912f5a81a7e73b	-0.016782201922956857
52	0x3fca8900196ccb5d	0.20730592004255302
53	0xbfab998f04f20f5f	-0.05390593467112014
54	0xbfbc0460ea3cfe0a	-0.10944181173999126
55	0xbfc5ffac4ab0f9c6	-0.17186502120052988
56	0x3fad90a65b459f67	0.057744215623471366
57	0x3fcef07d6dde3534	0.24171417107246784
58	0xbfbeb21f35d539f1	-0.11990542473106537
59	0x3fb05ad9888d660a	0.06388625701711007
60	0x3f8c1a552c47345d	0.013722100652467423
61	0x3f92144faad3fb59	0.017655606080548256
62	0xbfaa530461f56d90	-0.05141462035927724
63	0x3f746edc9b035c05	0.004988538494408172
64	0x3f689e24dd1e2edd	0.003005096435065953
65	0x3f764bb18c493c5e	0.005443280741544402
66	0xbfae688d620a0ad7	-0.05939142057197493
67	0xbf92e62cea3b657e	-0.018456174656284123
68	0x3f8f2a1f4437f1e1	0.015217060345997293
69	0x3f9e427a8d8ef178	0.029550471200978617
70	0xbf6833bbc9ae48ef	-0.0029543559771322207
71	0x3f957f40bbee2d24	0.0209932436660384
72	0xbf8b63253aef7165	-0.013372698651374202
73	0xbf94de11bea2163f	-0.020378377209018913
74	0xbf9070060f4115fc	-0.016052336388630892
75	0x3f7fa66a0dadf172	0.0077270643913574955
76	0x3fa3128a524bbc31	0.03725082640254874
77	0xbfa2ba0710437a22	-0.03657552789239939
78	0xbfa664cdf5ce80a9	-0.043737827544874826
79	0x3f5cdf9f266d51ab	0.0017622999382257236
80	0xbf8374a856a6293b	-0.009499850410766278
81	0x3f3a8e2a83872214	0.00040520227369403414
82	0xbfa410ca7b1ee19e	-0.039190604714750096
83	0x3f8874591e6af9a7	0.011940666428355963
84	0xbf726fa5225d0e9d	-0.0045010042720751405
85	0xbf8e3aa24826ffae	-0.014760272814669264
86	0x3f705ca71bfc3f6e	0.003994610567829555
87	0xbf9d78c3d0ea96f2	-0.028780994058840777
88	0xbfab01f5edb830f5	-0.052749333637707986
89	0x3f809feaf49d1f40	0.00811751898767421
90	0xbf866d6bbdd66d33	-0.010950891238101867
91	0xbfa8f758cf8927fd	-0.048762107213931906
92	0x3f9e70a1e033135d	0.02972653323083151
93	0xbf8c88745b526e50	-0.013932141339231624
94	0xbf9155de4d197998	-0.01692912431314539
95	0xbfb2a80fa9267f2a	-0.07287691001556298
96	0x3f9bbd47bbd43d0d	0.027089234198737922
97	0x3fac7adabbdb9d65	0.05562480490862746
98	0xbf96314484fa08c2	-0.021672316185239245
99	0xbf9102d69a1f2b3c	-0.016612389714093498
100	0x3f731127ce636e3d	0.00465503262804706
101	0xbf98e5477c0111f1	-0.02431213087426615
102	0x3faa4c138f1cf4e7	0.05136166688905935
103	0xbf9f06fd3b2cac45	-0.030300099121785235
104	0x3f83f6e85c5d5e51	0.009748282736537524
105	0x3fa672c2b60fd77e	0.04384430382189829
106	0xbfb04fa717a9aed9	-0.06371540382104558
107	0x3fa5f78032c8e071	0.042903906058598625
108	0x3fc9ff9533db07ef	0.20311226875315877
109	0x3f8719d8c6f1040a	0.011279767581188
110	0x3fa407d3c12736f3	0.03912221653773242
111	0x3fb557b148fdb486	0.0833693316651126
112	0xbfb0ed51c54aacc8	-0.06612120691959256
113	0x3fa47dc3b6a15176	0.04002200703021945
114	0x3f8af9ed6ede2d56	0.013172011323851745
115	0x3fbd6906ef6088e3	0.1148838362137528
116	0xbfad7d9cc5f79264	-0.05759897152509977
117	0xbfc36a31b90b89dd	-0.1516782907047646
118	0x3fb498e85f6ac8c7	0.08045818643111878
119	0xbf571255c6509179	-0.001408180012057418
120	0xbf8b7e32e01692d5	-0.01342429872858856
121	0xbfb53ca4bf125d7c	-0.08295659699284913
122	0x3f7feae67a7d41b6	0.007792377764261385
123	0x3f9715c3c1eda1d8	0.02254396315712079
124	0xbf87252f70138830	-0.011301394088551658
125	0xbf722362e9d44c77	-0.0044282783321875
126	0xbfa4ee312a342653	-0.040879761125392954
127	0xbfa636d13d2a7b63	-0.04338697311071973
128	0x3fc51b6018fca450	0.1648979303365956
129	0xbfabdd40cbc91507	-0.05442240226379096
130	0x3facdecd13d965b1	0.05638733737277891
131	0x3fa12da2d769d834	0.033551300807559775
132	0x3fabef2fa5f9c6d8	0.05455922032423438
133	0x3fa6da2c3a82f0ff	0.044633276121631475
134	0xbfa35fb989d8f387	-0.03783969695766758
135	0xbf9fb68adfe268c2	-0.03096978179437638
136	0xbfc0fe0f4f109e4d	-0.13275328980056358
137	0xbf0653cc8d443bd6	-4.2586021352978835e-05
138	0x3fc262b6dcd244f8	0.14363752157490928
139	0xbf5713060de31a18	-0.0014083441852094144
140	0x3fc91f75605a0ae7	0.19627253727602254
141	0xbfb412ed11c73996	-0.07841378864325174
142	0xbfad96648a7a3436	-0.057788030532812604
143	0x3fc0a98342d40ea0	0.13017311823943079
144	0xbfb91f2e218c6913	-0.09813202208571097
145	0xbfe1c023907ac976	-0.5547044584148313
146	0x3f94daefa6216dab	0.020366425051504027
147	0x3fb8b8ff1ea45ee7	0.09657282350633133
148	0x3fb8c8125ca2c410	0.09680285226455987
149	0xbfb84210d319adde	-0.09475808290306229
150	0x3fda877f28c46188	0.41452006322062873
151	0x3fa29828e3b247c1	0.03631713656899605
152	0xbfa8857fe3da8a1a	-0.04789352089325778
153	0xbfdeb01632665f1f	-0.47949747964729456
154	0x3fd3acd91b9ea981	0.307424809429584
155	0xbfae042050851c91	-0.058625230626199294
156	0x3fe737ddc18a3a32	0.7255696086957129
157	0x3fd04fb7fac96edb	0.25486564150717833
158	0x3fe6e9060a5d3285	0.7159452631400006
159	0x3fd08756baa5d794	0.25826042392088167
160	0x3f9530986025d737	0.020693188541790888
161	0xbf816759827f0262	-0.00849790505879006
162	0x3f8c5906efd43702	0.013841680711745411
163	0xbfa29903c093f790	-0.036323659189277824
164	0x3f73bff3927e1b78	0.004821731046724113
165	0xbf7bf74c8f63892b	-0.00682763963979686
166	0x3fba351bd928d8d6	0.10237287570712125
167	0x3fa2dd113c9390ad	0.03684285988291101
168	0x3f5bc7d94cbd5bfd	0.0016955968921672498
169	0x3f9019f5f0d8c946	0.015724032235263218
170	0xbf9003421faab02c	-0.015637429411683154
171	0x3fafa51d9b239631	0.06180660742556333
172	0x3fb40e92a0d65b51	0.07834736277287148
173	0x3f616e559da97e51	0.0021278068718826666
174	0x3f7cbe073d653ba9	0.007017162590570538
175	0x3f820e6ef705e784	0.008816592134042407
176	0xbf5c88d2d44f73bd	-0.0017416056518790711
177	0xbfa00c37b9f96ca5	-0.03134321351236594
178	0xbf965c3ae0fd5716	-0.021836204511905676
179	0x3fb3a3b0495e9b2c	0.07671644011734874
180	0xbf9d1a3faecd1ee6	-0.028420443576833508
181	0xbf8340f09085dbb5	-0.009401206408012766
182	0x3f988d6ce9d23584	0.023976995250043057
183	0x3fa5bdd53fb68080	0.042463935878232384
184	0xbf7e18dd29c24d49	-0.0073479308304230185
185	0xbf656311933ff07d	-0.002610716177512683
186	0xbf99165caff49111	-0.024499366988622266
187	0xbfa89f7580ebcf6e	-0.0480915756105834
188	0xbf7c33ca7d159835	-0.00688532921899392
189	0xbfa5954c46b75e2e	-0.042154677994116305
190	0x3f8d8af3ff2ee15c	0.014425188279219618
191	0xbfa1194cbce7bcd2	-0.03339614683124527
192	0xbfb5c29ae244bdd5	-0.08500068687566593
193	0x3f759bd875f3804f	0.005275579023162959
194	0x3f4fa0028e0867f1	0.0009651195978819233
195	0x3fa2afbd621a33c9	0.036497038102516983
196	0xbf96bd81b7a703a4	-0.022207285722973716
197	0x3fb0298fbbbd399a	0.06313417752719488
198	0x3fa32f79d1f2192a	0.03747158706487348
199	0xbfaba8cce7850dec	-0.05402221990746256
200	0xbf87f43f48fb8b9f	-0.01169633332705705
201	0x3fb74c5e167911c2	0.091009026037745
202	0xbfb9dc0b8a0cb703	-0.10101387138703548
203	0x3fa946704d5a2764	0.049365529482271936
204	0xbf055762190b9d9c	-4.0705376823708966e-05
205	0x3f37471db8645d94	0.00035519099800881385
206	0xbfb758ad6c271bce	-0.09119686022232473
207	0xbfaf4eca978c6f02	-0.06114800548513523
208	0xbfc4ef3b40779d6a	-0.16355076453985912
209	0x3f972fedfef68085	0.02264377468748126
210	0xbf9ec10559a4b6aa	-0.030033191296004937
211	0xbfb7038abc5c44e6	-0.0898977956642458
212	0xbfc21a51d339f9ab	-0.14142821134369163
213	0xbfb36fcedad2afe2	-0.0759248050914603
214	0xbf7455defbd10737	-0.004964705495753389
215	0xbf810695bf50da92	-0.008313341046329446
216	0x3fc382a4057d90c2	0.152424338036445
217	0x3faaaf4945662e62	0.05211857769162688
218	0xbfc209d1981aba13	-0.14092464377377265
219	0xbfbc866002549037	-0.11142540032284463
220	0x3f713ac72081fc85	0.004206445541171115
221	0x3f5c7077be699979	0.0017357987759623868
222	0xbfbea725ca6d68e3	-0.11973797027659176
223	0xbfb0603c5c714293	-0.06396844155211516
224	0x3f733542791e621d	0.0046894642454380605
225	0x3f65034f51001344	0.0025650548122961043
226	0x3fb76256b9374132	0.09134428045149859
227	0xbfc0545f4c8c22ea	-0.12757483709017176
228	0xbfb168aedf7633c6	-0.06800358729942876
229	0xbfb33d51175b313f	-0.07515436954708309
230	0xbfa6aad7802ad85f	-0.04427216949027079
231	0xbfbef46f4c8557e8	-0.12091727846322409
232	0x3fb95e6fe710b1fb	0.09909724608650798
233	0xbf9482184fbe6e18	-0.020027522914103896
234	0xbf85e17b72a3fbb9	-0.010683979450275648
235	0xbfb6b724b81ebb96	-0.08873204703443913
236	0x3fb741630cf7259f	0.09084147516764184
237	0x3f8648f21663a4d1	0.010881320293679416
238	0xbfb1bf97b276b115	-0.06932972056410265
239	0x3f929599fc7f8e8d	0.0181488094675744
240	0xbfd0d3d1ea3dbb55	-0.26292846560584354
241	0xbf91b6c5fc1cf46e	-0.01729878760601305
242	0x3f78daeaaaf7ac22	0.006068150206810537
243	0x3fa2a05aef9b8e23	0.036379663228015134
244	0xbfcac67e5741cbcc	-0.20918254147144777
245	0xbfd04c97b92f7f40	-0.254674845547914
246	0x3fb19c6517475929	0.068792646582868
247	0x3fb256e60b0b12c3	0.07163846749888152
248	0xbf994dbbd1ab0d26	-0.024710592910890082
249	0xbfa6c9f8d523948f	-0.044509674089377
250	0x3fbea9d630717683	0.11977900202460927
251	0xbf9ef8ba60f4393d	-0.030245697181322518
252	0xbfa6875e6b553989	-0.04400153217521836
253	0xbfc7468e5e997bdb	-0.18184070223921264
254	0xbfc4964c3492ee59	-0.16083672110640881
255	0xbfb3af8a7ac2318d	-0.07689729210887304

hidden_layer5.bias f8 [20]
0	0xbf83151fb0135231	-0.009317634163758278
1	0xbfb117a5120abdca	-0.06676704111554624
2	0x3fbb726b8e400c32	0.10721466277031835
3	0xbf9ca9248d0b4efc	-0.027988978489545055
4	0x3f8710ab7cfba2c0	0.011262264014889722
5	0xbfa21775ae0a514e	-0.03533523320689601
6	0x3fb10247f9f53746	0.0664410577057569
7	0xbfd5b686c2d670b9	-0.33926552798380843
8	0x3f93fc249263cb3c	0.019516536173749474
9	0x3f90244b38dce3c4	0.015763449998505555
10	0xbfb4c5e18d198251	-0.08114442534270806
11	0xbf747ca52571affe	-0.005001683333016869
12	0x3fc16ce23a187b6b	0.13613536678982582
13	0x3fcb91e414d3a182	0.21538973824432267
14	0xbf8ee8a8b35fddf5	-0.015092199300837253
15	0xbfcff35a923ea5e8	-0.2496140684209387
16	0xbfbbfc2c2ca76807	-0.10931659784492363
17	0xbfcf0daef435c6f0	-0.2426050846511809
18	0xbfc88634aef6753b	-0.191595635825175
19	0x3fbc8e6aa7f76d02	0.11154810524697115
