net_param/net_0.08.pth (torch, 17999 bytes, 12 tensors)

hidden_layer1.weight f8 [20, 2]
0	0xbfee3a6bf36fa86d	-0.9446315531361172
1	0xbf960daee1b3eff4	-0.02153657200413757
2	0xbff2570a2f70e3f5	-1.1462499478495805
3	0xbff6a896c4788961	-1.4161594080583984
4	0xbfe2a30c07998a60	-0.5824031971390689
5	0xbfebfd840bf054bd	-0.8746967538051177
6	0xbfe4680147317189	-0.6376959219447126
7	0x3fde394bf89c7181	0.4722471168368188
8	0xbfe83a4a0845f816	-0.7571153794849603
9	0xbff5f379643ca81d	-1.371941939878986
10	0xbfd463cc8831a176	-0.3185912446993123
11	0xbfe40b4c114979f2	-0.6263790452611018
12	0x3fbf8cf1c1d55842	0.12324439031849102
13	0xbfe9d33c4ae855dd	-0.8070355856931958
14	0x3fe9deb79bec2b57	0.8084371610033071
15	0x3ff14fb799fdf7c6	1.0819622054400369
16	0x3fd3c863eec3f5d6	0.3091058570570032
17	0x3fe691e93dfad8f3	0.7053114138168709
18	0x3fe08b95c00ad161	0.5170391798806514
19	0x3ff12b044f0271e3	1.0730021559057767
20	0xbfe9f5ef5bb8a4f9	-0.8112713614874841
21	0x3fd40af6ad3529fe	0.313169163845174
22	0x3fdc30050df60c51	0.4404308925952068
23	0xbfe565c56caa69eb	-0.6686732408882653
24	0x4001edec56621608	2.241173434131955
25	0x400aec191eed21b8	3.3652822891346794
26	0xbfe3392086df9e64	-0.6007235178230528
27	0xbfde9ae1424bbb9d	-0.47820311998560233
28	0xbff46bfa8db47429	-1.2763619933459813
29	0xbffa4666c0ec11c9	-1.6421878372212737
30	0x3fdbdc9d4402a770	0.4353402294315094
31	0xbfe63558076d1655	-0.694011702064652
32	0xc01350ed37d6f0c3	-4.829029915327001
33	0x401563e8d4e533f2	5.347567869653163
34	0xbfe822ca4f62533a	-0.7542468595953331
35	0xbffd813341fcc940	-1.8440430238375285
36	0x40027df8c503416f	2.3115096465700655
37	0xc013b4e1f6039fda	-4.926643222781388
38	0xbfe675bc748ab2f9	-0.7018720890242484
39	0xbff8fb7159ea1b36	-1.5613873970302854

hidden_layer1.bias f8 [20]
0	0xbfb41a3b94dcf418	-0.07852527984955804
1	0xbfd4d62a6d07f38b	-0.3255716385609097
2	0x3fb53b7b45a40e66	0.08293886614051757
3	0xbfaf957748e2e5dc	-0.06168720974660477
4	0x3fc71040f6cc991e	0.18018352556936973
5	0x3fd85673ce15d5b2	0.3802766335059814
6	0x3fbbcfceee18a1c7	0.10863965332885704
7	0xbfbbe9ead8d69f42	-0.10903804582505663
8	0x3fb8a7a870a45e22	0.09630825758028341
9	0x3f97bc939815ee1b	0.023180299909183782
10	0xbfafef182a8db570	-0.062371020502591246
11	0xbfc887942edeb9d2	-0.1916375378472837
12	0xbfbf0f27a5bcb7da	-0.12132499500577812
13	0x3fba1c4155c6d0b6	0.10199364036708655
14	0xbfe06e69d66b3cab	-0.513478201662925
15	0x3fc0725bfd2667bb	0.12848996983376346
16	0x3fc8d7e337b2bc8d	0.19408836574209368
17	0x3fb09122522552a6	0.06471457009804257
18	0x3fe885e8a102ab45	0.7663462776884918
19	0xbfb488ee1e245780	-0.08021438823592852

hidden_layer2.weight f8 [20, 20]
0	0x3fe0173bb459fce7	0.502836086510709
1	0x3fe672f666ec4c73	0.701533509275022
2	0x3fe1a4c7294dbe17	0.551364498778585
3	0xbfc791b14bd13f2e	-0.18413368417758974
4	0x3ff20f0bd5c7d39f	1.1286733961871744
5	0x3fd7ae05a9320f52	0.3699964668560273
6	0x3fde2666b897adb7	0.4710938265477255
7	0xbff06a9f60280466	-1.0260308986765039
8	0xbfc3e4a24f0f51dd	-0.15541485653251544
9	0xbfd0df96050b84f0	-0.26364660732913503
10	0x3fbbe9e925185b2a	0.10903794437068073
11	0x3fa5f77f5803ab81	0.0429038805903792
12	0xbff642713fd24aa9	-1.3912212842011888
13	0x3fe6609a23b1c697	0.6992922494084323
14	0x3fda435f41637bdf	0.4103620661316522
15	0x3fd6793ac698deba	0.3511492671418456
16	0x3fe07a21d9cf5a86	0.5149087194539141
17	0x3fcecdeaea78238f	0.2406591076726525
18	0x3fc97dfd2eda55e4	0.19915737903345054
19	0x3fd265e54b2ffe79	0.28746921865965863
20	0x3fd3d60fbea8243e	0.3099402772791712
21	0xbfbfb88acca987fe	-0.12390964028011806
22	0x3fd4afc3e7cec88e	0.32322785985446323
23	0x3fd72d6390c0a5ab	0.362145320281878
24	0x3fd98b684c5bf516	0.3991337533660312
25	0x3fd501ea49efe0b8	0.3282418939629781
26	0xbfc0ff1def3a9945	-0.13278555089091007
27	0xbfd95c9a22d9c533	-0.39627698329339295
28	0xbfc2b7eeaad3d5d0	-0.14623816815553292
29	0xbfb9cfc95c83840f	-0.10082682140956954
30	0xbf81998b4d43521a	-0.008593643470171709
31	0xbfcd8e256ae40502	-0.230900456612325
32	0xbfa29d2aaf19c3ed	-0.03635533702334457
33	0x3fc54220b349e947	0.16608055834132981
34	0xbfc05af5c656b9cb	-0.12777588066587806
35	0xbfd1a19cd9b58fb5	-0.2754890562121049
36	0xbfc54a8776f82428	-0.16633694943473754
37	0x3fc1fbfb7273fec0	0.1405023869374329
38	0xbfcc0847023bb148	-0.21900260552446071
39	0x3fc13320aae7aebd	0.1343727907654876
40	0x3fd00a60e8c91773	0.25063345654449803
41	0x3fdba49c1a78f3bd	0.43192198357774797
42	0xbfd1c13fafaf11b7	-0.277419969145082
43	0x3fae686d1e58bc4d	0.05939045901720217
44	0xbfa6315d44820958	-0.04334536992338894
45	0xbfd68a72de2ab5d1	-0.352200238189508
46	0xbfd34dc4bdcb8f13	-0.3016216138332634
47	0x3fd28f328ef0677e	0.2899900813950963
48	0xbf9fed6d52ed447b	-0.031179149805499833
49	0xbf7fe032a46a07ee	-0.007782171078931184
50	0x3fbc8f63400f7664	0.11156292261099449
51	0x3fcbc139d87af0c0	0.2168342883140948
52	0xbfcdd1111299fd7c	-0.23294270904805703
53	0xbfdaeee9aa7fac59	-0.42083207750574086
54	0x3fbea3e1a7823a48	0.11968813266342082
55	0xbfd4353b72a1a7f0	-0.3157490367362916
56	0x3fe22858b6f9728f	0.5674251149863084
57	0x3fd10c87e0d2f4c8	0.2663898177668895
58	0x3fe80d8e35ed7bc7	0.7516547253870777
59	0xbfc4f0084e21a965	-0.1635752088071271
60	0x3fd45331b660f7c9	0.31757777033260176
61	0xbfa3bb612f0d5906	-0.038538968080205335
62	0x3fd06c804388ba82	0.25662237734915305
63	0x3fd25b6d7cd21136	0.28683030309209145
64	0x3fc2e778716bf1bf	0.14768891847769614
65	0x3fe2e8398ef96bf2	0.5908477585284102
66	0x3fb398de5911bfff	0.07655133890671094
67	0xbfcd13f35e0bd452	-0.22717134563541436
68	0xbfc1b0f18103e120	-0.13821238326614438
69	0x3fb69b560bedfc49	0.0883077410817218
70	0x3fda030496b63ebe	0.40643419950445636
71	0xbfc89628f8f824c1	-0.1920825210257018
72	0x3f9fa715ec0c4e04	0.030910818607550197
73	0x3fd90a8b9d9d1f6a	0.3912686385342484
74	0xbfd31295b20713e7	-0.2980093229819531
75	0x3fac0f3d034a1bc7	0.05480375924258101
76	0xbfc42e08d09e26d2	-0.15765485941329033
77	0x3fc72e6f20aef0b1	0.1811045560442657
78	0xbfe83181db6cecdf	-0.7560433660177316
79	0xbfcf24b8b972e6fb	-0.2433081536781215
80	0xbf9ad5af2419c6c6	-0.02620576532212373
81	0x3fc5acc4eff5a12e	0.16933500019809727
82	0xbfbafb409dee11c2	-0.105396307522887
83	0x3fa8f477f3536ea3	0.0487401470688529
84	0xbfb1b02d7fc41830	-0.06909450883185353
85	0xbfd43afdd4857c4f	-0.3161005568890162
86	0xbfd033de4d638765	-0.25316579396723277
87	0x3fb81d9be95e6b51	0.09420179793816642
88	0x3fa9b9c279feb066	0.05024535884089758
89	0x3fadfb39305f42fd	0.05855730739097529
90	0xbfb75eb5a5af4dee	-0.09128890318907398
91	0x3fd893e851711d11	0.38402755692773477
92	0xbfc62c9c85cb252c	-0.1732364323891401
93	0xbfd1391d6185168e	-0.2691110088675054
94	0x3fb34f89c3aa535b	0.07543240572915748
95	0xbf9b3ace4a982c22	-0.026591513922579087
96	0x3fbb0f9dad4f6a6c	0.10570703011709676
97	0x3fc3484517d434f4	0.15064300216219062
98	0xbfe2cbe14aec66c3	-0.5873877013538834
99	0xbfb8cb149d2ec452	-0.09684876286952829
100	0x3fe55e8d1457c410	0.6677918813057904
101	0x3fd2a4e79e50cba7	0.29131498775967163
102	0x3fe3cd3a80f07c33	0.6188023107860147
103	0x3fe7a4987659c1ae	0.7388422309432394
104	0x3fd6073df55d12d3	0.3441920181397055
105	0xbfb0cf1ea1fc62eb	-0.06566039519055848
106	0xbfbeee07182080d9	-0.12081951464688546
107	0xbfe81859558ce451	-0.752972285357041
108	0xbfc308ad046d95bb	-0.14870226589407118
109	0xbfcb33cfdd696a34	-0.212518675910205
110	0x3fedf531d74515a5	0.9361809925546153
111	0xbfb9d7ed7a27c707	-0.10095104439076517
112	0xbfd2c63d44435183	-0.2933495680456632
113	0x3ff009d0333fea31	1.0023958208027006
114	0x3fbf297f67a08f64	0.12172695426903385
115	0xbfdf7e84f452551e	-0.49209712848217346
116	0x3ffb525262e4978f	1.7075981009488463
117	0x3fcbe9f5617c6833	0.21807734737450488
118	0x3fd51d175843e8de	0.3299005853620097
119	0x3fc5315054876a4b	0.16556743743315602
120	0xbfdf4b6bbbedbbae	-0.4889783225289034
121	0xbfd3c58169f83fa6	-0.3089297804699477
122	0xbff152e7a5d87066	-1.082740447839592
123	0xbfa69398b4278d29	-0.044094821921840506
124	0xbfd9b83d3d0cf6ac	-0.4018700691411634
125	0xbfa5a7b8439a5af6	-0.04229522538405732
126	0xbfe06200d4b370fd	-0.5119632868113794
127	0x3fee89fabc247ff5	0.9543431925449101
128	0x3fc946c4e060b4b0	0.19747219997353715
129	0x3fd4a7e9408a3342	0.32274848273009493
130	0xbfc5f414fc7671a6	-0.1715112908103837
131	0x3fb42e87ff125d9c	0.07883501031243728
132	0x3ff4f83e1bc23fd5	1.3106061062171552
133	0xbfec9d56ad5e45fe	-0.8942063699816456
134	0xbff07a0d6567b62a	-1.0297979317796355
135	0xbfd05b2378e7f578	-0.25556265647158893
136	0xbfe4c830fdc2b183	-0.6494374233493975
137	0xbfe1a1063dc0f5a2	-0.5509062963607685
138	0xc001d2b5a0289500	-2.227885485876527
139	0xbfd41e8e5f2ec93b	-0.3143649987715837
140	0x3fbf26663e894478	0.12167967821848602
141	0x3fa3465ba3ab2cef	0.03764616368206385
142	0xbf921411831a62aa	-0.017654679896255722
143	0x3fd5a0d788abd9b9	0.3379420122795654
144	0x3fc8be8d062df8a3	0.19331515123116558
145	0x3fc354d0907058d3	0.15102583935430988
146	0xbfd1f43d5501d2a5	-0.28053220082737546
147	0xbfd163e3fd98fc99	-0.27172183766737984
148	0xbfa5079ff35f3132	-0.041073797663189984
149	0xbf6fc2e001c669db	-0.0038771033416200424
150	0x3fc2ff976dfe96f1	0.1484250342447733
151	0xbfd29a05a2fc676f	-0.29065075794789313
152	0x3fd20d79fe082ea5	0.28207254226502193
153	0x3fc748f9317799e0	0.1819144717730543
154	0xbfd6daca0e019ab1	-0.35710383765983084
155	0xbfd3a8dc4991e6bd	-0.3071814268547362
156	0xbfe87a70d12757f3	-0.764946373465817
157	0x3fb7fd5082823abd	0.0937090223908212
158	0xbfe327e5bc0ac5a9	-0.598620288152394
159	0xbfb843dba2e5ad67	-0.09478543021184792
160	0x3fb486a7709b895d	0.08017965792854427
161	0x3fd17c93fc8ff5bf	0.27322864212313996
162	0x3fbe6cf6b288fba0	0.11885015352980455
163	0xbfcab60ffca54985	-0.2086811050053933
164	0x3fc9e3ac74cd8a6a	0.20226054862276338
165	0xbfc9dde9eeb5e9bc	-0.20208477168837458
166	0x3fcd624ae163af19	0.2295621490987905
167	0xbfd5068f323059bc	-0.32852535153633844
168	0xbfd6200b8c245529	-0.345705878121708
169	0xbfdbb0cf51a7976a	-0.43266661619269675
170	0x3fcbb709f98d0386	0.21652340588664404
171	0x3fb4450f3c19a7c9	0.07917876450815621
172	0x3fd3851b9e1c5090	0.3049992603348608
173	0x3fc00f4f28b2a6ac	0.1254672001571654
174	0xbfa14bcfb0d06752	-0.03378151925444563
175	0xbfc3afb4696f49f3	-0.15379958294086257
176	0x3fea55c006fbcdbf	0.8229675423048589
177	0x3fca6360f38b8cf3	0.20615779773570572
178	0x3fe6588d13d4144d	0.6983094584726445
179	0x3fc6583e22616543	0.1745679538605974
180	0x3f8236d336328cd1	0.008893632976031548
181	0x3fcfb3f49029415d	0.24767930068129376
182	0xbfa2871762e04ab8	-0.03618691522583134
183	0xbfd48c53d1703049	-0.3210649056716233
184	0xbfd0cce73d2eb321	-0.2625063035473421
185	0x3fca7b396d72c1c8	0.2068855080047014
186	0xbfe117c13ed7de3a	-0.5341497638136794
187	0x3fa6c856b717ae07	0.04449721322074756
188	0xbfa9dd60b20b97b9	-0.05051710294155449
189	0x3fc01e6031687fe5	0.1259269944430336
190	0xbfb1fe3943295ae0	-0.07028539552389246
191	0xbfca363e133b9063	-0.2047803491506129
192	0xbfd249f9cec4f6fc	-0.28576512520145037
193	0xbfcdc444b05109ea	-0.2325521336479846
194	0x3fa69c3d6be0694d	0.04416076604703054
195	0x3fa36c3db7ad0b2e	0.037935188933735695
196	0xbfc30cd89fe6ad50	-0.14882953460378667
197	0xbfc87662d149446a	-0.19111285418560736
198	0xbfd538de019ad9f2	-0.33159589916922905
199	0xbfc287d08f861be8	-0.1447697354126085
200	0x3fc3829c33527189	0.15242340570410942
201	0xbfcf9c7dbf378ef1	-0.2469632323910598
202	0x3fc6e08654b748ab	0.17872695099373934
203	0x3fdaa845287f9ab1	0.4165203948490826
204	0x3f968c41c714854d	0.02201941278065549
205	0xbfa4e9a892b982d3	-0.04084517279694002
206	0xbfc8140e9c431699	-0.1881120932577474
207	0x3fc9f7fcb0674406	0.2028804646820676
208	0x3fc4eda1456881ef	0.16350189103196963
209	0x3fc03b9f6c3962ad	0.12681954178221613
210	0x3fcf384ea8bbb45f	0.24390586127211386
211	0xbfd46a49dab230ef	-0.3189873347953513
212	0x3fd89628e3de7a72	0.38416502240025985
213	0x3fdf3a1d4debd909	0.48792202577114147
214	0xbfc8d7857f353efa	-0.19407719336822266
215	0xbfb697f4eeaf22fc	-0.08825617625474175
216	0xbfc22ddaae6faa32	-0.1420243598689282
217	0xbfa1697da97146f8	-0.03400795644178162
218	0x3fb3865f2a491619	0.07626910002098732
219	0xbfc5333885257f47	-0.16562563420574802
220	0x3f8a9698c3750b4d	0.012982552971725925
221	0xbfd5c35ee810d82b	-0.34004948294330245
222	0x3fd81429b7b813bf	0.37623064938844303
223	0x3fdcce6d65e851a3	0.4500993247213733
224	0x3fb2125122373bf7	0.07059199414582894
225	0x3fe0ab2c825af269	0.5208952470780562
226	0x3fbe7cafb5fac816	0.11909006302701672
227	0xbfd4fc28960c73c9	-0.3278905358618514
228	0x3fa2ff8c6111b77f	0.037105929230945904
229	0xbfc3bca35811d619	-0.15419427681233414
230	0x3fdf0f2ed055f472	0.48530168862618617
231	0xbfd6d6e672143f87	-0.3568664659551292
232	0x3fd6a5573dec102f	0.35384160086710187
233	0x3fd9bdf7c48f51df	0.40221971698090714
234	0xbfa83d240e4f0002	-0.04734146761575177
235	0xbfc3450eea5009cc	-0.1505449909310087
236	0xbfe99d52a54a8e6c	-0.800454447588391
237	0x3f9a2d4150bc6875	0.025563259651882626
238	0xbfe2ed07bb6abf54	-0.5914343510139397
239	0xbfd1891ae126e703	-0.273993224978412
240	0xbfd68890ad1dc1d1	-0.3520852747524517
241	0xbf9580a3c3ee2408	-0.020998534043915412
242	0xbfc55e23ac20bc3f	-0.16693540482217092
243	0xbfd7284afd24fc63	-0.36183428498401876
244	0x3fc96072c42e298b	0.1982558687125898
245	0xbfd1410e3ed0e9f4	-0.2695956815183813
246	0x3fd4045ebc83835e	0.31276672753852164
247	0xbfb05c05d06168d0	-0.06390415513434111
248	0x3f9b43b4efd41adc	0.0266254683856698
249	0xbfb9b4373bcb4528	-0.10040612420859374
250	0xbfd64d05a288ff0e	-0.34845105049679226
251	0x3fd009079eea741a	0.25055113333820744
252	0xbfd00c11768b4dab	-0.2507365853936913
253	0xbfd1a51959af167d	-0.27570184477040255
254	0xbfb30fb0af54d3f7	-0.07445816307593121
255	0x3fb1efea691df47e	0.07006707254727648

hidden_layer2.bias f8 [20]
0	0x3fc5c39162c8590a	0.17003075908059656
1	0xbfaedd61fb3651cc	-0.06028276626162529
2	0xbfc4dd4acb74e557	-0.1630033009949254
3	0x3fa76a01aebcacab	0.04573064096470011
4	0xbfc7cdae55b182b6	-0.18596438583610614
5	0xbfd076cbfbc89ffa	-0.257250781900893
6	0x3f8b94d506759664	0.013467468509314524
7	0x3fd1c767bad829f3	0.2777957272197959
8	0xbfde70e471f2fc43	-0.4756404030594618
9	0x3fc8a56d0b73edc9	0.19254839953633354
10	0xbfc8947867cad4df	-0.19203095500930709
11	0x3fcc8259b4c1afa4	0.2227279789543647
12	0x3fbf9faf464343c4	0.12353034463309515
13	0xbfaa5d2e37416a6b	-0.0514921610308264
14	0xbfc734f82c4a27a9	-0.18130399859029225
15	0xbfd0ff19735e5bf5	-0.2655700327536004
16	0xbfd11df7c144f4ad	-0.2674540889164046
17	0x3fa1d72bda64c894	0.03484475174845261
18	0xbfc3510f83f7d1b7	-0.1509112734198774
19	0x3fb109c9edbf685f	0.06655561499010919

hidden_layer3.weight f8 [20, 20]
0	0xbfd26dc5cbe50611	-0.287949990382999
1	0xbfd92d8b23512acf	-0.39340475510531986
2	0x3fc60fbc86d8cf70	0.1723552378112987
3	0xbfd2633c0b3eb486	-0.2873067960561645
4	0xbfacb46efc4a866e	-0.056064098641638846
5	0x3fc83cccb13fdf26	0.1893554559207981
6	0x3fb7603a1a100cec	0.09131205688759153
7	0xbfd6d35865fe5628	-0.35664949379256194
8	0x3fd55c332897ef5f	0.33375243152817363
9	0xbfb956d190c5034c	-0.09898099693692791
10	0xbfbdfb3423943b4c	-0.11711431378010423
11	0xbfc5274447f57d88	-0.1652608252870602
12	0xbfabaee4b52997ee	-0.05406870566802967
13	0x3fcfe29f2ba781f7	0.24910344726141861
14	0x3fcb896af4907bf1	0.21513115827198662
15	0x3fc2f7be1c1fa10e	0.14818550465793873
16	0xbf8ab41a35dfaad4	-0.013038830536932812
17	0x3fba9342fd12addf	0.10380953482188414
18	0xbfb3b646b20b0c5d	-0.07700006338841221
19	0x3fcc9df28b1477fb	0.22357017317784753
20	0xbfd4ab1d7c16e800	-0.32294404142487565
21	0x3fcc355cfb57f976	0.2203785159362714
22	0xbfe48191a94954de	-0.6408165270210266
23	0xbfd1b32c05cb93ef	-0.2765607887834553
24	0x3fc33bdb0fa5aae4	0.15026415123005343
25	0xbfe5b8af6c1ee0a3	-0.678794585393025
26	0xbfdb689150810bb2	-0.42825730191924116
27	0x3fe72b0532779d4a	0.7240015016258579
28	0xbff366d7aab1c321	-1.2126080196141589
29	0x3fdcc87244b8ebc3	0.44973427497069113
30	0xbfb9c43f9b051543	-0.10065076384224363
31	0x3fe554bf88b3ecd9	0.6665952367760851
32	0x3fc06a812d6ffe53	0.12825026243807489
33	0x3fc51f43bde92cd7	0.16501662037840134
34	0xbfe2d4ef2860d8c6	-0.5884929455412695
35	0xbfe10bee9fe6a837	-0.5327065585199823
36	0xbfd48c0bd2003c8d	-0.32104774005797126
37	0x3fbfd436889c1ce3	0.12433186373901921
38	0xbfc450d93ab3fa8c	-0.15871730200156653
39	0xbfd30c5c8c1f767c	-0.2976294868838989
40	0x3fd725cfa2b6c191	0.361682804966244
41	0x3fe10bbcc2aeb79b	0.5326827814476361
42	0x3fc920daba9b1f88	0.1963151370202889
43	0xbfa547c233d3c406	-0.041563099695743275
44	0xbfa32aed9a854617	-0.03743689070928385
45	0x3fc99fb16fa4b5a5	0.2001859469541333
46	0x3fb588147ee7a155	0.08410766695272305
47	0x3fd7ac0c38902b0c	0.3698759605764941
48	0x3fbbf873328aa3fc	0.10925979598927421
49	0xbfd46190f61e755f	-0.3184549716478013
50	0x3fc7e508efde0801	0.1866770907618616
51	0xbf9248db440af033	-0.01785605051803447
52	0xbfdf63f2248a4a96	-0.49047521179560627
53	0x3fb30f0d1dbe942d	0.07444841362173867
54	0x3fc11001fe6777e5	0.13330101892546434
55	0x3fe6ea720e03e838	0.7161188386664952
56	0xbfda84a6bdaa5048	-0.4143463947486947
57	0xbf8087f2c470ffd4	-0.008071800823131449
58	0xbfb855ef210883bb	-0.09506125027156902
59	0xbfc57f95bbbb6911	-0.16795608202557635
60	0xbfc1cad6c5a75ec3	-0.13900265360893202
61	0x3fa9cfba973146b8	0.0504129705010547
62	0xbfd3d0dfa13c9f8c	-0.3096236300066202
63	0xbfd085f2b177a530	-0.2581755383567552
64	0x3fb6db5bff592611	0.08928465828025646
65	0xbfa9aea54a108f5d	-0.05016056565389591
66	0xbfd7637c21ff6583	-0.3654470760353307
67	0x3fd21197ca4588dc	0.28232378724181983
68	0xbfda4a2dec0b4b23	-0.4107775502317727
69	0x3fd058b88cdbd28e	0.25541509395342465
70	0xbfb23c0096c2739a	-0.07122806244519922
71	0x3fb7185e4b38b347	0.09021558128797579
72	0x3fb26e2c31f4d9fb	0.07199360103263779
73	0x3f90c5156f0f33b1	0.016376814750220074
74	0xbfc9c8161e4cdfe4	-0.20141865233904277
75	0xbfe31931c799f936	-0.5968254946199412
76	0xbfd7fd67d4917adb	-0.3748416496145361
77	0x3f92e3d006bfa003	0.018447161113641652
78	0xbfb8cf312f701f67	-0.09691150100854672
79	0xbfca94420aacd04d	-0.20764947434656947
80	0x3f873d205fb09e02	0.01134705822012361
81	0x3fc000b7708a6b56	0.12502186770583518
82	0xbfeae7133ebcbb5b	-0.8407074189507101
83	0x3fcd64391c7c7d72	0.22962106600696647
84	0xbfbf11d110e221cd	-0.12136561071577674
85	0xbfefaeb40528aa38	-0.9900760746725785
86	0x3fef3070c7cc784f	0.9746631529158182
87	0x3ff2751d190e0f76	1.153592203017039
88	0xbfefdb233ba6570c	-0.9955001988443839
89	0x3fcd35d2218a6556	0.22820498120999372
90	0x3fcd52a3777fd736	0.2290844281666808
91	0x3fe446e2143bd058	0.6336527247608599
92	0x3f8ed39c108ee478	0.015052050834002836
93	0x3fc1b2621e70cb9a	0.13825632559163809
94	0xbff5557c4af9e041	-1.3333704880478907
95	0xbfd8db8505dcdaa4	-0.3883984143498458
96	0xbfe1b4e9fcdfabe2	-0.5533342303218627
97	0x3fb5bd91af6b0620	0.08492384464900526
98	0x3fd3c4ecda1a434d	0.3088943605335331
99	0x3fbadd87c2318caf	0.1049427842240671
100	0x3fc9b33a21558415	0.20078207614554403
101	0x3fc08c869dd146f9	0.129288508471795
102	0xbfc55e34c201ec48	-0.16693744156859425
103	0xbfc3def14a39f04c	-0.1552411663468568
104	0x3fb7ad64f5d74fb8	0.09248953821162231
105	0x3fb24f41851381b1	0.07152184962206466
106	0xbfdcab7847e97ef7	-0.4479656889215983
107	0xbf959eb66e8458e0	-0.021113253112240993
108	0xbf9eb0044fd4ad91	-0.029968325970157365
109	0x3f8a8d45a48b05ed	0.012964767536121047
110	0xbf99a44d9a181712	-0.025040829210431666
111	0xbfc046119b8d43b9	-0.1271383294611306
112	0x3fb747635796f7ea	0.09093304527684123
113	0x3f9a7d99b5a9ad99	0.025869752610032746
114	0xbf985284edfcbff3	-0.023752285981743126
115	0xbfd2971acb38b8aa	-0.29047269674164033
116	0xbfc85bf740a78154	-0.1903065744109066
117	0x3fcf141cabb24505	0.24280126937495808
118	0x3fa3aa2b3b91885f	0.03840766050485977
119	0x3f8b4d150f4de7a4	0.01333061650233331
120	0xbfa6235f898ce781	-0.043238626042195534
121	0x3fba3c32226946ee	0.10248101558797959
122	0xbfd1cd90e749b07e	-0.2781717547102359
123	0x3fd76b267642d8ed	0.36591493176400897
124	0xbfd7efa7aef6f2f4	-0.3740023811949833
125	0xbfba4a38c90367c0	-0.10269503505278887
126	0x3fab61e2aff71110	0.053481182079425094
127	0xbfcf0ca80aa53359	-0.2425737430552555
128	0xbfcc205097981f11	-0.21973616983472558
129	0xbfb1ece6ec31c73c	-0.0700210882803533
130	0x3fe050e2a56018d9	0.5098736982334017
131	0x3fd6b8694078cf6d	0.3550055627449556
132	0xbfcf669844e2f418	-0.24531844485855525
133	0xbfb29904499ec01e	-0.07264735028616129
134	0x3f9b59a30c9ac5be	0.02670912517959833
135	0xbfe08506570c5d20	-0.5162383747255355
136	0xbfc540d5afdbeaf6	-0.16604109846942777
137	0xbfdd7c8a83c91fdd	-0.46072638387385983
138	0x3fd1c6ecfc8208ad	0.2777664628885173
139	0x3fb2cd19efe347a8	0.07344209772716559
140	0xbfc7eb5d6cdc5189	-0.18687026801547926
141	0x3fa4bd47f69998f9	0.040506600239313025
142	0x3fc992c7aa7217db	0.19979186842482374
143	0xbfc51bc2813c2e09	-0.16490966139132038
144	0x3f9c343b24b198bd	0.02754299556217953
145	0xbfbbf4ed3a3af26e	-0.10920603438985108
146	0x3fd05717eac8328b	0.2553157608788658
147	0x3fbcf4dd6f4a1920	0.11311134306933868
148	0xbf7cbb70b398f266	-0.007014694443168245
149	0x3fa53ac29086636d	0.04146392835827482
150	0x3fcb1824f8cabd6e	0.21167432926220492
151	0xbfd01f42a83f69b3	-0.251907982162858
152	0x3fc33982d9fcfcde	0.150192600669448
153	0x3fd775df8a116930	0.3665694092102454
154	0xbfa1d7ec45175185	-0.03485048621556345
155	0x3fac7cb4b57dc24d	0.0556389304682666
156	0x3faa3b23bd72e883	0.051232449413377366
157	0x3fc0aa4aab3619cc	0.1301968894951656
158	0xbfc977f8f70b49b0	-0.19897377073955402
159	0x3fadd133f2b446bc	0.05823671662996108
160	0x3fbbde79ff0ee6c2	0.1088634727192597
161	0x3fb48a08f7bb5640	0.08023124740733412
162	0xbfb0aae01a07f431	-0.06510735164188543
163	0x3fcd110f45c5168d	0.22708311945659823
164	0xbfc4f30034815d9f	-0.1636657959340768
165	0x3fc489769931c0fa	0.1604450462359706
166	0x3fd627c026b4cf75	0.34617618350897966
167	0xbf7a1c82e3eafc04	-0.006374846735240251
168	0xbfa2696170e2f66e	-0.03596024039277955
169	0xbfcc6f34b0110065	-0.22214373204224383
170	0x3fb759e2f7e0dacf	0.0912153105899549
171	0xbfc7e583682e7cab	-0.18669169032088936
172	0xbfd2287f8759b88a	-0.28372181146449604
173	0x3fc7b00f25c052a3	0.18506039946864403
174	0x3f99ed090fa4e61a	0.025318280773012437
175	0x3fbd60efa4efa935	0.11476037766229726
176	0x3fd3602557d1802a	0.30274327827464964
177	0xbf84c17c93640edc	-0.01013467144776519
178	0x3fe16fdf85423a23	0.5449063875874497
179	0xbfc25018ffe22570	-0.1430693864279351
180	0xbfd2f82b84596136	-0.2963970940086428
181	0x3f77b49c587ac4b6	0.005787478184786801
182	0x3fb4ab930a8e0b1d	0.08074301726996365
183	0xbfc8d90c13beebb8	-0.19412375415944694
184	0x3f91d9226865bd45	0.017429864522850797
185	0x3fb955f7c7f8eaef	0.09896801597725945
186	0xbfd4720662967510	-0.3194595301409473
187	0xbfc149bc2def6131	-0.13506271593974753
188	0xbfc311eaf4df0918	-0.14898430782893324
189	0xbf9998c2d2fe3652	-0.024996799591056558
190	0xbf5575002d597fbb	-0.0013096334199857857
191	0xbfd3f187329ba5a4	-0.31161670629679805
192	0x3fd17698cc6d054b	0.27286357844794357
193	0xbfa8f43653e25168	-0.048738191356423155
194	0x3faa584a4b97137f	0.05145485089045731
195	0xbfdbab3ef69f35df	-0.43232702335521184
196	0x3fd306029051df24	0.29724182218295625
197	0x3f853fe8ff1d979f	0.010375805173406692
198	0xbfcc7f527c34bdd3	-0.22263556542155402
199	0xbfc0cf1fd7ef59dd	-0.13132093471240483
200	0x3fdf26711b614f21	0.4867213027366564
201	0xbfc502594c6384ac	-0.1641341803543005
202	0xbfb732c95e3a7f62	-0.0906186919260086
203	0x3fcfe3c493e3cf34	0.24913842412171905
204	0xbfdc4f9713134315	-0.44235779631439814
205	0xbfc8ec5863b7a588	-0.19471268528949914
206	0x3fc24540e6e96fa0	0.14273844981187
207	0x3fb03250df1a326b	0.06326775976976655
208	0xbfacb805aa4cf122	-0.056091477430955786
209	0xbfc9bd90b156f5d7	-0.20109757098354805
210	0x3fa734fee2123599	0.04532619962365487
211	0xbfc6e6199a684b87	-0.17889709510253857
212	0x3fcaec39bfd25008	0.2103340326908667
213	0xbfbc4b45e1bed840	-0.11052357446064409
214	0x3f9a853bdccff28c	0.02589887175780574
215	0xbfd9cd44f5790293	-0.4031536481088917
216	0x3fb58cea1ef3a203	0.08418143516212954
217	0x3fcbf42f60fc2893	0.2183894370612661
218	0xbfca2259eeaf6bfc	-0.20417331842949682
219	0x3fd15b37a7303841	0.27119246794689295
220	0x3fcace5d1305fcc9	0.20942271641613378
221	0xbfe36e009b9a456e	-0.6071780242074689
222	0x3fc60d0b85be7499	0.17227310209719773
223	0xbfd58f6fdc160b93	-0.3368796967771967
224	0xbfb41d48758de685	-0.07857182378747936
225	0x3fbe8df855bc23ed	0.11935379117143415
226	0x3fd254e22cf25a3e	0.2864308775837435
227	0xbfbef3cdae6b9361	-0.12090764530473798
228	0xbfc1b227e80303ab	-0.13824938610744417
229	0xbfb76ab37d359122	-0.09147188002458909
230	0x3fcde53141dbb34d	0.23355689731342935
231	0xbfd125eb0189bfa5	-0.26793933057978797
232	0xbfc51424d59440b3	-0.16467724255244817
233	0x3f90b0a1a304f3f3	0.016298795294677104
234	0xbfb1fc09ca1005b4	-0.07025204833191517
235	0x3f9d106309c8a89f	0.02838282344070164
236	0x3fe5304ef7f94b3c	0.6621470301855434
237	0xbf8a11869c477e62	-0.012728740352883242
238	0x3fb71addbd8005c5	0.09025369526354783
239	0xbfc53fb4afd5cd59	-0.16600664697362325
240	0xbfcb9ec7136dbce7	-0.21578300903954714
241	0x3fb382da9af08f6e	0.07621542246539345
242	0xbfba3b9c7d640588	-0.10247209607407204
243	0x3fc19fb0bdca7572	0.1376858641350896
244	0xbfc411ea1127de38	-0.1567967017906413
245	0x3fab53d0f6a3885a	0.05337384234168559
246	0xbfaa51e00a384aec	-0.05140590786699825
247	0xbfa24a01c2145f2d	-0.035720877591471335
248	0x3fb06a85314ad32a	0.06412537053513448
249	0xbfdf201b3ba2ca4d	-0.4863346178418951
250	0x3f981e1266283e7d	0.0235522150852021
251	0x3fbb4577de2faeee	0.10652875112981139
252	0x3fca3f50180f5c1e	0.20505715536884933
253	0xbfb6b04a8d3264b6	-0.08862749049366667
254	0xbfa1bb53f80f1f37	-0.0346323242479784
255	0xbfb5e6fcd3361f76	-0.0855558410313487

hidden_layer3.bias f8 [20]
0	0xbf929cf0efb052ef	-0.01817680800384641
1	0x3fdaa65ebe4a36fe	0.41640442450521664
2	0xbfd2d9d3f7a4dffd	-0.29454516586292795
3	0x3faf1c47172007f7	0.06076261670388299
4	0x3fc439b3af76cc66	0.15801092212277296
5	0xbfbb173c56bd2060	-0.1058232986225689
6	0x3fd0530bfac0dab4	0.25506877410536366
7	0xbfbbd9abe476511c	-0.10879015281381438
8	0x3fbf63de2e478212	0.12261761312357347
9	0xbfc500c3288e8021	-0.1640857646971208
10	0xbf9145bbe6d71cc1	-0.016867576565144263
11	0x3fc025c6cd6fbc9d	0.12615284949376795
12	0x3f9a6e57f954e8e4	0.02581155261325642
13	0x3fc4fd4be3e890a7	0.16397999409048689
14	0xbfc20c7201a65f76	-0.1410048015648006
15	0xbf8f9a5398d9d9a7	-0.0154310732861916
16	0x3fa541df89fd940c	0.04151819762663686
17	0x3fc804c4cbc539c6	0.1876455302212447
18	0x3f9eb22ce11419b4	0.029976559865667787
19	0xbfcaea05341aa186	-0.2102667335905261

hidden_layer4.weight f8 [20, 20]
0	0x3f9923483ec2ae1e	0.02454865344104295
1	0x3fb890910bed8767	0.0959559110756608
2	0x3fa36d1e300e313a	0.037941878667967235
3	0xbf83a28f1162fae8	-0.009587400167558838
4	0x3f9d244b2e9cc5e2	0.02845876190185049
5	0xbfb94bcba22a0f9b	-0.0988127966793954
6	0xbfcd3e1c38851305	-0.22845795402295024
7	0x3fc891217c4f4e64	0.19192904062093696
8	0xbf98babec0beedb0	-0.024149876131316084
9	0xbfc0dc9ea5d35665	-0.13173277947378206
10	0xbfa88a0238ddfabc	-0.047927922670159856
11	0x3fd1185d39b9dd8f	0.2671120704394178
12	0xbfcf3b176987bd42	-0.24399082806437816
13	0x3f989e80d63be8a5	0.024042141986662675
14	0x3feb2ad66c53b663	0.8489791980516198
15	0x3fdbbb4d78d1caf5	0.43330704497127154
16	0xbfd0d7e244088c40	-0.26317650455365893
17	0xbfe1c46220484558	-0.5552225714219885
18	0xbfb2349f76f948c7	-0.07111546187050798
19	0x3fc30bf4c4b6848e	0.14880237202763563
20	0xbfbb44635d6598ac	-0.10651227026173399
21	0xbfa2f646a31ba5c3	-0.03703518620552473
22	0x3fcc4fc012502944	0.22118378538318428
23	0xbfa78b24b2c0bf1b	-0.045983454533027955
24	0x3fcde5721775d51d	0.23356462617417942
25	0x3fbaf447a89f7689	0.10528991572160797
26	0xbfd98f1d5ac1efdb	-0.3993600260071141
27	0x3fc07a5ecfbaf7c2	0.1287344469364467
28	0xbfbf67b7444ca652	-0.12267632882562765
29	0x3f90d138e65a70a6	0.016423119601868173
30	0x3fc777ab5bcc2121	0.18333951933187456
31	0x3fc07ac8f2ad5ef5	0.12874709939455156
32	0x3fc21b0828b189aa	0.14144994723308218
33	0x3fbe14f90c6d7f33	0.11750752023135362
34	0x3f975ea479e41a6d	0.02282196992839618
35	0x3fc0c49d858eb2a5	0.13100022336347653
36	0x3f9a2d7e469abf0d	0.025564168032985047
37	0xbfb9fd2e845a5b1c	-0.10151949626229534
38	0x3f7f6719fb855b4f	0.007666684621958477
39	0xbfb806597216df4b	-0.09384688411125557
40	0x3fa7d8159eb918b1	0.04657046854531311
41	0x3fbbff39f755efd6	0.1093631962630178
42	0x3fb1480603de1377	0.06750524134083756
43	0x3f8f8b473d2a8fe2	0.015402370981355721
44	0x3f94d8606f25c131	0.020356661590484385
45	0xbf64d66435039b68	-0.002543636052098664
46	0xbfa33699af6b220b	-0.037525942481412576
47	0x3fc5017b01f9cba6	0.1641076812407764
48	0xbfaab555112db212	-0.05216470560739962
49	0xbfb3f0762299b716	-0.07788790077912852
50	0xbfbde48b3bae801c	-0.11676855284758897
51	0xbfbce68e9e38c363	-0.11289302218280066
52	0xbfc348061b8badbb	-0.15063549370766602
53	0xbf9c2520be702df3	-0.027485381720948564
54	0x3fb4a091b3b281b5	0.08057509076252851
55	0x3fc98d59d338512b	0.19962618649936678
56	0x3fa8fca969e616b8	0.04880265634259956
57	0x3fb10b575dd8efaf	0.0665793041343352
58	0xbf837b71a64995e7	-0.009512794387044955
59	0xbfa2d1559cf530dd	-0.03675334492672431
60	0xbfb21364e80f3dc9	-0.07060843148723629
61	0x3fa8fd4110adf734	0.04880717590911701
62	0x3fc6307d703c7864	0.17335479717525282
63	0x3fb723ed5fc6f09c	0.09039195621784518
64	0xbfb786d9f0ae5d10	-0.09190141798022844
65	0x3fb21dfcaeeb6e6d	0.07077006597995146
66	0x3fc024cebb273a7e	0.1261232770761644
67	0x3fd63bf2af96fa90	0.34740893504560066
68	0x3f0269d10aa5bf6b	3.512067026434261e-05
69	0xbfa6e04aa5bbe6ab	-0.044679959040832294
70	0x3fb74ec5858c124d	0.09104570875576563
71	0xbf954e1b4bcd59e2	-0.020805765630336988
72	0xbfba7d9ba2981bfa	-0.10347912520965954
73	0x3fca313bffe0ae62	0.20462751382852945
74	0x3f72df6119f3f33e	0.004607562353382387
75	0xbfc2d1647d6145c9	-0.14701515314167882
76	0xbfb1db7903e1e311	-0.06975513787064026
77	0x3fc6139a6d0b955a	0.17247324299311623
78	0x3f8b4e03fad0946a	0.013332396594771551
79	0x3fcedbdf6dc83e5d	0.24108498440226614
80	0xbfaff68545af7091	-0.062427677876003014
81	0xbf95b62c6ae56479	-0.021202749275606145
82	0xbfd3662070ba62f3	-0.3031083203182298
83	0xbfb33ff2a260ea8b	-0.07519451584168217
84	0xbfa4d1dad3e0e9be	-0.04066356502922329
85	0xbfae8d6d81063606	-0.059672758102447473
86	0xbfd2c87b30dff37a	-0.29348640225344236
87	0xbfbdbc0653b4d0aa	-0.11615027946101245
88	0x3fc2f7791cb18a4e	0.14817727948237053
89	0x3f852b59191af25d	0.010336586073543314
90	0xbfd255101269bcb3	-0.2864418201269913
91	0x3fcbef2dc4821453	0.21823665709613013
92	0x3fd0afaf2eaca104	0.26072291906395173
93	0xbfc3e983ae77f1e1	-0.15556379336329854
94	0x3fb8df1cf3747b2f	0.09715443557477664
95	0xbfc73b15cd9ab7f9	-0.18149063624645104
96	0xbfba048a024d66ba	-0.10163176113328634
97	0x3f9157dc1b4cc083	0.01693672100663025
98	0xbfc89bf7a762485a	-0.19225974724810407
99	0x3fb05b923be52513	0.06389726602823868
100	0x3fd2f16bbb428b5f	0.2959851578436225
101	0xbfb7078099ba018a	-0.08995822671022871
102	0x3fb4920a280737c7	0.08035338856936312
103	0x3f57387ef97e7636	0.0014172782884779417
104	0xbfe3ff975d8f5740	-0.6249501063673293
105	0xbfbf08dacce86d05	-0.12122886183390243
106	0xbfe3c5ba494b98ff	-0.6178866797970669
107	0x3fd3864de6941ea9	0.30507228391113955
108	0xbfd0727f234920aa	-0.25698831983437265
109	0x3fc1f183766af600	0.14018290788764887
110	0x3fb8f9373c10b0b8	0.09755273071704351
111	0x3fcc189d04c89a30	0.21950113996099807
112	0xbfbd4b89381d0c77	-0.1144338380809574
113	0xbfa7b9998557be63	-0.046337888266745585
114	0x3fe13659b8ed1e42	0.5378845798340495
115	0x3fd25e7683f3c1c8	0.2870155609698739
116	0xbfc105180520e491	-0.13296795130171238
117	0x3fdafe20bb4f5cfa	0.4217607335280743
118	0xbfe44dc133c133f0	-0.6344915400346718
119	0x3fd597a3f5cce953	0.33738039974163775
120	0xbfbead3104e3a13b	-0.11983019227375717
121	0x3fa3df1cf6f9d2b0	0.03881159319727112
122	0x3fcd7c882838c2e1	0.2303629108805785
123	0x3fbfd5270a4acbde	0.12434619904779207
124	0x3fcebec7331ad829	0.2401970862899259
125	0x3fc5af547e16b759	0.16941314846684
126	0xbfabff95db2a7d6f	-0.0546843366657822
127	0xbfae5dcd5544b905	-0.05930940309404956
128	0x3fc11e49e539cb0b	0.1337368363634471
129	0x3fc63d5f19d6587d	0.173747909179557
130	0xbfbd86897a020a58	-0.11533412197790349
131	0x3fccc96bd4177fc8	0.22489688736004454
132	0xbf802b3654bd057e	-0.007894920788774181
133	0xbf92ca9e5ad6eef0	-0.018351053518684546
134	0x3fc732976e1e4bbb	0.18123143078682155
135	0x3f5db2d1e3eebeec	0.0018126535139621437
136	0xbf901f5550014ce3	-0.015744526870844388
137	0xbfb3e6f6758a4607	-0.07774296159393411
138	0xbfba0178ce975fcf	-0.10158495944722222
139	0x3f910771d05c67fb	0.01662996134027848
140	0x3fc404fa39f4bd00	0.1564018996227574
141	0xbfb5de309e80931b	-0.08542159909900386
142	0xbfcfa91d5e2e423c	-0.24734847162882712
143	0x3fa4722cf7a441e6	0.039933591108027675
144	0xbfb62757932ba214	-0.08653781264332167
145	0xbfb5c9c507b7ff85	-0.08511001051374308
146	0xbf9d635871ee546a	-0.028699285463137526
147	0xbfb9294d69bd8a41	-0.09828647452881346
148	0x3fc6d6a253372f04	0.17842511237392256
149	0xbfad0e4a18d36e53	-0.05674964478540958
150	0x3fc4b4c9d706b3a3	0.1617672252590668
151	0xbfcbd3d8c74feb40	-0.21740255100288586
152	0xbf9584c24c19e765	-0.021014247794006197
153	0xbfaff4fc8b38be06	-0.062415973658399834
154	0xbfb537bb61bb5295	-0.08288165222195183
155	0x3fb24d573296d694	0.07149262414062668
156	0x3f9c6ad1d551de55	0.027751234669692277
157	0x3fb6daa2544ebc53	0.08927359159746233
158	0x3f96ec8cc6b8603e	0.022386741284293736
159	0xbfa716e3bbb76cfa	-0.045096508659947035
160	0xbf9f16d1e7c40ab0	-0.030360488673077668
161	0x3fd236e1278e2618	0.2845995794565126
162	0xbf88bf51f0c3dac5	-0.012083664093080934
163	0xbfb34898cb708b2e	-0.0753264900854844
164	0x3fcec2bbe495244d	0.24031780873545686
165	0xbf897335228817fe	-0.012426772228547375
166	0xbfcfc594961ff77d	-0.2482171757728188
167	0xbfc90f0137ab0fd3	-0.19577040880369498
168	0x3fa4eeba4bb99f2e	0.04088384794596177
169	0xbfb97e34acf11e44	-0.09958199712956978
170	0xbfb52356c9421ba7	-0.08257048047572245
171	0xbf792dde46f4cad2	-0.006147259016233435
172	0xbfafc967d9623f47	-0.06208347824678966
173	0xbfc0ad1733d48aa0	-0.13028230696462106
174	0x3fd77080fa504e00	0.3662416882009154
175	0x3fbd8a9ba4352071	0.11539623984310922
176	0xbf922612cf2af208	-0.01772336377574571
177	0x3fa8e18a4bb81e6b	0.048595735304897435
178	0xbfb3a9bd230578c8	-0.07680875878347415
179	0xbf967967b5784253	-0.021947498751673965
180	0xbfb63df56c8b371b	-0.08688291454310752
181	0xbfa07206ed65fb09	-0.03211995742730351
182	0x3fc755a9a1f00741	0.18230171591863534
183	0xbfcb51a4d69f73b2	-0.2134290740931682
184	0x3fd331d758dc2b7b	0.29991706540811663
185	0xbfa35d21be1b74f7	-0.03781991429944214
186	0xbf634bbbc0dc7a37	-0.002355448442258347
187	0x3fc03694eab54845	0.12666570148809533
188	0x3f99fe930b1abb20	0.02538518672252643
189	0x3fcd48a8592c0b98	0.22877983430961701
190	0x3fb8dae9a6a0611f	0.09709034269360871
191	0xbfc2f2ee66bf96a6	-0.1480386735631118
192	0x3fa113c7a051481d	0.03335403282166303
193	0xbfbeae7f12da6b39	-0.11985010347636384
194	0x3fc0c6f525cc2658	0.13107170434550386
195	0x3f9ab4b9f6516860	0.026080041560227918
196	0x3fb62cd5dc9b079a	0.08662163387182745
197	0xbfd9463c34e27595	-0.3949118153048741
198	0xbfb82edffea5d00d	-0.09446525542244917
199	0xbfb8c4eadd7e5558	-0.09675472171359922
200	0x3f92f181692fcf74	0.018499395413484845
201	0xbfae2622bee0d524	-0.05888470249230185
202	0xbfc45cd7173c9c38	-0.1590832580052124
203	0xbfbfd24dddc242a9	-0.12430273689302375
204	0xbfd850a37eea9615	-0.3799217929284578
205	0xbfb8deb56e94d52b	-0.09714826535931269
206	0x3fcff6d1215d135f	0.24971975449639225
207	0xbfc332c5cc0347a9	-0.14998695813716026
208	0xbf95dbbc5c8a5c60	-0.021346038006040735
209	0xbfb3abcf9ecedb19	-0.076840378066532
210	0xbfb087fcec111ea4	-0.06457501185752307
211	0x3f63f26292599aa5	0.0024349141338462937
212	0x3fcdcbf774456007	0.23278706719679595
213	0xbfccf1d19fe27f49	-0.22612972552178182
214	0xbfcd3426315cec56	-0.2281539670019323
215	0x3fb4fac1600d916c	0.08195122332614851
216	0x3fc1d7bf9c8abe53	0.1393966211667129
217	0x3fc567bf493ac2d0	0.16722861362133878
218	0xbf9dec6500932f05	-0.02922208610543377
219	0x3fa7df1857611591	0.046623955408487856
220	0xbf626cb6dc42189a	-0.002249104642092337
221	0x3fd8144cc654cb92	0.3762390076473646
222	0xbfd039af2b3f5935	-0.25352076743492385
223	0x3fcfaab0838ddb08	0.2473965303758734
224	0x3fa6492b84e70a85	0.04352699277253173
225	0xbfb26753aab6132f	-0.07188914220575947
226	0x3fa552ae6e19439c	0.04164643377283214
227	0xbf9d4a9edbc6385e	-0.02860496727367267
228	0xbf85001d3cb9115e	-0.010254124084106916
229	0xbfb07d4b32cfae5d	-0.0644118308115877
230	0x3fe53d997f724512	0.6637694825350613
231	0x3fd53cb007400c62	0.3318290777971865
232	0xbfabdfacc4f54439	-0.0544408789088568
233	0x3fc54d22d2bdbdd3	0.16641650476547784
234	0xbfba6760d1a257fb	-0.10313992612859117
235	0x3fb5fb7f3495a99a	0.0858687880878847
236	0xbfd38f2879094203	-0.3056126768106255
237	0x3fd124e5cb8eb08e	0.2678770530571989
238	0x3fc48170b21f44de	0.16020020196314183
239	0xbfe75ad14b61a37a	-0.7298361274998648
240	0x3fb8e7904164f797	0.09728337856810608
241	0xbf85cfc7bf08c77e	-0.01065021564236068
242	0x3fa45e720239aaff	0.03978306080974469
243	0xbfb79ab1b9aaa232	-0.09220419676660965
244	0xbfd15244e3a71c0e	-0.2706463072940445
245	0xbfa8bf5c2c8d3710	-0.048334961355619765
246	0x3fcbc56c6100b770	0.21696238266434476
247	0x3fb5f236dcd17c39	0.0857271470172102
248	0xbfa5b734199b253d	-0.042413356900917944
249	0x3fa4bf5c372be0cb	0.04052246259192457
250	0x3fc1ef56eb0541ba	0.14011656261074085
251	0xbfa9deebf29a47c8	-0.05052888237436509
252	0x3fc3e575d6c10d0a	0.15544007288017553
253	0xbfd2499b295c272c	-0.285742559805487
254	0xbfd1d99bcb49209d	-0.2789067731105293
255	0xbf9b0b80f9149d7c	-0.026411071016949603

hidden_layer4.bias f8 [20]
0	0x3f9e061b053e0446	0.029320165820085252
1	0x3f7e05550f78d7ea	0.007329303996405282
2	0xbf83ab7b69538f48	-0.009604419853026194
3	0xbfb1883e2841b495	-0.06848515017346053
4	0xbfbcdc27e945868a	-0.11273431248766932
5	0xbfd0f574d71a0d8b	-0.26498147016555923
6	0xbfc0f50943fb1f1e	-0.13247791118032465
7	0x3fc24e9cd7a892a2	0.1430240681667288
8	0xbfb1450657dc87c8	-0.06745948453001838
9	0xbf84ae8bcb2b90d9	-0.01009854520584279
10	0xbfcc737398dc5ffa	-0.22227330173404863
11	0xbfbf24080391212c	-0.12164354407389472
12	0xbfb044cd67fa08c0	-0.06354984081739001
13	0x3fc6c52a88983afc	0.1778920332876267
14	0x3fa74e157d665503	0.04551760822065811
15	0xbf79490e74485830	-0.006173187696296309
16	0xbfb67fd4a37feb9d	-0.08788804046336769
17	0xbfbe05dad60c7c1f	-0.11727683759498618
18	0x3f98fefca7f1f56d	0.02441019797378401
19	0xbfc20d5acf81bebe	-0.14103255397957598

hidden_layer5.weight f8 [20, 20]
0	0xbf91c59d58f385f3	-0.017355402521280493
1	0x3fd0f2faf9ef147d	0.26483034522636456
2	0xbfa037a79e7b0f4b	-0.031674612136639434
3	0xbfc301d7418e464e	-0.14849367810215813
4	0x3f9faf1b4d219e81	0.03094141634247061
5	0x3fd2114ecd0a3341	0.28230638526365587
6	0x3fc87a44a3112076	0.19123132669688275
7	0xbfb51d2e989c087c	-0.08247653222864132
8	0xbfc60ec51d6fc398	-0.17232574403126644
9	0x3fb77274d07e0be2	0.09159021463533137
10	0xbf6a575d7dcebe3c	-0.0032154870991332445
11	0x3fc23c11dd905845	0.14245818441912853
12	0xbfc40251b01596c4	-0.1563207731043602
13	0xbfc126245d518105	-0.13397650295792843
14	0x3fabbf12a919455f	0.05419214548295303
15	0x3fbbf19a00c082ed	0.10915529745444603
16	0x3fb56ec37a3542b2	0.0837213681563849
17	0xbfb8a3f0b759ddb9	-0.09625153042167413
18	0xbfbd3f1009fe2768	-0.11424350971188135
19	0xbfca7fe74623641c	-0.2070283024284273
20	0x3fa424ecafb5b128	0.03934421200651378
21	0xbfa8ff4f6195e5e0	-0.04882286134938929
22	0x3faadd083c106284	0.05246759160235562
23	0xbf978177ddfdb57c	-0.022954819607027485
24	0x3fa9fc7c77236ded	0.050754441779385796
25	0x3f8662f551286994	0.010930935420266498
26	0x3f9a69c5458de4b1	0.025794107790237223
27	0x3fd15ef09fa2189d	0.2714196738164761
28	0xbfbb075948fd2b9b	-0.10558088333088593
29	0xbf962377f820d2ad	-0.021619677085441925
30	0xbf969b50b1d6bc1f	-0.022076855520648416
31	0x3f825dc447bdcaaa	0.008967908324597335
32	0xbfacd1dc54a73ddf	-0.05628860982289629
33	0xbfb5154626f88f27	-0.0823558659690745
34	0xbfb9928ad6315e01	-0.09989230851476096
35	0xbfaab35d0a2844d3	-0.052149684419541174
36	0x3f9c31ecf5c87a67	0.027534201146517747
37	0xbfc4618413afd04e	-0.1592259498717134
38	0x3fa1b398b8cf44b8	0.034573338088770666
39	0xbfb8351f3f46fe19	-0.09456057829719845
40	0xbfc6308a6063dd98	-0.17335633951709606
41	0xbfc1b1c00356a14a	-0.13823700106628173
42	0xbfbf9bdcc1e7dcbc	-0.1234720204737298
43	0x3fb656771d473dc0	0.08725685562898544
44	0xbfc28e2724ae9655	-0.14496316233742115
45	0x3fca834cdd2a3126	0.20713196562827213
46	0xbfa1b10e6690c607	-0.03455395700474289
47	0xbfb5e16e53609a0b	-0.08547105346278998
48	0xbfba18d3f72df869	-0.10194134506852638
49	0x3fc0d15a3ca09779	0.1313889308959764
50	0x3fa201b68c9dbb9e	0.035169319787079475
51	0x3fbab0a9193c3e2e	0.10425812593552372
52	0xbf8d6adc7ef14d01	-0.01436397802732481
53	0x3faff35b1c742d72	0.06240353319489146
54	0xbfcaa4489f93820f	-0.2081385401898079
55	0xbf008e909aeb2db8	-3.1579769133562236e-05
56	0x3fb82a9e541c68aa	0.09440030625811127
57	0xbf8a51e6532dc4c2	-0.012851523793616319
58	0xbfc4456b442a8fc8	-0.15836850002699365
59	0x3fb7d245758d524d	0.09305223579333095
60	0xbf72a357a95c30a9	-0.004550306728344258
61	0xbf84a80163f60056	-0.010086069930139423
62	0xbf9eab9f806af407	-0.029951564991950643
63	0x3fa7b56614f61a1f	0.04630583768726048
64	0x3f7dc7047553cf75	0.007269875922464188
65	0x3f81d7423a173089	0.008711354635032602
66	0x3f6779fffe497139	0.002865791308336221
67	0xbf51ecd1a04b6af4	-0.0010940596704844237
68	0xbf7b2f3258453c43	-0.006636807116890134
69	0x3f975e30aa37c853	0.022820244206691886
70	0xbf825f54c9daddef	-0.00897089234363954
71	0x3f882f2ea0ef6f27	0.011808742796283035
72	0x3f9a881631335737	0.02590975451752017
73	0x3f96ffda043145c8	0.022460371499908566
74	0xbfa616dec8235054	-0.04314323609438078
75	0x3f81c332852d68b0	0.008673090638400133
76	0x3f80f5c50b018ace	0.00828126849973412
77	0x3fa7dc7697324bf0	0.046603876072502604
78	0xbf85c47a9efb1714	-0.010628660179814932
79	0x3f4a3d77ef12caf3	0.0008007846464777854
80	0xbfc30555ae628850	-0.14860030188453033
81	0xbfb053ca430fbd60	-0.06377853524440047
82	0x3fc48ae28c26821d	0.1604884323433148
83	0x3fc830ed252139a4	0.18899311364152738
84	0xbfb439a4eca5db6d	-0.07900458123718375
85	0x3f968a397b819b41	0.02201165977785569
86	0x3fc09a65da2d18eb	0.12971184876568684
87	0xbfb826076d3b4241	-0.09433027664932415
88	0x3f9eef9d8c673749	0.03021093530133293
89	0xbfd3ba87f2b86bcd	-0.3082599516216618
90	0x3fbf5ac0f2319aac	0.12247854149755238
91	0xbfb510b69063e694	-0.08228627228882096
92	0x3fad280f8f91f87f	0.05694626452985662
93	0x3fc351deacd5d4bc	0.150935968773103
94	0x3fcf1ba2c1c0eac6	0.2430308767378248
95	0xbfb333ab2774a709	-0.07500714982293401
96	0x3fb4fc0386bf3ae5	0.0819704250309133
97	0xbfb073188821d21b	-0.06425622294938942
98	0xbfb1b79394a84777	-0.06920740489320375
99	0x3fd16636cce08deb	0.27186365134750073
100	0x3fa41215776b0a1f	0.039200468852431884
101	0xbf84009195d9d6f0	-0.009766709695422787
102	0x3fa39e2dcd633161	0.03831618435069362
103	0x3fbf4e5931c74ed8	0.1222892519502311
104	0xbfd78692f448c89a	-0.36758874755754223
105	0x3fc68277f853fd30	0.17585658669848092
106	0xbfc1960a828b6534	-0.13739138960117148
107	0x3fbb96e067a29bb7	0.10777094392925234
108	0xbfb2d7388d974888	-0.07359651047525706
109	0xbfc9192d85b8a815	-0.19608086613999434
110	0xbfb3748ff18157ee	-0.07599734922527521
111	0x3fc9947f731a2e35	0.19984429474094303
112	0x3fc5440783fbbf09	0.16613859123707922
113	0x3fc2f0f98f9bec24	0.14797896873628347
114	0x3fc10b5bdbc83bdf	0.13315914374876933
115	0xbfc306dde3514765	-0.14864705657469837
116	0xbfb79c375ae10f4b	-0.09222742050866121
117	0xbf95e2a854dbd356	-0.021372442416537872
118	0x3fc5d800a55ba63b	0.17065437387582158
119	0xbfda711d68a3c1af	-0.41315398424833466
120	0xbf65d6dba21bebff	-0.002665928813141871
121	0x3f8a99531b04ee35	0.012987756025373812
122	0x3f9f7ef45b2d073e	0.03075773054593544
123	0xbfa55ea5cfa892df	-0.04173772964376154
124	0xbf823b85296724b9	-0.00890258820153843
125	0xbf6c9c71e03df2f5	-0.003492567457156754
126	0x3f808dd28cd179f9	0.008083004877502896
127	0xbf9398aafdef60ab	-0.019137069462744332
128	0x3f83b6087c6f264e	0.009624544427327877
129	0xbf900b0380ef841d	-0.015667013878445702
130	0x3f70e901cf8dba14	0.004128462861315647
131	0xbf8c6dcd7d84b2a5	-0.013881307023063736
132	0xbf87038249eaa7e9	-0.011237161522632948
133	0xbf6bf85728ec4e40	-0.0034143164006168736
134	0x3fa868e41805fb63	0.04767525475744241
135	0xbf4b9b37d6554b09	-0.0008424780504959493
136	0xbf7c86fc335b00c4	-0.006964669378874248
137	0x3f7eaced63c73b49	0.007489135078187222
138	0x3f939b86facea322	0.019147976930670947
139	0x3f81d8f7b835557e	0.008714614209263113
140	0x3fa36c260be8c773	0.03793448348404995
141	0x3f95deb57bc80072	0.02135737960816226
142	0xbfa2271ba329c23d	-0.03545462004411035
143	0xbf8cc6fb581416fd	-0.014051402688447729
144	0x3fa01502c0f95732	0.031410299354929797
145	0xbfac00287680f77e	-0.05468870588855078
146	0xbfbc2a351c57e1bf	-0.11001903478598417
147	0x3f9eea907f5c555f	0.030191667340735303
148	0x3f997eaa5abfb3a1	0.0248972528351491
149	0x3fa37ebc0a9c1e61	0.038076282782694156
150	0x3f9556b092735e98	0.02083850759376435
151	0xbf9643190c1592f0	-0.021740332949224006
152	0xbfbd77c4abfd6c15	-0.11510876845333969
153	0xbf94188d7b5ce812	-0.019624910978770123
154	0xbf8183911b939b3f	-0.008551725057669322
155	0xbfaa7901c9fe93b9	-0.05170446005585156
156	0xbfa2784bb3267d16	-0.03607403337377428
157	0x3f98a323b8b5d383	0.024059827946490763
158	0x3fa00cd4b77a9e0f	0.03134789218648503
159	0xbfb1880e61c22d9d	-0.06848230253870331
160	0x3f93c5f3272a3189	0.019309806123190696
161	0x3fc0925a7d71e164	0.12946635365711778
162	0xbfac8685fd4330cf	-0.05571383205969626
163	0x3fc54752c19bba22	0.16623911336451253
164	0x3fade9c3d9088f69	0.05842411064466441
165	0xbf9802fe76f143cf	-0.023448921212835757
166	0xbf9575b5f4f73563	-0.02095684344913219
167	0xbf73e5134ba85fe0	-0.004857135174937327
168	0xbf83236d4ebd8efe	-0.009344915357082591
169	0xbf7d181bd348558e	-0.007103069965997645
170	0x3fb0cb248aaddaf2	0.06559971223564867
171	0xbf74f885e1d39740	-0.0051198224802869174
172	0x3fa45ab9f3fe816a	0.03975468734211314
173	0x3fbaed0546735e6a	0.10517914743410875
174	0xbfb1ad4e5b92f28e	-0.0690506909913415
175	0x3fb7e9af2b9ed9e2	0.09340948882059011
176	0x3f91b22f87ae4baa	0.017281286865521807
177	0x3fb4107f5f4d92dc	0.07837673260435046
178	0xbfb694c7519f356d	-0.0882076811096419
179	0xbf997fe7441f73c0	-0.024901975186242487
180	0xbf8ca55e936a0cfb	-0.01398729216930982
181	0x3fa79ed49ad38a3a	0.046133655452440483
182	0x3fbdb9b9e5516ddf	0.11611520622812276
183	0x3fa056b2acf568c1	0.031911452878107045
184	0x3f974b2c31e959e4	0.022747698351247694
185	0x3f91938ec6656141	0.017164450511104382
186	0x3fc45e2875f7f48f	0.15912347564873072
187	0x3fb088d635eba2d2	0.06458796326081576
188	0xbfa8fc056ec28545	-0.04879776932763006
189	0xbfba5789ca7f83fb	-0.10289822763253646
190	0x3f718c2dc6c6825a	0.004284075559923462
191	0xbf8530db4208328a	-0.010347092583310475
192	0x3fbf4101d9df8596	0.12208568162124886
193	0xbf54241c25992650	-0.0012293124076613489
194	0x3fb943a36b768ecc	0.09868832944499245
195	0x3fc281c3f92aac58	0.14458512941687007
196	0x3f946dd82780841a	0.019950272952090932
197	0xbf8b1810346250ab	-0.013229490851053368
198	0xbf40ba48c39d54d8	-0.0005104880612899721
199	0x3fab2e4ebfb41307	0.05308767404679853
200	0xbf95f8c0a0eb7be3	-0.021456727811592812
201	0xbfa89ac75a8d5bad	-0.04805586796162884
202	0xbf958ab16eacaa49	-0.021036884670289777
203	0xbfa661eb33e27eee	-0.043715810855472145
204	0xbf95fe85fd816b6d	-0.02147874221587236
205	0x3f7e08dd30fed43d	0.007332672146664496
206	0xbf8c23f43a4a4485	-0.013740451840279508
207	0xbf8d1854ed470771	-0.01420656537164053
208	0x3facf4ef4bd6e887	0.05655620384955378
209	0xbf955a11a0b4c8dc	-0.020851397927977952
210	0xbfa4b303311af98f	-0.04042825674467842
211	0xbf756081d148a6bd	-0.005218989467303534
212	0x3f8c0a9b523d17c7	0.013692105719780202
213	0xbfb0c18ba98e5988	-0.06545327081253138
214	0x3fa80931c5b90a35	0.04694514788254304
215	0xbf93c8650c9f2f2c	-0.01931913270509182
216	0xbf90a85c831ed2aa	-0.01626724767966673
217	0xbf812cc07b2f044f	-0.0083861386864347
218	0x3fa30286b1c81e76	0.037128647996777994
219	0x3fa18fa3874727cf	0.03429900194494417
220	0x3fbbaf016398df25	0.10813912087985196
221	0xbf8539f82aed5811	-0.010364474115402119
222	0xbfc8c37b3cfba153	-0.1934656188743796
223	0xbfb95a4d3c9a716e	-0.09903414468357649
224	0xbfc55392e64b1809	-0.16661297077934048
225	0xbfd3c9f219bc9ba7	-0.3092007876716089
226	0xbfa57872bf3015f6	-0.04193457206569555
227	0x3fc39cd30a59c27d	0.15322340016748007
228	0xbfc3c667eae256bf	-0.15449236840202293
229	0x3fb8007e12a68bae	0.09375751452766565
230	0x3f96321e45680e5c	0.021675560938105284
231	0xbfc0f72ba9a7ed37	-0.13254304679853998
232	0x3f90ebb7e9bee3c8	0.01652419437570865
233	0x3fa406f415df7426	0.039115550680186836
234	0x3fc79ecad6788498	0.1845334574909756
235	0xbf8beae5dc2c5023	-0.01363162592091533
236	0x3fcd18c308fd75fc	0.22731817187279535
237	0xbf7b0a7701da0ca3	-0.006601776954656166
238	0xbf93d30fe4fdf192	-0.01935982546955157
239	0x3fc4e9f65b4f3ff6	0.16338996370768627
240	0xbfe07f83e8f49e0c	-0.5155658292687249
241	0xbfab0d1f67036f6c	-0.052834492993240584
242	0xbfc155f6273d61e7	-0.1354358378982987
243	0xbfc60d078bceeca1	-0.17227262808396396
244	0xbfb32dc329794adc	-0.0749170280699149
245	0x3fc2dd4c2fea6327	0.1473784669840594
246	0xbfb218ee2d85759e	-0.07069290744171616
247	0x3fc3e45c1ad271b9	0.15540648755712796
248	0xbfc84c89c6b89569	-0.18983576014685902
249	0xbf57e23b3ecdb130	-0.0014577463691366026
250	0x3fbab38f83cff52b	0.10430237739634111
251	0x3f97f6b682922de0	0.02340207263891425
252	0x3fad46d461437a04	0.057181012032504724
253	0xbfa03e6a6f8c0d72	-0.03172619449289983
254	0xbfabc01da0585c5a	-0.05420010168398255
255	0x3f8afd9881ab596a	0.013179007966226581

hidden_layer5.bias f8 [20]
0	0xbf914aa73b755662	-0.01688634205250706
1	0xbfab7410c0ac05c3	-0.05361988403275177
2	0x3f9c815e021299b4	0.02783724677706241
3	0x3f89d673ebd4fdd4	0.01261606753780501
4	0x3fc0e8c1c995c3a1	0.1321031793882215
5	0x3fb00d842e1bc387	0.06270624280638347
6	0x3f5c6d7bbb0fa6e7	0.0017350872333232127
7	0xbfa33ab7e5c9a8a6	-0.037557360458621944
8	0x3f94351f7d7cbd5f	0.01973389819539528
9	0x3f92cc2d13ee03d8	0.01835699495450513
10	0x3f8125e9fb171f2f	0.008373096442383236
11	0x3fc423696569326c	0.15733067943292
12	0x3fac6de5e59f88a7	0.0555259554673893
13	0x3f9c276c92f034cc	0.02749414107170338
14	0xbfa96c5f1413bb09	-0.04965493316728071
15	0x3fb57176bdc6f72d	0.08376257069809574
16	0xbfaa5645010668b1	-0.051439434409262026
17	0x3fa19c42e80c527e	0.034395304514110756
18	0x3fb32791d4a81e5c	0.07482253495992935
19	0xbfa1d0858435b1ce	-0.0347940181626175
