net_param/net_0.00000184.pth (torch, 18211 bytes, 12 tensors)

hidden_layer1.weight f8 [20, 3]
000000 4b 31 0c 26 e0 5a ee 3f 2e 2b 9d 73 9f 45 dd bf
       0.9485932105176657 -0.4573744420091995
000010 a3 5a 78 bc 85 d1 d6 bf 99 04 7e c2 97 7c 05 40
       -0.35653823285376 2.685836333723796
000020 53 81 a1 20 a0 50 f0 3f 42 b1 38 9d 0b bb c9 bf
       1.0196839594501241 -0.20102067162350507
000030 b2 fc e4 27 4b 92 e0 3f c9 9f 14 2b 69 46 e6 bf
       0.5178581027211264 -0.6960950700204133
000040 2c 3a 29 16 d0 61 de 3f 33 75 6d 3b e1 e4 02 c0
       0.47472002185978357 -2.3617577212122796
000050 58 58 2e 4d 00 ad f2 bf 98 17 0a b8 37 13 0e bf
       -1.1672366156467628 -5.7363641649251635e-05
000060 63 43 f8 4a ff 55 d1 bf df f8 0e 6e ae 2b d5 bf
       -0.2708738548399678 -0.33079109905146525
000070 6d df 75 ff 89 16 e1 3f eb 25 a0 1e 5c da d1 3f
       0.5340013493978241 0.27895262709407004
000080 87 16 25 92 49 1d 09 c0 0b a9 be 8b 5d 0e c2 bf
       -3.1393004815643653 -0.14106339763140627
000090 74 36 39 44 03 0e b4 bf d7 e5 57 1a 87 24 e4 3f
       -0.07833881774532775 0.6294589533346721
0000a0 6a a6 56 e1 d9 8c e4 bf 2c 58 42 7d 2b 80 ec 3f
       -0.6421937371389508 0.8906457373111656
0000b0 a8 d6 a2 69 20 15 cf 3f a7 b7 f6 cf 2a 17 b5 3f
       0.2428322330285273 0.08238475396384946
0000c0 90 a7 af fa ce 68 e5 3f 53 97 90 91 b7 4b b9 bf
       0.6690440078939321 -0.09881160072162957
0000d0 19 86 8b 20 33 67 9f 3f d9 3d 0e ea 5d 69 e3 bf
       0.030667113171949454 -0.606612164630799
0000e0 86 16 1e b6 c0 ee f1 bf cf 5a d5 a5 18 ee c2 bf
       -1.120789252659422 -0.1478911218389016
0000f0 56 7a 50 69 76 0b e9 3f 44 66 c2 45 93 df fd 3f
       0.7826492363854622 1.867083809373427
000100 89 dd 66 c7 2a e8 e5 3f d7 3f d1 bc bf 31 f0 bf
       0.6845907110754733 -1.0121457458189889
000110 d6 c6 58 06 88 3b f0 3f 60 00 da 39 c7 c5 bb bf
       1.014534020225644 -0.10848660623924067
000120 35 9b bc 2e ff b2 fc 3f 30 be fc 91 7e 60 dc bf
       1.7937003923086199 -0.4433895517022135
000130 d9 41 80 b9 95 28 e0 3f d9 14 6b 96 5e 76 e2 3f
       0.504954206759119 0.5769493997437635
000140 97 90 b8 c8 65 2d e5 bf 56 0f bf 5b a9 33 cd bf
       -0.661791698487394 -0.22813908557702217
000150 ab da 6c 43 13 24 a2 bf 09 01 fe b3 19 62 f2 bf
       -0.035431482296578075 -1.148950293631119
000160 19 4f 82 72 e0 57 e1 3f a0 5e b4 f4 7f eb e2 3f
       0.5419771420006071 0.59124753755437
000170 cd f4 b2 d8 7e 34 fe bf a8 01 5a 05 f6 de d2 bf
       -1.8878162827307279 -0.2948584606420135
000180 22 78 79 d0 5e 1f e4 3f 8a 5b 03 d0 20 43 97 3f
       0.6288293906943674 0.022717011161911972
000190 aa 5e bd 60 1a 53 da bf b0 eb 04 51 f6 5e e2 bf
       -0.41132220694769706 -0.5740920622259775
0001a0 c2 ef 4e c9 fd 56 e1 3f 66 b6 ca 29 b0 c7 df bf
       0.5418690616420394 -0.4965629966853612
0001b0 72 86 bf 85 0a 4d e1 3f cd 53 86 ff ae 25 cc 3f
       0.540654431559416 0.21990001179497512
0001c0 bf ac d8 e8 de c0 cc 3f 28 0b a5 1b 05 ce ee 3f
       0.22463594788982807 0.9626489200530601
0001d0 bf 18 48 fe dd 70 df bf bb ce fa 7a 09 43 dd 3f
       -0.49126386482420153 0.45721661576974854

hidden_layer1.bias f8 [20]
000000 d2 e7 23 a0 81 4c c2 3f 0a 79 b4 0c e3 69 ba 3f
       0.14295978850696983 0.1031782060640333
000010 0c 72 33 de 9b 3f b4 bf ff 67 b7 a6 ee 86 a9 bf
       -0.07909559416606998 -0.049857576228262694
000020 d6 41 dc c9 57 dd b6 3f 76 b6 53 4b c7 43 d7 bf
       0.08931492498619006 -0.3635118709197295
000030 3c 05 fd 86 c8 4d b3 3f 34 4f 17 ce 2f fe a9 3f
       0.07540562911619458 0.0507674159122459
000040 00 f7 f4 d6 72 20 c5 bf ad 8f 71 d2 b0 3e cb 3f
       -0.16505275245611273 0.21285066867414795
000050 af db 45 74 68 b8 ad 3f 89 35 2e 1c e1 97 e0 3f
       0.058047546571223456 0.5185399580383755
000060 39 3d 37 20 1f c8 dc 3f 8c a2 11 c2 36 a3 b1 bf
       0.4497144522292334 -0.06889669645318913
000070 be d3 6e 32 b5 0f be bf 5a 72 e2 5a e1 95 d6 bf
       -0.1174271820189707 -0.3528979671043878
000080 15 ad 98 6f d5 91 d1 bf 25 57 44 84 db 6a ae 3f
       -0.27452598474583684 0.059409007926815506
000090 f2 0a ba 6e a8 86 e0 bf 62 29 26 a5 27 23 cd 3f
       -0.5164377367621837 0.22763534130019553

hidden_layer2.weight f8 [20, 20]
000000 cf 02 c1 6e f5 ce c0 bf 5e 53 6b b4 fd 80 9a 3f
       -0.13131587894351646 0.025882686745564036
000010 09 74 1b 29 e0 96 c5 bf 57 ae cb ce fa ed c3 3f
       -0.16866685874165935 0.1557000646347315
000020 3a c5 c3 05 86 ab e4 bf 86 11 1b 9e 58 39 d0 3f
       -0.6459379303543422 0.2535001319886522
000030 0b 91 54 22 4c 4d ca 3f 42 71 4d 91 9a e1 c6 3f
       0.20548392940794033 0.1787598809704694
000040 02 75 50 62 31 86 d2 3f d6 a6 9b 35 d1 90 e5 bf
       0.2894404850101894 -0.6739278838187726
000050 50 d6 db 38 87 02 c5 3f 9f b3 65 e9 7f f5 d0 bf
       0.1641396548872529 -0.2649841098089442
000060 62 81 de 11 19 2d cb bf 19 d6 b3 04 3d 60 62 bf
       -0.21231377956884062 -0.002243155647756689
000070 8e 42 77 81 b5 e0 d3 bf 9d 33 0b 3d 8b 83 9b bf
       -0.3105901493372948 -0.026868987656417088
000080 3c c5 27 9a b9 b5 c7 3f 4c 53 48 ce e4 ae ab 3f
       0.18523330714337216 0.054068708592387965
000090 01 fb b9 43 75 3f e3 3f f4 11 66 cb 18 d6 d5 bf
       0.6014963457854209 -0.34119243491321005
0000a0 13 06 61 7c 0b c0 e2 bf af 60 51 c4 6e 5e d6 bf
       -0.5859429768826793 -0.34951371356647604
0000b0 4f a1 5c c3 83 40 da bf 53 bf a1 44 08 97 c3 3f
       -0.41018766477875074 0.15304663993037568
0000c0 d2 1d ed 38 32 28 c4 bf c2 2e ab 80 31 66 e8 bf
       -0.157476690097822 -0.7624747765598487
0000d0 e8 70 fd 43 a5 9a c8 3f 94 5c be 0b 49 86 db bf
       0.1922194082243387 -0.4300711264308543
0000e0 92 84 ee f7 28 c7 d2 bf 76 d2 43 a1 f7 3c d2 bf
       -0.2934057637413129 -0.284971148953708
0000f0 cc 4f ba 6c 8b cc ce 3f 07 1c 0d 39 bf 55 c1 3f
       0.2406172066590656 0.13542928968146858
000100 73 ea cb 94 ce f0 e9 bf fd 89 41 89 8a 04 d7 bf
       -0.8106453806097548 -0.3596521702185383
000110 70 75 15 ea 0d c5 ca bf f5 f5 67 f8 1b a7 d4 bf
       -0.2091386216151636 -0.3226995397415913
000120 c9 01 2b a0 53 74 a0 3f b9 b8 12 9e 80 2d dd 3f
       0.03213750200439198 0.4559022468264505
000130 41 62 0d ed 73 39 ca 3f 10 d0 36 5a 1a 43 d7 bf
       0.20487832140749343 -0.36347063837024596
000140 e3 48 1e 25 0d 20 9c bf 6a 1d 21 bd d9 bc bf bf
       -0.02746601618816492 -0.12397538058677574
000150 c3 06 67 46 eb 50 c3 bf cb 97 d1 22 7d 6f d1 3f
       -0.1509069532167385 0.2724297370935999
000160 5f 61 97 0a 36 6b da bf fe 37 e1 1f 7d a5 b3 bf
       -0.41279364618596576 -0.07674390819849461
000170 2a 4a 7e 63 eb 37 b4 bf 8e 7b 17 9f f2 a2 be 3f
       -0.07897826365505325 0.11967388519359032
000180 cb b0 42 2b 99 7b 91 3f 6a dd a0 95 3e 76 b5 3f
       0.01707305265942764 0.08383551743542275
000190 5a 4a 5b a6 d5 ce a4 bf 65 0f 02 29 aa aa d1 3f
       -0.040640522534563586 0.27604154591266755
0001a0 89 57 e7 06 b9 3a d6 bf 4e 31 c4 9b 93 20 cc bf
       -0.3473341529291863 -0.21974415879993575
0001b0 b5 b3 05 ad 68 d3 cb 3f 7f ed 30 6c 64 c1 b7 bf
       0.21738918732026283 -0.09279468194374905
0001c0 bd df 21 6d 50 22 b2 3f fe cb e6 83 71 d1 ce 3f
       0.07083609260905539 0.2407667058992899
0001d0 de f8 0c d4 a6 88 b0 3f 58 42 c1 73 0d 5f bb bf
       0.06458513905542726 -0.10691913677261178
0001e0 d8 51 48 26 11 a8 b1 3f d6 ff 27 a3 f5 ba d3 bf
       0.06897074875480003 -0.30828610356547637
0001f0 20 8d 06 c4 d2 60 97 3f 33 66 43 00 80 47 c3 bf
       0.022830289091541833 -0.15061950695853596
000200 c7 5a 91 90 59 3b af 3f 21 54 a4 d6 4f e8 c5 3f
       0.06099967851394222 0.17115209560930203
000210 4c 8d 6f 25 ca 81 b6 bf c2 fd 87 f6 db ed 3d bf
       -0.08791793264349684 -0.00045668239775406236
000220 eb 82 d3 0d 8b aa d2 bf e8 5c 13 28 a9 47 b7 bf
       -0.29165912962166257 -0.09093720653924076
000230 03 4b 7e bd 41 f1 a6 bf f4 f4 50 57 c4 6d cd bf
       -0.04480939329291369 -0.2299123216961686
000240 5f 94 9e 17 ac 1c d1 bf 09 6b bc 7c 2c be d5 bf
       -0.2673750143679338 -0.3397322862744408
000250 81 cf b9 d0 54 59 d1 bf 9c 39 b9 44 f2 88 ca 3f
       -0.27107735045796494 0.2073042712749612
000260 1c 96 2e 35 5c 1e d1 bf 8f a1 30 55 11 b8 80 bf
       -0.267478038726354 -0.008163581287661951
000270 d6 1e 03 8a f0 4a af bf 67 8e b6 07 81 85 d0 bf
       -0.06111861881941898 -0.2581484389613479
000280 8d 03 7a 71 3a 56 97 3f 35 12 ee 09 b5 1b e1 3f
       0.02278987233740142 0.5346322244591365
000290 70 72 14 de 31 95 e1 bf 19 03 b8 08 ce 29 e7 bf
       -0.5494622552392467 -0.7238531275071153
0002a0 95 6b 83 e5 9a 67 dd bf 3d 77 29 d8 ad ce c1 bf
       -0.4594485513059053 -0.13911984495910615
0002b0 c4 54 02 a6 72 06 f4 3f 53 fd 02 a0 3a 06 de 3f
       1.251574181054182 0.46913018823757574
0002c0 2a 7b 95 8b 0d 23 5b 3f cd ce f3 49 e6 03 01 c0
       0.0016563064840153332 -2.126904084923672
0002d0 3c ef 37 1d ab ba f2 3f 81 58 e0 bd 27 c4 a9 3f
       1.1705733434054784 0.050324670723214567
0002e0 a4 f4 73 f3 78 e6 d3 3f e4 05 d8 f1 9c 6d d4 bf
       0.31094192290022193 -0.31919025056421746
0002f0 f7 ad 1f 22 fc 5e f1 bf e8 59 37 bb 72 c6 e0 bf
       -1.0856896717986027 -0.524224630028411
000300 a2 8e 6f 39 69 15 af bf 30 d8 3f 14 9c c6 da 3f
       -0.060710228215410625 0.4183721730945562
000310 8d a6 30 f7 63 16 be 3f 1b 31 1f 1e cd 3d b5 3f
       0.1175291517726242 0.08297426209827956
000320 e2 e9 85 4d 56 4c d0 3f 03 cf 36 58 05 f1 dd bf
       0.25465924807181584 -0.46783574690492474
000330 26 d7 d6 6f b5 92 cd 3f 9c 78 2c 89 68 77 c4 3f
       0.23103969536685404 0.15989405343947716
000340 02 ee cd 5b be 0a cd bf a2 1c 81 27 f4 1d bd 3f
       -0.22689036829602577 0.11373830761395934
000350 ab 22 68 85 b0 2d c1 bf 66 0e 2e ed 8d d9 b9 3f
       -0.13420683397295838 0.10097586670422629
000360 01 6d 63 a0 89 4d d2 3f 81 19 47 29 33 04 d3 bf
       0.2859825197499078 -0.29713133841541867
000370 ec 12 37 23 0e 0e 87 bf aa 56 6c 65 16 e4 cd 3f
       -0.011257276963882977 0.23352317764572678
000380 2c ff 6a f2 3b 22 db 3f 1c 01 4c f9 b2 af b5 3f
       0.423964487777982 0.08471220575666333
000390 7c bc cf 78 f9 26 c1 3f c9 db 0d 16 96 83 ba 3f
       0.1340019073390727 0.10357034719878223
0003a0 1c fa c2 b4 53 5a 64 3f 48 16 24 bf c8 ef b5 bf
       0.0024844775089996173 -0.08569006601836648
0003b0 e8 77 5d 42 ac 86 de 3f cb 29 d0 2c 58 a1 8a 3f
       0.4769697807404314 0.013003052585209304
0003c0 54 a0 8c 67 a7 d4 c2 bf 88 16 83 c5 cf f8 d0 3f
       -0.1471146827327653 0.26518625534331663
0003d0 26 aa c2 48 6e c8 b4 bf e9 93 e2 14 10 7c c8 bf
       -0.0811833312642781 -0.19128609676150113
0003e0 3b 22 5c c0 4a c0 ca bf cb bc 96 c5 48 ae cf 3f
       -0.20899328606198417 0.24750623367206112
0003f0 06 05 4b 04 de 43 c6 3f ac 6e 1f 6e 48 31 ae 3f
       0.17394614419576032 0.058969748919222326
000400 bd 5d d6 08 9c 5d c3 bf 20 ff b2 1c 90 c4 c0 3f
       -0.151294235530015 0.13099862481430424
000410 a5 42 70 58 aa 8b a1 bf ea d8 f1 53 e0 ec a6 3f
       -0.03426868753024807 0.044775972602040984
000420 32 f3 b6 f4 61 28 bd 3f 7b 59 04 5d 51 0c a9 bf
       0.1138974401901123 -0.04892210255109127
000430 dd ed 9f b1 ea 45 94 3f 7f 8a 41 6a ce ce d1 3f
       0.019797961322167146 0.2782474553734246
000440 39 f9 ec 75 12 9a bb bf b4 46 40 84 f9 9b bf 3f
       -0.10781970385594243 0.12347373465334038
000450 63 15 d6 dd 9c 6e a6 3f 55 87 84 12 51 b8 d5 bf
       0.04381265838587003 -0.33937479790084996
000460 46 50 d8 d1 22 24 de 3f 07 24 ab 32 2b 50 c8 3f
       0.4709555672900517 0.18994655584381823
000470 da 46 53 33 d9 70 e1 3f 49 c9 4d 39 2a 79 90 bf
       0.5450254442641509 -0.01608720755343399
000480 76 94 6f ae 25 3f cb bf 98 ed 41 42 00 98 d3 3f
       -0.21286459939361507 0.30615240545713496
000490 f9 74 89 0b 3b a5 d6 bf 51 a5 5b 52 5d 58 db 3f
       -0.3538348782220307 0.4272683433797129
0004a0 83 0c e3 53 0c a3 ca 3f d5 2a 28 82 fd c5 d3 bf
       0.20810083480873595 -0.3089593668998252
0004b0 75 ed e5 56 c7 70 d2 3f 21 e5 b3 1b bf 8d db bf
       0.28813346372745424 -0.43052652078002224
0004c0 03 c8 f6 b6 a5 ba c3 3f 62 ee 05 b8 1a 12 d8 3f
       0.15413352426327273 0.3761050030804879
0004d0 54 b9 bd b5 c1 32 b1 3f c0 ad 03 cd 9d 47 d5 3f
       0.06718073546446607 0.3324961187451798
0004e0 15 95 e0 2c 65 62 cc 3f 50 b4 01 84 60 13 e4 bf
       0.2217527836921042 -0.627365358186248
0004f0 04 e6 73 c4 1a 17 d1 3f a8 d1 09 ce 5a 20 de 3f
       0.26703519043766755 0.4707247745602907
000500 cb d5 4d bb 8a f1 af bf 62 65 c4 48 c0 24 db bf
       -0.06238969360758125 -0.42411810976189745
000510 fc cc 10 22 af e0 c1 bf 58 5a 4d 7a 0e 44 d2 3f
       -0.1396693149887155 0.28540384238786976
000520 1e df 50 9b a6 03 d9 3f b2 74 3b 36 32 d6 b0 bf
       0.3908478276020889 -0.0657683737185433
000530 48 f6 d1 23 ca ef b9 bf bd 60 b2 ae b4 8b d2 bf
       -0.10131514906421402 -0.2897769647620512
000540 b6 5e 97 31 b0 10 e6 bf d2 e5 af d3 a6 90 e6 3f
       -0.6895371407108175 0.7051576742662127
000550 d6 6e 1a 23 a0 7a e1 bf ba cb f3 93 58 08 e0 3f
       -0.5462189374552178 0.5010187997526068
000560 05 d6 b9 94 32 c5 b1 3f 83 d8 85 9d ab a3 d7 bf
       0.0694152463055034 -0.3693646467503486
000570 d0 6b a7 7b e3 06 a6 bf ad 32 5a 31 c8 ef c5 bf
       -0.04302130588958841 -0.17138006601125735
000580 5c 50 af f8 2e 4b dc bf 8d 5b ba 47 f8 11 87 3f
       -0.44208883557917544 0.01126474350830422
000590 a7 43 66 92 0f 8e de bf 8c b2 39 17 c4 5e ae 3f
       -0.47742070481131765 0.05931675704491565
0005a0 10 89 db 57 36 b4 cc bf cd d2 69 3f cf 21 cf 3f
       -0.2242496422760003 0.24321928593021483
0005b0 36 ae 39 30 71 63 ba bf 46 93 ce ea f7 b1 b7 bf
       -0.10307986667037813 -0.09255933268157177
0005c0 8e 43 13 22 8f 71 cc 3f 87 1e 83 a6 ef f4 ce 3f
       0.22221554912405533 0.24184985762098085
0005d0 db d6 73 f7 be aa a4 3f f7 fb 48 d7 05 66 be bf
       0.04036518831882826 -0.11874424463256604
0005e0 cd f1 45 f6 c5 47 c3 3f 9b ef 63 c0 b6 e9 cd 3f
       0.15062784695682155 0.23369488138257286
0005f0 33 17 dd 65 36 a1 96 3f ea 32 d4 4a 99 8f c8 bf
       0.022099351851714032 -0.19188228753809905
000600 e2 c4 32 11 43 59 d1 bf 98 fc 76 b4 c1 93 b5 3f
       -0.2710731189682304 0.08428583770636278
000610 42 88 47 b0 e9 2f 81 bf eb 39 eb a8 6d 0e d3 3f
       -0.008392167751427707 0.2977556371305627
000620 b4 26 55 ac 21 cb c7 bf 42 37 22 aa 21 82 d2 3f
       -0.1858865825145607 0.2891925965749246
000630 a7 db 86 4b 1a e0 c5 3f 68 c1 11 7e de 88 d4 bf
       0.17090157211143017 -0.32085382758579906
000640 14 5f 6f d1 6f 30 ae 3f a0 74 5b e3 25 f9 f0 3f
       0.058963293376733145 1.0608271485464584
000650 8d 15 68 8d eb 1f b0 3f 38 fa 44 71 04 be e2 bf
       0.06298706247624448 -0.5856954777044114
000660 ff b0 73 e0 a9 09 d2 bf 79 5c 6c 07 60 74 b6 bf
       -0.2818398181832577 -0.0877132433055169
000670 34 81 a2 ef 67 26 d0 3f 24 1b 94 42 d6 6f e1 3f
       0.25234411622843145 0.5449019718515484
000680 ea 25 54 8f 3b 55 ca 3f ce a2 d9 96 f7 29 e5 bf
       0.2057260942313371 -0.6613729425708585
000690 d5 a3 8d 8c 1a c3 cb 3f e2 dc fb 77 19 00 ce bf
       0.21689159262612515 -0.23437803610406777
0006a0 4f 0c d0 d8 d3 ae b0 3f a2 70 12 26 62 54 9e bf
       0.06516765635756026 -0.029618772100193376
0006b0 ec 54 b3 86 0e af d0 bf 1b b7 af 00 d1 f7 b5 3f
       -0.26068461565348744 0.08581262842900765
0006c0 86 66 dc 5b 97 22 be 3f 1a c5 f3 07 16 c0 cb bf
       0.11771532051752773 -0.21679950130741404
0006d0 87 a0 44 97 a9 35 d5 3f d7 11 7d f3 3e 71 89 3f
       0.3314002969004907 0.0124230306679544
0006e0 d1 a4 fa e9 d6 b4 b5 3f e1 2f 5d 92 ca cd dd bf
       0.08479064190273113 -0.46568550389633684
0006f0 8e de 5d 03 8b 01 b3 bf 97 5f 76 ac 5e b2 d8 3f
       -0.07424229461855189 0.3858868297770583
000700 fa e6 e7 11 a0 2a e2 bf ce 3e cc 59 d5 4a a7 3f
       -0.567703280422591 0.045492808543824745
000710 94 1e b1 af 31 88 d6 bf 54 0d 7a ab c7 88 d9 bf
       -0.3520626273861833 -0.3989733862474243
000720 d7 c4 31 ef 4d bb e7 3f 60 99 18 64 ee b6 e2 bf
       0.7416143104329888 -0.5848304705621494
000730 61 a8 72 70 bb 5d c1 3f e5 fb a0 bb f0 06 c1 bf
       0.13567297926539637 -0.13302430306973104
000740 b0 6e 54 8d 38 40 c1 bf c5 15 96 88 cc 14 e0 3f
       -0.13477236653203795 0.5025389354420261
000750 c0 15 19 7e cc e1 cd 3f 15 a0 df a6 f9 2f e8 3f
       0.23345333249214484 0.7558563479660757
000760 d5 a0 90 9d 78 10 eb 3f d2 79 97 30 7e 56 b9 bf
       0.8457606389465818 -0.09897602735825409
000770 4f 78 64 78 a6 a1 f0 3f 94 83 c8 c4 75 05 d2 bf
       1.0394653990583895 -0.2815832540236951
000780 f3 fc 53 68 b6 8e a9 3f 8b 48 6d bc 79 17 c8 bf
       0.04991693519149889 -0.18821641636401795
000790 6e 22 fa 75 ca 28 c4 3f ed 6d 63 72 d3 8e c2 3f
       0.15749483833885186 0.144983702520093
0007a0 f6 1e d7 71 f6 2c d4 bf fb 08 90 be 41 43 dd bf
       -0.31524430386751534 -0.45723003015167735
0007b0 e0 12 21 46 46 a3 b3 3f 79 24 85 96 3e 1a bc 3f
       0.07671012127054722 0.10977545904929
0007c0 13 82 ed a5 ac 7a e0 3f 4f 33 33 32 08 9e de bf
       0.5149749031807594 -0.4783955087885276
0007d0 5a fe 5c 7b a6 56 de 3f 3c f9 bd da d2 f2 af bf
       0.47403871581261614 -0.06239947242919405
0007e0 44 2e 7c b8 41 5c c0 3f ba f5 14 ef da 83 d2 3f
       0.1278154516988811 0.28929780338134103
0007f0 59 80 2a c3 fb be d4 bf 33 3b cb 15 44 16 b5 3f
       -0.3241567045133756 0.08237100154950099

hidden_layer2.bias f8 [20]
000000 1d a0 27 5a 95 92 ae 3f 80 29 5f 85 54 c5 b9 bf
       0.059712092642996796 -0.10066726928849867
000010 14 f7 da f4 8d 53 c6 3f 04 63 8c 80 1f 4e c1 bf
       0.17442488151385105 -0.13519662644173291
000020 6c 03 1f 0a 91 02 ab bf 5d 5e aa 21 8d 66 b6 3f
       -0.05275395630406518 0.08750230857764892
000030 fa dd d1 66 fd 1e b1 3f 53 bc 7f 33 b0 17 a9 3f
       0.06687911758660184 0.04900885227822784
000040 4c 48 f1 5f 96 0d ca 3f f4 27 a5 97 43 65 cc 3f
       0.20353965458577006 0.22184033302829642
000050 12 1b d8 5d a2 39 a2 3f 08 6c 2d 51 7b 29 df bf
       0.0355959643894065 -0.4869068424938523
000060 f1 77 b4 6a b1 59 b9 3f 92 4d 78 c1 aa 8d c6 3f
       0.09902485709287114 0.17619833418630698
000070 b8 3a 70 06 57 79 c4 3f 2d 17 0b 01 ea 34 c8 3f
       0.15995300115942768 0.18911480952208973
000080 e8 bf 7f 7a b2 df 78 3f f7 d6 d5 37 ad ad b2 bf
       0.006072709256827104 -0.07296259511153012
000090 3d 6b 69 cb e7 df 99 3f c1 e0 cd fb 03 12 ca bf
       0.025268193998594802 -0.20367479128959157

hidden_layer3.weight f8 [20, 20]
000000 ec f8 0c 00 8e 00 c8 3f 9b d7 5c dc 19 49 cc 3f
       0.18751692774271278 0.22098086604972597
000010 b4 a2 72 a1 c8 85 87 bf 4e 6b 82 36 3a b7 b2 3f
       -0.011485640933032705 0.07310832815930476
000020 49 e0 93 a7 c5 60 81 bf 2a 42 d3 54 ad 85 e0 bf
       -0.008485359360278848 -0.5163180023901692
000030 32 5d 1e f6 7e 70 5f 3f 0b be 45 32 c2 cc b3 3f
       0.0019189109666280621 0.07734311797479891
000040 31 7f 7d d0 fb 12 b9 3f 08 5f 3a 0c 51 5c bb 3f
       0.09794591751187622 0.10687738941703284
000050 0c 00 bd 43 8c b3 cc bf e4 82 4a f1 bf d2 b0 3f
       -0.2242293673280077 0.06571578637022985
000060 5b 97 6c 68 4d e0 bd 3f 41 f7 e6 a6 7c 22 c7 bf
       0.1167038326207978 -0.1807399573280524
000070 42 8b a4 65 11 72 ae bf 1c 4b 00 e2 23 a3 ce 3f
       -0.05946401944881653 0.2393536427994939
000080 4d fa 5d 08 04 c1 c5 3f ef d4 96 48 ac ba c5 bf
       0.169952873311518 -0.16975930733102682
000090 1b a2 d4 ce eb 5e c9 bf 5b 7c c6 e1 61 20 a2 3f
       -0.1982092628397972 0.03540330773397989
0000a0 2d 5c 23 28 46 55 d0 3f bc 25 b0 69 ef 52 d1 3f
       0.25520471496332925 0.2706869632825961
0000b0 a2 42 47 94 25 dd 92 bf 57 0c d9 df d4 cb c9 bf
       -0.018421733069603825 -0.20153294496603522
0000c0 21 78 44 77 ab 79 c7 3f da 96 4c 5e 46 25 d8 3f
       0.18340056727987622 0.37727507790473924
0000d0 83 bb a5 94 41 5d d6 3f 0f e6 3b 23 07 8e a9 3f
       0.34944190517756385 0.04991171174146924
0000e0 e2 63 35 05 6b a9 d5 3f a5 df 6f 34 8e ff bf 3f
       0.33846545704505904 0.12499321727943753
0000f0 7c 5b 26 b4 e5 f7 ab 3f 98 6d d4 51 b3 62 ca 3f
       0.05462568115324637 0.20613709922404833
000100 98 34 89 c7 5b 9a d0 bf a0 7f 94 83 25 60 d4 bf
       -0.2594212959855411 -0.31836831903091856
000110 f5 6e 1e 55 1a 50 95 3f 16 7d de 5c 1d 32 c3 3f
       0.020813380666011978 0.14996687922118984
000120 8c 87 3f 7d 3c 5e bd 3f 4f 3f b3 f7 f6 8e a5 bf
       0.1147191816121717 -0.0421063592308416
000130 03 7f 59 96 3a 73 95 bf f4 bd 9b b6 01 8e 96 bf
       -0.02094737570439432 -0.022026087542085862
000140 ec e4 6b 30 ef a9 90 bf 19 1d 5b c0 b1 92 d2 bf
       -0.016273248033915985 -0.2902035120464049
000150 0b 9e 1f b9 cb 76 c3 bf 6c 63 b5 9b 76 4c c2 bf
       -0.1520628599093786 -0.14295847514111004
000160 5f 59 91 5c 05 75 c8 3f 8a 43 ed 6e 6c b7 d3 3f
       0.19107119579229967 0.30807028610893694
000170 0b 71 34 8c a1 63 ba 3f 48 8d c7 bc 58 27 c1 3f
       0.10308274910898178 0.13401326387166024
000180 a1 3c d6 1b ca 95 96 3f ec d6 9f a7 6a d2 b2 3f
       0.022055776547457943 0.0735232028235619
000190 d0 4c 8d 6a a4 bb 84 3f 8a 2b cd 39 15 d0 df 3f
       0.010123524190623817 0.49707537312195227
0001a0 36 e8 04 27 0b bb c3 3f c9 dc ad df 3c 1e 8a bf
       0.15414561658127618 -0.012752986503740254
0001b0 e3 7c f6 1e f6 6f cb 3f e3 92 50 45 2f 7b d7 bf
       0.21435429107530188 -0.3668935944463511
0001c0 17 8e e7 7d 5c 11 a9 bf 9d 18 d6 4b 18 a6 d4 3f
       -0.04896058117790519 0.3226376286114688
0001d0 79 fe 46 22 70 da dc 3f 51 50 dd 85 c3 4d a4 3f
       0.4508323988666017 0.03965579041565149
0001e0 74 0f 30 00 16 5a ae 3f 85 47 97 53 a8 d3 d3 bf
       0.05928105118076035 -0.3097935501401639
0001f0 6f 4c c6 a0 07 99 a3 bf 3f 73 6f 9c 07 91 bd bf
       -0.038276899696165205 -0.11549422806951969
000200 ef 30 6b 2a f7 41 be 3f 84 61 a2 cf 60 47 a1 bf
       0.11819405351269884 -0.03374769720648188
000210 ef c4 60 91 4c 2c c1 3f ab 8f 1c 08 9b 9d c4 bf
       0.1341644010404148 -0.1610597409827482
000220 70 b4 5e f8 b4 da d4 bf b5 88 d0 7d b7 71 c3 3f
       -0.32584881071927096 0.15190786021509486
000230 c6 5b 07 05 8b 11 ce 3f 8c 81 e4 ac e0 60 c3 bf
       0.234910371261064 -0.15139397089025086
000240 4d 81 7c 91 2b c6 b6 bf 5b ec eb 40 ac 27 b8 bf
       -0.08896133710778038 -0.09435535988807102
000250 1f 43 d0 1d be ac b5 3f 23 11 e6 70 b6 d6 b5 3f
       0.08466709354275935 0.08530750519100087
000260 fe 68 eb 69 77 dd c0 bf 54 bc 75 9b f8 fa cf 3f
       -0.13175861999372523 0.24984653082671804
000270 1a cb 78 91 31 ca d6 3f 4f 65 33 c7 88 f2 d4 bf
       0.356090919554093 -0.32730311825942676
000280 b3 60 f5 e2 b0 83 c0 bf 7e 22 0a 43 76 6c ce 3f
       -0.12901888925512636 0.23768499635140822
000290 2f 1a 15 36 fd 86 d5 3f 2f c6 73 3b fc 55 d0 3f
       0.33636408120620137 0.2552481251323994
0002a0 8c 38 32 9a 2f b7 b3 bf 9e f9 25 fd 76 03 b9 bf
       -0.0770139457183367 -0.09770911865596196
0002b0 6d 24 a7 02 c8 c5 dd bf c2 da 34 ab 2d c9 c6 3f
       -0.46519661196777556 0.17801447734537673
0002c0 fe 96 8e 77 bc fe cf 3f 69 7f 00 ba 3d 9a c5 3f
       0.2499614318632481 0.16876956541181734
0002d0 5e df 60 3c 19 2c 97 bf 0b 54 b9 92 20 1e c4 3f
       -0.022629160223203264 0.15716941036467377
0002e0 f0 c4 d5 2f 50 bb ba 3f ef 4a a4 3c 93 3d d1 bf
       0.10442067306373182 -0.2693832485394258
0002f0 9c 95 ed 1f be c4 d3 3f 18 40 9e 20 4f df a6 3f
       0.30888321989035616 0.04467246316119161
000300 f4 ba 20 6a a3 5d d5 bf 6b 74 a4 ce 04 2f c7 bf
       -0.33384023059890855 -0.18112239923439985
000310 7c 6a 44 ef fc c1 a6 bf 23 83 0d 2d 4b f8 c4 3f
       -0.04444876118414684 0.16382732105105288
000320 61 78 fe 69 08 25 b8 3f 11 81 dc 58 cf 9d f6 3f
       0.09431507671112761 1.4135278197428003
000330 9f 06 0c 7f 23 4f d1 3f da 18 2f 1d 18 19 c4 bf
       0.27045524031573537 -0.15701581406592063
000340 ec 31 3f 69 9c 98 e6 3f bd ec 61 99 f0 65 e5 bf
       0.7061292701342246 -0.668693828177673
000350 f9 42 57 8d 79 14 ca bf 45 34 ed 6a 15 92 83 3f
       -0.2037498417035051 0.009555976224556182
000360 7c ad 36 f4 08 21 be bf 21 63 ab c9 2e d0 c3 bf
       -0.11769157373662681 -0.15479073378698963
000370 72 d0 17 df 02 54 d5 3f 09 56 6c b8 3a 13 ad bf
       0.33325263773372804 -0.056787333500476996
000380 9a 94 55 c7 7a 33 df 3f c0 e1 00 da e6 cd bc 3f
       0.4875170656799327 0.11251681158399318
000390 70 f4 77 8e 4a f1 cf 3f 03 89 cf 90 37 dd 96 bf
       0.24955112415765113 -0.02232825108866
0003a0 79 83 f3 1d d0 24 c8 3f 7a 7d e6 b7 d7 9b ca bf
       0.1886234422918525 -0.20788094024190312
0003b0 1b f6 ca 23 8a b3 ba bf 1c f3 18 87 5c a4 d8 bf
       -0.1043020570168313 -0.3850318259535912
0003c0 35 11 0b 25 55 2a 7b bf 1f bd 64 87 09 ce dd bf
       -0.0066321683850143935 -0.46570051404974494
0003d0 c2 74 fe c2 aa f6 c6 3f cc 1e e3 53 37 41 d7 3f
       0.1794026805991163 0.3633554763041331
0003e0 e1 ec 60 61 f5 ae c5 3f f6 1f 70 16 f6 9f 6a bf
       0.16940181021514092 -0.003250103607118855
0003f0 67 53 c1 c8 19 cf 66 3f 42 ee b1 61 a9 d0 bd bf
       0.00278430019356295 -0.1164651740563665
000400 75 f0 cb fd d3 d0 af bf a6 64 63 6c 9d cf d5 3f
       -0.062140106898341076 0.3407968100050972
000410 d4 a5 76 a7 06 30 c9 bf 0c d3 1d 76 db 9b ac 3f
       -0.19677813698699131 0.0558765966115172
000420 20 ba 39 f1 65 07 d1 bf 41 04 dd 50 e4 63 a1 3f
       -0.2660765510289895 0.03396523940183061
000430 77 67 d4 a7 96 a2 bc 3f 17 39 d0 79 7a 94 ae bf
       0.11185590360073926 -0.0597265504548991
000440 3e 2f 22 b2 e7 23 bd 3f 46 fd b3 21 ed c5 cc 3f
       0.11382911776507584 0.22479023118646974
000450 83 85 95 ab b9 eb d6 3f 90 6e 34 47 8d 6b b0 3f
       0.3581375289560002 0.06414111126326305
000460 a5 96 13 b1 1e 48 8d 3f b9 52 88 2b 18 f9 b9 bf
       0.014297714022585348 -0.10145712912373996
000470 80 42 7b cf 5c 32 bc bf 63 df 44 99 5d 24 85 bf
       -0.11014347138849168 -0.010323268165492732
000480 bd b4 0e 47 d3 88 ab 3f e5 5f 31 7f 37 b4 d0 bf
       0.05377826921844917 -0.26099955960444127
000490 fd 1e 61 dd 7b ee d2 3f 04 b8 2c 23 ab ac c7 3f
       0.2958058988483428 0.18495692460550128
0004a0 1c 67 7b 2d 16 b2 a1 3f 8b a0 0b ff 06 0d df 3f
       0.034561818172461595 0.48517012507228036
0004b0 e4 23 74 c3 60 91 cd 3f 03 73 12 b5 03 10 d6 bf
       0.2309990839351307 -0.34472744639224134
0004c0 92 52 aa 07 34 b0 bc 3f 39 61 89 8b 0b 3d c3 bf
       0.11206364810125027 -0.15030044854462135
0004d0 5a 07 53 a7 db 66 e1 bf 94 2e 96 b5 53 b5 ac 3f
       -0.5438059108784998 0.05607091514238252
0004e0 56 8a f5 ef 30 e6 e3 3f 9a 58 16 f4 d1 bd c7 bf
       0.6218495070173258 -0.18548035066914254
0004f0 6e 4a b2 98 fb 28 a3 3f 96 16 96 57 64 66 b4 3f
       0.03742204894037547 0.07968737734162298
000500 ff ea b0 4c 62 6a d2 3f 6c 00 f4 ca 72 20 cd bf
       0.2877431630073914 -0.22755274686642524
000510 f0 fa b4 19 81 23 c9 3f 37 46 ce 62 63 5a 87 3f
       0.19639600520346034 0.011402870610058275
000520 be 86 84 f7 e3 58 bf bf 9d 13 bb 56 0c 12 9f 3f
       -0.122450111321565 0.030342285913110712
000530 9d e0 33 06 b5 24 cd bf 19 2d 13 d0 d6 1f c1 3f
       -0.22768271258224085 0.13378415260226786
000540 92 68 4d 9f 81 d4 c3 bf 07 30 a1 ca 84 cc d4 3f
       -0.15492267874180193 0.3249828318409986
000550 91 a7 b8 6b 8e 13 ba 3f f6 b4 6c 95 60 ab 6b bf
       0.10186090593256682 -0.0033776174926943804
000560 6e 43 1a a5 e3 a1 ab 3f 46 26 10 30 16 83 8a 3f
       0.05396949186718457 0.012945340482491418
000570 36 36 5b c3 4c cf c2 bf ce 9c 0e de 20 88 c0 bf
       -0.1469512895477451 -0.12915430872565142
000580 85 8a b5 8e eb 9f c8 3f c9 f5 8b e8 e7 7c d1 3f
       0.19238037555904355 0.27324865064278164
000590 22 33 b1 97 0a 32 d2 3f a6 f9 8b 96 4a 0c da bf
       0.2843042832726487 -0.4070002050574665
0005a0 82 fb f2 97 f2 e2 cc bf 11 01 30 55 42 23 df 3f
       -0.22567589206115818 0.4865270454320277
0005b0 eb ac 42 d5 96 15 c1 bf 2c d9 ba f4 3f 13 a3 bf
       -0.13347134984119377 -0.03725623953271148
0005c0 a6 22 ae 66 23 fe a5 3f 61 ef a3 36 07 ad b5 bf
       0.04295454624577148 -0.08467145046227877
0005d0 d0 75 b8 a2 95 5a 8d bf dc 76 93 7f b3 1e d4 3f
       -0.014332932499253298 0.31437385042759813
0005e0 9f a0 25 b3 06 e9 ad 3f c3 3f 10 3b 48 14 cc 3f
       0.058418473595169156 0.2193689621349205
0005f0 cd f1 a9 37 06 99 8e 3f 59 60 14 8d ab 82 c5 bf
       0.014940308164335026 -0.16805023564006907
000600 bf a1 21 2a 96 8d c8 bf 9b e8 53 d6 1e a8 ca bf
       -0.1918208795280076 -0.2082556292078309
000610 e4 86 89 da a3 09 cd bf 88 d2 71 44 09 b0 be 3f
       -0.22685669108164241 0.1198735992528076
000620 96 34 21 17 cb 70 ca bf 52 87 2f 93 38 7c c4 bf
       -0.2065671790063887 -0.1600409239463781
000630 66 0d 01 9f 16 40 be bf 60 f7 7e 4e 2e 9c c6 3f
       -0.1181654108232145 0.17664126236735012
000640 5a 4c bd de f1 df c5 bf 34 a4 26 bf 5f 2b d4 3f
       -0.17089675308179403 0.31514733950695306
000650 84 a0 d5 62 cd a9 bb bf 0a 28 64 86 0b 71 b6 bf
       -0.10805972731543717 -0.087662430105553
000660 95 83 24 80 ed 20 d2 bf ab eb 1d 04 1d 5d b6 bf
       -0.28325974954537375 -0.08735829687604617
000670 6b 0a 94 ac 7b b1 ce 3f e2 27 64 e1 f0 d8 b9 3f
       0.23979135443376562 0.10096650603023208
000680 41 bd e6 e8 06 df a2 3f 16 f0 ea ec 61 eb a2 3f
       0.03685781090768581 0.036952076120968666
000690 a2 90 d2 0d b3 d3 c1 3f 5a b6 06 28 7f bd b6 3f
       0.13927305388381678 0.08882899024202953
0006a0 6a 1c 11 8f 63 38 c0 bf 11 fc b8 e1 41 2d c2 3f
       -0.12672085271535433 0.14200614472972053
0006b0 e9 45 07 fd f8 ae c2 3f 1f f8 cc 81 48 1f 8f 3f
       0.14596474032309395 0.015196386777116598
0006c0 b9 9e c6 06 c6 d3 c1 3f 7b 36 76 fd f7 46 cf bf
       0.13927531557896147 -0.2443532931906026
0006d0 13 6c e2 09 08 ee d2 bf fb 10 e4 e6 7a 50 d0 3f
       -0.295778283741755 0.254912114600543
0006e0 cd cf af b6 3a 81 af bf cf ae 7e 6e 79 98 df 3f
       -0.061532816696768224 0.493681295304424
0006f0 53 63 57 d4 a4 ba c6 bf a3 60 0e 75 a5 88 bd bf
       -0.17757091873388706 -0.1153663073331495
000700 dc 62 ad c2 bc 8b c1 bf da 5b 6a 71 a7 fc d1 bf
       -0.1370769453594879 -0.28104578090409194
000710 7b d0 9f c8 c9 ed a5 bf 1f ee 4e 72 04 cf c5 3f
       -0.04282980512644571 0.17038016873799308
000720 4f f1 6e 33 33 7b d3 bf d4 54 65 e5 3b be c7 3f
       -0.30439453146734236 0.18549298001258896
000730 6d cb 48 d4 a6 ac d1 3f 83 9b 73 5d f8 ef e0 bf
       0.276162822064342 -0.5292932343698883
000740 cd 1c 5a a7 12 c9 d8 3f df 36 22 ef cb 6b c4 3f
       0.38727251379937117 0.159539691700437
000750 84 a6 a2 33 88 f5 d2 bf ea 1e f5 0c ed fc a4 bf
       -0.296236086297178 -0.04099217208073276
000760 cc 61 d6 cc d7 57 90 bf c4 3a 51 0d 6e 05 cb bf
       -0.015960094334873706 -0.21110320711382802
000770 d4 d1 df fc c5 62 c1 3f 0f 2d 54 ae d5 e9 d1 3f
       0.13582682464006146 0.27989713691995716
000780 3a 5a 84 14 11 81 d0 bf e6 52 d8 d6 0f 68 db bf
       -0.2578776073800416 -0.42822643261869897
000790 e9 7f 80 ea e1 07 d0 bf bc 41 30 47 42 b4 d6 3f
       -0.2504811086710093 0.3547521300506806
0007a0 07 03 a5 98 e7 19 85 3f c8 31 d0 f6 a8 d2 ce 3f
       0.010303315492480104 0.24080383349827472
0007b0 70 3d 6e 9f fd 07 a9 bf 70 1d 12 24 9b 51 c7 bf
       -0.04888908930945035 -0.1821779180647627
0007c0 58 6e 77 47 fc be c6 bf e8 4f 61 99 9e 49 a5 3f
       -0.17770341386391197 0.04157729742351518
0007d0 93 c2 fc 56 1a c2 d6 bf 01 15 d8 37 b2 bd d4 bf
       -0.3555971002088338 -0.3240781350471736
0007e0 85 9e 1f 00 51 3e 62 bf 3f 65 2c 47 d2 e6 cd 3f
       -0.0022269804039643537 0.233606610062262
0007f0 26 e3 cc 57 74 ef d3 bf 05 e0 94 99 c0 b2 ae 3f
       -0.3114901406693654 0.059957522151705724

hidden_layer3.bias f8 [20]
000000 f5 fc d0 62 c4 87 a2 bf 37 f4 4f 9d 19 eb ba 3f
       -0.03619207102064507 0.10514984217293565
000010 ac 56 2c 77 84 4a 93 bf bb 94 53 e2 dc 80 c8 bf
       -0.01883894898772691 -0.19143258143518502
000020 db dc 1b 43 3d 9d a3 3f 2a f4 68 e4 ae e0 b8 bf
       0.03830901569556896 -0.09717839313903257
000030 af f5 cf 36 91 49 9c bf 23 cc bf d3 3d 98 d3 bf
       -0.027624386759261984 -0.30616708449014335
000040 b8 09 cb 6a 25 1d a9 bf ae c4 71 76 51 90 75 bf
       -0.049050492559689685 -0.00526458569866965
000050 67 ae 57 a3 70 a9 c9 3f b8 f8 6f d5 1e 70 c8 3f
       0.2004833982058358 0.1909216444182158
000060 69 c8 69 64 ec 9c cb bf d5 1b 1b 3d b2 a9 a8 3f
       -0.2157264223383806 0.04816967960282851
000070 37 21 35 ba d5 d0 b3 bf dd 72 15 78 69 54 c8 3f
       -0.0774053172691581 0.19007604945627224
000080 ee 8f c1 bc b0 f9 bb bf 67 64 63 73 26 be ad 3f
       -0.1092787228422478 0.05809135588214858
000090 bb 75 d0 c6 9c 89 b2 bf c4 58 20 92 85 9e b2 3f
       -0.07241229871620807 0.07273135011232329

hidden_layer4.weight f8 [20, 20]
000000 e1 c3 44 b0 63 8c a9 3f 30 d1 13 8f 8c 39 91 bf
       0.049899211184658794 -0.01682109473490917
000010 f3 51 c3 72 73 94 c9 3f e5 bb 5c 20 68 14 86 bf
       0.1998428640714703 -0.010781110274903536
000020 d5 bc 5f 4e 96 a5 c2 3f ad 0e d1 c2 dd 2b c6 3f
       0.14567831827978375 0.17321369183092852
000030 c2 5b e7 b4 46 2d af 3f b3 43 d8 e3 51 31 b3 3f
       0.06089230497644095 0.07497131168953679
000040 18 23 e6 1c 37 8d d1 3f 14 70 b2 06 30 82 c3 3f
       0.2742440969673665 0.15241051032069264
000050 e2 fb 6f b7 b8 46 c2 bf 31 82 5c 03 aa ec c0 3f
       -0.14278325039774048 0.13222241558197959
000060 c4 93 85 be d0 8c c8 3f d3 f5 db ea ce 32 bc bf
       0.19179734518834668 -0.11015027269237203
000070 70 04 1a 8c 7a 18 c6 bf e7 f5 d6 9c da 58 da bf
       -0.17262203064823067 -0.41167321506858773
000080 e9 f2 d3 b9 c8 cc b2 bf b8 9a ea 02 81 b0 a0 3f
       -0.07343725716414053 0.03259661827660437
000090 cd 4c 6e 4c 18 d8 c6 3f 13 81 4c 3b 48 33 c6 bf
       0.1784696934888416 -0.17344000716639893
0000a0 9f 59 7a 9c a0 04 b9 bf 11 44 be 42 e9 4b d3 bf
       -0.09772685833227122 -0.30150825040715384
0000b0 1b 93 2b 01 41 b0 d1 bf 3d 15 d5 b6 dc a9 d5 3f
       -0.27638268579748776 0.3384925637695522
0000c0 bc 44 80 50 4f f5 a9 bf cd ab 12 a7 c7 a2 8d 3f
       -0.05069969041518038 0.014470634256516757
0000d0 e8 8f 21 58 5e e2 9c bf 4a 9a 87 93 0a d4 d4 3f
       -0.028207277421088778 0.3254419747085292
0000e0 de 7d 7f ba 57 23 ae bf 16 aa 78 ec 8a 17 ba 3f
       -0.05886339332186784 0.10192173264719204
0000f0 32 ce 25 b3 ac 8d 81 3f d0 4d 0f db e9 c0 b9 bf
       0.008571004120972867 -0.10059987638606249
000100 f9 5c 9a 7f 69 ae ca 3f aa a7 91 16 11 11 a4 bf
       0.2084476349889213 -0.03919270897388512
000110 9e 7e 20 e2 5e dd c2 3f ae ee b1 7e 1a 6d 99 3f
       0.14738069573740104 0.02483025930676657
000120 88 bc de 24 6c 83 91 3f dd de fe 77 d2 d3 c1 3f
       0.01710289931332601 0.1392767988124807
000130 4d dd 1c 95 a9 b4 df 3f 66 b1 97 1c 43 72 b2 3f
       0.49540175973694006 0.07205600212154692
000140 27 f5 ca 73 f1 2a 93 3f f7 29 0d 33 13 85 b8 3f
       0.018718502705032194 0.09578056331989858
000150 08 99 bd 3f dc 0a da 3f 09 4f d8 d3 d2 3d cd 3f
       0.40691286301297724 0.22844920486442558
000160 7d f6 80 e8 5d 1a b1 3f 29 b8 59 be 98 f0 dc bf
       0.06680857588158946 -0.4521848544017098
000170 0b fa f7 5f 4c 88 d2 3f 60 2d 13 be d3 0d d2 bf
       0.2895689904397904 -0.282093940372496
000180 06 35 07 0f 68 52 c2 3f 16 b8 db bc e3 55 d9 bf
       0.14313984617039227 -0.39586728518668346
000190 e0 ab 9d 28 a8 19 d9 bf ef d6 2f f1 b8 a3 e2 bf
       -0.3921909710540472 -0.5824856482201691
0001a0 37 85 cf 16 2f ab bf 3f 6a 29 88 2a b5 7e d9 3f
       0.12370580965900478 0.39835862306121916
0001b0 bf ac ef fc 20 d0 c4 3f d8 59 1f df c8 0b d9 bf
       0.16260158872987593 -0.39134427823355855
0001c0 ea e8 00 28 af 15 d6 3f f8 e3 9b d6 2d 06 ad 3f
       0.34507349878880567 0.05668776745546461
0001d0 3f a3 99 56 d3 e5 bf 3f 06 43 56 e9 fd b2 c5 bf
       0.12460060943852812 -0.1695248975124956
0001e0 9c 4a 53 7e 80 62 cc 3f 26 1b 06 03 72 ba c6 3f
       0.22175604027014095 0.1775648607983495
0001f0 62 74 c5 93 3f 4d ba 3f 38 f8 b0 a5 c2 71 cf bf
       0.1027412162561219 -0.2456591900863161
000200 4a 19 60 32 32 98 96 bf 8e 99 4a 8d c0 92 b3 3f
       -0.022064956974668072 0.07645801019189077
000210 6c 7f 70 b6 c1 75 bb bf 89 d7 ab d4 a2 77 9a bf
       -0.1072655744942474 -0.025847000341819224
000220 74 19 1c cf d2 44 d3 bf a4 b8 17 1c a2 0e b9 3f
       -0.3010756514126094 0.09787953554016099
000230 5d e4 df 27 77 05 b8 bf 57 98 df e5 92 43 a2 bf
       -0.0938333961820645 -0.03567179733345032
000240 6a c3 f2 a3 aa bf cd bf 06 a8 b4 77 05 b8 d4 bf
       -0.2324116993454724 -0.32373177232750583
000250 e5 14 e1 97 ad 74 ab bf 32 71 00 9d 03 82 b2 3f
       -0.05362455824846694 0.07229635794687253
000260 6e 7c 65 c2 f6 11 c3 bf 59 19 a1 35 db 96 a3 3f
       -0.14898571483624629 0.03826031713156181
000270 37 0c 28 77 c6 68 b8 bf e1 ee da 6b 80 d5 c1 3f
       -0.0953487435254353 0.13932805315368227
000280 8e 2d c1 a5 f8 62 a1 3f 0b 23 d2 4e 00 04 91 bf
       0.03395821593638991 -0.016616825877039648
000290 e4 6d 0e 9f 89 de d8 bf fa 69 7f b2 61 cb d2 bf
       -0.3885826161656196 -0.29366342955987046
0002a0 24 ef bd 3c f6 9c b5 3f b8 f8 7c 50 74 4e d9 3f
       0.08442629797894746 0.39541347370312563
0002b0 22 f9 35 56 a4 31 dd bf 96 58 18 ca 28 a7 ba 3f
       -0.45615490359331734 0.10411314901316113
0002c0 e8 df ca ce 53 7c a0 3f 49 e4 b4 6e 27 82 ce 3f
       0.03219854258844618 0.23834698587032424
0002d0 a8 04 67 36 be 74 c9 3f 54 4b 96 07 2d 07 c3 bf
       0.19887521416061316 -0.14865649099791745
0002e0 36 ee 02 a5 a9 4b d7 bf f7 5f 00 78 1c e2 af 3f
       -0.3639930831375041 0.06227196659909844
0002f0 a8 c9 4b f0 eb 40 b6 3f 6f f5 89 2d 04 f8 a8 bf
       0.08692812553980522 -0.0487672143544654
000300 18 7c d7 cd 4d d8 d4 3f 27 ab e9 c9 38 85 cb bf
       0.32570214368564754 -0.21500310763379923
000310 a9 20 a6 17 bb 53 d8 bf 98 78 9d e9 11 95 db 3f
       -0.3801105242678298 0.430973508968131
000320 6b 67 10 60 b4 e8 d1 bf 80 3d e9 cb 7f a3 65 3f
       -0.27982816106088276 0.0026414390588695436
000330 70 6c fa ea d4 cd b3 bf 74 0d f2 78 20 e4 a0 3f
       -0.07735949265263442 0.03299046970735278
000340 06 5c fa e0 e5 7b bb bf 3d b2 b0 c2 df 3a b7 3f
       -0.10735928290010585 0.09074209693125908
000350 57 5e f4 a0 20 0c cd 3f 87 7a a7 55 b1 6a c0 3f
       0.22693260058507533 0.12825600321135175
000360 07 2c db 0e 5a e4 ca 3f 62 8e c4 44 c6 79 b0 3f
       0.2100937435664891 0.0643581312074786
000370 6b 8f d7 d8 a2 36 8a 3f b4 a2 85 e3 23 c5 a0 bf
       0.012799522631162316 -0.03275406029098829
000380 32 f4 21 da 6b f2 cc 3f 3e bb 9c 58 ac 75 c9 3f
       0.22614811087615433 0.1989036019017138
000390 cb 84 eb 1b b1 a5 a9 3f 3e 5b 8f 53 05 d5 a1 bf
       0.05009225335903408 -0.03482834477443085
0003a0 f7 83 02 f0 ff 7b a7 3f 21 91 73 1e c6 47 73 3f
       0.04586791806037376 0.004707120802070614
0003b0 26 22 a3 91 43 df d7 3f 7e 24 e4 ed 7d b7 a8 bf
       0.37300194952379895 -0.048274932183695704
0003c0 3b 2f 82 5a 74 f7 b4 3f 82 53 02 a3 9a 0f da bf
       0.08190085611039148 -0.407202395618974
0003d0 2e 07 b6 f5 c1 11 bc 3f 3c a4 00 1e ca db cc bf
       0.10964596031956539 -0.22545744385686983
0003e0 fb a3 d5 9d ba 96 97 3f 90 8f 49 8a 5b db a2 3f
       0.023035922893004806 0.03682981551244702
0003f0 d2 82 57 c7 4b 22 bf 3f e8 da d9 9f 5d d9 e0 bf
       0.12161706558937205 -0.5265339014138961
000400 2f 94 e8 63 4c 4e a0 bf a1 0d fc 32 4f cd bb bf
       -0.03184736938082044 -0.10860152239552302
000410 3e 72 48 4b 69 1e 61 bf 49 66 08 12 8a 68 b9 bf
       -0.0020896965527426306 -0.09925139370206994
000420 c2 23 45 3d 91 0b d2 bf ed 67 ae 86 14 1d c0 3f
       -0.28195601447492546 0.1258874566672711
000430 a4 f7 6a b7 90 4c b8 3f a6 58 a6 67 ff 79 a9 3f
       0.09491829374289168 0.04975889339691379
000440 75 c1 ca c6 d4 99 bc bf 8c c9 0e ba 8d 9b d2 bf
       -0.11172227719612755 -0.29074423951819806
000450 cb 30 b2 d6 42 c8 c4 bf dc 51 d8 0c fc 50 7e 3f
       -0.16236148341375264 0.00740145165538705
000460 30 c6 df 1a e5 7e be 3f 9c 69 e2 f4 96 97 b2 bf
       0.11912376314264672 -0.07262557486175186
000470 e3 4d f4 8d 0f 2b 6b 3f 86 24 6e a9 f2 3e be bf
       0.0033164314078335407 -0.1181480086944636
000480 a5 cc 8f ac aa ab ab bf 48 13 9d ce 9f ff bc 3f
       -0.054044087948477405 0.11327551645542855
000490 c7 42 0d 9e 76 0a b9 3f 77 ed 6b c1 4f ea d0 3f
       0.09781590803801087 0.26430124176814423
0004a0 46 76 63 9c 39 1e bf 3f 98 b9 19 28 37 7e c1 3f
       0.12155494754866777 0.13666429002792024
0004b0 b3 70 4b 94 2f c7 d1 bf d9 69 bc 34 1f 35 b7 3f
       -0.2777823398771588 0.09065432584285506
0004c0 0e 36 22 87 b1 80 b1 3f 3f 48 76 e4 3f 86 c1 3f
       0.068369956485377 0.1369094720399193
0004d0 72 eb d2 b5 61 3e ba bf 50 ae 5e bd ea b4 b5 bf
       -0.10251436890659507 -0.08479182360923088
0004e0 47 11 b4 ea cc d5 b6 3f 11 7a cf ce 8f f8 d4 bf
       0.08919983606398772 -0.3276710052140582
0004f0 9e 12 70 fe d9 46 c2 3f 13 d2 b4 8d 8e e7 c2 3f
       0.1427872173664086 0.14769155425314348
000500 a1 15 96 74 63 9c c6 3f 66 48 ba 38 6f 7d af 3f
       0.17664759819687695 0.06150386397816092
000510 b5 85 13 03 64 35 ce bf c4 5a ed 33 1d b5 d2 bf
       -0.23600435400207478 -0.2923043257809861
000520 5b b3 96 e8 cd 9c c7 3f ba 7f bf b2 19 2b b0 3f
       0.18447278839939937 0.06315765966382872
000530 be ab 92 1b c3 84 bc 3f 9d d5 17 c9 62 2e 7f bf
       0.11140078948180496 -0.007612596398293728
000540 9b 07 11 c0 87 af 88 bf b7 c8 6f 05 4e b3 a3 bf
       -0.012053547428994274 -0.038477361835150097
000550 a6 a9 0d e3 7c 5b c6 3f 16 55 f9 d9 4b b6 cc 3f
       0.1746669872912438 0.2243132414174986
000560 d0 e7 ac 3d 67 fa 87 3f 97 76 ae 73 b4 85 99 3f
       0.011708075112995348 0.02492410617889237
000570 4c 57 0a 72 34 13 d1 bf e7 2f b0 f6 37 07 cf 3f
       -0.26679717194325714 0.24240779443095947
000580 81 22 ff 38 da 3a 80 3f 70 26 4b 37 79 d2 c1 bf
       0.007924752106093226 -0.13923564147835377
000590 26 9f 7a c8 1c eb ab 3f f1 1a 85 00 8c 61 c8 3f
       0.05452814051869685 0.19047689462077913
0005a0 5d 61 ac 9f 13 a3 c3 3f 5e 8f 8d 1c 69 c4 ca 3f
       0.15341420456457913 0.20911897558391507
0005b0 6d 04 ad ea 98 a9 e6 3f 06 32 9b 68 94 b0 b8 3f
       0.7082027991783783 0.0964443927179631
0005c0 55 f6 f0 1d 94 6a c3 3f 17 3b 63 b6 0f f4 b9 3f
       0.1516900201985886 0.10138033106634868
0005d0 47 c1 d5 b3 1f e6 b9 3f e8 ee bd 17 d8 88 e0 3f
       0.10116766109945728 0.5167046035489564
0005e0 b7 c4 69 26 cb 04 cd 3f 91 1e 82 5c 97 fa c5 3f
       0.22670878768579936 0.1717099382114964
0005f0 9d 3b 5e c8 39 d7 95 bf 23 99 db 66 e9 1b c8 bf
       -0.02132883344125568 -0.18835179827073842
000600 40 b7 23 7a cc 89 d2 bf 06 ed fd bd ac 6c bf 3f
       -0.2896605675476742 0.12275199545358725
000610 9e 01 c6 49 19 67 c6 bf 5d 00 cb 3b 76 17 b9 bf
       -0.17502132513255914 -0.09801424941815769
000620 58 f6 b4 29 55 51 bd 3f b2 11 14 6e f9 54 9b 3f
       0.11452228801950903 0.02669133886685566
000630 f6 42 03 8c cf af d1 bf b7 0d f9 45 8d a5 c0 3f
       -0.27635563538665 0.1300522414841063
000640 b9 ad b0 29 af ca cb 3f 7b 4d 1d 25 86 e2 c3 bf
       0.21712293182041068 -0.15535046398381866
000650 57 f8 f1 df f2 1c b0 3f 27 c6 26 1a b8 a9 c0 3f
       0.06294172255908968 0.13017941739012537
000660 77 c2 b3 d9 40 66 a4 3f b1 8b 84 c0 93 4f 9e bf
       0.039842630934690364 -0.029600437760688162
000670 ad af 07 d5 67 db ae bf 1f be f2 53 07 fb 90 3f
       -0.060267681841508526 0.01658259820822938
000680 b3 a8 5d 4e 02 28 80 3f 9d 0b 4d 0f 9e 71 af bf
       0.007888811127220263 -0.06141370713023451
000690 4b ad 86 a8 90 40 b5 bf aa a9 f6 39 eb d2 a4 bf
       -0.08301643480688374 -0.040671683145166185
0006a0 4f a5 1b ba 71 31 be bf 49 5c e2 54 b3 6b c3 3f
       -0.11794195932056549 0.15172425884950005
0006b0 1b 51 dc 5e f4 42 a9 3f 80 60 ce 44 ad 2b c3 3f
       0.04933894784895384 0.1497704111068323
0006c0 0f 5b 0d fe a6 6a bf bf ff 07 78 fd 2d 80 c8 bf
       -0.12272113516278814 -0.19141173244867102
0006d0 a1 af ef b8 40 9c a9 bf c6 ca 18 81 41 ad bb bf
       -0.050020239424923625 -0.1081124248674242
0006e0 67 3d 26 7b 2d be aa bf eb 85 14 ec 41 31 bc bf
       -0.052232190401919 -0.11012660993267047
0006f0 f4 b8 3d e1 c2 4e b8 bf 2c db b1 f0 6d 5a cb 3f
       -0.09495180129099251 0.21369718792603842
000700 fb 50 35 f9 81 3f d7 bf 7c df 0e da 13 b5 bd bf
       -0.36325120293373886 -0.11604427407917045
000710 64 26 d5 da b7 dd c6 3f b7 9f b5 b9 ba e0 d0 3f
       0.17864130196749095 0.26371639381113304
000720 2b 4b 37 49 7c 0c 92 bf 88 66 9b b6 77 82 bd bf
       -0.0176257533729071 -0.11527202804736636
000730 e9 7a 75 34 7d 7b cb bf 68 0a 47 81 96 2a c7 bf
       -0.21470608769865088 -0.18098717987421087
000740 53 0a b4 2e 96 f8 c7 3f 29 f2 c1 2a e5 4a b8 bf
       0.18727376251634328 -0.0948928098095584
000750 3e a7 96 4a e9 9c be 3f 64 45 b4 a6 d3 c2 c6 3f
       0.11958177634246867 0.17782064094403005
000760 06 5f f0 01 fc f6 b5 3f 59 b1 08 33 06 5f b8 bf
       0.08579993293130536 -0.095199954471075
000770 2e b1 1f 0b db 62 bc 3f 28 4b 8e e4 50 e9 66 3f
       0.1108834173352917 0.0027968006074358294
000780 2c 1a 41 44 35 dd c2 3f d4 ea 8d b7 dd 9c a4 bf
       0.147375734641359 -0.04025929322866309
000790 c3 44 c2 c3 b8 fa 82 bf 2d 30 ed 3d 86 bc d9 3f
       -0.009267276262365681 0.40213161513816226
0007a0 be 05 a9 44 b4 08 8e bf ff 7a 66 58 de d5 97 bf
       -0.014665039391846043 -0.023276781220938677
0007b0 84 5e 18 b0 2f 80 aa 3f 1c 4f eb c7 bc 5a c5 3f
       0.05175923370933069 0.16683158647230634
0007c0 f5 90 86 04 59 67 d9 3f 03 c2 ef be 12 be c6 bf
       0.39693284456212946 -0.1776755745227235
0007d0 00 8d 37 85 18 c6 a4 bf 71 db 50 b4 29 75 c7 3f
       -0.04057385088142418 0.18326302818760667
0007e0 e7 8f e4 c8 2a 60 ad bf 79 7b 30 3d 13 1a cd 3f
       -0.057374321959542667 0.2273582505012788
0007f0 33 a5 f7 66 c0 65 bf 3f 5e 36 34 f0 74 f9 58 3f
       0.12264635576106712 0.0015243188834718406

hidden_layer4.bias f8 [20]
000000 0f 22 90 6b d1 80 a0 3f 54 7a 89 71 15 1a b2 3f
       0.03223280370736258 0.07071050664806339
000010 c2 42 cb 03 a5 76 cb bf 2d 6c 93 47 19 48 bf 3f
       -0.21455824551823893 0.12219388959367512
000020 b4 f2 7f d1 17 58 ba bf 82 af df 9a b1 1b b9 bf
       -0.10290669312230244 -0.09807882338617271
000030 ce a6 72 c0 77 c6 b4 3f 62 14 56 5e 24 8b 8a bf
       0.08115337799486186 -0.01296070492640861
000040 b9 32 b4 5a cf 81 c9 3f 0d ae 51 96 fd ea b5 bf
       0.19927398613835637 -0.08561692161463715
000050 e1 5f 29 f5 13 cb b2 3f ac 25 c0 ac c7 9e d0 3f
       0.07341122374907584 0.2596911608712513
000060 00 f5 ce 24 a9 25 c0 bf c2 d1 e1 1a 7e 24 95 3f
       -0.12614931390081807 0.020647020712617488
000070 8a a6 bf c9 14 18 b5 bf b0 ba 74 ec 2c 78 7c bf
       -0.08239870000366004 -0.006950545771629166
000080 4c d9 62 a3 66 76 97 bf 55 e2 77 6c 82 b8 b1 3f
       -0.02291260120610987 0.06922164104606428
000090 13 e6 81 59 69 a3 a3 3f 0b d3 ee 09 72 e0 89 3f
       0.0383561059724792 0.012635126999023713
