net_param/net_0.15.pth (torch, 17999 bytes, 12 tensors)

hidden_layer1.weight f8 [20, 2]
00000000: 652d 0633 9c37 b73f f450 b854 b4e0 e0bf
00000010: 52c7 e942 e41a d1bf c2b0 e9e8 42c2 b43f
00000020: e893 1486 aed6 d73f 90c2 972e 0e92 da3f
00000030: 499f f0dd 612c abbf 1e76 b996 0130 c53f
00000040: a949 d3a4 cb9d d43f 0ea4 c032 afee da3f
00000050: 2b40 4483 4b80 d2bf 51bf 451d 0987 88bf
00000060: 0dbc e739 594a a7bf 32a0 615f b748 d63f
00000070: e3f0 1440 11be b03f 47c0 8ca6 daca bb3f
00000080: d320 b0e4 7b87 c8bf 06d7 388e 4921 c6bf
00000090: 0e6d 5c52 aa5a d13f ec8b f6b9 958c cabf
000000a0: 912c 73b8 d7cd c9bf 5d36 f740 8950 c23f
000000b0: 83a3 541c 4322 d2bf 0e5f 311b a723 e0bf
000000c0: 3cb3 da43 cc5a d83f a228 bdbc 18a2 d0bf
000000d0: b780 bc65 d2e5 a73f 8456 487b c6a4 e33f
000000e0: 0ad2 702e 9d81 e4bf b069 3301 8810 ac3f
000000f0: fc2d b99b d804 dd3f 9c42 100a 36cc a83f
00000100: 3e88 993a c2b3 a73f 5e2f b115 704b d3bf
00000110: 57b6 09b9 d37b e1bf 483d e0e9 b5e4 dfbf
00000120: a405 d7d8 3477 e23f 8504 79f6 5716 cd3f
00000130: 0a7a 7dba 1867 d6bf 5114 c69b 661e e6bf
0.09069229360300353 -0.5274297384917461 -0.26726633581630665 0.08108919321392974 0.3724781331423501 0.41516451406554555 -0.05307298502185504 0.16552753314583496
0.32213107200837016 0.4208181377057948 -0.28908050364498433 -0.011976309972595496 -0.04548910934305903 0.34818825068078063 0.06540019812104307 0.10856405798108525
-0.19163464228063862 -0.17289084858355624 0.2711587719256422 -0.20741530971744682 -0.20159431940405573 0.1430827681746675 -0.28334119574224575 -0.5043521433935625
0.38054186464687567 -0.2598935931351979 0.046675276679026316 0.6138641746390054 -0.6408220202488917 0.0548136235681399 0.45342078406676456 0.04843300698133143
0.04629332509354399 -0.3014793598019788 -0.5463656057378995 -0.4983343872017554 0.57705156661557 0.22724437269974743 -0.35004251682212895 -0.6912110369163519

hidden_layer1.bias f8 [20]
00000000: 2664 1af7 8617 d4bf 700a c5ae 4d87 ddbf
00000010: b547 ce21 b2d3 d9bf 7c64 993d a978 e53f
00000020: c28b f30a 143d e63f 4780 37a8 e480 bd3f
00000030: 652c eb21 3ea4 e23f 1b44 c8a5 164f 9dbf
00000040: 311b 980d d861 a8bf 9a9a afd7 fb61 c13f
00000050: 4e1b e0c2 7a7e d7bf 73d0 dd5f 1bbd dfbf
00000060: 92d8 3fc6 d2cc d93f 14ca 88bb 24d1 d6bf
00000070: d979 9ae9 7cbd db3f 8117 401c effb b9bf
00000080: a76c ac21 8dab e13f ffc1 1a07 f6e7 e03f
00000090: 6bea 0f3b 9895 e2bf bb3b 3d0c fcd1 d3bf
-0.3139359868160362 -0.46138326709129895 -0.4035458879599177 0.6709791377171679 0.6949558462041454 0.11524800402503486 0.5825491583322103 -0.028622011059329915
-0.047621490153736075 0.13580272704640067 -0.36709469824602514 -0.4959171711154859 0.4031264244107514 -0.35651510538005593 0.4334404259951988 -0.101500458142338
0.5521913201986494 0.5283155573616226 -0.5807610658224126 -0.30969144053682

hidden_layer2.weight f8 [20, 20]
00000000: 018c 5813 5c51 c9bf fed7 0fe8 81a3 bebf
00000010: 3186 29a5 e45d c3bf df2a 12ec 2b99 abbf
00000020: 55e1 6b59 52be bf3f e206 7448 14a5 bf3f
00000030: e0dc 88b0 042a bbbf 8d1a 6fb8 066a c4bf
00000040: b6a0 f402 6563 cc3f 1922 2117 a3e4 c63f
00000050: 0153 0071 b2b4 bbbf 03d5 52c8 f01d c4bf
00000060: 87c8 2650 8128 cb3f 13dc fae5 977f c7bf
00000070: e5b1 85a0 dc88 b13f da58 1fd2 ac34 be3f
00000080: 785b deeb 7e73 b03f e245 fdf8 88d2 b93f
00000090: 74d8 f469 474a a2bf 4d98 3f7b 29ec bc3f
000000a0: 51ef 386b 1999 b03f 3000 60c4 9d12 a8bf
000000b0: fe99 27e0 b080 c5bf 1481 a305 9e34 9fbf
000000c0: 818e 940d 6b7d b53f d9ab f1ec 10bd c6bf
000000d0: 2888 cc7a 0dbd c3bf 9221 e034 ea56 c4bf
000000e0: 7ae5 c31e 0fba bd3f 4ecb 31f6 f205 bcbf
000000f0: 8255 19a7 c6c0 b63f 9ab9 4efc 45fa b8bf
00000100: d978 3321 4205 c4bf 801f c4d2 244b 9b3f
00000110: 37fd 814c 34ee bc3f 202c 42db 2dd9 abbf
00000120: ded0 0a75 95a2 cb3f 5652 b61e a3c2 bd3f
00000130: 4331 e5a5 394f b6bf 008b 8147 25da a1bf
00000140: 44e1 a3e8 409d a13f f238 b68a 0eab a2bf
00000150: 194b 5e1c 3fcc b7bf ced3 4a5e 4989 b6bf
00000160: 3590 814c 9067 2ebf d95d 49f9 97a3 c6bf
00000170: d9cd 7f15 9db4 c0bf 3f9a 04ab 0b31 c93f
00000180: 4300 82a0 e1f3 a73f 698b 021f 8af4 b4bf
00000190: 8eef 6784 a86c 963f 5932 4ca6 8de8 9d3f
000001a0: b98d 5b1e 6de4 c13f 2c3d f6b5 bb23 a5bf
000001b0: 2a66 1fab eabb a1bf e45f 6593 aee9 c73f
000001c0: ea13 fabc 1e69 c2bf 9b52 81ab ccad c43f
000001d0: 077d 5c35 240b c5bf 6b29 8177 4bab c9bf
000001e0: 54da 8ab1 00fd bebf 2469 d01d d3ae bb3f
000001f0: 6a2c e46d 9045 c83f 689c 01fe bdf3 c73f
00000200: c13d 0725 b509 893f 0a22 2f31 fa81 b83f
00000210: d255 3815 8e3a a4bf 376b 45d9 a214 c9bf
00000220: 27ce c1b3 3d28 a5bf 0d94 fbb2 6950 c8bf
00000230: d2e0 c9b7 2833 a4bf 105d fe7c c844 c0bf
00000240: 7bea 0fc2 4f50 87bf fdc9 8737 dcd3 893f
00000250: 3ad9 df8b e0dc c93f b2eb 9a89 0e59 a7bf
00000260: 6d63 df43 3cee bebf 1921 1e23 f2a4 c9bf
00000270: 4a1b ffba 4fd9 b4bf da68 ed45 cb04 b8bf
00000280: 5ee2 f628 a76e b2bf 4c7a be6f b95d b2bf
00000290: 985b ffc1 ba23 c73f 10ba 4d18 9b5c cc3f
000002a0: 0f76 2c0e 40a9 c6bf 163b 9303 4e09 a0bf
000002b0: f125 8925 f976 b3bf 69f7 44de cc4e adbf
000002c0: 3a18 ca34 a285 ba3f 16fa fa76 912e 98bf
000002d0: e6b8 078e f0f2 abbf ae6a bff1 e1ce b93f
000002e0: c5f0 71c8 5750 c23f 007a 170b 63bb c6bf
000002f0: 2adc edd8 c7bc a13f 3921 d116 c327 b0bf
00000300: 205b e62b dd0e ca3f 87e9 61e2 860b 80bf
00000310: 28db 7190 4cf6 0abf f6c3 e658 e7bc a03f
00000320: 2ebf d492 e99d c2bf f4e6 8766 3b4c 98bf
00000330: 1157 d260 6cba c9bf fde4 c212 c2d3 8a3f
00000340: fd7c 856b 52c1 c6bf 9188 78a7 446a 94bf
00000350: 5ac3 a832 2445 c03f f1f4 726b 5fda ba3f
00000360: ce4e e1e4 6b79 b5bf cc29 c503 7fbb c1bf
00000370: a74d 9b48 ce1b b43f 78a3 e0c4 99fc a6bf
00000380: a93c a2e9 7b90 8ebf 48a6 d0c5 e723 c0bf
00000390: 50c2 b3f9 47e6 743f ee8b 17f6 838c c5bf
000003a0: df45 2980 795a aabf 1b06 8954 7756 ca3f
000003b0: 71ab f372 b0f8 bd3f ac78 fc89 2c84 c33f
000003c0: 3921 44a9 0465 aa3f a7c6 6fc3 5977 bbbf
000003d0: d6e0 8599 62c4 b43f 8db0 ea1e b771 a23f
000003e0: 9842 351e 3ec4 b4bf 9097 29fd e7c6 a5bf
000003f0: bc2c 221b 2d01 9bbf 2138 db0a 89d4 a43f
00000400: 9b01 4a43 df6b bebf 248a 1098 97a0 953f
00000410: 7efc 24d3 5190 cc3f 7e6d c635 c801 b43f
00000420: d3a4 a97e 206b ca3f 585f 570a 091b ca3f
00000430: 046d b0c7 ab21 c7bf dc55 cb62 3947 bf3f
00000440: 57b4 a508 b168 c73f a9ad dd88 fb6c a03f
00000450: 7339 3d7a 300e b33f 92b8 72fa 0c9d 9abf
00000460: e76d 68e7 30a6 c0bf 0f40 7391 d0ae c33f
00000470: 41b4 763e 4ed9 b83f f229 c199 ae67 bcbf
00000480: bbb1 3788 0cbd c8bf 8e42 d7aa 319f c0bf
00000490: 9023 f133 dab6 bc3f bda6 1991 2a4d 89bf
000004a0: 8c98 ddad f9a4 aebf 2ada b7fb 2086 c5bf
000004b0: 9a8c 85a7 3121 b33f 204d c491 265a bcbf
000004c0: cea6 5d8f d36e a23f 3036 92e4 943b 8c3f
000004d0: 0837 7cd3 858b c1bf f15e a483 45de 7abf
000004e0: 6644 7d90 99e3 bbbf 45fb 0eb5 bb50 c03f
000004f0: 8768 0233 e0f4 bcbf d2f8 e5dc ebfd bbbf
00000500: 4504 eacc e18a cbbf d955 0073 92af c6bf
00000510: ba68 3c23 ca02 ccbf 91cd 3f5e 6f4a a6bf
00000520: e46a 0585 48e7 b03f 9747 a749 2ac5 c83f
00000530: 17dd d3cb 6ff2 c93f 1213 31a5 470e b93f
00000540: 360f e955 760e bc3f f1f0 8d00 74f7 acbf
00000550: 9eef a343 b544 c73f b5f7 9c28 b2c3 a3bf
00000560: f7e7 cb08 aa88 b0bf 42ea 92cb 14f1 b7bf
00000570: 9fa5 04da 1200 bcbf 2787 c70d e33e b7bf
00000580: e993 0956 ba0b c2bf 7bea 1f6d 3410 c9bf
00000590: 8f20 e89b 2eac b3bf 9947 eca7 b2f3 a8bf
000005a0: bee1 2560 d233 c1bf f31f 5f63 a5db b33f
000005b0: b22d 3707 cb7f 7e3f 0d82 bcde 0ba3 c0bf
000005c0: 4e99 2fa9 a624 c03f d4c3 8372 4524 c43f
000005d0: 9e15 be4e d7ba 96bf fb54 9718 d90e b43f
000005e0: 5ff9 73b8 5318 c63f 74c0 f49d 1d99 963f
000005f0: 20dc 42c9 dca9 ca3f b274 f0c3 7345 c33f
00000600: b76d e03c 5d3a c5bf bab1 b04f 8285 c93f
00000610: 4f04 021c 0905 be3f 47cc 66a2 c3f8 b0bf
00000620: 9c2d 9163 758c ca3f 61ae 4bcc f6b7 cabf
00000630: a947 1eb5 ddb9 91bf 057b f3d5 fb7f 7f3f
00000640: 656c 0663 93d6 c03f a602 fd78 2fcc babf
00000650: 8e01 4825 75dd a6bf 971d e426 bcff c1bf
00000660: 217d 60d4 1df2 bc3f 9bfa 10eb 4386 793f
00000670: 8f92 9940 bbc3 9d3f f044 7f89 2d44 b93f
00000680: f0f8 10bc 6aa4 cbbf db3d 0cf6 a53a cabf
00000690: 13da aa21 e903 c3bf dc4c 9f29 fef2 8bbf
000006a0: 2547 7845 bdf8 c3bf 0672 7059 51f2 b3bf
000006b0: 5432 d7db 2142 bebf 0454 d1fa f699 c2bf
000006c0: a062 3eaf 40e3 b0bf a60f 26b9 2280 c9bf
000006d0: 785b ccf4 5396 c3bf d645 53df 9396 b23f
000006e0: 6c88 1030 7b8e c73f 3ce4 d36a 836e a43f
000006f0: 6b4d cb3c a355 b63f 0d5e 0b95 48ff 9cbf
00000700: 0f40 e424 07e9 95bf d54c afec 60cb 9a3f
00000710: c94a 7f1b a6c1 c23f 578c 1794 c6b5 b5bf
00000720: 8e28 59ca 0278 7d3f 6005 0981 529e 9c3f
00000730: ca62 ac08 9727 c9bf a7a0 ad1d 4380 c1bf
00000740: e767 99db 47dc c83f caf6 ddc0 5e5e b1bf
00000750: 0567 a52b ffea ad3f 937c 95b5 6514 b13f
00000760: 9f2f 74e0 35de bebf 917f e4b4 ece0 cabf
00000770: 4fe8 866b 1436 c13f 6b95 30f1 2cb7 c83f
00000780: 4001 f0df e602 c4bf 37b9 d2e3 5b2b a73f
00000790: 7604 4e98 8481 8f3f 1848 10f4 866c 9d3f
000007a0: ce47 7ca3 24e7 be3f 3315 1679 c0d3 b8bf
000007b0: 7cd2 b72b 9291 83bf fb7c b05d 7133 b73f
000007c0: 658f bcab 1991 cb3f 5f16 a18e 468e b43f
000007d0: 13d0 3845 5e65 93bf b9a5 050b bb8f bbbf
000007e0: c6a3 d75b 70f9 c7bf 8dec f63b 75d3 babf
000007f0: ca60 3c3f ce21 c7bf 2fde a8ce e18c be3f
-0.19779540009139399 -0.11968242564748263 -0.15130289139328704 -0.05390298134542148 0.12399782832279034 0.12361265915754019 -0.10610989866187337 -0.15948566442076065
0.22178328174891754 0.17885244969717531 -0.10822596796817764 -0.15716371327804532 0.21217361844680147 -0.18358134011734303 0.06849459570884837 0.11799125795309653
0.06426232584486324 0.10086875990716451 -0.03572295349515367 0.11297854670519421 0.06483610980734268 -0.047017030927236525 -0.16798983521512406 -0.030474156469495986
0.08394497949171333 -0.17764483994991911 -0.1542069291691075 -0.15890243131458398 0.11612028599838267 -0.10946577559097401 0.08887902812542417 -0.09756886873103668
-0.15641047116418497 0.026653838504926863 0.11300970905175665 -0.05439132024283588 0.21589916434243767 0.11625117778596325 -0.0871463804261952 -0.034867444018138016
0.0344028743729177 -0.03646130984553676 -0.09296030466638817 -0.0880323271947667 -0.00023196827374072503 -0.17686748192021076 -0.1305118899323208 0.19680925226676213
0.046782542079200094 -0.08185637719229323 0.021898873406811563 0.02920743300915016 0.1397835157614347 -0.04128824802603001 -0.03463681544208115 0.18681890675611534
-0.14383300998102239 0.16155393957401007 -0.16440250974208245 -0.20054000220472842 -0.12104801497012235 0.1081363628185597 0.1896229302004458 0.1871259203209974
0.012225547020448315 0.09573329640182507 -0.03950923928293161 -0.19594226464217865 -0.041322639649390695 -0.18995400657073028 -0.03945281260979673 -0.12709909537509434
-0.011383650884444698 0.01261112255540286 0.20205313520245644 -0.04560132436514354 -0.1208226838783852 -0.2003462478135212 -0.08144090953201757 -0.09382315118037657
-0.07200093031031815 -0.07174262025953587 0.180777878499353 0.2215761059446355 -0.17704010669778866 -0.031320989548126274 -0.07603413740539346 -0.057241823322768344
0.10360158718876358 -0.023615143668161385 -0.05458785756842292 0.10081302787822707 0.14307687079770495 -0.1775935939940183 0.03464340708790588 -0.06310672099164528
0.20357861178919112 -0.007834485801357939 -5.142613559254986e-05 0.032691220857834866 -0.14544410390362245 -0.023728302128779924 -0.20100168922061148 0.013099209020185127
-0.1777747178084396 -0.01993663093720294 0.12711002801509147 0.10489460347431014 -0.0838839944638565 -0.1385344284447697 0.07854928276656513 -0.04489594009675718
-0.014924018924175124 -0.12609574469506613 0.005102425722029638 -0.16835069194993885 -0.05147151650875136 0.2057637369889996 0.11707594686929014 0.15247112977607935
0.051551957762117025 -0.10728989621545769 0.08112159965628804 0.03602382900621235 -0.08111942517758519 -0.04253315892564935 -0.02637167432889663 0.04068401582263471
-0.11883349793243385 0.021120422989165402 0.22315428552426292 0.07815219223851064 0.20639425453854318 0.20395005230852337 -0.1807150578541511 0.12218054449052523
0.18288243219595543 0.03208147092558573 0.07443526253084602 -0.02598972586263721 -0.1300717477723616 0.15377242185650217 0.09706582093231565 -0.1109570622803984
-0.19326931620834195 -0.12985821573103745 0.11216510551561343 -0.012354214242083267 -0.059852411722020354 -0.16815578738142395 0.0747252496708363 -0.11075058993110476
0.03600178837844013 0.013785517907559969 -0.13707039667536258 -0.006559630908917078 -0.10894164826938066 0.12746378269909023 -0.11311150784823286 -0.1093432821562346
-0.2151758432919754 -0.17723303427980744 -0.2188351318407678 -0.04353664422515203 0.06602910277926416 0.19351700397834 0.20271108105200916 0.09787414343834325
0.10959567639752951 -0.0565754175831631 0.1817843036914128 -0.038602416474972236 -0.0645853301502085 -0.09352235765519715 -0.10937612364491266 -0.09080332838450698
-0.14098290635152402 -0.1958070309481917 -0.07684603983227788 -0.04873426723328506 -0.13439397520757085 0.07757028270782466 0.0074460917271141226 -0.12997578025625992
0.12611850033790478 0.1573569115785448 -0.022197117024480677 0.07835156298036232 0.17261740213866525 0.02206846500956812 0.2083087904663623 0.150557013200261
-0.16584363434308866 0.19938687220691326 0.1172643369082078 -0.06629584040528967 0.20741145478892242 -0.20873913741467034 -0.017310585193235948 0.007690414174446718
0.13154833159646553 -0.10467812255684325 -0.04465833740323709 -0.1406169118783793 0.11306940493567598 0.006231560998513653 0.029066968744148765 0.09869656187881382
-0.21595510657238703 -0.20491480363896994 -0.14855684417644052 -0.013647065777979632 -0.15602842228013816 -0.07791622575354759 -0.11819659821703371 -0.14532363173444207
-0.06596760061655482 -0.19922288933241566 -0.15302514508286058 0.07261013223912668 0.1840356812181797 0.03990564993905152 0.08724422678215198 -0.028317579361866452
-0.02139674341839287 0.026166452833263094 0.14653469412458822 -0.08480492702033025 0.007194529438104292 0.02794770157402604 -0.19652069018845558 -0.1367267508424039
0.19422243330592368 -0.06784622391384257 0.05843350799359651 0.0667174881286761 -0.12057816247778284 -0.2099891551270017 0.134462883475694 0.19309007431835865
-0.1563385575718801 0.045252677498285036 0.01538375463292339 0.02873431076665875 0.12071446410507677 -0.09698107677657646 -0.009554998358887838 0.09062870538081207
0.2153656090314328 0.0802959535804688 -0.018941376662226683 -0.10766190547078382 -0.18729977116097823 -0.10478909219721029 -0.18071916663826065 0.11933718963052152

hidden_layer2.bias f8 [20]
00000000: f4d0 2e77 eeb7 93bf a041 75e1 ca99 c93f
00000010: 7f94 cc50 3699 a73f 18d9 6d8e 7a50 b3bf
00000020: ce93 c736 43e8 b73f 19d4 550d 8e69 b03f
00000030: c861 4ed0 a4a9 abbf 958b a5ad 05ec cabf
00000040: b489 8a60 295b c0bf 4d9e 214b 7549 b13f
00000050: 1222 fa24 cbc3 75bf 05e6 ac1a 9d45 cc3f
00000060: e8ec e979 92a7 be3f 6ef3 16f0 9300 b83f
00000070: 6d74 ea76 4a43 abbf 4987 21bc f3f5 7b3f
00000080: f1d3 f8ff b7cb ca3f 645e 6f3c fa8b c2bf
00000090: 5796 b5e4 b943 7ebf a67e fbed fd6f c1bf
-0.019256330513329936 0.20000587471669196 0.04609079109494817 -0.07544675805352019 0.09338779532806926 0.06411063981597954 -0.05402865450668376 -0.2103278253444755
-0.12778203214572914 0.06752713283787522 -0.005313676388717175 0.2208744411707785 0.11974444843683651 0.09375881778301018 -0.05324776364907611 0.006826355065727993
0.20934200285560636 -0.14489677382401844 -0.007388807436063147 -0.13623022194132267

hidden_layer3.weight f8 [20, 20]
00000000: d0a8 b4d4 a688 cb3f 1da9 9e48 2eb9 c63f
00000010: 70f1 e542 eb06 a13f 9c4d 0a66 b4e9 95bf
00000020: 109b b4af 2099 b33f fa56 e69e 8318 c83f
00000030: 455d 35fa 8b9c b63f c7b3 074d 8bf1 b73f
00000040: 0e26 2eb0 1e36 c33f ee29 a24a 040d 8b3f
00000050: a9f4 b438 71e5 c1bf 0a64 15e9 4679 c6bf
00000060: 1741 d857 c782 c3bf 33da 7aff 26e3 af3f
00000070: 2a98 d22b 8664 c93f 26d4 af0e 46c2 c5bf
00000080: eaaf a8e2 0ac8 b53f 82b5 93f3 8544 c63f
00000090: 46aa c0f7 1a3d 903f 178c f863 4d2d c63f
000000a0: 4df4 13f6 267b bb3f aaef 5128 0d5a b7bf
000000b0: 85a8 3ba2 e2ac c23f 7715 d2e6 e32c c93f
000000c0: 2050 7483 702a cbbf 83f7 752b 7d07 c7bf
000000d0: 9d29 ac0a 0d5d cabf d1c4 c80c 7db0 a93f
000000e0: cd4f b182 382c 86bf 6d9c efcd 009e b53f
000000f0: 2249 dfdb fa34 c2bf 7031 2ffc 35d9 c23f
00000100: 3d93 8ca8 49a3 b73f 586e 6c31 6407 c8bf
00000110: c3be 4e03 c57b c6bf b8e8 fac2 dc44 be3f
00000120: 7b2b 1f86 08d3 c23f c93c ec0a 5c46 a6bf
00000130: abb7 ab9f ed1f 90bf ddf1 c934 e05c b33f
00000140: 7abc a2a9 af66 b1bf 5d65 41cd feab a9bf
00000150: 0b0b fb4e 2466 b73f e463 a6be bf5f cabf
00000160: 0432 ce31 193e c9bf 2e9f eb34 d890 c73f
00000170: cf33 ad8a 2b22 bfbf af69 9575 f219 ccbf
00000180: c30b 2409 63cf c93f dbee 1604 86e1 843f
00000190: da76 788a c116 ac3f 71ab e7dc e62b c5bf
000001a0: a214 ed47 211e c43f 44bb ebcf 43f2 c63f
000001b0: 45d5 59c3 8007 a8bf 9fbb d282 0a2f 5abf
000001c0: 641b 781e 4f14 b23f 0abb 2ad5 3649 bfbf
000001d0: 4cf4 ed7c 6c8f b5bf aeb9 be47 3fab c03f
000001e0: cc68 1f9c 2465 c23f fd86 e8fb 5ecd ac3f
000001f0: 74fd f620 5711 c9bf b649 bc11 88c0 b1bf
00000200: 3afb 67cc e95d b23f cb6d 66e3 c2c7 bf3f
00000210: db1c f524 31eb ad3f 1603 d11e 49fe be3f
00000220: 3704 2650 b6fd c7bf a48f 92ab cdcf cbbf
00000230: 24a7 1849 80e7 c33f e455 e2a8 d0ee b53f
00000240: 6271 3d85 11bc c6bf 6695 77b6 4d2f bbbf
00000250: e47d 3fc7 90f1 bcbf 22de 0082 35de a9bf
00000260: 565c ab4a 2763 aabf f1fd de46 b4aa a73f
00000270: 1ba2 8ed3 93e5 c0bf 8d03 c600 bd5b a4bf
00000280: dc55 1453 6218 c93f 0778 d13e 9c67 af3f
00000290: c2b2 5f2c ade7 c0bf 5248 73c9 8b6a b4bf
000002a0: c620 989b 0049 afbf b609 aeca 68cf a63f
000002b0: 6326 59d3 979a bb3f f7c4 e039 23fc cabf
000002c0: cf9c d6d7 97e7 c33f e6f2 06fc 0358 c0bf
000002d0: 22ab 28d5 000a c83f d51c bf27 40e3 b9bf
000002e0: 1376 782c 04ba 7ebf c992 7cc6 fe44 c7bf
000002f0: 7425 e3ee dbb9 adbf 54b9 3b6b 4a04 cc3f
00000300: c64e e673 f972 c73f e092 0ed7 f713 863f
00000310: 5f02 3674 eb4e c93f ecbd d6cd a8e5 c9bf
00000320: e96e 583d a205 923f cd3c 6b7d 640d b13f
00000330: 067c daaf 8bcd a63f 1392 8907 c266 97bf
00000340: 57dc a2de 0c5e c6bf 8290 7be8 fbc5 6cbf
00000350: d2f3 74de e7f0 c23f b49b bfbb b215 cabf
00000360: c9e2 417a fe79 c9bf e96e 32c8 5adb acbf
00000370: 26d2 2369 11dc abbf 3176 17d4 14e5 a33f
00000380: f380 8f7d 035c 8a3f f02e d822 379e b2bf
00000390: b794 aa20 d882 a8bf 03c3 7b2e 93e2 b4bf
000003a0: c2c6 16aa a56d aa3f 821b 69b4 deea c4bf
000003b0: 44c5 f51e 2e96 c6bf 4558 153c c5fb c8bf
000003c0: 0c29 c9b6 3cea b5bf 47e0 61b2 8d9e c2bf
000003d0: 99ce ffcb 224b c23f 8102 4a2e c68d b9bf
000003e0: 9327 d005 2201 aa3f c249 d926 190e c0bf
000003f0: 8caa 1d69 0fd8 ca3f 669f 14e1 4a5e 93bf
00000400: d9ba c6e2 63d4 843f cdd6 51b5 27c0 88bf
00000410: 9423 1502 db59 a23f 78fd aef0 79c4 c0bf
00000420: 2b8c 330a 725c c2bf 0ce6 c7ed d396 a7bf
00000430: 280b 273f 3936 83bf f331 99f1 9a78 c53f
00000440: eef2 9ef5 e511 ba3f 8b35 45ff 1763 c83f
00000450: e155 5b44 6830 c83f 52ae 09ee afd2 77bf
00000460: d675 20b2 28ae cbbf 588f e7e6 5b12 a7bf
00000470: f775 5acc 3944 c63f 38ee 4a2f 9270 b9bf
00000480: e955 540e 962b b5bf d8e5 9541 c2ff 96bf
00000490: c007 8146 e29e bfbf 4637 b598 a645 c83f
000004a0: 3f25 3eb5 3840 c2bf da51 0299 83d5 90bf
000004b0: b0f0 6195 8e69 a53f 9e30 24dc a825 963f
000004c0: e95d 6119 0f59 993f cceb 3a20 a9a3 bd3f
000004d0: 16ae e94a 5f37 c23f c6dc 80f6 689b 82bf
000004e0: 3f3c 35bb 0b2c c83f 514f c182 2b7a a8bf
000004f0: 39c5 306c a5e7 c93f e16b ac5e 61df c53f
00000500: 64a7 59e7 8dd7 bdbf 26d2 b501 c465 a63f
00000510: 246c 9ffe 8abd ad3f 5fe0 5fd5 d46b c6bf
00000520: 2c69 927c 4f80 bebf b218 ec27 c5f1 c33f
00000530: 8544 8b0a 1a16 a7bf dc3e 104d 8aba 32bf
00000540: a8d7 e49e 443b b73f f999 5e5b 3d00 cabf
00000550: 76a2 7274 2e45 7f3f 68c0 78ba 588f bf3f
00000560: 188f 6795 571d c1bf 73ed bf39 ed6c c4bf
00000570: 094f 79cb b60f c6bf 4392 7cd2 1844 b03f
00000580: 40d7 c7d0 a1aa b4bf d507 0c27 cada c03f
00000590: b63a 148d aa0a b3bf 1b58 6b1a 0992 88bf
000005a0: 1605 b1ad eac0 ca3f c5df 7ba0 6c77 adbf
000005b0: e1db 7b62 adf0 a8bf a208 df6b c15c bb3f
000005c0: c275 f93c 2df0 c63f 1f81 bd02 136f b4bf
000005d0: 6af2 c49a ede9 b1bf b48b e68d a233 c3bf
000005e0: 2a4a 1153 74fa b9bf ddba 32b2 b15f c9bf
000005f0: fc7c 1013 dad8 b1bf 0e7a 5a48 64b6 c5bf
00000600: e5b7 9366 65b2 c83f 8354 5a09 3dbd a73f
00000610: 5e81 ebbf cc34 c93f f56c c4a6 3348 bf3f
00000620: 0638 020a db6c c3bf 766c 9b85 87ce 88bf
00000630: 3990 7034 f88d bb3f 8651 5d68 e94e 89bf
00000640: 0746 070c 9954 9d3f a555 1101 c4cb adbf
00000650: 5dde 993a 2449 bdbf 5db0 b2aa 5e77 babf
00000660: 60a7 0448 79a5 b33f 5306 203a 15ab b4bf
00000670: 34f1 2c6c 6b9c a83f 6d91 c3f3 4da2 be3f
00000680: bf26 e84a 4520 b93f a3d8 2a7d 12fd b03f
00000690: caf2 6ea3 fc73 ba3f 9939 dc5c 82f1 bc3f
000006a0: 7979 31a7 8354 c9bf 6388 4a67 712a c53f
000006b0: 6ae6 2913 1df0 9c3f 5507 823c a6fe c5bf
000006c0: 58be 9bd7 f7c3 b43f 37b3 9e2b 84f7 c33f
000006d0: 4692 52e8 37ed c7bf b7a6 b11e f7db b93f
000006e0: 1437 5aa7 267c c7bf ecbd 5225 6c3f cabf
000006f0: 3768 3f17 c72b ab3f e7e9 bae7 1c93 b3bf
00000700: bc54 d602 759e b9bf cd27 e908 76de a0bf
00000710: c76a 19dd 0b2d c83f 334b 5157 5761 cc3f
00000720: 550c 3b64 44cc a8bf b90d 7ec3 3c6f ccbf
00000730: 5ed3 53b2 e014 bfbf b8f9 3011 7357 c2bf
00000740: 1227 b2f9 2071 46bf 3979 08a1 3409 ca3f
00000750: 255f 7567 8419 613f 5b33 67c1 423b b0bf
00000760: f91c ec08 0582 b6bf 5936 b5c7 c36e cb3f
00000770: 82ab 16eb 0eab b43f c97d c138 1e77 c83f
00000780: 635f 3d66 5e05 afbf dd5a 5f51 dfe7 933f
00000790: f450 d506 c265 c4bf e157 1058 43e7 88bf
000007a0: 8db9 d42d b9f2 93bf a05e 5a47 16c9 833f
000007b0: 98f7 d5da 8c19 bb3f e61c d649 4e6c bfbf
000007c0: 0c94 62ca 2a54 993f c71d f76a eccc b53f
000007d0: 8922 31ff 3aeb b53f 3ad0 8736 b56e c93f
000007e0: 9582 8f97 31e1 c3bf 3287 04b1 9e6d ac3f
000007f0: 3ac0 0e88 963a c03f ec86 c991 f770 b93f
0.21510777841587592 0.17752626939665897 0.03325591270092587 -0.0213993251114296 0.07655529298481789 0.18824811228540012 0.08832621439556927 0.093529421144651
0.150089107537767 0.013208421256668292 -0.13981452244653284 -0.1755760801413831 -0.1524285487107668 0.062279909788618325 0.19838025226380412 -0.16999126164560713
0.0850836566320933 0.1739661635723842 0.01585809838449339 0.17325751668349262 0.10734790332567563 -0.09121782526375335 0.1459010402825848 0.1966824414304644
-0.21223265093488042 -0.17991604444608464 -0.2059646894561639 0.05017462521608141 -0.010826531876013146 0.08444218662008192 -0.1422418187708639 0.14725374997795937
0.09233532299965659 -0.18772556699046805 -0.17565214787963698 0.11823825607544591 0.14706522511400152 -0.04350555070242874 -0.01574679648449943 0.07563592232504086
-0.06797311679359722 -0.050140345149609834 0.09140231064069952 -0.2060470276744858 -0.19720759326845905 0.18410780509952346 -0.12161514411600581 -0.21954184285534725
0.2016414446480593 0.010195776939205306 0.05486111464800354 -0.1654022768628596 0.15716949474350367 0.1792683377493295 -0.04693224320082349 -0.001598129524875459
0.07062239164234324 -0.12221090988417074 -0.08421972322499122 0.13022604945349542 0.14371163962534295 0.056254356623197645 -0.1958416853867494 -0.06934404786105727
0.07174550285706696 0.12414186527023856 0.05843499733105669 0.12106759073595827 -0.18743018067837777 -0.21727915647090612 0.15550235337405482 0.08567527888438736
-0.17761439329013756 -0.10619054512752299 -0.11306099762395366 -0.05052344524341047 -0.051537731041826504 0.046224244738819815 -0.1320061476701689 -0.03976240763132131
0.19605664307225268 0.06133735911201659 -0.13207020441713807 -0.07975076359005698 -0.06110383891433595 0.04455115770453537 0.1078276530253333 -0.2108196289641808
0.15550516165715186 -0.1276860218621529 0.18780527504107974 -0.10112381906866415 -0.007501617721144454 -0.18179306689957844 -0.05805861750702493 0.2188809417343217
0.18319624098932347 0.010780273676411267 0.19772093939174604 -0.20232114840244664 0.017599616045216235 0.06661060392365244 0.04453693887375469 -0.022852927885098916
-0.17474518652827228 -0.003512374885632553 0.14797685968542723 -0.20378717582135908 -0.19903546304319367 -0.05636104291735739 -0.05441336067625384 0.03885712708482137
0.01287081458025383 -0.07272667504019714 -0.04787326239355976 -0.08158225903367726 0.05161779118806244 -0.16341766175375133 -0.17645813476296202 -0.1951834243179197
-0.08560542547744293 -0.14546366891932136 0.1429179664697713 -0.09981955175499914 0.05078989335022679 -0.12543024441636247 0.20971863396274093 -0.018914384830309848
0.010170727117694 -0.012085256787240617 0.03584179306432769 -0.13099598171354976 -0.14344621179688608 -0.046072600151045945 -0.00938076709724596 0.16774308010862135
0.10183560606578698 0.19052410091755365 0.18897727334721906 -0.005816161371153665 -0.2162524099120861 -0.04506194299372507 0.17395708540145424 -0.09937394766432639
-0.08269632196273559 -0.02246001744558676 -0.12351812573709164 0.18962557274283592 -0.14258488511794984 -0.016439491475994085 0.041820960745981295 0.021628035007822725
0.02475379555138871 0.11577851330632355 0.14231482656337907 -0.009085483572660268 0.1888441719151803 -0.04780708285457414 0.20238178045978275 0.17087952730875514
-0.11657034776876923 0.04374516030194213 0.05808672292888442 -0.1751657525890122 -0.11914536277109694 0.15581573914841368 -0.045090497767554395 -0.0002857768677708547
0.09074810866590488 -0.2031323143139188 0.00763433596072415 0.12328104546100038 -0.13370795054572038 -0.15957417793093107 -0.17235455451247386 0.06353907717545675
-0.08072863909896189 0.13167693049041299 -0.07438150352775605 -0.011997290724519208 0.20901235085515485 -0.05755176028281953 -0.04871122195429912 0.10688408740591851
0.1792046115614721 -0.07981985871220275 -0.06997571018741558 -0.15001327446688395 -0.10147788074508726 -0.19823285294611184 -0.06971514668883921 -0.16962865383989406
0.19294421681064403 0.04636564959688718 0.19692382212725595 0.12219546147791845 -0.15175950993256054 -0.012112673535219037 0.10763503341928606 -0.012357543466045905
0.028643027648120902 -0.0581952334693299 -0.11439730101289443 -0.10338393847877243 0.07674367912536928 -0.08073551816053141 0.04806838698866259 0.11966407014148724
0.09814866141109756 0.06636157565921734 0.10333231916497279 0.11306013838859598 -0.19789167083485973 0.16535775702965613 0.02825971059289715 -0.1718337817620134
0.08111523641468332 0.15599109773520478 -0.18692683071016541 0.10101265429843918 -0.1834762875700383 -0.20506049940512072 0.05306837233338551 -0.0764635148761169
-0.10007411307590791 -0.032947243297328656 0.188874705275188 0.22172061694672038 -0.048433434710681546 -0.22214469476248924 -0.12141231874177325 -0.14329374637050107
-0.0006848727238246441 0.20340593207306215 0.002087362863374314 -0.0634042474914173 -0.08792144267873771 0.21431777240143182 0.08073514213053382 0.19113519450455232
-0.06058783529323255 0.01943921026380734 -0.15935540517478552 -0.012159849286074777 -0.019480603620814874 0.009660886814614245 0.10585861532851337 -0.122746365572414
0.02473513469944426 0.0851581345697162 0.08562058191558654 0.19869103586791131 -0.1553098669092107 0.055523833378414614 0.1267879642814494 0.09937999066599063

hidden_layer3.bias f8 [20]
00000000: 8486 b5d0 f935 b5bf edd8 1703 7d88 b7bf
00000010: 07af 490d d483 bdbf 6ddb 2e89 28eb bd3f
00000020: 71c6 f2f8 7d61 8abf edad 71b2 e34f b23f
00000030: e3a7 cae6 dcf7 c63f 69bc d42b ec05 ca3f
00000040: 5e10 5962 d910 c23f ccc2 82c4 fc33 b53f
00000050: 85bf 982e 3ddd a0bf 19e7 ef8d 42c8 a3bf
00000060: 34cb 33cb 1282 c83f 478b a039 d19e a7bf
00000070: d73d 6e2e bf13 b1bf c504 1d8d da1d cc3f
00000080: b4ac d15b 2c01 cc3f dbf3 05ab f368 b3bf
00000090: 1772 3a52 c731 ae3f db80 5ae0 37d6 c2bf
-0.08285485597073189 -0.09192639661327791 -0.11529279064569319 0.11686948155589301 -0.012881263885307722 0.0715315161375469 0.17943917531130102 0.20330574169335883
0.14113919546264503 0.08282451436640342 -0.03293791955763851 -0.038637237383183094 0.19146952554691554 -0.046133554729996855 -0.06670756228981332 0.21966106310177316
0.2187858055434383 -0.0758201878106343 0.0589735305668208 -0.14716242270242827

hidden_layer4.weight f8 [20, 20]
00000000: be75 0bdc 6343 c23f 3bad 69f8 a096 c03f
00000010: 6620 de14 7c8a 8d3f cca4 8547 dd7b c8bf
00000020: cbf3 ec80 9abf cbbf c1d6 0380 a808 c1bf
00000030: 76ec ef66 da14 c23f 6153 17a5 b4b3 c3bf
00000040: 620f 6648 aeb3 acbf 4a7e cb4a 6fe1 c6bf
00000050: 53ff adf8 2fd4 c1bf abb3 cccd b3f5 c1bf
00000060: 868f e2b0 ef9c 8fbf 1d35 ac5f f5f9 acbf
00000070: ef9b 345a eec5 c63f 34e6 9157 8f6e ccbf
00000080: 6f7f d8a8 0edd ba3f 1aa5 4faa 55bd c73f
00000090: b50d ff5c 7b87 c03f 1b1d 3be5 bac5 a4bf
000000a0: 5522 290e 3913 b63f f51e 6605 9e96 b7bf
000000b0: ddb2 74e6 c6a2 a8bf 500b da45 5eb2 c63f
000000c0: 32c5 0ac1 d1d1 babf 3669 74bd 660d 88bf
000000d0: a501 23ad c973 c33f 4dd5 63e0 0a36 cbbf
000000e0: 2880 8e01 46a0 c0bf b477 f6d2 a366 c6bf
000000f0: 05a8 2bbf f124 cb3f b4e9 160f bf27 b83f
00000100: bdd6 3da6 eba1 c4bf fea4 5b92 d77e c63f
00000110: b8f5 f94f 93c7 74bf 40b0 39d2 d805 a43f
00000120: aaad dcae 19a7 20bf 8deb a64c 6f4a bc3f
00000130: d196 6fe3 ccb4 b83f b9ab 2fa9 0109 bebf
00000140: 0dc5 e923 7e6d c1bf 808e ff93 3746 b33f
00000150: 9d08 6c8b a06c a83f bef8 d509 728f c1bf
00000160: 4a29 23be 0f2a cabf 370c f5d5 73d4 c9bf
00000170: 3296 af69 91bd 72bf d0a6 de01 cb33 cbbf
00000180: fd0f 775a b43c a13f 465b 5745 3238 773f
00000190: 9d83 5291 acdc a83f cdd4 c551 2a4e c03f
000001a0: 913e edac f54d c0bf a5cc 1e37 f8e8 b23f
000001b0: 5f10 4471 919d c13f f565 e0cf 5990 c3bf
000001c0: a529 4c7d fcf1 8dbf fb02 3663 adb8 adbf
000001d0: c30f 8906 478e c5bf 8905 74ca cba5 b8bf
000001e0: c8c3 7cba 76fb a1bf b4a9 27c9 d0bc c63f
000001f0: d953 61d4 3274 b2bf d8c1 578b 4204 a93f
00000200: 4860 612e 1d98 c9bf 1795 c926 b180 c53f
00000210: 0dfe eac2 60f8 c83f 9552 8ab1 5e4c b3bf
00000220: b79d 4eca e6d6 66bf 3dea e863 c518 773f
00000230: 967b aaf8 d753 c6bf 887d e2cc 4da1 cabf
00000240: 0af4 31a7 fe67 b9bf 4cb2 e5aa 34e6 c9bf
00000250: d6b8 c4d7 c8b3 c13f 7483 bdd5 a589 c53f
00000260: 2eba 7d44 5cbe abbf 2cea b812 ebc1 afbf
00000270: 3a6b 9c20 c8e4 cb3f 236a f77c 5b87 b63f
00000280: f73b eef8 1700 ae3f 4a54 fcd5 9208 a5bf
00000290: 6ba6 038b 3e1d cc3f cca4 046c 3932 c8bf
000002a0: 6b5b d049 eb66 c4bf 827a ac43 987b c7bf
000002b0: b23c f09f 9ad3 b9bf 6b2c 43d0 1aab bfbf
000002c0: ccef 3095 5664 ccbf 1f6f 556a c9f3 953f
000002d0: c0e0 0ce7 387d 683f bf38 a02a 5904 843f
000002e0: 2e38 afcd 50bc c83f e9a2 3c49 bde1 c93f
000002f0: eb20 c5b3 cb04 c8bf 2bee 9dec e70f 7e3f
00000300: f807 5344 7878 c9bf 4549 e1c4 bd89 c13f
00000310: 9cd5 03fe 91b1 ac3f e0a9 aa7b fe9d a43f
00000320: 284d 391f a256 b33f 3a93 0ff8 1df5 b0bf
00000330: e63c 9603 a925 c2bf a3a9 18fd 73aa c73f
00000340: a059 7b63 ea43 b63f 97ea 4bf1 a274 98bf
00000350: 1e63 28bf 26b4 b7bf c55c af89 2790 cb3f
00000360: d54f 7c5d 77bf aa3f 0d7d 259d 4fc0 c93f
00000370: c693 3c40 a68a c8bf bb18 6f6a 2982 c43f
00000380: f69e 91ab 5cc4 c73f 065d 6cc2 cbad 953f
00000390: 38cb 3cd5 7166 b7bf 2b90 248a 84ba b3bf
000003a0: 641e a6f2 a9a5 4abf ff23 a62f 6ae8 c53f
000003b0: 1a3f 4d70 8814 c4bf 26eb 07df 7256 c5bf
000003c0: d6f1 1caf 1061 9ebf a58a bd8b 5f28 b6bf
000003d0: 906b 24ce 398e c3bf 615b 4f93 fa42 b7bf
000003e0: 28de f782 edb9 c1bf ffb9 1e9a 1337 c23f
000003f0: c078 e5b2 b996 a2bf f25c f747 69bc a7bf
00000400: 279a 247e 5ea8 c53f 16c7 b7a8 adc7 ad3f
00000410: 5d54 21a1 5e10 b13f 6703 65f9 229f 9fbf
00000420: d236 6052 8d9a c03f 6419 5dbc 0b15 c93f
00000430: 4c87 4542 d3a2 b43f 0233 c63b 2f72 ccbf
00000440: 6f56 dbb8 de9c c2bf ce60 06ac baad b53f
00000450: 477f 7f92 6f5a b13f d56d 3cd0 87f5 cabf
00000460: e74f a5bf cd38 c2bf 2a08 f17b 8f80 acbf
00000470: a1a4 e079 b141 b0bf 7b0d c74b cf23 a8bf
00000480: f287 6bd9 56ff b13f 2d53 bf56 f21b a13f
00000490: 38bf 2c59 fcd3 b2bf 0df5 e0da 105f c03f
000004a0: ec61 d9ab 8b42 aabf d964 d143 3d57 c13f
000004b0: b6e3 9503 9cdf c5bf 8895 8c51 6da8 b03f
000004c0: 4da7 8d59 c656 40bf 1bf9 ab80 9e3b c93f
000004d0: f36b fe0e 04ec afbf 73bb 4056 43f8 c83f
000004e0: f44f 4123 b2a5 853f 1e83 e925 c66e bbbf
000004f0: b53c 89af d3a0 ae3f a2ea e9ee 2f38 923f
00000500: a3f8 9164 d07f ba3f 7c04 f4ec 4de5 b93f
00000510: d30f 4018 3213 ac3f 4693 a1cd c697 a63f
00000520: f333 08ea 2614 c6bf 1cbe ca6f e222 ca3f
00000530: 7553 ccde 95b7 c8bf 4513 eb22 6da3 b1bf
00000540: 36a5 3f83 d115 bb3f 9591 ce82 2cc2 a3bf
00000550: 7e0a 6e8f ed60 b23f cfec a58f 80d8 bc3f
00000560: ca4f 281a fb3c aebf 2c46 fdff 7d3a 9bbf
00000570: fbed 6236 a0c1 983f 6c2e 718e fdac c23f
00000580: bbbe 5872 df3e a83f a672 31ba e392 953f
00000590: 16f6 3968 26bc be3f 9bfc abee 73e3 c9bf
000005a0: efa4 9ed1 abd9 cbbf f930 02e9 023b c1bf
000005b0: 6853 27ef 8ac5 c7bf 86a4 fae2 9c18 86bf
000005c0: a049 3229 9c1e bd3f 3193 251f 950c bd3f
000005d0: 4f17 79a9 eaa2 a1bf 71be fd6a cc7b a23f
000005e0: a64d 76cd d325 c73f 884c 6338 5f05 b7bf
000005f0: be52 6608 e54a c93f a7a1 304d 5133 c4bf
00000600: e145 87f0 50c6 ca3f c55e f067 09b2 ca3f
00000610: a016 d521 1d33 a93f 5768 4de8 8d9e c13f
00000620: 3dec 49e3 0caf b73f b50b 8047 617e a23f
00000630: 8326 d255 0ae6 b0bf 1957 8c36 8b1a cb3f
00000640: b93c c37a 6945 cbbf 1882 3b62 8e38 b9bf
00000650: c842 1e49 9000 c03f 0c58 36db 1c37 b43f
00000660: 2b0c d3bf 3fb7 c33f ef6b 0f28 1120 c63f
00000670: 8f75 06e3 dc25 b2bf ae58 b7ca 9a5c c73f
00000680: 1f48 769e f46e c03f eed6 1609 3d81 c83f
00000690: 6b74 8f9b d598 aabf d064 674e 96a5 c53f
000006a0: 18aa e3ca cab2 a1bf aa5f b310 7db7 a23f
000006b0: 0cf2 94f5 e3ea c5bf 23d2 a9b4 c112 c53f
000006c0: b47d 03a9 da32 cb3f 6668 87ba 5301 b0bf
000006d0: 8ad8 fc5f d42c bdbf a5ad 06fd 7b3f c2bf
000006e0: a28a a3a5 91c9 c8bf 3797 0e05 f5eb bb3f
000006f0: 4cab 5e85 2bc1 bf3f 5006 f60c 85bb a9bf
00000700: 82fd 26ab 1c51 a6bf 884c 9717 f498 c13f
00000710: 8ec0 e0a1 3055 afbf 2d5e 285f 941e 9e3f
00000720: 74ed 9824 9447 c8bf 870e f72e d279 c7bf
00000730: b431 93da 4935 b8bf 41e7 548c c558 803f
00000740: ae80 cfc8 7145 94bf 2861 f8e8 c8b2 b53f
00000750: 65fb a5b1 a756 b33f 826d 6f33 2572 bd3f
00000760: f082 913e bf82 b03f 1a8c 7cfb f4a0 c53f
00000770: fd20 1b1a b4d1 bd3f 7e6a 630f af84 cb3f
00000780: aade f342 92cd c23f 4bd4 df66 1c98 c83f
00000790: 0466 190b c278 b2bf 5d3a 0772 a47c bcbf
000007a0: 863b e9d4 711c c3bf bfbe 5fb6 3a03 c9bf
000007b0: e248 ed07 0376 c2bf a656 f86c 4836 c93f
000007c0: 07bf 2933 6dcb c83f d786 8931 59bb a33f
000007d0: 78b5 31dc f6a1 b33f c41c e079 9702 c8bf
000007e0: 0f87 63c5 c7e7 543f a001 ef17 3b58 cc3f
000007f0: eae3 8e2b 2ea7 c2bf de8e ffbd 060e a63f
0.14268158192036923 0.12959682588130214 0.014424294840651618 -0.19128004066741366 -0.21678477568812435 -0.1330767273972722 0.141261387121492 -0.15392168103303575
-0.056058355653503936 -0.17875472213835258 -0.1392879451996075 -0.14031074093636894 -0.015436050973512538 -0.0565945319450327 0.17791537670674937 -0.2221240213000769
0.10493556616029108 0.18546553436252894 0.12913457909426787 -0.040571060640610855 0.08623081775397996 -0.09214198715028117 -0.0481168896024877 0.17731836710671667
-0.10476408923093031 -0.011744311005305801 0.15197106317465373 -0.2125867458013694 -0.12989115787513694 -0.17500732232013905 0.212064951271998 0.09435648077388842
-0.1611914216734273 0.17574591299425174 -0.0050731424704485925 0.03910710874774326 -0.00012705029023983339 0.11051078435313695 0.09650879433283001 -0.11732492809794239
-0.13615395310947812 0.07529017794836967 0.04770375921181478 -0.13719010811104754 -0.20440861496019586 -0.20179603526239173 -0.0045753174008261056 -0.21251809684081602
0.033666263621427085 0.005668827410281468 0.04855860971407042 0.12738541596232836 -0.1273791403168514 0.07386733384810158 0.13762109785614293 -0.15284273767683457
-0.014621708463455738 -0.058049600945201583 -0.16840446299658937 -0.09627984707551297 -0.03512164141137181 0.1776371938897917 -0.0720855492121041 0.04886062575303968
-0.19995465054194228 0.16798986810605562 0.19507989423253527 -0.07538406214218647 -0.002788019907217633 0.005638857894661839 -0.174433704775734 -0.20804760460030658
-0.09924308378136018 -0.20233782143204093 0.1382990888172972 0.1682631772664781 -0.05418670974801319 -0.06202635386985764 0.2179193648560956 0.08800288964213414
0.05859446443275112 -0.04108103620652821 0.21964246547513552 -0.18903272413562033 -0.15939084152406777 -0.18345931343442962 -0.10088507084604961 -0.12370460114031949
-0.22181207928394853 0.021437785258384353 0.002989398134015969 0.00977391873678035 0.1932469372099503 0.20220151973742098 -0.18764635351022405 0.007339387850034333
-0.19898894630574637 0.13701603043825564 0.0560422537400129 0.04026789912798612 0.07554066908169388 -0.06624018961117609 -0.14177429843082406 0.18488931520671512
0.08697380951648492 -0.023882432916233567 -0.09259264151513633 0.21533674452687115 0.0522420217149883 0.20118136571088777 -0.19173124443582718 0.16022222229930158
0.18567999246010175 0.02117079137960067 -0.09140693145745338 -0.07706478474261817 -0.000813205702159214 0.1711552364979809 -0.15687661632045363 -0.16670070543462961
-0.029667149246266643 -0.08655354653960019 -0.15277788701572748 -0.09086576553759819 -0.13848656554158478 0.14230580354110597 -0.03630619343560815 -0.04635933879370126
0.1692007175381189 0.0581640499548383 0.06665603097765556 -0.030880495521390296 0.12971655390031472 0.1959547681564785 0.0806095158382309 -0.22223463457739717
-0.14541229273042997 0.08468214702441232 0.06778619124042705 -0.21061799686218188 -0.14235851152136478 -0.05566833866079464 -0.06350239968800732 -0.04714820671099581
0.07030241783243676 0.03341634091308374 -0.0735471456252953 0.12790117919386326 -0.05128895256774854 0.1354748326437292 -0.1708865182406762 0.06506999245592315
-0.0004986256127328198 0.197131932094586 -0.06234753306417664 0.19507638656201784 0.010569946003819532 -0.10715902734365243 0.05982076185011335 0.01779246230806087
0.10351278739287521 0.10115515742292475 0.0548339514353128 0.04412671337266842 -0.1724899904951652 0.20418959101287804 -0.19310258272949068 -0.06889993765350962
0.10580167249976999 -0.038590804069175956 0.0717915034456755 0.11267856127772123 -0.05905899709992431 -0.02659031748709688 0.02417612392376432 0.1459042497175348
0.04735468169053322 0.02106815170224032 0.12005844158735388 -0.20225381044290178 -0.21758029685341948 -0.13461338403102 -0.1857160251371639 -0.010789132763721076
0.11374832158825265 0.11347324381274572 -0.03444608038675644 0.036100757656524325 0.1808418992264766 -0.08992571951539408 0.19759810361997227 -0.15781608838120784
0.2091771292166831 0.20855825019019938 0.04921809232704999 0.13765119402779888 0.09251480626146331 0.03612045285992541 -0.06601013751255817 0.21174755252348446
-0.21305578703183928 -0.09851922891858356 0.12501720018601348 0.07896595336782769 0.1540298163073158 0.1728536077124256 -0.07089024107559382 0.18251356981517602
0.12838609445003699 0.19144404357728412 -0.05194728397302913 0.16911581829371025 -0.03456720091510962 0.03655615643373207 -0.1712307881479237 0.16463490792706734
0.21248944523447977 -0.06252024940423126 -0.1139652952523155 -0.1425623879889432 -0.1936513956817026 0.10906916974508084 0.12404129034136452 -0.05025878699508424
-0.04358758534680886 0.13748026992707119 -0.061196822891703126 0.029413526828731818 -0.18968440806370845 -0.18340518277374349 -0.09456311785033372 0.00798181852825375
-0.019796159631255854 0.08475928962468926 0.07554100119703618 0.11502296930068748 0.06449504163311892 0.16897451667418367 0.11648107182839236 0.21498668910392732
0.14689853924914092 0.1921420576397018 -0.0721551205728233 -0.11127689155476035 -0.14930556198165962 -0.19541105179768256 -0.14422643553786602 0.19696908303074173
0.19370808599659758 0.038538729950926935 0.0766901290496288 -0.18757909251164595 0.0012759638680610063 0.22144259136804312 -0.1457269394575456 0.04307576245608201

hidden_layer4.bias f8 [20]
00000000: 3847 4207 6018 943f 93dd b762 eedd bf3f
00000010: 83e9 6419 367d c83f ad8d 87c1 ea49 cb3f
00000020: a2a6 1c68 afc9 afbf 3649 e931 1c9c c5bf
00000030: 1ec1 3b85 bf14 ccbf 130d a29c 6742 c3bf
00000040: 7af1 98c1 c402 b73f ed7a 27cd dd22 c83f
00000050: 00e6 9472 09ab b0bf 2cce 57d6 24f8 a3bf
00000060: c281 117e f8ce cb3f 107d 9eaf 8115 c7bf
00000070: b9d1 3a21 1aea cabf 95ee 7a7b c75e a83f
00000080: e00c a879 ec95 903f b6d1 58ad c943 9abf
00000090: c607 9de2 a287 b53f 2f66 f5d8 4429 cabf
0.019624233668373153 0.12448015127289684 0.19132114639235107 0.21319326829607857 -0.06208561082742149 -0.16882660328935523 -0.21938318257844797 -0.15046401165100373
0.0898859951639163 0.18856403844161865 -0.0651098160496062 -0.03900256268016408 0.2172537437027256 -0.18034382891799128 -0.21026922819659236 0.04759810812308022
0.016196913647957056 -0.02564921494031732 0.08410089523843486 -0.20438442796403097
