net_param/net_0.08.pth (torch, 17999 bytes, 12 tensors)

hidden_layer1.weight f8 [20, 2]
-0.18720589841545346 0.08862949815883502 0.1505499383303835 -0.02066824534581574 0.4488486390711236 0.056374550503267486 0.2839733731623567 0.16252573608462847
-0.03197809149522986 -0.2367682665267587 -0.09818941066537532 0.30717528137820316 0.616783106455904 -0.39623019044401203 0.1364694509256652 0.44265269988287254
-0.3974829632625731 0.5972236025966418 -0.4348255967430917 -0.35409350636260456 -0.5730633538458053 -0.692917756783204 -0.6447780897166842 0.09946561546289333
0.3766189576344753 -0.683365249970682 -0.6249458386338779 0.5064372558716493 0.24817360376093936 0.5432756945922712 0.6612266324543459 -0.45820933894370325
0.14656385103506434 0.32915497511802844 0.4576308099266369 -0.1320257168674983 0.4927271424690755 0.010962203950989586 -0.30589779944973533 -0.39760658429308665
00000000: 9905 a8e5 5cf6 c7bf 3797 0d3c 6cb0 b63f
00000010: b29b c56a 3845 c33f 70ce 4d77 0e2a 95bf
00000020: 8a88 6aa4 efb9 dc3f d5f9 7905 20dd ac3f
00000030: 32b2 aaa7 9e2c d23f 83f3 9eb0 a4cd c43f
00000040: 1a2e 52b2 6e5f a0bf e644 bb2c 6c4e cebf
00000050: 8e0d 9ff3 f022 b9bf bc2c ea82 c2a8 d33f
00000060: 3482 deec afbc e33f c545 69df d55b d9bf
00000070: d07c 50ba d477 c13f 23ea 5efd 6b54 dc3f
00000080: d383 fb61 5c70 d9bf faa8 31ac 741c e33f
00000090: b56a 5ebd 2ed4 dbbf 296a 63cf 77a9 d6bf
000000a0: cfb8 69f5 8856 e2bf 0b73 06dc 612c e6bf
000000b0: 1e56 10a9 05a2 e4bf f758 7d1d 9476 b93f
000000c0: defe 8566 861a d83f 2b1a fbcc 20de e5bf
000000d0: 8585 566a 8eff e3bf 213b 6ee7 bb34 e03f
000000e0: fd1c f113 27c4 cf3f 2089 9fb5 8362 e13f
000000f0: 1057 34c1 c428 e53f fd09 5f43 4d53 ddbf
00000100: 6557 7cb1 9ac2 c23f e7a5 5c07 e010 d53f
00000110: b1b8 91bc d249 dd3f 60a3 16fc 37e6 c0bf
00000120: c765 b06c d788 df3f 0a52 b11b 5a73 863f
00000130: cb84 235d d493 d3bf 03a3 0de3 6272 d9bf

hidden_layer1.bias f8 [20]
-0.2822739116191555 0.21176054938867056 -0.21427586108557573 0.4450385284825458 0.09309878704514417 -0.38444291930727725 0.3986410921439629 -0.2695459143510213
-0.5700886531655642 -0.14239861344299853 -0.5419823997334869 -0.19180484751650873 -0.3719585390449046 0.013642910584107852 0.5644903385134141 -0.4208432762737666
0.6552253997026471 0.4372039501026997 -0.5957848747130153 0.6993182081289219
00000000: e4c4 ba98 c610 d2bf e289 1a3d f81a cb3f
00000010: 18a7 d733 646d cbbf 4db8 52e1 827b dc3f
00000020: 47fa a775 52d5 b73f 1ea0 6679 b69a d8bf
00000030: 1c67 66ed 5583 d93f 8d1d ba81 3d40 d1bf
00000040: 4e56 258f 2a3e e2bf dce0 dd25 1e3a c2bf
00000050: 169d 3b79 eb57 e1bf 1c1a a6ad 0f8d c8bf
00000060: 8a9c 2a30 2bce d7bf 8f7a 3f76 d0f0 8b3f
00000070: b256 da0a 4e10 e23f a896 15a3 18ef dabf
00000080: 9c67 e741 9bf7 e43f 0de1 d746 26fb db3f
00000090: e300 0b71 ab10 e3bf 3f27 2d94 d060 e63f

hidden_layer2.weight f8 [20, 20]
-0.14223303937186005 -0.21398262027959553 0.00029274446871854363 0.027308989609659325 -0.04498165056863414 0.13472919410008966 0.10401324058705555 0.021072202632328955
-0.08893644501324492 0.03037277984242423 0.037896835777955676 0.08949310311623063 -0.1878645485190127 -0.182185379144611 -0.20362512797442095 -0.08791934497363746
0.05473726176588288 0.21110962518228577 -0.2034168009505361 0.01871482924887582 0.18738374774362632 0.014953984137192204 0.054277687835130935 -0.07585237782775558
0.054652604376442454 -0.17244288374974107 -0.1465778182566806 -0.007875070427428799 -0.17861269897926602 0.049365682000383236 -0.14522493023264174 0.02510931882842409
0.03897695870334708 -0.150653213765479 0.1156870296731816 -0.18721222710272611 -0.16247608261459093 0.10296080534331524 0.10726606736487326 -0.11273201828927233
-0.172794762962814 -0.16418463634334662 0.15713846541726623 -0.06101565106961231 0.06447437492089024 0.09623670751495315 -0.06744967671149629 0.057697379123985724
-0.10894646377201014 0.17344099037186694 -0.08305956563953744 -0.14372197490978003 0.08706529437541068 -0.16653159542408177 -0.16871974109476418 -0.16602846566892956
-0.18082244625942107 -0.12378126099187699 -0.13457199923879293 -0.21547783308782417 -0.13383562375717895 -0.10292278945194404 -0.21512089669690918 0.040062954290295966
-0.19643535253674377 -0.12020126103115084 0.1585559023881609 -0.005202360961160037 0.09839898128302597 -0.019374741498893688 -0.016541848070880456 -0.1769324464463422
-0.008813903372542843 0.08255954126782022 -0.11611166502281561 -0.21132668954838985 -0.19602113087934375 0.019271830941228286 -0.06243140716582505 -0.15141859450586126
0.03397329386010768 -0.1601844792589932 0.10314991865035604 0.07800912616090312 0.09033755081903183 -0.1971777700822578 -0.14347888728285593 0.017150149035971316
0.17383300921429895 0.1979839998839891 -0.03485672962792606 -0.10247282389501278 -0.1298678712471674 0.08225776041163849 0.21670176150765072 0.22066077851054783
0.04049610756845184 -0.08865816659644117 -0.16422744224306385 0.03262652809364971 -0.05332742301925272 0.16914214790538779 -0.17704402882277062 -0.0364302814366792
0.1801693459702986 0.1677246752359804 -0.13619526213151384 0.0010256008953402104 -0.12446725142427152 0.21869885738123157 0.10032508964239131 -0.06349076371098344
0.12899437719747098 -0.09623551430128681 -0.02552220459482318 -0.10693886107749254 -0.2234855581717922 -0.20254952702678927 -0.08259627144586916 0.21656172337437601
0.15575785573634188 -0.1287641539511989 -0.19105228384599648 -0.018214790524545898 -0.12053597503640923 -0.07543028020686544 0.14855285857150344 0.020347408124829616
0.20841933035599047 -0.005119218767723545 -0.09894770322727954 0.033168376109740785 0.11547778987312991 -0.20761320887379994 -0.07265038222573728 -0.06488007511644263
-0.04641453273036313 0.09719342009127674 0.1554749984358683 -0.09573607958998191 0.19419931331543613 0.15289131904494216 0.1493987281429432 0.15062785887566582
0.22191312951554062 -0.02923974085495945 -0.06528701438162325 0.05922383408253632 0.18329526024082168 -0.18351292189277887 -0.023589752473450312 -0.11839765360882085
-0.1238420782833887 0.16339416495155715 0.07843988099202677 -0.17778198841905418 -0.20299294778402222 -0.007844444016234195 0.09073177171241992 -0.06748657910931216
0.15511251948722854 0.010412746518134708 0.09357411854817874 0.17480911088648743 -0.1668097385581146 -0.19122096232123365 -0.10782307944232722 -0.011780834940897234
0.18273142053872882 0.006555138993287442 0.10418403060477323 0.18925438661530974 -0.1809489286357139 0.0684900591821239 0.10778029242306422 0.09455418269251652
0.09845620920273747 0.07163257713532496 -0.16740953613995846 -0.0436641826803958 0.04797516675189999 -0.22154300946256675 -0.09493066593090514 -0.08469885670058865
0.04648623820724231 -0.08939191987000479 0.197911188881172 -0.20644987072024146 0.1709565197216019 -0.11298517140402332 -0.21770100658332137 -0.2041337017808451
-0.021570654081966636 0.044741276306490274 -0.1012607440843798 0.20607337615356658 0.20113044055683987 -0.20557310049787408 -0.12779428865436743 -0.1298727751974577
0.1580192953095378 0.06868750306608726 -0.18100313788078734 -0.16839005026041795 -0.0035224717618016514 -0.07052967534871749 -0.161097844579188 -0.2104855852083166
-0.11421130927225165 0.18992896326066894 0.010063133962296083 0.08365366087730808 -0.1947207820560582 -0.0927086359432139 -0.10520944133865552 -0.17248588904563242
-0.17120821650175275 -0.20318557281107824 -0.02592104755127067 -0.10303412233884841 0.17777602567720407 -0.05080694131964862 -0.13127967673285054 0.20736109320430532
0.19075985642913273 -0.05045519843000189 -0.0850933304675138 0.05165235458806973 0.052981779489490725 0.10080647077602062 0.21438465319264066 0.14905606092813561
-0.1455411301161946 0.21648227897988348 -0.1369636472722336 0.09856009353419323 -0.06401662317872941 0.05016368499163372 -0.16840463541248027 -0.09673287080073079
0.034317767903409686 0.13882950905753116 -0.14550798100233595 0.029897356199739534 -0.18410968273327724 -0.08107355754509712 0.037491388537174264 -0.18483996737548494
-0.10929303354470582 0.11739630952415342 -0.025787743026412843 -0.1822608304215011 0.13249682638305854 -0.13629230422389016 -0.20130995781777897 -0.08090858078256966
00000000: 10a4 4136 b134 c2bf 26b2 0152 c863 cbbf
00000010: b6b9 52eb 6f2f 333f 9f89 0a45 e3f6 9b3f
00000020: 528a 39bc d507 a7bf 18f8 3c65 ce3e c13f
00000030: 5221 ac9a 9ca0 ba3f 1164 a494 f393 953f
00000040: a71f c1f2 89c4 b6bf f880 72c0 0a1a 9f3f
00000050: 428f 93cc 3667 a33f 5a0d 1a1f 05e9 b63f
00000060: 80c5 fb0d f20b c8bf b523 9eba d951 c7bf
00000070: 3ea0 a560 6310 cabf bcf6 58d7 e181 b6bf
00000080: ee69 50ba 8506 ac3f 9aad 03e4 a305 cb3f
00000090: 260e c5cd 8f09 cabf e7ec 4bee fa29 933f
000000a0: 542e 2ece 30fc c73f 8f5d 83c6 31a0 8e3f
000000b0: 790b 4ffc 48ca ab3f 6213 18ba 0f6b b3bf
000000c0: ac47 e018 6dfb ab3f 5d08 11c1 9b12 c6bf
000000d0: f8a0 dddb 0fc3 c2bf 601a 840f ce20 80bf
000000e0: 2814 62ea c7dc c6bf 0b07 796b 7546 a93f
000000f0: bddf f402 bb96 c2bf 6d8c c5dc 41b6 993f
00000100: a459 dbb5 c9f4 a33f d77b 14c1 9a48 c3bf
00000110: c387 0449 aa9d bd3f f0a4 68fc 91f6 c7bf
00000120: 4d1e 9b2a 04cc c4bf 0b28 b8ab a35b ba3f
00000130: 5c7b 4dfb c975 bb3f 2db6 c36b 01dc bcbf
00000140: b334 ec87 231e c6bf 82d7 cc8d 0004 c5bf
00000150: 9e94 f4fc 1c1d c43f 47b9 c683 713d afbf
00000160: af1b b783 6481 b03f a791 7307 f8a2 b83f
00000170: b205 9acb 6144 b1bf 8b0b cec8 828a ad3f
00000180: e266 ea5a eae3 bbbf 2e6d b77a 5033 c63f
00000190: 01b2 0a46 6443 b5bf e91d fa4e 7b65 c2bf
000001a0: 2181 f53f e949 b63f e76e 0c46 e850 c5bf
000001b0: 5486 18c5 9b98 c5bf f365 20b7 6b40 c5bf
000001c0: 3291 889e 3025 c7bf 3558 d1f3 20b0 bfbf
000001d0: d40e d8bf a739 c1bf f704 1013 c794 cbbf
000001e0: 08d6 8995 8621 c1bf b38d b5de 2559 babf
000001f0: f9ec ffdf 1489 cbbf 447a eaac 2183 a43f
00000200: ba36 762b cb24 c9bf aa16 1185 82c5 bebf
00000210: 5126 ac4f 8f4b c43f 28ef 0a23 124f 75bf
00000220: 0300 92f6 ac30 b93f 53c0 6ce4 f8d6 93bf
00000230: 2559 eba1 58f0 90bf c84d 8bef b8a5 c6bf
00000240: c1a3 e115 060d 82bf 24d2 b741 9f22 b53f
00000250: 8404 f57b 7eb9 bdbf 88ee 30c2 c00c cbbf
00000260: ded1 396d 3817 c9bf baa7 81ae febb 933f
00000270: 2d7c 0a68 02f7 afbf c858 b43b af61 c3bf
00000280: 2a14 2294 f264 a13f d640 dfcd ec80 c4bf
00000290: 0737 3077 0868 ba3f d58e a6f5 67f8 b33f
000002a0: b054 5e9a 5c20 b73f 4d31 0005 1f3d c9bf
000002b0: 5bee 4524 845d c2bf 3991 ec04 cf8f 913f
000002c0: 0635 c5f8 2840 c63f 2d06 512a 8a57 c93f
000002d0: 3e4c 98c3 bdd8 a1bf e09b 5bb3 a83b babf
000002e0: 7563 e7a9 829f c0bf aa68 cf36 d80e b53f
000002f0: 0f9a 5421 e2bc cb3f d639 9bc5 9c3e cc3f
00000300: 675c 3ee3 e7bb a43f bd16 0e36 4db2 b6bf
00000310: 8014 c5a2 6705 c5bf 3bdb 499e 6cb4 a03f
00000320: ecfe b163 bb4d abbf ae7d d02c 73a6 c53f
00000330: 0979 dff4 60a9 c6bf d88f b566 fda6 a2bf
00000340: f691 5704 ca0f c73f f674 6f8d 0078 c53f
00000350: c6cc 5caa d86e c1bf 1394 7893 aecd 503f
00000360: 314e 4af6 15dd bfbf 9efe 0ffc 52fe cb3f
00000370: 927a fbb2 e7ae b93f d49a bc41 ee40 b0bf
00000380: dc2b b743 e382 c03f b544 a302 e4a2 b8bf
00000390: cff1 3928 7e22 9abf 4ad3 ff5e 5860 bbbf
000003a0: 95f2 bcbd 2c9b ccbf f33d 3395 24ed c9bf
000003b0: 0bad a17c 0725 b5bf 02ab ba67 4bb8 cb3f
000003c0: 46c8 3d98 dfef c33f 840a 0f03 587b c0bf
000003d0: c0ea 78b7 6674 c8bf 23f8 6ce6 e5a6 92bf
000003e0: 80d9 c516 72db bebf b5d9 9d1a 664f b3bf
000003f0: a75d a5b2 c703 c33f 846a d171 f3d5 943f
00000400: 78d9 dd0f 7cad ca3f cfdb 03d3 e3f7 74bf
00000410: 691f 60fd a254 b9bf 2237 4e05 72fb a03f
00000420: 4561 ebd2 f38f bd3f b350 2ad3 1193 cabf
00000430: a891 b327 3799 b2bf 4d82 c908 fb9b b0bf
00000440: e3a5 4548 a5c3 a7bf 20ad ad00 abe1 b83f
00000450: a758 d0d0 9ae6 c33f abdf e2e2 2882 b8bf
00000460: e337 cce9 85db c83f 49f6 9157 f191 c33f
00000470: 480e b85d 7f1f c33f 0266 de0f c647 c33f
00000480: cb3f e940 a667 cc3f 50bd dcca 05f1 9dbf
00000490: ab5f 9f57 a6b6 b0bf 5573 0e1d 9652 ae3f
000004a0: 7581 1f16 3876 c73f 2f21 f6f6 597d c7bf
000004b0: 44aa 937d e927 98bf 2a4b 2c02 4f4f bebf
000004c0: 1288 184c 1db4 bfbf 517e 6999 19ea c43f
000004d0: 5d19 90d3 a214 b43f b2f1 0969 8fc1 c6bf
000004e0: 8887 0644 acfb c9bf 854c 0a74 bf10 80bf
000004f0: f485 3688 323a b73f 7c83 31ea cc46 b1bf
00000500: 6aeb 321f bada c33f 732f 0e2e 4753 853f
00000510: c69c ea32 79f4 b73f 4470 261b 2560 c63f
00000520: f675 e181 055a c5bf 3c5b bdb1 ed79 c8bf
00000530: 4474 f517 4b9a bbbf 0d69 53e6 8c20 88bf
00000540: e42d 9541 be63 c73f 22eb 8cb9 8fd9 7a3f
00000550: d184 36fc cdab ba3f e692 91dc 7c39 c83f
00000560: dd49 5ea1 5529 c7bf c7cf 4984 9088 b13f
00000570: b241 1c3f 7d97 bb3f 3347 5df2 b334 b83f
00000580: 0128 9d16 6d34 b93f ddd9 1f38 8356 b23f
00000590: 443c 61f9 ac6d c5bf 79dc 3cd9 265b a6bf
000005a0: c769 7078 3390 a83f 4f4a 2676 855b ccbf
000005b0: 978c 8f49 604d b8bf 61a1 8903 d3ae b5bf
000005c0: 13db a051 0bcd a73f 6d4a 5e8c 63e2 b6bf
000005d0: 11e9 e061 2755 c93f f4e0 8009 f36c cabf
000005e0: 5902 9f3a e7e1 c53f f1fc 1ca0 98ec bcbf
000005f0: 6073 ca67 a0dd cbbf b07f 949a 0d21 cabf
00000600: b46c 5717 9e16 96bf c00c 091d 54e8 a63f
00000610: 8006 3660 39ec b9bf b4f3 93c5 9c60 ca3f
00000620: 3efa 356c a4be c93f 3ab0 c927 3850 cabf
00000630: 766b 3131 905b c0bf 5692 0ecd ab9f c0bf
00000640: 36e7 beec f939 c43f 0610 5013 8195 b13f
00000650: 23ef d55e 1c2b c7bf ab8e 6b1f ce8d c5bf
00000660: 06a2 93a0 28db 6cbf 622e 0599 3b0e b2bf
00000670: e93b f6aa da9e c4bf dbe3 5f10 31f1 cabf
00000680: 905c 28ce f33c bdbf ea45 e29e 974f c83f
00000690: 034c 1bfa fa9b 843f 68a1 a889 536a b53f
000006a0: da22 644f 9cec c8bf d1d0 6ecf c0bb b7bf
000006b0: 31ab c785 01ef babf 177a 3c82 0414 c6bf
000006c0: e73b 579d 26ea c5bf c60d 1f1f fc01 cabf
000006d0: e006 0b0e 0c8b 9abf 3d42 d1b9 7160 babf
000006e0: 00f2 2564 5dc1 c63f 865f c10e 5e03 aabf
000006f0: c738 19bf c5cd c0bf 013d e3ec ce8a ca3f
00000700: 1c5b 60a8 d16a c83f 9e10 5786 43d5 a9bf
00000710: 9a37 772f adc8 b5bf f22e 6f6b 2d72 aa3f
00000720: 07eb 6184 6d20 ab3f d44b 35ef 73ce b93f
00000730: 4c04 1dd1 f470 cb3f 8c7c 7add 4414 c33f
00000740: 3735 097d 17a1 c2bf 38ea 30fa b0b5 cb3f
00000750: 3a37 e358 0688 c1bf 1e89 6bfa 3b3b b93f
00000760: b4f7 f3b6 6463 b0bf 92c9 f8f4 0daf a93f
00000770: 33b3 cb78 488e c5bf 988e 8944 7cc3 b8bf
00000780: e13b a235 1992 a13f 3298 8f54 2ac5 c13f
00000790: 8b23 db69 01a0 c2bf 7d7f 759c 699d 9e3f
000007a0: bdb1 1bf5 e790 c7bf 3e00 3a96 3cc1 b4bf
000007b0: 902e 4c3f 1232 a33f 858a 6f07 d6a8 c7bf
000007c0: 0451 c1d4 a0fa bbbf 0ccc 133e af0d be3f
000007d0: bf8f be23 1a68 9abf 6c46 00a9 5254 c7bf
000007e0: 9ecb 11f0 a7f5 c03f 9046 abb6 0672 c1bf
000007f0: 3ddf 9752 86c4 c9bf 064a 6dbc 6cb6 b4bf

hidden_layer2.bias f8 [20]
0.10384323100257324 -0.1692818259388577 0.2096341555454169 0.15997741635155233 -0.17240021065732222 0.1166691722667968 -0.18408154582293457 -0.1498948116393355
-0.08157003948412694 -0.14121168264452236 0.15771248734283766 -0.16469750083460963 -0.014819595470696197 0.1013195693302632 -0.018317633387812844 -0.1980742324876867
0.1319512588259536 0.06117589203849185 -0.19763279291219424 0.05439228339034129
00000000: 9328 1151 7895 ba3f a676 1be1 06ab c5bf
00000010: 2198 18c1 4ad5 ca3f 0e0c aad5 237a c43f
00000020: fb60 4cc9 3511 c6bf 2458 56e7 07de bd3f
00000030: 08a6 8ded fb8f c7bf 105f ead0 c02f c3bf
00000040: ecf1 ea2b c6e1 b4bf bdbb 6273 3913 c2bf
00000050: 6e76 a73b ec2f c43f 7fa6 e8c5 ce14 c5bf
00000060: 71bc 176f bc59 8ebf 88e1 b74c 14f0 b93f
00000070: d2f3 5c91 dbc1 92bf 5782 5b17 7f5a c9bf
00000080: 8468 a962 c7e3 c03f 33c8 374f 7252 af3f
00000090: e366 1607 084c c9bf 6eef a12c 4ed9 ab3f

hidden_layer3.weight f8 [20, 20]
0.162048642033883 -0.0862968420157064 -0.14319253459535344 0.10015275177301623 -0.057056473974478356 0.005196036993231694 0.16652800297885206 0.021167801670941573
-0.1262474591217548 -0.1754881986759163 -0.20918518566209063 -0.04743093041344027 0.22302819295006657 -0.09364463986479582 0.13727275949410822 0.11295587708022144
0.13496311917450377 0.12250918468409228 0.03602854311957344 0.17169924835168976 0.012238615002341822 0.04580544349332211 -0.09305162766415981 0.20402835952158233
0.21886338910328165 0.19512140355708582 0.1705604990464229 -0.07072537579942492 0.13614599031807606 0.06648606496072519 -0.1637853271833035 -0.011431958972775578
-0.21765272349167286 0.10324338044495146 0.023163368495469825 0.20264072335294453 0.003218065331518442 0.1462338763554073 -0.06886139288305615 -0.061829643007980065
0.0535235222545455 0.19052137724224655 0.028523731704566475 -0.0027300812506632103 0.011214880289456683 -0.054165705637259705 0.09984184840417333 0.08828158658501895
-0.039798923993709406 0.11712970191935002 0.04910935784884937 0.06304828297883108 1.8771011903413734e-05 -0.021024494671767847 0.015890636655798325 -0.17000788702602918
-0.19903789939015273 0.11954974001390697 0.03937699748748704 -0.050271806185341494 -0.10033932727357361 -0.0620796693261061 0.06611172242642348 -0.05109729184954758
0.14061596363654721 -0.07725343262659319 0.10665168299214728 0.09712008718297306 -0.07450032754706604 0.1487587329928699 -0.16326359839151927 -0.1952776187125477
0.013915837454918792 -0.2116690151527324 -0.10099289650923837 -0.03711221231394372 -0.13718628755573187 -0.049520281515670235 -0.009850771813431428 -0.09117614575135048
0.1430715964045931 -0.012891274452569842 -0.04583214577245051 -0.12248376726960407 -0.12369864913972088 -0.1996099363953004 0.11187151837164748 0.1827075557448423
0.1299852269361851 0.09831525897274138 -0.05197521291624184 -0.15618407762888223 0.2151088021414555 -0.1594256520426636 -0.12034688364336683 -0.09195240183152867
0.10715430381798542 -0.09791125101558254 0.12298192166983392 0.12556278950322236 -0.033387914050218945 -0.18476347840423968 0.11548956700100825 -0.20534344050486966
0.09191438105346501 0.2077285184784589 0.10881105267699086 -0.10995991802702874 -0.1445462139179592 0.1435982150182835 -0.07329982425379877 -0.04731509801897573
-0.1926986119839457 0.014287065568917883 -0.18941783635447962 0.0356902471836483 -0.17595545987250488 0.11115651448957044 0.10432311505335712 -0.008467267670909068
-0.025751510620834837 -0.12342747964150286 -0.19554079071639213 -0.1979201025031834 -0.17514192089386746 0.007045275342704517 -0.0017250543102829668 -0.21381311002351658
-0.08140679542144119 0.1254150794029369 -0.024869502030282327 -0.05165690439248649 0.17674784284065412 0.13161722275311838 -0.1067812595366857 -0.13621303842901752
-0.17084970971554986 0.13991061570156743 -0.01064135552453103 -0.16527863826325062 0.16160007885167316 0.1825081698231063 0.004695469720926036 -0.10271749202011085
0.035006221757962246 0.006519814423218453 0.19382726483481688 0.12728893742628197 -0.08774724761132663 -0.14570144744581948 0.16252468171015655 0.1114705435953907
0.0063413927884515406 -0.021640448119884855 -0.16583488135035437 -0.1776063649008433 0.02040610894015487 -0.03532628870254668 -0.1435936425242372 -0.03449898861750932
-0.021934242091254868 -0.16935420985059083 -0.10016145155811182 0.1718212462450146 -0.13265596523920925 0.03303803504527134 0.06766103755129778 -0.13260537008819592
0.15127840772319717 -0.20694145567177694 0.09578040221245986 -0.11947923373744157 -0.1169526893110636 0.017024368694666368 0.019797668778739744 0.08746097320639042
0.20322741154297383 -0.1939199237366056 0.11950319309072482 -0.08637149905795061 0.07045599096176627 -0.13222139116323495 0.19558778487088865 0.07578899706478427
-0.12867646440413155 0.10057786129994306 -0.2225152086474051 0.16926637268163822 0.20794462107438735 -0.1656075969981327 0.10228085318963623 0.18804585850424915
-0.16495040542111036 0.1303042221029276 -0.14074691239341072 0.20916515711721734 0.15080781827214304 -0.026705721448792203 -0.15166419080189156 0.1715244102824584
-0.13809842097386835 0.1980612424430595 -0.0015885154894724261 0.018988776161720605 -0.04043257478088367 0.023972678703990908 0.0061455970820772894 -0.0833896438963423
0.0003075447849634211 0.017538203851420443 -0.04728653282558686 0.10170617555381883 -0.009785666897532169 0.004961207272744701 -0.08218894634965622 0.1257039394977081
-0.1652441043833268 -0.15934002582913898 0.06792135138797728 0.05132628970664806 -0.09477565634030218 -0.1443677590197981 -0.20780288865130275 0.16064598692611365
-0.1679934916876723 0.17101484873403866 0.2054028909379367 -0.17779021780425228 0.17030491793677746 0.16230895087834013 0.09249332105970852 -0.026102315257033968
-0.16188072751243904 -0.1629008282007405 -0.09886756750615197 -0.0306698738787783 0.09697294149066679 0.21108755435384574 -0.15672285564153457 0.025654495956279128
0.15982714123230365 0.06976239344402098 0.18319479501828137 -0.11296246373042913 -0.053730711237160715 0.01088657627183954 -0.01051228777609064 -0.2005770572729425
0.03385689283998677 0.15182239416631566 0.17525189502320937 -0.1256482887681099 0.10015365285390035 0.21197664191239865 0.19271719830872028 -0.1853300287588905
00000000: 53c8 f288 02be c43f 1e9e 34c2 8c17 b6bf
00000010: 7527 8f0a 2254 c2bf db31 7859 9ca3 b93f
00000020: e4ac 7d93 8136 adbf 9299 468f 7048 753f
00000030: 38c8 5423 ca50 c53f 42a0 9e1f 03ad 953f
00000040: b7c5 1072 e028 c0bf 42d1 12b5 6576 c6bf
00000050: 9bf9 9c85 94c6 cabf b19f e3ed dd48 a8bf
00000060: d73b 6715 308c cc3f 2c3d aa59 18f9 b7bf
00000070: cc55 545e 2792 c13f 0d57 f325 adea bc3f
00000080: 78a4 82b3 7846 c13f 5484 ad0d c35c bf3f
00000090: 9999 d74c 5572 a23f 828a 35b0 3dfa c53f
000000a0: cc96 7719 8f10 893f 38b0 90a3 cf73 a73f
000000b0: 043a a841 3bd2 b7bf 5e05 cded 991d ca3f
000000c0: b9c2 3e2d b703 cc3f 9f7e 83f7 bcf9 c83f
000000d0: e068 b22a edd4 c53f 864b 0ee8 0e1b b2bf
000000e0: d4e6 f257 3b6d c13f 4963 a512 3b05 b13f
000000f0: c391 e8e7 eaf6 c4bf 7299 568f a369 87bf
00000100: bc1a a460 0bdc cbbf 1c20 8a7e 286e ba3f
00000110: d9ea 9c58 23b8 973f 46c0 d197 21f0 c93f
00000120: bc50 5eab c55c 6a3f 9cc3 41aa cab7 c23f
00000130: 90c5 6376 e6a0 b1bf ba06 498d 22a8 afbf
00000140: f2cc 4c63 6f67 ab3f badf 3826 0163 c83f
00000150: 65ef 523b 5335 9d3f 0614 fc35 655d 66bf
00000160: ebfc 92c0 d3f7 863f d9b7 8d7c 9bbb abbf
00000170: 8909 ab41 3c8f b93f f8bd 383f 9f99 b63f
00000180: 0c1d f049 8660 a4bf 2043 224f 36fc bd3f
00000190: 4cd8 c69b dc24 a93f 5489 76a9 ee23 b03f
000001a0: cc94 a51d ceae f33e aae4 1ef4 7187 95bf
000001b0: 5241 ff92 a245 903f b35f 6b85 d1c2 c5bf
000001c0: 91ca 45ea 127a c9bf 72e3 9acf cf9a be3f
000001d0: f3cb d8c8 3829 a43f 382b f4e6 39bd a9bf
000001e0: 0684 2491 d6af b9bf e115 010b e8c8 afbf
000001f0: e726 b4a5 b2ec b03f ffe1 d09a 6c29 aabf
00000200: caa7 8e32 b4ff c13f 8d8c a286 e1c6 b3bf
00000210: ecbe 8352 864d bb3f 394c 3cae dcdc b83f
00000220: a81e 5b16 7412 b3bf 6071 99b2 860a c33f
00000230: 6403 dc53 d2e5 c4bf 5d6d 0165 dbfe c8bf
00000240: 5564 1f16 e87f 8c3f 6c29 d464 f817 cbbf
00000250: 90af a2a3 abda b9bf 7558 5734 5f00 a3bf
00000260: 7e79 41fd 518f c1bf d170 32eb b85a a9bf
00000270: c87c 3b36 a42c 84bf c168 2de4 5157 b7bf
00000280: 9ca9 c589 2b50 c23f 2b9e 6b91 bd66 8abf
00000290: cc77 659e 4f77 a7bf 37bd b69e 185b bfbf
000002a0: 8b4e 9df4 b6aa bfbf 5a21 6382 d18c c9bf
000002b0: 3395 c2a0 9ca3 bc3f 2ffe 5310 f662 c73f
000002c0: 05b8 531d 5ba3 c03f 7e56 fc55 302b b93f
000002d0: 1e15 5bbf 7e9c aabf 7536 c900 d7fd c3bf
000002e0: a6bf 236b af88 cb3f f156 d54c 0f68 c4bf
000002f0: b57c 6ca9 0dcf bebf 6ab2 a74e 318a b7bf
00000300: 011e 86e6 766e bb3f 4aba 0535 b610 b9bf
00000310: 3938 9243 be7b bf3f 4264 4105 7112 c03f
00000320: 86cd da7d 3818 a1bf 94e6 9e64 54a6 c7bf
00000330: 8b6c 4c69 b990 bd3f 1551 b5a0 b148 cabf
00000340: 6d1e a86c b387 b73f a6df a71c d996 ca3f
00000350: f7e5 b088 0adb bb3f 8f03 cc4b 5526 bcbf
00000360: 88e5 c486 7d80 c2bf 8f3d a222 6d61 c23f
00000370: 30fd f8fb c6c3 b2bf 3373 323d af39 a8bf
00000380: 6d52 3a1e 59aa c8bf 3696 fe7a 8942 8d3f
00000390: 00f6 35fa d73e c8bf ec3d e1f8 fd45 a23f
000003a0: 0a3f da60 b585 c6bf 8955 78da c074 bc3f
000003b0: c8fa 5e6f ebb4 ba3f 2a40 dd6d 4957 81bf
000003c0: c99e c19f 9a5e 9abf fcea 7c7c f198 bfbf
000003d0: de97 940a 7b07 c9bf 196f bc27 7255 c9bf
000003e0: 73ea 32eb 0c6b c6bf 9bfe 02b3 81db 7c3f
000003f0: f3e0 2cf6 6643 5cbf 21e7 805d 3a5e cbbf
00000400: 4cdb 0164 13d7 b4bf 5efd 3af0 990d c03f
00000410: 522d 8d07 6477 99bf 70e7 f415 c672 aabf
00000420: e7cf 515e ac9f c63f 9c51 a849 d5d8 c03f
00000430: 1f27 8941 0456 bbbf b3b3 abc8 6d6f c1bf
00000440: 5e33 e13d 67de c5bf 1e96 664f 97e8 c13f
00000450: 7529 b48f 22cb 85bf b4b6 08b5 d927 c5bf
00000460: 7077 d9b6 4faf c43f a64f 527e 6d5c c73f
00000470: f173 408e 8e3b 733f b219 f48c b14b babf
00000480: f7c4 36e3 55ec a13f 6953 945b 85b4 7a3f
00000490: 1ef3 c4f1 54cf c83f 6fb9 b1ff 004b c03f
000004a0: 54fe cd86 9a76 b6bf 743c e153 58a6 c2bf
000004b0: 8c74 5ed8 9bcd c43f c3a4 3563 5589 bc3f
000004c0: 4f28 33aa 6ef9 793f ff62 c8e3 e928 96bf
000004d0: b3c8 f7cf 133a c5bf 92c0 672c cebb c6bf
000004e0: ce74 25ca 56e5 943f 793e 558d 4916 a2bf
000004f0: f70d 47c7 4661 c2bf 3fed b6f7 d9a9 a1bf
00000500: 6b27 c711 ee75 96bf 4dc5 5f14 66ad c5bf
00000510: 0611 c34e 2ea4 b9bf b0ad b014 3dfe c53f
00000520: 022e 29e4 defa c0bf 2d4b 1680 5cea a03f
00000530: 5d0a 7fd7 3b52 b13f 6fc1 e677 36f9 c0bf
00000540: 068c e142 175d c33f 5501 26c0 0e7d cabf
00000550: 67a9 197f 1085 b83f 6415 74e9 3096 bebf
00000560: 3730 c587 9cf0 bdbf 5953 1d0b d66e 913f
00000570: 3454 c40f d745 943f 0d08 99a3 d763 b63f
00000580: bb28 1d17 5b03 ca3f a0ea 3e39 5ed2 c8bf
00000590: cc9c 17e2 c297 be3f 18a9 c24b 711c b6bf
000005a0: 5af1 fc60 6709 b23f 0c59 706b a1ec c0bf
000005b0: 173f c241 0509 c93f 2136 ca5f e866 b33f
000005c0: 3eb9 306b 7878 c0bf 1021 fc80 78bf b93f
000005d0: 8e69 00dc 607b ccbf ab76 7d3f 85aa c53f
000005e0: af61 72e9 ed9d ca3f 8ebe 8936 a132 c5bf
000005f0: e2da 74f7 132f ba3f 6c45 36fe e211 c83f
00000600: 2770 5f4a 181d c5bf d93c 3b0a cfad c03f
00000610: 0310 dfac fe03 c2bf bafc a382 ecc5 ca3f
00000620: 27e0 baab ab4d c33f 3560 f4a0 be58 9bbf
00000630: 75f5 bb71 bb69 c3bf fe7d 500a 83f4 c53f
00000640: fb22 db84 35ad c1bf e2f3 721f 125a c93f
00000650: 1ef1 e484 b706 5abf ab30 6c32 cb71 933f
00000660: 2d02 c114 94b3 a4bf 85e7 1f3c 4b8c 983f
00000670: 7dec b527 202c 793f d920 5c11 0659 b5bf
00000680: 0b10 21cb be27 343f 3ac5 e3ef 88f5 913f
00000690: 77e3 0dc0 f035 a8bf 0c0d ce79 6a09 ba3f
000006a0: d608 5bfa 810a 84bf d508 c3ef 3352 743f
000006b0: d71a aab4 550a b5bf 8d7d 8f12 1117 c03f
000006c0: 0f73 1704 b826 c5bf 1ca2 f003 4165 c4bf
000006d0: 3057 e92e 4b63 b13f 4a1e 6e7f 7047 aa3f
000006e0: b143 70a8 3743 b8bf a21d cb89 a47a c2bf
000006f0: 3ec6 62f9 4899 cabf 1868 0a36 0c90 c43f
00000700: aca4 5e8c cf80 c5bf f2b6 3887 d0e3 c53f
00000710: 9388 8a55 a44a ca3f 2f4d 8271 d4c1 c6bf
00000720: 4f76 7132 8dcc c53f e66d ef29 8ac6 c43f
00000730: afc4 0c6d a4ad b73f 59ef 83b9 90ba 9abf
00000740: ea61 42f7 81b8 c4bf 0187 ce30 efd9 c4bf
00000750: 56f1 1289 624f b9bf 848f 2065 ec67 9fbf
00000760: 3ea1 4cfc 37d3 b83f 086d 45bf ea04 cb3f
00000770: 3910 c299 7e0f c4bf 25a5 8214 2c45 9a3f
00000780: b38e 4d3c 3775 c43f 6d2f 55be f2db b13f
00000790: 1352 b352 ed72 c73f ddd4 65a7 1beb bcbf
000007a0: 97dd 1b7f 9782 abbf 8576 6c88 b34b 863f
000007b0: 9db6 a261 7787 85bf b458 a84e 82ac c9bf
000007c0: e7dc fbce b055 a13f de53 df8c ea6e c33f
000007d0: 18e6 d772 a76e c63f c258 873d 3e15 c0bf
000007e0: ba1a 9577 aba3 b93f bdcb 43f4 0c22 cb3f
000007f0: f56c 0e08 f5aa c83f f53a 3ef6 e4b8 c7bf

hidden_layer3.bias f8 [20]
0.009539614289666284 0.11668256755020837 -0.07233632871615044 0.16137929815864008 -0.11542055404929341 -0.1357306896007745 0.08326978134727167 -0.10454448354821697
0.16578785975736396 -0.10899266105400884 0.14401269496616576 0.17486469223585205 -0.11654178058254389 -0.07160177289790266 0.13527937439211324 -0.1383221639482079
-0.015945886609117117 -0.0016543963168177346 -0.19944506925498776 -0.13354841117092991
00000000: abe3 1f5b 8189 833f 7236 a4a3 e8de bd3f
00000010: cd08 2636 a284 b2bf 9de0 ebab 13a8 c43f
00000020: e08b ed90 338c bdbf a40d 738c 9f5f c1bf
00000030: b6b0 a11b 2b51 b53f ee19 d161 6dc3 babf
00000040: c3a8 dd5d 8938 c53f 9021 bb6a f1e6 bbbf
00000050: 2854 8b0b 026f c23f 3e65 305b f761 c63f
00000060: ec39 38a0 aed5 bdbf d59e ee68 7e54 b2bf
00000070: 1832 6ba4 d550 c13f ae18 3c69 8ab4 c1bf
00000080: 02b0 f755 1e54 90bf e29d d284 0a1b 5bbf
00000090: 6d39 e680 6a87 c9bf 4eb9 3445 1d18 c1bf

hidden_layer4.weight f8 [20, 20]
-0.06916425730137847 0.05027508561105004 0.1233711621800237 -0.14662829636390515 -0.016208177868277242 0.08391109703188393 0.21999236533877176 -0.08244973335427043
-0.19853414184060772 0.05030325643684999 0.08545797817177334 -0.18619328390242992 -0.0972535975524293 0.10670288716000391 -0.15681824519635032 0.12596485475625777
0.06118195371246909 0.08585865432000983 0.14412234929669682 0.12312108460581515 0.07849457023289994 -0.09426583836020716 -0.030017987526414765 0.13924070766313978
-0.15138855305014098 0.10222167712843225 -0.13628054138327056 -0.18543580788696437 0.07381437709164626 -0.01004981261504957 0.14064742459348234 0.19367380148584068
-0.03854201436889194 -0.04375380414051367 0.1546622456306432 -0.16221587878970165 -0.032999535309187075 -0.20652766691391625 0.21757257460452795 0.06343506363179865
0.1922800953402862 -0.196554546218832 0.17261042504240076 -0.2115014541348696 -0.1760059717213473 0.17202546252884143 0.06174418037134053 -0.09715642398302152
0.07160423220626537 -0.0013868547691195273 -0.1184026227567892 0.04626193847869214 -0.12234719356997095 -0.11525835914972378 -0.12461749566417109 0.17574221197132264
-0.03035511770429437 -0.2234687534209672 -0.06538745349616877 0.08892699588399353 0.03521677228448648 0.039064610027753195 -0.0024744548830125087 -0.13991120271618523
0.12304614258661642 0.07718644842052601 0.1917778817435241 0.09262521908326034 -0.1723535567017142 0.013740413391269458 -0.06236525405645269 -0.05100352804696711
-0.12764290102497586 0.137472926620524 -0.01883006469628959 0.02709414202598124 -0.05047699910788569 0.024266039689315427 -0.20181731590854615 0.047612721031249104
-0.12252867179820064 -0.1825613781059483 -0.18154222566323283 -0.07671602371308031 0.026878093734348595 0.20456629665041154 0.04323606528086128 -0.0912724549658697
0.07541278675446392 -0.14602721193486284 -0.12291345072822488 -0.0878358626194257 0.18630563115457516 -0.0027449584260175633 0.14737286830398613 0.12898973990820453
0.09769063499212459 -0.050899453593286605 -0.03649954003651565 -0.2129282211433163 0.032025929818111164 0.1589488206083463 0.047573460383478997 -0.1265736618775089
-0.05275846942754942 0.16135039536863935 0.1329514735127888 0.02099633096842184 -0.18762367911475064 0.16539760467731898 0.0929289322818923 -0.09387290427800661
0.11878259993511002 0.08746846400593423 0.15804361599643707 0.16269563889354785 0.02452108990495003 0.07659599345673933 0.21944106118147874 0.2152797561828758
0.16243235339403678 0.06449028938686192 0.17868411187856248 0.2186553154526988 0.2099494252883889 -0.1928415772941997 0.1716348270937468 -0.17065655900067328
0.18928184588994024 0.1358598478836128 -0.11168786987682074 -0.17552491792207175 -0.16999138587526696 0.0005509131550458248 -0.14635599824974638 0.06405577183117217
0.1562195640774368 -0.05518253069584851 -0.04536756445971637 0.0865851000912604 -0.14671456668881164 -0.14277561204694814 -0.07798939311371642 0.17357088486235417
0.14115951414787434 0.05971102994729395 -0.034512808041945744 -0.18199993334054146 -0.02023893646544426 -0.04698544022404497 -0.0018673760884101193 0.09155536549835615
0.18367163336115042 0.03121839041748708 -0.16269403695869974 -0.16274120379046453 -0.18015946355305065 -0.17308796231906085 -0.2059288566083655 0.16463595900655395
0.21177075199620835 0.18087114903499954 -0.05532468254457906 0.14143284934380349 0.22105467293240152 0.20711383288303095 -0.09163086353700617 -0.22071391773559898
0.17702574109686534 0.20455203512666895 -0.18989978475783217 0.037598056059975155 -0.1661998653659422 0.21938600432037533 -0.0050559779399449774 -0.17141163809597595
0.20823051502642093 -0.11036778127012527 0.04568244122770505 -0.2042706426042648 0.107389540378993 -0.1346118112875814 0.17894699318551618 0.1753045331247288
-0.2039567338138028 0.041115495884121396 0.028739116559107106 -0.20306335518084206 0.2100534565771337 0.1483616822849863 0.21609618795253369 -0.0879322840562638
0.07262508181269989 -0.04666746255074266 0.20518931134716162 -0.007374994213621671 -0.11287263958602792 0.15292553152385605 -0.09488085723746598 -0.1293552024522111
0.2214019537878547 0.13069403602276414 -0.024484732127892754 -0.07093997198910033 0.03316152896087948 -0.010916896291225246 -0.16694317776414005 0.10101348724485677
0.11159183369931498 -0.21394936670540635 -0.2206832032630123 0.21784457082499767 -0.0069367395885519545 0.22273522882202837 0.19624305150766025 -0.16547660419651877
0.07763384015755241 -0.08491748579552466 -0.06543721977291213 0.15468766256916144 -0.0764609131079687 0.1252248501680571 -0.12793514424869412 -0.1713386414022905
-0.10698456422753476 -0.01635345793472426 -0.1094705229669914 -0.12939312001643968 0.18677823155459558 -0.09827193589826759 -0.04048414958168324 0.051499359766525005
-0.0738599789934978 0.10699083313543899 -0.16539798480473347 -0.16347110057455264 -0.034679464160177975 0.061050931838238766 -0.05340050001101182 -0.03459787558097514
-0.08833219485897156 0.14793491868285918 -0.0916120072712821 -0.06878570553751202 -0.1910167938035978 0.05130496872923432 -0.03783958961966372 -0.19888792029479596
-0.07945888589295823 -0.19165108378543455 0.21780897390409512 0.19828960445370294 -0.15107166289257082 0.1897702790117751 0.16365022410782296 -0.0929173553843371
00000000: 535b 29af bfb4 b1bf 1891 01f1 a7bd a93f
00000010: bc2c d5a2 4095 bf3f af8c c64c b7c4 c2bf
00000020: 07ee 7c67 e098 90bf 20ff 8599 327b b53f
00000030: 74f6 3fb7 b528 cc3f 110d 52fc 6c1b b5bf
00000040: 9123 2c17 9169 c9bf 04a1 8e32 59c1 a93f
00000050: a617 6ef5 92e0 b53f 8342 8c78 2ed5 c7bf
00000060: 8cf1 e79c 9ce5 b8bf dbb1 bd62 e150 bb3f
00000070: 5368 44c9 9e12 c4bf 69cf cfc9 9d1f c03f
00000080: 57d3 99b4 3d53 af3f 080d 6230 d5fa b53f
00000090: 620e 6de4 9972 c23f 877c d407 dd84 bf3f
000000a0: 765a 105c 3818 b43f c619 e354 ce21 b8bf
000000b0: 6fe9 de0a 09bd 9ebf c4b0 d7b6 a3d2 c13f
000000c0: 2c68 2b3a b360 c3bf aa79 3528 332b ba3f
000000d0: d641 290a a471 c1bf 7de0 304d 5cbc c7bf
000000e0: b64e 95bf 7fe5 b23f 47bc 1904 ff94 84bf
000000f0: 18a4 721c bc00 c23f 9ca1 bc99 4dca c83f
00000100: 4103 7966 c7bb a3bf 61db b70b e666 a6bf
00000110: 876b 74f3 f8cb c33f ef96 256b 7dc3 c4bf
00000120: ce4f dfa9 50e5 a0bf 59a6 8ea3 7f6f cabf
00000130: 7c6b 370a 6bd9 cb3f 82df b7c3 473d b03f
00000140: e342 9458 a29c c83f a6eb f109 b328 c9bf
00000150: 18bd 4031 1918 c63f 2669 48ca 7a12 cbbf
00000160: 4ed1 381a 5d87 c6bf bc00 d22b ee04 c63f
00000170: 3d93 d3e6 ee9c af3f 9a77 9a4f 3edf b8bf
00000180: f3c2 94ab a754 b23f cbbe 2bf8 e3b8 56bf
00000190: d443 8060 a24f bebf 578f a111 a5af a73f
000001a0: b2f1 234b 2552 bfbf ed80 2363 9281 bdbf
000001b0: d514 63a4 eee6 bfbf 9bc5 7886 b87e c63f
000001c0: eb85 3977 6915 9fbf 097b cfc5 9f9a ccbf
000001d0: 35b3 556e 3bbd b0bf aea3 0d6b ebc3 b63f
000001e0: 9e10 77ca ee07 a23f 6119 00cd 4600 a43f
000001f0: 7af0 88d9 4e45 64bf 0e49 013c 9ce8 c1bf
00000200: eaf7 4eb6 f37f bf3f cf19 a9b7 7dc2 b33f
00000210: b1a0 1779 2d8c c83f 1d58 bf4e 49b6 b73f
00000220: de0a b16c ae0f c6bf da32 3111 ef23 8c3f
00000230: 558c 28ad 56ee afbf b77a e269 221d aabf
00000240: d302 bc42 9a56 c0bf dbd4 f57d b698 c13f
00000250: 0861 3540 3048 93bf 1ab9 a817 91be 9b3f
00000260: dbb7 bc08 1fd8 a9bf a8e7 795b 32d9 983f
00000270: 91fe cb59 26d5 c9bf 9bd3 67cf b160 a83f
00000280: 2312 32fe 095e bfbf 8826 3dd6 2b5e c7bf
00000290: 8f87 0891 c63c c7bf 6a45 ed4c a9a3 b3bf
000002a0: 667a 4556 ee85 9b3f de19 fd78 3a2f ca3f
000002b0: aa2d c79c 0923 a63f 93a2 1ab1 a15d b7bf
000002c0: 6686 cf9c 404e b33f c60b cb09 05b1 c2bf
000002d0: 76c1 1d83 4177 bfbf 3bcb 5d3d 697c b6bf
000002e0: 0e4d 6fe8 dcd8 c73f 6760 6555 987c 66bf
000002f0: 8977 d738 1ddd c23f b96f 365d bc82 c03f
00000300: 77a9 6ae2 4002 b93f ed86 2241 7e0f aabf
00000310: cc3f 8d55 11b0 a2bf 2f5e 1a61 3b41 cbbf
00000320: e3b3 62e2 b365 a03f 4214 2059 6f58 c43f
00000330: 225a 0271 8c5b a83f 2241 26d5 9033 c0bf
00000340: a982 8e79 2803 abbf 7309 a737 21a7 c43f
00000350: d0a1 58cb 8d04 c13f 0da7 61eb 0f80 953f
00000360: 0464 e07e 0d04 c8bf 5381 76ab bf2b c53f
00000370: c4bf 00c5 30ca b73f 8dc5 dafd 0d08 b8bf
00000380: 431e 0e56 8968 be3f 313b 5650 5564 b63f
00000390: 7eec 05f1 c53a c43f 57f3 1ff0 35d3 c43f
000003a0: d9ee d07c 0e1c 993f 43bd e686 cb9b b33f
000003b0: 2f45 960a a516 cc3f 55ed 257c 498e cb3f
000003c0: c6e1 d156 95ca c43f 6d7e d383 6f82 b03f
000003d0: 50a7 6af8 1edf c63f c5a2 7bba e5fc cb3f
000003e0: 70bc b66d 9fdf ca3f 84d1 e465 08af c8bf
000003f0: ed72 9c48 21f8 c53f 9abd e0f9 12d8 c5bf
00000400: 7472 e934 633a c83f 97f4 bf01 db63 c13f
00000410: e518 7b84 9397 bcbf 7adf 0dbb 9977 c6bf
00000420: 74ce 7719 47c2 c5bf 0c0f effd 640d 423f
00000430: 162e 0719 cbbb c2bf 488a 2285 f565 b03f
00000440: ae9e 5aaf 00ff c33f 0a62 4c79 e240 acbf
00000450: b3ab 4edb 6a3a a7bf 577d 36ed 702a b63f
00000460: 9f3b e3fc 8ac7 c2bf 313a 34a4 7846 c2bf
00000470: 86b9 dbe4 1cf7 b3bf 8cc3 021d 9237 c63f
00000480: 3966 64d4 8311 c23f b20f abb1 7192 ae3f
00000490: 0aa4 aaab a9ab a1bf ed30 c918 c64b c7bf
000004a0: 7a4d e608 84b9 94bf f505 4dc2 790e a8bf
000004b0: 8dd1 a8ce 5798 5ebf 65b9 9624 2c70 b73f
000004c0: fb98 3e55 8d82 c73f 5ee9 81b7 b6f7 9f3f
000004d0: 4ff4 fe7f 28d3 c4bf 90f0 fe29 b4d4 c4bf
000004e0: 9b3b 031e 770f c7bf 47ee be10 bf27 c6bf
000004f0: d9c1 3774 e05b cabf 25e1 d685 ca12 c53f
00000500: 6d59 09d3 4d1b cb3f 0b98 f22a c926 c73f
00000510: a88f 614c 8453 acbf 6780 41bb 781a c23f
00000520: b3b2 6fff 844b cc3f eb12 64c1 b482 ca3f
00000530: 1c18 32ca 1e75 b7bf af24 3989 5a40 ccbf
00000540: 65d5 478c c7a8 c63f 3782 99d6 c22e ca3f
00000550: b3b2 86da a24e c8bf e46e 576a 0d40 a33f
00000560: 5f54 2c85 0946 c5bf c3c8 e030 d714 cc3f
00000570: a6f9 6bbe 93b5 74bf 1d54 e309 d1f0 c5bf
00000580: deaa 082a 4ca7 ca3f 4957 161b 1041 bcbf
00000590: 621c 265e b063 a73f 1655 c258 8a25 cabf
000005a0: 1b39 dc83 e17d bb3f 9957 91b7 f53a c1bf
000005b0: 8b83 b92d bce7 c63f bb3d 4e02 6170 c63f
000005c0: cebe c316 411b cabf 49bc 5c1c 170d a53f
000005d0: 01fe f276 c96d 9d3f 9845 c2e2 fafd c9bf
000005e0: c08c 341b 08e3 ca3f 2260 b2fe 83fd c23f
000005f0: 7bf0 0536 0aa9 cb3f a4c3 48ec ba82 b6bf
00000600: 303f 41af 8e97 b23f 67af e232 cce4 a7bf
00000610: eec6 dcb2 a443 ca3f 1f86 4aef 3d35 7ebf
00000620: 7a9b a2a7 38e5 bcbf 0927 4f56 1093 c33f
00000630: d0f2 d9a2 1c4a b8bf 28c3 0c16 b68e c0bf
00000640: 1209 6533 e656 cc3f 9600 4009 95ba c03f
00000650: 0e65 f68e 8612 99bf 9b1e ac3b 1f29 b2bf
00000660: 98a2 be44 8cfa a03f 2f6a 5b04 995b 86bf
00000670: 1dc6 64e0 645e c5bf 35ec 2b18 05dc b93f
00000680: 153e 3d4c 4891 bc3f edf3 7f5e b162 cbbf
00000690: ad44 65e2 583f ccbf 89fa a6b5 54e2 cb3f
000006a0: c078 c7da b269 7cbf 8995 ba85 9682 cc3f
000006b0: 5e75 2508 7e1e c93f c87a a35d 562e c5bf
000006c0: db21 8ab4 cfdf b33f c4ae 5900 27bd b5bf
000006d0: 85a6 dd5e 7ec0 b0bf 4424 ea29 cecc c33f
000006e0: fb94 3841 f192 b3bf a124 0f2e 5e07 c03f
000006f0: cc51 47c6 2d60 c0bf 9494 aeb2 6cee c5bf
00000700: 07b9 8824 5763 bbbf d14c 06fc f5be 90bf
00000710: 3ded 049c 4206 bcbf 3d25 6629 f48f c0bf
00000720: a7db 105e 59e8 c73f f333 cc7e 5928 b9bf
00000730: 025e eba4 56ba a4bf a4a0 ecc3 1f5e aa3f
00000740: 56a4 42d2 7ce8 b2bf 5fdb 4951 c063 bb3f
00000750: e5c2 c7db c22b c5bf c187 67fb 9eec c4bf
00000760: 4050 d2b8 81c1 a1bf 3568 4557 1142 af3f
00000770: e051 4672 4f57 abbf 4e42 4310 d0b6 a1bf
00000780: 266a 1a50 f09c b6bf 4af3 d60a 88ef c23f
00000790: 94ac 266f e273 b7bf 3d45 b7a3 f09b b1bf
000007a0: efc5 2f01 3d73 c8bf 54f4 a015 a544 aa3f
000007b0: 412f d2ef b55f a3bf 4028 9ecc 2875 c9bf
000007c0: 176f 49e4 6a57 b4bf 96fa 8cd0 0588 c8bf
000007d0: 87c1 d819 2ae1 cb3f 9df9 21c3 8d61 c93f
000007e0: 39eb bcf5 5056 c3bf 0bdf 0d7b 644a c83f
000007f0: 8d59 4394 7df2 c43f 0846 9b8a 6ec9 b7bf

hidden_layer4.bias f8 [20]
-0.12639100141878284 0.09694679577008425 -0.2066980133814777 0.07413695040626507 -0.1340062473918515 0.004378931948689243 -0.11605626475106146 0.19304717168811522
-0.07943523706768285 0.05584154640740492 -0.1358965537624182 0.1540975858220044 0.17320529599808554 0.2052072626368416 0.08623903103688635 -0.02690636861146072
0.14072565760751043 0.10303173008605049 -0.03531056305245571 -0.06772747172707762
00000000: 321a cd90 942d c0bf 30d5 4855 81d1 b83f
00000010: 2691 cf9b 1475 cabf 858a 6ba1 a3fa b23f
00000020: e7fb 00e1 1d27 c1bf a22d 2d98 a4ef 713f
00000030: c00a 9a05 ddb5 bdbf 1f2d 7e0c c5b5 c83f
00000040: 780f 5b21 de55 b4bf a2de 275f 4397 ac3f
00000050: 893b 06eb 0e65 c1bf 80c0 bf3d 78b9 c33f
00000060: b423 e754 972b c63f 3ba5 f648 3b44 ca3f
00000070: 2031 f1d9 c213 b63f ed1c f6d4 578d 9bbf
00000080: e0f0 9060 4c03 c23f a87d 2b97 4960 ba3f
00000090: 3efc 06e3 3914 a2bf c9ca 1b6c 9656 b1bf
