net_param/net_0.09.pth (torch, 17999 bytes, 12 tensors)

hidden_layer1.weight f8 [20, 2]
-0.3139238116499363 0.18405317249723563 0.5968485063866619 0.19140761607335804 0.050408882152418094 0.20910494120726136 0.07534626482772028 -0.37320931442709454
-0.21066005098794247 -0.2944528845819793 0.6569239965135838 -0.5895227854997733 0.4679663302428496 0.499163563087619 -0.10552142124768839 -0.3260956943935406
0.5838828589772903 -0.04574655435487016 -0.518974495491477 -0.2998690171717718 -0.060825055193399806 -0.46478507061097984 0.6630037880384584 0.49303439209542577
0.2153769041704994 -0.20670823605790206 -0.6887903736479636 -0.1457286764359748 -0.2934997007516437 0.4549383910014844 0.3661656958729054 0.5052185810227392
0.5520706756018277 -0.3039752232189282 0.0378314180997124 -0.2228506366377541 0.010879306812376621 0.21545349817195564 0.0013496073417100247 -0.2612222908125477
00000000: 8c37 1ee6 5317 d4bf e0e2 4cea 0d8f c73f
00000010: ef1b f309 6219 e33f 52c5 9e75 0b80 c83f
00000020: 2c8c 8b68 31cf a93f 7e66 f561 f3c3 ca3f
00000030: 7c91 4f8f e449 b33f 95b9 0152 a9e2 d7bf
00000040: 5b90 c896 e8f6 cabf 8784 5fe9 50d8 d2bf
00000050: 8278 1f79 8505 e53f b8fc 7ee3 5edd e2bf
00000060: 506b 010d 29f3 dd3f e83b b4ba 4bf2 df3f
00000070: 6948 49ad 7303 bbbf c258 b279 c0de d4bf
00000080: 0114 001b 2baf e23f adbb b7a5 176c a7bf
00000090: fe01 b366 709b e0bf f187 75d1 0d31 d3bf
000000a0: 2785 aa2d 7624 afbf 8a5d 7ce1 09bf ddbf
000000b0: 39fa 57b8 5337 e53f 1a99 761f e08d df3f
000000c0: 41ee dc6b 7891 cb3f 625d d75c 6a75 cabf
000000d0: 93c3 131c 920a e6bf 5ee1 b0bd 3ca7 c2bf
000000e0: 5b4d 07f8 b2c8 d2bf 89f5 c2e9 b51d dd3f
000000f0: cc3c 2c3e 426f d73f c65f 5a28 c02a e03f
00000100: 924b 191f 90aa e13f 1241 a17e 5474 d3bf
00000110: 46c7 ffbe a35e a33f 593f 20a2 5e86 ccbf
00000120: 53ce b2d7 e347 863f 4a8a 3af0 fa93 cb3f
00000130: 0317 49d9 a91c 563f 85ab 01b3 ddb7 d0bf

hidden_layer1.bias f8 [20]
0.6638528278492785 0.14026914861315837 0.4896818458857093 0.043178417862319005 -0.4225582064283589 0.4287931743504841 0.4343105072561835 0.6062094963702944
-0.3720240600933959 -0.3208572639277015 0.45413250148331324 0.4503879049815517 -0.06968651520133216 -0.011031956896002849 0.26233741261163446 0.11643815528969506
-0.6245530261253913 -0.09889740793823577 0.1868263113631775 -0.6903951195310544
00000000: 5908 1f49 483e e53f 2634 f7e6 56f4 c13f
00000010: c489 6186 f256 df3f 6e2e 3949 7b1b a63f
00000020: b909 5193 310b dbbf b155 25ed 5871 db3f
00000030: dc5d 3e4c becb db3f e4eb 2d75 1166 e33f
00000040: 1348 db00 3ecf d7bf a539 d0e7 ec88 d4bf
00000050: e3f9 7ac4 8110 dd3f da38 9aca 27d3 dc3f
00000060: bf0d c3b7 f9d6 b1bf e73a a230 ec97 86bf
00000070: 64ca ebdb 22ca d03f aace f914 e4ce bd3f
00000080: c871 baa0 56fc e3bf 29ff c02c 5751 b9bf
00000090: 1428 abb0 ece9 c73f 4386 7681 b717 e6bf

hidden_layer2.weight f8 [20, 20]
-0.06490901069780056 -0.12483716021925637 -0.21696026362991347 0.0024044004908869428 -0.0006209301340780943 0.16669156932889148 0.11905561397859699 0.01576689231260274
-0.1868232600628026 -0.01654701076229575 0.012202473194689239 -0.1547002515890159 -0.22320416500189366 0.15545625928929757 0.16571151830870182 0.21206985693446528
0.14656374196061178 -0.19845727478105882 0.026984201563891454 -0.16128248807120113 -0.04866295067888482 -0.13707490136025385 0.04825517353018036 -0.14483279891137252
0.18131241598152953 -0.004058775453151919 -0.08565490572566847 -0.16165084765675722 -0.05638561715922346 -0.06675693357796762 -0.14865832054194314 0.20119496555667188
-0.21546557106849162 0.028959899759202587 0.14095022552129097 0.14024672315213274 -0.01665565529398424 0.01519749366509854 -0.1875825878419031 -0.013722476628243227
-0.10664423378403178 -0.06355003169711544 -0.0057551103037299135 0.09501691964607946 -0.14394167672855793 -0.19977455744975423 0.099247200164854 0.11301484230909158
-0.07994174707142349 0.05990626964138717 -0.00571749885070022 -0.04641411733281039 0.10210217396171366 0.14339884813560344 -0.009672495707761151 -0.03368919255325685
0.19255903119807838 0.05868901427379093 -0.014307465115893772 0.044760294976326165 0.14886241615537785 0.09843203045465228 0.09012778271147173 -0.05779769675230216
-0.08786805049298196 0.19391667201581855 0.08705536075761601 -0.061113881118560316 -0.05490536898840217 -0.2079196796156361 -0.15395988466488647 0.16373183774577882
-0.21688955273628105 0.14347706807452995 -0.15786805956276995 0.18979876400775228 0.06744281997250492 -0.051450134180079085 0.21353387518833156 -0.08068606990969825
-0.08515260461191766 0.10596839686101629 0.06442092831730765 -0.09929325428187222 -0.19728209489947396 0.17319465068461656 0.07108361325221137 -0.09707059249533402
0.07999934795925176 -0.10355243107380058 -0.020924158230269815 -0.02624258364350052 -0.007286228461035545 0.031110863050439797 0.11850148683705594 0.18222352979927184
-0.10524449940073831 0.07903587975449036 0.08343346500605424 0.01361732703163284 -0.1280391122197953 -0.028630839534001584 0.13744629004706754 0.11373392286096945
-0.09357135404116747 -0.003194662135057247 0.0375087624169321 0.03419352335983908 -0.15302168258101015 0.04173467263236409 -0.03899879133211759 0.15878541667837615
0.11655630856502917 0.005646681211862559 0.03527088659930898 -0.05176105676472801 0.08801798772242443 0.029943917983478705 -0.08636637063069638 -0.02596500796018684
0.005595716477836437 0.09752102089283607 -0.14949370594556566 -0.09973100715946 0.13205273931152453 -0.125001586980721 -0.09906534400565137 0.10748953550865438
-0.13945005583818354 0.17571675752426488 0.01334459952204752 -0.17015399135288833 0.18282782813244516 0.010516694048599815 0.11325044618943914 0.11470105572004623
-0.08870692559825127 0.09089377425933565 -0.06651841154816117 0.20269250800993568 0.09272177346178857 0.05351063297271283 -0.10303063559230659 -0.09550187589294797
0.04207896332857371 -0.14228443667241164 0.04989746879512619 0.1945959031213749 0.12121510839066281 -0.012844002548888088 -0.18187681356953936 -0.21579088834404153
0.17711155148357396 0.20494502201050283 -0.1596056447532553 -0.03341102959264363 0.10001497248647087 0.04047399194959172 0.04185714063840391 0.10205615489272114
-0.1912990970800386 -0.12501207482750737 -0.07971343513514155 -0.10479466622957467 -0.08484733662549834 0.011939623726700151 -0.023457808680994344 0.14730316585955538
-0.19835847940606413 -0.034885637731494015 0.1897325427478743 -0.05231989706293653 -0.1619939258164595 -0.0909633814888305 0.08037284521798904 -0.09634772103472683
-0.12678285132604736 0.19865276221756187 -0.02743444703218785 -0.0380293855072389 -0.08127401944908515 0.12819573298399048 0.21085174427851242 0.15330190718197098
-0.007933927975693136 0.0016001866675747253 -0.011493040334079677 0.033606937427252306 0.07981265538624108 -0.18831531289809147 0.10198957518235098 0.2175707658694295
0.1463467432001564 -0.1040168480671489 0.10105980866985081 0.1991621350087304 -0.14982244786784646 -0.001790392657619291 -0.04129905657797332 0.06113101106071707
0.04844075701502523 0.09685774103907455 0.03930686998258919 -0.1370953907123992 0.028694119917925066 -0.1494808115733771 -0.19518240150174057 -0.08967349100262527
-0.18937180619146726 -0.07289135428794548 -0.1754188411407874 0.12768208048091176 0.16905632916483138 -0.21070320255352082 -0.10661215661873358 -0.027460335967050758
0.05510883578919158 0.16217574735404988 -0.17885944305872947 0.10594214746049006 -0.20995035981331878 -0.17428918789963438 -0.1535670017095412 -0.1149936069113739
0.18384833942103346 0.14089278736951513 0.09197082318002214 -0.17357064206780037 -0.16489350071573605 -0.005910109420144445 -0.017206263704482076 -0.08965286075270468
0.13712609852264185 0.0566874686913053 0.008975391218472057 -0.06205424229201001 -0.08412286235395784 -0.203323233496098 0.12346515523085501 0.09028689149833904
0.10782807946785812 -0.13846715851190752 0.19353033843387543 -0.20705589240211403 0.15838822861329568 0.15647299527026792 -0.04450628887746889 0.054336919895235605
-0.0032730256044405594 0.10837815637851697 0.19791403222031695 0.11600150850059987 -0.22075344124923005 -0.10364699003648635 -0.21719570302723137 -0.047879850379227755
00000000: 22ab 297e e09d b0bf 9e9b 7700 54f5 bfbf
00000010: d737 699a 5ac5 cbbf bfef 31af 64b2 633f
00000020: be49 3a4f bd58 44bf 37ac 643b 2656 c53f
00000030: 707a 71c0 6d7a be3f 1c65 5e3b 3225 903f
00000040: 1809 0d18 d3e9 c7bf af50 4818 b3f1 90bf
00000050: 767c 693a 9cfd 883f 70ff a0c4 37cd c3bf
00000060: b8ce 813e f491 ccbf 5e92 cd9e fde5 c33f
00000070: a56a daf7 0836 c53f 621e 00e6 1a25 cb3f
00000080: e606 40c7 99c2 c23f 6541 6b48 0c67 c9bf
00000090: faff e61c bfa1 9b3f ff76 d791 e7a4 c4bf
000000a0: d0a5 62ab 59ea a8bf 76ec 389d ab8b c1bf
000000b0: 5d90 59f0 e6b4 a83f da32 5b93 e189 c2bf
000000c0: e6ec 7fc8 3e35 c73f 805b 543d ef9f 70bf
000000d0: f86d d5da 7aed b5bf c539 0798 f9b0 c4bf
000000e0: c7c8 535b 93de acbf 3fa5 7f7e fb16 b1bf
000000f0: 57c2 8060 3c07 c3bf bac6 97b2 c1c0 c93f
00000100: f099 9336 6094 cbbf ece1 71f9 a9a7 9d3f
00000110: 8b27 7d30 a80a c23f 31a0 a7c8 9af3 c13f
00000120: b7db 1f1b 2e0e 91bf a19f 2e12 dd1f 8f3f
00000130: 213e 0acc b402 c8bf 451a b5a2 871a 8cbf
00000140: 19ce 6858 094d bbbf 0583 cc9b d044 b0bf
00000150: 245a a1a8 ab92 77bf 7d52 7262 0753 b83f
00000160: cf4f 0a4d ae6c c2bf 97e7 6873 3692 c9bf
00000170: 1878 edb6 4368 b93f 031e ae6b 8aee bc3f
00000180: 14c2 41f5 0f77 b4bf 77c7 ded9 08ac ae3f
00000190: c040 4269 3b6b 77bf ebc4 0858 97c3 a7bf
000001a0: b31c 043a 5e23 ba3f f063 83b9 e45a c23f
000001b0: ec5f e265 2ccf 83bf 8e61 7db8 b53f a1bf
000001c0: ccc8 c53a c6a5 c83f 527d e189 7c0c ae3f
000001d0: c865 1776 3b4d 8dbf 004f 2a46 d2ea a63f
000001e0: 7bd5 7e74 ec0d c33f d57d ae6f d732 b93f
000001f0: 92ee 3447 9d12 b73f 9ea7 abe2 a897 adbf
00000200: d80a 3b43 857e b6bf 3982 3af2 42d2 c83f
00000210: b93b 6597 4249 b63f 21c1 7891 514a afbf
00000220: f328 5c78 8e1c acbf 1d6d 12b0 1c9d cabf
00000230: 1a0c c41e f5b4 c3bf 004f 3734 2af5 c43f
00000240: a756 ec6f 09c3 cbbf c393 8de1 745d c23f
00000250: 90d9 7344 0535 c4bf af04 1e6e 534b c83f
00000260: cac5 21c2 ee43 b13f c643 5b07 ac57 aabf
00000270: e0d1 42f9 1355 cb3f ad42 819f d7a7 b4bf
00000280: 3937 faa3 8fcc b5bf 1d78 edae be20 bb3f
00000290: 0301 4dd4 e37d b03f 3aa3 da5f 486b b9bf
000002a0: 6efd d628 8a40 c9bf 532b 4408 3e2b c63f
000002b0: 7923 3322 8932 b23f b9b9 2b4c 9ed9 b8bf
000002c0: 0eb2 2f57 d67a b43f d41d e280 6982 babf
000002d0: 1c6d 2e7d 246d 95bf 01a7 0bfa 55df 9abf
000002e0: fca7 380f 2ad8 7dbf cd6b 68ad 86db 9f3f
000002f0: 6e16 7e0a 1d56 be3f c957 86c2 1953 c73f
00000300: 7793 02b3 4df1 babf 6291 c106 b23b b43f
00000310: 73cc 9743 e55b b53f ec11 14b2 66e3 8b3f
00000320: fae3 cbeb 9563 c0bf 807e d21d 6751 9dbf
00000330: 34b6 5a0c d797 c13f ec36 2297 aa1d bd3f
00000340: 2902 73d1 4af4 b7bf e7f4 892c b12b 6abf
00000350: fcce c937 5934 a33f f48b 2141 d081 a13f
00000360: 9dd5 21e9 3696 c3bf 126b 213c 3f5e a53f
00000370: 10bf b54a a6f7 a3bf de90 db9d 1453 c43f
00000380: 9fe5 6d5d a2d6 bd3f 3498 2c72 f920 773f
00000390: 5ed1 e390 060f a23f 8595 05dc 6c80 aabf
000003a0: 3940 baca 5888 b63f d905 d051 9ea9 9e3f
000003b0: 2643 5541 1b1c b6bf 5b16 1e30 9296 9abf
000003c0: 1fe7 51b4 88eb 763f 6e42 683b 23f7 b83f
000003d0: e03c ff18 9c22 c3bf 45a3 25a6 f887 b9bf
000003e0: d958 58aa 1ae7 c03f bee0 0350 0d00 c0bf
000003f0: d8d7 abac 585c b9bf b901 ac27 6f84 bb3f
00000400: 320c a0da 7fd9 c1bf 3983 76ff e27d c63f
00000410: db0a 34d4 6954 8b3f b47f 1222 9bc7 c5bf
00000420: e953 50fb e666 c73f d295 01c8 c689 853f
00000430: c81b a432 fbfd bc3f ab5f 2263 0c5d bd3f
00000440: ac89 5f40 7fb5 b6bf 2096 da7b d044 b73f
00000450: 7f64 2ec2 5907 b1bf 8d00 86fe d3f1 c93f
00000460: a93f a538 9dbc b73f 9c4d 36e5 be65 ab3f
00000470: 95e4 5a3a 3760 babf 7db7 aa99 cf72 b8bf
00000480: aa0d b1b6 5f8b a53f f06f 1e5d 6036 c2bf
00000490: a8a9 4139 298c a93f 09c3 ebbf 84e8 c83f
000004a0: 75a9 510e f407 bf3f 0c7f 2dd7 f44d 8abf
000004b0: 3547 174b bd47 c7bf 6e31 1b2c 099f cbbf
000004c0: 91d1 ae60 97ab c63f 95ad 8173 a33b ca3f
000004d0: e371 3c30 f56d c4bf cf28 da1e 401b a1bf
000004e0: 4a92 f0cb 949a b93f 372d 86cf 01b9 a43f
000004f0: c9c2 4a94 4c6e a53f c9a7 9e27 5a20 ba3f
00000500: b146 db22 7d7c c8bf b69f 7e4a 6500 c0bf
00000510: 5b0e f584 1968 b4bf 8052 40c0 d2d3 babf
00000520: 568f f517 8eb8 b5bf 5e37 762b cd73 883f
00000530: a197 7be4 5205 98bf 2066 fb83 d4da c23f
00000540: 8577 f786 cf63 c9bf 5251 50c2 87dc a1bf
00000550: bb65 0bed 2749 c83f f57b a16d acc9 aabf
00000560: d623 c48a 37bc c4bf 15cb a04c 6049 b7bf
00000570: a09e b295 5093 b43f 8466 e386 3eaa b8bf
00000580: dfca 11a4 6b3a c0bf db03 7e26 746d c93f
00000590: 34fb 2593 c617 9cbf 42c5 146e 9678 a3bf
000005a0: a55c 8cc7 5fce b4bf 1995 53c0 b768 c03f
000005b0: bd89 fda0 30fd ca3f 3768 e19a 659f c33f
000005c0: fbb1 79c9 a93f 80bf 1313 e759 ab37 5a3f
000005d0: a88d eec2 a989 87bf a268 56b2 ed34 a13f
000005e0: d2d9 b028 9a6e b43f 19dd 1d57 b71a c8bf
000005f0: f1ed f021 fd1b ba3f a1c8 fcdd 5bd9 cb3f
00000600: 30dc f575 7dbb c23f 9570 ae20 d9a0 babf
00000610: 9c51 2d3d 0edf b93f 7565 3b14 257e c93f
00000620: c747 e6c8 612d c3bf 7294 557a 7355 5dbf
00000630: 3652 b762 2625 a5bf 62ec 8d5a 904c af3f
00000640: 8c95 5816 3acd a83f 4294 203e abcb b83f
00000650: 27ac 2ab2 0720 a43f 6d63 c57d 578c c1bf
00000660: ea3a 8aca fd61 9d3f 2329 8bee 2f22 c3bf
00000670: 2b34 9aa7 bcfb c8bf 2ba7 2c87 d7f4 b6bf
00000680: 0e3b 30d9 553d c8bf a1ef d3fe 01a9 b2bf
00000690: b3a4 e6e4 1f74 c6bf 5fb2 f9eb e257 c03f
000006a0: f4ed 7846 a3a3 c53f 749e 1092 52f8 cabf
000006b0: d892 082e ef4a bbbf 9ba1 a9f3 8f1e 9cbf
000006c0: 22d4 deae 3937 ac3f 3685 8bc5 2cc2 c43f
000006d0: 644e 42c1 dde4 c6bf 535e 9c4a 061f bb3f
000006e0: e03f 9744 a7df cabf 5ea4 09ad 1b4f c6bf
000006f0: 312b 0b61 15a8 c3bf 4df5 ee94 3870 bdbf
00000700: 165e 9ea6 5788 c73f d746 ff5c c608 c23f
00000710: 9890 be5d 668b b73f dc0b 9d13 9037 c6bf
00000720: 2cd2 72f0 3a1b c5bf 6109 ceea 3235 78bf
00000730: fea1 96cf 849e 91bf 3cfb ec68 7df3 b6bf
00000740: de99 4a16 598d c13f 678e 3ed0 2306 ad3f
00000750: 9763 049e b061 823f d8c9 71da 92c5 afbf
00000760: 01fa a76e 1389 b5bf bafc 30e7 7e06 cabf
00000770: 717e e993 699b bf3f 822c 3eae 0a1d b73f
00000780: 21aa e7fa 9e9a bb3f f178 b0b6 4ab9 c1bf
00000790: 3bbc 2d25 9ac5 c83f 92d4 27b7 ce80 cabf
000007a0: bb94 fbc2 1046 c43f a04c b29e 4e07 c43f
000007b0: 91de 633e 87c9 a6bf 72b0 d47b 0cd2 ab3f
000007c0: 31e9 c23d 08d0 6abf e61a 3fbd abbe bb3f
000007d0: de22 e73b 3f55 c93f 50f7 4b5d 46b2 bd3f
000007e0: 198c 5215 a641 ccbf 9719 89f0 9b88 babf
000007f0: 41b6 aa9c 11cd cbbf a745 082f b583 a8bf

hidden_layer2.bias f8 [20]
-0.1151740413248657 -0.14073385763808247 0.0871112859182513 -0.13314834904990433 0.13613495310907495 -0.10046109268540966 -0.09482364210400629 -0.062494504341648646
0.12709389246409694 0.20052552227996454 0.03972106934146831 0.18384532068591344 -0.13333349885872706 0.02608135471283886 -0.06442653261760359 -0.1435809423762356
-0.17734786196369678 0.10465006130157029 -0.07739474309390451 0.11517889615577918
00000000: b4a4 d6c4 0b7c bdbf 056c ff29 9103 c2bf
00000010: 15a3 21dc ec4c b63f 0fc6 574e 010b c1bf
00000020: 8f15 b9c1 de6c c13f bdb0 9a73 d1b7 b9bf
00000030: c06c b9b9 5c46 b8bf 167b a798 47ff afbf
00000040: 27cb d3d7 9c44 c03f 9356 1a00 d2aa c93f
00000050: 4a48 91eb 5156 a43f 492f ef53 3e88 c73f
00000060: 3d9d 8774 1211 c1bf b4aa 1b16 12b5 9a3f
00000070: 4a58 96da 417e b0bf 7ada ea3d dc60 c2bf
00000080: 1826 93b1 55b3 c6bf 388c d0ae 58ca ba3f
00000090: fa7b 7852 24d0 b3bf 03af 2d38 5d7c bd3f

hidden_layer3.weight f8 [20, 20]
0.20396094915681398 0.021941564447513162 0.06867564324756208 -0.17094242850326155 0.17867068526121996 -0.12768893884776772 0.1422176430777048 0.16749020453222682
0.01604316731204119 -0.004677076105147848 0.15290512285754254 0.11164030280627106 0.0415776169791231 0.016808485609364383 0.18330397233448179 -0.06396514046334424
0.05558867464399546 0.1799967164669045 -0.12690829695256264 0.1805572752063244 -0.11531831698292729 0.15121246142475178 -0.07105954952800315 -0.14051919812653416
-0.0717135809616133 -0.18714584204613383 0.18592467698849807 -0.04621762643169331 0.018563718954105836 0.10890610551445469 -0.10282141161099116 -0.09137364530366845
-0.12706118233735325 -0.1289697865455426 0.08765293583865282 -0.05677294664644453 0.1758328682958561 -0.005034115175691547 -0.09575005397776161 0.09327275930796342
-0.055728172429684496 -0.12496943287661208 0.17496592382511916 -0.04137176223052 -0.21409875162846206 0.039082589877429824 0.1747542837939052 0.07446155273705707
0.21795570845184564 0.05752536346099625 0.21924819478896557 0.03958276203160239 -0.16671706365135472 0.0005399413399082905 0.17329329309613542 0.1573542855653862
-0.1697838672753206 -0.21159613998029425 -0.003629862952338054 0.12712031502994098 0.20598000494867733 -0.043601639372392 0.02700597292498577 0.041412925215644686
-0.15135516101237625 0.07663452411819698 -0.1106857709889512 -0.21064612664541907 -0.010874614945940924 0.08736412237242368 -0.03513891238131334 -0.04287200101550772
0.19546735218171996 -0.10966126307925181 -0.053367169228001804 0.167029495231694 0.1438275234787804 -0.11596388483690988 -0.18281318356380574 0.09826526400206091
-0.03516927396687524 0.20099169649619752 0.1267712567321979 -0.06786913223577566 0.1969684394954149 0.16868408264463494 -0.21781520770468374 0.21434374544897336
0.20479532087814015 -0.20362267417478155 0.15218208715506573 0.15905162905201387 0.06692298920416624 0.0790944944156445 0.2170603488306288 0.0965511875391237
0.1434802792948866 0.12074553228538398 0.06044039167967517 0.11393450939033838 0.20046074161637947 -0.10075885917139056 0.20740678336881385 -0.13185128365322366
-0.2034326415826447 -0.06968962800140008 -0.03538365416353683 -0.14108091968980024 -0.16781397052508443 -0.04537768372159176 -0.03454437639935557 0.07967173023360272
0.17062512652246142 0.06672315328552782 -0.00044876909244440604 0.17669919484472266 -0.12522184307954767 0.18389512871735994 0.08203554498705284 0.19122905899732517
-0.11443929725762118 -0.13312096540511914 0.11936167326891103 0.05553003982273616 0.14705166297113498 -0.15076923730151587 0.22239866726285856 0.2041967604469497
0.12011931093751183 -0.1532928644101377 0.17642332656231316 -0.015945026470019236 0.09072226437766492 0.1272515368283237 -0.2118947012657002 0.03038217419331941
0.02407502128137055 0.19100164787183907 -0.18001577907628002 -0.21981799335218974 0.028522404406769102 -0.10189097219145683 -0.19676305531669266 -0.08942497820371541
-0.08756816084488277 0.0013074577016937605 -0.038565935223066214 0.1941135726655941 -0.08239602765791645 0.16702394861485426 0.22165319370202238 0.21286095694762758
-0.15651695820944447 -0.08612764131000934 0.03453103516634643 -0.033433187730735815 -0.21284293178689248 0.08339124110601412 0.18629583787782136 -0.17826716171300827
-0.07057475937756778 -0.04402594707464298 -0.11910530786921183 -0.14477742854284611 0.12786406092310937 0.13880734379370838 0.13163499073973092 0.2043946148302708
-0.15396959979151184 -0.19480531167836582 0.18247339486418335 -0.0032860871192734297 -0.0651883455771949 -0.21161387092239156 -0.11694881536627687 0.11756867309639778
0.21700013534454726 0.11110169173884094 0.2036534415378159 0.043462721099764436 -0.21464176732099893 -0.03988139230584397 -0.19391062147293608 0.08038781783709016
0.08581572167063392 -0.0985560478272682 -0.13275215232470697 -0.17038266408947633 0.12371945879331889 0.050545879090065145 -0.18244749416557243 0.06287296923595048
0.17142880766964125 0.21962169083133123 0.004471853680933121 0.015996391038077946 0.10423416773368145 -0.191181307442508 0.10755448831891833 0.17133303292524554
-0.18925514323221962 0.05521284052847731 0.1705529940695743 -0.0096283835845017 0.15405560172572422 0.025121180906888113 -0.19548423072848337 0.10548557337759724
-0.011975892515917252 -0.06465515431440078 -0.10022014106609121 -0.05601165893877277 0.16855821776265503 -0.11083144707605745 0.17933033572114995 -0.006190378935894443
-0.038937017148187154 0.13194138840164527 -0.00778790390217482 -0.21340389951448024 -0.08457925212392875 0.16221486392606135 -0.1939921316130612 -0.09778682525748984
0.10881231979569524 0.09494144106968742 0.098834201785693 0.20654891917452564 0.00538815626038932 0.12435101326545632 -0.17608352240910216 -0.14023788695502387
0.2131485511357919 0.21795040305779234 0.06969948110991186 0.06519904014193417 -0.2223211561206198 0.15736870285938628 0.06815433510886328 -0.1306305080814107
0.09998056786098049 0.08159435320813192 0.19723184750444803 0.03584185914112801 0.19822992551867147 -0.043917721206449135 0.12116787129918415 -0.2124834998157751
0.16445063380607272 -0.06773039345156047 0.06713792657438403 -0.12947550556704082 -0.06051477939958188 0.1202450209258573 -0.20594254613125262 0.12057469048908634
00000000: c112 2573 641b ca3f 808c e676 d977 963f
00000010: dbb0 c719 ba94 b13f 43cd f505 71e1 c5bf
00000020: 6bb5 f956 aede c63f e6bf 3474 1c58 c0bf
00000030: ac6a f70e 3034 c23f c7e1 6eab 5170 c53f
00000040: cec7 b7bb 9e6d 903f 4da7 990e 4528 73bf
00000050: 6431 0823 6592 c33f bbed 7779 7594 bc3f
00000060: 8086 5752 a949 a53f f234 f35f 3e36 913f
00000070: 7fa5 332b 8176 c73f a9c5 5ffa 0460 b0bf
00000080: b675 3f67 1e76 ac3f 3f6e 4ee5 210a c73f
00000090: cb4b 80f4 873e c0bf d573 0834 801c c73f
000000a0: 8149 1250 8085 bdbf 7d92 4810 ee5a c33f
000000b0: 6590 4a69 f530 b2bf 21f1 3478 88fc c1bf
000000c0: d9bf e83c d25b b2bf d0d3 951b 65f4 c7bf
000000d0: deac 973b 61cc c73f 59b5 0b34 d6a9 a7bf
000000e0: 6a38 3317 5e02 933f 61f1 8441 45e1 bb3f
000000f0: 83a0 3208 8152 babf d2a9 4b62 4364 b7bf
00000100: 7671 5d73 8a43 c0bf 704e b1fb 1482 c0bf
00000110: 6d4d d33c 6c70 b63f 94be 49fa 5711 adbf
00000120: f83f 7201 b181 c63f 9cc8 b300 a79e 74bf
00000130: 81ba 6c56 1383 b8bf a0db d53a b9e0 b73f
00000140: bb49 1a2c 6788 acbf 4668 342b fffd bfbf
00000150: ea24 5f8c 4865 c63f d414 84fb ad2e a5bf
00000160: f1e8 2d80 9667 cbbf 5cab bb1a a202 a43f
00000170: 6b88 dd2e 595e c63f 6ca6 d08d e90f b33f
00000180: e47a e3ff f8e5 cb3f e2cf 82e5 f673 ad3f
00000190: baae 2929 5310 cc3f 7179 d218 3144 a43f
000001a0: 03ab 0818 fc56 c5bf 3ae7 c532 5bb1 413f
000001b0: cd65 3b81 792e c63f 7fc3 316b 2f24 c43f
000001c0: fdfe aa4e 7abb c5bf 046d 9612 9515 cbbf
000001d0: 4287 6ad5 5fbc 6dbf f2fb da7d 7a45 c03f
000001e0: e136 7184 8d5d ca3f eb14 503e f452 a6bf
000001f0: e8b3 092a 74a7 9b3f 74a3 dd2e 1334 a53f
00000200: 1982 501d 9b5f c3bf b309 d5f6 519e b33f
00000210: 0bb4 8716 e755 bcbf 9d4e 7cc8 73f6 cabf
00000220: 9630 651c 6e45 86bf dbec 6ec0 7e5d b63f
00000230: e94f fd3e bafd a1bf 8326 8da4 51f3 a5bf
00000240: 9c31 87fe 1205 c93f 863d 90b2 c212 bcbf
00000250: e45a 070d f152 abbf d966 bef5 3861 c53f
00000260: 8592 cdb6 f068 c23f 6742 e424 cfaf bdbf
00000270: 8d93 5722 6c66 c7bf 8fbe 388f e927 b93f
00000280: c709 0603 b501 a2bf 38ff 9b8d 18ba c93f
00000290: 006a de60 0a3a c03f 634d 5c17 df5f b1bf
000002a0: 150d fd06 4336 c93f 7f40 28a5 7097 c53f
000002b0: 47df d464 5ee1 cbbf 471a 67a8 9d6f cb3f
000002c0: e9d0 c5aa bb36 ca3f 1102 27cb 4e10 cabf
000002d0: 931b afdf b37a c33f c0b3 93c4 cd5b c43f
000002e0: 2d82 fb71 dd21 b13f a610 cf6a 893f b43f
000002f0: 0e32 be2d a2c8 cb3f 06d9 de20 94b7 b83f
00000300: 50a3 98d1 8f5d c23f 38c8 4de0 2de9 be3f
00000310: fe46 3e03 0bf2 ae3f 83a1 b7df cf2a bd3f
00000320: 9fe7 af94 b2a8 c93f 6d63 ec24 55cb b9bf
00000330: 7ad0 c433 4e8c ca3f 9df4 9cbb 80e0 c0bf
00000340: 13a7 44af 140a cabf 5eec 22f1 2dd7 b1bf
00000350: df06 e46a ce1d a2bf 3a22 1488 f00e c2bf
00000360: 6dcb 9b9d ed7a c5bf 1cdd 1a67 be3b a7bf
00000370: 7db9 caed ccaf a1bf fee0 c4d3 5d65 b43f
00000380: 4819 254d 0bd7 c53f 7951 3fc1 c414 b13f
00000390: 5d40 5493 1869 3dbf fd36 8b47 149e c63f
000003a0: 8dc0 62f4 4407 c0bf fd0c de25 e089 c73f
000003b0: ac34 d40e 4800 b53f 621c 389d 317a c83f
000003c0: c344 19cf e44b bdbf fad8 6998 1b0a c1bf
000003d0: aaf7 1593 7c8e be3f ecec f7f1 6e6e ac3f
000003e0: ba47 a4c1 96d2 c23f c6f7 b907 684c c3bf
000003f0: 06b3 483d 8f77 cc3f 49ce 0894 1e23 ca3f
00000400: 303c 18a0 23c0 be3f a104 adbf 199f c3bf
00000410: c717 eb20 0a95 c63f d5ed e39c e453 90bf
00000420: 3669 8506 9339 b73f cd8d 8542 c749 c03f
00000430: 30e1 1096 5d1f cbbf b3ae 2a32 811c 9f3f
00000440: 4b49 3754 1fa7 983f 69bb 8bf3 bd72 c83f
00000450: 42c3 f2cd c10a c7bf 5f8f 42fa fe22 ccbf
00000460: fb7c 8528 fa34 9d3f 69e8 51d9 8615 babf
00000470: cbb7 d223 882f c9bf b799 d42c 8ee4 b6bf
00000480: 5be8 fff2 dd6a b6bf d29a 7504 e06b 553f
00000490: 76a2 0b0d eabe a3bf 2a7b 27ab b6d8 c83f
000004a0: 9a6e 1cf4 e717 b5bf f48b 796e 0a61 c53f
000004b0: a387 00c1 215f cc3f b6b8 5720 073f cb3f
000004c0: 0db5 6368 bf08 c4bf 9d46 b50a 760c b6bf
000004d0: 6914 7945 0dae a13f b51f cf9f 271e a1bf
000004e0: a7cf 9aeb 6f3e cbbf 06bc 52dd 2059 b53f
000004f0: f577 88c1 8ad8 c73f e009 c156 75d1 c6bf
00000500: 0b21 73fb 2f11 b2bf 6ad7 b8a5 918a a6bf
00000510: ea09 147a af7d bebf 232f 6518 1188 c2bf
00000520: 0ecf ff7b d95d c03f 0bf1 0465 70c4 c13f
00000530: 9742 1e56 6ad9 c03f fd56 164d 9a29 ca3f
00000540: 6964 d79d 46b5 c3bf 0d72 5f65 61ef c8bf
00000550: 2c77 aac7 495b c73f 9cd5 b096 6ceb 6abf
00000560: 219b 55f4 2eb0 b0bf f7ed 7ecf 2916 cbbf
00000570: 97d9 4d89 5bf0 bdbf 4baf fb05 fb18 be3f
00000580: d225 4412 a9c6 cb3f bc70 8c14 2971 bc3f
00000590: d6b6 8fe3 5011 ca3f ddf3 6feb be40 a63f
000005a0: 1cea 7fa5 6179 cbbf ef57 5877 556b a4bf
000005b0: c261 c930 10d2 c8bf 696b 9bc8 4b94 b43f
000005c0: d2d9 0ee6 04f8 b53f 9eba 3d1a f83a b9bf
000005d0: 2da7 5ac4 05fe c0bf 70ea 0861 19cf c5bf
000005e0: 6668 6515 14ac bf3f 715f 4743 26e1 a93f
000005f0: 06d2 5682 705a c7bf f4ba ab62 7118 b03f
00000600: e645 4411 61f1 c53f ed6f ce45 901c cc3f
00000610: c961 fe14 1451 723f 2546 73a1 5b61 903f
00000620: 99bc 8a25 17af ba3f 5a3a 890b a178 c8bf
00000630: 0f26 dee1 b088 bb3f c6b7 91a6 3dee c53f
00000640: 711e 6435 8339 c8bf a134 c780 db44 ac3f
00000650: 0ac1 e135 aed4 c53f 07c7 dec4 0bb8 83bf
00000660: 29bb 960d 18b8 c33f 085a bae9 5db9 993f
00000670: 2e68 ee94 a005 c9bf 6149 db3f 1a01 bb3f
00000680: 06f9 9115 d186 88bf d455 4c7d 3d8d b0bf
00000690: af84 47f4 06a8 b9bf 8b68 ac66 8fad acbf
000006a0: 819e 61d0 5093 c53f 935d 8f20 735f bcbf
000006b0: 6730 8de3 4bf4 c63f 62b0 4531 155b 79bf
000006c0: c9b0 827e 8def a3bf 5c42 1696 74e3 c03f
000006d0: c017 0789 35e6 7fbf c074 a0a8 d150 cbbf
000006e0: 8cdb ca61 fca6 b5bf 2d67 bee7 74c3 c43f
000006f0: 75ce 7af2 bbd4 c8bf f1e8 75b0 8e08 b9bf
00000700: c5a5 ecca 1fdb bb3f 63ee 6d10 154e b83f
00000710: 3654 65c0 324d b93f 637a 70ea 3170 ca3f
00000720: 5927 c92e e411 763f cb18 33cf 77d5 bf3f
00000730: 2748 0ea5 e789 c6bf 7ae4 10a9 50f3 c1bf
00000740: 8cb4 28a4 7348 cb3f 1841 a47e cce5 cb3f
00000750: 404d ea3f d3d7 b13f 0ce4 2361 e2b0 b03f
00000760: ca9c 5f07 0575 ccbf f3f5 185c a824 c43f
00000770: 8989 5f00 9072 b13f 1ee6 0820 80b8 c0bf
00000780: a5cb 3295 5398 b93f f933 9116 5ee3 b43f
00000790: 1571 61a7 e43e c93f 3d8f ad39 dd59 a23f
000007a0: 9079 9823 995f c93f b5d4 9730 627c a6bf
000007b0: 9f51 8e8c db04 bf3f fdfd 52c9 a832 cbbf
000007c0: 7874 00e7 b70c c53f 8dd5 d170 c756 b1bf
000007d0: 7a4e f57e f32f b13f 9d91 0543 a792 c0bf
000007e0: 9747 e40c cbfb aebf 0726 62b0 60c8 be3f
000007f0: c48d 3e4a 535c cabf 223e 60a0 fbdd be3f

hidden_layer3.bias f8 [20]
0.004968614696233699 0.04657790699636426 -0.22117685006489388 -0.03311343195738822 -0.02801548703463234 -0.21655726579791146 -0.10009234197382437 0.17433084821276604
-0.041530720484177205 -0.0014523068144716756 0.010986677327417803 0.044632791588535226 0.16621499261573736 0.059347419080551786 0.11456396575241086 -0.12110739454576243
0.1994855625971157 0.1466046063212421 0.12296356111941463 -0.11414539977089687
00000000: a829 075a f859 743f 76f1 8736 0fd9 a73f
00000010: 219c d4e4 854f ccbf 7c6f a166 3ef4 a0bf
00000020: 4b8b 6182 17b0 9cbf 3c17 2803 26b8 cbbf
00000030: 3b8d 5bd7 a69f b9bf 9dfe e025 7950 c63f
00000040: 1689 84bc 8343 a5bf 1509 6791 6acb 57bf
00000050: 59f3 80de 2e80 863f 0865 67f8 1bda a63f
00000060: 44da b16a 8846 c53f b61f 1bf0 c862 ae3f
00000070: 3de8 3466 1054 bd3f b5b8 e0ea e400 bfbf
00000080: a07b b02f be88 c93f 41dd cb92 f0c3 c23f
00000090: 8f8a 9b39 8a7a bf3f b73d 0107 a238 bdbf

hidden_layer4.weight f8 [20, 20]
-0.09213733172901896 0.03029275754479892 -0.21592773612015487 0.13045228660419864 -0.11256567823163594 -0.01137695993596031 -0.1170618657624764 0.10650137440947871
-0.031874987235331886 0.01652233656962996 -0.08104948166985639 -0.1254586975378905 0.18869581044071784 -0.18416029216578367 0.1774011807673672 0.1369111901112654
-0.006205889086486269 0.02456195822750137 -0.21547316626090224 0.168131799749709 -0.16027208302044751 0.07296984547899164 -0.20724543033639958 0.17667620095210881
0.16148090301486404 0.07671783289190345 -0.2235339845997467 0.026586391428998126 -0.08722548354863356 -0.08719916403668405 -0.06757391343994712 -0.05974189360568394
0.17538772726395502 -0.19723965258626625 0.04478523816387511 -0.17009943383542328 0.2091941656849448 0.02407630443548963 -0.009273442295647772 -0.10040644946177776
0.051472206493469834 -0.020165713797170286 -0.12730334433401913 0.14576733698300517 -0.16109354203007956 0.18335405678870587 -0.13798640235747114 -0.16246780855246862
-0.0004302482898397588 0.11616349398451782 0.021078947272804162 0.14609371919086572 0.019003163820637593 0.03255555230421022 -0.22356508578949874 0.11563793512854877
-0.16347993416114376 -0.005834498453435481 -0.06456869146435795 -0.09881131034267596 -0.12318517549370064 -0.04897717932554633 -0.0848874550765679 -0.2015768711073269
0.03669758772444641 0.08524270291447737 0.004750882215191089 0.07083497550181855 0.07781462164582974 0.07792989387216041 0.14899882282765844 0.16527023320607603
-0.0020703958703246488 0.06868523727915443 -0.03817961258508392 -0.12067138944670348 -0.16610020567918812 0.09315538574483663 0.0878302111650899 -0.05950713661328589
0.13408904275905972 0.15809401168179113 0.11080186772438225 -0.0013767460556080714 -0.02746123923504949 0.18094935300931156 0.13381901465089574 -0.08743474051389814
-0.1874317385793963 -0.06728732263941208 0.22172684829295602 0.1210081766162375 0.051756615126823946 0.028861492195805933 0.21121333529171185 -0.0209790250219088
0.17959089517034119 0.09919385759584118 -0.12921470350060707 -0.06964852684425718 0.14383492967351044 0.2171147138339033 0.13061549392940186 0.1685595647124999
0.21460522253993514 -0.04370197066196426 -0.22160169562742285 0.04697157787027082 0.14510985361547749 -0.09007274171287026 0.2139944008700435 -0.05194759236713292
-0.04493591128239998 -0.027659030214956 -0.17505678917479123 0.018584660551146125 -0.07282653126540302 0.2011082475120908 0.19568145398376066 -0.1068221132904081
0.2216655515943146 0.09204798449978534 -0.01525934066947081 -0.002452434649758869 -0.013021007428967907 0.016990371230181347 -0.07871218953761835 -0.17992950170065533
0.045039650636472556 0.025121797977364278 -0.013594088795102112 0.19203609483980066 0.10501201756831707 -0.21516282344192228 -0.0363636478111117 0.04285684631700748
-0.03011203103067031 -0.11807869662817766 0.03472588053286216 0.07767531395869279 -0.17136807260816828 0.07909297817572136 0.13481219744762796 0.08902919592318519
-0.17182716167264445 0.14434539000702679 -0.07329914854267122 0.13458200632642575 -0.054892900940582766 0.213832440883251 -0.14902172561187818 -0.1717969702220935
-0.04190166211829319 -0.08417964833550945 -0.19124002265357096 -0.007422463351987811 -0.008763438693972262 -0.045364842476676714 0.18456836503419416 0.19990654818006592
0.11365792910426593 -0.022448242004614538 -0.04532525084541912 0.06431895388195705 -0.14297848529849594 -0.2051319351898678 -0.0352344741108594 -0.13422856508880876
0.021514114792293062 0.15996143807929444 0.21423798719906637 -0.13964918830158135 0.035286306964233856 0.019522758933793245 0.13967594046096193 -0.1339915372778216
-0.04379453867514532 -0.1380243577738855 0.197486389792332 0.2121516437180982 0.028379556332163363 0.1045253172488621 -0.19106066601481664 0.1899238540502848
-0.2133253194713455 0.1907664258028264 -0.123445066865124 -0.1613608885850774 0.033737980370694476 -0.019785665103893683 -0.0365435997371811 0.1280943313630274
-0.18655681051254236 0.11277423368350521 0.08607986266412274 -0.21748893411660247 0.16904445525362904 0.14171138120829221 0.21148668760282713 -0.030119846447369862
-0.03896923239152641 0.04389293626880897 -0.21518787602880654 -0.11584644456748253 0.15051911397826612 0.08258571219866497 -0.10167522328389551 0.0848588005593914
0.08660302390773901 0.05341479074477138 0.08157820231390128 0.10842105868813956 0.029391404040545747 0.009977733373217884 -0.11080952263485144 -0.07812831359748941
-0.12500598506129995 0.036565919731308995 0.15473521087641415 -0.185922311987747 -0.134917123260017 -0.12922677354027537 0.05873679430258826 -0.017749217679880577
0.13637178386819326 -0.15250323546702965 -0.15540036199344484 0.05310629853118616 -0.12597403682999378 0.16389572873314506 -0.14303872599746004 -0.19569602230922628
0.10546634802020516 -0.0970137026022325 -0.05634844862855576 -0.0891766697558323 -0.04153304545594509 0.058893298121402676 0.037278372445345175 -0.0187748780591639
0.051257114835005245 -0.08953508841496184 0.03676298959507669 0.11828467605269558 -0.1139804935211951 -0.05056341472450862 -0.09221913505302044 -0.18736896445239842
-0.20142865049720085 0.09412033305475541 -0.16057905629564317 0.05378071048219691 0.1855295596468576 0.18243156670753086 -0.12979769162469254 -0.11580386634052278
00000000: 994f 84ea 4f96 b7bf 4d9f d78b 1005 9f3f
00000010: a2ba 7722 85a3 cbbf 51a4 5318 a9b2 c03f
00000020: ec2c a8b2 1ad1 bcbf f5a3 d2b6 cd4c 87bf
00000030: fcfe 0e35 c4f7 bdbf e058 1190 ac43 bb3f
00000040: 00eb 7817 eb51 a0bf da58 e13c 3beb 903f
00000050: 9139 21a9 a8bf b4bf 7b45 76d5 070f c0bf
00000060: b517 5e2f 2f27 c83f c873 0980 9092 c7bf
00000070: c774 d5f6 14b5 c63f 50fe fd4d 4e86 c13f
00000080: 307a b4aa 586b 79bf 3758 401d c526 993f
00000090: 62c9 20ed 9f94 cbbf 02db abc2 5785 c53f
000000a0: 656e 84ad cb83 c4bf 572b eddb 26ae b23f
000000b0: fa27 c5ac 0487 cabf 0111 8964 539d c63f
000000c0: 474e b0fe 67ab c43f 866c 4aa7 c7a3 b33f
000000d0: eb42 b3f8 c29c ccbf 8726 d386 7639 9b3f
000000e0: 571b 38c7 6854 b6bf 51ae c635 af52 b6bf
000000f0: 008d 4924 864c b1bf c09c 794e 7d96 aebf
00000100: 50f6 5be4 1a73 c63f 968c aa20 263f c9bf
00000110: dccb 833a 17ee a63f c514 b278 d1c5 c5bf
00000120: 7abf 10da dfc6 ca3f 6ec8 a270 75a7 983f
00000130: 8d98 0c5b f4fd 82bf 8eed beb0 3cb4 b9bf
00000140: ffb6 15a7 905a aa3f 0b91 0925 52a6 94bf
00000150: 5403 4bda 794b c0bf dd60 950c 81a8 c23f
00000160: ddd8 4e93 b69e c4bf a48a bf4e 2578 c73f
00000170: 3382 b5d6 89a9 c1bf b65c 31c2 becb c4bf
00000180: 1872 8255 5e32 3cbf 9510 a707 e4bc bd3f
00000190: cae6 ae34 b895 953f 06b3 09f1 32b3 c23f
000001a0: fd4a 85bc 9075 933f 3b4c e610 1fab a03f
000001b0: 7c25 ffdd c79d ccbf 9dd8 8d9d 729a bd3f
000001c0: c21d 6315 e9ec c4bf c4b1 bc40 eae5 77bf
000001d0: b057 2fe2 9287 b0bf 1e8e 65b2 b24b b9bf
000001e0: 76f3 184c 1089 bfbf 8d37 e86e 8913 a9bf
000001f0: cfff 642b 2fbb b5bf df9a 845a 45cd c9bf
00000200: 9eb7 3cb6 06ca a23f e385 3d3d 77d2 b53f
00000210: b4bf dc3b a975 733f 447a 31af 3d22 b23f
00000220: 6f94 1eb7 a8eb b33f 3fca 8fa9 36f3 b33f
00000230: 29f9 97b7 6412 c33f 78aa 4f33 9327 c53f
00000240: 01af b051 eff5 60bf e0fb d40f 5b95 b13f
00000250: bb90 da36 478c a3bf 5d89 3cf7 51e4 bebf
00000260: 5320 a083 c542 c5bf 1168 3807 08d9 b73f
00000270: ae09 8e6c 0a7c b63f f1ec 432b b877 aebf
00000280: 3f78 b36a d429 c13f 2bf1 eeb0 6c3c c43f
00000290: ae41 36de 825d bc3f 3eb1 28d2 7d8e 56bf
000002a0: 3b4d b091 cc1e 9cbf 1f24 b430 5929 c73f
000002b0: e817 c141 fb20 c13f bb9b 0a87 1f62 b6bf
000002c0: ab28 b761 c3fd c7bf e9f2 2bf2 bd39 b1bf
000002d0: 7a1d 089d 8b61 cc3f 6686 1d51 64fa be3f
000002e0: 508a a4d2 d77f aa3f 0505 61f4 dd8d 9d3f
000002f0: 494b c7df 0909 cb3f 32f8 7b89 867b 95bf
00000300: d33e b59e d5fc c63f 8695 56c6 c464 b93f
00000310: d945 d97e 1b8a c0bf caba 0261 7cd4 b1bf
00000320: 192f 7cd7 2e69 c23f 56d1 b239 6aca cb3f
00000330: 9c8a 632d 02b8 c03f 9c20 ef1c 5c93 c53f
00000340: b20e 2e16 2f78 cb3f 531c 87cd 1a60 a6bf
00000350: 5d9d bac1 715d ccbf 7db2 969d a80c a83f
00000360: 9d8b cdad f592 c23f 17f7 ead7 010f b7bf
00000370: 24c9 a124 2b64 cb3f c842 a5f4 df98 aabf
00000380: 476b bffa d601 a7bf 4868 d918 a652 9cbf
00000390: 4a68 39c8 4268 c6bf 3605 1975 db07 933f
000003a0: 2de7 1072 c2a4 b2bf 4d99 0241 eabd c93f
000003b0: 2ba1 a502 170c c93f ad68 12ab b158 bbbf
000003c0: 36aa 5f6b 895f cc3f e7db 16eb 7490 b73f
000003d0: 193a 1209 4a40 8fbf 12a9 b8d3 2017 64bf
000003e0: 2a10 8c08 c2aa 8abf c742 1f83 ec65 913f
000003f0: de51 dc67 7b26 b4bf f3e7 b10e ee07 c7bf
00000400: 648a 03e5 6f0f a73f a901 eb52 87b9 993f
00000410: a7df 59b6 37d7 8bbf 1c87 7e85 a394 c83f
00000420: 0c95 244d 11e2 ba3f 08c1 ff94 748a cbbf
00000430: 5356 398c 419e a2bf b0b7 ae22 55f1 a53f
00000440: e8b1 f831 b0d5 9ebf ec50 5fcc 673a bebf
00000450: cc48 6d32 97c7 a13f f2bb 2885 87e2 b33f
00000460: 161f b795 63ef c5bf 98a3 9bfa 6f3f b43f
00000470: b8d9 91ad 8641 c13f fb16 e10c 9eca b63f
00000480: dc68 f9b3 6efe c5bf 364b b4e4 e879 c23f
00000490: 4cbf d0a5 bbc3 b2bf 06aa e6b1 fb39 c13f
000004a0: c30d a51c ec1a acbf e76d 3586 dc5e cb3f
000004b0: 97c0 f2d6 2413 c3bf 84f0 5370 71fd c5bf
000004c0: b468 e478 2274 a5bf bcfc 9624 cc8c b5bf
000004d0: 9bdf 7d95 8d7a c8bf 7807 a455 0467 7ebf
000004e0: d598 bad4 90f2 81bf 50aa a685 0f3a a7bf
000004f0: d459 d9a9 ef9f c73f d845 58ab 8996 c93f
00000500: a514 6fa0 af18 bd3f 30d0 0c05 acfc 96bf
00000510: facd 200c df34 a7bf 9e99 6ffb 3477 b03f
00000520: 82bf 3177 1e4d c2bf ebb9 8064 c341 cabf
00000530: b9ec fec3 400a a2bf 9c6a 9fd0 662e c1bf
00000540: 47bc bdcd cb07 963f 39fa 95cc 9d79 c43f
00000550: 8359 4a7e 266c cb3f d088 554c 06e0 c1bf
00000560: 91e5 d0fc 0b11 a23f d2e4 972c c6fd 933f
00000570: 1eb0 28b6 e6e0 c13f ea45 467b a226 c1bf
00000580: e8d0 b4de 3c6c a6bf d659 583b c8aa c1bf
00000590: 1716 c8e8 3b47 c93f 8aeb c7f9 c827 cb3f
000005a0: bb59 49c9 870f 9d3f 6419 30d3 2bc2 ba3f
000005b0: 78f5 0a08 ad74 c8bf f928 f0c2 6c4f c83f
000005c0: 1de3 447b 3e4e cbbf d3bc ffc3 086b c83f
000005d0: 27ca 098d 189a bfbf b6c7 a93d 79a7 c4bf
000005e0: 9883 a6c4 1a46 a13f 410d 3482 b142 94bf
000005f0: 2ba5 7fbb d7b5 a2bf 98eb 0022 6565 c03f
00000600: 10ac fff3 17e1 c7bf b58a 80ad c5de bc3f
00000610: 6a90 fc72 5409 b63f 0ae8 a269 add6 cbbf
00000620: 6236 71ab 3fa3 c53f 795b e139 9923 c23f
00000630: c691 65eb fe11 cb3f ded7 cead bcd7 9ebf
00000640: 13fa 5775 c6f3 a3bf a092 998b 2279 a63f
00000650: ed0b 05bd 468b cbbf 7274 c6d2 1ca8 bdbf
00000660: 84d2 fad7 3544 c33f 2998 0255 5624 b53f
00000670: 3d5d d12e 6307 babf e62c 2e6d 4eb9 b53f
00000680: 391f 6ba3 9d2b b63f 2d32 bef6 2e59 ab3f
00000690: 8c32 011f 4fe2 b43f c064 4385 7bc1 bb3f
000006a0: 61f8 8cbc c718 9e3f 1d9d 35b4 346f 843f
000006b0: b853 cd4b 035e bcbf 29f8 ca97 3700 b4bf
000006c0: 023f d234 3200 c0bf d5cb c9aa c4b8 a23f
000006d0: 8f7e 2007 5dce c33f 34c3 ca64 4dcc c7bf
000006e0: ff3c 09dc f644 c1bf 1dc1 0fbf 808a c0bf
000006f0: 3ff7 33c5 bf12 ae3f ffd2 dbd5 d92c 92bf
00000700: 28d1 e76f a174 c13f eeba 6edc 3985 c3bf
00000710: 3332 46b8 28e4 c3bf 8a5d ceae bf30 ab3f
00000720: e93a 2ad0 ea1f c0bf 0075 6e05 89fa c43f
00000730: 7c3c 1ccd 174f c2bf be40 e337 910c c9bf
00000740: 3049 93b3 d7ff ba3f e6c1 f0d7 e3d5 b8bf
00000750: a878 1430 b4d9 acbf c2e0 2a40 48d4 b6bf
00000760: 8685 dfbf d143 a5bf 141f c52a 4327 ae3f
00000770: 6371 009d 2616 a33f 4382 00bd b839 93bf
00000780: 0bad ce5f 5f3e aa3f e933 9684 c5eb b6bf
00000790: 9a30 073c 99d2 a23f faa7 438f e747 be3f
000007a0: 7833 0e5c d32d bdbf 9c50 3ba9 72e3 a9bf
000007b0: c53d 1e59 ac9b b7bf 4ae1 4dcb b4fb c7bf
000007c0: 3d73 2efd 69c8 c9bf 77da 5b28 4518 b83f
000007d0: a42d 9bc1 da8d c4bf d175 5a31 2589 ab3f
000007e0: c1f0 8fbf 6ebf c73f 5e29 62e6 ea59 c73f
000007f0: 9fea 4ff4 359d c0bf 92d2 ae7a 52a5 bdbf

hidden_layer4.bias f8 [20]
0.16608826295155898 0.03368915061914953 0.17866744632099413 0.031822418210099034 0.17783144506256657 0.10050356682650168 0.016884603952706544 0.13303392394343622
0.17022232287058298 -0.20871108289549747 0.12755287373884155 0.03794590354101119 -0.2215860500243782 0.1648235543581361 0.007572244393185467 -0.024088732403565793
-0.055116316582864616 -0.2129663287869446 0.1604712720521419 -0.01226710535319452
00000000: b02d d054 6142 c53f cb4d 4750 b43f a13f
00000010: 1a7d 672b 93de c63f c3e8 fb2a 074b a03f
00000020: 1d40 5f48 2ec3 c63f 6bb3 a60c 9aba b93f
00000030: e692 2197 324a 913f f23c 4c70 4107 c13f
00000040: 8e9f e356 d8c9 c53f f9a8 ac75 0bb7 cabf
00000050: d60c 9c0e a753 c03f d99d 733d a56d a33f
00000060: 0e61 0d83 ee5c ccbf f311 ca2f f018 c53f
00000070: 66b4 6ae0 1204 7f3f a06b 8077 b7aa 98bf
00000080: ec15 66b2 3438 acbf 9201 a50c 7b42 cbbf
00000090: feaa b498 528a c43f baec 7702 7f1f 89bf
