net_param/net_0.14.pth (torch, 17999 bytes, 12 tensors)

hidden_layer1.weight f8 [20, 2]
000000 96 1e 34 1e bd 4c d4 bf d5 7f 63 83 dd 52 5d bf
       -0.317183761115737 -0.0017897761550145126
000010 14 fd e5 29 84 29 cf 3f 82 38 71 fb 23 e3 e5 3f
       0.24345447583980528 0.6839771185857588
000020 60 5a f9 dd ba 6f e4 bf 04 28 78 bb 17 c0 96 3f
       -0.6386389098577858 0.02221715051386043
000030 72 4b b9 73 ed 7b ca 3f d4 2d 0f 85 36 57 dc 3f
       0.2069069685990957 0.44282305711814485
000040 b8 42 37 3a ba 9f c8 3f a6 36 f4 21 86 6c cf 3f
       0.1923744949586046 0.245499388293344
000050 aa a3 9d c8 62 76 d8 3f 02 d1 1c b5 9a 0b dd bf
       0.38222570029625536 -0.45383327185415123
000060 e7 d0 5a 50 7d 5a e4 bf 0f 78 2a e5 92 15 df 3f
       -0.6360460824421609 0.48569176082116966
000070 2c 30 2d 1e 27 c4 d8 3f 87 3d 04 93 83 14 db 3f
       0.3869722170536558 0.42312707287870704
000080 4f 70 38 33 49 94 c1 bf f9 4d cd 4f cd 54 df bf
       -0.13733782769202427 -0.48955090325509293
000090 32 b3 df a0 1a dc e2 bf 15 56 9e 2c ec 19 a7 bf
       -0.5893681661669687 -0.0451196484056419
0000a0 d0 7b 45 eb 03 e3 d4 3f 92 9b 88 a9 b0 14 d1 3f
       0.32635591483807236 0.2668878226854129
0000b0 89 d0 42 5d a4 ef b2 3f 56 ee d6 bf cd 7f e5 3f
       0.07396914746169804 0.671851038633984
0000c0 c8 03 be 65 f9 10 e4 bf 6c 43 5e 42 16 83 e4 bf
       -0.6270720469620921 -0.6410018249754166
0000d0 89 48 4a 9c 30 44 e5 3f 5d e8 aa 86 98 7b 94 bf
       0.6645739605467195 -0.020002730578859807
0000e0 ca 16 cd e8 3e bf e0 3f d7 87 17 9a ab 0b d5 3f
       0.5233454272172022 0.32883729980505677
0000f0 c8 f7 91 5d a8 3e df bf 5c d8 e8 b1 5a 34 db bf
       -0.4881993211528166 -0.4250704514883006
000100 bd 1c 64 4c 0f ad da 3f 0f 8c 1a cb 89 df d5 bf
       0.41681272945465847 -0.34176869234414736
000110 5b e8 ab ca 7a e5 b0 3f 02 35 de 22 4e fb e5 3f
       0.0660015816501142 0.6869269066825441
000120 23 e8 35 53 a7 13 db bf 82 c2 7c 9f ba 06 e2 3f
       -0.4230745613673454 0.5633214106547515
000130 1c b9 06 24 0f b6 db 3f 65 b8 ab e1 cb ac d2 3f
       0.43298700826825764 0.2917966560188517

hidden_layer1.bias f8 [20]
000000 1b e9 5b 8a b2 7a d2 3f 62 99 c9 72 19 30 e0 bf
       0.2887388564264641 -0.505871509737329
000010 c3 01 01 cc cd 9b b7 3f 57 84 ed 1b eb 34 da 3f
       0.09222112875523351 0.40947988250088
000020 0b 7f fc 07 e2 80 c8 bf 27 51 0d a0 ae c0 d1 bf
       -0.1914331950183555 -0.2773853838928226
000030 36 ef 5f 0f e7 2a de bf f0 f1 f8 03 c1 b7 a8 3f
       -0.47136856557311846 0.04827693150989265
000040 55 d3 f1 53 43 b1 e3 bf d3 2c 5f 61 da 07 d4 3f
       -0.6153885497611592 0.31297931202852886
000050 51 31 61 64 2e 8e da bf 66 7d 95 b4 d3 d6 e3 3f
       -0.4149280529279809 0.6199739958791894
000060 08 1e a6 fc 08 11 d6 bf 06 27 e9 5f a1 c6 ca bf
       -0.34478974030250287 -0.20918671782629178
000070 44 23 25 da f8 19 b3 3f 0c 5a 1e 51 9b 7c e4 bf
       0.0746150524693237 -0.6402107796046166
000080 28 4a 0a 03 fb c1 b5 bf 6a e5 3c 20 60 a0 ad bf
       -0.08499115776275146 -0.05786419290093188
000090 ed 9e 9f 1c 25 2e c2 3f 7d 58 04 b4 27 84 a7 bf
       0.14203323266632797 -0.045930138325432225

hidden_layer2.weight f8 [20, 20]
000000 5c 4a 45 b5 ec f5 b4 bf 25 a1 2b 28 49 6d b7 bf
       -0.0818775122218453 -0.09151131849978762
000010 88 40 61 5a e9 19 ba 3f 94 31 01 7e 63 0b 81 bf
       0.10195787865200334 -0.008322503359658374
000020 10 95 25 df 84 0a ca 3f 60 ee 95 c4 5f f1 8e 3f
       0.20344601531829953 0.015108822047060488
000030 16 a6 df d9 3e 8e c0 bf 40 c1 cf 65 a2 33 c6 3f
       -0.12934098852501624 0.17345075579897618
000040 61 67 55 0a 0d af bb bf e1 a2 57 2b 0a 8c bb bf
       -0.10813981535230034 -0.10760558660662013
000050 0c 3c f8 2f 23 db bc 3f a9 e3 79 32 78 bb c9 bf
       0.1127187721360629 -0.2010336157289008
000060 d4 c8 19 23 04 9b be 3f d6 c3 4a 77 1b 76 c7 3f
       0.11955285889578998 0.18329184841925777
000070 af 87 40 95 cb 5d bf 3f 12 8c 4f c0 19 de c2 3f
       0.12252495187615751 0.14740297212765135
000080 da cc 90 b4 d3 3f 65 3f 5d fd 15 9f ca 34 b7 3f
       0.0025939116353811244 0.09064928420956649
000090 17 55 f5 2c 35 1e b9 bf af 07 a5 90 48 2b ba 3f
       -0.09811718318572492 0.10222295314181794
0000a0 87 18 00 03 a4 9d a5 bf 4a a9 51 0c d0 00 c1 bf
       -0.04221832787156737 -0.13283730126870302
0000b0 40 ff cd 6c 70 80 a2 bf fb 7a f6 58 eb 5a b1 bf
       -0.0361361630266388 -0.06779356882041647
0000c0 ab d3 fc 2c 94 25 bf bf be 8c df 2c 94 ed c8 3f
       -0.12166715715723224 0.19475032988620983
0000d0 47 c0 08 8e 3c 02 c3 bf 60 e3 4d 90 3a 78 c5 bf
       -0.14850575385344397 -0.1677315907106971
0000e0 35 83 34 9d 09 60 c0 bf 5d 9f 40 ae 55 fe bf 3f
       -0.1279308335879478 0.12497458938798674
0000f0 3b f8 9a 61 6e 9d b7 3f f0 0b 86 89 83 d8 b9 bf
       0.0922459591192543 -0.10095998866567846
000100 92 3f a1 f9 0a 2a bf 3f a6 a2 36 8d 8b a9 bb bf
       0.12173527330855752 -0.10805580327599759
000110 4a a6 f8 46 4c 85 54 bf 89 d7 2e bd 43 a9 c8 bf
       -0.001252483834728218 -0.19266554582071319
000120 d5 d8 66 32 c9 8f cb 3f 06 04 e0 12 9e 68 a5 3f
       0.21532549820921668 0.0418137929955336
000130 50 c7 73 35 a7 86 91 3f 91 bb aa 4f 86 7a c8 bf
       0.01711522353884415 -0.19123915567385244
000140 6b d7 1d 16 14 24 9c bf 88 d6 c9 f0 fe 26 ca 3f
       -0.027481378412140083 0.20431505925414606
000150 7c b2 12 b3 f3 02 66 bf e8 00 c7 49 c6 54 b0 bf
       -0.002686954475015489 -0.06379355717854518
000160 1f 5e fe 38 db c4 ba 3f 52 9b d4 4c 19 f2 b0 bf
       0.1045662893433179 -0.06619413495773799
000170 4b 38 cf dc 9a 80 c5 bf 2c 4f ce 8e 3f ea b6 bf
       -0.16798721105300482 -0.08951184498283443
000180 90 6d 4d 8b 5d 27 84 bf 68 e2 1b cb b5 bb a7 3f
       -0.009840708554910177 0.04635398964268661
000190 f1 55 7d 53 86 ad cb 3f 9c 8d f4 5b 6c f3 b1 3f
       0.21623305393829598 0.07012059445383162
0001a0 99 55 8d e9 18 f2 c2 3f 56 af ee 8f 16 66 9d 3f
       0.14801322368536488 0.02870974782460619
0001b0 af 53 e8 7e 3d 89 c6 bf 9f 0c 77 de 25 27 79 bf
       -0.17606323906570995 -0.006140849996373237
0001c0 df be 6d 6e 23 0f ab 3f 0f 48 77 1b 56 ca b0 bf
       0.05284987185484424 -0.06558740778498894
0001d0 77 7b 86 6d 08 49 c6 bf 15 b5 40 51 6c 10 c1 3f
       -0.17410378787914357 0.13331369368953774
0001e0 51 41 54 e8 40 4e c3 bf 42 bb f6 13 29 59 bb bf
       -0.15082560867495912 -0.10682923066518149
0001f0 b5 b4 4a a0 47 4c cc bf 3b 71 8e eb af fb c3 bf
       -0.2210778744387533 -0.15611838342454995
000200 e0 5d 31 f5 ba 8f c4 3f 9d bf 40 c4 ed 39 c2 bf
       0.16063630077654434 -0.14239284594213766
000210 f2 97 d2 1f ea 44 c3 bf c1 c4 d7 94 b3 60 b1 3f
       -0.1505406051048222 0.06788179763659043
000220 d5 d7 80 6d 71 1c 91 3f 4a e5 88 96 68 1e b7 bf
       0.016710064228582972 -0.09030774760403407
000230 e6 b7 13 c0 c7 24 c3 3f 0f 69 6e 2f 2f b4 ca bf
       0.14955994490395524 -0.2086237889860247
000240 20 77 f7 48 7e 7f c2 3f 2f 64 8a dc f8 d7 c6 3f
       0.1445157867701079 0.1784659458978992
000250 17 b2 93 59 00 9f c3 3f 84 76 c4 48 da 70 b0 bf
       0.15328983663438642 -0.06422199513004939
000260 d5 bc bc f1 c7 81 be 3f ca 6b f0 a4 56 27 c3 3f
       0.1191678013972138 0.14963801435155083
000270 b2 a6 16 16 34 48 a4 bf fe 11 f4 1d 28 42 b5 3f
       -0.03961336869845179 0.08304072123798531
000280 a9 9b 3e bd 09 3c a6 bf 9e 78 3b 65 62 41 a8 bf
       -0.04342680392374316 -0.0473738430571171
000290 6a 47 ff 81 d7 ea c2 bf ed d1 66 1e cf 01 97 bf
       -0.1477918038131592 -0.022467838507241145
0002a0 62 ad 8a 7e 51 b4 c3 3f 6f 5f 12 d9 a0 0e bf 3f
       0.1539403789405283 0.12131696033099869
0002b0 35 ee 3d 10 ad cd ca bf 09 43 24 58 bc cb bc 3f
       -0.2094017342859488 0.11248376037498188
0002c0 d0 5b 6b ef d0 59 87 3f 03 c1 17 da b3 02 b4 bf
       0.011401779467105216 -0.0781662375882242
0002d0 aa 31 51 ea cd e1 c9 3f f6 38 9c 73 66 75 a0 3f
       0.20220350209491517 0.032145692455843575
0002e0 ee 0c 8c 66 ab 73 a2 bf c9 36 91 ba 5a d7 c8 3f
       -0.03603873850627247 0.19407209501007675
0002f0 ca 11 64 25 c2 70 ca bf f7 b0 30 82 af ee c9 3f
       -0.20656611276366582 0.20259660584395764
000300 18 83 05 5f 54 fe c7 3f 10 31 f6 c9 a6 b0 c7 3f
       0.18744902267192098 0.18507847653780418
000310 77 76 68 35 2e a0 b6 bf f4 bf 1d 12 2c 50 bf 3f
       -0.0883816604986921 0.122317079947379
000320 71 5b 69 17 f4 8a c2 3f e5 ee 3d 25 dc 1c b7 3f
       0.14486552374975362 0.0902841177866623
000330 36 69 7c c0 a9 77 9b bf 0d ef 34 b1 16 39 63 3f
       -0.026823665975009812 0.0023465579230598278
000340 13 5c 83 23 8e 75 b1 bf 8a f7 e1 b7 e3 1e bf bf
       -0.06820000044841405 -0.12156508673976255
000350 ab bc af 92 a9 99 b6 bf 2d 80 15 34 a3 41 c6 bf
       -0.08828220206463537 -0.17387809794581824
000360 82 71 8c b9 d3 b8 78 bf 3a d9 5b 5d 7a ba ac 3f
       -0.006035639810559325 0.05611021413453661
000370 b0 6e be 7a 6b 17 c2 bf 70 d3 32 9e 3c c8 8d 3f
       -0.14133971684792845 0.014542077615581767
000380 32 63 d2 43 53 2d a1 bf c8 b0 c9 db 8e c9 b3 bf
       -0.03354892924216414 -0.07729428163446805
000390 a2 d1 34 d2 c3 bd c3 3f ad 69 f0 4c 1f 71 c0 3f
       0.15422866596203472 0.12845221764366724
0003a0 0b 8d d5 8b ba ee c3 bf b6 60 8f 56 0b 26 89 bf
       -0.1557229216369723 -0.012279594973663027
0003b0 0a 3e 2b ce b8 84 ca 3f a5 8c 98 ea f0 e7 c1 3f
       0.2071753508266599 0.13989078001859415
0003c0 b5 67 28 e2 d0 08 67 3f 4e 23 3a 4f f2 11 b6 bf
       0.002811820960471468 -0.08621134218459511
0003d0 1d 98 1a 77 35 81 cb 3f 6e c4 c9 a5 a2 c0 cb 3f
       0.21488064113253894 0.21681626410603222
0003e0 74 a1 71 f0 82 a3 b9 bf 73 21 13 cc d7 b9 c6 3f
       -0.10015123720370928 0.1775464769800795
0003f0 ec bd 70 ae b8 b0 cb bf 0f 00 b1 61 ca dc b9 bf
       -0.21633060948941762 -0.10102524647754783
000400 51 21 a9 4b 17 02 bd 3f 6e cb 6e e1 f3 b5 b0 bf
       0.11331315610107608 -0.06527637723665489
000410 3e cb c8 fa 09 35 8a 3f 84 18 78 f7 83 79 ca 3f
       0.012796476331549674 0.20683335860684704
000420 a5 e9 6c 12 75 01 c0 bf 11 75 e1 f5 f9 ae a5 bf
       -0.1250444736450166 -0.04235058905099199
000430 ed 46 a2 63 9d 59 b1 3f 96 8d 54 3b 0c 85 cc bf
       0.06777366335361608 -0.2228102960299167
000440 1c f4 e4 c3 09 01 c6 bf e4 f5 a3 92 02 29 b1 bf
       -0.17190668168214607 -0.06703201370324724
000450 61 8c 94 53 89 25 a7 bf 12 85 47 9d df 59 c9 bf
       -0.04520825524584705 -0.1980552213636107
000460 bc b6 48 c1 dd 5b c0 bf 80 30 77 59 6e cb 9e bf
       -0.12780353486725982 -0.030072902880235564
000470 4d 20 c7 80 4e 3f c1 bf dc 52 09 6e d5 45 61 3f
       -0.13474446571331314 0.002108494620453134
000480 51 f5 51 15 a3 17 c0 bf fb ec f1 b5 b6 77 c7 bf
       -0.12572134533904003 -0.18334087261232654
000490 6d 9c 89 3c dc be ca bf 9d 3a 40 03 be 3d b6 3f
       -0.20894959407744143 0.08687961177222765
0004a0 dc 9f f8 8d 87 c3 be 3f cd 5f bf de a1 eb b2 bf
       0.12017104354947555 -0.07390796363995307
0004b0 17 31 fa 93 a8 74 c8 3f 47 15 1d 75 c4 b0 bc 3f
       0.19106013513044992 0.11207225665301222
0004c0 1d c7 f6 21 23 b3 ca 3f 2f 9b 8b 65 59 fe c8 bf
       0.20859183462521794 -0.1952621217562522
0004d0 88 62 7d e4 12 23 7b bf e1 d0 23 95 84 4d cc bf
       -0.006625245856263569 -0.22111565859052631
0004e0 b3 e4 ac 5e 3c 31 72 3f 22 5c c0 2c ea 9f b1 bf
       0.004441486186629695 -0.06884635536731357
0004f0 00 83 11 35 5c d8 c2 bf 8b 3b 78 5f 16 93 9b 3f
       -0.14722778884154053 0.026928281380658652
000500 12 4b 31 f1 3f 1e 5f 3f 6e 04 ec 11 0a 87 c4 bf
       0.0018993019518986393 -0.16037107348532537
000510 7d ad bf 19 da c5 c8 3f f5 8d 63 f5 17 ed cb 3f
       0.19353796250593894 0.21817302209738867
000520 f4 6d e5 ee e0 50 b5 3f 49 d8 f3 73 c2 81 ab bf
       0.0832653601877878 -0.05372436204372428
000530 09 9d 86 5b 6f ae bb bf 05 96 32 b7 41 36 cc bf
       -0.10813041672246383 -0.2204057831306018
000540 a1 db af e8 ef 16 c3 3f 83 b3 cb 8b 7d dd b3 bf
       0.149137486092255 -0.07759842551213407
000550 37 ad ba 63 a3 f1 a0 3f 23 28 4c 08 e4 3a c2 bf
       0.033093553470588004 -0.14242220311308626
000560 4b 98 5e f0 fc 1f c6 3f 03 aa a5 b2 d0 92 cb 3f
       0.17285119759361786 0.21541794512752696
000570 88 9b ea 62 bb ee be 3f 50 43 43 1c d1 ba c3 bf
       0.1208302608962254 -0.15413869743363273
000580 ae 32 3b 0f 2e c4 a5 bf e0 3b b1 4a 4f a0 c7 3f
       -0.04251235900810478 0.18457976481519633
000590 3a 05 93 71 d3 2f b8 3f 8f 8f ac 45 c9 bf b1 3f
       0.09447976610956213 0.06933267546679488
0005a0 96 ef e5 26 ba 26 b0 3f 53 a7 49 51 ee 51 c2 3f
       0.06309092950499315 0.1431253334915775
0005b0 d5 6c 30 11 aa af a0 3f 34 aa b8 d6 af 64 c8 bf
       0.03259021243885633 -0.1905727194255903
0005c0 17 26 06 3f e4 0e 77 bf 3c 21 a5 25 cb 27 bd 3f
       -0.005629436098737914 0.11388845128124542
0005d0 58 f4 ae 5d 2f c4 cb bf a3 ac 2a 9d f8 f3 c3 3f
       -0.21692459177384893 0.1558829085746299
0005e0 92 65 32 f8 9f 99 c9 3f c2 d2 08 67 63 8a b0 3f
       0.200000759305834 0.06461163774003878
0005f0 a5 65 30 63 be 5d 89 3f a0 18 ea 5d 7b 20 b7 bf
       0.0123858331699463 -0.09033938448746648
000600 9a 35 bb cc 83 92 a6 3f aa f5 0b f3 2e cd bf bf
       0.04408656953965391 -0.12422460016019579
000610 e4 33 54 04 12 e9 9f 3f 6a 2b 16 2d 50 11 bc 3f
       0.031162530435768235 0.10963917828318662
000620 9f 6f 61 a2 da c1 bb 3f 1e 8a 57 4b e1 59 94 bf
       0.10842672790880535 -0.01987411520338799
000630 72 d0 13 c5 2f c2 c0 bf 0d a5 a0 cb 26 29 60 3f
       -0.13092610476417438 0.0019727475855871924
000640 6f 15 07 cd a1 a0 b5 3f 27 02 4a 95 e1 05 b9 bf
       0.0844823003345334 -0.09774598974946312
000650 40 c2 06 46 52 da 89 3f 47 db 88 c3 e3 26 b5 bf
       0.01262344623759859 -0.08262465976518484
000660 a7 01 c0 95 03 63 c7 bf f5 d9 f8 7e ad 87 c3 bf
       -0.18270916759503317 -0.15257805537994754
000670 2a 18 96 12 f1 cf c2 3f b3 75 58 e7 ae 9d 9e bf
       0.14697087676558002 -0.029898388738833947
000680 b4 c4 8a 20 41 35 ba 3f bc fd 72 27 15 89 a0 bf
       0.1023750976990126 -0.032295857492040864
000690 c7 2e 4a be 84 ec a6 bf d2 3a f1 06 15 f8 70 3f
       -0.04477324316857572 0.004142839562588834
0006a0 64 5d a1 29 1a bc c8 bf 97 4a fb 1e ae f0 c1 3f
       -0.19324042351466197 0.1401574755933168
0006b0 1c 78 b9 98 eb 1f b4 bf 97 24 34 e6 8e 56 6e 3f
       -0.07861206511140079 0.003703383541168902
0006c0 e5 21 38 c5 a8 07 c3 bf 56 a0 70 a7 3b 69 c2 bf
       -0.14867124204489737 -0.14383645702150955
0006d0 1f da 7a d4 6c a9 ad bf 11 4f d1 80 72 b8 6b bf
       -0.057933236062513986 -0.0033838497534278774
0006e0 9b 69 a9 d8 7c 12 c1 bf 68 ee e1 8d 82 51 c2 bf
       -0.13337669924915194 -0.1431124871049747
0006f0 1e 00 6f 49 75 18 a9 bf cc 8b 63 9d 43 ca b1 3f
       -0.04901472588926502 0.06949255554677264
000700 f7 21 2e 91 0e 0f b5 bf 65 a7 ac 65 58 ee b2 bf
       -0.08226100010336511 -0.07394936067853804
000710 2f 23 7b 79 14 40 b3 bf 9d 64 ca 7e e5 64 a5 3f
       -0.07519653287739624 0.04178540394532002
000720 f9 40 73 15 0a ee ad bf e6 dc 35 c2 c4 2a 9d bf
       -0.058456721418794495 -0.028483461717283463
000730 ba fe 3c b7 07 fc 93 3f d7 e8 67 a1 a2 79 b6 bf
       0.019516106184936467 -0.08779350700925491
000740 59 5c 7b 9e 79 78 b1 bf 05 47 6c 4b 4d 5e bc bf
       -0.06824455374895545 -0.11081393329029872
000750 a3 94 bd 4c b5 bc b7 bf 07 f3 9d ba c6 c1 46 3f
       -0.09272320865200583 0.0006944866520225142
000760 e7 a7 2e 30 44 45 bf 3f c7 70 1a b1 75 d3 b7 bf
       0.12215067077946139 -0.09307036947069768
000770 20 4c f5 4c 65 51 c1 bf fd 3f 19 5b 9d 09 b7 3f
       -0.13529649980282077 0.08999045824134551
000780 b7 8e f5 28 16 03 c3 3f 3b b5 7f 86 67 90 bb 3f
       0.14853169441186306 0.1076721862188678
000790 a9 64 0e 69 be 0a b4 bf f3 21 81 9b 37 bc 8c 3f
       -0.07828893723344045 0.01403087085067598
0007a0 4a a1 78 52 e9 f9 c7 3f 19 3b 7f b5 75 71 c2 bf
       0.18731419112124065 -0.144087518331127
0007b0 f1 c8 e6 0b b3 b6 af 3f a0 fa c4 79 a1 e8 b7 bf
       0.06194076080591227 -0.09339341376196808
0007c0 ca 02 1c 8e 04 20 4b bf 45 1e f8 75 a0 d3 b8 3f
       -0.0008277914277812989 0.0969791687021991
0007d0 a4 c8 ef a6 02 4e c9 bf 55 13 3f 0e 89 8f c4 3f
       -0.1976931872482669 0.16063035197853517
0007e0 15 57 78 ef 1f 33 a8 bf 84 83 a9 b4 22 21 c7 3f
       -0.047265050871074056 0.18069871732134513
0007f0 fe 76 6c bd e4 b4 c3 bf bd 13 6d be 59 51 b6 bf
       -0.15395793198779723 -0.08717881106447485

hidden_layer2.bias f8 [20]
000000 44 6a dc c1 1d 7e bc 3f 6b bd 53 8d 11 0e c9 bf
       0.11129938109335408 -0.1957418384622359
000010 23 b9 81 99 53 db a1 3f 1e 93 c1 9b 31 c1 be bf
       0.034876453865637445 -0.1201354031814614
000020 9f 6c 81 cb 0d ca 91 3f 86 f3 c4 84 ec 6b c7 3f
       0.017372336908334614 0.18298107607725117
000030 8a 30 40 2a 82 2c 75 3f f3 05 8f 65 e6 33 c5 3f
       0.005169399697489871 0.16564636191291945
000040 9c d0 a4 fe d5 61 c2 bf 3a c9 0c 2a de 5a c4 3f
       -0.1436107152345628 0.15902306607456201
000050 0b 83 c8 6f e1 e3 b5 bf b7 d3 dd 0c b6 9e cb bf
       -0.08550843218882791 -0.21578097942588467
000060 9f 14 68 8e a9 fe a0 bf 9f db d7 94 a8 df be bf
       -0.033192919381727075 -0.12060025819651664
000070 f8 a3 a9 53 4e 13 b1 bf 73 db 39 fb 2e 97 b5 bf
       -0.06670083563371054 -0.08433812745520956
000080 b0 ec 31 8f 3d 51 ad 3f aa a7 b7 33 d8 0a be 3f
       0.05726044056879098 0.1173529745352925
000090 be 63 b5 d0 e6 5a c2 bf 89 f1 fc 26 06 71 94 3f
       -0.14339909735534023 0.019962402467386595

hidden_layer3.weight f8 [20, 20]
000000 13 5f d0 5d 80 40 c8 bf 13 1a 35 8c dd 20 cb bf
       -0.18946842747458756 -0.21194047304216265
000010 d7 18 75 8e d3 76 ca bf f5 01 e2 72 65 0f 9c bf
       -0.20675129371574627 -0.027402482163326487
000020 cd 12 98 44 f6 e6 cb bf 1e cf 3b e6 d6 34 c5 3f
       -0.217985900395567 0.16567503206135198
000030 a2 b0 d4 7f de b4 a2 bf 7b 90 95 f2 44 d9 c9 3f
       -0.03653617201266114 0.201943033646902
000040 5f 8d 5a 33 39 14 c5 bf 4b 17 03 3d 02 70 cb 3f
       -0.1646796704054436 0.2143557355795401
000050 95 16 81 e0 a0 ba b3 bf 06 0a 72 92 30 85 b5 bf
       -0.07706647378025828 -0.0840635640652537
000060 35 52 9d 45 53 72 bc 3f 54 bd f6 ab 14 bd b5 3f
       0.1111194653470385 0.0849163932641564
000070 50 7e 8f c3 84 52 c4 3f 3f e0 03 98 41 06 cc 3f
       0.15876826809743472 0.2189409248601368
000080 31 12 c6 32 84 7b 95 bf 66 fd 86 12 2a a3 c6 3f
       -0.020978990172368654 0.1768543806519844
000090 14 a9 38 1b 33 e4 af 3f 5e 41 8c 79 62 e5 c7 bf
       0.062287900040546657 -0.18668776450113972
0000a0 bc 6d 73 e5 ce 01 c2 bf 45 b4 4e 17 59 c8 76 3f
       -0.14068018153817075 0.005562160503285678
0000b0 07 46 c2 78 91 96 c5 3f 8e 32 a5 4a 7e 21 59 3f
       0.16865747829847086 0.0015338643375627822
0000c0 17 30 63 77 24 c9 c3 3f 4b 00 93 11 95 ac b0 bf
       0.15457588033166367 -0.06513339690263924
0000d0 09 32 f4 f6 54 f0 93 3f 0a e5 8e f3 1b c5 c2 bf
       0.019471480915898485 -0.1466402949570596
0000e0 78 82 de 7a c2 12 a7 bf e7 e8 34 a3 51 df c6 3f
       -0.04506500005596065 0.17869015187336076
0000f0 64 f0 87 b1 23 63 9b bf 3b 8b ce 71 e8 4d b8 bf
       -0.026745374403603597 -0.09493878153311368
000100 ec 86 3d 0e 75 48 c6 bf fc 9a 6e a9 57 6d be 3f
       -0.1740862197430525 0.11885593306088177
000110 d1 a6 e1 77 27 3b c3 bf 50 64 d0 b0 ba bb bc 3f
       -0.1502427420958186 0.11223952118634029
000120 a0 4d ac e6 2e b0 c8 3f 42 7b ba f0 6d 7a bd 3f
       0.19287668479283315 0.11514937522086391
000130 8e ef 3b 90 15 07 b4 3f 6f 8f 99 36 3f b1 b1 bf
       0.07823309680310173 -0.06911082346920037
000140 1f 41 66 5a 27 70 96 3f f5 32 c3 4f 02 54 b1 bf
       0.021912207500975996 -0.0676881260616929
000150 7e 0d 3e f8 1c fb 9e bf b8 d5 11 f7 40 18 c8 bf
       -0.03025479569579436 -0.1882401663203106
000160 e2 f6 58 0f 68 4f b6 3f 49 22 23 16 b4 60 c1 3f
       0.08714914679236643 0.1357636554805757
000170 5b c9 31 b6 ae c6 ba 3f 0a f8 fd 6d 7d 8c c0 3f
       0.10459415386302366 0.1292874133177409
000180 3c 7e 3f 87 2a f5 bf bf 18 7f 05 f1 51 78 c1 bf
       -0.1248346882052766 -0.13648437756182186
000190 cc 5a 3d 23 16 4d c5 3f 7c d8 ed 73 36 3a bb 3f
       0.16641499252974368 0.10635700540828624
0001a0 f3 54 71 ae 2c 58 c5 bf db a7 9f e1 ce 40 c2 bf
       -0.16675337331495363 -0.1426027871778491
0001b0 1f 57 2a f5 de d3 be bf c3 b8 e3 2a e2 e8 b5 3f
       -0.12042039380534363 0.08558476969821797
0001c0 29 8b c0 29 5f 45 ad bf fc 2e 71 87 21 fe c0 bf
       -0.057169889303869965 -0.1327554618204586
0001d0 73 38 5e 3a 23 e4 c5 bf da 6f 55 13 03 24 93 bf
       -0.17102470731737504 -0.018692062430417745
0001e0 29 69 4a bd d7 dd c0 3f cd ec 8b e6 ab 8e c2 3f
       0.13177010290821414 0.14497898823888136
0001f0 ac e8 8a cb 93 9c c1 3f b2 5c 95 90 f3 19 91 3f
       0.13759086073497906 0.01670055932967491
000200 6f 3d 68 f9 32 18 cb 3f a4 8f e8 88 4e b4 a2 3f
       0.2116759984787495 0.03653188153501155
000210 78 81 96 20 e0 f2 95 3f a3 7e 8b 07 d9 10 ae bf
       0.021434308995254864 -0.058722288294800216
000220 70 90 4f 23 99 34 a8 3f 19 13 3e 56 d9 d3 b8 bf
       0.047276292381668195 -0.09698255877999563
000230 e8 de 9a 18 5f 90 a7 3f 75 28 93 13 0a d3 c6 3f
       0.04602334189752161 0.17831541019251387
000240 9d 31 42 c0 ef 10 a3 bf 66 be 49 dd b0 4a c6 bf
       -0.037238590449393906 -0.17415438466149452
000250 1d 9b d9 d6 73 87 cc 3f cb 65 31 8b 67 a5 c2 3f
       0.22288368216251167 0.14567274376422143
000260 f9 ac d1 d6 95 d7 c8 3f d8 c7 eb 0e 4b 28 b8 3f
       0.19407914151393138 0.09436482538492841
000270 f0 d5 90 a7 c5 37 ac 3f 39 40 c5 eb 5a 2e 9a bf
       0.05511300726395152 -0.025567455902376166
000280 86 79 6a f0 6b f9 c4 bf e2 48 16 ee b8 52 b1 bf
       -0.16386174429949224 -0.06766849339172468
000290 2d be 7f 0a 6b 08 b4 bf 0d 1e e5 45 bb 27 b0 3f
       -0.07825345045397887 0.06310625511570596
0002a0 4e 50 1e a1 65 78 c2 3f 7d f9 14 97 df 15 ca 3f
       0.14429922453985217 0.20379252316520172
0002b0 66 a9 24 6c 56 ac b2 bf a6 2d 7b 0a 00 14 c8 bf
       -0.07294216289725383 -0.18811035644317292
0002c0 02 01 5e e1 4d 02 9f bf 7f 02 69 81 27 33 c7 bf
       -0.030282227402040902 -0.18124860590798517
0002d0 4a 9e 7e d3 5a 56 c4 3f 10 5f 51 98 5b d0 bb bf
       0.15888533903965857 -0.1086480376119392
0002e0 19 b2 92 32 d0 83 c9 3f 30 c1 55 b2 08 21 ac bf
       0.19933512181650384 -0.05493952919903433
0002f0 ae 40 86 58 61 3e b7 3f 43 d5 3b 5c 94 4a bd bf
       0.09079559718361693 -0.11441924335288882
000300 39 43 3a c9 a3 61 a6 3f 9d 64 52 a0 7d 15 af bf
       0.04371368247405489 -0.06071083623937421
000310 a8 50 aa 78 8e 95 c6 3f db 2f 4a 78 00 74 c6 3f
       0.17643910304889698 0.17541509507679973
000320 6e ca d2 9c 57 9b be 3f 11 c1 fd a2 af 2d c2 3f
       0.11955783442207643 0.14201922854000107
000330 56 e4 8b 07 dc d3 c2 3f 42 70 91 06 9e a7 9a 3f
       0.14709043854216713 0.026030034209142856
000340 68 f9 26 f3 60 b0 b1 3f bd f8 6e 78 de 91 9a bf
       0.06909757553419171 -0.025947071171451997
000350 56 c1 8d f8 7c db c8 bf f1 3a 49 4b fc 74 95 3f
       -0.1941982473031298 0.020954076857658547
000360 28 6a 59 44 98 cc ca 3f e2 bc 6d d4 a1 8a c1 bf
       0.2093687375771236 -0.13704321739667252
000370 7e 39 09 6b 92 1a b2 bf 7e 6a 8c 7b 74 e8 cb bf
       -0.07071795571503078 -0.21803146393434142
000380 84 ca ef 27 fb e0 6c bf 5f d5 66 8c 9d 3e be bf
       -0.0035252480879475762 -0.11814293554092135
000390 63 81 38 ce 72 d7 c0 3f f1 5b 1e f4 76 5a ba 3f
       0.13157496518489173 0.10294288120199703
0003a0 53 24 54 eb 0a 55 ab 3f 15 11 30 d8 bd f1 b4 bf
       0.05338319895424406 -0.08181368377706051
0003b0 22 a4 cd 48 c8 c3 ad bf c3 4e 9a c5 b4 1b c3 3f
       -0.058134325873489226 0.14928302429745174
0003c0 44 cf 5d 86 af 80 aa 3f ab 11 80 ae f6 73 ca bf
       0.05176304354873065 -0.20666392822762467
0003d0 bc 84 f9 4a b5 d9 ae 3f e8 50 c2 04 a8 48 b1 3f
       0.06025473156183511 0.06751489750087425
0003e0 82 66 35 24 3f 43 78 3f 2a bf c6 ee 6d 38 b5 3f
       0.005923506399392433 0.08289229468823281
0003f0 b0 70 91 0a 5e 67 91 bf f9 51 49 ef a8 31 bd bf
       -0.016995877642657475 -0.11403899995759294
000400 ef f0 76 2f a2 18 a0 3f 0f 51 2e 02 da 8f ba 3f
       0.031437938970585104 0.10375750115628456
000410 06 af 31 c1 67 98 c5 bf 91 0f 1a 44 b0 4c a9 3f
       -0.16871354039482628 0.0494132121212082
000420 30 44 95 fa 2b 03 cb bf 55 54 94 a0 66 0c c9 3f
       -0.21103429542066143 0.1956909450606498
000430 8f dc 1c 3e 1b 2a b6 bf 38 51 e8 b0 40 35 c7 3f
       -0.08657999292778328 0.18131264341412545
000440 f2 7c b5 7f b1 69 cc 3f 3d a8 9b 72 91 7e c1 3f
       0.22197550521648385 0.13667505355926038
000450 db e1 a3 f3 9e eb 5a 3f ed cf 84 61 9d e6 bf 3f
       0.0016430904639134134 0.12461265211896917
000460 42 0f 09 98 56 b6 bd bf 35 80 b6 01 08 9c 8b 3f
       -0.11606351100732318 0.013481199791215296
000470 b2 51 bf 29 f7 e3 c0 3f 84 f6 1d 2d d8 1d 63 bf
       0.13195695436901428 -0.0023335668747098155
000480 e7 aa 33 d6 45 60 ca bf 31 59 0a 37 b9 45 c7 bf
       -0.20606301268647728 -0.18181529223938633
000490 3f e3 5e 49 3d 55 c6 bf 7e cf 3b bf 82 03 a7 bf
       -0.17447630007316126 -0.04494865974802929
0004a0 f6 60 16 7b 35 a2 c1 bf 19 cd 31 97 df 53 b7 bf
       -0.13776272306564125 -0.0911235565306935
0004b0 c9 fe 2b 2d bf b8 7d 3f b6 d8 c8 2b ba 1c c7 bf
       0.007256266387002782 -0.1805641855041295
0004c0 20 d5 dc 76 45 ac cb bf 2b 54 2e da 8c 92 ba 3f
       -0.21619480422820292 0.10379867865260965
0004d0 6e 80 c5 71 f0 14 99 3f f3 64 b5 7f 78 ec b2 3f
       0.02449393934637139 0.07392075651059198
0004e0 8c 45 c8 7b fd 0c b2 bf a3 fe 54 f3 c4 6a c3 3f
       -0.07051071426419336 0.15169584161229918
0004f0 f6 6a 9f ef d6 d9 c1 bf dd 3b 91 5d 76 9f c4 bf
       -0.13946043682411585 -0.16111640518872053
000500 d1 3a 64 4e ca 2d b1 3f 9c 2c 7f 94 df ea 78 3f
       0.06710495389800576 0.006083367690688093
000510 9f 31 71 0d 9a 59 a9 3f 4f 58 fe 65 71 d7 b9 bf
       0.049511732235802734 -0.10094364872051752
000520 31 f9 fa aa c4 fa 9c 3f 5f 4b d9 4a 06 f9 c0 bf
       0.028300354896367345 -0.1325996270630538
000530 d6 c3 84 46 b5 c3 b2 3f 5a 8b 09 d8 dd 02 ad 3f
       0.07329876872678595 0.05666249525235996
000540 2b 83 a8 5a be 8c b9 bf 99 4b 90 c4 22 91 7e 3f
       -0.09980382645927637 0.007462631046126677
000550 85 f4 a0 f9 8a 59 ab 3f e9 8c dc a7 00 40 cc bf
       0.05341753289437982 -0.22070320316661388
000560 d3 54 c0 80 05 1f 82 bf 52 bc bf 01 b0 b2 ca bf
       -0.008848231307676013 -0.2085781105556373
000570 69 ab 0b 87 7e 8a b9 3f c1 1b d8 bf 81 46 94 3f
       0.099769504518617 0.019800212225188355
000580 a4 cd c5 a6 4e d2 cb bf 23 75 57 f3 d8 49 c9 bf
       -0.21735556739041073 -0.19756614572444517
000590 58 da 48 77 c1 35 ca 3f bd 9b e1 5e 59 80 90 bf
       0.20476549457972015 -0.01611461297616378
0005a0 c4 00 06 96 89 8b c1 bf 16 b4 74 f3 bc 97 b0 3f
       -0.13707084489215593 0.06481533950564286
0005b0 89 79 0a 31 c4 43 ac 3f 65 8c 47 59 f2 a9 c0 3f
       0.05520451639789587 0.13018636092519667
0005c0 60 1b 57 a3 54 79 8f bf b3 58 90 86 b1 18 c7 3f
       -0.01536813853716773 0.1804410845804277
0005d0 1a e4 4f c9 b6 73 cc bf a1 eb 42 2f 1c c7 a4 3f
       -0.2222813113183129 0.04058158947869762
0005e0 67 3f 1a 3b 2c c8 b4 bf df e5 36 ee 35 e7 92 bf
       -0.0811793941777502 -0.01846012369580829
0005f0 06 26 86 59 09 32 ca 3f c4 8f 85 5e 4c 6c c4 3f
       0.20465199347772528 0.15955500235861397
000600 d7 ff b7 b8 6c a4 8f bf fa 4d 03 4f 03 27 ab bf
       -0.015450333964508829 -0.053032019991999094
000610 4f e9 c2 ee 7c b1 cb bf 93 2a 83 5c e0 e3 c4 3f
       -0.21635400446195738 0.16320423619466293
000620 30 da 52 c1 04 b9 c5 bf 8a 8b 30 ac f7 da 80 bf
       -0.1697088188136191 -0.00823014730673834
000630 53 8b d5 9b 8f 98 bc 3f 32 42 a0 5b b6 a9 c8 3f
       0.11170289568467 0.19267920946050904
000640 2d 69 51 cd e4 a9 98 bf 2c c7 56 d7 3d 26 af bf
       -0.024085593253723992 -0.060838635002609415
000650 19 73 d1 5a 30 03 c0 3f a4 25 07 a3 c1 08 c4 3f
       0.1250973170707759 0.1565172239336735
000660 9e 94 0d 77 6c 3c c7 bf 1a 96 cd 7a 05 7e c6 bf
       -0.18153148472916752 -0.17572086807483417
000670 da de 62 51 ec a9 bb 3f 8d 47 25 2f 3f 52 8f 3f
       0.10806157099693384 0.01529359209658645
000680 4a 83 ae 5b 99 6e bc bf 5d 24 38 bf 83 ff b9 3f
       -0.11106260765383272 0.1015550939411169
000690 73 ae 60 e3 22 03 c9 3f 52 7b 76 6f 8f 71 a5 3f
       0.19540821173119446 0.04188202129011266
0006a0 d1 5e 00 f7 38 07 c1 bf 03 64 e7 da 07 e0 c6 3f
       -0.13303291378610152 0.17871187390008467
0006b0 61 ba 1e 78 1f 91 c2 3f ab 14 d2 3c 6c f2 c1 bf
       0.14505380025134954 -0.14021065683133335
0006c0 13 b1 23 ed a5 00 c2 3f 7f ab 64 47 ca 0e c8 bf
       0.1406447799594238 -0.18795135961530815
0006d0 4c a8 4a ea 3d 7d ca bf 7d fa 40 be 39 dc b7 bf
       -0.20694707813282986 -0.09320412535542207
0006e0 29 3b 9f b8 44 57 70 3f 22 ca ee 0c e4 d3 a4 3f
       0.003989475671871281 0.040679098681170936
0006f0 51 75 19 78 4e 10 bb 3f 5a 7f c4 96 c7 6e bf bf
       0.10571756775012388 -0.12278411322449526
000700 c2 2a 6f d7 83 56 77 3f 38 e3 77 6a 27 84 c7 3f
       0.005697741514220924 0.18372051905296316
000710 5e 11 39 ed b5 66 b1 3f cf 87 e3 87 c7 3e c4 bf
       0.06797349015784479 -0.15816587577051996
000720 14 bf 88 e1 b1 d2 c0 bf 75 a2 43 b1 c6 d5 c0 bf
       -0.13142989647303038 -0.13152393012503052
000730 f7 37 8a af 2b 2c ca bf 49 b2 f0 fa 2d 15 c2 bf
       -0.20447298117909415 -0.14127135041180086
000740 11 42 7a 36 01 2a c4 3f 6c ee 5b bf b3 5a cb 3f
       0.1575318828586352 0.2137055096026076
000750 cd b0 b6 e5 98 78 a7 bf 4c c9 91 5c e8 a4 a2 bf
       -0.04584195903893971 -0.036414395618424494
000760 15 78 df 54 d3 9e 5d bf db 6f 0d d8 a7 57 b1 3f
       -0.001807886484577197 0.06774376892775484
000770 0e b3 82 cd 91 a6 cb bf 9b e8 c8 a8 fd 4a cb 3f
       -0.21602079901403964 0.21322603932805326
000780 78 33 57 45 20 d5 ba bf 9f 77 90 2d 5b fc b9 3f
       -0.10481454556356862 0.10150689947519574
000790 50 35 58 9d 94 ad c1 bf 4e 75 eb 98 34 c6 c7 3f
       -0.1381097572597505 0.18573625056061832
0007a0 37 27 c4 08 44 16 ca bf 47 16 f2 35 2d d3 c3 bf
       -0.2038044970325303 -0.15488209852280674
0007b0 74 e8 0e 3a 1e f3 ca 3f 53 ef de af d6 98 9f bf
       0.21054437479853372 -0.030856470569900662
0007c0 33 86 47 3a bc ba c4 3f 71 79 ee 70 8f ed ca 3f
       0.161948708016142 0.2103747655318773
0007d0 fe bb f9 cd f8 68 c6 3f 68 06 fd e8 04 cb bf bf
       0.17507848794363662 -0.12419157684510085
0007e0 1b f9 b8 cb 62 42 cb 3f ea 6b 8c 88 82 8d ba 3f
       0.21296343753233135 0.10372176965431348
0007f0 a8 58 a6 44 7f 33 ab bf dc b0 be 09 c1 5e 9a bf
       -0.05312726700792442 -0.025752083034306192

hidden_layer3.bias f8 [20]
000000 81 a4 1c aa 87 c6 ad bf bd 4c 4c 03 a2 2f be 3f
       -0.05815528823433969 0.11791431980627727
000010 01 ce 26 89 d4 7e 9e bf 48 7c d2 03 b3 99 ac bf
       -0.02978069388491456 -0.055860132423952324
000020 af 9d a8 dd ba fd ba bf 50 9e 33 cf f1 ca c4 bf
       -0.10543411170566828 -0.16244337670581155
000030 89 00 ff ad 70 6a bd bf 66 9a f2 d6 e7 be c5 3f
       -0.11490539787246425 0.16988847728244422
000040 d4 c4 ee 54 0c 36 c1 3f e7 f8 4d 19 e8 4f c9 bf
       0.13446191928009077 -0.1977510570104137
000050 b2 90 cb fc 0d 0c bb 3f a5 4d 36 f4 06 71 c0 3f
       0.10565268918759577 0.12844931530399353
000060 cd be 25 e6 b8 d8 a3 3f 6a 2d d6 38 de 42 bc 3f
       0.03876283463875794 0.11039532554257439
000070 83 c1 dc d5 18 10 b8 bf fd 69 0b 22 bc 10 c4 3f
       -0.09399562093017803 0.1567607084496813
000080 a7 da 64 62 89 6a 78 3f 64 b9 53 4c 87 ab c0 bf
       0.005960976274130537 -0.1302346346560156
000090 ef d9 7c c1 fc 72 b8 3f 11 e6 4f ba 0c 0a 9a 3f
       0.09550456737347422 0.025428961631382366

hidden_layer4.weight f8 [20, 20]
000000 a5 af 44 f1 26 49 b0 bf f2 9d 99 cf 3a 2c cc bf
       -0.06361621275271874 -0.22009978424760807
000010 74 09 55 b9 5c f9 ca 3f 77 df 5f 22 e7 ca bb bf
       0.2107349305097831 -0.1085648020670059
000020 07 df 78 41 cc 02 c7 bf 3f ea b6 6b 7c ca c9 bf
       -0.17977288433916547 -0.20149188289163253
000030 33 8c cb b6 31 a2 c7 bf f9 fc 1e 1e d1 7a a2 bf
       -0.1846372740320433 -0.03609326832474297
000040 f8 28 85 3f 1b ee b4 3f 0c 64 6e 34 d8 aa c5 3f
       0.08175821591172283 0.16927626190297962
000050 c5 2b 0b ed 7d b2 c2 3f 32 44 eb 3d a5 98 9e bf
       0.14607214044948882 -0.029879171280132684
000060 0c 9d 01 c0 a9 64 cb bf ad f5 11 8e a7 f4 a7 bf
       -0.21400949359233612 -0.04678844079260656
000070 88 d7 37 1d 5b 73 88 bf 20 b8 88 31 33 e1 b3 3f
       -0.011938773945967332 0.077655028908993
000080 8f f7 b8 13 dc a2 bf 3f 08 e4 b8 0b cf f5 8f bf
       0.12357879144198435 -0.015605561776384405
000090 d4 b5 9a de 7e 07 c3 bf 00 65 79 ce fa 02 c8 3f
       -0.14866624707558052 0.18759093362567825
0000a0 9f 53 de 65 9a 77 b2 3f a8 7b a8 44 db 42 cc 3f
       0.07213749873183282 0.220790298962098
0000b0 e6 3d 59 d8 87 d5 ca 3f 1b ea 8b 1b a7 5b c9 bf
       0.20964143813988229 -0.19810952038808768
0000c0 34 fa e8 d3 f4 ea c8 bf d1 d3 d9 06 06 b2 c5 bf
       -0.19467029902621535 -0.16949534735218078
0000d0 f6 29 71 47 5a 7e b1 bf ca 6f 70 62 84 ab c9 bf
       -0.06833423847380246 -0.20054678732492298
0000e0 6c da 34 d8 c9 34 b4 bf 68 86 de 18 a2 13 b9 3f
       -0.0789304879043386 0.09795582873496189
0000f0 24 51 ed 95 b1 4c c2 3f 04 6e 51 d2 4b 19 ab 3f
       0.14296550579695932 0.05292736952170787
000100 42 b3 0a 4b 35 3e b5 3f 10 c2 f5 a3 29 3d 9c 3f
       0.08298047144007817 0.027577067024539714
000110 42 73 2d 16 c0 e9 a7 3f 6d cb 97 96 0a 1d b9 3f
       0.04670524855348514 0.09809938599191322
000120 19 a4 30 51 35 93 cc 3f 61 bc bd 59 27 4c af bf
       0.22324243988376294 -0.06112788172219364
000130 44 4a 80 a0 95 fd 32 bf d3 6c 8f a9 61 e5 b0 bf
       -0.00028977301599400853 -0.06600008382467885
000140 eb fa 57 d0 19 83 bd 3f 20 2c dc 76 27 c2 a3 bf
       0.11528168999209824 -0.038590653666766395
000150 39 e4 c1 e4 a6 55 ad bf 0c 37 b3 f5 a8 2a ca bf
       -0.05729409735153763 -0.20442687985490016
000160 ed 34 bc f5 2b 37 a4 bf bd ee 27 da b3 3a c1 bf
       -0.039483426806421786 -0.13460395958087715
000170 3c b6 0f b6 de 9d a2 bf 1b 84 30 c7 17 da c3 bf
       -0.036360702251709814 -0.155093166599756
000180 a6 64 48 b5 7a 3c b9 3f 55 c5 4a 24 c2 cb b2 bf
       0.09857909131860029 -0.07342160593068077
000190 64 74 e5 05 05 ed c3 3f 33 df 2e 1e 62 c1 c5 3f
       0.15567076480775477 0.16996408914359903
0001a0 d1 fb 2d da 82 64 a1 3f a2 cb 61 74 ed 9b cc bf
       0.033969964154486505 -0.22350853140559673
0001b0 d2 ff a5 7a cc 2a c2 bf 9e a6 1b 21 27 e8 cb bf
       -0.14193111408894638 -0.21802224270441156
0001c0 8c 80 bb 5a 8f bd ad 3f 2b d7 99 c7 ef 80 96 bf
       0.058086852861152755 -0.02197622924582913
0001d0 53 b9 bd e3 13 aa be 3f e2 dd 11 11 2b b1 c2 3f
       0.11978267965398474 0.14603174527631696
0001e0 b3 24 7f 04 c4 01 8d bf 01 42 8b 12 06 9e bf bf
       -0.014163524043299658 -0.1235050006173495
0001f0 cc 44 70 db 93 df c5 3f e0 69 87 c9 be 03 cc bf
       0.17088554587147653 -0.21886429634362425
000200 90 5a 33 8e 0b cd bb 3f 21 e7 75 f7 39 f3 92 3f
       0.1085974905175624 0.018505960205835174
000210 ff dd 9b af dd b5 c0 bf d5 34 d2 1f 1a 56 bd 3f
       -0.13055010866786174 0.1145950629890707
000220 9b 46 be 1f 47 51 cc 3f f0 f0 d9 79 9f 51 b7 bf
       0.22123040246929268 -0.091089217423306
000230 a4 23 90 56 cd 84 ac 3f 35 a9 a9 49 07 5b 86 bf
       0.055700699631479084 -0.010915810523517958
000240 19 89 1f 1f fb c4 ac bf 1b 91 94 d0 27 cb c6 3f
       -0.05619034533425999 0.1780748146494567
000250 a2 a6 9a b5 38 42 c5 3f 1c 6c e6 f3 a0 c8 b0 bf
       0.1660834204424662 -0.06556135134307833
000260 f2 a8 15 50 26 b7 a1 bf c6 3c 8d f3 3b 36 c6 bf
       -0.03460044601054503 -0.17353009597943564
000270 a6 51 cc bd 61 ac c8 3f bc b7 be 6b 2b 41 a2 3f
       0.1927606751202237 0.03565345468756173
000280 57 01 72 9d 6f e6 aa 3f 6b 23 69 61 03 4e 7f 3f
       0.05253933712902164 0.007642758565062783
000290 60 bc 94 0b 5b 50 c1 3f dc 8e 19 34 22 df bc bf
       0.1352647596881722 -0.11277974864929824
0002a0 d2 69 06 74 cf 07 c0 3f 69 06 00 25 d3 2d cb bf
       0.12523835339818717 -0.2123359614052334
0002b0 8e ae 47 5c 5a df c0 bf cb 98 78 78 d4 b7 c1 bf
       -0.13181619172916154 -0.13842254526497863
0002c0 d7 75 7a d8 64 cc c4 3f 4f 02 a5 ec ab b7 c8 bf
       0.16248760767204715 -0.19310521178160164
0002d0 b1 7b 99 f3 8d 65 c2 bf 6e ee 62 91 e9 36 ca bf
       -0.14372419733532873 -0.2048007926840571
0002e0 86 7f 51 36 44 8b bd 3f ef 30 ed d9 60 69 c1 3f
       0.11540628744250911 0.1360283912748694
0002f0 fe c5 c9 2a f4 ee 53 3f a3 24 f6 55 39 ff 5c bf
       0.0012166389889468605 -0.0017698345107837541
000300 ec ec 1e 7d d6 b9 be 3f e5 fb 80 aa 5f ff a0 bf
       0.12002316050250145 -0.03319834667535541
000310 c0 cd b2 6a a4 02 c1 3f 83 27 53 6c b1 89 8a bf
       0.13289313516507484 -0.012957941168128212
000320 ae cb ad e9 9b 67 c3 3f 6a d9 4c 74 1b 93 ba bf
       0.1515993968019677 -0.1038071783958451
000330 34 61 c5 80 37 de a4 bf a7 aa 0a 3f 17 db ac bf
       -0.04075787970458791 -0.056359030194774555
000340 6e 1a 11 14 a6 7a b7 bf ca 20 87 e1 0a 36 c3 3f
       -0.0917152213088259 0.1500867463312317
000350 96 b6 7a 58 cf 6f c9 3f a5 25 07 f9 3e 18 c1 3f
       0.19872466869621935 0.1335524288136131
000360 4b d9 04 d8 72 34 98 bf e2 31 32 b9 4b a9 c3 bf
       -0.023637575564145846 -0.15360399763848337
000370 be 64 43 23 d4 04 b3 bf c7 d6 03 44 c7 fa c4 bf
       -0.07429242955130896 -0.1639031488518212
000380 c4 9b 83 28 28 cf c6 3f aa 27 72 d8 3c 32 cc 3f
       0.17819692590930292 0.22028313225410773
000390 6b cb f6 25 21 d8 c4 3f 39 e2 22 1f 77 95 b5 bf
       0.16284574845993957 -0.08431190977251725
0003a0 78 3a 1c fa 86 1f b6 3f 56 81 30 d7 83 a9 b4 3f
       0.08641856771667189 0.0807115936627317
0003b0 82 71 6d 56 52 19 c8 bf 27 79 79 35 9d 9d c9 3f
       -0.18827275486081524 0.20012250052509126
0003c0 73 bc 17 91 89 83 b4 bf 7f 6b 29 82 09 68 c9 3f
       -0.08013210098555294 0.19848746161991568
0003d0 d4 ab e4 ac e8 9b a4 3f 4e b8 64 d9 39 1c c4 3f
       0.040251990418560674 0.15711138834871224
0003e0 35 ea f4 77 44 9c bb 3f 1c 27 25 d1 50 8f c1 3f
       0.1078532021391901 0.1371861478058286
0003f0 67 e5 da ab b4 4a b2 bf d7 ce 1b db b6 c5 a4 3f
       -0.07145241923980948 0.04057094025293189
000400 8a ee 27 74 17 73 cb bf f4 03 71 92 6e 9d c9 3f
       -0.2144498173873795 0.20011694097959742
000410 eb b1 2e 66 a0 49 c3 3f aa d0 58 28 a5 1e c1 bf
       0.15068440427184213 -0.13374771566453109
000420 50 cf 2c 0d fe 79 c7 bf e7 c4 f1 cd 92 5f a4 bf
       -0.1834104122477762 -0.03979166759462221
000430 23 23 1b 14 4a 06 9e bf 99 04 09 b3 d0 b3 ab 3f
       -0.02932086703984561 0.05410625634659389
000440 9f 01 6e 00 bd b1 b1 bf 76 72 6b 5d 54 a7 bb 3f
       -0.06911832104197523 0.10802199631457107
000450 de 15 6c 99 41 19 b9 3f 6d 16 4c c3 25 07 85 bf
       0.0980416297498645 -0.010267539045808871
000460 f0 c4 31 60 d5 5a c4 bf 6a e4 4b 65 74 b5 a3 3f
       -0.1590220184039377 0.03849376427201252
000470 82 02 83 be a7 4c c6 3f 05 13 df b3 93 fd 9e 3f
       0.174214332602805 0.030264194348791146
000480 dc 19 22 b6 cc 70 98 bf 71 be 49 67 72 32 b2 3f
       -0.023867796532181504 0.07108225843125539
000490 e3 23 36 71 67 f2 c8 bf 3f 89 b2 73 f7 76 c3 bf
       -0.19489758518127961 -0.1520680727890724
0004a0 f1 aa ee 68 e3 92 c6 3f ae f9 77 f2 b8 62 ba bf
       0.176357675777886 -0.10306888503689635
0004b0 60 f6 7d 1f f6 27 cb 3f 61 30 9a 81 05 88 ba 3f
       0.21215702569672867 0.10363802351111097
0004c0 af 3c 1d e3 82 0f ba 3f e5 e1 79 75 da e1 bf 3f
       0.10179918331890535 0.12453999870366024
0004d0 35 57 fe 49 0e 6a b3 3f c4 f4 60 96 8d 89 c1 3f
       0.07583703333361032 0.1370102867385069
0004e0 d4 3c 9d a4 cb 29 a4 3f e0 33 95 87 f8 95 bb 3f
       0.03938137421084212 0.1077571230900527
0004f0 57 de 5e b0 f4 91 b4 3f 9d 77 cf 44 45 34 bf bf
       0.08035210901186339 -0.12189133577291363
000500 dc a1 b4 b6 1f 68 c8 3f a9 2b 78 aa 1f 63 c0 3f
       0.19067760869189854 0.12802501510335887
000510 47 55 2a ee 39 5c ab 3f c9 48 4b 6f 50 11 47 3f
       0.053438005755348565 0.0007039683101430989
000520 71 f9 90 db 9e 8c b9 3f ff 46 97 52 b4 be bb bf
       0.0998019491243889 -0.10837866798763328
000530 97 3b 27 21 3b 91 b9 bf 9e 34 6a f4 2c 53 c8 3f
       -0.09987229880719749 0.19003831800765608
000540 d3 36 a9 49 36 86 aa bf 24 36 71 6d bd 69 a8 bf
       -0.05180520676786462 -0.04768173180546523
000550 c8 81 96 b1 45 27 c9 bf ba b8 b2 cb cd df ba bf
       -0.19651099368367242 -0.10497747634028345
000560 5a 92 c0 5e cf ed c7 bf 5b 7e 07 12 84 ed c7 3f
       -0.18694488646100887 0.1869359100373796
000570 39 df bd be 0b cb b0 bf f4 b4 85 fc c7 23 83 3f
       -0.06559823424128987 0.00934559096705321
000580 9f c8 32 b0 a8 3c c5 bf f6 86 d6 aa a3 6f ba bf
       -0.16591366389690607 -0.10326598091935665
000590 8c e3 af b1 93 6b cc bf 8f 3a 0d ee 67 a9 a9 bf
       -0.22203298736692678 -0.050120590027849514
0005a0 32 05 9a 03 95 23 a2 3f dc 4e 01 0a f3 4b be 3f
       0.0354277197739158 0.11834639543786402
0005b0 d2 09 0d 4b ef c5 c4 3f 91 b1 0b 68 77 33 a7 3f
       0.16229048885914082 0.045314532709969
0005c0 c7 d8 e8 f9 42 a6 b2 bf b9 05 22 c0 05 48 bf bf
       -0.07284945107753336 -0.12219272557015061
0005d0 9c 1b b0 d4 35 36 9e 3f 40 72 e4 d0 f8 3e c6 3f
       0.029503670793953427 0.17379675102064773
0005e0 92 dc 1b a0 b6 a8 98 bf b8 f9 08 37 ee 5a b3 bf
       -0.02408109047152302 -0.07560623973493008
0005f0 9b 13 78 7c df fa bd 3f 59 15 6b b5 73 d2 a6 3f
       0.11710926808161874 0.04457437123850622
000600 e7 32 e5 1d e0 04 c5 3f 17 81 81 8d 58 47 b1 3f
       0.16421128711444696 0.06749490217908193
000610 16 87 17 c4 ec f0 91 3f c0 43 f8 12 72 93 c4 bf
       0.017520617931842862 -0.16074968267687773
000620 eb fe ce a8 68 2a 8f bf 42 61 1d d6 a8 2e b1 bf
       -0.015217607165936417 -0.06711821772967588
000630 42 91 74 f1 e9 a8 b1 bf 0e e3 59 5c c4 3a 61 bf
       -0.06898367066293523 -0.0021032176180678713
000640 31 36 7f f7 c5 50 9a bf e3 1b 7b f1 9c d8 bc 3f
       -0.025698750716222022 0.112680252986237
000650 bf 75 bc df d8 ac c7 3f 7c 09 7e e4 13 fd 78 3f
       0.18496237682931668 0.006100728707567501
000660 a3 ad 1c 3d 75 68 b2 bf e0 82 f1 0f 42 5e cb bf
       -0.07190640203469072 -0.21381402758108603
000670 3d 0b dd e6 3b 38 b0 bf 6e fd a8 6a fb f5 c6 bf
       -0.06335806261362804 -0.17938177783978965
000680 61 0b df 91 60 3e c7 3f ca 92 13 e8 0b 1a 8c bf
       0.18159110186214902 -0.013721554775153594
000690 63 45 69 59 76 53 b7 3f ad f3 48 84 d2 b1 cb 3f
       0.09111728365794174 0.21636420687891925
0006a0 3e 84 50 25 36 a3 c6 3f 60 90 b5 7f 35 9d b2 bf
       0.17685581991193716 -0.0727113186636088
0006b0 8d 66 ed ed 71 22 c0 bf 1e d7 cb fa a2 5c c2 3f
       -0.12605117909952349 0.1434520458785124
0006c0 a6 57 88 7c 7a 65 cb 3f ba 1e 3b 6a aa b6 c3 3f
       0.21403437691395516 0.1540120142656088
0006d0 b4 c0 ab 72 34 07 c4 bf 50 12 12 5a 90 36 c9 bf
       -0.15646987532773482 -0.1969776572988331
0006e0 88 30 71 bd 1d 66 cb bf 1b 4f 3c 2f a7 67 c7 bf
       -0.2140538382540209 -0.18285074049401193
0006f0 37 70 77 fe b8 0e ad bf ef 94 1a 1b 9b b3 c5 3f
       -0.05675294977456285 0.1695436365454621
000700 ce d0 d1 be c9 4c 9f 3f ae 41 98 0b c9 eb ca bf
       0.03056636073274959 -0.21032059732580194
000710 59 d6 bf 77 b8 1e 60 3f 54 70 79 9f 52 28 bb 3f
       0.001967773712744852 0.10608402627389185
000720 3b 25 19 49 d0 12 af bf 58 0d 38 c1 b3 b6 ae bf
       -0.06069041149437245 -0.059987656914041565
000730 49 fb 48 2f 5d 47 7b bf ca ce 7a 09 c3 89 86 3f
       -0.006659854891551139 0.011004947401807814
000740 5b ad 60 fa e9 c2 bb bf b5 13 5f 61 86 00 bf 3f
       -0.10844290125594595 0.12110175969344435
000750 6a 7c cd f4 b0 ca b5 bf c3 f2 09 54 12 1c c4 bf
       -0.08512407280567094 -0.15710667708835588
000760 38 6f 6e f8 65 c6 a8 3f 20 75 10 b1 04 f2 c5 3f
       0.04838865907296824 0.1714483131953921
000770 b7 4b b5 f4 1d 40 cc bf c4 65 c6 e9 3e 0d c6 bf
       -0.22070669602052614 -0.17227922835154008
000780 c3 09 51 a7 b8 17 a4 3f 8d b9 69 30 e0 40 c8 3f
       0.03924347917974871 0.18947985042491347
000790 bb a8 05 60 d9 cf ca bf dd b7 30 e4 9b 95 b7 3f
       -0.20946805180148495 0.0921266014199484
0007a0 8c 10 69 95 e8 d4 c3 bf 1a d2 ed 91 40 4d ca 3f
       -0.15493495269231905 0.20548255086363626
0007b0 1d c9 11 22 8d 74 a2 3f 94 f0 d5 47 07 87 c8 bf
       0.03604546585929056 -0.1916207409630074
0007c0 7d b4 d9 5e 27 82 9d 3f 60 ac fd cf 35 98 af 3f
       0.02881680981083833 0.061708146705165445
0007d0 9a e4 e3 aa 68 50 c4 3f 78 12 a1 ca 99 c1 c5 bf
       0.15870388359306703 -0.16997072595599483
0007e0 50 98 5d 21 57 a5 b2 bf 30 60 8f c1 99 b6 c5 3f
       -0.07283539356794333 0.16963502837347866
0007f0 24 6b f0 37 23 ab c9 3f d1 18 58 07 4f f3 b2 bf
       0.20053520423319882 -0.07402509621906296

hidden_layer4.bias f8 [20]
000000 99 a2 34 02 9e 4a 75 3f 91 36 31 84 97 77 c3 3f
       0.005198113652377012 0.1520871539564053
000010 70 9c 6c 22 ac f6 74 bf 33 cf ab 1a 84 c8 96 bf
       -0.005118057632706216 -0.0222492829588667
000020 1d d5 bf 15 1b a8 a8 3f 3f 86 a3 d2 d5 97 c2 3f
       0.048157545475911535 0.1452586439618688
000030 3e 2d fb 58 c1 42 cb bf 97 fb 89 3d 79 4a c5 bf
       -0.2129747089842144 -0.16633525376161337
000040 7c 02 5b 5e 45 f9 7c bf bf 6c 77 81 c3 1b b8 3f
       -0.007073660822869084 0.09417364035418795
000050 73 7d e8 67 1e 94 c9 3f 5e c5 87 48 b6 f3 b2 bf
       0.19983272622719603 -0.07403125067482594
000060 9c da 84 e2 65 a2 90 3f da 0c e7 3b 91 ce c4 bf
       0.016244499159450684 -0.16255393433502868
000070 62 3b 20 e0 62 eb a8 3f c4 d0 29 51 2c 9e b8 3f
       0.048670854434127234 0.09616353017355822
000080 00 cf e1 c1 a3 02 cb 3f 2c 44 60 e5 42 3e 9b bf
       0.21101805655381867 -0.026604695558550315
000090 7f 0a 44 0e 4f 88 62 bf fa d0 3b 96 59 a8 ab bf
       -0.0022622627312796624 -0.05401878317744209
