net_param/net_0.13.pth (torch, 17999 bytes, 12 tensors)

hidden_layer1.weight f8 [20, 2]
00000000: 203f b37d 24d3 0240 75ec d1fd fb3c f93f
00000010: 7d88 b043 db41 e9bf 67dd eac1 cae6 f93f
00000020: f682 c79e 1683 fcbf fca6 4d41 661d 1040
00000030: 5c65 b71b cce5 e3bf b225 6ab8 0d80 ecbf
00000040: f030 0cfa 128b d13f af14 d112 3d50 f4bf
00000050: 4ec7 0452 f9df e3bf 6a94 f2e3 f5d9 cfbf
00000060: 160c cdf0 3e5d d73f 8bad b8ae 4289 f23f
00000070: eb19 e4ff fb44 de3f 4081 6a6c 335b cdbf
00000080: 5795 347a 38b4 e2bf 0b3c d4d2 2eec 02c0
00000090: ad8a ef65 5de2 eb3f f765 89b2 3b0b c93f
000000a0: 1a6b b860 fd97 e93f 9300 9511 2b44 e1bf
000000b0: 2749 1901 60dd fdbf 53b4 e617 cd06 fabf
000000c0: 5a81 9493 7c00 e3bf 90d6 48a5 5930 0cc0
000000d0: 86f7 45a0 8efd f7bf fc68 288e 5921 e03f
000000e0: 3d51 5377 8e90 f8bf dae5 9db9 ba76 d9bf
000000f0: e75f 4f96 848a de3f 71c8 9152 8517 dd3f
00000100: faf2 3307 ae7d f0bf 8950 6869 e5b9 0740
00000110: db85 67c0 f78b eabf c2a3 f43e fa5a e3bf
00000120: 75bf 4a0a 0cfd fdbf 9f5a c174 53dd e4bf
00000130: 8c04 4c67 9345 0740 b893 5ab7 c4f3 c73f
2.353096944840118 1.5773887553066548 -0.7892891237318193 1.618845708360675 -1.7820039942091035 4.028710384716529 -0.6218014279685735 -0.890631542382087
0.27411341112816867 -1.2695894942310522 -0.6210905649115632 -0.24883912687542714 0.3650662757465296 1.158510859017812 0.4729604720054385 -0.22934572976829237
-0.5844995867561619 -2.365323683835873 0.8713824263507682 0.1956553098450937 0.7998034371442799 -0.5395713179969043 -1.8665466349526214 -1.626660436023731
-0.5938094026969722 -3.5236084854939875 -1.4994035969425297 0.5040710236092134 -1.535292116274902 -0.39787166716231825 0.4772044628020908 0.454560595163577
-1.030683544289046 2.965769599433831 -0.8295859105966729 -0.604855654678538 -1.8742790605574247 -0.6520173340203036 2.908972556121233 0.18712672188590118

hidden_layer1.bias f8 [20]
00000000: b440 43ad d0c7 ac3f e0e7 c759 1970 a0bf
00000010: b1dc 4867 f041 dd3f f6e5 c4ad 7e48 ce3f
00000020: 07b5 98c5 e80b c8bf c722 6456 bbbc c63f
00000030: 9653 7823 ffe8 d73f 3767 742b 7c2e bfbf
00000040: fe19 f2b3 fcdf 98bf d0ec f705 2749 bfbf
00000050: a890 3f6c f576 d93f e8e2 cdfc c500 c73f
00000060: 9ead cc37 8b07 b5bf 690c 1e97 67d8 dd3f
00000070: cd2f 8f11 fa47 bd3f d545 b5d0 a345 dbbf
00000080: 7940 d845 c93e cd3f f8de db25 c978 d93f
00000090: bce8 5e3c 8c1e bcbf d490 917c f8bd d13f
0.056211968565209075 -0.03210524769742995 0.45714960180653025 0.236587366913042 -0.18786344192759705 0.17763463705366275 0.3735959860217063 -0.1218030553904129
-0.024291943057074043 -0.12220996757234848 0.3978856618034663 0.179711101951191 -0.08214635956090041 0.46633329160267195 0.11437952927297985 -0.4261254823842056
0.22847858343493835 0.3979971761432206 -0.10984112237830151 0.2772198883524315

hidden_layer2.weight f8 [20, 20]
00000000: 75b3 ee6e 1ce0 d6bf fba8 a210 5b2f c2bf
00000010: 78e4 17e5 b451 da3f d97a bc6f ed15 c93f
00000020: b413 4121 f66f b7bf cebc 0303 a35e c23f
00000030: 9459 beba 858a ccbf 9513 b99f 38d0 d1bf
00000040: 671c c9bf 3237 d13f 4ae8 b727 8576 e5bf
00000050: 5e9c a86b e27c b8bf 05a2 7a51 c2fb e73f
00000060: 2c86 c290 5b54 bf3f 39f1 8a52 b5f8 d23f
00000070: 67ee 0982 1d73 e13f 99bc d19e a685 79bf
00000080: 7e88 ddd4 def0 d73f 9557 6904 06f9 d83f
00000090: c6bf 9598 b96d c03f 21ac 5d65 9804 d0bf
000000a0: 9282 19e4 d6bd f2bf ee57 2959 9cb2 ef3f
000000b0: 3d44 fe6d 8721 ea3f 6adf a239 b022 963f
000000c0: b3c6 2bdb bfab d2bf 76e3 b421 6bbd da3f
000000d0: 3369 635c f72e aa3f c846 75b5 e8f7 d5bf
000000e0: be72 eb26 c449 e7bf 3038 c9f0 902f e0bf
000000f0: 2ea0 a8bd e27c c8bf 7807 7fbd a5d1 d93f
00000100: c80a 99ac 1860 ebbf 774e 54f7 f1fe a23f
00000110: f88d 085a 5c5a e33f 05b5 8bf0 5b26 b2bf
00000120: cdfc 1ef0 9a4f eb3f f6dc 7ad4 2e0c b83f
00000130: 1add c597 adfa ec3f f75b 5979 67dc f3bf
00000140: 8f34 7db2 140d dfbf bba6 1564 b16b adbf
00000150: 213b 8379 f6ff b93f c315 b562 777a c0bf
00000160: 7d27 9a48 00ab 9fbf 321a fe1c 963b 7e3f
00000170: 4538 1239 738f 9e3f ddcc ca7e d7ff b93f
00000180: 1fcc 927e 9dbf c83f 91b5 e941 dc16 99bf
00000190: 1f97 f67d 6822 b63f 46d4 9373 825b a63f
000001a0: bd2e 6105 b479 c93f 8be5 c263 a90b 70bf
000001b0: 6eb4 0e68 89b2 c93f 237e f031 f7b4 db3f
000001c0: ae91 7129 2531 a93f 3dd3 0617 f77a d3bf
000001d0: 7200 8f89 704a 6ebf 2787 0f54 ea81 af3f
000001e0: ee8f 17f9 0dc3 debf 463a bf5a 9e42 8c3f
000001f0: df34 4da6 d50e b83f 224b d9bd 35d5 a3bf
00000200: cbb2 59af 51ad c73f ed24 7cae 8e4a c63f
00000210: af61 8011 50d1 a33f b1b1 b81f 5166 b43f
00000220: 55b8 d33b 2aaa df3f a4e4 c65a 5fe9 ccbf
00000230: 6629 50df b6b3 c2bf 63b9 40e9 4337 d63f
00000240: 2512 6fc4 5580 d63f 4a02 ee60 7d60 c6bf
00000250: 8f85 97e0 64cc d73f c3ca 55f5 f72f 9dbf
00000260: 03de 76ba 8dec b83f 514e dca8 856c d13f
00000270: 5fb0 9d5e f552 a63f e4e3 9f90 b223 b1bf
00000280: d76e 1f58 6360 d33f e100 34c6 46b8 d23f
00000290: 99f8 4537 054b b0bf 8544 8aca 58c3 c83f
000002a0: 3b1a 0ec2 d732 ca3f 70f2 e6ec 85f9 cf3f
000002b0: f112 7187 9f34 b1bf b8da 9ca1 d9a6 b5bf
000002c0: 1c05 a8cf bf27 9fbf 0adc 02e4 b023 bfbf
000002d0: 8569 ccab 6908 d1bf 7a27 94aa 5a2f 803f
000002e0: 76b2 9d90 2217 ac3f 1206 e826 526b b4bf
000002f0: 24a2 a4c2 db9c b5bf 65ae 1d3d 6af8 c3bf
00000300: d7d4 aea5 5597 d2bf 58a1 a2a8 1a9b b53f
00000310: 7de3 c149 999a bfbf f16d 79b8 f6ab aebf
00000320: 9b85 520d 8141 ba3f 4d47 432a a677 c5bf
00000330: e3d2 6669 20b9 b63f e2c3 401e a708 cf3f
00000340: 8a76 5ced d002 863f 82b5 3041 5b08 d33f
00000350: 4844 cad1 96fa a13f 096a e62c 8b8c c33f
00000360: b20e cfa6 366f bbbf 022f edfc 9e1d aabf
00000370: b5c1 b19f a579 d23f 549a aac5 23e1 a33f
00000380: 32e3 1324 dc7c c13f 3d60 a3de 62d3 c9bf
00000390: f970 7014 345c 923f bf00 10fe c80e d1bf
000003a0: 8252 ea3e ca74 cf3f 0e08 237c 0fee 863f
000003b0: a279 c63b c200 cb3f 0766 badc bb1a aa3f
000003c0: 3a45 fb23 060b d23f 4c48 f328 0642 c0bf
000003d0: 4b82 49f7 1547 c1bf 8c4d 1680 54fb d83f
000003e0: 55c8 0b99 d3b3 ce3f 93aa 9adc d07f c73f
000003f0: 2b3f dc39 322d b63f fa1d 2999 3bc0 b03f
00000400: d040 24e0 acc9 aa3f 49f7 11ea 9dca cbbf
00000410: 9780 b6a2 1886 ba3f 0a6f b95a f1f3 be3f
00000420: 0fab e3e0 6404 b2bf ce39 3c17 09fd c6bf
00000430: a3d9 d552 69a4 c8bf 6f00 21e6 efa9 b2bf
00000440: e378 77e9 77f5 54bf bace 5726 9dca c83f
00000450: e584 c78c 227e c8bf 9beb a6e1 701c c03f
00000460: f14c 1149 3a52 a83f 53fd ad59 e113 993f
00000470: d2a1 4f81 b84f a9bf cfb0 0c6c 54bb d8bf
00000480: f10f 4075 323a c0bf e1cc 0b0d 7ed6 a7bf
00000490: f742 cdc5 6906 a1bf 8db9 0c70 aef3 d03f
000004a0: 7f4b d7eb 9cf5 d3bf fec4 0def 9472 b23f
000004b0: 29db b296 1221 c2bf b891 da5d 2f60 debf
000004c0: f0cd ee2d f820 cbbf e46b eeef c0fa 933f
000004d0: ae70 8c9f faa8 d2bf 77c7 a540 0cf8 a63f
000004e0: 366f b131 2c2f c43f 3af9 4afb cee2 d5bf
000004f0: e83a 6967 cf83 d2bf aecf 2b7e 9d64 9bbf
00000500: 9e0c 63e0 468a 903f 829d 9231 d8fb c7bf
00000510: 8f5a 40c8 e8ae acbf 9a07 fd17 cff2 c93f
00000520: a4d3 7667 6038 ca3f 5b8c 6f2a 6a02 c8bf
00000530: 3696 073b 1eea c33f 06a4 0e65 4b5e db3f
00000540: f1b4 57b7 97ca aa3f 4cd9 a7cd 42c4 d83f
00000550: 6e83 00c3 ecb7 be3f 3b35 f81f aaaf d43f
00000560: cfcc a0b9 fc57 a03f 9816 8890 5f11 cb3f
00000570: f796 4af2 cd2d 71bf 6c9b 44a4 8275 c43f
00000580: 1ff0 1a15 ba99 a2bf b58d 5126 99cc ccbf
00000590: ce38 5b40 0309 c03f b2a0 9b4d b1c0 b0bf
000005a0: af61 0892 84b5 f53f 2370 3eb9 c47e cd3f
000005b0: c0eb 70c3 a00f d7bf 922a f5b0 9ef9 e5bf
000005c0: fdf7 4e5e f9c5 633f fba4 6ba8 6a02 d2bf
000005d0: 98f9 f046 d664 a9bf 4bbe b4d2 5c24 ad3f
000005e0: 01cb c28f 364d e6bf 8243 5189 2829 d43f
000005f0: f6e3 320e ddf7 b5bf 6d6b 9495 fcc0 f2bf
00000600: 3da3 56f2 bdfd e0bf c70d 1a3e 4997 dabf
00000610: e244 9e3a 9a2d e2bf 87a1 7082 22a6 c83f
00000620: 08a8 31d0 4709 c3bf c9a3 6c4a 59ea c0bf
00000630: 2a13 f780 62b1 e0bf aa16 88aa 4563 d03f
00000640: 13fc 5b76 6a1b d1bf 9f3f 1c9c 3708 bfbf
00000650: d596 e4fe d4d8 9ebf 46f4 5706 2e45 b3bf
00000660: 44d7 9d9e 360e 903f ef10 1157 8da1 b7bf
00000670: 028a 3329 6806 b7bf ea12 1b08 64c3 d43f
00000680: 0041 a3bb eb9b d1bf bc58 c30e 9c93 c63f
00000690: bd2e 7fd5 5f4b d33f cf1e e4d7 dd85 d2bf
000006a0: edf7 32c7 e756 b6bf 0141 2e52 b923 cabf
000006b0: 2dc4 b67a 5374 a53f 4b7d 2c09 839b c6bf
000006c0: 3bd1 4554 3b9d c63f 2342 7ea4 f21c ac3f
000006d0: a56d cff6 220c a93f 3ce1 2e37 b6e1 d33f
000006e0: bcaf ce07 6b88 d33f e873 c42b 299e c43f
000006f0: d24f dffe 7202 9abf afef def1 cc9c b73f
00000700: 36c4 3512 d12c d1bf 8ec0 e848 87d8 bf3f
00000710: 72cf 1aac 932f c4bf 6053 1af3 43bf b93f
00000720: 7300 5179 8c36 bd3f d1e5 96fc f081 cbbf
00000730: 92f4 13dc 77b8 d1bf bdcc 8d13 e0e6 a8bf
00000740: fb2c 0296 f9b1 66bf 5db7 35ae 8b28 c33f
00000750: 3db9 1e32 b8f6 a73f cee0 fa12 bee1 c4bf
00000760: 169d 5a4a dfc7 c03f 0b75 c3b9 a3f0 be3f
00000770: 1d2f 3581 7bc8 c3bf cf8b f1db 3ef3 b3bf
00000780: 93fc 5541 b5a8 bc3f c6f6 5d02 e1f0 d03f
00000790: 9bb5 b64b da04 bcbf c36c f062 acff c03f
000007a0: 4282 5de9 c1bf c13f 34a5 f705 22ce d3bf
000007b0: 2f34 94f9 ee5c b4bf 6e3d fba6 3c4e cd3f
000007c0: fd45 a3dd f452 d03f c39e 602e 12e9 b33f
000007d0: 2203 5731 ca07 d73f 14cd b15f 6442 98bf
000007e0: 7940 eae8 53fc d33f 50ac 69b6 3934 c1bf
000007f0: 50cf e6c8 9bdf a2bf b8ae a77c 9c81 93bf
-0.35742865403408725 -0.14207018196368168 0.4112369763602781 0.19598167377349432 -0.09155214607115064 0.14351308486172915 -0.22297736757600417 -0.2783338126940234
0.2689940331369542 -0.6707177901983041 -0.09565558555969875 0.7494823066127202 0.1223809460084559 0.29642994938673756 0.5453021564312167 -0.006230975018396334
0.37407656467087935 0.3901991885262473 0.12834854078709962 -0.2502804746533816 -1.171347514166119 0.9905530682979113 0.8165928982072114 0.021616700666271006
-0.291732753786259 0.41781118671092743 0.05113957407748373 -0.34325616570013695 -0.7277546653891347 -0.5058064177371815 -0.19131120930365014 0.4034208632038978
-0.8554805155802905 0.037101327363555585 0.6047803648438608 -0.07089781401346691 0.8534674348701629 0.09393589675424949 0.9056003536524344 -1.241309618015064
-0.48517339163374457 -0.05746225687728442 0.101561932245414 -0.1287373764009044 -0.03092575495842408 0.007381044750110409 0.029844093664501043 0.10156008573067106
0.1933476322206795 -0.024501267931943686 0.08646252703928468 0.043666912659241094 0.19902658713032464 -0.0039173714432591085 0.20076100903444022 0.43292026402375167
0.04920307284263302 -0.30438019989678705 -0.003697604941834292 0.06153805042391829 -0.4806551868953183 0.013798939842584745 0.09397635755631793 -0.03873603765955226
0.18497677862196435 0.17415030975124726 0.03870630468026392 0.07968623184633007 0.4947610458610872 -0.22587196285693267 -0.14610944656335362 0.34712312487217484
0.35158294852252175 -0.17481963379761317 0.37185022290039965 -0.02850329813868303 0.09735952188827217 0.2722486638096813 0.04360167293529637 -0.0669509509169895
0.3027580605100701 0.29249734264159427 -0.06364472007223511 0.1934615124669429 0.20467659926744539 0.24980234210478924 -0.06720921570474638 -0.0845771808206831
-0.030425068902336525 -0.12163835112265545 -0.2661384752006131 0.007902820902490271 0.05486400618869862 -0.07976258706914788 -0.08442471982983385 -0.15601852401902075
-0.2904867284772314 0.08439795128891114 -0.1234527401992533 -0.059905729311790064 0.10256201339009012 -0.1677139002190934 0.08876230786593058 0.24245156266400075
0.010747558826149434 0.29738503805386796 0.03511496840395317 0.1527265519369652 -0.10716573307495983 -0.05100724065286323 0.2886747416987661 0.03882705486221441
0.13662292253118263 -0.20176349516873585 0.01792985319853899 -0.26652741251747253 0.24575164863621884 0.011196251846175922 0.21096065443721296 0.050985212988234045
0.28192285074063117 -0.12701489448096692 -0.13498186659400555 0.3903399706698216 0.2398628709120795 0.18358813068092114 0.08662713921171121 0.06543323983452601
0.05231991039375006 -0.2171208756371306 0.10360864613039876 0.12090977158498731 -0.07037954798185474 -0.17959703096899066 -0.19251743836111954 -0.07290553444272672
-0.0012792273536131264 0.19368328449455935 -0.1913493335150981 0.12586794870534565 0.04750234739244686 0.024489899729357955 -0.04943634584907709 -0.38643370200840094
-0.12677603459462675 -0.04655832204107369 -0.03325205363819877 0.2648731321559346 -0.3118660262236332 0.07206087909959888 -0.14163429601986735 -0.4746206680813674
-0.21194364779294927 0.019511236805197188 -0.29156365948598306 0.04486120499758688 0.15768959452076964 -0.3419682935745133 -0.2892950544236741 -0.026751004052996734
0.016152484364977064 -0.18737318440001266 -0.056021952099560506 0.20272244139965495 0.20484547664605401 -0.18757369110162156 0.1555822170477527 0.42763028019777527
0.05232690918988137 0.38697881778297893 0.11999397049704694 0.3232217132761723 0.031921289119418376 0.2114676910134008 -0.004194073179552885 0.15983613034151334
-0.03632909305221709 -0.22499384280227522 0.1252750457992477 -0.06544025559162739 1.3568158821491172 0.23043116612541423 -0.36032885633511214 -0.6867211776928619
0.0024137373424926154 -0.28139749953568555 -0.049597450408771226 0.0569180495461948 -0.6969254310446048 0.3150121060362424 -0.08581334683084649 -1.1721158831557787
-0.5309743626758984 -0.4154837709868073 -0.568066706169841 0.1925700318254366 -0.14872071901055528 -0.1321517575645699 -0.5216534155702892 0.2560590901706329
-0.26729833181883683 -0.12121913491523494 -0.03012402349226913 -0.0752743497359499 0.015679219657122503 -0.0923088395657634 -0.08994151121036256 0.32442570487573497
-0.27514165233607457 0.17637968750813637 0.30147548531816054 -0.28942056735148197 -0.08726357091197175 -0.20421520722130285 0.04190312264416494 -0.17662084529818353
0.17667333235625357 0.05490835435842125 0.04892071974583282 0.3106513537309359 0.30520129930914286 0.16107668530540242 -0.025399967962428445 0.09223633675622865
-0.26836039331743977 0.12439771204003788 -0.1577019300799481 0.10057472882392693 0.1141135975058221 -0.21490299542874294 -0.27688404552447665 -0.04863643873877652
-0.002770411942099591 0.14967485433902086 0.0468041955167444 -0.1631391136813875 0.1310996163422053 0.12085936818353475 -0.154555738534662 -0.07793038243975946
0.11194928021540056 0.2647020838847819 -0.10944904659728254 0.13280253249181415 0.1386644734839298 -0.30945635397673077 -0.07954305260882742 0.22895010140789956
0.2550632633620749 0.07777513153325359 0.35985045259808335 -0.023690765705805708 0.312275865036106 -0.13440629393457693 -0.03686224772846336 -0.019049115284288404

hidden_layer2.bias f8 [20]
00000000: 03fd 1df4 fe3d c7bf 97dc 2448 ec11 c1bf
00000010: 90b5 de8d 8953 c3bf ec94 7c05 46de d2bf
00000020: 6a27 a0c6 db30 c43f dd3e 5703 7538 ccbf
00000030: 4e46 f46f 0a80 cdbf 5943 71c6 bb44 d03f
00000040: b57d 76ff 0127 903f 123d 323d 7f18 cbbf
00000050: 64fe 0fa5 179c a33f 25ee 6b9d ebbe 85bf
00000060: 5eeb 959f 0c60 903f 73e4 a07c 9894 a4bf
00000070: cdad 112f 0c09 c13f 42a5 62ad 7ce4 c03f
00000080: 60f6 d590 025c 99bf 9f36 4806 39f6 d23f
00000090: de2c 7eeb c105 a63f a571 2fdf 220e c7bf
-0.18157946510107345 -0.13335946581512267 -0.1509868567203907 -0.29481649909787566 0.15774104307666487 -0.22047293341756005 -0.23046999422563136 0.25419515971321044
0.015773802964415846 -0.21168508995149488 0.03830026521609112 -0.010618057958246283 0.015991399040540137 -0.04019619485229322 0.13308861063283786 0.1319728705032422
-0.024765052881312477 0.2962782441471549 0.04301267623585557 -0.1801189031383618

hidden_layer3.weight f8 [20, 20]
00000000: 2d5b f60c dc0e bc3f 883c ab23 8f16 d5bf
00000010: b19e 0950 22f2 b6bf ed37 6405 c456 d13f
00000020: 0754 9dbd 4b6c bbbf c74c f870 d18e d5bf
00000030: c41c 2cca d1d4 adbf 1098 9e15 3050 c1bf
00000040: 7729 11ac cb89 a53f 7dfe a93a b848 d2bf
00000050: 7cbb 5e18 21bf a33f b7f8 25e1 518e afbf
00000060: eec4 a076 e9c1 933f ca9c fb88 b80c c7bf
00000070: 4b6a 0e11 6145 c33f c109 eb43 914d d4bf
00000080: b6ff 68cb f706 aa3f a771 13e5 f311 c03f
00000090: 80ef edae 3524 b4bf f543 3517 f400 853f
000000a0: f036 19fa 7d6f cebf 44b8 a9c1 3672 d3bf
000000b0: 64e9 b6e7 4cb1 d5bf f644 2f04 0e6d d0bf
000000c0: 00e6 1118 7e8a df3f 3ff2 2d3b 22ce cd3f
000000d0: 384c 7c50 57d9 e03f 6b5d 0923 ec2f d13f
000000e0: 0db6 2783 8165 cd3f 253d d9cf 89dc bcbf
000000f0: e389 fbbd 5017 df3f 72c3 3f58 0f40 d1bf
00000100: eb36 8a4d ceb1 b53f 0b07 96c8 4dfb 8f3f
00000110: f206 37d6 71f3 843f 418b 27ab 3a14 c53f
00000120: e9bc c994 fc0b d73f 44a8 3a55 4e98 d23f
00000130: 090e a128 8b75 d33f 0578 04f7 903e adbf
00000140: 20b8 df1b a19b 9f3f e8cf b12b 0456 e0bf
00000150: cb93 efc9 5f50 ba3f cdb6 ca10 ca7b c03f
00000160: b9e3 17b2 d8c9 c9bf 3781 9a84 e3d1 bc3f
00000170: ba47 057b edd5 c23f f3ee d429 00c7 c3bf
00000180: 8b90 e0aa 4503 a23f 0eab 4581 9d57 bdbf
00000190: 7c46 a7b0 1781 cf3f 459b 21ad 83b6 c1bf
000001a0: bbf2 e991 d9fd d43f 1bcb 0bb9 e78b c7bf
000001b0: de33 c1ed 1fb4 d6bf b34d 5fb9 efbc 9abf
000001c0: 6304 de88 fd2b cbbf a1ea 328e 9af7 9ebf
000001d0: 6d9c 2dfd e109 ca3f b4d1 9eb8 e97d c5bf
000001e0: 6087 24c6 0ccb 8abf e61c b6ce 9c25 cbbf
000001f0: 3321 f2b5 159d b53f 477f 0e3e eb80 b6bf
00000200: 1598 3b6f 2ca3 cabf aba9 c6f7 bd10 b1bf
00000210: cb42 6821 0df7 b9bf 2ebe 4e80 dae4 91bf
00000220: cefa 6709 8405 7a3f 4678 e27e adb9 c23f
00000230: 8e1e 2cc6 9697 c43f acf2 f509 27e2 d4bf
00000240: 1c9a 059a 47fb c0bf 4eba 75c4 ace4 ac3f
00000250: 4859 4099 1824 d2bf b334 bd69 1422 c6bf
00000260: 138e 7c51 94a9 ccbf c233 26d6 77e8 b03f
00000270: 90c2 0aea 2d77 a33f 57b1 2928 0976 bc3f
00000280: 9288 a855 df65 db3f c6b5 4ed2 51af e5bf
00000290: 850b 5a6c 6b82 d53f 5814 bb86 6b51 d03f
000002a0: c161 2b77 3c90 cebf 535e 6ef2 a966 9d3f
000002b0: 3d53 2d77 fa92 b03f c128 7625 72b6 d0bf
000002c0: f27a d55f 766d ab3f 5956 450e 0259 e0bf
000002d0: 79d9 4e58 aabe 873f 8e1e 6d2b f065 bfbf
000002e0: a56b 41e9 4b4c c33f bda9 782d df2e c43f
000002f0: 99bc e3db 7c82 debf f8bb e089 d920 dcbf
00000300: 373f 91f6 3f3c c4bf 1bc1 fcef 1723 cc3f
00000310: e37a c196 63c8 413f 7c32 7ea1 5481 aebf
00000320: 5680 7a8c d353 d2bf b66e 1ace f472 cb3f
00000330: 9f79 4c77 06aa ccbf ba46 897c 922e c5bf
00000340: 04d0 f347 9e2e b73f 268c c121 7f22 ca3f
00000350: 9d3b f69c e2d9 d93f 9faa 7776 1329 ac3f
00000360: 4ee0 e9a0 a823 c53f 9616 2c73 f6af c03f
00000370: 015c 76d9 08c7 df3f 6036 178e 04c4 b43f
00000380: a8d6 5488 580e d63f 951e e318 b37a c73f
00000390: cba8 6a4a 5205 b4bf e4b3 3d1c f85a a53f
000003a0: 5268 00af c933 ce3f 4268 fa4f c07e b43f
000003b0: 948b daaf e9fd d3bf dda8 b41b 571d b93f
000003c0: fc6b 80d7 e318 bfbf 6ab0 8679 442f c3bf
000003d0: 177b d8f0 3377 ac3f 884e 5a4a 870e b0bf
000003e0: 8be0 6d78 487c d23f 687c 4b63 5303 dabf
000003f0: c8b4 d164 df46 cabf 2995 db19 12b9 c0bf
00000400: 8b3f 1ff0 fe9b a73f 76b7 9c51 9f3c c3bf
00000410: 09c1 6563 459d d7bf 5883 7d0d fccb cb3f
00000420: ebc0 ca6b bc2e 92bf 28fe 0a9c 303f c7bf
00000430: 8f5f 2401 cbee a83f 6a5b 0a25 17ea 953f
00000440: b857 e4f9 41bc d43f ee59 4c0e 73ad d03f
00000450: ec2a 9e0a 38cb d0bf 9907 a409 31e8 ce3f
00000460: 62cc 4117 c159 b23f eeba 87f8 943c dc3f
00000470: 641e 72f7 0424 a33f 91cd d71d dcb3 d43f
00000480: a5b4 3301 7b66 b6bf d249 a192 35ca ba3f
00000490: 3d8f 03d5 8c67 a83f 381a 3a1f df99 d7bf
000004a0: 15f0 6379 ba38 d03f c807 5544 969a ccbf
000004b0: 0feb 47f3 f64a 96bf 44a4 9739 9ca2 aa3f
000004c0: 8e46 3b44 13bd d13f 4525 3f54 9732 cf3f
000004d0: 1a6a 8ebe 9777 cbbf 1f20 6658 a39c c8bf
000004e0: aac9 85cf 9c9f d4bf bc21 e7b1 9062 d5bf
000004f0: d481 fedf 32ce e0bf 84f2 4852 12d2 c6bf
00000500: 5cbb 64c2 a845 a13f 73b3 6add 8a2d ccbf
00000510: f067 8137 e972 acbf d4f1 8a38 6005 bf3f
00000520: 9d14 0dbf d756 b3bf a4d4 11d4 5edd 83bf
00000530: 7df1 8a6c 9940 b8bf 7742 2716 f218 b3bf
00000540: e978 9c67 9f01 51bf 2e5f b1d3 1f30 d0bf
00000550: 1cbb 0522 9cae 993f c601 f725 674e c6bf
00000560: 09ff ea1a f953 bc3f 2545 58c4 214e d1bf
00000570: 689f 1e14 8fc5 c33f d420 a245 7805 98bf
00000580: 403d d395 26c4 d33f d3cd ea24 e36f b93f
00000590: 648a a444 b99e aebf 5c97 1b84 447e d13f
000005a0: 2489 1ae9 7c48 c83f 8964 6380 7c45 c4bf
000005b0: 94ca 83de 822d 993f 7dff 077f a6b7 c4bf
000005c0: e349 1122 bc85 c23f f410 6a4e 708e 9ebf
000005d0: 8a40 f292 74f8 c5bf 141e 203f ff4f 753f
000005e0: 7c0c 692a ce05 9bbf 764f 73ae ea05 c23f
000005f0: 6d39 24e9 6c81 c6bf 2b0b 05d8 3fc2 ce3f
00000600: c83a e626 f734 d8bf 7b8c d1fb cf26 a5bf
00000610: 8624 3bb1 2b13 b1bf 39cf c460 68d6 d13f
00000620: 76e1 5ef1 abac d9bf 42af bdd3 7b00 d53f
00000630: d49a 35d9 96bd b13f 7be6 d70d 5668 d9bf
00000640: 10ad 7f8e b381 5cbf ea70 a9c1 eaa3 bdbf
00000650: 1f75 3873 27eb a43f 0179 d998 4703 b23f
00000660: 402b 843c d707 ae3f 4340 4442 a39f e4bf
00000670: a16b bbe0 95f4 debf 8528 64a2 3d61 c9bf
00000680: 0faf 7ef6 22c9 babf 58f9 fa56 6c20 993f
00000690: 6c60 fc72 8b94 e1bf dab0 8199 af3f a93f
000006a0: 7754 ec8f d2c4 d6bf a904 11aa 736c d4bf
000006b0: ee09 6187 397c c1bf bba3 86ce c25d d6bf
000006c0: cb40 f820 5003 c83f e9c8 7dee a0ae cbbf
000006d0: c06b 2717 fd0f b8bf f84c ae53 e1d4 d53f
000006e0: 7011 2cb7 71e3 c7bf 9ec6 f1fa 6d79 d03f
000006f0: 7c1c 2675 b528 d0bf 0c12 69af 7dda ae3f
00000700: 51e6 7614 8843 c4bf aa1a 80e9 ce61 cf3f
00000710: 88ba 92fe 636c ce3f a742 deb6 4cb3 b03f
00000720: 4de2 ab2b 7927 c5bf 0ab2 acc0 cc6a c03f
00000730: 5ad1 935c 9f72 c3bf b122 b52e f2eb d13f
00000740: a3af d9e5 b9f2 b3bf 26ac 7f1d 2f87 b63f
00000750: 69d0 cb8b 0075 d43f 613a ca3e d549 d53f
00000760: 1df6 2413 fb44 c5bf 8ae6 4ca9 ed89 c5bf
00000770: e9b6 e93b 4265 97bf 50ac 4551 d9f9 c5bf
00000780: be09 d7c8 e67f cf3f a387 79d0 cb12 903f
00000790: 9ea8 bbd3 d785 d0bf 529e 0987 9c11 c2bf
000007a0: 677e b176 4314 c13f 9999 0f1c 8c18 a13f
000007b0: 7dca 939d 7d61 cabf 75a8 96e3 f7ef a9bf
000007c0: a059 25e2 2c64 ccbf 242d 7059 1b25 d13f
000007d0: f39b dbd0 e3f4 c5bf 417b 855e d12b d23f
000007e0: 8662 7a6e b230 94bf a6fe bdaa 200f d13f
000007f0: 10e6 8344 59cb ce3f d14b c10c e0a0 ba3f
0.10960173908675293 -0.3295019005135562 -0.08963217214624809 0.2709207585002094 -0.107121213715189 -0.3368419268819704 -0.05826430886195902 -0.13525963836326627
0.04206692195346567 -0.28568845490369893 0.03856757566915456 -0.06163268922226577 0.019294402947882476 -0.1800757092343928 0.15055478413417442 -0.31723434097889586
0.05083441122087555 0.12554787335728898 -0.07867751618135621 0.010255724867109331 -0.23777746879425576 -0.3038460627784654 -0.3389465582692053 -0.2566561737886127
0.4928279147203227 0.23285320176718646 0.5265308925612606 0.26854995175877744 0.22966021446283982 -0.11274014782360504 0.4857980590151369 -0.2695349084670432
0.08474435227455117 0.015616042789364145 0.010229958867856468 0.16467984540130412 0.36010660677034295 0.29054601977498273 0.30404929130256214 -0.057117967751978006
0.030867116285598795 -0.5105000356111278 0.10278891258310734 0.1287777502051796 -0.20147236534083193 0.11257764804259272 0.14715355402819147 -0.15451051752631137
0.03518121443656338 -0.11461815267618311 0.2461270916524433 -0.13838239625621376 0.32799376725578683 -0.18395706687405142 -0.3547439405272693 -0.02611136025354961
-0.21227997954341324 -0.030241408280498153 0.2034265981885456 -0.16790505900065755 -0.013082599446139376 -0.21208534329728151 0.08442817394291495 -0.08790464654020723
-0.2081046622399191 -0.06666171359271426 -0.10142595353705557 -0.017474569398187416 0.006352916496779227 0.14629143424548569 0.16087612797149514 -0.3263032529137415
-0.1326684476909613 0.056432150823515145 -0.28345313039735176 -0.17291503108063963 -0.22392515162310697 0.06604718187573069 0.03801864129980459 0.11117608290232305
0.4280927978999297 -0.6776513202254868 0.3360851820108837 0.25496948392203 -0.23877673929997736 0.028711944028684332 0.06474271211238843 -0.2611356130443135
0.05356950683448315 -0.5108652380683437 0.011594134159037083 -0.12264920292101975 0.15076588525229542 0.15768041343956254 -0.47671433900445376 -0.4395049902404362
-0.158088679689621 0.21982096880083976 0.0005426870607257685 -0.059580464089866475 -0.28636635511975805 0.21444568694720595 -0.22393875908978786 -0.16548377114172813
0.09055508858347144 0.2041777529549062 0.40392365768723854 0.05500088521133261 0.1651507173262438 0.13036995528834855 0.49652310596997046 0.08111599415789206
0.34462559999097175 0.18343199458307838 -0.07820619885265782 0.0417096647714528 0.23595543904304123 0.0800590701350368 -0.3123726098366941 0.0981039469376443
-0.12147354136725136 -0.1498799889935783 0.05559694590578184 -0.06272168698552083 0.2888356376711349 -0.40645298668636665 -0.20528786108790187 -0.13064790976128762
0.046112028896117506 -0.15028754696816876 -0.36897406298432195 0.21716261538224546 -0.01775640876684374 -0.18161590213093004 0.048696845902838175 0.02140079654290209
0.3239903393126684 0.2605865134841271 -0.26240349804781604 0.24146092386950782 0.07168204133795222 0.4411976267864891 0.037384181218894225 0.3234777728495937
-0.08750122813553902 0.10464796857676298 0.04766502475993526 -0.3687665753317648 0.2534624276593161 -0.22346762024431954 -0.021770342444123843 0.05202186778098697
0.2771652380298314 0.24373141873938145 -0.21458718113429215 -0.1922802144656552 -0.3222419764125798 -0.33414094327283883 -0.5251707434545616 -0.1782858754903779
0.03373458264319737 -0.22013984500281544 -0.05556420137936857 0.1211757791560964 -0.07554386534055131 -0.009699574324466838 -0.09473570728272836 -0.07459939041951623
-0.0010379845320538878 -0.2529372756302902 0.025080146385728516 -0.17426766732934434 0.11065632731606113 -0.2703937928609597 0.15446651918795884 -0.023458365678863682
0.3088470900665534 0.09936351443575768 -0.059804715756645505 0.27333176518583513 0.1897121561242524 -0.15837055462796837 0.024587673979974925 -0.1618545646924722
0.14470626510099213 -0.02984023550608668 -0.17164475607978985 0.005203244263618529 -0.02638933309414114 0.14080556409919226 -0.17582475074636808 0.24030302093350406
-0.3782327537418664 -0.04131174038845927 -0.06669877125672671 0.2787114090926824 -0.40116404124594085 0.3281545226843613 0.06929915240253176 -0.396993173140437
-0.0017399075968523338 -0.11578242519448492 0.04085658341885278 0.07036254388501463 0.05865357030605489 -0.6444870275754585 -0.4836783117913744 -0.198280052464103
-0.10463160055104147 0.024537747200832655 -0.549382900792819 0.049314010132407396 -0.3557630925655028 -0.31911937339834623 -0.1366035376577907 -0.349472715077862
0.18760110483027 -0.21626674313626573 -0.09399396720202358 0.34111817523917365 -0.18662854618026925 0.25741147524159114 -0.2524846691162066 0.06026070371857281
-0.1583108997272569 0.2451723709238725 0.23768281870203034 0.0652358957725122 -0.16526713020700115 0.12825927169741674 -0.15193550129300598 0.28002600251469817
-0.07792245732861018 0.08800024480994803 0.31964124347655926 0.3326314080412996 -0.16616762575897406 -0.16827173964138736 -0.022847208887859436 -0.17168728321425641
0.24609074408188109 0.015696701621329755 -0.2581691329675183 -0.14116245835906455 0.13343089385579107 0.03339040606060734 -0.20610017961697116 -0.05065893796138791
-0.2218071083286306 0.26788982137869 -0.17153594682824255 0.28392442923170697 -0.0197170143061123 0.2665483157543157 0.24058070989103486 0.10401726066019924

hidden_layer3.bias f8 [20]
00000000: 4b7e 3cba ab1a babf 16e3 5536 3bf2 c23f
00000010: 061b 62f6 08a8 cfbf 5b86 8538 7c4c 91bf
00000020: c890 57dc 69e4 a7bf 1e79 5c0a 256d bdbf
00000030: d556 f3c1 0afe c0bf f6d2 c9ba ba32 b83f
00000040: 928b 6ab9 0cec c4bf 1e60 57cf 09cf a23f
00000050: 9470 31a4 3f37 d6bf c145 5d58 d2de d23f
00000060: 92e8 0052 ad8e 96bf 47c2 7aa2 ef63 cdbf
00000070: 9e2f efd6 97a9 bb3f 9608 0057 4edf b53f
00000080: 38b0 4518 e34c a63f e891 b91c bca1 af3f
00000090: aa41 355a 1b3f c6bf 25b9 7ecd e4fe 9fbf
-0.10196946427139968 0.14801731255627065 -0.24731552153044606 -0.01689333052616458 -0.04666453184816671 -0.11494666579207943 -0.13275274725190536 0.09452406940711086
-0.16345366529011734 0.036735827026575615 -0.34712210688099643 0.2948499548848212 -0.022028644685840044 -0.2296123069150033 0.10805653569621973 0.08543862937952648
0.043555351937215325 0.06178081370015659 -0.17380086807908174 -0.03124578003160496

hidden_layer4.weight f8 [20, 20]
00000000: 400c b94d 45a4 b43f 484a 423f e162 b03f
00000010: 9122 c4c7 fbfe bbbf b1e7 27d3 027f a3bf
00000020: 33db 4a89 712a cdbf dafb 6397 1015 a1bf
00000030: d694 34d1 4d03 a6bf af22 1cf4 024f a23f
00000040: 77ac 87a6 6cba bc3f 8ddc cca5 8283 b2bf
00000050: 1720 d0ad a684 bbbf 535a 31e6 1142 b33f
00000060: c630 7506 a667 a6bf e440 79c3 ab4a c33f
00000070: 76d6 32f3 b752 ad3f 4882 6cc6 e33b c8bf
00000080: 2b6b 5b8c 0993 ac3f dfaa 0512 f3fe a23f
00000090: 9de7 9c58 96ff 91bf 824a 1ac1 2253 c1bf
000000a0: 31e1 1c33 e177 d6bf 386a 5615 9019 bbbf
000000b0: 395b f565 afb0 a8bf 27d7 e05d a1d7 ad3f
000000c0: 123e 6f6e 027b e6bf baf3 1e3e 79c3 c83f
000000d0: d8c6 e786 bced dbbf 1859 e524 99d3 d23f
000000e0: e67f c176 5381 d1bf def8 20b0 1960 c33f
000000f0: 6d9c df9f 0f07 c3bf a86e 49df 2c96 d23f
00000100: 368c 9316 90c1 d53f f57b 661a 7f1f e4bf
00000110: 160c 8819 0dcf cfbf 6e03 c3b0 9c85 c73f
00000120: f85d f21a d9da c8bf dd32 8fe6 5cbd c53f
00000130: cf52 2925 3136 e1bf 5210 5b03 1779 d7bf
00000140: 1a39 f35d 3f68 cdbf 7a53 6d73 e6a2 a23f
00000150: ec1e f129 f879 66bf 74b6 1088 f15c b5bf
00000160: 93d4 9679 fc79 c0bf d0f7 79bc 8b36 d8bf
00000170: 25cd e271 a8e2 b6bf b7a7 14e4 1335 c53f
00000180: 7271 de9b 468b 93bf 9d40 196b fde4 b2bf
00000190: 6d8d 9435 76cd b13f f6cc d369 a626 88bf
000001a0: 45eb ba34 a5ae b33f 986c 3afd 49e7 abbf
000001b0: 3882 64eb c317 c33f 2afe 8d97 af93 c23f
000001c0: b7b1 04b6 a9a8 c53f db21 8667 72ec b03f
000001d0: dc6b b9d2 04b8 c93f e56d 2a2e a6c8 c63f
000001e0: 121d dc5e 0b84 9e3f 452d 24c3 feec afbf
000001f0: c428 35c1 04d6 823f a5a9 a18a 5480 bbbf
00000200: 17de 344d 13e8 c13f 3b1f 1007 fac0 7e3f
00000210: bb47 effc 0f10 c13f 54a3 3f68 9f73 b1bf
00000220: 3404 f16e ed90 c23f 76a5 4730 f7fd a73f
00000230: 1a7b 30b6 5465 c8bf bfab 5592 8cc2 bebf
00000240: 35a3 f8ce 36d8 b7bf d26e 9a2c f4aa 873f
00000250: 8300 8eeb af51 c5bf 2e53 70e4 d5b7 b5bf
00000260: 2a9d 75ec 2e93 c4bf c99e 7f58 cbc0 bc3f
00000270: 391e 7235 4cde c4bf ddaf 269a e4bf bfbf
00000280: ecd1 5c92 4272 d43f 2ec3 dfe2 de01 c0bf
00000290: 13f5 fc89 9527 a53f 3101 734f deff d23f
000002a0: 9007 ce85 7e43 71bf 24ad bae2 73a7 d1bf
000002b0: 8860 0bf7 4ea6 de3f e8e3 e046 cfc9 df3f
000002c0: 1e62 db98 79d7 bb3f f6ad be37 e8b5 b6bf
000002d0: c50c 3b90 eb90 d23f 365d 0a16 c0b9 d0bf
000002e0: b0b4 613b c602 bebf 7c98 385e 382c db3f
000002f0: 308b f120 802e c9bf 294e bbbe 1512 c5bf
00000300: 736b 44a7 5b5a acbf bc55 ca14 13b5 d7bf
00000310: 87d5 6697 8299 c43f 659a f2d9 f808 d73f
00000320: 9819 6a04 3aef d5bf 525d b139 1eef b63f
00000330: 384f a0fc 4737 e2bf 569c 5d45 9b03 dabf
00000340: 6474 0c53 0f03 e2bf f5bb 03ca 9c52 ca3f
00000350: 088e a3f2 4103 c5bf 02a9 c644 26c6 dd3f
00000360: 65db 57db 9482 cbbf 6bd5 0e59 de8b c5bf
00000370: d601 66e8 c67a c7bf cc0d 339b b07f d43f
00000380: 1ef2 a746 97c4 8fbf 67d9 ff6a 5c84 e2bf
00000390: 57f2 1032 0d9d d33f 9c18 5c59 483e e13f
000003a0: 2091 efc3 9837 aebf 5089 4e16 bea3 df3f
000003b0: 51c8 a1a9 ad83 edbf 15ba e7ed b4f1 ca3f
000003c0: 06fe 741b 8867 87bf ca68 1860 5c6d 933f
000003d0: ca8d a1e1 01e3 773f 3b9e 3d40 bccb b8bf
000003e0: beeb 3cf7 1d91 ba3f 141f 2250 210e ad3f
000003f0: 5638 2267 bc72 cdbf a5ae 7702 083c adbf
00000400: 141d 76e3 c684 be3f 0c97 6c14 ace6 c13f
00000410: becc 8327 17da 8a3f f4c3 b8ea 950d c5bf
00000420: e7d9 62b6 c872 a5bf dc5d a9ce 773a 93bf
00000430: 1a40 33ea 432f bf3f bc9c fc17 2636 b7bf
00000440: 9446 f82f 25ed 953f 0365 b18c b829 92bf
00000450: 53cd af2a 40b5 b1bf 85b5 aa26 9ea4 a93f
00000460: add6 8f52 3eff 933f 10d8 ddb9 11c6 c5bf
00000470: 22fd b3d2 4732 a9bf 3406 e162 4d78 c53f
00000480: 8b1a f27b c9b6 c43f 2c01 f00f a301 d23f
00000490: a159 499d 54bc c93f bce7 0ab9 82dc aebf
000004a0: 7143 b9e5 e8df c3bf 28e7 4ecf 2e66 a63f
000004b0: 3e82 2770 b850 c3bf d078 fd24 4dae bc3f
000004c0: 8fb2 d40f 2378 c13f 5eee 4117 26f5 7b3f
000004d0: e0b2 a8e4 9744 a23f 8616 30d6 27a0 b83f
000004e0: 425c a5bd e091 aebf ef74 874a d0af bcbf
000004f0: f82a a6cf 3ccc ac3f 68ba 1da0 9df3 76bf
00000500: 7ca3 534a a75b ac3f 4fe5 82e3 0ac8 c8bf
00000510: 6b89 9659 5fe4 be3f 056c 05d2 295d c1bf
00000520: a99a e0ae 0202 d3bf 31c0 0b5e 6798 6f3f
00000530: 1469 b00e 8de3 be3f 58ee 6f01 3a82 d53f
00000540: c6ff 7b94 1d0b b53f b934 cdf8 a671 d13f
00000550: 7256 69fb d09e cfbf b9b2 81bb 9067 c73f
00000560: 16af ca1f f186 c23f 386d 7f7a 5606 b73f
00000570: f241 ea36 328d c13f 4dce b616 3a7f c93f
00000580: 6059 9a31 8696 a8bf 6272 2ef8 a774 b73f
00000590: 7a72 82a4 0741 bbbf eb09 b2f9 6864 c5bf
000005a0: b21c 3591 cd5a 98bf e748 a90b 4082 c0bf
000005b0: 7b39 eb75 a676 9cbf 69b1 c7a9 de91 a8bf
000005c0: 9e05 5942 4e53 d2bf 0880 550b 7ee5 ccbf
000005d0: 30a2 234b 4f82 cdbf 99af 8174 e6e8 a43f
000005e0: a028 25f7 ef7f b93f e804 fbbd 8863 cc3f
000005f0: eaab aed2 263b c1bf c62e 2a1e 7adc bd3f
00000600: 4532 55ee d373 cd3f 8daf ce0a 6ec2 c0bf
00000610: f13f 4021 29c6 c93f a7cd 3ca8 bc9c d0bf
00000620: 2091 5bd9 2c30 a7bf 72b8 3aac a70c a43f
00000630: f6ff 9d22 500d c33f 14dc 4ec4 bf33 ab3f
00000640: 3767 0da6 9438 b6bf dc3d 19bd 96b0 bf3f
00000650: 9292 b501 ebf0 a63f 637c 8103 f73e 95bf
00000660: bf65 6a1a d926 c2bf d959 3ae5 798a c73f
00000670: da9d 79ea 0d16 c63f 63e0 fdc7 6328 b63f
00000680: 40d9 033a d652 be3f d470 e5bb f617 bf3f
00000690: 4c52 edde a03b cf3f bac0 ba1b 0deb bd3f
000006a0: 7ff4 ef10 05f6 b1bf ba03 263e 061d c33f
000006b0: fac8 7218 de4c cd3f 1611 e69c 1361 b43f
000006c0: 9a5f 7a10 676d b8bf 4f9d a470 dc35 c23f
000006d0: 98d8 8263 240e bd3f 22c0 e040 73dc c7bf
000006e0: 26f7 2aaf 15a8 b33f 9b0d b53c d670 c6bf
000006f0: 1d6b 83c9 844f bd3f ce89 a74b dd9e a3bf
00000700: 6d6e af75 65de bcbf 011f e3ed 3f48 c5bf
00000710: 731b 7925 dd35 c9bf 1ea2 dc20 bd2e 903f
00000720: a61b 4335 99f3 b9bf 8aa9 ea22 7639 d33f
00000730: ff0d 0e45 c4af b53f 0823 62e0 387c c83f
00000740: 0946 87db dd31 aa3f 064c ab54 0a56 b6bf
00000750: ff32 3b51 cfd7 aa3f 6a06 831a dc51 b8bf
00000760: f109 d54f 1746 c1bf aeb5 6722 3058 a0bf
00000770: def7 dd5a 595d a5bf 318d d82b 3750 c03f
00000780: fafd 01e0 1a40 c13f 62e6 a9c3 5356 c3bf
00000790: 7b59 8859 5131 c9bf d8b0 5cf8 0714 c53f
000007a0: 9e88 ce06 c3b1 c6bf 66ec 856d dccc b2bf
000007b0: 4c29 ec40 3b0e b9bf 5264 aa40 9b48 b5bf
000007c0: e9d5 d8e4 147f b73f a73b d2a3 90e5 b0bf
000007d0: 4711 9275 6582 c63f 376c 89ca 33ae c53f
000007e0: bc0e 8dc4 4201 b8bf e0cf 1b93 2720 c23f
000007f0: b549 2b53 2bf0 a03f e422 1e24 6b1d c3bf
0.0806315722229991 0.06400878710182056 -0.10935948969939548 -0.038078392291893144 -0.22785777286272832 -0.033363836746495415 -0.04299395731713111 0.03575906019074659
0.11221961084054209 -0.07231918857438498 -0.10749284499627297 0.07522689695302036 -0.04375952557401912 0.150716276594273 0.05727171748860098 -0.18932769001641447
0.05580930555671267 0.03710136027333077 -0.01757655063486362 -0.1353496020206713 -0.3510668753765627 -0.10585880776344758 -0.048223000713440496 0.05828575392699369
-0.7025158078121783 0.19346538098571192 -0.43638528036454494 0.29416493037332847 -0.2735184344983267 0.1513702497486013 -0.14865298563310905 0.2904159718070596
0.33993913845751267 -0.6288447871810364 -0.24850620028163978 0.1837650168509088 -0.1941787129951391 0.16984139688283664 -0.5378652311142903 -0.36676574065882506
-0.22974388205916157 0.036399079885689425 -0.0027437064123069146 -0.08344945499330853 -0.1287227243134664 -0.3783292141523562 -0.08939602642458462 0.16568230282547144
-0.0190859825739706 -0.07380660881722396 0.06954134758102777 -0.011792469124407106 0.07688362634045827 -0.05449897018589772 0.14916275972156412 0.14513201618318422
0.16920968425382707 0.06610789325180326 0.20092830933830796 0.17799832586466305 0.029800584473403786 -0.06235500461670055 0.009197270532827047 -0.1074269140678213
0.13989487905358608 0.007508255644104451 0.1333026871712358 -0.06817051215297215 0.14504783551277145 0.04685947861055244 -0.19059237380948774 -0.12015608379958474
-0.09314291527756498 0.011556537257369302 -0.16655539514249904 -0.08483635737532033 -0.16074167772169662 0.11231680784805599 -0.16303398713738362 -0.124021804461051
0.3194738797494938 -0.12505708768687768 0.04131762799668528 0.29686696776117844 -0.004214758137892974 -0.2758455003883731 0.4789006626647354 0.49669248506285024
0.10875663740024108 -0.08871318207700782 0.2900952251913618 -0.26133730080023854 -0.11722983312366142 0.42457398606564545 -0.19673158272333913 -0.16461440861768153
-0.05537687699162221 -0.3704269125967945 0.1609347571626751 0.35992261203720083 -0.34272623473261765 0.08958615215793955 -0.5692481931787148 -0.4064701249503221
-0.56287351818504 0.20564613212579244 -0.1641619143257318 0.4652190848961625 -0.2149225302707364 -0.16833094929249212 -0.18343435618954967 0.3202935710544039
-0.015511686176062741 -0.5786573495704886 0.30646066560055857 0.5388528580958964 -0.05901791946215185 0.4943690507735896 -0.9223240197300219 0.21050130478347798
-0.011427939737244774 0.018971866002268446 0.0058317254534787175 -0.09685875481010779 0.10377681051333718 0.056748429328818656 -0.23006396327804407 -0.05709862737770991
0.11921351483589532 0.1398520564773026 0.013111287015340142 -0.16447710000059568 -0.041891357673580924 -0.01877772520887598 0.12181496112612003 -0.09066999517073077
0.021412449887128718 -0.017737277590957678 -0.06917191545635619 0.05008405897147398 0.019528363980461694 -0.1701070935775424 -0.04921173522051904 0.16773383453441826
0.16182821800267208 0.28134991222761374 0.20105989151006745 -0.060276112640579055 -0.15527068345047781 0.04374834328286986 -0.15090089298520754 0.11203462746695725
0.13647878907194808 0.006825588981992673 0.03567957559821422 0.09619378070063975 -0.059706710004939115 -0.11205770320471563 0.05624570879725427 -0.0056034238094598635
0.05538676054295075 -0.19360481366110568 0.12067218720634336 -0.1356556201452294 -0.2969977100168913 0.003856851472271238 0.12065965279217422 0.3360733999286132
0.08220085978609779 0.27256178185491425 -0.2470341899485678 0.18284806399915057 0.14474309971171156 0.08994045725505806 0.13712146455192414 0.1991951571377392
-0.048023408465428075 0.09162378129117024 -0.1064610268244425 -0.1671267718521244 -0.023783885944138113 -0.12897491998098262 -0.027796364733882122 -0.047987898087600574
-0.2863345764090698 -0.22575355103890637 -0.2305392376795381 0.040839387628550834 0.09960841926400343 0.2217875411643384 -0.13461766516897394 0.11664546238369686
0.23009728562682788 -0.13093352821067264 0.20135988353331372 -0.25956646375126485 -0.0452894225434497 0.039159049772352086 0.14884378137867288 0.05312918921793411
-0.08680085233700373 0.1237882815996651 0.04480680843224606 -0.020748004521348295 -0.14181054868531182 0.18391345684786023 0.1725480456254747 0.08655379898653019
0.11845148960478458 0.12145940863905774 0.24400721440419415 0.11686784674634768 -0.07016021407612703 0.1493232539615102 0.22890831178444399 0.07960627155813813
-0.09541935112281266 0.14226871013782236 0.11349704198332444 -0.18641510646693954 0.07678351904447975 -0.17531850780697486 0.11449460906753157 -0.038321414456521916
-0.1127684986417365 -0.16626738658509768 -0.1969562943433761 0.015803294306495734 -0.10137326765389662 0.30038216981724786 0.08471323667441054 0.19129095989435307
0.05116170220174971 -0.0872503716193905 0.05242774836151475 -0.09499908110867641 -0.13495150945716675 -0.03192282123550726 -0.041727821676417184 0.12744798317826558
0.13476882875328028 -0.15107199720277992 -0.19681755897245154 0.16467380168012968 -0.17729986030923767 -0.0734384314909434 -0.09787340483686541 -0.08313913658857189
0.09178286158643058 -0.06600288390676089 0.17585438004256046 0.1693787325810676 -0.09376923845871493 0.14160628016509147 0.03308234586951945 -0.14933528197823087

hidden_layer4.bias f8 [20]
00000000: 8dc1 e35b 748d b2bf 8273 12e5 cae6 b63f
00000010: 8ffe 1709 d97f c23f 355b d302 05d1 a33f
00000020: e45a c47f 41a5 ce3f e93a 3fdc 6616 d23f
00000030: c908 11d1 6ed7 a9bf 2697 4cf5 1a2e c9bf
00000040: cafb 626d c120 d03f 7d7d 1547 1d73 b3bf
00000050: 64aa 4956 cb2b d2bf 0eef de81 8cb7 b2bf
00000060: 592b 957d d4b5 c03f 545c e726 b912 aa3f
00000070: 36a4 e867 8b36 8a3f 3e15 5b67 4353 c93f
00000080: 5d10 bb3f 0110 c8bf 436d 1c99 9e86 90bf
00000090: 9c47 f7ea ebd5 76bf 5bf8 0c04 c7cb 96bf
-0.07247092479133795 0.0894591149576183 0.1445266050723046 0.03870406779758754 0.23941820849059703 0.2826172972535646 -0.05047174741822997 -0.19671952226161088
0.2519992416600273 -0.0759752558274069 -0.2839229910520429 -0.0731132332866162 0.1305490124890081 0.0509240970601971 0.012799347981017655 0.19785349413556647
-0.18798843013621794 -0.016138532729298005 -0.005575105241819058 -0.022261724111779162
