net_param/net_0.18.pth (torch, 17999 bytes, 12 tensors)

hidden_layer1.weight f8 [20, 2]
00000000: 06c1 da17 e7dd d1bf c4bb 442e 4377 abbf
00000010: 28ff 39ec 91a0 df3f 6037 b64e f3ff e13f
00000020: c9ce 382b 5033 e23f 88b6 fb65 e6f5 cf3f
00000030: fb80 f613 aa87 e3bf 48ca cac1 0c13 e63f
00000040: 1a4b f259 929e 49bf 0a07 a895 2536 b5bf
00000050: f124 d94b 541d b8bf 5d29 757e 462e d83f
00000060: c85a ff16 98f4 de3f 291b f403 9316 cdbf
00000070: eb82 4ae8 1975 cb3f 38d1 8c44 c123 b53f
00000080: 1cf5 e8d6 376e e1bf ce9b 2388 5ef2 c63f
00000090: 8947 7cbb e681 78bf 57d2 0831 4d05 e23f
000000a0: 9599 49c5 2d7a e53f c38a 0bfd d832 d33f
000000b0: 73b3 cdbc 08e2 e23f 167a 34e4 0140 e1bf
000000c0: 8fd2 868f 68fe c4bf 2760 e137 7861 e6bf
000000d0: ecf5 7cd9 ce52 ccbf c1d7 7f4d e91c cd3f
000000e0: bf03 f9c4 6559 cfbf 9a4a 9ac0 5828 e5bf
000000f0: 590a b1b7 4f13 e23f e6e4 3c59 59df c4bf
00000100: 1cd0 b3da 13d4 e4bf 618b 3a0d 334c de3f
00000110: 50c5 1bb9 6e57 d3bf 0d75 430c 199c e23f
00000120: bd80 6eb9 82e8 d93f 9d2e c40c 3b5f ddbf
00000130: d121 d40d 49d8 e1bf 6286 3bb9 91d4 953f
-0.2791688664392641 -0.05364427509117989 0.4941754156970881 0.5624939477290631 0.5687638134172285 0.249691772266875 -0.6103105916882038 0.6898254189494049
-0.0007818426710336252 -0.08285746482581771 -0.0941975293327635 0.37782442426091284 0.48367883916709475 -0.22725141232532423 0.21451114504181787 0.08257682727418547
-0.5447043607197517 0.17927152297417454 -0.005983258531857668 0.5631471593574798 0.6711644032737235 0.299978491892187 0.5900920569962252 -0.5390634019020719
-0.16401392944466806 -0.6993981448567909 -0.22127709979569887 0.22744480404042913 -0.24491569631393692 -0.6611751329204083 0.564857348225199 -0.16306607110326538
-0.6508883735209596 0.4734008435427111 -0.3022114570331569 0.5815549125215128 0.40481632336196666 -0.45893741842949415 -0.5576520223703999 0.02131869977063728

hidden_layer1.bias f8 [20]
00000000: c95e d1bf 8048 d63f b4a4 649f aae6 de3f
00000010: b7e7 5059 f8ee e03f aefb d119 7453 a13f
00000020: 588d d4c1 079b a13f a6ae aba8 37e2 d5bf
00000030: f7ce 0a3d 2b04 d4bf 6bf5 72e3 d6b5 c63f
00000040: 820e 1f8d 19f2 e0bf 4618 6b62 7123 e43f
00000050: 3988 43a5 5765 c8bf 74a0 0286 954a e1bf
00000060: 747d 18ae 01b9 cfbf 67f5 4474 2854 afbf
00000070: 7846 ea1c 5e4f e13f c503 a2bb c679 c4bf
00000080: 34c4 87d6 3302 d4bf d179 438e 961a e4bf
00000090: 58d5 7770 8156 a9bf 94ba 0317 31a4 b53f
0.3481752274724213 0.4828287655423751 0.529171156354315 0.03383982482136304 0.03438591233341509 -0.3419322154211194 -0.31275444947389935 0.17742429834280968
-0.5295531994128881 0.6293265268548189 -0.19059272355576853 -0.5403545014751345 -0.24783345223202569 -0.06118894976905658 0.5409384312390122 -0.15996631776581985
-0.3126344294569805 -0.628245618685293 -0.04948811052228547 0.08453661739234014

hidden_layer2.weight f8 [20, 20]
00000000: e281 5695 baef c1bf 95cc 3fbe 9fb8 c3bf
00000010: a6ae bfa3 fb6b 97bf 3558 d7e7 3ebd c6bf
00000020: abc1 06e9 5d70 a2bf 318f 1574 576d b3bf
00000030: e29d 7262 a2aa c63f 0db4 a39f 8b39 c0bf
00000040: 57f0 4fa4 1368 c63f 6b71 d850 5aa9 c3bf
00000050: 2ecb aa1f 6809 bdbf 4b04 fa24 3c0d adbf
00000060: f459 e137 59ac c23f c083 0613 3e45 bbbf
00000070: 54b4 b997 6f16 a6bf 3daf 92ad 5c37 a63f
00000080: 643f a386 b530 bdbf 1d21 4280 eed5 a3bf
00000090: 1473 2359 68ea c0bf 253b d138 b8de c0bf
000000a0: 8826 6d17 9b31 923f fb68 b9df b72b b7bf
000000b0: 250a d781 7652 c13f cad6 6806 3a01 d03f
000000c0: 6540 7964 2294 c4bf 035d e368 59ea b43f
000000d0: 349f 17a6 752e cabf cf0f 4e7a 9913 c8bf
000000e0: e9ae e507 775c 9bbf 0afb 2acc fa43 a6bf
000000f0: 5be5 3648 9aa1 a1bf a8ed 9401 cc56 af3f
00000100: 9e1e bd83 9763 bebf e7e5 b7c5 7360 9fbf
00000110: 6cc1 d865 5b3c b9bf acee 198e 6e59 c4bf
00000120: 6aba d31e 9e45 c3bf 5585 c9d9 f105 c53f
00000130: 2a51 74a7 5f72 c1bf 1f27 097b bb5e bfbf
00000140: a9ca bc91 580e a63f 8444 2086 e4f4 bb3f
00000150: 6110 c685 b461 b93f 53a9 329a e5b9 893f
00000160: d948 3a7e 0530 abbf 50c4 b727 0220 adbf
00000170: e7b0 0294 a50f c23f b6c0 0746 8276 a2bf
00000180: ef60 ea2c 2752 b8bf 93d0 519b 2603 c23f
00000190: 98bd 2a40 3cde 83bf 301b 0998 ffdc c1bf
000001a0: 00b0 072e 26c1 a53f e0c8 fdf3 866f cabf
000001b0: ddf1 aed3 1a8a c0bf c35b 6356 4133 cabf
000001c0: 3376 be69 bcc3 c93f 9394 0d15 5217 bcbf
000001d0: e9c7 d83c b766 c53f cc7c 0969 08d0 bb3f
000001e0: dbfa ce6c 4c12 bd3f f334 6982 7b22 bcbf
000001f0: 1442 0625 33eb a3bf f0f8 3ec1 1cb6 c5bf
00000200: 8a10 aa5c a7e1 a6bf 507e 2e73 3957 ca3f
00000210: 1112 d2b5 bc51 babf 3ce4 e658 bbbd c1bf
00000220: 30f6 3555 f2af be3f 798a fe0c 9d69 b13f
00000230: 072e 9680 f792 91bf 895a 0236 d98f a13f
00000240: c012 26e6 3a9a b6bf 5fd0 492c e983 c3bf
00000250: 2cce b071 9208 a9bf 6399 d626 93f4 c03f
00000260: 979b 6e8e 7237 cabf 435c bc3a fcd2 b0bf
00000270: 8329 078b a6c9 863f 6b18 f21a 26cd c5bf
00000280: 918e 72ac d5cf c3bf cf47 405f 7446 c93f
00000290: bd72 01db 663e cabf e9cc 0c2d 7963 ba3f
000002a0: 5bcc 3162 b2a0 babf 9d4f 12e9 a039 b13f
000002b0: 4261 6315 3ab2 cb3f 0e24 c94b 0a35 c7bf
000002c0: 410c 08ad fc0d b63f 960e 2ac6 93bc c7bf
000002d0: e9d6 9e58 d6a4 a5bf 0a7e 023c b109 abbf
000002e0: 8bd1 e111 5743 93bf bd9f bc1b a1bc c8bf
000002f0: 6b6c 26b6 01f5 9cbf 0b35 041a acfc bbbf
00000300: dc78 48e2 e033 cbbf 406b f250 2f68 c5bf
00000310: 3cd1 7521 dc1e ca3f dc8f ea05 6c79 c23f
00000320: b3c1 93fc 34ca b7bf c67f 1c18 af53 b63f
00000330: e429 cda2 94a4 68bf 43bd f7d4 1812 a93f
00000340: 6db7 0dbc c679 6c3f 4af6 c9b2 b671 cbbf
00000350: c026 706e fb98 693f b199 ba8e 3bb0 bdbf
00000360: 11b3 9eb4 3c0b a43f a773 3ef6 e682 c33f
00000370: e405 ab1b 5ab1 cabf b9b5 635d 0938 c93f
00000380: 1c29 cae7 8912 cb3f 3211 7b8d ad88 7d3f
00000390: c05d d2be 053d 8dbf 51d6 3d31 65d5 abbf
000003a0: db45 eff8 c5b0 a73f 2355 d7e0 16b4 c6bf
000003b0: 0a6b a42d 2af8 b2bf d521 69aa a63e ca3f
000003c0: 6b0f 98e6 2d79 8cbf c312 01b2 706c c63f
000003d0: c90d 9d87 1170 a9bf 9796 d477 ad00 9cbf
000003e0: 6efb 2c44 c2bb c2bf eb4d f4bc 0820 b7bf
000003f0: e2d9 b38e f8af bb3f 1f80 76d9 86a7 b13f
00000400: 3e15 d4e7 8682 c63f 29e0 4452 26b5 b63f
00000410: bf6e 6ac0 698b c73f d38e 4f4a fe48 79bf
00000420: d01f 210d 1246 bfbf 8fbd 309b f537 c93f
00000430: 488a f1d8 8846 c4bf 1b5d 1406 c021 b23f
00000440: a3e5 31e4 8981 cb3f ea93 6376 2270 a03f
00000450: 67e8 0b79 b59b b63f 4c1b 1d50 ce62 84bf
00000460: ff05 2433 8c78 a73f ccbf 0080 bed8 75bf
00000470: f271 ace1 4113 a33f 4213 f7d5 f803 babf
00000480: 4498 b8c4 e0e6 c33f f29b d697 e931 99bf
00000490: a91c 98fb 5c9f b53f 78d3 6b01 d8e7 c0bf
000004a0: c4b1 a0cf e15f bbbf f4ed 2503 d983 c6bf
000004b0: 0e45 b033 9322 c53f fc73 821d d4ca cabf
000004c0: 61a1 7cf2 44ff c7bf 50f9 b027 5206 93bf
000004d0: 0666 e48c dd1a 9cbf 8d02 9d4b 5915 bb3f
000004e0: cc6e 4cc9 6335 9d3f cd0f 4dc8 4be6 bd3f
000004f0: af9f c342 7aae b03f 9b62 02af 1f31 8cbf
00000500: 935f 99e8 f23e bd3f dc75 5594 eade 9c3f
00000510: 0ce7 ff0d e25e c53f bbd8 74e6 4b9c b8bf
00000520: 092f 91ba 7983 983f d5f9 d031 5fe1 a43f
00000530: ba42 6859 87f8 bebf d4d0 8d28 cd7a cbbf
00000540: 1a58 fe15 0e1b c43f 0791 a3f3 aeb7 873f
00000550: 53c8 25d6 d9c0 c63f e103 128a 1c17 c23f
00000560: 1702 c9a4 8ed7 c33f 127d aa6b a691 c93f
00000570: 89c1 13c8 3858 c03f 3a44 e4ae 3a37 b4bf
00000580: d1ee a465 8c61 92bf ba1c 77cb 87b4 c33f
00000590: c806 00ab 7396 c3bf 51fb 6da0 3684 cabf
000005a0: 1a5d 8388 e61d 44bf 39f3 6d45 97dd cc3f
000005b0: f96c ec17 353a 953f 9123 7316 b4b5 c23f
000005c0: d255 9c72 dd98 bc3f 562d 1fd6 985a bc3f
000005d0: bed5 6182 a7b6 c2bf 8777 9301 bd52 b3bf
000005e0: 79e6 0c3a 5cd5 b03f ac90 a7e7 e9fa bf3f
000005f0: 9219 e574 98ce b9bf b646 083f a567 8abf
00000600: b421 9035 820f a9bf 17fe 8aae 6def a33f
00000610: dce6 901f 5d69 ce3f e77a 1ba2 778c b83f
00000620: bfee f08e c6a9 ca3f d44b d34b a966 bc3f
00000630: cf05 366e d963 c63f c541 44c5 2dea c83f
00000640: 5c9b bd02 7cc4 c0bf 5d75 95a1 0597 bbbf
00000650: 4663 90c1 f27c c5bf c9b3 18b4 35c3 c1bf
00000660: 5adc 8f0e 90af c7bf 451f f079 7b32 923f
00000670: a0a2 7e08 3723 c3bf c340 e9c6 195d c5bf
00000680: 4b01 44fe 6474 aabf e540 8a75 5210 b73f
00000690: 70b3 7d46 a047 b23f 48ef 2d73 7738 b2bf
000006a0: 36c0 9877 704f bf3f eb76 e8bc c267 cbbf
000006b0: 914b 4eae ccf6 b33f a5f3 a29e a56a a4bf
000006c0: 21d1 7907 4d9b c0bf fcfa f563 1321 783f
000006d0: 08b8 f359 075b a43f a069 6caf 7b27 c9bf
000006e0: f8d2 998d c7e3 ad3f b280 58c9 3894 c1bf
000006f0: 07f5 475a 13ab a43f 2219 3d58 4dc0 a0bf
00000700: 2081 669b fe1c c03f 7d54 f69c 7baa c9bf
00000710: 3d15 8822 8a5f c33f 80b0 cbdb 2ec2 c5bf
00000720: 999f adde 6445 c0bf 63ff 9bb8 c774 c2bf
00000730: 3e10 1322 ecb9 c23f 81ae adac 0069 b2bf
00000740: 3966 36a8 414d c23f 27c0 5001 798a c13f
00000750: 5c5d 4286 92b5 c93f b481 71d5 bfa5 65bf
00000760: 592d 253f 48ad 7ebf feb8 054d cc09 c73f
00000770: e959 b19e 7d1d acbf 4ec1 2129 c4d0 bcbf
00000780: 2af6 9aa6 e400 a5bf 1fc3 799c 09d9 c0bf
00000790: 6074 fc78 484e c93f 7fdf 7302 ed43 c63f
000007a0: 668f 7eb8 801d ccbf 4bc7 a3b1 d1ef c43f
000007b0: cc2b 7651 f357 c6bf e10c 2f65 4f5f bcbf
000007c0: cd61 239b 88e2 b73f ecc1 462a 7474 b23f
000007d0: b134 9227 df0b ba3f 883b 168b 7408 bbbf
000007e0: be82 fff9 1298 cbbf b52b f47d 2d9a 9e3f
000007f0: 9992 be46 e39a aebf 26ca 99dc 5557 bebf
-0.14012844364061922 -0.15407177724373314 -0.02287285983031375 -0.177650321201044 -0.03601354093132455 -0.07588717063987073 0.17708234602945 -0.12675614638229185
0.17505116961536046 -0.15360573718579515 -0.11342478535770503 -0.05674159957289556 0.1458846590855526 -0.10652530636299584 -0.04313992240063472 0.04339112871943349
-0.11402449166348344 -0.03874154391911786 -0.13215355255570016 -0.13179686331064847 0.017767356209594826 -0.09051083766954442 0.13532906856387786 0.25007486940317547
-0.16077070146502873 0.08170088587518269 -0.2045428334233691 -0.18809812995834682 -0.026719913346297117 -0.04348739378246165 -0.0344360554840459 0.06120908278759468
-0.11870715109136618 -0.03064137357976007 -0.0985772250794576 -0.15897924364604898 -0.15056206231334396 0.16424391874447034 -0.13630290676577178 -0.1225392508869416
0.04307820109388178 0.10920551561891229 0.09914711252173582 0.012561601417776435 -0.05310074964394724 -0.05688482985340981 0.14110250212741635 -0.03606040100919598
-0.0950035557419857 0.1407211550136976 -0.009701224048824383 -0.1395568363534152 0.04248923599138266 -0.20652853883399924 -0.12921462379553264 -0.20468918531579847
0.20128588832169356 -0.10973084463110387 0.1671971366027372 0.1086430794180046 0.11356046349008457 -0.1099011605631011 -0.03890380694349829 -0.16962012706603202
-0.04469035154491603 0.20578687786199845 -0.10280970992068485 -0.13860265580095354 0.11987223224965571 0.06801778380626357 -0.01716219637232366 0.034300601809424576
-0.08829086417069743 -0.15246309912220377 -0.04889352453065174 0.1324638309135465 -0.20481712298098095 -0.06571937974909851 0.011126805417821078 -0.17032314601619034
-0.15478011055266852 0.19746260310108574 -0.20502935117374035 0.10308034276822621 -0.10401453873946435 0.06728559198592028 0.216376553004702 -0.1813061590239901
0.08615092491531674 -0.18544242073050005 -0.042273233716896126 -0.05280832154789657 -0.018811569658696164 -0.19325651029907745 -0.0282783763337701 -0.10932422290007453
-0.2125207047365113 -0.16724196865546936 0.2040667689685821 0.14433050431136862 -0.0929291836398594 0.08721441591887844 -0.0030081656499636334 0.048966194150006824
0.003476036218152004 -0.21440776567389924 0.003124705388022203 -0.11597034678070518 0.03914823250611311 0.15243231795912246 -0.20853735304812837 0.19702260074647684
0.21150325601440378 0.00721042436606849 -0.014276547323148203 -0.05436245180218847 0.046270548474818894 -0.17737089136668613 -0.07409919370949694 0.20503695793946855
-0.013903006171865425 0.17518433276759113 -0.04968313961446886 -0.027346334875935154 -0.14635494545833744 -0.09033255208151274 0.10815385326336682 0.06896250542786263
0.17585836715458386 0.08870162495156876 0.18394204993534477 -0.00617312748088113 -0.12216294117490567 0.19702024533897286 -0.15840254395432596 0.07082748554636391
0.2148907055123291 0.03210551924875189 0.08831342892872983 -0.009954082317234068 0.045841580622447246 -0.0053336564451881945 0.03725629691891531 -0.1016231081367325
0.15548333745499765 -0.024604463474727063 0.08446293966709341 -0.1320753104152137 -0.1069317943481059 -0.17589867261618475 0.16511764549117242 -0.20931483689210484
-0.18747770157029733 -0.018578799889149622 -0.02744623348653443 0.10579450698879551 0.028523978387154966 0.11679528846894911 0.06516231660827886 -0.01376557114444781
0.11424177340211221 0.028194108298853368 0.1669581001622692 -0.09613489509942756 0.02393903924193722 0.04078195078954009 -0.12097974713129647 -0.21468510132002072
0.15707565378096505 0.011580817041654713 0.177760343136074 0.14133030645100944 0.15501578375007405 0.19975738770606505 0.12769231576340825 -0.07896773118797365
-0.01795024271380791 0.15394685206249453 -0.15302892541517665 -0.20715983231999727 -0.0006139159823090074 0.22551241769897404 0.0207298560954827 0.14617014976672896
0.1117075352488748 0.110757400775744 -0.14619916788403303 -0.07548123634793856 0.06575561921354191 0.12492238908413594 -0.10080864766960065 -0.012893000589460395
-0.048946446455434695 0.038936069065581495 0.23759044686612796 0.09589336116503554 0.2083061407046127 0.11094148732381309 0.17492215997121582 0.19464656955871198
-0.13099622854061976 -0.10777316279332667 -0.1678756184708396 -0.1387698296906861 -0.1850452490905095 0.01777069980383252 -0.14951217570093878 -0.16690370762308335
-0.05166926959828063 0.09009280557279771 0.07140542717907095 -0.07117411195752965 0.122305897901925 -0.21410402511622037 0.07798461204065023 -0.03987615167122919
-0.1297394072058831 0.005890918487579052 0.03975699399039462 -0.1965174299774164 0.05837844470526038 -0.1373358710416191 0.0403677032190704 -0.03271714880115641
0.12588484371099984 -0.20051522411509728 0.15135313688385024 -0.1699884961339002 -0.12711773751220504 -0.14418884767655546 0.14629890121261896 -0.07191471305639575
0.14298268044949383 0.1370383507178314 0.20085364871622857 -0.0026425120118320437 -0.007489473546523706 0.17998651276452188 -0.054912496205975554 -0.11256052021213245
-0.041022439324916185 -0.1316234602013759 0.19770151050116436 0.17394793147809293 -0.21965035446657594 0.1635686986333503 -0.17455903508775206 -0.11082931728656177
0.09330037868074399 0.07208944351328456 0.10174364772884094 -0.1055977668349738 -0.21557843405664373 0.029885016262635584 -0.05977545012072944 -0.11852013240585588

hidden_layer2.bias f8 [20]
00000000: cb49 4351 2932 a43f d648 69de 8a8c 7d3f
00000010: fc88 598d 1983 cbbf 6bda c2eb 7bad b3bf
00000020: 30ee bd2a 5d7e c03f f215 720b 16b3 c93f
00000030: 1ca3 4f00 910a a03f 1d2f 7ac2 ebcd b83f
00000040: 9907 ee7e 5b56 b33f d669 49d3 8505 bfbf
00000050: 7ae2 bd98 8515 c13f 6eb3 7fb4 7806 bfbf
00000060: 9535 fda7 e38f c2bf dc7e 5c1f ed8e c53f
00000070: 06a7 fdc9 dc9e a2bf a883 e629 b576 c03f
00000080: 4725 393e cdf2 b1bf e6b6 2ef4 d4cc b3bf
00000090: 5222 ca22 ebc6 83bf 5ca2 7d00 bc2a c13f
0.03944520108202062 0.007214109855867975 -0.21493834878771867 -0.07686590677153908 0.1288563212109337 0.20077777441854 0.0313306153182735 0.09689210412960532
0.07553645943519739 -0.12117802055710256 0.13346929510204913 -0.1211924973174072 -0.14501615240662305 0.16842426329912186 -0.03636827436169025 0.1286226706115745
-0.0701111103927775 -0.07734423600660598 -0.00965675067824737 0.13411664985621286

hidden_layer3.weight f8 [20, 20]
00000000: 7a38 2bf8 c17a c23f b3f8 1761 98d1 b7bf
00000010: b41c 8e85 8c31 c8bf cd22 4bb2 7263 b83f
00000020: 14f8 2030 29d5 c0bf 8874 40df 55fd 963f
00000030: 4040 2493 a825 ae3f f9cd 4a74 9a96 c0bf
00000040: 8dbe 7cc6 2ad9 bfbf 34fd 1b35 dd98 a2bf
00000050: db11 d31e ea21 c2bf e2be 5c2b 9bd0 c2bf
00000060: a0fc b272 3a70 a4bf 1175 3879 2066 bdbf
00000070: 38fb b8f7 3af1 a23f 88e8 e340 7047 cbbf
00000080: a3b3 043b 44f7 b9bf 892f 8327 117b c43f
00000090: ffff 9fb4 974c c03f cf01 e32c 18a0 c53f
000000a0: 053d 856b 5740 903f f398 e9e5 46fc a4bf
000000b0: 4d3b 2775 501a c73f 936a 0f3c 5d5a af3f
000000c0: dc3a 75db 27a8 aa3f 052f 0f64 ee51 c8bf
000000d0: e6cf c7c8 fac8 abbf b122 b2af 1498 c1bf
000000e0: 9dc3 6e0c dd58 c83f 116c 2f97 6cb4 bcbf
000000f0: dd91 b9cb 56fe a93f 257e 8958 1f21 bcbf
00000100: e0fb 9168 6cfc 7c3f c313 a290 819b c33f
00000110: d2e8 527a c9fd c83f 407c 358f b42d c4bf
00000120: 550a ae0a 822d a3bf 879d 97ed 79d2 95bf
00000130: 6287 0587 be53 a8bf f26d 99f7 40a0 c63f
00000140: 3636 56bd f1f2 c5bf 687f 7fb5 4b4a ccbf
00000150: 5210 ee8c aa07 a1bf 2a8b 80ec 8efd c53f
00000160: 5cab 7e51 ad93 97bf 7a14 e50a 11c2 cabf
00000170: 0972 cd05 ac4d cabf 371a 9f1b d4b9 b33f
00000180: 44dc cb77 6b6f b0bf 93db 5c66 1eda 9dbf
00000190: 2761 37c6 465e c9bf 916d 204d 4cdd 853f
000001a0: 7eb1 be4f 2cea 9e3f 7857 c36b 535e bf3f
000001b0: 33af a53e 5bec cb3f 3230 846b 4deb bc3f
000001c0: 3105 a996 a4ad bcbf bc34 79e2 fca5 a33f
000001d0: 78b7 ecd2 4678 cc3f 3e2c 6a07 41c5 aabf
000001e0: 7a95 9d5e b3f3 a8bf 7bf1 fb60 eba6 b23f
000001f0: dfea 1064 d448 c0bf 7687 200c b917 ba3f
00000200: a0dc a2a6 0f45 b43f 554c 058f 4f43 c03f
00000210: 4a24 2efa 9317 a5bf acdb 592d fe61 c3bf
00000220: 253b 892a 0ca8 b3bf 0b6b 5835 ca01 803f
00000230: 84bf 8cc6 1710 b23f 0d4a d926 8f22 983f
00000240: fbbc e2d1 9d5f c53f af60 5ceb e6b7 c8bf
00000250: 5110 1053 81f1 a5bf b536 c09d a4be b03f
00000260: 2a8d cd4a 53cb c13f 2eac 2c81 6717 c13f
00000270: 6fc2 068b 49b9 c03f 8b82 00ef 2998 c33f
00000280: 3dd0 b1a2 02be b53f 7e3d 08bf f687 b53f
00000290: e31e 820e e551 c93f 0b9c 862a 7a54 cb3f
000002a0: d3d9 9e8a cd4f ca3f cf17 6fa4 fa70 b03f
000002b0: f035 bea7 4d59 c63f e378 55a6 f0f2 b63f
000002c0: a921 1148 f6c6 cbbf d8da 5e32 743e c03f
000002d0: 4da3 add1 c355 c33f 26a0 a00d 4041 c4bf
000002e0: f1e1 7f12 d743 c23f 74c2 1de5 e07b 89bf
000002f0: 5cb2 ae24 c737 c53f 2bdf f316 74a3 c93f
00000300: 1f11 51bd 40cd a93f 86d1 fb86 e795 c3bf
00000310: ecb5 8284 fb9a b53f a3cc 33e7 c880 b33f
00000320: babc 717b 761b ae3f 45a5 08d1 7392 c93f
00000330: 7b9f 0f6a 0283 86bf 0ff8 3b2e de36 c0bf
00000340: 8678 d23c 67da c63f d516 f5c5 9a80 d03f
00000350: b6d4 01e9 9965 bd3f c801 de1a 921f a4bf
00000360: 5ef2 bb82 aa29 973f b562 aa40 ecfe ca3f
00000370: 9f4d a8f6 84e9 ad3f f67e 6cb8 7e3f b3bf
00000380: 93ce cb76 133b a5bf daa3 bf56 b5c2 c3bf
00000390: bbce 3b6e 6beb b5bf 84ae 92ad fb6f c13f
000003a0: 232f 09f3 7c79 c63f 2d45 f710 32ac bc3f
000003b0: ed36 9a5c 0eb6 b03f bafe b2c5 b03f 85bf
000003c0: bd15 5e6d 8373 cdbf 0095 d91c 59fe c93f
000003d0: 379e 849c b9c7 bdbf b0d6 a718 7b10 af3f
000003e0: 3485 f4f9 f124 af3f 49f1 4517 730d bbbf
000003f0: 58c6 6c65 2a2c ccbf 6a61 b512 6ec0 cb3f
00000400: 3d51 95fe d381 a8bf d678 0686 13b5 b53f
00000410: 057f afe2 b0f4 b4bf f520 952b 4c1f c3bf
00000420: 796e e7b0 58fe a8bf f63e 3fd6 88d2 c6bf
00000430: e1ba c0d6 28ad 6abf af89 b72c ccb3 80bf
00000440: ecc9 aa83 2fe4 b6bf 8a18 d5ce 46a9 babf
00000450: 8fe4 5004 0c0d 98bf 6754 4b46 9e7d a8bf
00000460: ac52 b7b7 9098 b7bf 77f8 affa aea0 bd3f
00000470: ccb6 89b6 f73a bf3f 0e36 6f43 1aa3 c1bf
00000480: 4332 6367 2435 b1bf 25b8 3319 6c09 c9bf
00000490: 4e3e f11e 5440 c6bf b34a ab9d 36e9 c3bf
000004a0: 5f02 edd3 0c1b 853f bbd3 ce8e 8e89 b33f
000004b0: 27bd 0f05 9cdf ca3f 2790 9147 3e78 b3bf
000004c0: 4ad1 a6ce 3ffd 8abf 8211 f7a3 b18e b7bf
000004d0: 4a15 4c75 a546 bc3f 9955 ed04 02ea ca3f
000004e0: 3b3a a7c3 55d7 b33f be91 c4b1 b814 bfbf
000004f0: 0d81 6e6b 27da 69bf fa59 68de fff8 c0bf
00000500: f7f6 e61a 6089 ba3f bc16 ffbb 291e c6bf
00000510: 4201 1de5 c0d0 c3bf 280e 9d95 503a bfbf
00000520: e0b8 2748 3219 993f 7582 659d 736b be3f
00000530: fcba a1a2 604e c7bf ff3d 8139 16d8 78bf
00000540: 0e1a 6cce 0bf0 b7bf 9d41 133e 6dc6 b83f
00000550: 7bcf 0a11 6a30 c63f f946 2c0f 8072 c03f
00000560: 9c32 4580 22ee b0bf d355 8d83 b8d3 97bf
00000570: 3798 7d89 af49 7ebf 2ce9 97ae 3a05 bc3f
00000580: 7ab6 da00 971b ba3f cd19 1ce6 93ab 9a3f
00000590: 4afb 69fa 7f04 c23f 4641 8e80 be9a b4bf
000005a0: 7a7e 7d55 7519 cc3f e766 421f 6e4c b33f
000005b0: 4b91 e7eb bd21 bc3f 9b33 cd8b 6b9b a03f
000005c0: ab3e 3fe0 8153 c33f b199 3e2c 9ef8 c4bf
000005d0: 540a b2b6 71f6 bd3f 701a 6a17 13aa c73f
000005e0: 6f74 f5b1 1193 bd3f c055 32fe aa32 b2bf
000005f0: eb80 b5ba cb81 c83f 189b 4670 7443 c53f
00000600: e650 c20f 4e3f 9b3f ef6e 1d02 2cb7 ca3f
00000610: 199a 1bc7 7692 c1bf 7bbc f230 3f75 c43f
00000620: 3e89 dfdb b221 c9bf 1175 27bb c124 a0bf
00000630: 9470 f7d8 34ba ba3f eebe 837f af89 b03f
00000640: b8dc 0ec2 b4e5 c13f b1b2 29b6 d611 ad3f
00000650: 3c03 8b09 f1a4 ba3f b64f 86d7 caf3 bcbf
00000660: 1469 df42 01cf c83f ff59 b159 0620 983f
00000670: a7cc aaf2 2dcb c13f b34b 305a dab2 c2bf
00000680: 4286 6827 d7fb 943f 6030 ddde be6c c93f
00000690: 53ce febb c540 aa3f ba24 c46e 226b ca3f
000006a0: 2086 190b 9c69 b93f e456 4496 9b0b babf
000006b0: eeb7 81ff eaac cbbf 140e 88f1 f418 c8bf
000006c0: 5cd3 17b4 7571 b03f cbf7 b5b8 c12c c8bf
000006d0: 85a1 0153 c226 b93f c9f3 2189 a8f3 6ebf
000006e0: c33f db9c 2600 cbbf fae0 3dff 8aeb cc3f
000006f0: 2eb1 1aaf 9c58 a4bf 6591 1d5a faf7 b4bf
00000700: 8a5a 43a6 fc86 c63f 457c 3b0b b1bf c7bf
00000710: ae4e e0fe 8ab7 b8bf d433 a692 3cbf b1bf
00000720: e480 dfaf 3777 c7bf d2c3 aefc 2994 90bf
00000730: aec5 8b76 daca c73f 4afe 9011 c0a1 b2bf
00000740: 4074 7151 6db4 8cbf f09d 434f a41d c13f
00000750: be3b ff66 749d c7bf fdbf d174 efd8 c2bf
00000760: 1415 1b1c 324e 973f 92fe 2ca6 d2e6 c2bf
00000770: 75fe 974e ba01 b73f 0bcc 1eb7 71f8 c13f
00000780: 509b 272d eb01 9fbf c76b 8836 8849 a6bf
00000790: 459a 2c79 d661 b53f bdba 32fb b400 94bf
000007a0: eea2 159b ea54 c43f c547 e454 5581 9bbf
000007b0: b832 5582 60e8 b7bf ade3 5676 d04e ccbf
000007c0: 6d25 067c e58e c0bf 4ae9 0417 c18d c9bf
000007d0: d86b 6120 5b15 c93f df6f 85b5 8d55 853f
000007e0: 2b78 6031 0040 c2bf ee14 f28d 665c b33f
000007f0: 74d6 5a47 44b8 bbbf 2041 d161 b705 bc3f
0.1443712674867504 -0.09304191942644273 -0.18901211282011376 0.0952674565588822 -0.13150515413320873 0.0224507730018684 0.05888106151735473 -0.1295960491021189
-0.12440745683556483 -0.036322510464737695 -0.14165998940565214 -0.14699115388201905 -0.039918734074938955 -0.1148395820568633 0.036996691455433994 -0.2131176297041899
-0.10142923775556638 0.16000570706671294 0.12733742065029216 0.1689481944249693 0.015870443284538478 -0.04098722034977866 0.18049054832814662 0.06123629911572439
0.052064176120088596 -0.19000034223278575 -0.054267727860775314 -0.1374536378755429 0.19021189791740492 -0.11212805453344311 0.05076857792736054 -0.10988040839719611
0.007076667280784016 0.15318316995776912 0.19524496529431318 -0.1576448153745975 -0.03745657329911426 -0.02131071579597468 -0.047513917905930084 0.1767655571919558
-0.17147657151183332 -0.22101732599457624 -0.033261613562928574 0.17180048511462448 -0.023024280642555225 -0.2090474417874793 -0.20549536021543727 0.07705426859238505
-0.06420013117518503 -0.029152369497036878 -0.19818958929568817 0.01067599878665851 0.030190174453012635 0.12253304844793245 0.21815052565522705 0.1129654300204386
-0.11202458074787526 0.03837576164787879 0.222420552244724 -0.05228617873680051 -0.04873428850150226 0.07285948865678009 -0.1272225845912862 0.10192448183127376
0.07917878931299294 0.12705416186745092 -0.04119551114042304 -0.15142800535587975 -0.07678295172193524 0.007815913918468384 0.07055805776030694 0.023569332834378943
0.1669804835159779 -0.1931122445319082 -0.042858163251395916 0.06540898181284656 0.13901749756323883 0.13352674300526374 0.1306545189704766 0.1530811707498468
0.0849305770114492 0.0841058937441996 0.19781172951137824 0.2135155398984526 0.20556039112643862 0.0642239238214579 0.17460032167984663 0.08964447079549447
-0.21700933951275417 0.12690594157694224 0.15105483759114194 -0.1582412783184292 0.14269531634614865 -0.012443310730050096 0.16576470652707342 0.20030070420011134
0.050394080266899836 -0.15301221934317882 0.08439609513398921 0.07618384975994501 0.05880327469719178 0.1997818728134836 -0.010992068158841786 -0.12667443521053243
0.17854013891059511 0.2578494008233581 0.1148315614571683 -0.0393033654972928 0.02261988089502364 0.21090462834833593 0.05842223654704103 -0.07518760683569412
-0.041466339351157754 -0.1543795274331206 -0.08562346879244391 0.1362299535297674 0.17558252207742794 0.11200249590117002 0.06527795563507839 -0.010375386269856225
-0.23008768882952593 0.20307458790481547 -0.11632881232491675 0.06067261386844558 0.06082874466143054 -0.10567397421067883 -0.22009782745731132 0.216809996733683
-0.04786550982194846 0.08479425451375575 -0.08185868772806877 -0.1493926251225798 -0.048815509409647136 -0.1783000036361881 -0.0032563970217077552 -0.008155436625149585
-0.08941933598070023 -0.10414545583361892 -0.02348727012961099 -0.047833391266672014 -0.09217171178108668 0.11573308582589613 0.12199352461331187 -0.13778999607750148
-0.06721713565929925 -0.19560004454200555 -0.17383815298898003 -0.1555546064251608 0.01030550023790616 0.07631770121118013 0.2099490189279802 -0.07605351683884064
-0.0131783471050332 -0.09202108624510255 0.11045297731114548 0.21026635399418295 0.07750450159731141 -0.12140993442569134 -0.0031557817378172815 -0.13259886131045545
0.10365868241111885 -0.17279550246728614 -0.15480815112278817 -0.1219835629718139 0.02451017918968368 0.11882708161057016 -0.18207939091686132 -0.006065451445536051
-0.09350656308752311 0.09677775159366893 0.1733524878705984 0.12849426976077163 -0.06613364822005469 -0.023268588094046038 -0.007394490901651499 0.10945479166540356
0.10198348780496672 0.02604514209726876 0.14076232650037418 -0.08048620832983486 0.2195269267494842 0.07538498175781748 0.10988986024273577 0.032435761275883844
0.15098594140589702 -0.16383721504571505 0.11704168997133851 0.1848777641609618 0.11552534670541247 -0.07108563142749968 0.19146105400705635 0.16612105829445833
0.026608676635604754 0.20871496299047673 -0.1372822258192208 0.15982808961914316 -0.19634090171809676 -0.031530431838954105 0.1044037847236175 0.06460091460371206
0.13982257342806803 0.05677672361057285 0.10407930834754792 -0.113094976061176 0.19381728902119078 0.023559664940274058 0.13901304577811865 -0.1460831585287373
0.020491945057193435 0.19863115198166081 0.05127542419304789 0.2063944855547442 0.09926772376049842 -0.10173962038637857 -0.21621453739083968 -0.18826162141350322
0.06423125883868636 -0.18886586684305792 0.09824766661188818 -0.0037782947265996053 -0.21094210299497548 0.22593820059751818 -0.039738556265861966 -0.08190884304128117
0.1759944736320061 -0.185537462696603 -0.09655064318240633 -0.06932428913405825 -0.18332573020507603 -0.01619020085098894 0.1858780936086481 -0.07278061322085097
-0.01401601223749982 0.13371709699934753 -0.184492636004931 -0.1472453422934449 0.02275923058075076 -0.14766915430117372 0.08987011355201864 0.1403944152967543
-0.03028075659849644 -0.043529755265090446 0.08352413614611816 -0.019533946830672323 0.15884144375311088 -0.02686055498731556 -0.09338954145386935 -0.2211552217320593
-0.12936085277423662 -0.19963849662765148 0.19596423226434356 0.010417086698616572 -0.1425781479928799 0.07562867131680992 -0.10828043691693684 0.1094622243701946

hidden_layer3.bias f8 [20]
00000000: 65df 7d25 3e8f a0bf a371 62d7 4df4 c63f
00000010: 72a9 5004 130e b9bf 23e5 0b4c 1c5b c4bf
00000020: 33f0 4f3d 54aa c5bf daad 5c9f 6fdf abbf
00000030: b75d 0280 7e3f b9bf caa6 7a21 3668 b03f
00000040: e8bd f6c3 1abf c1bf efe6 598c f717 9c3f
00000050: ad74 90e3 c82f bd3f 19f1 3a41 f6d3 c2bf
00000060: 7d0a 150a ed80 c5bf 0466 63eb 0e87 98bf
00000070: c449 e54a f390 c9bf 7137 a2ae e3d0 b6bf
00000080: f067 30e6 e94f b5bf bd1e d718 4eff c73f
00000090: 86f5 85b6 c713 c63f 07cb 65c9 6334 ca3f
-0.03234285552656394 0.17933056847404058 -0.09787100653980987 -0.15903047288137726 -0.16926053041231767 -0.05443905659043553 -0.09862509370065352 0.06409014050828002
-0.1386445481161751 0.02743517679343815 0.11401038699883044 -0.14709356484480265 -0.1679970072965097 -0.023952706448517005 -0.1997360339833688 -0.08912489903943112
-0.08325063581324321 0.187478792313632 0.17247864162702004 0.2047238095652448

hidden_layer4.weight f8 [20, 20]
00000000: 2307 766d 8682 b03f 731d 99d6 65b0 89bf
00000010: eeb6 4316 4518 c43f 0d5f 0a13 f6f5 c83f
00000020: 2c50 6f1f 38c9 bdbf 9560 6af1 7051 acbf
00000030: 7c20 ab24 b05a b8bf 4a9a 44a0 1c28 93bf
00000040: 0e11 19cd c977 c4bf 46f1 1322 257b bdbf
00000050: 15d9 f484 5247 be3f 41ce ec36 37d2 c7bf
00000060: 109e c4c5 24ba bc3f 6546 9e58 a338 683f
00000070: 05f1 c867 37e0 b6bf a46f eea7 8556 a9bf
00000080: a218 b820 f4c9 a6bf b73f b709 6c0d 893f
00000090: c692 b379 fcf6 c03f 7405 e289 ed3e c63f
000000a0: 549f f381 fac3 c4bf 5fc4 66dd 2df9 be3f
000000b0: c659 ff90 4f08 9c3f 4e1f c1ac 887e ca3f
000000c0: fb40 4005 b9bb bcbf 9e22 c249 1592 be3f
000000d0: 7914 856d 6cc6 babf 11bf ea52 2376 9f3f
000000e0: 0e05 fe24 d0bf ca3f 17a6 d00b 0cd4 b23f
000000f0: a1f9 efc1 5468 92bf 6167 f673 9650 acbf
00000100: 13f8 8e2c daae c6bf e496 f37b b08f b9bf
00000110: 722b bab3 ed16 87bf f3bb e36e 196f c33f
00000120: ea88 9301 86e0 c33f cb84 d6c7 bd33 b53f
00000130: 21cf f37f bf47 c53f 536c 5c6a 67f0 aebf
00000140: c709 0dcd c4d3 c03f fb00 4138 da80 c2bf
00000150: 3e4a 939c b253 9abf fd8a 82a7 897e bf3f
00000160: 57f6 3cc7 d57d c53f 0869 3c6e 7614 c13f
00000170: b9bc f858 45e0 8b3f c0f0 68bb 6fc2 b4bf
00000180: 5b07 0950 1797 c43f c4fa 6bc0 54e1 9dbf
00000190: ec42 836f f99f c13f e1be ef7e e272 ca3f
000001a0: e41a 1d31 a9d7 be3f 9354 1268 5652 c53f
000001b0: e9d2 698b 03ff c5bf 0f1c 059b 0f06 a5bf
000001c0: 8270 f89d fe02 c8bf 718e 76dc 2e6e b43f
000001d0: 9833 76bd c869 b43f 8a01 a68d 76f9 b3bf
000001e0: 1057 14c6 0d83 a53f 41ab ed92 4981 bfbf
000001f0: f03b 57fa 4d8f c6bf 9f44 1bd3 8142 c93f
00000200: 44f0 8855 f057 b0bf b4fb 7ceb e308 87bf
00000210: 1425 6976 f748 c53f 83d1 dae7 c423 ac3f
00000220: b13c 863b 43ee cb3f 892c 0285 3a8b 7bbf
00000230: 2bc6 3e14 1ac9 afbf d4e2 9b83 2558 c1bf
00000240: 4e9f 08e0 e466 853f ee57 e154 bdf6 c83f
00000250: b440 3897 7e8f b3bf e59e 4638 6e44 bdbf
00000260: 6cd8 2e2e a046 c43f 6f75 9002 b86d c13f
00000270: 7ba2 5ce0 88bb 823f 6d51 748f b9e4 babf
00000280: e0df 85f3 6419 9e3f 5307 7526 5c5a c83f
00000290: e396 b2a0 83d1 c4bf 8bf5 d326 1c0a 763f
000002a0: c8b4 7789 20aa a13f 0af5 f0d8 d908 bcbf
000002b0: fadf 4d9b 6b71 b23f e6ca 4b65 577f a33f
000002c0: fc44 aaff a179 60bf c697 459b befc bebf
000002d0: 4f18 706c 3669 bd3f 2bf0 4e77 a253 763f
000002e0: 42fd 80ed 0836 c2bf e9db 8bac 1ee4 c5bf
000002f0: d595 50ca 74d8 a2bf 9192 b170 cc7d b53f
00000300: d47c 313a a966 a13f abfe a1d4 02cf 8dbf
00000310: 2dc3 517a 6008 ca3f bcdd 3a8a afb9 b63f
00000320: fc7d 785f 9f6a c23f bcbc 9a96 c398 613f
00000330: 4393 d663 e4c6 bc3f 5866 d528 a81f a4bf
00000340: bd00 4309 822d c9bf 1151 b3e2 5df8 cabf
00000350: 923e e5b0 4a4c a63f 329b 371b 3400 8b3f
00000360: 8921 4653 f876 98bf b6bd 2be9 d55e a7bf
00000370: b9a1 b034 e1ff c1bf ce41 79a7 d0f8 b6bf
00000380: 5226 8001 372e b8bf e338 2aec 0915 b2bf
00000390: 9771 5d8b bf1e b2bf ea66 7c0d b0e2 ba3f
000003a0: 5ee2 c30e 93b4 c0bf a1c1 19fa ab13 c13f
000003b0: b790 63c7 53c2 c43f f50d 7f6a 6590 a3bf
000003c0: b4ea 6307 b954 c33f d9e8 2852 3aef c6bf
000003d0: ab28 b25e 5f8c 993f 53aa 3de9 361a ac3f
000003e0: cb2b edfb 541c 953f c7de 537e 5661 b6bf
000003f0: 134e c8a2 1401 c23f 440e d6b3 8feb a53f
00000400: f245 5160 793b c0bf 6e9f b1a4 70a1 bebf
00000410: 89b0 05fd 42da c9bf 39e9 77ab 43b0 943f
00000420: f206 3712 edf6 b03f f0eb d7f8 9bf8 c73f
00000430: 1e0b 2821 6b80 c3bf 903d ce95 4627 c3bf
00000440: 0f7e 20f2 0456 babf 40f0 a3a9 b4e5 ba3f
00000450: 176f 0a90 6c04 b6bf 7c5e 6160 c234 ba3f
00000460: 2f83 f8a9 e4b1 833f 8985 6889 80f8 c83f
00000470: 98fa 5df8 7599 c53f 33c2 b27b 85ed b4bf
00000480: 3341 d94c b36d ce3f 3cb6 0f55 8408 c4bf
00000490: c3b0 233e 257d bcbf 2b62 b162 3832 b7bf
000004a0: 872d 2786 31ca b8bf afb5 b21d 9bb8 7e3f
000004b0: c91b 4f8a 129f c93f 5e4f 20be 6b67 bfbf
000004c0: 75fd 575e 2ad4 a4bf 065f 90e1 219f a73f
000004d0: d791 3df1 2740 bfbf 822e a92f c044 bd3f
000004e0: 5beb 7bc7 4d37 b33f ae40 f970 cbe4 b53f
000004f0: a4d2 6c93 2529 c3bf d531 60d2 2a32 843f
00000500: 7c41 552e 2dd8 ab3f 7fe4 4f9f 5ea0 bfbf
00000510: 2a88 b40b be3d b13f 948e ef5c 7baf c8bf
00000520: 186c 2b23 82d8 963f 5417 0e0e e17d 92bf
00000530: da22 f19e 749d c2bf c814 b9a9 5b41 b63f
00000540: 1e57 e418 1a15 ae3f 5017 6072 87ee c43f
00000550: 36e4 2aa7 e7f4 c03f ad24 e11d 1b5f c6bf
00000560: 3121 31f1 3f4b bd3f b98e 0ebe 8312 c13f
00000570: f55b c584 256f a1bf a9d3 eebe f30f b53f
00000580: b4bb 545d bd72 cb3f 755c 6932 0390 c23f
00000590: 77ec 9a39 45a1 b63f a995 5965 0636 cabf
000005a0: d637 bf0f e1ca c9bf 463f 0b96 c0ad 9e3f
000005b0: a88b 6dce a11f ba3f 4387 d15d 476f 94bf
000005c0: 1c85 226e a3c6 aa3f 0839 83c4 447c b3bf
000005d0: 6f1e e846 ae99 a0bf ca0a e58f 8b34 bf3f
000005e0: ff83 e9be da42 9b3f 1662 96bd 2d0d b4bf
000005f0: ece2 3606 64e9 bfbf c027 5a56 35dc a03f
00000600: c974 922f 6489 a33f 8c62 874b 6208 c93f
00000610: 9ee6 252c e3fb be3f 976a 5c39 0347 ce3f
00000620: 4dd3 8e4b b254 cabf 6722 0ee0 0802 c93f
00000630: 87b6 26a0 2985 cc3f 44ab efc5 3347 aebf
00000640: e9a4 1b85 b16d c7bf e20f e55b 495a c1bf
00000650: c2eb 59bc 9e5b c13f d999 8da2 0f01 a4bf
00000660: d3c5 d073 e34f 813f f63d e636 7db4 a6bf
00000670: f1f0 f762 d526 cdbf c4fc 9710 a1ef b9bf
00000680: eb84 c5ad 7def c13f ea7a b646 0ba0 b33f
00000690: 8584 0fec e340 953f 6dc0 664e 5557 b43f
000006a0: 7b01 c754 519b cfbf 3b27 5e59 273e cabf
000006b0: 96e9 910f d70a c8bf 6165 2d4a 5d06 c8bf
000006c0: 0f03 0cc8 f95d a33f 2350 0253 5704 ba3f
000006d0: 10fd 0578 90c7 a9bf e9e4 c5f1 9c54 bb3f
000006e0: dc52 fea6 c597 99bf 9f46 0d3e 8afb 993f
000006f0: e569 f9d8 1f0a 993f 4e8b fc6e 1ad4 b0bf
00000700: f6c4 83bf ff60 a03f cd7e a0fb 63a9 bfbf
00000710: 3731 4975 b921 c53f 3cde ab28 6d42 c7bf
00000720: 494e 687d ff44 bebf 41d9 4509 cd57 bf3f
00000730: 08b0 2cb9 bf88 c7bf 0f66 0cd7 4a9e b83f
00000740: f5d0 914f f1d1 95bf 27d3 6fb1 5191 b83f
00000750: 7d6d aff4 dc1a a9bf 57e9 4a0b 70bb 7bbf
00000760: 64fd b9f5 1676 91bf 1a93 c908 bcc8 c4bf
00000770: 6e31 10db ba81 bf3f 7772 84b8 61fe ca3f
00000780: 7e1f cdd5 6442 9e3f ef02 e567 66cc 9fbf
00000790: 1b6e f5f6 14f7 c4bf 9340 a3dd 6147 c8bf
000007a0: 7cbe 8e3c 9510 b0bf c232 9294 d97c c7bf
000007b0: 36e8 cbe8 a6a9 873f 1b93 5093 849a be3f
000007c0: 2d0f cfb5 cb61 c1bf c6e4 0234 4910 b4bf
000007d0: 5123 393f 1465 b73f bdac 5958 1ea4 be3f
000007e0: b395 e30b 2169 b83f 3ef2 00f2 5881 c63f
000007f0: 64cf a1de eaf4 b3bf e01e 6942 3815 c43f
0.06449165508641079 -0.012543483363642171 0.1569906576836994 0.19500614099228422 -0.11635161178065861 -0.055308846921606016 -0.09513378997064764 -0.01870770195196262
-0.15990564837023452 -0.11516029436092365 0.11827579256064198 -0.18610277349363183 0.11221532657929623 0.002956694636801415 -0.08935877116977416 -0.04948823618835199
-0.044509533876451415 0.01223263172769849 0.13253742163137455 0.17379540665210025 -0.16223079057021528 0.12098967223461575 0.027375453209822508 0.2069865077521577
-0.11223942163656268 0.11941655207386723 -0.10459020303558643 0.03072409814438887 0.20897867017996713 0.07354808128788935 -0.017976116501807863 -0.05530233541067165
-0.17721106696802788 -0.09984877611313042 -0.011274201438274043 0.15182798304110143 0.15528941227882537 0.08282076004845178 0.16625207660364885 -0.060427886708759225
0.13146266948940719 -0.14455726382039544 -0.025709906393624353 0.12302456225965482 0.1679026816217852 0.13343696959129425 0.013611356523226413 -0.0810918648284682
0.16086093337986082 -0.02917988228272851 0.13769452996213916 0.20663100431510542 0.12047822426857696 0.166575241867268 -0.17184490496915508 -0.04106186644872178
-0.1875913878765268 0.0798062599411027 0.0797391378930129 -0.07802525480474834 0.04201548617326811 -0.12306651913756374 -0.1762483093611702 0.19734213645873397
-0.06384183967833318 -0.011247425674467106 0.1662892654588083 0.05496039705522817 0.21820869833434167 -0.0067245756073460805 -0.06208116051801612 -0.13550251890389708
0.010450161063161236 0.19502989429992063 -0.07640830222976797 -0.11432541726992047 0.15840532546070862 0.1361608517189938 0.009146756503086486 -0.10505256416610616
0.02939374672266115 0.1902575671938914 -0.16264386507571435 0.005380735366313681 0.03450109174796406 -0.10951005503098457 0.07204315702063005 0.038080912699930455
-0.0020111240422201453 -0.12104407587830143 0.11488666675003965 0.005450853951455096 -0.14227401348942165 -0.17102416443933002 -0.036807679840687925 0.08395078421888004
0.033986366609264046 -0.014554998506582114 0.20338064167619888 0.08877083897356547 0.14387886201528477 0.002148038872142514 0.11240985333877256 -0.03930402277428574
-0.19670129253609572 -0.21070455140455427 0.04355080994957662 0.013183981972316159 -0.023891334612501623 -0.045645413125267195 -0.1406213290477021 -0.08973411644661342
-0.09445518290171975 -0.07063352599854826 -0.07078168060747313 0.1050214798855468 -0.13051069470363336 0.13341283523506056 0.1621803973749871 -0.03821103024486298
0.15102303372244352 -0.17917565356930856 0.024949541239529676 0.054887500736033566 0.02061589038502713 -0.08742275795145381 0.1406579775653972 0.04281281538262907
-0.12681500628472936 -0.11965087910504987 -0.20197331766701535 0.020203645077324615 0.06626779265118524 0.18727445269163878 -0.15235652083364298 -0.1496360999558246
-0.10287505065252155 0.10506753102885202 -0.08600500599498805 0.10236754277263488 0.009616648137183851 0.19508368214978258 0.16874575259494828 -0.08174928922631679
0.2377227902638964 -0.15650991586100982 -0.1112845684726294 -0.09061005029196482 -0.09683522725315728 0.007500272676379024 0.20016700509424215 -0.12267182723763656
-0.040681194321218785 0.04613595846620737 -0.12207269324932866 0.11433030284495696 0.07506261940208729 0.08552237995286546 -0.14969320009699516 0.009861311478766158
0.0543836707171321 -0.12354079617934309 0.0673483637406497 -0.19285528219107972 0.022310288807471407 -0.018058315737582945 -0.14543016205632037 0.08693478482844619
0.0587547450433432 0.16352933010801474 0.1324739042518403 -0.17477740248640342 0.11442947042917663 0.1333775213253057 -0.03405110593546815 0.08227466021965192
0.21443907792260364 0.14501991235258385 0.08839829117180097 -0.20477371166923078 -0.20150388020414195 0.02995968738360879 0.10204516687149001 -0.019955744839882838
0.052296740717119955 -0.0761149387137473 -0.03242249122200468 0.12189552557996844 0.026622217085222385 -0.07832609060859172 -0.1246550097629428 0.0329300563726771
0.03815758782114071 0.1955683583062363 0.12103099658807046 0.23654213238554142 -0.20570973100043446 0.19537459316440506 0.22281380004772108 -0.05913697997296777
-0.18303507804311117 -0.13556782710122578 0.13560852238501125 -0.039070595353041866 0.008453156444462906 -0.044345772697052796 -0.22774760563323285 -0.10131270079726834
0.1401211832517569 0.0766608283652023 0.020755349429127285 0.0794575992974857 -0.24692742003936616 -0.2050217806211608 -0.18783081302883592 -0.18769422647418835
0.03782635275820755 0.10162874008739257 -0.05035068001870446 0.10675984289800379 -0.024993027036162782 0.025373611485810185 0.024452684038218115 -0.06573643884307254
0.03199004376245711 -0.12367844479785646 0.16509168841219843 -0.18171467290788879 -0.11824032603936376 0.12243348575961922 -0.18386074582792866 0.09616534948545329
-0.02130868003992333 0.09596739370301731 -0.049033074253851595 -0.006770551369010689 -0.017052038906056124 -0.16237593106338793 0.12307327125762921 0.2108881140674332
0.029550147580521983 -0.031053161708089524 -0.16379034098177744 -0.18967841455606002 -0.06275303581673514 -0.18349761728713615 0.011554054240594618 0.11954525562812217
-0.13579698922523545 -0.07837350387389383 0.09138609450850523 0.11969175011624862 0.0953541425729643 0.17582237068735823 -0.07795589385369578 0.15689757578569807

hidden_layer4.bias f8 [20]
00000000: 3ab4 a431 0a4d c3bf b0ff 5b64 c11e babf
00000010: 15a0 b323 ae0a c43f 074f 67a3 8422 bc3f
00000020: 7d12 13bc 79f2 c1bf c84f f04d 635d bf3f
00000030: 40bc 618d c8ae b93f d4da 2dc6 bd4d c53f
00000040: 612c 393f 2d73 843f 18a7 4ffb 9f08 cb3f
00000050: ba9e df4c 80c3 b43f 38f9 376c fbe9 c9bf
00000060: 28e4 0454 1de0 bcbf 854e 4eda ee36 a6bf
00000070: ddbb c845 9575 c8bf 13bf 01ff 9e45 c6bf
00000080: b0a8 a2d0 681e a73f e9f6 412e edab bebf
00000090: 6778 2ca8 5341 c53f a175 fca4 ec8a c9bf
-0.15078856872551843 -0.10203179073505342 0.15657593482251345 0.10990170468658898 -0.14021226580929982 0.122518736389167 0.10032323314384062 0.16643497635569438
0.009985307208941476 0.21120071192790912 0.0811081111602289 -0.2024530676280365 -0.1127947168469211 -0.0433878556715657 -0.19108835132052962 -0.17399966670517894
0.04515388056582148 -0.11981089000070323 0.16605611526114503 -0.19955213600125624
