net_param/net_0.17.pth (torch, 17999 bytes, 12 tensors)

hidden_layer1.weight f8 [20, 2]
00000000: 9fa0 f51b 8139 b43f ee05 2cc9 20e9 d03f
00000010: 1751 347d 7637 e0bf 9a59 f75a 7931 d4bf
00000020: 7969 186c cd5b dd3f 6af0 0411 e3dd cbbf
00000030: 1860 dcf0 110d d2bf c3e4 b89b a7c6 d2bf
00000040: 5721 9c11 d463 debf 3d8d 6c68 f4b8 dbbf
00000050: 4d63 94aa cdef df3f 5b0c 6aca d2b9 bfbf
00000060: 261f b959 89d4 c2bf aa74 0b08 520f 983f
00000070: eabe b6ce 81cc debf f45d 8aa4 17e8 c93f
00000080: 98e7 68f0 437f d4bf 9e96 f218 56cc e2bf
00000090: e457 f10c 896c e23f 5b50 4318 567b e13f
000000a0: 6c8c ab71 57e8 d6bf 6cab 7c5a 2504 bbbf
000000b0: 2758 b6ae 350b d53f fff6 5c8a bd7e 9ebf
000000c0: a0f4 28b9 ce4f c9bf 089b 1acc a246 bbbf
000000d0: 603a b960 8bbf c53f b8a5 e51d dafc dbbf
000000e0: e8aa e2b5 c9b5 da3f a1db 58fa daf5 d93f
000000f0: 7384 04fa 2d4a e1bf 4210 7340 337a e03f
00000100: 369a b0f4 db5a e23f afa6 c397 3ac9 e0bf
00000110: ff1f be9a dd00 c0bf 85bc 1cf4 5b93 c73f
00000120: 0401 9cf0 52ca c13f 5d3c 6de2 1451 b3bf
00000130: 67ab 3ebd 7644 e03f a417 f643 5a44 c23f
0.07900244648556275 0.2642290081567741 -0.5067703671834661 -0.3155196560232071 0.4587281756991142 -0.2177089531995791 -0.28204773446623355 -0.293374921867848
-0.4748430416080018 -0.43316374013575737 0.4990114370171355 -0.12392919008020568 -0.1471111000157574 0.023495942822468287 -0.48123212038897967 0.2023953965587989
-0.32026766278760865 -0.5874433982141516 0.5757489445484194 0.546305701626362 -0.35793100452992266 -0.10553201159625097 0.32880918561693523 -0.029780351228729348
-0.19774803200735835 -0.10654656870847756 0.16990797255353396 -0.43730786246905096 0.41734545480964735 0.40563082168540104 -0.5403051264912747 0.5149170168665551
0.5735912112330144 -0.5245640720506425 -0.1250264173106643 0.18418454570334944 0.13898693798547168 -0.07545595672603285 0.5083574005305821 0.1427109557955052

hidden_layer1.bias f8 [20]
00000000: 0f38 0893 86d4 d93f 178f 01fb 7845 e43f
00000010: 59f7 bb93 edc3 e03f b593 051c 73e5 d0bf
00000020: 3484 d26d 0f0e c9bf f2ca 3ee9 4a64 e13f
00000030: ea22 e1dd 742a c23f c383 c569 4f04 e03f
00000040: 158a a986 4cd8 a7bf 12c6 8193 91ab d23f
00000050: dcfc 87f7 2b5d e13f 0208 e167 1799 b6bf
00000060: 6a45 732f 6d5b 423f 4963 c37b 3fd8 d33f
00000070: bf1a 53ba 318c c1bf 76fb 527b 0d43 cabf
00000080: 2cca dc10 eafc e23f f2ab 8c8a dae6 d8bf
00000090: d547 2f1a 415b d13f bccb 2ab9 5b7b cd3f
0.40359653814891855 0.6334805395567596 0.5239169965204652 -0.2640044950151677 -0.1957415853731007 0.5434927516529042 0.14192066987950308 0.5005261484003473
-0.046572104872002175 0.2917217197892522 0.5426235041230956 -0.08827348981961339 0.0005602152949909904 0.31007372938397687 -0.1370908889568536 -0.20517128488242137
0.5933733300537987 -0.38909019022201996 0.27119472081278434 0.23032709637990745

hidden_layer2.weight f8 [20, 20]
00000000: 3c36 e842 e8da c4bf 9ab6 76ef ddbf b73f
00000010: c11f 282a 6395 abbf e357 626f 1c9e c3bf
00000020: c7bc 9940 b982 ac3f 1457 31b3 1558 bcbf
00000030: 11a1 183a 5dc9 7f3f d89b ef06 9b16 b63f
00000040: a66c 3c92 d708 c03f 95a9 186f 0945 b2bf
00000050: 8ff0 a78d 4f90 ba3f cdc1 04c8 2daf ca3f
00000060: 18ab 384c f665 c2bf 3d4c e575 f691 c63f
00000070: 5828 72e7 df28 ad3f c071 8d51 b74f b4bf
00000080: fb4b 94a9 a3db c33f 0e98 c4fb 86fa c13f
00000090: 8c7d aef9 7c20 c0bf 9ad0 f2d3 e0a6 a3bf
000000a0: 8576 73e1 97a4 aa3f cf89 9ae6 6214 c1bf
000000b0: 90af 734f 848a 933f c42a 8c9e ab7e b5bf
000000c0: a454 876d a4bd bc3f 1215 085a 0b25 b2bf
000000d0: d087 765d ac38 c3bf a601 f87b e6c6 af3f
000000e0: c84a 0290 8709 c0bf 26b1 aaa8 affb cebf
000000f0: 3a12 dd86 c5d8 c2bf e06f 03b3 7d68 af3f
00000100: 1fb9 5b8c 7e85 b83f 7d17 959d 1a69 c93f
00000110: 1c48 4515 4299 ba3f 92d0 4822 9dd6 c33f
00000120: 16e2 7783 ce00 c1bf 242e ca62 2945 a1bf
00000130: 824e fcf2 39e2 813f 0997 0e56 b2c8 b73f
00000140: 7a70 e98d 22d9 983f f27c 76aa 231f c53f
00000150: cded 3a62 e3fa bf3f 7775 8bd3 ee8e 90bf
00000160: 9e8b 6106 98ae c7bf d6fc 8ec2 aaea c0bf
00000170: 52c4 417a 7734 c8bf e909 5f61 fb16 af3f
00000180: 0815 f187 3712 cabf d9ec 07e3 a64d 9fbf
00000190: 06d3 b45d 97f4 9dbf 4292 c186 270a c8bf
000001a0: f11c 3e1f cd40 b43f 2d40 3f37 2a0e b3bf
000001b0: d1e8 d6ec 0b19 b63f 578d a1a4 0824 af3f
000001c0: 8af4 1d3d c04a 953f 36ea 92e8 e025 b13f
000001d0: 91e7 9476 a042 b7bf 9d2b 4441 cd20 943f
000001e0: 2f5d d9ac 7df1 bdbf a15d b807 259f c8bf
000001f0: f0a9 2fa3 1b31 b6bf 1a55 b746 7952 ab3f
00000200: 124d 4c01 4947 c3bf 2e7f 538c 8142 c2bf
00000210: 2c44 c547 4323 cabf 7a2f a2f1 e8db c6bf
00000220: beed ea37 53dc c4bf c594 3486 e020 cd3f
00000230: 4c86 a9d4 b02f c2bf 9b8b 79e2 ba9d b4bf
00000240: c520 2d97 10aa c9bf 135d 94a3 c602 c1bf
00000250: 7533 3a00 c9e2 c53f f90f 2e4f fb49 b3bf
00000260: 3fbb bb7e 475f b1bf 26ce 9de6 a594 a4bf
00000270: 3414 4e35 52d6 b1bf b774 e138 6874 c7bf
00000280: 2fab dddf f199 a23f 8e53 8561 faaf c13f
00000290: 957a 16eb 37aa c53f d3ce 1a50 fd0b 6c3f
000002a0: ac60 c6b8 e0d7 b63f b498 5b56 f24f c73f
000002b0: b967 8f7a 4b53 ce3f 8f54 3651 51d1 993f
000002c0: 9faf b80a 6ff7 c1bf e8d8 d08d dd4f bdbf
000002d0: 132a 064b 8f15 933f f879 ef81 e590 cabf
000002e0: ce3d e7ac b8fc c4bf 75b7 481d d1b9 bfbf
000002f0: 33b5 aa21 ec09 983f a7f5 3b00 38f6 cb3f
00000300: 860a ee77 b353 b2bf 6192 0d36 ccaa b1bf
00000310: 62f8 c9b0 28af bebf e540 776b 2f18 a33f
00000320: c83a 6715 dcfb c3bf 097b e48e 9ecd b6bf
00000330: 41c3 9d31 7256 cb3f 4c65 d155 e87f babf
00000340: d3c2 7354 6822 cc3f 6d26 880e bc9e ca3f
00000350: e9f3 9e8d 0e50 c6bf 2d2e 02dc 665b a03f
00000360: 4538 1f78 258e ccbf 8278 b291 9d00 ca3f
00000370: 7c22 43e3 33a8 bfbf a391 6bf5 50e9 ac3f
00000380: d2a5 036a a87b bb3f a31e 82c7 453a c43f
00000390: 35ec f19a 95fa bebf 805e be03 ac70 ccbf
000003a0: 6e77 af24 2fa1 b4bf 2584 98c3 1b6d c8bf
000003b0: b7ae 1147 764b c33f fa33 3b5b a950 b33f
000003c0: 7a57 6e2d 0056 a23f dd1c 4be9 8ad4 813f
000003d0: da62 d782 2381 c4bf e0a0 d9d8 64c1 62bf
000003e0: d7f7 6ecd 5497 c83f c524 9914 07bb c03f
000003f0: 39b5 3b04 01b4 af3f b097 694a 3cbd a83f
00000400: 217e 4766 40f9 c7bf c598 55b5 f18f a6bf
00000410: 38ab 461a 682a b3bf 862d 3704 6b82 bdbf
00000420: 63f5 8147 5ab2 c2bf 6d1b 86f7 1e8a ccbf
00000430: e335 11a0 9a2b bbbf 56a3 0e1f f1f2 b9bf
00000440: 94bd 79f2 a175 babf 4b09 c7b4 3aa4 c73f
00000450: 872c 4674 d67a c4bf 10bc 19ab f2a7 a23f
00000460: 5eea 922d 1662 94bf e457 4cb1 74d1 c9bf
00000470: 1f03 385e bb25 cabf 3593 422e 1b46 bcbf
00000480: 73cf db33 d654 c23f 7a99 b14d 4a61 c83f
00000490: d2d5 7588 19eb 973f ada0 1f2c 6cad c53f
000004a0: b723 ab6d e2f4 9abf eb16 1367 a6f6 8ebf
000004b0: 326c fb96 7a05 ca3f c3ee b1dc 8a53 c4bf
000004c0: 70c3 bd8c 3a96 c9bf cd19 c3ae e520 c6bf
000004d0: e0d6 5f26 3603 b23f 4706 d4ae c620 ca3f
000004e0: fe87 0f6f 98d2 bb3f 59e9 fef4 4247 b63f
000004f0: 41a8 1b65 7c65 bdbf c8f5 0e2b da76 b93f
00000500: 6c09 0489 aed6 b8bf 3597 07f4 b697 c33f
00000510: c047 1fcf 5129 923f 64da cc42 b427 c23f
00000520: 0db9 df30 585b cc3f 78b2 d07c a332 c7bf
00000530: bbce 5e30 e01b cb3f 92bf 191b e236 c1bf
00000540: 2409 8b9f 6784 c83f 2d15 f8c8 865e 9a3f
00000550: 4bf0 4111 c239 c5bf 33b7 8dfd 1187 9c3f
00000560: 4b57 1a95 036b c13f 5bda 6784 54cf be3f
00000570: 5306 7100 0336 b2bf 9f99 4096 1d4f bb3f
00000580: 77f3 c381 d833 c63f d522 3308 5637 cd3f
00000590: 043b 9cfc 7487 c4bf 9eca 8715 4996 c13f
000005a0: 6b37 3bda 1791 a3bf 9989 8729 b2bd ccbf
000005b0: 1750 b6ec 8ad2 92bf 9b56 772a 7383 6bbf
000005c0: ea65 1c36 6904 a6bf f96d d460 78e4 b33f
000005d0: deb4 1117 7bd7 b23f 65bf d845 2452 c53f
000005e0: 7d06 82c5 c760 98bf a7bd 3c4c 2463 983f
000005f0: 25b7 68e3 1560 ae3f 73d9 d861 7d0f c7bf
00000600: e237 0bd6 12be bfbf da65 4749 996a 87bf
00000610: 2419 03cc 20c7 bd3f e7c0 996c c120 c93f
00000620: 14d3 cd1a 1d37 b93f 8ba7 dc91 887c adbf
00000630: 11d5 eeb0 39cd b93f fc01 53a1 4d82 ae3f
00000640: c9b5 5ad7 d2ce a93f 6783 a466 916d c3bf
00000650: cdda a5ae ed70 c33f 877f 069d d0d2 a43f
00000660: 4c8f 8550 a685 ce3f f6b4 3b0c 9587 7cbf
00000670: 3dc8 8f1f 7e1d ccbf 8a4e 4392 4f0f ccbf
00000680: 95be 3ec9 af12 b6bf 315f 06e7 7e82 acbf
00000690: 54ce 9bf3 d884 b83f e201 c55e d87b bb3f
000006a0: 4bdc 4d72 9c5b c2bf 6465 b37e e43a c03f
000006b0: 0078 5dec 1eec b9bf 9a50 cee0 2a87 a9bf
000006c0: 4bd4 3c65 a79c b13f 0937 b857 81d0 9cbf
000006d0: 23cc c4a0 4328 953f 37c1 3759 22a9 bb3f
000006e0: 5d09 f89f 14f4 973f c9f4 7b27 cfac b8bf
000006f0: e232 62ed 361c b7bf a56a 7a44 bc19 ab3f
00000700: 62b5 0b85 00e2 b0bf 2783 a042 10a9 c73f
00000710: 0cc5 5121 606f 90bf 9913 1ca6 6ffc c1bf
00000720: 6629 1bf5 2caa a13f b05b 1144 b8ed a43f
00000730: d422 632b 87e0 babf cafe e0a4 c6ae 953f
00000740: 795e ef83 e5d0 c9bf ad13 2208 bde6 b8bf
00000750: 03c7 27a9 d039 b03f 3e79 fca3 9db5 9bbf
00000760: 6869 65e8 ea7f c23f f1ad ef0c 8379 c63f
00000770: c5ec 4359 5689 c4bf 1c67 3d4e 33de c3bf
00000780: a5af 58ad ebc4 6c3f 0dc1 fc77 8530 c43f
00000790: 0a60 9460 2a3c 88bf 6349 6253 8257 a73f
000007a0: 75ab 0c11 c7b3 c23f a729 da6a 0f06 c5bf
000007b0: b8f5 c40a 2f8c c83f 2061 5fa9 fbcd 823f
000007c0: 3afa 818b 22e9 b6bf 179f 2168 fbbe c03f
000007d0: 64c2 0da9 4a7d bfbf 54f8 9785 530a 81bf
000007e0: a99e 3c60 cfc1 ca3f 6c1d aa45 89e8 b7bf
000007f0: ef50 ff42 e1e3 9b3f f253 2ac2 c3e8 c83f
-0.16293051974246164 0.0927714070919258 -0.05387411012276245 -0.15326266707114575 0.0556848422391965 -0.1107190668566001 0.007760395210006502 0.08628243369422195
0.12526983871871272 -0.07136591875374727 0.10376450737379826 0.20847103373081524 -0.14373663636919143 0.1763294292128154 0.05695247364299466 -0.0793413709738564
0.15514035969007964 0.14045798581463526 -0.12599146071896106 -0.03838255488645466 0.05203699709975943 -0.13343464145607561 0.019083087300642954 -0.08396408673085448
0.11226871179617831 -0.07087775180851377 -0.1501670318949082 0.062064364083201526 -0.12529081851660906 -0.24205585227662957 -0.14724034390578017 0.06134407816145404
0.09578696181026601 0.19852001852467174 0.10390103358557251 0.15498699354214246 -0.13283711833334227 -0.03373078661851661 0.008732273795920568 0.09290613747597488
0.02426580420647937 0.16501279662495666 0.12492200039098762 -0.01617024580160861 -0.18501568137716345 -0.13216146945885637 -0.18910115689826285 0.06072221339811163
-0.20368093621997496 -0.03056965599715231 -0.029253354162579924 -0.18780988769425916 0.0791137887264204 -0.07443488930516713 0.08631968052114593 0.060821790787282275
0.020792964678083815 0.06698423078606983 -0.09086039443073292 0.019656378849542844 -0.11696610898922154 -0.1923567092605767 -0.08668682798421634 0.053363599665013875
-0.1506129509294643 -0.14265460349906206 -0.2042011356775516 -0.17858611868393465 -0.1629737875972363 0.2275658278751164 -0.1420804060353923 -0.08053176907701103
-0.20050246602682456 -0.13289721476824265 0.17098343382931672 -0.07534762080291547 -0.0678600963981184 -0.04019659462110452 -0.06967653085128306 -0.1832399633157473
0.0363307557843967 0.13818292390592685 0.16925715426346657 0.0034236857908015255 0.08923153411012902 0.18212727753343005 0.23691695675262084 0.025212545949746142
-0.14036357902056992 -0.11449989998149912 0.018636931375605025 -0.2075468906832183 -0.16396244471114446 -0.12392909016554461 0.023475350909099645 0.21845150004803068
-0.07158967664694602 -0.06901241607335741 -0.11986021343361267 0.03729389368857187 -0.15612364811973678 -0.08907500256144031 0.21357562468213057 -0.10351421446957437
0.2198000347484795 0.20796919545709916 -0.17431814112742863 0.031947340351589616 -0.22308796277360635 0.2031437837039825 -0.12366031931299831 0.05646756168224278
0.10735561931837559 0.1580283378755115 -0.12101111443364305 -0.22218847449106605 -0.08058447499885599 -0.19082972574781923 0.15074041814965763 0.07544954755140046
0.03581238321855458 0.008706174130010453 -0.16019100083101173 -0.0022894830388403425 0.192118263539611 0.13070763116619424 0.061920196310760685 0.04831875236850125
-0.187294053975152 -0.04406695688776233 -0.0748658241415513 -0.11527127125662248 -0.14606789104065418 -0.22296511732221394 -0.10613409431353875 -0.10136324890357903
-0.10335743112385948 0.18469938113237058 -0.15999870946356884 0.036437590967459355 -0.019905420810326972 -0.20170458466662844 -0.2042764864018176 -0.11044473533054318
0.14321401149902221 0.19046906274452252 0.023357771829486236 0.16935493616552347 -0.02632478517878997 -0.015118885059915729 0.2032922017304784 -0.15879951263547384
-0.19989711639530183 -0.17287894280725738 0.07036150395273522 0.2041252473500654 0.10868218146745787 0.0870248649725104 -0.11482980221231377 0.09946979094725983
-0.09702578396903555 0.15306746402273466 0.017735746638045446 0.1418366743252647 0.22153761278554676 -0.1812328681420643 0.21178820001443008 -0.13448740313787916
0.1915406731623729 0.025751214996508388 -0.16582513659148143 0.027859002209360283 0.13607830791868944 0.1203511069541973 -0.0711366535261047 0.10667595785398597
0.1734572061176569 0.22825122261408262 -0.16038381895528897 0.1373988490227775 -0.03821634806591486 -0.22453906085781908 -0.01838128156448712 -0.0033585786183987893
-0.04300240312131705 0.07770492900856842 0.07360047639095366 0.1665692654655643 -0.023806687765051116 0.02381569590869295 0.05932682419766725 -0.1801602103966605
-0.12399404264144168 -0.011433789776606074 0.11631970387233942 0.19631212046397836 0.09849721817392904 -0.057590740018283425 0.10078774041797468 0.05958788484850072
0.050406063831683286 -0.1517812491593091 0.15188380267837545 0.040670890014779686 0.2384536641285372 -0.00696523877898624 -0.21965004483314657 -0.2192172493147278
-0.08622263587198582 -0.05568310327652027 0.0957770914790726 0.10735847772321663 -0.14342074948555913 0.1267972582489093 -0.1012591673911345 -0.049859371130112254
0.0687965986406464 -0.028139134386996143 0.020661408126397284 0.1080495326821208 0.02339203096745145 -0.09638685907335111 -0.09027427001474167 0.052930720671800637
-0.06594851730524945 0.18484690907737297 -0.016049863847404075 -0.14051623926948478 0.03450146190660312 0.040876158055361045 -0.10498852547892606 0.021174529851349523
-0.2016875166143455 -0.09727078865587542 0.06338218812723188 -0.02705999673264014 0.14452873561351542 0.175583249393966 -0.16044120176943558 -0.1552185184507885
0.00351186781587916 0.15773075445896048 -0.011833506653189847 0.04558951633329646 0.14611137707228364 -0.16424744336502536 0.19177806878898962 0.00918194399484712
-0.08949485689115813 0.13082830986535818 -0.1230055487374187 -0.008320477022604113 0.2090396137148123 -0.09339197111886727 0.02723648044032328 0.19460341435174616

hidden_layer2.bias f8 [20]
00000000: 7fe0 79a8 28c2 c0bf 84e0 5cb5 f9d5 c73f
00000010: 0bd1 17a4 e3b5 b7bf 1023 ac41 46a5 c7bf
00000020: 0573 330f c80f 94bf 2dc4 7401 e26d c0bf
00000030: ea92 400e 58de c23f fed7 a0fa 3bd5 943f
00000040: 4bde 5a0a fb0f ca3f bd79 e261 247b 9cbf
00000050: fe0b 4368 c75c c7bf 9cad 815d efcf c23f
00000060: 1216 3b35 cc66 a23f 19e5 a471 1bd7 ae3f
00000070: c46b 6f1f dabf 753f 8d75 eb29 3ab1 bdbf
00000080: d97d 4579 ef43 68bf 175a 93a4 8267 8b3f
00000090: 8df7 71ca d9e4 82bf c5e8 d4f0 8a0a bebf
-0.13092525698062116 0.18621751170735845 -0.09261915928056312 -0.18473127562199254 -0.019591451576036274 -0.12835335799312145 0.1474103993979477 0.020344674274575418
0.20361269002545365 -0.027813499903112538 -0.18251888838685199 0.14697067323446056 0.035940534112835945 0.06023488771684011 0.005309917490161579 -0.11598552249366474
-0.0029620816441562167 0.013381024024437456 -0.009225560656201082 -0.11734836940459832

hidden_layer3.weight f8 [20, 20]
00000000: 1017 67d6 aa93 c13f 5ca7 1fef c567 b8bf
00000010: 832e 941d f4de 9dbf aa24 fd2e 3b21 c0bf
00000020: ffe0 95e0 fda3 a8bf a62e f2d0 a3cc c4bf
00000030: 4e1d 9153 ad70 c1bf 3ef4 816b 2552 b9bf
00000040: a054 a979 a144 a93f ff03 2bc8 1c70 c53f
00000050: 894f 3647 79ac c73f 2894 6840 cf90 b7bf
00000060: dcce 2fe2 5e6b c83f bc6b cca3 ce4b 7ebf
00000070: c56a 5b17 a965 c73f 67c4 9c69 f7a7 cf3f
00000080: 1d16 6719 86a0 c4bf 291e d74a c013 993f
00000090: c1ec d61b cd7f b2bf 8d0a 55f7 a305 cbbf
000000a0: 765d 3f93 c9b9 aa3f f8fe 4b0e 604f c0bf
000000b0: 22e5 c0f3 c38a c1bf 6d3f 91db abda b7bf
000000c0: 9550 3f0d ecbc a23f 8cba 991e fbe7 c0bf
000000d0: fb59 5993 252b 9abf 860e cc4b 7015 aebf
000000e0: aaf1 b483 c04d c2bf e034 e5cc ceb7 c4bf
000000f0: db47 8cee f865 c5bf 48e3 9917 36f2 adbf
00000100: 6c07 cd62 7873 913f f52c 3f7c 38cc c13f
00000110: 982a 8645 2cd4 b23f 3a94 dd4f b621 bbbf
00000120: 5fad db94 74d2 82bf 966a 555b 359a c6bf
00000130: 9f85 a88d 5c9e c53f ea71 b587 2f96 c1bf
00000140: 0fa5 ec95 30a6 bfbf 6662 cfda d972 bfbf
00000150: c36c e6cf 9800 c4bf e08b d482 a4ef adbf
00000160: 261f 8d0a ed0c c63f e951 21ed 71f2 b8bf
00000170: abfc 27a3 79e8 b0bf 0cce d609 09d5 c3bf
00000180: e92c 7561 9e1e c0bf d8ea cbb4 29b2 993f
00000190: 0ea6 06be be52 babf b1f8 eb89 a2a2 9d3f
000001a0: b088 e348 2b68 b03f a57e e0be ddf9 b03f
000001b0: e42c 7b28 5f4a b5bf 47d9 a955 9628 9d3f
000001c0: 53a1 af56 2fc0 c3bf 2c91 dee7 53ab c13f
000001d0: a2c3 f731 dab5 85bf fa74 8e36 c29e 943f
000001e0: 086c 788f 3219 9ebf 3d80 034d 2d57 b73f
000001f0: 1fad 5203 1771 c23f 5e5d a9ec ff1d ce3f
00000200: 7e6c c42b 4214 b73f a523 ec23 d838 b9bf
00000210: 9ab9 2aa8 b1f6 c03f f0be bd6c d354 bcbf
00000220: be32 b55e eb71 b0bf 65bb 70b1 5cb8 c4bf
00000230: 86f5 8e2c 7010 b1bf 6316 0c32 e1a7 b73f
00000240: 7dda 9825 3ce7 b7bf c9d6 6e72 f337 703f
00000250: 79fc 179c 7e5e c93f fe9a b84f 1d1f 8f3f
00000260: 26b9 1b0f 533b c0bf 47f8 b45b 845f b9bf
00000270: e592 3fdf 1072 c3bf ee0f 4b24 ae62 bcbf
00000280: e3a8 916a b726 c3bf 342b d9a9 1ed0 ba3f
00000290: 759b 803d a53e c1bf 6fa8 092a 7a75 a43f
000002a0: 57e8 d9ba 7c52 983f c3be 90fa 4cb5 b63f
000002b0: a372 4cfe b9e0 c63f d12c d550 e11d b73f
000002c0: 7c0b 69e1 bd3e c03f 9466 7bee 5025 c53f
000002d0: e128 a624 3528 833f 85ce 8947 dffc b63f
000002e0: 2315 bf3a cfce bf3f 97e3 db59 4a1f c2bf
000002f0: 717a 9fa2 796a c13f a32e 351c 263b c33f
00000300: 7b7f 20b5 6fa2 c0bf 6b66 39f9 3fbd cb3f
00000310: d9c5 c26b def4 8d3f b682 5db2 1692 8dbf
00000320: 4142 4792 704c c7bf 95ea b867 7940 bb3f
00000330: b0d7 16fa ade2 973f 8a5f 88d4 0649 b63f
00000340: 629b 762c d11d ca3f ae4f 6f81 c277 c03f
00000350: c188 26ff bb2e c23f 3e6d 4c52 09fc 873f
00000360: 8467 5895 7ef8 cbbf b013 7f8c 927a c83f
00000370: f4ca 335a abdf b8bf 7dba 423d 8289 c43f
00000380: 7304 14d9 d46b c03f e180 1a6e bd48 a0bf
00000390: 1dd2 fd60 593b c2bf 2a19 2e9e 8606 b1bf
000003a0: cbca 1b82 24eb c83f f45d 89c5 1ff1 5ebf
000003b0: f0d4 a29f cc9a b2bf 88a4 6576 75a2 c1bf
000003c0: 3ff0 9a22 e82c b6bf 39dc 544d 8a1e b03f
000003d0: de47 95ba 5ef2 c4bf e849 1b29 5bbb a8bf
000003e0: 884f 4c2d a200 bfbf 73ed 8059 1a76 c8bf
000003f0: 40db 1886 862d 653f e616 da17 746e c23f
00000400: 5758 a116 8b32 c93f 1b76 b6e5 e6f7 ae3f
00000410: 1608 b70f f5e6 6fbf 6113 995f 75de 983f
00000420: fb85 6f9b b567 b9bf a168 32e6 d209 723f
00000430: ebe9 a784 7872 b3bf c367 2c6c ac56 98bf
00000440: f5c1 0257 d214 cb3f 383e a13d 5913 cc3f
00000450: 4b90 49ef 72e4 b4bf c5d0 c9fd 3449 c23f
00000460: 40fd 15bd 0c92 b63f 0c6b eaf1 de5a b83f
00000470: 839d 5479 2962 c9bf 5199 f006 cfda c73f
00000480: c8b8 b34a 18c7 a1bf fbea f011 9ca3 c53f
00000490: 65b9 a066 b7e6 bebf 8a3c e01b 201f b9bf
000004a0: b7cd ef61 0007 c2bf eb79 9c12 514f abbf
000004b0: b728 da0a 280c c13f 5a50 68ac 02fc b3bf
000004c0: dc48 4863 8002 babf 3efd 626c a5a3 b23f
000004d0: a20c c7cf 9438 c4bf f936 0f99 9fee c53f
000004e0: 1739 1c81 31ec c33f 05ff 0080 b473 c13f
000004f0: 99c9 79d1 56bc c0bf 36f7 936d 9231 c23f
00000500: 5ad3 d926 c7b7 b0bf c6f1 002d 12ef 9c3f
00000510: fa0f 5dd5 533e b83f d162 84d1 a674 a3bf
00000520: b8e1 1784 fbe7 ccbf 63d6 2070 a449 b8bf
00000530: bb5f 477c 3090 c13f b85e c648 2a34 b3bf
00000540: f3c3 27a8 642b b6bf 62d4 0935 0032 c93f
00000550: 0422 5ef7 cce0 cb3f f809 a4a8 b3b8 b93f
00000560: ad69 f2aa 8554 a9bf c564 2055 ca84 81bf
00000570: 1216 a3e6 046f a4bf 76f8 28e7 bef5 61bf
00000580: f927 7a06 f621 9ebf f1d6 7221 81e7 c0bf
00000590: 07b0 009b 2602 c13f 726b 3869 15b3 a63f
000005a0: 0bfd 38f7 db40 a13f 0660 c9d4 f2a8 a33f
000005b0: 7f77 a74d 6a00 b1bf 381b 2c53 df32 c63f
000005c0: 8cf3 1bb1 d950 853f 925a 7a7e 0fa8 9a3f
000005d0: b763 ae84 baf9 c13f 88dd 5af1 2c13 a1bf
000005e0: b671 1e01 1d31 c33f 4299 7512 e5ff b23f
000005f0: a3a0 bb5b 14aa ba3f e2c5 9902 4d92 c93f
00000600: 55c7 9c49 025d b4bf 41cd 6644 b1e7 c13f
00000610: bbb7 e2fa c62b b8bf cd1f f61f c4b0 c0bf
00000620: 15eb 3e11 790f c93f f299 e170 f6c1 b5bf
00000630: 9e8d f18a c01d 643f e926 db77 4c30 b8bf
00000640: a96b 3f76 f383 9fbf 0523 635b c83a c33f
00000650: 84b3 8f8e e36d b63f b0aa 1ac8 4d48 a0bf
00000660: 8b7d bdc7 e2fb c83f d792 d217 58e3 c2bf
00000670: 5397 7fcb 1109 c1bf 9e2d 0971 93b0 93bf
00000680: 6b96 22b2 bc3b a9bf 2a58 4e45 7632 b73f
00000690: 1ec5 0f23 16c6 c03f 58da e3b9 9aff ac3f
000006a0: 94e1 5766 c76a c1bf 77a2 a9a9 2ecd 9bbf
000006b0: 857d e663 4060 c4bf 00df 1250 ae88 b9bf
000006c0: 7420 388e 7b2f c8bf 1f81 605c 31cd b53f
000006d0: 1e69 a0d0 c420 8b3f 48fc 98ad b2d2 c9bf
000006e0: 49ec c690 1c0f bb3f 3b51 3b92 b85d 87bf
000006f0: 4d90 d5b6 88f6 c7bf cdcb 8942 92ea 5d3f
00000700: dbf7 4a4b cb49 ac3f 8f71 98c5 e5b2 a43f
00000710: 4b99 7c5c b39e c63f a5f5 5b8d 371a cebf
00000720: 3724 8215 e40d ba3f bf79 f943 e82b bfbf
00000730: 2a6d bc72 502d ab3f 1fc0 a487 b886 c63f
00000740: e9c7 d3d0 badc a7bf d898 cf23 926b a5bf
00000750: ca2f 26f3 b05c b3bf 80cd 9ce8 a0ec c1bf
00000760: e971 a986 2b46 b0bf 7fc5 de18 7caf bcbf
00000770: a25d 5860 5bd2 b63f 14d5 86ef 525f c9bf
00000780: 5d6d 4d6c 3c10 c43f 7228 4ab8 3265 b03f
00000790: ba69 c6ef cad7 c0bf fbe1 7669 7cbd c4bf
000007a0: 05c7 5ff5 a8dd a6bf 41d1 5965 3f4c a93f
000007b0: 18df ae03 5e8a c33f 58ed e214 4adb a73f
000007c0: 75f5 8b93 43a6 c13f 7b36 9a8e cd9d c5bf
000007d0: 6a6f 8a9b 68d6 c0bf da33 1ffd cc3f cd3f
000007e0: 96e1 6123 0d72 b1bf d30e c721 9c12 c1bf
000007f0: b621 75cc 9203 b13f 35e8 0670 c1d7 bebf
0.1373189494026339 -0.095333453063771 -0.02917081289801483 -0.12601413530709255 -0.048126157441346955 -0.16249511434977143 -0.13625113087094082 -0.0989097011060531
0.049351736165285987 0.16748389982060982 0.1849509809222776 -0.0920533687827435 0.19077669185900603 -0.007396514117114113 0.18278993263705537 0.24731342942098708
-0.16114879837384502 0.02448940712727513 -0.07226259164501682 -0.2111096341778488 0.05219869539694859 -0.12742233942116576 -0.13704728509927927 -0.09318040953189462
0.036597611062149905 -0.13207949632802174 -0.025555216902228377 -0.05875731396920707 -0.1429978030299826 -0.16185936932234934 -0.16717445037698905 -0.058488550549503915
0.0170420465758591 0.13904481951463024 0.07355000207295814 -0.1059831566795574 -0.009190474312581185 -0.17658106765414477 0.16889531056316984 -0.13739580274967916
-0.12362960491431728 -0.12284623710673656 -0.15626821662303855 -0.058468953104487076 0.17226946845243524 -0.0974494174891515 -0.06604728921228069 -0.15493882160591033
-0.12593440779378476 0.0250937000846346 -0.10282508982950153 0.028940715473247895 0.0640894940329726 0.0663126555450569 -0.08316607225713174 0.028475140551074387
-0.15430251820294902 0.13804100820301224 -0.010600762033364412 0.020136866168845004 -0.02939299584077662 0.09117396478859603 0.14407622968915576 0.23529051833859688
0.09015286987816926 -0.0985236251546114 0.1325285025718131 -0.11066934017957997 -0.06423827230646403 -0.16187628425674486 -0.06665707671978369 0.09240539047103762
-0.09337211530587726 0.003959608998163674 0.1981962454010249 0.015196064944644313 -0.1268104385157553 -0.09911372412622753 -0.15191851521298996 -0.11088074098648779
-0.14961903289378772 0.10473815581023588 -0.13472428801579964 0.03995877993732299 0.023752163795940664 0.0887039291126213 0.1787331096355916 0.09029968474822005
0.12691472536434023 0.16520129818564 0.009354033642712202 0.08979602333584509 0.12424941238630942 -0.14157990825313213 0.1360618633325035 0.1502425801976318
-0.1299571642311966 0.21671294850493736 0.014627206481551734 -0.014438798254276502 -0.18202025549409664 0.10645254881175455 0.023325651540026804 0.08705179871355831
0.20403494521198257 0.1286547786718279 0.14205121954461755 0.011711190055896933 -0.2185209492898218 0.19124061451125618 -0.09716292335705728 0.1604464339374835
0.1282907543136705 -0.03180496186291904 -0.14243619190132586 -0.06650582658594276 0.19467598298031982 -0.0018885431546972172 -0.07267455003132617 -0.13777035027604634
-0.08662272305349548 0.06296600711799351 -0.16364654646400728 -0.04830441357411869 -0.12110341649923673 -0.1911042153386507 0.0025851848047539205 0.1439957729782499
0.19685495953553087 0.060485091725450434 -0.003894308696289715 0.0242861117933616 -0.09923872990432152 0.004403899979616239 -0.07596543539685967 -0.02376813326109307
0.2115729260308538 0.21934047230978293 -0.08161085454918397 0.1428591002655876 0.08816604248385307 0.09513657957215232 -0.19830816673605164 0.18636501158580157
-0.03472209846391788 0.1690554702380139 -0.12070795302927236 -0.09813118629993958 -0.14083866865222003 -0.0533395133227151 0.1331834843625239 -0.07806412419478317
-0.10160067008863244 0.07280954261931513 -0.15797672410380864 0.17134470914464098 0.1556455498143314 0.13634353876295094 -0.13074765423114057 0.1421378169106277
-0.06530422876842348 0.028255733486945343 0.09470104178495822 -0.0379993563421458 -0.22582954358928276 -0.09487369287020324 0.13721281116772652 -0.07501472737055337
-0.08659962754587962 0.1968384036041782 0.21779787138463302 0.10047457568365548 -0.04947297775034385 -0.008554058764320147 -0.039909508851945344 -0.0021923760007487815
-0.029426426072440368 -0.13206495412094157 0.1328781372880032 0.044335049719129396 0.03369796173910274 0.03839835021489084 -0.0664125861726159 0.1734275013079356
0.010408116071170224 0.026031725020028214 0.14043361166548404 -0.03334942289569215 0.1499363189185609 0.07421714497249801 0.10415770759175529 0.1997772467325794
-0.07954420373132838 0.13988319244308836 -0.09441798806321249 -0.1303944736539492 0.19578469602660023 -0.08499088531389257 0.0024555931664040484 -0.0944869797341671
-0.03077679070689113 0.15023140394466608 0.08761427145482342 -0.03180163448026485 0.19518694642009068 -0.1475629917450962 -0.13308927952237556 -0.019228271268998058
-0.04928388285160853 0.09061373893777672 0.13104511939995062 0.0566376068035665 -0.13607113358717682 -0.027149895768533185 -0.15918736341425813 -0.09974183516430557
-0.18894905514048654 0.08516224389359593 0.013246095291880308 -0.2017424914974717 0.1056993344745233 -0.01140922733558424 -0.18721112182095326 0.001825945693920461
0.05525050443746667 0.040427379961531 0.17671815887406192 -0.23517507936769025 0.10177445912462778 -0.12176372203382523 0.05308009529673037 0.1759863531419805
-0.046605909339532854 -0.041836325522852824 -0.07563310562380746 -0.1400338302424693 -0.06357070958751589 -0.11205268485243457 0.08914729215790954 -0.19822155662192442
0.15674548423963133 0.064044160835836 -0.13158547122732306 -0.1620326533282109 -0.04465988154687576 0.04940984832947715 0.15266013316954097 0.046594920205701384
0.13788647369794274 -0.16887826407439718 -0.131543231914175 0.22850954398600615 -0.06814653505160204 -0.13338042878432663 0.06646077624930666 -0.12047966942819317

hidden_layer3.bias f8 [20]
00000000: d0df e76e 6f3a aa3f 3ad9 d56a 0143 c4bf
00000010: 91dd ab86 1d04 ca3f c8db f65a 9514 c63f
00000020: d1f6 21e4 9ac8 82bf b1a6 705a b582 b8bf
00000030: 221a 6136 982e c03f cc03 07a3 141c b4bf
00000040: 3e12 c329 b096 c43f 0c07 a1b2 bfab 9f3f
00000050: c08e 723e f6a3 a2bf 72ee cf06 cfb2 b73f
00000060: efb0 189c f456 b23f 7152 b978 9eba c23f
00000070: fda4 e8c9 2cac 9abf ff8c d13e a83c 913f
00000080: b5d1 94cb 872d c3bf ff3c 3e13 a3c3 a03f
00000090: 62dd 5912 9e6c b83f 7f93 d348 f3a9 b23f
0.051227075851727144 -0.15829484669274924 0.20325059009313098 0.17250315610519196 -0.009171686255509045 -0.09574445207604289 0.1264219537280989 -0.07855347614442038
0.16084863700065627 0.030928607251786963 -0.03640717994974585 0.0925721542006899 0.07163933573673707 0.14632016081545232 -0.026047420333417105 0.01683295138753937
-0.14982697906965617 0.032742591952336746 0.09540737102530764 0.07290573623647666

hidden_layer4.weight f8 [20, 20]
00000000: 9975 ab03 ac36 643f 7f82 6d0e 8333 b63f
00000010: 064a c7d8 7e5b b33f 1e4d 33e3 f00e a0bf
00000020: 17b9 0ffc 40a0 a93f 423b 01f3 c2f2 b93f
00000030: 8fdb 308a a73f 9a3f e112 9f83 d687 c8bf
00000040: 59b8 8844 07ba b8bf 7f74 000a 17e8 adbf
00000050: 9b1e cd21 89f9 b6bf 24d2 acc1 4a4c b3bf
00000060: 80ae 97bc 63a4 c03f b164 df41 0e06 c03f
00000070: d26d 464d a27e c9bf 29f5 904f 6008 b8bf
00000080: c539 3470 7f9b c33f e944 b5e5 9134 8abf
00000090: 6ff5 4de7 922f 783f a1fd b6b8 3ada c93f
000000a0: c55e d6c9 2a96 c93f 68ae 09c6 00b7 c83f
000000b0: 8693 5a3f 8bbd c2bf fbaf 222d e01d c33f
000000c0: f9c5 0163 ab18 cebf 7139 0085 3efe af3f
000000d0: 8dcd 7377 470d ccbf f97d 8b07 69ce c43f
000000e0: ea25 ca55 2ba6 b83f bf89 390c 4147 b03f
000000f0: 0035 3ddf 89be a63f 26cd 1bf6 ecdd b1bf
00000100: 940a f183 bd35 983f 1e8f 4ecf 5c18 b2bf
00000110: 50d2 0371 ecbc c7bf b051 ff92 7cba c9bf
00000120: da75 5ad4 2b65 bebf 7fc9 e4c7 563f b83f
00000130: 3083 d288 7f3b b2bf b7e9 5d39 1b51 bfbf
00000140: 0f98 c872 9f3a c23f 41ba c895 4489 c23f
00000150: c75f f798 4019 a33f 1b9f 8934 1538 c93f
00000160: 67dd 38b7 57b6 c0bf 64c9 e33e e4c0 bb3f
00000170: acd7 7245 50c4 bf3f f734 c976 9e48 b8bf
00000180: 0b8f 17ce a571 c43f c2ae cbee ba1d c3bf
00000190: ab87 eac0 4b78 b63f 5310 5932 709e c6bf
000001a0: 7560 f438 25e9 a53f 5d36 bb59 0853 9b3f
000001b0: d57c 7ec1 21ca c3bf 3180 7eec 119f c13f
000001c0: b9bf 2711 4827 c63f 0263 7cf7 37ab b9bf
000001d0: 9525 9109 c2d4 b33f 5583 169a f710 b6bf
000001e0: db6c 5d28 8028 cd3f 3cf0 cee1 b036 b5bf
000001f0: a4f5 9aae 604d cabf 9515 6435 4013 c83f
00000200: ea1c 2c1a 6642 bebf 661c 51ce a01c a5bf
00000210: 5816 ac43 daea c3bf 4273 19c0 a0df b33f
00000220: e103 8a01 fd3b a83f e1c0 55cd f7a3 c03f
00000230: ef3c 1ea2 7ba2 b13f 2ee5 d796 c75e c8bf
00000240: 445c 2a82 921c c43f 2642 1696 2947 93bf
00000250: c80d 0af1 a920 aebf 712a 3a7d 4d0a c13f
00000260: 8af3 11cb c836 afbf 5ce2 7dd3 c273 9ebf
00000270: 4349 e055 b92e c93f 00ba aaf7 b48a b43f
00000280: 7bc2 2627 9639 a53f 3c4d 5335 39c3 a0bf
00000290: fca4 d2be cbc0 503f 14fb b9ee d6fc aabf
000002a0: 8bb7 32a3 af35 c6bf 7372 acec 1d54 b9bf
000002b0: 90f0 0edd f402 a0bf 62b1 a966 9f00 b33f
000002c0: ebb8 4305 631b cdbf 6b5c d05a 7430 ba3f
000002d0: 8de5 ba79 a2cc 9d3f 17e9 73ea c63b c43f
000002e0: 3160 7397 0dff cbbf 18d6 5246 03b0 993f
000002f0: 72a7 3bc4 84ba b43f 7820 9acc 90a8 adbf
00000300: eb07 4b1b 85e3 ba3f e968 0b38 d14e b83f
00000310: f339 59d3 5f61 c2bf ae88 834c 39ec c53f
00000320: 5852 a5f7 1c7d bfbf b627 e2ea ed62 c83f
00000330: 530f 0ce7 8044 b83f 6a0f b71a 1644 b93f
00000340: 559e 7afe f7d2 a23f 2f0a 32ea 3530 92bf
00000350: 89d9 6078 824b ba3f 6f9b 3ffd 15c6 bebf
00000360: c7f7 6ba6 dd4a c4bf 2c30 f6a5 c8ab 933f
00000370: 11f1 09d2 3c07 ca3f cf1c ba27 61f2 c1bf
00000380: 71c8 1402 fc38 bdbf f83d f4ce c73e c0bf
00000390: f021 6de0 5309 b5bf 7d18 43da f90a b83f
000003a0: b886 de1e 6977 9b3f 67d5 8323 e65a a93f
000003b0: 2e6f 4a9f 6013 c1bf 6573 9dd4 f799 ba3f
000003c0: 4291 20da fc23 ca3f 4ea5 f891 9afa c1bf
000003d0: b0d8 1a2f 23c1 c5bf 4593 979e 593a bd3f
000003e0: 3b67 ebf4 4e70 cdbf 7b26 48af 8508 c3bf
000003f0: c5d8 8e24 811b ad3f f41d bab1 a6d7 c73f
00000400: 3fbe fc9e e7ab c33f 57ef 6e3e f1e8 743f
00000410: 7ce5 7f2a e5eb c83f 39d5 9d36 97c3 c1bf
00000420: 22a2 3e38 6ed6 c4bf de40 f97b 61bb c73f
00000430: af35 f4fa 2d59 873f e4b9 e06a 6d44 903f
00000440: 3527 4713 3d3f b7bf 5866 8ce0 c83b b5bf
00000450: 022e c544 7ce6 c4bf 300a 4083 3baf c7bf
00000460: 37e7 9325 d42b afbf 5bbf fde5 b244 cc3f
00000470: d495 0322 e327 65bf 8701 5f09 1e9b c6bf
00000480: df0f a8b9 1dce b53f c336 7232 90a1 c8bf
00000490: fa53 4e8a c6e1 b0bf 5634 197c 1f74 c03f
000004a0: 24c3 04d5 b199 ac3f 13d4 db30 3189 c9bf
000004b0: e23c 09c9 481a b3bf eb30 1aec ead7 cabf
000004c0: ff9d a7a2 f5e2 c3bf 4f16 fcea bcf7 bd3f
000004d0: f710 65d0 9daf ca3f d66d cf65 0a83 60bf
000004e0: 6932 3bbf 9e15 c5bf 2180 4192 99c6 c2bf
000004f0: 170e a789 894a cbbf 561d 94c1 06fa 96bf
00000500: b444 636c 59f9 acbf 502e a7d8 ab8f c43f
00000510: 8b34 a89f 4baa b03f 8abc 9bad 0238 c53f
00000520: fdb9 fce6 69f9 a3bf 5ade 1ba0 8a55 ccbf
00000530: 5700 3c41 10b1 c3bf 843f 7e91 9ddd bdbf
00000540: ebb4 ec51 1cf2 c23f 79e2 d71a babb c5bf
00000550: d426 7db0 15f7 9bbf 4c00 4ad7 93b5 c1bf
00000560: 8f0a 8ee4 8d96 c53f 6d85 bdbf 7cde 903f
00000570: 24af df07 a4c9 c9bf 302e 53af 3393 c83f
00000580: 4277 f5e8 f6e4 c5bf cc93 c3d6 e784 b83f
00000590: 2f2f 4a1c 4a1a cbbf 0d50 b05b 8214 c23f
000005a0: 7b81 faff a3df a43f 6c3c 7e61 4b7d b63f
000005b0: 31ad 26cb 09b5 c33f c533 dfaf a629 d03f
000005c0: d91c 131a 3b99 a23f 5de4 be80 db05 b0bf
000005d0: 913b fc28 722b b1bf 92b9 3242 de77 ba3f
000005e0: 0095 0b69 e8b1 aebf 2c31 67c0 26c1 bb3f
000005f0: c3cb 9c15 fce7 a5bf ba20 a645 4be4 9a3f
00000600: 7a9a efbc 59aa be3f 48b5 4151 3a5f cbbf
00000610: 7217 955b 73f2 b23f d9f1 d91c 8fcf ccbf
00000620: 1bbf 1c97 a62f cebf f46a 692b 2aa1 c4bf
00000630: cbad 9f48 3147 b03f 8bd6 78b9 4a9c cbbf
00000640: f94a 70d9 28cc 9fbf f8ee 7e1f 89fc c2bf
00000650: d9ec 1b1b 0b69 b63f d68a 494d c43f 933f
00000660: bede 5668 f8c6 c13f c3bd 0ae0 06aa ab3f
00000670: 7d5e 8010 e24e c0bf 9cf7 5400 227a bdbf
00000680: b9cc ed29 c9e7 b73f c5e8 6b23 680d c63f
00000690: 355d 0bde ace2 cbbf 2300 890d 6a6f c5bf
000006a0: da09 e2f6 44ec b0bf 3d08 1cb4 ad2d c73f
000006b0: 2444 2eb2 089f ab3f 0a3b a362 b0c2 813f
000006c0: 1b40 0785 a40c 75bf bfc6 d072 1935 b7bf
000006d0: 7583 36ae eaa3 c8bf 7419 b0c7 aac9 a03f
000006e0: ebb3 af65 f830 b2bf 824e b34a b88f 91bf
000006f0: eacb 04d8 e803 bb3f a31c f6ba 59ef c8bf
00000700: b3d2 72e9 b303 cabf 0301 aeda 8f29 b73f
00000710: d3b3 0eb2 d682 c33f 7e85 ca88 9911 933f
00000720: 82d7 ed94 86e7 a8bf 2f88 d038 5545 ca3f
00000730: 4a27 ea16 0576 c6bf d064 2737 a585 b13f
00000740: 77c3 2444 3ada c9bf 1a41 bf88 eb7a b83f
00000750: 58fe bdf1 74d9 b8bf 465a b68e e7d1 a43f
00000760: 36c1 a407 fff8 bcbf 45d2 b7d6 1d07 b83f
00000770: ac1d a850 d725 bdbf adeb b358 a7ac c93f
00000780: d542 14c1 6ca0 bd3f e59f 246c 7782 c33f
00000790: fc85 5c3b e6b0 c53f 1aa4 034a 89f0 723f
000007a0: 1a0d 2657 5b39 babf 6300 f177 f205 aa3f
000007b0: 4388 2399 0f8d acbf af71 957d 508e ca3f
000007c0: c9ab 35dd 0c7e c23f 9dce aeb6 2b63 963f
000007d0: c95b c3ca a1a2 a03f 7679 6e3f d717 c8bf
000007e0: c9c6 3bf0 7557 be3f bdb3 9f8e 1bc4 bebf
000007f0: 7ba4 09f7 d0bd a2bf 57a9 02b5 1003 c73f
0.0024674758582096776 0.08672350980988063 0.07561486046260066 -0.031363990530417704 0.05005076481744391 0.10136049683317785 0.025633447465419897 -0.19164544512582096
-0.09658856795496841 -0.058411331149025074 -0.08974511218286312 -0.07538287380595726 0.13001677235239484 0.12518480507313748 -0.19917706273268593 -0.09387781088385751
0.15318291643821005 -0.012795581648477898 0.005904744951178527 0.20197233218457902 0.199895237496767 0.19308480901542002 -0.14640942185829092 0.14934923366433836
-0.2351278527672063 0.062486604438265377 -0.2191552479995206 0.16254914158251646 0.09628554195855768 0.0635872511716462 0.04442244386755512 -0.06979256638060302
0.023642502954553793 -0.07068424283221161 -0.18545299070651078 -0.20100361993412497 -0.11873125013740751 0.09471647625176692 -0.07122037020100147 -0.12233133459623145
0.14241402725855365 0.14481408418346756 0.03730203501953571 0.19702401223479957 -0.13056465574639306 0.10841204200167948 0.12408925719759506 -0.09485807800338707
0.1597182518299792 -0.1493447938913644 0.08777306995264549 -0.1767101522292501 0.04279438324209731 0.02668393180538541 -0.15460607479051328 0.1376669316059647
0.1730737766042674 -0.10026883880744822 0.07746517880982247 -0.08619639884865411 0.22779848071045347 -0.08286576760195968 -0.20548637891435562 0.18808748824100677
-0.11820066584560932 -0.04123404043689831 -0.15560463241870326 0.07763104143073199 0.047332674444085183 0.13000390554544253 0.06888554294549797 -0.19039244523427484
0.1571219573567949 -0.018826150689678432 -0.058842955278148035 0.13312691321000927 -0.06096484640963869 -0.02973846832125769 0.1967384023015005 0.08024149939112846
0.04145497539446282 -0.03273943687386313 0.0010225286198795583 -0.052710262910286826 -0.17351336926133984 -0.09893977192082008 -0.03127255629030501 0.07422825104157973
-0.22739827878053318 0.1023018571580551 0.02910093181592326 0.15807424972428727 -0.2187211026673608 0.02508549801560464 0.08097104826779658 -0.05792667863448825
0.10503417888961024 0.09495265596652626 -0.14359662837746576 0.171271478996521 -0.12300282522239436 0.19051908463398853 0.09479528084562831 0.09869516517852409
0.036765813650444436 -0.017762033862263656 0.10271468581126987 -0.1202100508959185 -0.15853472353040685 0.019209990624901405 0.20334587341120217 -0.14020933570666336
-0.11415076304254669 -0.12691590886286952 -0.08217357854039853 0.09391748026527753 0.026822702893361167 0.049521629176448916 -0.13340385225171175 0.10391186657711911
0.2042232575487422 -0.1404603207350114 -0.16995658683817316 0.11417160150410861 -0.22998988112413507 -0.1486975770824762 0.05685046740784253 0.18626865079953314
0.15368361723948173 0.005104963644892844 0.19469894957709843 -0.13878145376990306 -0.16279390093156204 0.18540590814018904 0.011400565358168217 0.015886029861741494
-0.09080869408276444 -0.08294349176539961 -0.16328385694428965 -0.18503517063807484 -0.06088126143181543 0.22084652166403881 -0.0025824962796032556 -0.17660880525182795
0.08517633230809406 -0.19243051970663858 -0.06594506146059578 0.1285437923383223 0.05586009717297305 -0.19949927220992034 -0.07461981685740995 -0.209714284214335
-0.15536375467421235 0.11706143128329781 0.2084843890717207 -0.002015610034943309 -0.16472229325735846 -0.14668578759574394 -0.21321219655338616 -0.02243814999112933
-0.05658988426297054 0.16063449934732654 0.06509850166203728 0.16577180363626481 -0.03901225037258269 -0.2213605195790816 -0.15384104905388327 -0.11666283418730755
0.1480136299154887 -0.16979147253711682 -0.027309740921998962 -0.13835380565797306 0.16865705165772168 0.016473721697712152 -0.20146608719311943 0.19199224530017167
-0.17104994177764793 0.0957779788328274 -0.21173979169213328 0.14125089146602968 0.04076874255884185 0.08784934168055408 0.15396234912382448 0.2525421826838364
0.036325308735791935 -0.062589377338456 -0.06706918240182193 0.10339154354253413 -0.059951079199700885 0.1084160060629002 -0.04278552783798475 0.02626149761775374
0.11978684294408906 -0.2138436218987556 0.07401200281046075 -0.22508419903523594 -0.2358291852810844 -0.16116835708347532 0.06358631156006493 -0.21570715004206806
-0.031052244445230113 -0.148331776026559 0.08754033481448022 0.01879793855403985 0.13888459295934824 0.05403157696616347 -0.1274073200772711 -0.1151448489008246
0.09338052056937131 0.17228414277616913 -0.21785508005152968 -0.16746259365936664 -0.06610518481651387 0.18108149809273924 0.05394770789201456 0.008672121057683242
-0.005139010100222686 -0.09065398266900625 -0.19250234133235336 0.03278859794231695 -0.07105972750260008 -0.017149810370780567 0.10552840494055685 -0.19480439785931933
-0.20323799990514643 0.09047793473110137 0.1524303788586666 0.018621825193468215 -0.04864140098554427 0.20524087213658634 -0.17547668093566876 0.06844551655321429
-0.20197227790188396 0.09562561119605953 -0.09706812765033968 0.04066394440740288 -0.11317438065157578 0.09385859005107829 -0.11385865897329123 0.20058147269432194
0.1157291385063773 0.1524190214197453 0.16946103952891167 0.004623924527757084 -0.1024376952901104 0.05082662309769217 -0.05576370949144451 0.20746809131641217
0.14447174836399615 0.021862681412769026 0.032490783692700705 -0.18822756383174138 0.11852204432559711 -0.12017986518885855 -0.036604433208432284 0.17978104437254203

hidden_layer4.bias f8 [20]
00000000: 9b12 7e49 0632 693f 6c40 e8b5 430f c53f
00000010: 31d9 e2fd 47ff 923f fc81 d0db 7dc1 c13f
00000020: b30f 34ad 3036 b83f 3507 9235 586c b8bf
00000030: 5d41 6406 60e2 a13f 2899 3ccc 30c5 bb3f
00000040: 6e57 888a bfc9 a3bf f3ef 2268 f058 c93f
00000050: 0fb7 0425 6f93 b43f d561 5127 35c7 a33f
00000060: b751 d321 614b 793f b5ed 94ea 8c27 b9bf
00000070: 19ef 0be1 bbb0 a73f a551 ee1b 4cc5 b13f
00000080: cadc a9e0 3969 a5bf d87c c593 9d6d c43f
00000090: cae0 70f6 be2c bc3f e1f0 d94e d364 9e3f
0.0030756113810091585 0.1645283354014312 0.018551945563296705 0.13871739609841416 0.09457687595937507 -0.09540320690032618 0.03493022993109449 0.10847764002082683
-0.03864859167167266 0.19802670559681665 0.08037466672677972 0.03862920861201117 0.006175403044114728 -0.09825974204152639 0.046270247670660854 0.06941676790149261
-0.04181843631243394 0.1595952006855217 0.11005776898025768 0.029681493461325984
