net_param/net_0.06229977.pth (torch, 731879 bytes, 13 tensors)

weight f4 [200, 100]
000000 85 52 66 3e 24 85 cd bd 67 10 26 be 8f 55 fa 3c
       0.22492416 -0.1003516 -0.16217194 0.030558376
000010 5e 1b 3d 3d 1f 28 28 3e 80 90 8d 3a f8 90 96 bd
       0.046168678 0.16421555 0.0010800511 -0.07351869
000020 22 7d 8f bc 7c b3 3c be 30 b3 b4 3c 99 25 0f 3e
       -0.017515723 -0.18427843 0.0220581 0.13979186
000030 87 3b d7 3d a1 83 ff bc ba 3e 0a 3e 51 ea 7c be
       0.10509401 -0.031190695 0.13500491 -0.2469876
000040 b6 1b 3a 3e 9d 88 28 be e2 ad 31 3e 4d 4b f3 3c
       0.18174633 -0.16458364 0.17351487 0.029698992
000050 07 8a 37 be 70 98 5f 3e 89 eb b4 3d 97 94 01 3e
       -0.17923747 0.21835494 0.08833987 0.12654339
000060 40 48 87 be 41 2e 0e be d2 af 39 3e 8c 26 35 be
       -0.2642231 -0.13884832 0.18133476 -0.17690486
000070 38 5f be 3d 5e f1 19 3e 3e 94 89 3d 15 45 04 3e
       0.09295505 0.1503348 0.06717728 0.12916978
000080 06 11 44 be 33 39 99 bd d6 6c 64 bd 5a 80 49 bb
       -0.19147119 -0.07481613 -0.055767857 -0.003074667
000090 2a 56 dc 3d 15 96 6f 3e 05 80 ac 3d 2b 8c f3 bc
       0.10758622 0.23397096 0.08422855 -0.029729923
0000a0 6b e6 30 3e d7 f7 51 be 7b 7d ec 3c 50 3e a4 bd
       0.17275397 -0.205047 0.028868428 -0.08019698
0000b0 f6 7d ce bd 1d bb b2 bd 36 68 0f be 25 04 84 3e
       -0.10082619 -0.08727095 -0.14004597 0.25784412
0000c0 9f c3 64 be c6 03 09 3e 4e e5 34 be 53 8a 57 3e
       -0.22340249 0.13380346 -0.17665598 0.2104886
0000d0 af e2 89 3b 1a 0a 75 3d 61 c1 22 3e 2e ff ab 3d
       0.004207931 0.059824087 0.1589408 0.08398281
0000e0 ff dd ce bd 86 be 22 be aa 17 d5 bd fc c0 1b 3e
       -0.10100936 -0.15892991 -0.10404904 0.15210336
0000f0 4d 65 06 be 97 8d 48 3e d8 75 29 3e 0d 74 11 be
       -0.1312458 0.19585262 0.1654886 -0.14204426
000100 28 4f 99 bc 7f bd 93 ba 88 b1 25 3e 4b c8 78 be
       -0.018714502 -0.0011271684 0.16181004 -0.24295156
000110 ae d4 92 3d 66 ce c3 3d 68 1f f1 bd fb f2 9f bd
       0.07169472 0.09560852 -0.117735684 -0.07810017
000120 a7 ee a6 bb 48 5b c9 bc e3 a7 6c be f6 7e 2b 3d
       -0.0050943675 -0.02457966 -0.23110919 0.041869126
000130 b6 62 7a 3d 5d aa a7 bd 69 bc b2 bc f1 bd b4 3c
       0.061129294 -0.08186791 -0.021818357 0.022063227
000140 c9 f1 0c be ab 73 25 bd f0 a1 46 3e 8d f5 af 3c
       -0.13764109 -0.040393513 0.19397712 0.021479392
000150 f8 f9 06 3d b3 d2 72 bc 95 43 9f bc ea e0 48 be
       0.032953233 -0.014820742 -0.019441405 -0.19617048
000160 bf 24 3f be d9 6b 5a be 71 74 47 3e f3 fc 63 be
       -0.18666361 -0.21330203 0.19478013 -0.22264461
000170 18 85 45 be b2 64 54 3e e9 cc 35 3e e7 e4 9d bd
       -0.19289052 0.20741537 0.17753948 -0.07709675
000180 23 c2 3b 3c cc 8c 07 3e 53 d2 70 bd a5 c2 2b 3e
       0.01145986 0.13237303 -0.05879433 0.1677347
000190 2f a4 aa bc 4b ce 15 3e 2a b9 4b 3d 4a c3 04 3e
       -0.020830242 0.14629476 0.049737133 0.12965122
0001a0 38 ca 1a be 34 c1 ae bd 24 db 1c 3e 30 93 39 be
       -0.15116203 -0.08532944 0.1531797 -0.18122554
0001b0 a7 cf 00 3e a9 08 2a bd 3e ed 79 3c c2 86 3c 3d
       0.12579213 -0.041512165 0.015254317 0.046026953
0001c0 00 b7 c4 bb f3 4d e3 3d fe f2 1f be 4d 07 1d be
       -0.0060032606 0.11098852 -0.15620038 -0.15334816
0001d0 53 d7 ab be db d6 ee bd 64 7e 4c be 36 2a eb bc
       -0.33562717 -0.11662074 -0.19970089 -0.028706651
0001e0 55 b4 27 bd 2e 30 27 3e d4 8c b2 bd 8e 2b 61 be
       -0.040943462 0.16326973 -0.08718267 -0.21989271
0001f0 39 98 81 bc 3b 8e 01 be ec aa 09 3e e6 43 e4 bd
       -0.015819656 -0.12651913 0.13444108 -0.11145763
000200 62 7c 4f 3e f0 ac 11 3d f6 94 11 be 5c 81 3f bc
       0.20262292 0.035565317 -0.1421698 -0.0116885565
000210 88 8e cb bd 80 53 af bd e1 00 e5 bc 1a 8d fd 3d
       -0.09939295 -0.08560848 -0.02795452 0.123804286
000220 cc cd ca bd 2c b8 db bd 5a f7 42 3e f5 a6 10 be
       -0.09902534 -0.10728487 0.1903967 -0.14126189
000230 1b e2 28 3e 77 92 b9 bc 8a 4a 59 3e 2e 82 28 3e
       0.16492502 -0.022652848 0.2121984 0.1645591
000240 dc ea 0e 3d a9 e2 ba bd bd 13 4d bc e2 a7 b1 bd
       0.034891948 -0.09125263 -0.012516913 -0.08674599
000250 ee db 84 bc c0 2e 19 3e 8c a1 ca 3d 5c 80 6d 3e
       -0.016218152 0.1495924 0.09894094 0.23193496
000260 9b 54 45 3c cb 8b 7f be 1a d8 00 3d b7 71 7c bd
       0.012044097 -0.2495567 0.03145609 -0.061631884
000270 5f c7 1d bd 13 c8 8f 3d d7 29 87 bd 92 35 a3 bd
       -0.038520213 0.07020583 -0.06599777 -0.07969202
000280 c3 2c 15 be 9b 67 83 be 4c 30 9d bd e6 e9 f8 3d
       -0.14567856 -0.25664982 -0.076752275 0.121539876
000290 0d 38 3b be 83 4e 38 be 13 52 65 bd d6 dd 8d 3e
       -0.182831 -0.179987 -0.055986475 0.2770831
0002a0 78 f7 1e be 82 a0 14 3e 14 d8 c2 3c 07 55 ab bd
       -0.1552409 0.14514354 0.023784675 -0.08365827
0002b0 0b 28 a7 3b e1 62 d5 bd 48 c9 7e bd 62 76 28 3e
       0.005101209 -0.1041925 -0.062203676 0.1645141
0002c0 15 60 b5 3d ef 98 1f bd 49 1d 99 3e e4 4b 31 3e
       0.08856217 -0.03896421 0.29905155 0.17314106
0002d0 b0 13 d8 3e ab dc 03 3e 1d b3 47 3d 8c 84 cc 3d
       0.4220252 0.12877147 0.0487548 0.09986219
0002e0 a7 db 17 3d 41 dd b7 3d 48 80 81 3d 5b cb 01 3e
       0.03707471 0.08977748 0.06323296 0.1267523
0002f0 64 bd d3 bd 90 f2 16 3e 6a ad a6 3d df bc 85 be
       -0.10338858 0.14740968 0.08138545 -0.2612066
000300 c5 08 41 bd 53 f4 58 be 41 e3 30 3e 63 06 a4 bd
       -0.047127504 -0.21186952 0.1727419 -0.08009031
000310 52 4a 2f 3e 73 37 c9 3d 1b 2b 8a bc 86 76 6b 3e
       0.17118195 0.09825029 -0.016866257 0.22994432
000320 93 bf 36 3e a1 1c 96 bd ad 12 72 3c e1 60 bc bc
       0.17846517 -0.07329679 0.0147749605 -0.022995414
000330 0a c5 b4 bb 52 ea 2d 3d 1d 98 61 bd f4 40 01 3e
       -0.005516653 0.042459793 -0.055076707 0.12622434
000340 a7 3d ea bd 4d 94 73 3e c7 03 68 be 3b e4 33 be
       -0.114375405 0.23787041 -0.22657691 -0.17567532
000350 28 27 32 3d 0b 52 3d 3e b1 0c 87 3c 6d 9b 70 3e
       0.043494374 0.18488328 0.016485544 0.2349679
000360 f0 c0 9e bc 4a e0 80 3e e8 67 00 bb a1 5f bb bd
       -0.01937911 0.2517112 -0.0019593183 -0.09149099
000370 3e 2a 0c 3e 66 70 e3 3d a2 25 23 3e 91 4a fd bd
       0.13687989 0.11105423 0.15932325 -0.12367738
000380 93 d1 b5 3d 56 23 cc bc 44 41 69 bd 7f b5 4c 3e
       0.08877864 -0.024919193 -0.056947008 0.1999111
000390 8f e1 84 3e e0 53 7b bd ca 76 b4 3e 02 78 06 3e
       0.25953338 -0.061359286 0.3524688 0.13131717
0003a0 75 a8 4a be e1 19 34 3e 55 d9 b8 bc d2 1c fa bd
       -0.19790824 0.17587997 -0.02256457 -0.12212528
0003b0 72 67 ba 3d b4 ab 12 3d b0 c0 c2 bc c6 5f cb 3c
       0.09101762 0.03580828 -0.023773521 0.024825942
0003c0 da a6 60 3e 82 f6 8a bd d8 55 c3 3d ed 22 01 be
       0.21938649 -0.06785299 0.09537858 -0.1261098
0003d0 4d ba d2 3d 7b 30 d9 bd fa 66 91 3d c6 64 0f be
       0.1028944 -0.1060495 0.07099719 -0.14003286
0003e0 f8 74 02 3d 11 6d f0 3d 92 18 18 be 44 d0 21 bd
       0.03184983 0.11739553 -0.14853123 -0.03950526
0003f0 9a d0 d6 3d 02 26 3a be 98 00 9b 3d 5a 96 e8 3d
       0.10489006 -0.18178561 0.075684726 0.11356802

bias f4 [200]
000000 03 5f b2 3c 06 cb d8 3d a6 c7 de bd 04 e3 74 bc
       0.02177382 0.10585599 -0.10877924 -0.014946703
000010 fc 67 4f bd 1f d0 30 be 2b ea ec bd c5 c5 82 3d
       -0.050636277 -0.17266892 -0.115681015 0.06385378
000020 ab 3e 38 bd 4c 5e 82 3d f2 b7 aa 3d f9 28 7e bc
       -0.04498164 0.06365642 0.08335866 -0.015512698
000030 af ba 25 3e b8 46 9b 3d 45 a5 82 bd 95 28 3b 3b
       0.16184495 0.07581848 -0.06379179 0.0028558124
000040 a7 4f 62 bc b5 3e d0 3d f3 ef a1 bc d2 21 bf 3d
       -0.013812936 0.101682104 -0.019767737 0.093326226
000050 fa e2 e7 bd ae ef 93 3d c5 7c f9 bd 7f 13 27 bd
       -0.11322589 0.0722345 -0.12182001 -0.040790077
000060 33 37 42 bc a5 b7 91 bd aa a9 bf bc 6c 12 00 3e
       -0.011853981 -0.071151055 -0.023396332 0.12507027
000070 5f 1d aa 3c d3 c9 f6 3d 1d 70 85 bd 74 09 e8 3d
       0.020765958 0.12050214 -0.065155245 0.11329928
000080 92 40 e1 3d 2f b2 20 3d 0c 18 57 3d ae 06 c4 bd
       0.10998644 0.03923243 0.052513167 -0.095715865
000090 20 d6 ca 3d 8e 7d 42 3c b4 61 c6 bd 95 6f 6a bd
       0.09904122 0.011870755 -0.09686604 -0.05723532
0000a0 87 a5 ae 3b d0 0d 8a bd d2 1e 38 3b 29 f7 8f bd
       0.005329791 -0.06740916 0.0028094542 -0.07029564
0000b0 90 2b c3 bb d3 99 a3 bc f5 82 08 bd 56 1c c0 bd
       -0.005956121 -0.01997081 -0.033328015 -0.09380405
0000c0 83 0a b2 3c 08 cd a7 bd 35 2e 6a bd 4b 42 9e bd
       0.021733528 -0.081934035 -0.057172973 -0.07727488
0000d0 5c 50 f0 3d d2 b0 4b 3d ea d0 9b bd 40 aa 8e 3e
       0.11734077 0.049729176 -0.076082066 0.27864265
0000e0 35 bd 86 3e f0 99 a7 3d fe 17 17 be 72 77 51 bd
       0.26316229 0.08183658 -0.14755246 -0.051139303
0000f0 d4 80 ca 3d 84 9e cb 3d 17 40 56 3e f2 c6 c0 bd
       0.09887853 0.09942344 0.20922886 -0.09412946
000100 11 ad a5 bd 84 fd e9 3c 29 4a 79 bd 46 e2 10 be
       -0.080896504 0.028563268 -0.06086174 -0.14148816
000110 1b 27 97 3d c0 51 36 be 33 df 40 bd e1 a8 f5 bd
       0.07380506 -0.17804623 -0.04708786 -0.11995102
000120 c1 9d 42 bd 2a b4 9c 3d fc 1a d1 3b bd 00 1a 3e
       -0.047513727 0.07651551 0.0063813906 0.15039344
000130 6e b3 00 be 4e e5 a3 3d a0 79 80 bd d9 eb 95 3d
       -0.12568447 0.08002721 -0.06273198 0.07320375
000140 87 b0 30 3d 97 d8 fb 3c 78 08 10 bd c8 37 84 bd
       0.0431371 0.030742927 -0.035164326 -0.06455952
000150 1d e6 08 be 63 18 c9 bd ae cb 30 bc df ba 25 be
       -0.13369031 -0.098191045 -0.0107907485 -0.16184567
000160 c8 d5 02 3e ba ed 0b 3d 72 4f b5 3d 57 c6 6b 3d
       0.12776864 0.03416226 0.088530436 0.0575622
000170 be 29 65 3e 9f eb ac bc fd 8a ab 3d a6 eb 09 bb
       0.22379205 -0.021108447 0.08376119 -0.0021044998
000180 cb cd 04 be ef b0 e7 bb bf 73 e4 3d 43 ef 01 bd
       -0.12969129 -0.0070706527 0.11154889 -0.03172232
000190 53 7e b4 bc 13 50 23 3e 32 66 bb 3d 07 32 83 3d
       -0.022032892 0.15948515 0.091503516 0.06406026
0001a0 56 b6 0b be 71 96 05 bd ff ec 01 3e 9e 4c 45 bd
       -0.13643774 -0.032614175 0.12688063 -0.04816877
0001b0 09 d0 e8 bc fc db 2b 3e 58 06 05 be a1 6c 3c 3c
       -0.028419511 0.16783136 -0.12990701 0.0115005085
0001c0 57 0f 59 bb a3 b8 91 3d a5 a0 8c 3c a2 6f 43 3e
       -0.0033120716 0.07115295 0.017166445 0.19085553
0001d0 f9 a9 0c be 1b a6 72 bd 4f 11 ae bd 68 a9 d6 bc
       -0.13736714 -0.05924044 -0.08499395 -0.026203826
0001e0 ad 55 81 3d c0 11 53 3e 0f 31 b7 3d 1b e1 38 bd
       0.063151695 0.2061224 0.08944904 -0.045136552
0001f0 e4 b3 20 be 46 fc d8 3c 5f 6e 9e 3d 9b 17 33 be
       -0.15693623 0.02648748 0.07735895 -0.17489474
000200 3d a6 91 3d 88 3f 14 bd 9b 6d 48 3d 2e 55 38 3d
       0.071117856 -0.0361934 0.048932653 0.04500311
000210 51 f5 41 3d ee 28 bd bb 8c ae 11 3d 91 67 0b 3e
       0.047353093 -0.0057727015 0.03556685 0.13613726
000220 ce 8f f9 bc 69 af 99 3c fa 8a ef 3c de 5e a1 3d
       -0.03046408 0.0187604 0.029241074 0.078794226
000230 5d de 1d be 1c 0b 5c 3d af 50 8a 3d 81 16 3a 3d
       -0.15416856 0.053721532 0.067536704 0.045431618
000240 5a 7b f8 bd 7a e2 89 3d a0 8b b4 bd 9b 48 cc 3d
       -0.121329024 0.0673265 -0.08815694 0.09974786
000250 87 fc 67 3b c3 c0 1b be 04 0c 49 bb 21 c6 f9 bd
       0.003539832 -0.15210252 -0.0030677328 -0.12195993
000260 fd ce 5f bd 64 08 12 3d 39 d8 97 bb c6 f8 a5 bd
       -0.05464076 0.035652533 -0.00463393 -0.081040904
000270 62 9b 55 bd b9 4f 0f 3e 54 58 00 bd 5c 53 8e 3d
       -0.052150138 0.13995256 -0.031334236 0.06949493
000280 c6 34 8d bd 5d 82 15 be 79 a6 9d 3d 6c 28 01 be
       -0.06894831 -0.14600511 0.07697768 -0.12613076
000290 99 14 4c bd 9b 3e bc bd 15 63 ed bc e5 32 ea 3d
       -0.04982433 -0.091916285 -0.02897791 0.114354886
0002a0 ce 94 95 bd 98 8f 07 3e 10 ce 12 bc a8 2b 9c bd
       -0.07303773 0.1323837 -0.008960262 -0.07625514
0002b0 7c 35 7a 3c 22 3f 38 bd bd 55 87 bd 95 45 07 bb
       0.015271541 -0.044982083 -0.0660815 -0.002064084
0002c0 ce 37 0c 3d 3b 0b bc 3d d6 b1 d0 3c 52 88 50 3d
       0.034232907 0.091818295 0.025475424 0.050911255
0002d0 22 c6 e4 3d e6 45 c6 bd cb e9 2f be 9a 21 01 be
       0.11170603 -0.09681301 -0.17179029 -0.12610474
0002e0 72 08 4c 3d c4 51 ee 3d 62 f7 82 3c da 6a b1 bd
       0.04981274 0.11636689 0.015987102 -0.086629584
0002f0 d1 b3 bf bb 20 0d 12 bd 2a 68 e2 ba 14 5f b4 3c
       -0.005850293 -0.03565705 -0.0017273475 0.022017993
000300 f7 08 40 bc ba f8 94 3b ce 00 f6 3d 20 99 2c 3e
       -0.011720887 0.004546252 0.12011872 0.16855288
000310 53 55 42 3d 56 65 8b bd 46 c7 81 3d 19 ab 77 3e
       0.047444653 -0.06806438 0.063368365 0.24186362

weight f4 [200, 200]
000000 60 69 3d 3e ea 5c 81 3e 83 19 42 bd df 3f d0 3c
       0.18497229 0.252662 -0.04738761 0.025421081
000010 03 85 97 be a3 43 47 be b6 a4 d7 3d f3 a5 07 3e
       -0.29593667 -0.19459395 0.10529463 0.13246898
000020 d4 fc 1d bd 0f 5f fa bc ba d0 4c 3e 13 03 c9 3d
       -0.038571194 -0.030562906 0.20001498 0.098150395
000030 96 86 a2 bd af 89 d2 3d 4e 20 aa bd 95 c1 82 3d
       -0.079358265 0.10280167 -0.08306943 0.06384579
000040 10 ad 89 3e 05 b7 3b 3d 87 2a 1f be b6 61 9b 3d
       0.2688985 0.045828838 -0.15543567 0.07586996
000050 f1 9b 60 ba f6 8c 09 3e 35 51 7b be 52 4e b4 3c
       -0.0008568159 0.13432679 -0.24542697 0.022010002
000060 c3 ad 0f 3e 61 fb f9 bd 73 be 6d bb 0d 75 40 3e
       0.14031129 -0.1220615 -0.0036276847 0.18794651
000070 9b 26 37 3e b3 0e 19 3d cc 95 3a bd 63 ec 72 3c
       0.1788582 0.037367534 -0.045553014 0.014826867
000080 0b 6b 32 3e 1a 02 15 3e d8 be 86 3d 58 9d 12 3e
       0.17423646 0.14551583 0.06579369 0.14317834
000090 f0 98 44 3d 55 27 84 3c 96 b6 e7 bc ff 42 6d 3d
       0.047997415 0.016132036 -0.028285306 0.05792522
0000a0 90 e1 35 3d 04 a4 63 3e 27 6a d0 bd 4d 28 3c 3e
       0.044404566 0.22230536 -0.10176497 0.18374749
0000b0 94 2c 54 3e df 3c 9f bd 4c a6 26 be 14 72 9c bc
       0.2072013 -0.07775282 -0.16274375 -0.019097365
0000c0 53 b3 2f be 7b 61 22 be a8 0d c8 bd df 1e e3 bd
       -0.1715825 -0.15857498 -0.0976823 -0.110898726
0000d0 67 67 0c be c7 31 0e 3d 24 e5 0d be 25 4f 97 3e
       -0.1371132 0.03471544 -0.13856941 0.2955257
0000e0 5f b8 6d 3e 68 70 b5 bc fe 30 2b be f3 76 06 be
       0.23214863 -0.022148326 -0.16717908 -0.13131313
0000f0 b1 6d 0e 3d e8 20 86 bb 20 20 bf bd 1c 92 b3 3d
       0.03477258 -0.004093278 -0.09332299 0.087681025
000100 0f 43 92 bd b4 26 45 3e a9 6e 82 be 5b 6c 2c 3e
       -0.07141697 0.19253045 -0.25475052 0.1683821
000110 18 03 32 3e 09 6b 78 be 53 35 73 bc 7d 3f ff 3c
       0.17383993 -0.2425958 -0.014844256 0.031158203
000120 92 98 ee bd 14 48 a3 bd 95 2f fa 3d 5d 3d 1b 3e
       -0.11650194 -0.07972732 0.12216107 0.15160127
000130 1e 2a 65 be 64 ee 29 be 27 92 85 bd f7 1a 2b be
       -0.22379348 -0.16594845 -0.06522017 -0.16709505
000140 66 b0 b3 3d 0c f1 c4 3d 43 05 42 bb bb 9e 78 3d
       0.0877388 0.096162885 -0.0029605187 0.060698252
000150 8f f6 83 be 65 22 cc bd 28 d8 c1 3d fd 07 8f 3d
       -0.25774047 -0.09967498 0.09465057 0.069839455
000160 d8 c7 a4 bd d3 64 c5 bc 17 12 a2 bd 97 e6 07 bd
       -0.0804593 -0.024095928 -0.079136066 -0.033178892
000170 b8 c4 a2 bc f6 b6 0a 3e 15 0c 2a 3e 0c 7f 1a bd
       -0.019869193 0.13546357 0.16606171 -0.037718818
000180 68 c6 e5 bc ce cb 39 3e d7 98 b0 3b 49 8a aa bd
       -0.028048709 0.18144152 0.0053893137 -0.08327157
000190 a6 59 b3 3d 67 0a 73 3e ce b1 9e 3c bf c8 99 3d
       0.087573335 0.23734437 0.019371893 0.075089924
0001a0 2e 44 bc 3c 5b c5 a6 bd f3 e4 e4 3d 7b f9 be 3d
       0.02298173 -0.08143111 0.11176481 0.093249284
0001b0 c6 05 bb bd f0 13 87 3e a6 55 9c bd 61 b6 72 be
       -0.091319606 0.263824 -0.07633524 -0.23702385
0001c0 83 bd 55 bd 14 ed 4b 3c e1 56 bb bd c6 f9 dd 3d
       -0.052182686 0.012446661 -0.0914743 0.10838656
0001d0 cf 1b 8c 3c 0c cc 2f be b1 23 c1 3d 83 13 e6 bd
       0.017103104 -0.17167681 0.09430636 -0.1123419
0001e0 04 ec 61 bd fd 53 52 3e 56 48 bf bd f8 e6 3b be
       -0.055156723 0.20539851 -0.09339969 -0.18349826
0001f0 d5 19 e7 bb 10 67 c9 3a ff d5 15 be ee 56 1a be
       -0.00705264 0.0015365798 -0.14632414 -0.15072224
000200 73 39 70 bd 29 e3 5a bc 97 70 d9 bd 8c e8 07 bd
       -0.058648538 -0.013359823 -0.10617178 -0.03318076
000210 95 96 15 3e 93 a0 90 be 13 d0 0f 3e 23 06 2b be
       0.14608224 -0.28247508 0.14044218 -0.1670156
000220 91 9c 01 bd 72 53 1e 3e a7 ba 21 3d 94 64 d1 bd
       -0.031643454 0.1546152 0.039484646 -0.10224262
000230 8c 0c 88 be 68 ea e1 bb 64 23 f8 bd 38 df f9 bd
       -0.26572073 -0.0068943985 -0.12116125 -0.12200779
000240 8f b9 75 bd ec de 2d 3e 08 81 7c be 55 25 2b be
       -0.059991416 0.16979569 -0.24658597 -0.1671346
000250 11 51 7c bd 79 80 9a 3d 7b 03 9f 3d 7f f5 43 be
       -0.06160075 0.075440355 0.07764336 -0.19136618
000260 41 ef 2c be 47 13 df 3d e3 fd 15 3d 10 7d 44 bd
       -0.16888143 0.10892349 0.03661908 -0.04797083
000270 21 0b 77 3c 1f a7 d8 3d ad 4c 25 3d 88 10 16 be
       0.015078337 0.10578751 0.040356327 -0.14654744
000280 d3 82 c0 bd 96 f8 ee bc 34 42 f1 bc f1 d9 4f 3e
       -0.09399953 -0.02917127 -0.029450513 0.20297982
000290 2d c8 41 3d 96 b2 a5 3d 3d e7 72 3d 1c 4f 0c 3e
       0.047310043 0.08090703 0.059302557 0.13702053
0002a0 cb bc 6a 3c 93 9e da 3c 02 dd 42 be e3 d1 77 bc
       0.014327238 0.026686942 -0.1902962 -0.0151257245
0002b0 48 bc 22 3c d8 82 54 3e a9 4c 12 3e ba 51 25 be
       0.009932585 0.20753038 0.14287056 -0.16144457
0002c0 10 6b cf 3c e2 a9 af bd f6 6c 05 bc d8 65 d6 bb
       0.025319606 -0.085773245 -0.008143654 -0.0065429024
0002d0 67 cf 86 3d 33 c3 27 3e d1 fa a2 bd bb 1b 53 be
       0.065825276 0.16383056 -0.07957996 -0.20616047
0002e0 51 e9 b8 3d e0 8e ff 3d ba bd 1f be 00 14 43 3e
       0.090288766 0.12478423 -0.15599719 0.19050598
0002f0 62 6a 38 be 6a eb 09 3e 00 62 c6 bd d6 fd 77 bd
       -0.18009332 0.1346871 -0.09686661 -0.06054481
000300 27 07 3e 3c b2 ff 6a bc 55 7c 36 3e 60 26 8c 3d
       0.011598385 -0.014343189 0.17820866 0.06843257
000310 3c dc 1b bc 99 da 24 3d 07 98 a6 3d da ed b6 3d
       -0.009512957 0.040247533 0.08134466 0.08932085
000320 79 ba fc bd d6 4a 00 3e df dc 1f bd 42 5b 50 3e
       -0.12340254 0.12528548 -0.039029 0.20347312
000330 65 a3 fa bd 8f 07 d1 3d 1c 76 a3 3d 8f f8 9a 3d
       -0.12238196 0.1020652 0.07981512 0.0756694
000340 6a 54 84 bb d3 d8 14 be 20 a1 cb bd 08 d9 65 3e
       -0.0040383833 -0.14535837 -0.099428415 0.22446072
000350 2c e1 45 be e4 56 c1 39 0d a2 54 3e 49 c8 a3 bd
       -0.19324178 0.00036876567 0.20764942 -0.07997186
000360 a9 df ea 3d 29 25 a4 be 1e e7 2a 3e 43 4c 2e be
       0.11468441 -0.320596 0.16689727 -0.17021279
000370 c9 2b 62 bc 2e 5c 50 be 94 cb bd 3d 9e 07 a9 3c
       -0.0138043845 -0.20347664 0.09267345 0.020633515
000380 34 a5 a7 bd 54 40 15 bc 18 48 1d be b9 0e 29 3e
       -0.08185807 -0.009109575 -0.15359533 0.16509522
000390 54 df fa bd 68 e8 fb bd 3a b8 a5 3d 92 3e 66 be
       -0.12249628 -0.12300187 0.08091779 -0.22484806
0003a0 09 66 60 bd eb f0 c3 3d 04 30 f1 3d 46 1c 44 bd
       -0.05478481 0.09567436 0.117767364 -0.047878526
0003b0 60 69 a1 bc 7b 75 58 be f2 04 1b 3c 18 66 87 3e
       -0.019703567 -0.21138565 0.009461628 0.2644508
0003c0 4a 6c 77 3d 2d a0 47 be 84 39 0a be 3b b6 f1 bd
       0.060406007 -0.19494696 -0.13498503 -0.11802336
0003d0 7e 9f d2 3c b4 47 03 bb c7 7b b4 3d cf 8e 25 be
       0.025710817 -0.0020031752 0.08812671 -0.16167758
0003e0 c2 58 ab bd d1 c3 ce 3e 94 0f db 3c 9c df 46 bc
       -0.083665386 0.4038377 0.026740827 -0.012138274
0003f0 c6 f3 57 3e b0 7f da bb dc ab 45 3e 8b e6 1e bd
       0.21089086 -0.0066680536 0.1930384 -0.03879408

bias f4 [200]
000000 63 c4 33 3e 76 5c aa bd 15 4d 33 3e d4 b0 5e 3b
       0.17555384 -0.08318417 0.17509873 0.003397991
000010 fe f8 5e bd 37 0b f5 bb a2 69 96 3c 8e 95 dd bd
       -0.054436676 -0.0074781436 0.018360917 -0.10819541
000020 5d 10 b8 bd 53 c1 53 3d d0 8d 97 3c e7 87 de bc
       -0.08987496 0.05169804 0.018500239 -0.027164413
000030 28 c1 41 bd af 48 5a 3d a1 29 94 3b 1e 70 09 3d
       -0.04730335 0.053291973 0.004521564 0.03355419
000040 2a 7f a9 3d 9f c0 08 bd 71 e0 d9 3d 3e 6a 4d bd
       0.08276208 -0.033386823 0.10638512 -0.05015015
000050 f8 84 b5 3d ac e8 fd 3c fc ca d5 bc 25 bf 99 3c
       0.088632524 0.030994736 -0.026097767 0.018767903
000060 80 0b 05 3e 82 d3 9a bd de 25 7e bd 22 b4 a4 3c
       0.12992668 -0.07559873 -0.06204783 0.020105425
000070 54 07 7d 3c 5c 4e 25 3d 30 b3 6d 3c 48 d8 84 3b
       0.015443642 0.040357932 0.014508054 0.004054103
000080 a3 47 95 3d db c8 6e bd 90 57 39 3d 03 b4 b7 3d
       0.07289054 -0.05829702 0.04524952 0.089698814
000090 17 3b 2f 3d a8 29 80 3d 97 8d 00 bd 30 5f ab bc
       0.04278096 0.06257945 -0.03138503 -0.020919412
0000a0 33 48 d3 ba 30 fd 52 3d 0b 17 18 bd d3 bc 15 bc
       -0.001611954 0.05151099 -0.03713135 -0.0091392575
0000b0 85 4a 06 3e 48 cb 0b bd ad d2 75 bd 2a c6 9e bd
       0.13114364 -0.03412941 -0.06001537 -0.077526405
0000c0 0e b6 11 be 02 99 94 bd ae c5 87 bd f4 16 b0 bd
       -0.14229605 -0.072557464 -0.06629501 -0.08598128
0000d0 4f 9b ec bd e5 51 14 39 2a 35 d9 bc ff 86 5f bc
       -0.1155306 0.00014144888 -0.026514608 -0.013643025
0000e0 73 1f 2b be a1 58 4d 3e 56 6c c6 bc 54 35 a8 bd
       -0.16711216 0.2005334 -0.02422158 -0.082132965
0000f0 da 58 ab bc 3e 1a 10 3d df af 21 3e 6b ee da bc
       -0.020916391 0.035181277 0.15789746 -0.026725015
000100 3d 23 2d bc 88 be e0 b9 4e 46 b9 bd fc 63 88 bd
       -0.0105674835 -0.00042866566 -0.09046613 -0.066596955
000110 04 38 04 3e b3 e3 ab 3d 81 4a e8 3a a5 ac ed bc
       0.12911993 0.083930396 0.0017722399 -0.029012987
000120 1b 5e 69 bd 70 ae 94 bd d4 70 db 3c 36 41 c2 3d
       -0.05697451 -0.07259834 0.0267872 0.09485094
000130 8d 00 e4 bc 05 9c ea 3d 17 9f 02 3d 89 ab 68 3d
       -0.027832294 0.114555396 0.03189 0.056804214
000140 32 a5 0c 3e 92 9b 89 bd e7 03 0f bc 45 10 c7 bd
       0.13734892 -0.06719126 -0.008728958 -0.097199
000150 95 d2 00 be 22 8f 6a bc 91 98 82 3d eb a3 0e bd
       -0.1258033 -0.014316352 0.06376756 -0.034824293
000160 47 d3 67 bc f3 f5 63 3c b3 7e 89 bd 6b 69 c2 3d
       -0.014149494 0.013913619 -0.06713619 0.09492763
000170 25 04 90 bd 93 ef b7 bd c4 2a 7f bd de 5d 01 3e
       -0.070320405 -0.08981242 -0.062296644 0.12633464
000180 50 4a 37 3c ed e7 90 bd 67 ad a1 bd 45 e2 01 3e
       0.011187151 -0.07075486 -0.07894402 0.12683971
000190 02 ea bf 3b 97 14 ae 3d 5c 72 85 bd 38 9c a1 3d
       0.0058567533 0.08500021 -0.06515953 0.078911245
0001a0 3c 7f ec 3d c9 14 c3 bd 2c 92 a7 bc 47 b2 b1 3d
       0.115477055 -0.09525449 -0.020455442 0.08676582
0001b0 80 f8 bf bd 14 0d e2 3c 15 b4 a0 3c 8d 05 91 bd
       -0.093735695 0.027594127 0.01961712 -0.07081137
0001c0 59 0e 98 bd 2f 41 ef 3a 4c 99 36 be 5f 4b 28 bd
       -0.074246116 0.0018253679 -0.17831916 -0.041087504
0001d0 59 8f f9 bc 3f c1 f6 3d 6d 72 f4 bb 85 bd 0d bd
       -0.030463861 0.120485775 -0.0074599297 -0.034604568
0001e0 95 68 78 3d 51 96 35 bd c2 15 6d 3d b2 bf d0 3d
       0.060646612 -0.044332806 0.057882078 0.10192813
0001f0 19 0a 06 bb 52 23 a8 bd 62 72 70 bd 15 5f 0b bd
       -0.0020452796 -0.08209862 -0.058702834 -0.034026224
000200 7f 77 97 3c 2f d9 47 3d 19 c9 9f 3d 7c 5a 6c 3c
       0.018489597 0.048791107 0.07802028 0.01442587
000210 02 1e 01 3d 55 72 0c be de 16 11 3d 8a 09 d8 bd
       0.03152276 -0.13715489 0.0354222 -0.105486944
000220 5f 65 d5 3d 81 92 cb bc d5 e1 c6 3c e9 ee 00 3b
       0.104197256 -0.024850132 0.024277607 0.0019673652
000230 b3 5b 08 3b 37 08 03 be 3b 6a ac 3d 57 ef 82 3d
       0.002080661 -0.12796102 0.08418699 0.06393307
000240 c3 4d d3 bd 9a c2 80 bc fe 35 91 bd 26 66 fa 3d
       -0.10317566 -0.015717793 -0.07090376 0.122265145
000250 44 62 b5 bd b3 60 0f bd 63 8d d4 3c 0a bc 8b bd
       -0.08856633 -0.03500433 0.025946325 -0.06822975
000260 fe f2 11 be 27 7a 82 3d 89 e6 1f 3e 9f cd 7c 3d
       -0.1425285 0.06370955 0.15615286 0.061719533
000270 ff 07 6a 3d b5 0a ea bb 89 81 78 3d 44 32 91 3d
       0.057136532 -0.0071423897 0.06067041 0.070896655
000280 95 a3 df bd 1e 8a 8a 3d 66 2c 97 3c f5 53 c2 3d
       -0.10919873 0.06764625 0.018453788 0.0948867
000290 3d 93 01 be 89 63 0b be d8 91 44 bd 18 c7 32 3d
       -0.12653823 -0.13612188 -0.04799065 0.0436469
0002a0 0b c9 2a bd d7 ba 03 3e 50 82 24 bc ae a4 44 bb
       -0.041695636 0.12864242 -0.010040835 -0.0030005383
0002b0 89 c6 fa bd 78 f5 b2 bd 89 ac 13 3c 01 8f b0 bc
       -0.12244899 -0.08738226 0.009013304 -0.021552565
0002c0 24 d7 be 3c 2d d4 17 3e 4e 8b f7 3c 46 b5 bf 3c
       0.023295946 0.14827032 0.030217793 0.023401868
0002d0 3a 9d a7 3c cd 29 23 3d ba 88 af 3b b9 5d 11 bd
       0.020460714 0.039834786 0.0053568752 -0.03548977
0002e0 84 cf 8e 3d dd 6c cf bb 24 d6 c3 3d e8 25 b2 bd
       0.06973174 -0.006330116 0.095623285 -0.08698636
0002f0 33 c3 c2 bc 61 14 b3 bc ef fe 17 3d 02 16 21 bd
       -0.023774719 -0.021860303 0.037108358 -0.03932763
000300 0a 42 e0 3d fd e3 6f bd ce b7 0c be 6e 78 61 bd
       0.10950096 -0.058567036 -0.13741991 -0.05504649
000310 1c 17 29 3e 0a a4 9b bc 24 2e 06 be 92 69 fc bc
       0.16512722 -0.018999118 -0.13103539 -0.030812059

weight f4 [200, 200]
000000 3c 52 e8 3d 33 4f c5 3d 5c c6 41 bd de ff 9f bb
       0.1134381 0.09634247 -0.04730831 -0.0048827967
000010 c1 96 f9 3d 60 6f 98 bd 41 03 b1 bd 90 bd 5a 3e
       0.12186957 -0.07443118 -0.08643199 0.21361375
000020 31 40 26 be 98 4a 2b 39 1b 79 ad 3d 00 99 d7 3d
       -0.16235425 0.00016335619 0.08470365 0.10527229
000030 ae 36 bc 3d a3 4e 1f be 3f 7b 0e be ae 46 38 3e
       0.09190117 -0.15557341 -0.13914202 0.17995712
000040 99 03 39 3a b5 96 18 be 7e eb 3e 3e b7 f9 dd 3c
       0.0007057726 -0.1490124 0.1864452 0.027096612
000050 b0 6b 10 bd 17 ca 50 bd 13 6d 17 3e ff 01 80 bc
       -0.03525895 -0.050973978 0.14787702 -0.015625952
000060 28 9d 4c be c7 ca ff bd 88 f1 44 3e 59 d0 15 be
       -0.19981825 -0.124898486 0.19232762 -0.1463026
000070 0b e0 d8 bd 65 dc bd 3d c1 1d 18 be 0a 44 57 3d
       -0.10589608 0.092705525 -0.148551 0.05255512
000080 d4 f6 bf bd e4 9f 1d be 2c 0a 1d 3e 24 89 10 bd
       -0.093732506 -0.15393025 0.15335912 -0.035287037
000090 45 c3 24 3e 18 87 12 3e fb 92 cd bc ad d2 2e be
       0.16090114 0.14309347 -0.0250945 -0.17072554
0000a0 cb 29 d8 3d 2d 51 d8 3c 30 c6 bb bd 7d 19 f9 bd
       0.105548464 0.026405895 -0.09168661 -0.12163065
0000b0 ad 2c 88 bd c3 48 62 be 3a cc 09 be ef c3 e8 3a
       -0.06649146 -0.22098069 -0.13456813 0.0017758588
0000c0 b8 c6 6c 3d a4 08 60 3d 10 be f7 3d 06 d0 03 bd
       0.0578067 0.05469574 0.120967984 -0.03218081
0000d0 df ad e4 bd 44 7b 18 3e 40 b8 42 bc 4a e3 cd 3d
       -0.11165976 0.14890772 -0.011884749 0.100531176
0000e0 78 3e dc bb c6 d4 2b 3e 09 a3 a8 bd 19 bf 17 bd
       -0.006721314 0.16780385 -0.082342215 -0.03704748
0000f0 46 66 4a bc e1 4b 00 3e bb b1 1d 3e 59 01 c3 bd
       -0.012353485 0.12528946 0.1539983 -0.095217414
000100 e5 1a 03 be 72 ac a0 3d 3a 54 65 bd 8c 86 36 3e
       -0.12803228 0.07845391 -0.055988528 0.17824763
000110 ce ea 1f bd 26 99 15 3e fa 04 e7 3c a7 6f d4 3d
       -0.039042287 0.14609203 0.028200615 0.103728585
000120 56 58 88 3a 0c 2d c7 bd 6f 55 16 be 29 8d 0b 3e
       0.0010402303 -0.09725389 -0.14681028 0.13628067
000130 4e 75 f9 3c 71 8f 12 3d 00 fe a0 bd 40 c7 10 be
       0.030451443 0.035781328 -0.07860947 -0.14138508
000140 b1 03 f6 3d dc cd 0f 3c c0 a0 47 bd 93 09 6b 3e
       0.12012423 0.008777108 -0.048737288 0.22952871
000150 46 68 19 be ac 5a d7 bd f7 b5 1b be cb 7a a3 3c
       -0.14981183 -0.10515341 -0.15206133 0.019956013
000160 53 13 ef bd e6 0a f2 3d 37 89 f8 bd ee 21 c2 bd
       -0.11673608 0.11818485 -0.12135547 -0.09479128
000170 62 f9 1a be b2 03 ca bd f3 d1 cd bd 52 2d 01 3d
       -0.15134194 -0.09863986 -0.1004981 0.03153736
000180 e2 7a 04 3e b1 c0 ec 3d 12 ff 6d bd f8 bd 42 be
       0.12937501 0.115601905 -0.058104582 -0.1901778
000190 46 8f 42 be fa 7e 46 3d 36 56 22 3e 58 a0 e1 3d
       -0.18999967 0.048460938 0.158532 0.11016911
0001a0 ec f8 0c 3e ab 7f d4 bc 2c a8 02 bd 70 29 7c 3d
       0.13766831 -0.025939783 -0.031898662 0.061562955
0001b0 74 78 04 be 2b 75 88 bc 3a af c7 bd 44 f8 4a be
       -0.12936574 -0.016657433 -0.09750219 -0.19821268
0001c0 e0 07 a3 bd 6d 99 74 bd cf 0b 00 be ee f8 dd bd
       -0.079604864 -0.05971663 -0.12504505 -0.10838495
0001d0 64 db 0a 3d df c5 32 3e 95 8f 1a 3e ad e8 8f bd
       0.033900633 0.17458294 0.15093835 -0.07026801
0001e0 3d 1c e9 bd 72 d0 13 be d7 b0 a2 bc 2c 4e 67 be
       -0.11382339 -0.14434984 -0.019859714 -0.22588414
0001f0 dc c2 04 3d a3 86 cc bd 5d 1d e9 bd 69 96 f8 bd
       0.032412395 -0.099866174 -0.11382554 -0.121380635
000200 e2 16 1b 3e ee ef e9 bc d1 d3 2a be 61 33 d1 bd
       0.15145448 -0.02855679 -0.16682364 -0.10214878
000210 84 f9 e4 bd 98 20 50 bd f1 c5 44 be 60 7a 0d 3e
       -0.11180404 -0.050812334 -0.19216134 0.13816214
000220 42 c1 09 3e 88 61 3f be ea 41 fd 3c 5d 0e f7 3c
       0.13452628 -0.18689549 0.03091522 0.030158216
000230 18 58 99 3d 9e a1 62 be 2d 19 1d 3e f6 a4 93 3d
       0.07487506 -0.22131965 0.15341635 0.07209198
000240 d0 13 6c 3d fa 79 37 bc 8f 8b 32 3e 2b 72 6e be
       0.057636082 -0.011198515 0.1743605 -0.23285739
000250 6b 69 f6 3d 57 59 85 3d ce f5 6f be 5e 6e 14 be
       0.12031826 0.06511181 -0.23433611 -0.14495227
000260 83 f6 20 be af 61 cf bd d4 04 68 3d 86 e8 67 3b
       -0.15719037 -0.101260535 0.05664523 0.0035386398
000270 27 05 bd bd 2f a7 af 3d cc 5b 10 be 1d c5 42 3e
       -0.09229498 0.085768096 -0.14097518 0.19020505
000280 67 44 40 bc e7 a1 2f 3d 62 a0 42 be f9 61 35 3e
       -0.011735058 0.04287901 -0.19006494 0.17713155
000290 98 28 24 3e ff 86 3a 3c ed 93 1f 3e df 30 a5 bd
       0.1603111 0.011384725 0.15583773 -0.08065962
0002a0 24 11 11 be e8 fe ee 3d ee 2d 85 3d 13 cc 9f bc
       -0.14166695 0.11669713 0.06502901 -0.01950649
0002b0 65 93 45 be c3 3c a0 3d c6 64 1e be 59 22 35 3e
       -0.19294508 0.078240894 -0.1546813 0.17688884
0002c0 82 1e c7 3c 1f 31 9b 3d e7 7a 17 3e 69 37 03 be
       0.02430654 0.075777285 0.14792977 -0.12814106
0002d0 64 94 d0 3d fa 23 a8 3c 7b 5e d3 ba 03 1c 0c bb
       0.10184553 0.020524967 -0.001612618 -0.0021379
0002e0 d9 0b 81 bc 2c 07 52 bd f2 6e b7 3d 7f f1 f7 bd
       -0.01575272 -0.05127637 0.08956708 -0.121066086
0002f0 b3 72 40 be 12 e2 94 3c b4 5c c5 3c ca e4 33 3c
       -0.18793754 0.018174205 0.024092056 0.0109798405
000300 6c 34 d8 3d c2 a6 0b 3e 9b 56 86 bd fc bf cf 3d
       0.10556874 0.13637832 -0.065594874 0.1014404
000310 be 1e 31 3e c0 0b 29 3e 27 9e fc 3d 9c 57 c1 3d
       0.17296883 0.16508389 0.12334853 0.09440538
000320 54 75 5f bd b7 65 dd 3c f1 51 1c 3d ba eb 5c 3d
       -0.054555252 0.02702604 0.038164083 0.053935744
000330 77 32 32 be 68 9e 3c 3d 22 25 8c 3b 6a 93 10 be
       -0.17402063 0.046049505 0.0042768875 -0.14118734
000340 b8 32 7e 3c 9d 5e c7 3d bc 10 55 be fc 7e 83 3d
       0.015515022 0.09734843 -0.20807165 0.06420705
000350 27 3c 21 be 5c 97 6d 3e 00 4c f9 bb 10 b6 11 be
       -0.15745603 0.2320227 -0.007607937 -0.14229608
000360 2a db 0a 3e d6 5f 03 bd d6 98 1d bc 3f 51 ab bd
       0.13560167 -0.03207382 -0.009618958 -0.08365106
000370 3e 0e 99 bc 68 1e 18 be c0 2a 72 bd 3e f6 0b be
       -0.018683549 -0.14855349 -0.0591228 -0.13668153
000380 f8 5f 22 3e cc 83 01 be e1 de 02 be dd a7 a6 3d
       0.15856922 -0.12647933 -0.12780334 0.08137486
000390 f2 1a d9 bd ed ee 93 3d 21 16 1d 3e 1e 5c e0 bd
       -0.106008425 0.07223306 0.15340473 -0.1095507
0003a0 c4 47 7f 3c b8 77 e0 bd e1 43 37 3d 92 f5 37 3d
       0.015581075 -0.109603345 0.04474247 0.04491193
0003b0 08 59 24 be f3 34 3c 3e 87 76 44 be 42 9d 26 3e
       -0.16049588 0.18379574 -0.1918584 0.16270927
0003c0 e7 4b 64 bc d9 1d 52 3e b4 35 3a 3d 21 b8 94 bc
       -0.013934112 0.20519198 0.04546137 -0.018154206
0003d0 1f 57 bc bd e2 eb 99 bd 14 6b e5 bb 62 9d 2a be
       -0.091963045 -0.07515694 -0.00700129 -0.166616
0003e0 78 ec 9a bb e1 c1 2e be 3d 27 c4 3d db e7 9e bd
       -0.0047278963 -0.17066146 0.095777966 -0.07759067
0003f0 4b 63 30 be b9 6f d1 3c ae e6 73 bd e5 5e b0 3d
       -0.17225377 0.025565969 -0.059546165 0.0861185

bias f4 [200]
000000 25 fc 47 bd 68 ba bd 3d 28 85 08 bd 24 50 af bd
       -0.04882445 0.0926407 -0.033330113 -0.085602075
000010 50 8e 9a 3d c0 d8 64 bd 00 bd a5 bd 41 e5 db 3d
       0.07546675 -0.05587077 -0.080926895 0.10737086
000020 d8 4f f7 bc d5 97 db bc ab 79 f8 3b aa 8b 5b 3b
       -0.03018944 -0.026805798 0.0075828633 0.0033499994
000030 36 d3 91 3a be 86 45 bd 4d a3 6e bd 0d 5f f9 bc
       0.0011125568 -0.048224203 -0.058261205 -0.030440832
000040 5b cd 71 bd df ba 30 3c c1 3d 45 bd f9 e0 f9 bd
       -0.059033733 0.010786741 -0.048154596 -0.12201113
000050 6c a8 a8 3d 34 6f 68 3d 4d de 4f bd 95 6d ad bd
       0.08235249 0.056746677 -0.050749112 -0.08468167
000060 66 f0 95 bd b3 95 a4 bc 31 55 a1 bd 46 fe a8 bd
       -0.07321243 -0.020090913 -0.07877577 -0.08251624
000070 ef 5d 64 bd 49 c7 e7 bd cd bd 08 3d 5c a7 89 bd
       -0.055753645 -0.113173075 0.033384133 -0.067213744
000080 06 94 a0 bd 38 aa 8b 3c 85 fc 59 bc 2e 30 70 3c
       -0.07840733 0.01704894 -0.013304834 0.014659924
000090 e1 aa d6 bc 3f 66 8c bd 92 67 fe 3d cf af 42 3d
       -0.026204528 -0.068554394 0.12422098 0.047530945
0000a0 eb 95 b7 3d ec a2 5c 3d 13 fa ad bd 51 65 97 3d
       0.089641415 0.053866312 -0.084949635 0.073923714
0000b0 3a 8f df 3c 47 95 14 3c ac 0b ab bd 3f 8b 9f 3d
       0.027289975 0.009068794 -0.083518356 0.07790231
0000c0 56 7e cc bd 81 e5 dc 3d 45 ab dc bb dc 65 0c bd
       -0.09985034 0.10785962 -0.006734284 -0.03427683
0000d0 ba 45 65 bd 4f 4e 79 3c 16 fc 8a bd 30 27 5a bc
       -0.0559747 0.015216424 -0.06786363 -0.013315007
0000e0 ef 49 7c 3d a1 11 ed bd da 30 f5 3a 17 d8 e1 3d
       0.061593946 -0.11575628 0.0018706576 0.11027544
0000f0 5c 34 d6 bd 19 e9 47 3d f0 9d 09 3e 1e 47 89 3d
       -0.104592055 0.048806284 0.13439155 0.06703018
000100 7c a7 87 3d 11 bb 48 bd 2e d1 93 3d 24 13 0b 3e
       0.06623742 -0.049006525 0.07217632 0.1358152
000110 49 30 e9 3c 16 1d 20 3e ff 76 82 3c a7 77 07 bc
       0.028465407 0.15636095 0.015925882 -0.008268273
000120 18 9c 3e 3d 48 80 07 ba cd f6 30 bd 53 d4 72 bb
       0.04653558 -0.00051689567 -0.043204118 -0.0037052825
000130 7b c6 be bc b5 22 92 bc ac 4c 8e 3d 76 a3 1d bd
       -0.023288002 -0.017838815 0.06948218 -0.038485967
000140 85 ed 8d bc 47 91 e0 bc 83 0b 0b bd 2f ab b2 bc
       -0.017325172 -0.027413024 -0.033946525 -0.021810142
000150 65 f9 4d ba dd 0a 0c be 20 39 b1 3d e4 d8 0c be
       -0.0007857292 -0.13676019 0.08653474 -0.13754612
000160 e3 a3 d0 bd fb ed 24 bc 22 bb f3 bc ba 5c a9 3c
       -0.10187509 -0.010066505 -0.029752318 0.020674098
000170 29 00 e6 bc 7b 26 99 bd 32 c8 53 bd b2 bb 2d 3e
       -0.028076248 -0.07478043 -0.051704593 0.16966131
000180 97 06 86 3d 7e 4b d8 3c e4 7b a8 bc 7f 1a 9f bc
       0.06544226 0.026403185 -0.020566888 -0.019421814
000190 5b 09 68 3d 3f 17 c4 3d e8 78 02 be 33 a9 48 bc
       0.056649547 0.09574746 -0.12741435 -0.0122473715
0001a0 80 7c f9 3c 37 9d 16 bd 0d a7 19 be 49 25 02 3d
       0.030454874 -0.036771026 -0.15005131 0.03177384
0001b0 7f cc 85 3d b7 20 a7 3d 16 0b e8 ba e9 df 98 bd
       0.06533145 0.08160537 -0.0017703499 -0.074645825
0001c0 04 3d b9 bc d8 f4 88 bd d9 d6 14 3b a0 1f 07 be
       -0.022612102 -0.06687325 0.0022711067 -0.13195658
0001d0 0d 68 fb 3d 44 43 4f bc 11 98 3f bd c1 c7 a2 3d
       0.122757055 -0.012650315 -0.04677588 0.07948256
0001e0 44 09 9d bd 5b df 81 bd 91 8d 50 bd 60 1d 91 bc
       -0.07667783 -0.0634143 -0.05091626 -0.017714202
0001f0 07 42 71 3d b9 6a 05 bd 5b ab 43 3e a0 9f 2c 3e
       0.05890086 -0.03257248 0.19108336 0.16857767
000200 b4 29 b4 3a 45 81 9a 3d 98 0e 14 3a 2c 73 84 3d
       0.0013745339 0.075441875 0.00056479266 0.0646728
000210 49 9f 87 3d 6b 31 48 bc 4b c5 e8 3d 39 02 97 bb
       0.06622178 -0.012218813 0.11365756 -0.0046084193
000220 3d 54 51 bd ed 05 85 bb 53 c3 d8 bc 9e 4f 96 3c
       -0.051105727 -0.0040595443 -0.026460325 0.018348511
000230 31 f6 4f bd 90 b3 da bc 36 34 83 3d 3a 4e a4 bd
       -0.050771896 -0.02669695 0.06406443 -0.08022733
000240 0c 58 04 3d 29 8e c9 3d e7 a1 2e 3d 6e 77 13 3e
       0.03231053 0.09841568 0.04263487 0.14401028
000250 0b 30 a0 bb eb ef 34 bd fa 56 38 3d 25 79 08 3d
       -0.0048885397 -0.044174116 0.045004822 0.033318657
000260 4b ba fc bc 8c 2d f6 3c 1d 19 d2 bd 18 67 09 be
       -0.03085055 0.030051015 -0.10258696 -0.13418233
000270 69 fe f1 3d c9 ae 90 3d 27 9b 65 bd eb e3 52 bd
       0.11816103 0.070645876 -0.056056168 -0.05148689
000280 8d a2 ce 3c 79 03 d5 bd b0 1d fe 3c 02 79 75 3d
       0.025223995 -0.10401053 0.031020015 0.059929855
000290 a9 20 f4 bc 1a 83 33 bc f1 0c bc bd 29 80 be bd
       -0.02980073 -0.01095655 -0.09182156 -0.09301788
0002a0 e2 77 19 bc ed 2d c3 3d b7 1f be 3d 8c b8 0e bc
       -0.009366961 0.09530244 0.09283393 -0.008710992
0002b0 5f 7e 1f 3d 30 56 7f 3d aa f7 cb bd 5d 72 45 bd
       0.038938876 0.062338054 -0.099593475 -0.04820477
0002c0 22 4a e0 3d 9b 66 5c 3d a8 13 dc 3c b3 33 5f 3c
       0.1095164 0.05380879 0.026864842 0.013623166
0002d0 04 79 2e 3d f9 1a 83 bd 3d ee ef 3c ce d3 40 3c
       0.04259588 -0.06401629 0.029288406 0.011769248
0002e0 11 37 91 bb 23 b3 e9 bc 94 d1 54 3d 71 d9 2e 3e
       -0.0044316133 -0.028527802 0.05195768 0.17075135
0002f0 b2 a4 1a 3d d1 99 7f bc f1 e3 0c bd 22 e6 b8 bd
       0.037754722 -0.0156006375 -0.03439707 -0.09028269
000300 0e 2f 44 bd fe 82 89 bd e8 e0 35 3e 8f 5a 9e 3d
       -0.047896437 -0.06714438 0.17761576 0.077321164
000310 9e b8 84 3d 85 38 ee 3c 4e 9f 70 3d 79 eb c2 3d
       0.064805254 0.029079685 0.058745675 0.09517569

weight f4 [200, 200]
000000 eb 18 0d be 64 e8 18 3c 31 ac 70 3d 47 37 00 3e
       -0.13779037 0.00933275 0.058757965 0.12521087
000010 c6 66 14 be e1 2b 51 be a8 b9 40 be b2 2b 46 be
       -0.1449233 -0.20426895 -0.18820822 -0.19352606
000020 97 2b 00 3d 65 e8 08 3d 30 ea 25 3e 2e f9 16 be
       0.03129157 0.033424754 0.16202617 -0.14743492
000030 a3 9b 2d 3d d1 04 1f be ec 42 61 be 2f fd ad bc
       0.042384755 -0.15529181 -0.21998185 -0.021238891
000040 7a d1 5a be df 7c 5d bd b9 ce 82 bc c8 6f 18 bd
       -0.21368971 -0.054074164 -0.015967714 -0.037215978
000050 9f 23 33 bc bc 55 4c 3e ff 4c 19 be 93 2d 10 3e
       -0.010933786 0.1995458 -0.14970778 0.14079885
000060 38 a1 a9 3d 3a 69 e3 3d 9d 26 30 be 5c b9 1c be
       0.08282703 0.11104055 -0.1720223 -0.15305084
000070 d8 24 19 3d 5f 4e 2b be 6e 76 bd bd df 28 4e be
       0.037388653 -0.16729115 -0.09251104 -0.20132779
000080 4b 11 c6 bd 52 64 92 bd 21 71 ad 3d 37 24 46 3e
       -0.09671267 -0.07148041 0.08468843 0.19349752
000090 f6 6d 18 be 01 fe 71 3d f7 1d 25 bd 75 47 84 bd
       -0.14885697 0.059080128 -0.04031178 -0.06458942
0000a0 7d 84 45 3e 6a 88 aa bd 68 c5 85 bd db ef c5 3c
       0.19288822 -0.083268 -0.06531793 0.024162224
0000b0 45 f4 b6 3d c1 b0 2e 3c b0 d3 21 bc 08 90 3c 3e
       0.089333095 0.010662259 -0.00987713 0.18414319
0000c0 05 8d b0 bd 95 1a 8b 3b 9d fd 99 3c ff f2 05 be
       -0.08620647 0.004245112 0.01879769 -0.13080977
0000d0 03 d1 d3 3c 76 f4 5a 3e 4d 67 42 be 2e 02 a1 3d
       0.0258565 0.21382317 -0.18984719 0.07861744
0000e0 f8 0e 51 3e de cd ff bd b7 26 62 3d 15 b2 21 3e
       0.20415866 -0.12490438 0.055212703 0.15790589
0000f0 c8 9e 30 be c1 cc 0e 3d c4 8c 01 be 78 db c8 3d
       -0.1724807 0.034863237 -0.12651354 0.09807485
000100 66 6c 17 be a0 ad 1f 3e bd 66 5a 3e 8a 66 eb bd
       -0.14787444 0.15593576 0.21328254 -0.11494167
000110 4b d4 07 3d 6c d8 16 3e e3 fb 43 be da a7 d9 3d
       0.033161443 0.14730996 -0.19139056 0.10627718
000120 80 2f a7 3d 48 58 45 be 59 3a 38 be 9a 00 6e bd
       0.08163357 -0.19271958 -0.17991008 -0.058106042
000130 a7 cf bf 3d cc 50 32 3e 87 fd 6b 3d d2 63 a6 3d
       0.093657784 0.17413634 0.05761483 0.08124508
000140 e8 43 11 3e bd 17 cd 3d 12 2f 35 be fd d8 0d 3d
       0.1418606 0.10014293 -0.17693737 0.034630764
000150 c1 1b a7 3d 47 89 6c 3d f9 07 99 bd 37 89 14 be
       0.081595905 0.057748105 -0.07472224 -0.14505468
000160 5f cb 71 be c6 db c9 3d 00 fd 2b 3e 97 14 a4 3d
       -0.23612736 0.098563716 0.1679573 0.0801174
000170 e0 ea ab bd b8 2d ab 3d 20 67 1d 3d a7 3c 98 3d
       -0.08394408 0.083583295 0.038428426 0.074334435
000180 05 6f ba 3d 2e b2 0e 3d 03 c2 ae 3d 8f 89 c4 3d
       0.091032065 0.034837894 0.085330985 0.0959655
000190 55 60 ac 3d 83 73 d8 bc ad 86 08 be a3 72 02 3e
       0.084168114 -0.026422268 -0.13332625 0.12739043
0001a0 a6 3a 1a 3e 99 04 73 bb 90 69 55 bc a8 be 89 bc
       0.15061435 -0.0037081598 -0.013025656 -0.016814545
0001b0 a8 cd 24 3d 79 90 21 3d 0e 96 95 3d 61 49 e0 bd
       0.04023519 0.03944442 0.07304011 -0.10951496
0001c0 e8 69 2d 3e ea c6 21 bd 1f 9c b0 3d 59 03 3e bd
       0.16934931 -0.03949634 0.08623528 -0.04638991
0001d0 7d bd db bd 99 8b ee 3c 18 05 63 3d 0f 7f 0c bd
       -0.107295014 0.0291193 0.05542478 -0.03430086
0001e0 a0 8f dd 3c 4b 1d 51 3e 61 c4 9c bd 4c 78 aa 3d
       0.027046025 0.2042133 -0.07654644 0.08323726
0001f0 b0 4b da bc bb f4 4f bd 8f 7f 5b 3e c9 21 45 3e
       -0.026647419 -0.050770503 0.21435378 0.1925117
000200 b8 d4 5b be b2 4e 0c 3d 4c 4a 47 bd 9f 65 be 3d
       -0.21467865 0.034254737 -0.04865484 0.092967264
000210 23 c2 4f 3e 20 7e 98 bd 6e d2 f5 3d 13 90 55 3d
       0.20288901 -0.074459314 0.12003027 0.052139353
000220 33 51 43 3e 63 7f c4 bc cc 4f 0e bd 6e 4d dd 3d
       0.19073944 -0.023986524 -0.03474407 0.10805784
000230 c9 c8 9e bb a1 82 38 be ab b2 7e bd f3 1a 36 bd
       -0.004845713 -0.18018581 -0.06218211 -0.044459295
000240 91 11 ba bd 6e 8a 88 bc 27 24 97 bc a9 9d 55 ba
       -0.09085382 -0.01666757 -0.018449856 -0.00081487984
000250 b2 56 f5 bd d7 9c 10 3e 89 d6 f8 3d 7b 54 d0 3c
       -0.119794264 0.1412233 0.12150294 0.025430908
000260 26 b9 d1 bb 3f 06 02 be a6 45 da 3d 45 c9 11 3e
       -0.0064002452 -0.12697695 0.10657816 0.14236934
000270 89 a2 27 bd 92 ac 0b 3e e1 22 ae 3c 40 6a 0c 3e
       -0.04092649 0.13640049 0.021256866 0.13712406
000280 51 32 25 3e c4 8a 6c bc d6 23 85 3c 4e ee f4 bd
       0.16132475 -0.014437381 0.01625244 -0.119595155
000290 5c ec 06 3e 8b e8 04 3e 77 e1 05 bc 0f d1 07 be
       0.13176101 0.12979333 -0.008171431 -0.13263343
0002a0 a6 eb f0 3d b6 eb a6 bb de 33 ce 3d fa 4b f3 bd
       0.11763696 -0.005094017 0.10068487 -0.11879726
0002b0 9e 4c 27 3e a8 fb 1a 3e b8 f6 42 3d eb 39 c8 3d
       0.16337821 0.15135062 0.04759857 0.09776672
0002c0 f5 2f 11 3e 20 36 3d be 50 0a ff 3b ce c2 a1 3d
       0.1417845 -0.18477678 0.007783212 0.07898484
0002d0 a7 64 da bc f4 7c 7a bd ba c8 0f be 4a 0c 1d be
       -0.026659323 -0.06115432 -0.14041415 -0.15336719
0002e0 4b 8e 57 be bb db 2c 3e 5b 72 f5 3d 17 8c 88 bd
       -0.21050374 0.16880696 0.11984702 -0.06667345
0002f0 ec 65 9a 3c c8 dd 31 be 73 3d d5 bd 8e fb 04 3e
       0.018847428 -0.17369759 -0.10412111 0.12986585
000300 66 96 e9 bd 14 8a 36 3e c3 bd 0b be 33 6e f8 3d
       -0.11405639 0.1782611 -0.13646607 0.12130394
000310 9d b1 8e 3d 29 ba 13 3e 78 07 96 bc a8 ab 20 3d
       0.06967471 0.14426483 -0.018314108 0.039226204
000320 bc 47 12 be d1 ba 14 be ca f6 ab 3c aa 11 ef bd
       -0.14285177 -0.1452439 0.020991702 -0.11673291
000330 26 eb 58 3e 9a 1f 22 bd f1 2a d8 bd a0 73 39 bd
       0.21183452 -0.03958092 -0.105550654 -0.045276284
000340 24 8d 43 bd a0 05 40 3e 7e 45 32 3d 35 f7 be bd
       -0.047742024 0.18752146 0.043523304 -0.09324495
000350 14 a8 74 3d e2 83 65 3e b6 f1 ae bd 1b 11 87 bd
       0.059730604 0.2241359 -0.085421965 -0.065950595
000360 81 dc 8c bc a0 e0 de bc b7 88 b1 bd fd 10 28 3d
       -0.017194988 -0.027206719 -0.086686544 0.041031826
000370 4a f1 2a bc ea a4 9d bd 38 09 f8 3d d8 98 05 be
       -0.010433504 -0.076974705 0.12111133 -0.13046587
000380 59 e2 69 bd 08 e2 ab 3d f5 e0 2c 3e 61 21 23 be
       -0.057100628 0.083927214 0.1688269 -0.15930702
000390 72 4e fa 3d ad b9 c8 3d 7f 5f 74 be 6f 07 85 3c
       0.122219935 0.0980104 -0.23864554 0.016238896
0003a0 57 10 54 bd 86 4b 2b be 5e 6f b1 3d 7f 47 17 3e
       -0.051773395 -0.16728029 0.0866382 0.14773367
0003b0 b5 06 f2 3b 80 d3 1d be df b6 b8 3b 55 0c fe bd
       0.0073860534 -0.15412712 0.0056370343 -0.12404696
0003c0 e2 39 a4 bd 0d a3 c7 3d 04 5c 4c 3e 73 43 28 3d
       -0.08018853 0.09747896 0.19956976 0.04107995
0003d0 8e aa 05 be 37 94 a5 bd 5b 31 b8 3d 80 3a 21 3e
       -0.13053343 -0.0808491 0.08993789 0.15744972
0003e0 0c a7 01 3e c8 83 1d 3e 8f 89 90 bd b3 22 87 bd
       0.1266138 0.15382302 -0.07057487 -0.06598415
0003f0 77 74 e8 3d c0 7d 84 3d d0 63 f7 3d 4b 31 e0 3d
       0.11350339 0.064692974 0.120795846 0.10946902

bias f4 [200]
000000 d4 ff 50 3d 45 8c f7 bd 20 9e 8f bd e1 21 cd bd
       0.051025227 -0.12087301 -0.07012582 -0.100162275
000010 e5 6d 99 bc 63 a3 b2 3d 2d ea b7 3c d4 63 25 bd
       -0.01872916 0.0872257 0.02245053 -0.040378407
000020 21 02 05 bd 24 c7 89 3b ac a3 ee bc 34 f0 98 bc
       -0.032472733 0.0042046476 -0.02913078 -0.018669225
000030 e6 cb 92 bd 24 a8 38 3d 71 6e 0c bd 8f 15 6c 3d
       -0.07167797 0.045082226 -0.034285013 0.057637747
000040 21 de c5 bd 13 1c 55 bd ec cc b0 3d 76 3c fe 3d
       -0.09661508 -0.052028727 0.08632836 0.12413876
000050 1f ff 81 bd 73 1b 20 bd 31 be 4f bc 85 23 67 ba
       -0.063474886 -0.039088678 -0.0126796225 -0.00088172435
000060 6a 56 ef bd b3 47 4f 3d 2b e6 99 bb cf 1b 17 3d
       -0.11686404 0.050605487 -0.0046966276 0.036891755
000070 28 4b 2c bc bd 05 d3 3d 9f 17 82 bd c5 d3 5c 3d
       -0.0105159655 0.10303829 -0.063521616 0.053912897
000080 de 83 8f 3b 84 ef 59 3c d4 bd ab 3d 27 4e 31 bd
       0.0043797335 0.013301734 0.08385816 -0.043287423
000090 cc 2e ca 3d 20 6e c8 3d 88 a6 08 be 96 f3 aa 3d
       0.09872207 0.0978663 -0.13344777 0.083472416
0000a0 70 cc 45 3d 81 94 21 3d 28 9d 03 3d 24 c9 51 bc
       0.04829067 0.039448265 0.032132298 -0.012804303
0000b0 68 b3 0c be 41 56 37 3b 85 5f 7a 3c c5 00 c0 3c
       -0.13740313 0.0027974995 0.015281563 0.023437867
0000c0 54 bd 74 bd 78 90 b8 bb 22 b4 21 3d ed 99 24 bd
       -0.05975087 -0.0056324564 0.03947843 -0.040185858
0000d0 39 b3 75 3d 2e 63 a9 3d b8 bc 65 bc 11 86 61 bc
       0.059985373 0.0827087 -0.014022045 -0.013764874
0000e0 3b 58 4c bc 39 c2 f5 bc 18 59 a6 bd 04 70 70 bd
       -0.012472208 -0.02999984 -0.08122462 -0.058700576
0000f0 f3 e7 f9 bc 48 d8 55 3c 6e 04 3e 3c 97 6c 94 3d
       -0.03050611 0.013052054 0.011597736 0.07247274
000100 b3 f6 52 3b 55 02 f4 bd 10 cd 10 3d 54 0d 17 3c
       0.0032190501 -0.11914507 0.035351813 0.009219486
000110 b8 db 27 bd 3f d0 5b bc 03 17 2a 3d e4 5e f1 3d
       -0.040981025 -0.013416349 0.041525852 0.11785677
000120 b5 bf 56 3d bc 21 91 3c 70 6b 2f 3c 5b 7d 31 3d
       0.05242892 0.017716281 0.010706767 0.04333244
000130 19 85 09 3d 14 be 98 bd c1 36 d3 3d 92 f1 97 bb
       0.033574197 -0.074581295 0.10313178 -0.0046369517
000140 b4 5c e9 3d 05 b1 80 3b e3 b4 55 bc d5 18 26 bd
       0.11394635 0.0039273524 -0.013043615 -0.040551025
000150 ea de 01 be f0 b7 23 3d 1e 72 ba 3d 53 c2 a4 bd
       -0.12682691 0.03997034 0.091037974 -0.08044877
000160 31 99 87 3d 2f 81 e8 bd 1a 5d 84 bd bc 25 b0 3d
       0.06621016 -0.11352765 -0.0646307 0.08600947
000170 65 e3 a4 3d 9e 77 e2 3d 5b 4e 96 3d 7e af 5a bd
       0.080511846 0.110579714 0.07339164 -0.05339002
000180 6e 16 e1 bd b4 9d 5f 3d 30 96 4f 3c 3d 05 81 3b
       -0.10990606 0.054593757 0.012670085 0.003937392
000190 cc 77 1a bd 4e 8f 8b 3d ca 1f 05 bd 77 b6 a8 bd
       -0.037711903 0.068144426 -0.03250102 -0.082379274
0001a0 e4 87 7e bc 36 86 0c 3d 70 2a 13 bd 82 f7 81 3d
       -0.015535329 0.03430768 -0.035929143 0.063460365
0001b0 ab f6 ba bd 26 97 a7 bc ce d0 1f bd d6 3f 93 3d
       -0.091290794 -0.020457815 -0.03901749 0.0718991
0001c0 0c d6 74 3d bc bb b7 3a 41 17 89 3c ad 1c 05 be
       0.059774444 0.0014017741 0.016734721 -0.1299922
0001d0 94 db 17 bc b6 ac 26 3d d2 dd 02 3e 25 af ff 3b
       -0.00926866 0.040692054 0.1277993 0.0078028613
0001e0 ed b9 57 3c ac 2c 8c 3d df 67 84 3d 1c 3e 5e bd
       0.013166887 0.06844458 0.06465124 -0.05425845
0001f0 97 52 fa bd ac 2f 5f 3d a3 a1 90 3d b1 e5 4d 3d
       -0.12222784 0.054488823 0.0706208 0.05026788
000200 2b dd 92 3d ef f5 11 3d 42 b5 ab 3d 94 28 9d 3d
       0.07171091 0.03563493 0.083841816 0.07673755
000210 c1 ee d4 3d 68 dd 0f bb f4 73 dd 3d e2 fb 96 3d
       0.10397101 -0.0021952037 0.10813132 0.073722616
000220 dd 75 1a bc 20 1d 7c bd 36 ae 17 bd 8b 50 db 3c
       -0.009427515 -0.061551213 -0.037031375 0.026771804
000230 d6 11 39 3d ad ea 42 3d 15 c0 ad bc 37 8e 80 3d
       0.045183025 0.047587086 -0.021209756 0.06277125
000240 e0 0c f7 3c e6 34 6b 3c c9 48 38 bd ec 5a d4 bb
       0.030157506 0.014355874 -0.04499129 -0.0064805653
000250 6c 7e a9 3c aa 90 43 ba 3e e3 92 bd b7 e0 f8 bb
       0.020690165 -0.00074602163 -0.07172249 -0.0075951475
000260 f0 19 0e bc c4 43 1e 3c bf e6 c2 bc 97 16 bd 3c
       -0.008673176 0.009659711 -0.023791669 0.02308206
000270 31 97 9f 3d 83 47 a5 3c 4e c8 b4 3b 1d fd 69 3d
       0.07792509 0.020175701 0.0055170422 0.057126153
000280 1a 34 ff bb b8 b3 bc bb c0 c0 af bd af b1 c9 3d
       -0.0077881934 -0.005758729 -0.08581686 0.098483436
000290 48 ac dc 3c 83 a4 88 bd 89 80 b4 bd 5b c0 02 bd
       0.026937619 -0.06672003 -0.08813579 -0.031921726
0002a0 2a 58 99 ba 20 12 97 bc ad a1 ae 3d 2d 64 a7 3d
       -0.0011699249 -0.01844126 0.08526931 0.08173404
0002b0 39 47 7e bd a8 61 bf bc c8 75 26 bc 93 f3 11 3e
       -0.062079642 -0.023361996 -0.010159917 0.14253072
0002c0 79 ae e5 3d c9 1d 05 bc 49 be 56 3b 95 50 05 3e
       0.11214919 -0.008124777 0.0032767227 0.13019021
0002d0 76 93 6b 3d 9e cc 0b bd ca 42 37 bb 93 31 b2 bd
       0.057513677 -0.034130685 -0.0027963393 -0.08700862
0002e0 c1 03 85 bd e0 7b 13 3d 4f 31 cd 38 4f 69 6a 3d
       -0.064948566 0.03600681 9.784346e-05 0.057229336
0002f0 c1 0d 58 3b 50 16 00 bc c6 50 96 3c 09 6b 67 3a
       0.0032967182 -0.00781782 0.018349063 0.00088279
000300 74 2a 4f bd df 7c af 3d 61 77 dc bc c8 b9 28 3c
       -0.050577596 0.08568739 -0.026912393 0.0102982
000310 fa c0 2e bd 4d 85 aa bd a3 5b 81 3c 9b 68 c5 bd
       -0.042664506 -0.08326206 0.015790766 -0.096390925
