net_param/net_0.05.pth (torch, 17999 bytes, 12 tensors)

hidden_layer1.weight f8 [20, 2]
00000000: 6525 6eea fa16 853f aa3d 49f5 a3f4 d3bf
00000010: 624b 2c7f b1ec b63f 1adf 1c57 1f3c e6bf
00000020: 81eb 5c27 2d69 d2bf 3934 5199 a3e1 e23f
00000030: eae2 0263 b415 bb3f 133e c7a4 756a d03f
00000040: 6dfd 77cf 2bfc e2bf 8892 fed3 f905 d5bf
00000050: 4483 4267 cfcc d43f c380 61c8 5aa2 953f
00000060: 4fde c23e 965a e2bf 5754 b48a b168 e83f
00000070: 2d2f bccc bd64 b0bf 817d 40ad 14ab dabf
00000080: 0623 7954 fe93 a6bf db75 1166 a733 e33f
00000090: 2101 6fd0 4b26 cebf 2b03 4a08 194e bf3f
000000a0: 21f7 4ba0 6a6e c9bf 70b5 4450 1e61 c03f
000000b0: afbf 670a b3cf e2bf 6462 d499 1aaf dc3f
000000c0: 2aec c2ad 4798 d73f 65e2 a8aa a698 d03f
000000d0: 39d6 2cfa ef20 e63f f577 a448 919d b23f
000000e0: 0bc5 713b e0d8 cfbf a23c 4e27 5774 ccbf
000000f0: 89ed 6ae8 87fa cf3f 80a9 5be3 bbad e43f
00000100: 91e2 c41f ebfb b63f 55e0 8ed4 fa15 d9bf
00000110: 59be 0373 4a7a dabf 3e9e 47b7 4f87 de3f
00000120: d812 8fc1 d1c3 92bf 4975 5094 fe07 d13f
00000130: 4e40 8a29 129a d7bf 01e9 37f6 c430 da3f
0.010297737387889591 -0.3118066687938731 0.08954915385065257 -0.6948391629621 -0.28766945690193074 0.5900438303448318 0.10579993645923094 0.25649777499799703
-0.5932826091883904 -0.3284897394426385 0.3250006206890712 0.02112714622524049 -0.5735579706005839 0.762779971034102 -0.06403719185271646 -0.4166919414437516
-0.0440978506199539 0.6000554078597661 -0.2355437057249299 0.1222854275929534 -0.1986821444224285 0.12796381873469498 -0.5878539279201415 0.4481874944918103
0.3686694332970456 0.25931708017336624 0.6915206800683286 0.07271678946969458 -0.2488060274368212 -0.22230042857379312 0.24983309601325868 0.6462077560984625
0.08978147054302556 -0.39196654088619215 -0.41371403915306854 0.47700875185407543 -0.018325116576096118 0.26611294254128787 -0.3687787442841043 0.4092266468502573

hidden_layer1.bias f8 [20]
00000000: 9db9 38f7 6310 d4bf d794 bdbd ad7c ddbf
00000010: 4e89 3f68 9b21 d53f 121f 32ea a6b3 b73f
00000020: d75e c06b e16d e33f 0df3 391c f842 e33f
00000030: c315 d949 eed0 e13f 05b4 0156 d9d4 ce3f
00000040: 518c 8f62 ae9f ce3f c7d4 6a8b 898a ba3f
00000050: 6604 83da 8a1b c43f e01d 29bc 777a e43f
00000060: 7068 81c0 f7c3 c23f e327 1908 28b2 e1bf
00000070: b874 3734 809e c73f ce76 4b8d a817 e03f
00000080: 4c7c 85f8 f880 b1bf da33 90dd 3a99 b4bf
00000090: 35f0 55c0 b2f8 a5bf 2461 bc51 e14f c4bf
-0.3135003961823715 -0.4607347824988443 0.3301762121247024 0.09258502214117595 0.607163153125806 0.6019249488159361 0.5567542497962495 0.24087063502830133
0.23924808323417548 0.10367641118758107 0.1570905272438125 0.6399496722232776 0.1466054620712529 -0.5529976041955219 0.1845245604480732 0.5028879890121176
-0.06837421481530831 -0.08046310338268317 -0.04291304204795702 -0.15868774882324843

hidden_layer2.weight f8 [20, 20]
00000000: 7549 edc6 d81e aebf c63b f4e2 84a1 313f
00000010: 9f5a 574f 7ade b13f c20b 188f dfb8 ce3f
00000020: 406b 270e 3417 f13e 7c81 6e51 8304 bd3f
00000030: 35f2 4673 e75c c13f 33b0 7398 804b a83f
00000040: 08e0 a9e6 fee0 c03f 1786 443b 8358 b93f
00000050: 89a0 eda8 b50e c3bf 06db 9159 15e3 9f3f
00000060: 6982 ceff de9b c93f 041d 6568 a2b2 b0bf
00000070: 2c51 7bc8 0c72 b33f 76f3 73bd f860 b7bf
00000080: 35f6 7a31 d7d8 cdbf 1eea dc19 c4a5 94bf
00000090: b34a f7a9 2857 a43f acb7 2469 3dc1 b7bf
000000a0: 4147 c2a8 9d59 993f d4ff db8c c98c b93f
000000b0: 8809 e6c6 68a7 66bf e885 93de 37fd c6bf
000000c0: a6aa 20f4 588e ba3f ffdb a8e4 518a c5bf
000000d0: dc67 9def 77f7 b73f cc1c 2ba8 936b c43f
000000e0: 23c6 3aaa e5a5 bb3f aba9 8210 bb50 a0bf
000000f0: cce3 0139 a226 bb3f 228a ac0c 5fa6 c03f
00000100: 8a23 f76f 4d6c cc3f 70ec 5ee0 e741 bebf
00000110: f655 2d9a 0055 c5bf 5fa0 5be4 65ae a93f
00000120: 2989 ee99 9768 b43f 15f6 4610 3864 c1bf
00000130: 4145 b445 917e c7bf 3e8b 2a05 a162 513f
00000140: 6009 8892 5293 c43f 3b55 d84c 425d c7bf
00000150: 88bc 4bed 897a b43f 51c4 621b 8bd0 c9bf
00000160: 7780 c2b7 ed5b b1bf f681 3f67 2ef2 a2bf
00000170: 0f9e 560c b2d4 b83f 5028 e1b9 1298 bfbf
00000180: 09c6 fd6d ebfe cebf 4575 3cf8 d778 8fbf
00000190: 27c1 f4d6 190a b33f ae38 712f 698a b7bf
000001a0: 51b5 bdf2 9c99 a93f ab94 d436 1393 adbf
000001b0: 575b f511 3ddd c2bf 7b5a 1e3d 0979 b83f
000001c0: 985d 75f6 4eca c3bf 1991 4323 e116 c0bf
000001d0: ea36 9722 892c bcbf 26e9 5bee 211f bbbf
000001e0: b985 c211 4e3a 9d3f b63a 0e4f ed0e 773f
000001f0: e7ab 370d ad0e b23f 11dd 0647 3242 b63f
00000200: f307 2b86 08e2 bf3f bb71 d93c 4807 d0bf
00000210: ff22 33e4 b958 a03f 3945 f50a 0a2c a0bf
00000220: 74da 1167 94aa a0bf d5a6 a87c 1a37 b4bf
00000230: df13 b6c2 460f c23f 48b2 269b 1722 c3bf
00000240: bee4 d8b3 3e2e a3bf a3e5 5080 6256 833f
00000250: a0f2 1169 57a9 c5bf c1b9 9867 6c1f 84bf
00000260: e94f 6d97 cdaf 903f 0a9f df55 d77a cd3f
00000270: 00c1 2b54 6c39 bb3f 6686 5037 dae2 b9bf
00000280: c398 20e3 9ace bdbf dadb e939 c282 ad3f
00000290: 839b 6377 bf5b bb3f 06e8 db06 aa79 c8bf
000002a0: 05e8 466e 9531 c2bf ed66 d5c7 296e be3f
000002b0: fb82 49fc 2150 bd3f 02e4 838a 6c54 b2bf
000002c0: f7f9 73a3 4a86 b63f fb77 981c 34ec c33f
000002d0: a8ad 5281 e85a b5bf 7b03 1f90 99bc b63f
000002e0: f3d3 5313 c649 c4bf 89ca 20d6 54d7 b03f
000002f0: 7998 723b b1f2 c73f c5ee f66a 2f8c bf3f
00000300: 83f2 72b5 03e1 9e3f dff9 7131 db00 c83f
00000310: 7e99 326a 2f0a c03f 12a2 b461 bb71 c03f
00000320: 7b67 0226 59d1 c23f c1d3 3c0b 99f6 ae3f
00000330: 1437 35f9 4e00 7f3f 5fea 9ce1 62d7 c8bf
00000340: 7eab 3df8 426e babf d3e8 e033 a174 8fbf
00000350: 6d51 6003 c877 c43f 3e4a 88d4 f8c2 c23f
00000360: 4298 d8f9 eb35 ba3f f689 1cf5 244c c23f
00000370: 101a a0f9 f331 c3bf 0649 f6a1 6d10 ccbf
00000380: 0672 05a2 7f6a c53f 5490 9b75 9d10 cb3f
00000390: 4929 89e3 4a1b cdbf 317b afa2 95bc bebf
000003a0: 68e1 535c a997 c73f db2e af37 08ff a73f
000003b0: ee1c a782 b110 c63f 4c1e 3009 90f4 79bf
000003c0: d220 9338 ac4f 6dbf a26b 748a 8eda c93f
000003d0: 2392 2590 c0e2 c4bf 7d0a cc44 352e cabf
000003e0: 0b61 dca3 df3b c0bf bfeb c2cf 7587 943f
000003f0: 0d68 fcfa e5e5 98bf d13e 6a07 7337 b4bf
00000400: e778 4897 b863 b2bf d633 365c 8600 9e3f
00000410: 6991 da4d 8a7d aebf 80f2 90fa 9a49 b6bf
00000420: 1045 6bb8 0200 a0bf 7583 be36 e3ae b4bf
00000430: eb55 21fc 13b0 abbf 76dd d3e7 47ca 86bf
00000440: 1206 81ce 0a83 a1bf b06e 23c3 1d0a c53f
00000450: 9be8 2c2d 52c4 bb3f 0499 76e6 7a5a 8f3f
00000460: f0da 7b85 2763 c0bf 3d6b 4983 a125 b03f
00000470: 0442 d1d0 76ae c0bf 6edc 020e 1bbc cc3f
00000480: 6ceb 6f61 e0ad a0bf c254 d1e5 6938 863f
00000490: fb67 d6ef 6519 c13f 3450 06e6 aad3 c43f
000004a0: 690e 054b dc21 c63f 84b3 1f61 8575 bcbf
000004b0: 4a5b 24a0 a148 cb3f 0c3e 82d3 f75a ce3f
000004c0: 3026 cf93 7ba3 cc3f aa57 218f cffd a53f
000004d0: a6c6 6ec6 9d1b cd3f 29c1 c7fe 379a ce3f
000004e0: 635c ab74 c36a c13f dde6 039a 3304 9ebf
000004f0: ddb2 8633 9dc6 c63f 7def 1f83 2f47 8bbf
00000500: 7797 3ef0 b6c3 c83f aa0c a2cf 7974 9abf
00000510: 5ea5 c756 e447 a2bf a43d 7662 7e9c bebf
00000520: 0bb9 a6b1 f6c8 b93f 5d28 4428 0a06 ba3f
00000530: 5ced 3c57 ba26 bcbf 32e5 1050 b429 cabf
00000540: 479e 4270 e450 c03f 6440 7d07 de7a a03f
00000550: 4673 2e0a 639f a9bf 96a8 07a5 a9d2 803f
00000560: c173 d65f 895e b43f e19b e034 30b0 be3f
00000570: 0603 abd4 1a1b bdbf 4424 b43e 423b d0bf
00000580: eefe fb83 7400 c8bf e861 5fda dfda c0bf
00000590: 9b57 6343 c8c8 b5bf 0211 3972 bf24 a2bf
000005a0: 83ce c3ce aee8 b93f 5c6e 6648 18ae ad3f
000005b0: d14f 6421 cd16 ac3f 3a77 6fc0 23ff 9bbf
000005c0: a8e4 de06 7529 b7bf 8f3c 4acf b692 d23f
000005d0: 1fe0 5020 6f33 b63f b639 727f e499 b43f
000005e0: 3280 eb99 4817 c63f 4d8f 9dbb 0779 cbbf
000005f0: 892c ae43 a462 a43f 1c92 daf4 7c19 b13f
00000600: 1151 ace2 8977 b43f 11f0 8429 43c6 ac3f
00000610: 8687 53e6 bc5f b9bf 74ca 548c 94eb c1bf
00000620: e89f 6262 547c a73f 5f36 90d0 9441 843f
00000630: 23c6 484c b52f babf 41e3 380b 815a c0bf
00000640: ca04 39e4 04fb c5bf 6b7f f687 d2b4 c8bf
00000650: e6da da7e b9a2 cc3f 3ece aba0 e2ce b9bf
00000660: 0ab0 5d8f d8aa a4bf 29d1 5d9f 76a7 b4bf
00000670: dc65 79e8 c8d1 b7bf 0636 9633 7c83 c5bf
00000680: ddda 062f 1054 c23f e6b7 ccbf 36b6 a33f
00000690: 3449 8488 5ed9 b13f ae02 2d74 932c c2bf
000006a0: f7bd 5227 1e16 cb3f f149 0c49 5b18 b3bf
000006b0: 944d 37bd 48a8 b0bf 6dea bc08 7a8a a2bf
000006c0: 3f59 f059 ac94 8e3f 55f2 821e 2358 c4bf
000006d0: 56bd c3b2 3c9a b2bf 1223 e578 d837 ac3f
000006e0: b5a3 987b 9a07 a9bf 017c aec9 066f b6bf
000006f0: 3032 1a96 c843 a33f 9e62 00b6 8cd8 c8bf
00000700: badb 8b04 fe22 ba3f 4621 fd86 be34 b8bf
00000710: 5590 e852 b31d b8bf 80d4 1d82 bb40 b73f
00000720: 3a73 c01e d447 8dbf 569e 906e cc8b 84bf
00000730: 4d85 62a2 4ab4 c5bf deec 69bb bd63 b43f
00000740: a9c4 6e90 881b c53f 013a cf24 2c76 993f
00000750: 40bd 5657 c784 c43f 4018 b5b0 e381 a8bf
00000760: 8b49 4691 5677 bd3f 6a83 87b3 54bb bfbf
00000770: e8ee c720 cda0 b13f 241b 9008 0ea3 bb3f
00000780: 2ccb f522 08f7 ba3f 836f 22e9 3e9d c8bf
00000790: 913a af51 3825 c03f 1bcb 2232 482e a83f
000007a0: 857d 0977 2422 a8bf 5a7d c361 8dcf cebf
000007b0: 0a2a a02c ba7f 97bf a633 c891 aaa9 bb3f
000007c0: 1ca7 a91f 5757 ccbf d95b b6e9 5b5a b03f
000007d0: cc2c 1d08 a667 b93f 3a9f f6ce f0fa 983f
000007e0: 9a1b 5054 dcb8 b2bf e940 913e 9296 c83f
000007f0: 5ac0 f5fa 43b7 c03f 6502 d2e6 b049 c2bf
-0.05882909229571257 0.00026902670192979446 0.06980099141160644 0.2400168846798732 1.6298902559923377e-05 0.11335011232450215 0.1356477082134845 0.04745103703484723
0.13186632407064303 0.09900684544529557 -0.14888640163849612 0.031139691917327482 0.20006930819092197 -0.0652257447119276 0.07595901388714726 -0.09132341981235279
-0.2331799499133226 -0.02016359718184379 0.039727469203758935 -0.09279235665300573 0.024755919862008872 0.09980449379872819 -0.002765373842693101 -0.17960260742169898
0.10373455009600238 -0.1682836882116305 0.09361981964084926 0.1595329829344564 0.1080001392936301 -0.031865926518850195 0.1060582532098941 0.13007724875304044
0.2220551296907412 -0.11819314220240229 -0.16665656593492856 0.05015867626735892 0.07972095020389659 -0.13587094111237322 -0.18355003264927386 0.0010611126387309456
0.16074592738011528 -0.1825335383625005 0.07999479335170367 -0.2016767390937582 -0.06780896889040543 -0.03700394640305042 0.09699547578076582 -0.12341420209955456
-0.2421545302454862 -0.01536720968538908 0.07437287805510505 -0.09195573242434094 0.050000099784350945 -0.05776271862331702 -0.1473766648948309 0.09559686414864103
-0.15461146387199842 -0.12569822522994725 -0.1100545606088549 -0.1059437949115006 0.028542728265738868 0.00562946985964057 0.07053643772785244 0.08694757684758182
0.12454274440372597 -0.2504444689018574 0.03192692671433938 -0.03158599265828816 -0.03255141981292278 -0.07896581214358929 0.14109119899163056 -0.14947791171779756
-0.0374621958293999 0.009442109623807598 -0.16923039083839786 -0.009825560485379083 0.016295635573740617 0.23031131451647752 0.10634495787576626 -0.10111774301960849
-0.11643379254437307 0.057638234681625725 0.10686871208927866 -0.19121289572632366 -0.14213817486398753 0.11886845711469692 0.11450397881845824 -0.07160070783346842
0.08798662653496324 0.1556458606364116 -0.08341839940356144 0.08881530541022002 -0.15850139564250262 0.06578569629417975 0.18709388163296461 0.12323280679168665
0.030155237149971825 0.18752612985913594 0.12531082806999544 0.12847082396298554 0.1470138011543972 0.06047514211824235 0.007568653574095103 -0.19407306686646827
-0.10324495850151824 -0.015359172244746954 0.15990543522697057 0.14657507302816158 0.10238528108365677 0.1429487416108512 -0.14996194542636987 -0.21925135048201855
0.16731257830805663 0.21144455187379896 -0.22739540205140887 -0.12006507131398504 0.18431584366022524 0.04686761550655457 0.17238444213419463 -0.006336748733708552
-0.003578029984598976 0.2019823242233914 -0.1631699279634101 -0.2045351587222121 -0.12682719708460186 0.020047989660024742 -0.024314492649047326 -0.07897108965903078
-0.07183412259516651 0.029298877123028998 -0.059551546100268755 -0.0870606290563476 -0.03125008107384464 -0.0807935722973648 -0.05407774403344575 -0.011128007662121613
-0.034202897747047115 0.1643712237190491 0.1084643707553447 0.015309295805149954 -0.12802595155491003 0.06307420211070976 -0.1303242225281026 0.22449052986278012
-0.03257657231730246 0.01084978802297554 0.13358759127441985 0.16270958167717853 0.17290834105562006 -0.11116822835147216 0.2131540328925559 0.23715112521721016
0.22373909680600113 0.04295204755969391 0.22740528287026968 0.23908138218349365 0.13607066342112537 -0.029312902713150336 0.1779362203209506 -0.013319369496450179
0.19347273569763576 -0.025834945009148548 -0.035704742043729296 -0.11957540420393414 0.1007227119177722 0.10165465815603754 -0.10996594075998217 -0.2043977156588795
0.12746863824325969 0.03218740312024762 -0.050044150345661495 0.008214307164014206 0.07956751432216348 0.1198759202094233 -0.11369483654108245 -0.2536168682423219
-0.18751388973759425 -0.13167951739048012 -0.08509494443145942 -0.03543661374399855 0.10120670841188865 0.057968863332658244 0.054861460043099115 -0.027340468044591427
-0.09047633569470526 0.29020471804774045 0.08672232188189398 0.08047321425895046 0.172585559040273 -0.21463104878341213 0.039815076123965794 0.06679516771198063
0.07994901451121829 0.056200121706268764 -0.09911709426117285 -0.14000183918104236 0.045870434770506396 0.009890711417052942 -0.1022904692879583 -0.12776196525535435
-0.17172299522102313 -0.1930182613259562 0.22371596044623415 -0.10081306860575354 -0.040365951061943475 -0.08068028822691943 -0.09304481197013764 -0.16807510870823722
0.14319040580968237 0.03849955645851803 0.0697230418484523 -0.14198535130164686 0.21161248130873364 -0.07459040196798818 -0.0650678121522133 -0.0362127433458753
0.014932009215084306 -0.1589397334081634 -0.07266597141619022 0.05511356807489255 -0.04888613470786344 -0.08763163017145816 0.037626522372282145 -0.19410857092659212
0.10209643946642091 -0.09455481334328394 -0.09420319341785562 0.09083148886368697 -0.014297158421010193 -0.01003226959626528 -0.16956456116626342 0.07964692903071888
0.16490275432946547 0.02486485457102994 0.1603020836314304 -0.047865977593162246 0.11510220572225742 -0.12395219214478251 0.06885988283459776 0.10795676907592316
0.1053319058753856 -0.19229875930329507 0.1261358641481434 0.0472281037522377 -0.04713548615540745 -0.24070899270644014 -0.022948178266270637 0.10805765208370008
-0.22141541524916242 0.06387876945369388 0.09923780153364986 0.024394762641946267 -0.07313324983998229 0.1920950704102389 0.13059282068161587 -0.1428738715221868

hidden_layer2.bias f8 [20]
00000000: ea7f 069a 6909 9abf e049 337d 1d0a c6bf
00000010: 14ca 92bc a2c1 b2bf 1ee7 e09e df5f c23f
00000020: 73a6 7397 7442 9ebf 00b3 38e2 2b6c 8e3f
00000030: c6cb 17e7 a947 cbbf bbee 3d78 0cb6 b1bf
00000040: 5c7e be34 62ae a73f 3070 2334 49e4 c2bf
00000050: b778 dc3a 8462 c0bf 9175 6263 4e14 c23f
00000060: 7900 1336 9a3e c63f 1a4c 22ca eae7 b3bf
00000070: daf4 589f 6052 bfbf e370 b702 3d38 c0bf
00000080: b7a0 8527 c5cb 90bf 4268 9a26 a32d adbf
00000090: bdf8 04da f96c c1bf 826d 0356 9013 c53f
-0.025426530862773612 -0.17218369115160126 -0.07326714614718127 0.14355082757702403 -0.029550382369882344 0.014854758111221056 -0.2131245020278511 -0.06918409286111686
0.046252316416254685 -0.14759173436948592 -0.12800648569186077 0.14124469616664873 0.1737854732546145 -0.07775752482329815 -0.1223507298500012 -0.12671625740666234
-0.01640232137415928 -0.056988810026453965 -0.13613818307380213 0.1646595401751761

hidden_layer3.weight f8 [20, 20]
00000000: c93a 80b5 89c1 c8bf 1c03 0bfb b258 c9bf
00000010: 53b6 883f 7b36 c1bf bb47 1ea2 c5e8 b8bf
00000020: f1f3 8485 cd04 b93f ecc2 5f57 15ca b63f
00000030: cce0 648a 5d51 8f3f 5c0f 208c 2d6f 99bf
00000040: 4026 99e7 6943 cabf acee 90ba ad49 c1bf
00000050: b61d d9fc aee9 cb3f 9659 2708 45e1 c13f
00000060: 56fb 2bf1 2f9e 47bf 88eb 5adb 562b c6bf
00000070: 3213 165d ef95 bbbf a66a 4352 efbb cd3f
00000080: 9efc 10dd 8b18 ba3f bbde 508d 9737 61bf
00000090: f35e 633d 1903 c23f 1e61 8c15 7676 bb3f
000000a0: ebd7 2825 c236 c3bf f547 c446 b649 b2bf
000000b0: 5676 b4c5 5524 b8bf f114 0bb7 802d adbf
000000c0: 27a0 85b0 c84c 8ebf 81b8 93f4 4c2b c23f
000000d0: 2292 f894 cc5d bb3f 2bf9 02af 1960 b43f
000000e0: 993a c86d abe6 c9bf d6e7 9c57 36b8 b23f
000000f0: 31ba 4bc1 306a b6bf 088a 3bf9 d132 b43f
00000100: 1b01 9c3a f8f7 b5bf a1d8 61bc 72d7 afbf
00000110: 72cc 9cb9 e526 c6bf 7443 c6e5 046b c63f
00000120: bb87 82ab 027a 80bf f664 727a 81b8 af3f
00000130: b202 970d 95e3 b33f 0379 87a1 2163 d0bf
00000140: 4c22 94cd 6a30 b13f 9282 4586 4acd ae3f
00000150: b07a e5bb 60ee cdbf f810 6359 fcdf 603f
00000160: 07a0 0b23 67d3 a23f b642 d738 7d05 ba3f
00000170: d21a 3a58 6858 ac3f bc87 36b3 1f5f c6bf
00000180: 7d65 4947 66d7 d0bf 36ec c17a eebe c1bf
00000190: 505f 269c 5c2c d03f 38c7 b90d 9100 c1bf
000001a0: 8fac 380f 5daa 6dbf 4a5b ee1a b220 afbf
000001b0: 62f0 5d0b 219f 79bf 87d6 ebcf 662c c93f
000001c0: 7dcc 24a1 cfae c6bf 553a b4d8 388b 883f
000001d0: c32d f326 a65f b13f 593c 0d9c 8f59 b33f
000001e0: 1e6e c365 40ac c9bf f7e4 1280 3287 803f
000001f0: b715 de06 5344 c83f 2433 2918 fa20 c4bf
00000200: a5d5 4c07 7d9d ab3f 6371 4977 814e c33f
00000210: 8719 f53a ab0f b6bf 8209 3d3f 11d8 8d3f
00000220: f7ea 64d0 500d c5bf 8bac 484a 909f c03f
00000230: 513f 339e b3d5 b6bf 9b79 db4a b96d ab3f
00000240: 2b46 dbb4 da3c a73f 80ab 4959 6219 c0bf
00000250: 7c11 cb47 d37c d13f 3caf e5b2 9d63 c8bf
00000260: fd91 9af6 92d3 c1bf 6747 fb89 ba70 b03f
00000270: 0ca5 5731 6b30 af3f ba7b 66fe d786 b43f
00000280: c317 c1cb 4a53 7abf b516 5163 5d29 c5bf
00000290: 883a e9b5 ac06 bebf a039 7aec 4011 a2bf
000002a0: 0661 63c6 0086 5c3f 3577 4e8d c0c6 bf3f
000002b0: 9bc7 9691 4a7f c03f de71 3ec7 8aa3 c93f
000002c0: 4082 4313 dd4c a13f 3476 5424 763c acbf
000002d0: e315 fee2 8080 bfbf f841 6b38 09ac af3f
000002e0: 5557 70c4 6cf4 c83f e136 e52d c20e c5bf
000002f0: cfa7 f58d 98e7 9cbf cf50 fb18 116e 813f
00000300: 82c9 8a13 af66 c63f de72 9526 95a9 c93f
00000310: 1065 e411 91fc cd3f 7d56 c311 a65c acbf
00000320: 8084 56e1 0bac 9cbf 5526 4ee4 3f99 953f
00000330: 757b f891 1792 c63f ff29 5125 9921 afbf
00000340: ebef ada9 65a3 c63f 57a9 657d fea5 c83f
00000350: 7083 4a22 7cca b9bf d8a6 c3c3 7766 a5bf
00000360: a22c 2147 4569 ba3f 81c8 166f 1846 c73f
00000370: 1f14 6b0d a399 b0bf 6bff 70a7 9b5b c43f
00000380: 2724 22e6 9244 71bf 1e51 73aa 8435 babf
00000390: 14aa 2b49 5d4b abbf f760 9108 9f28 cdbf
000003a0: 1631 5c95 1a38 a2bf 9d63 6339 e743 b53f
000003b0: 18fb aff6 b5e4 bcbf de1e 300d ea78 913f
000003c0: f924 77c2 10e8 b43f bf0e 3fdb d470 cebf
000003d0: 17e0 8e9e 9e33 86bf 61af 2c8c f2ca b43f
000003e0: 4061 2fd3 b79c be3f f4a0 2f69 f29c c1bf
000003f0: 2806 a4cf 1620 d1bf 9e5f 2701 6387 bd3f
00000400: 4842 4954 0bee c1bf 6152 ac0c 6286 b83f
00000410: e438 5755 b712 c4bf f35a 25a5 662d d33f
00000420: efff 6384 b64e b23f 2adf 2818 ac0b c03f
00000430: 33aa 9181 c5ae d1bf 9dcf d8a0 d95c 87bf
00000440: 530a 2cc7 437f c53f 31ec fe67 6d26 b4bf
00000450: 31b1 3714 a0ac a13f ce65 4c8e bec0 bf3f
00000460: 8c85 b41f c0a8 c8bf 1caa aa0c 0d19 c4bf
00000470: 58d9 c6f5 6264 8fbf 5868 823e 28b3 b4bf
00000480: 6711 ced4 109f b5bf eb84 1c2d d498 9d3f
00000490: da87 f9a9 4d22 cdbf 750a 9e69 ce53 d03f
000004a0: fb01 de29 3d6a 87bf 72e7 b584 9a49 9dbf
000004b0: 5990 c740 5448 bc3f 1398 2341 6a19 b0bf
000004c0: 92b4 186e 33f8 b5bf 8528 e71a 3e0e b23f
000004d0: 9a66 80e0 2db9 933f da01 bea8 d510 ba3f
000004e0: 0192 8610 3bc2 96bf 780c f9af aba0 a83f
000004f0: c9af db2a e2aa c43f c2c3 1360 937e bb3f
00000500: f2d3 dac6 6f8f 8bbf 0f0e 2f24 7010 ad3f
00000510: d815 50fc c90e a4bf 8f18 28f0 d372 a3bf
00000520: c94f 4d88 c5dd c9bf 36c8 a53a 1c25 b3bf
00000530: 78ab 5922 0537 c5bf a06f c018 d3f9 a2bf
00000540: 65f3 06eb 8dcb 97bf fa55 1e64 d403 c03f
00000550: 76e0 8678 d445 aabf 7cf1 6020 7335 c73f
00000560: e8bf 211f 3f8d cd3f c642 a1b2 92c8 b03f
00000570: 5797 a672 24d1 983f e708 37e4 6296 96bf
00000580: c421 4b1b bfec bf3f cd69 2a14 6abe b13f
00000590: 196c 619e 94ae 933f 758d 2415 a9c9 c63f
000005a0: 4d9d 1d0d dfe3 88bf dd53 7455 4b16 a43f
000005b0: 48d5 e1d9 0b18 c7bf 9848 408c b578 8bbf
000005c0: 9512 bf7a 42e7 ca3f 2492 f34f 35bc bbbf
000005d0: c266 7b05 166a c23f 9069 feec 7674 8d3f
000005e0: a621 0657 4348 b13f 7b3a 90dd a735 a23f
000005f0: 2da6 7f55 2b9a bebf 3ec7 d01c 3509 9d3f
00000600: 8c73 fdfd 9daa a8bf 2b34 2bb1 d3e5 d23f
00000610: 8bb6 c25a 50ea 983f b244 6c39 c099 d13f
00000620: d347 4dab 4c1e cb3f 36bf 7e55 20bf c93f
00000630: 3ba8 48fe e9a4 b93f 91c8 a57d b228 cd3f
00000640: 5695 65d3 9242 a53f b4a3 f1af 5b6c aa3f
00000650: e8f9 5c0c 48bc a73f 68aa ad4d d1ac b0bf
00000660: b125 76ed 0118 acbf 33d8 d43f 0b42 bcbf
00000670: dac8 5b3b 21b7 b4bf 975a 1e92 1e53 b1bf
00000680: 76be 8e92 a4f9 993f 915e a715 de87 8a3f
00000690: f4af 0377 e912 9bbf bcf1 2839 737c cabf
000006a0: 6330 6cec ef64 c1bf 18fc 609b a7e0 c2bf
000006b0: 78c9 4840 c744 c33f 6afe 80eb a58f b43f
000006c0: d9a1 bf62 0a30 c53f 9cfc 41f4 4231 ca3f
000006d0: f767 21db ac87 b73f f893 3568 55b3 603f
000006e0: 9359 070a 1755 d2bf 36de 1ef4 6311 95bf
000006f0: 9f41 5bd3 3854 b03f 491b 5c50 c0f7 b83f
00000700: ffd5 0469 340e b63f 87b7 6ea2 499e c63f
00000710: 5bf5 f199 36c5 c6bf 7743 e91d 84d0 c83f
00000720: 02cd 6d60 73c4 c23f 0f10 490c 3b28 9b3f
00000730: 6271 c5dc fa3e c43f 77b6 2b0c 24e9 cd3f
00000740: e6e2 980a cb3a cabf 8b3e 1e80 95e1 babf
00000750: e64f 5d33 ba84 c9bf 4122 666f b7e8 723f
00000760: f24b 268e ba93 bebf fdde 1032 1155 9e3f
00000770: b9de 317d 127f b73f a3a6 d6c1 7f3e c0bf
00000780: 2d5b efd6 3226 ba3f 5838 7500 e4e3 b6bf
00000790: 18f9 7cbc af7b bd3f c645 bf2b 2d6e a9bf
000007a0: d0e1 c963 877c c63f 2bc7 e42d 1828 c0bf
000007b0: 4f50 3838 8b4f c9bf a657 e462 73f6 bbbf
000007c0: 5ced 019c 0ed4 cdbf e7e4 6442 2a68 c33f
000007d0: a301 0a37 6518 c6bf c81b 1c0d 62f6 9ebf
000007e0: 2ca2 5527 f3e5 af3f 5f77 684d 7a4b c13f
000007f0: 6280 2cf6 2665 bd3f a09f d1d7 5f1a cbbf
-0.1934063087687348 -0.19801938302955413 -0.1344751415467039 -0.0973018189236247 0.09772953519582452 0.08902104743152578 0.015291910921050443 -0.024838172605100226
-0.20518230255611236 -0.13506099328684706 0.21806895586108305 0.13968718431597144 -0.0007207616893934825 -0.17319761000348088 -0.10775657675374076 0.23229781643643327
0.10193704745414542 -0.002101703643827194 0.1407195615527069 0.1072763254745763 -0.15010859312468425 -0.07143725612357328 -0.09430442883282217 -0.05698778376021519
-0.014794891249678766 0.14194642965543738 0.1069000114153558 0.07959137461418624 -0.20235197887855774 0.07312335623728869 -0.08755783766876203 0.0789004548528639
-0.08581496649640423 -0.062190614219546754 -0.1730620533286103 0.17514096469360718 -0.008045216425958892 0.061954542348027816 0.07769137937340068 -0.2560504987176417
0.0671450378323552 0.06015999688202557 -0.23383721518162792 0.002059929723232764 0.03676912596512243 0.10164625776020383 0.05536199643124963 -0.17477794886241138
-0.26314694367973585 -0.13863926881808347 0.25270762681019665 -0.13282979173851017 -0.0036212747161435475 -0.06079632357357541 -0.006255272941299324 0.19666752960590747
-0.17720980995509086 0.01198429499939128 0.06786573840070446 0.07558534202438362 -0.20056920021930663 0.008070368321897876 0.18958509288147038 -0.15725637607320053
0.05393591608155227 0.15083330463938713 -0.08617658795728832 0.014572272055038086 -0.1644688622999053 0.1298694956506988 -0.08919832813557817 0.05357150114808747
0.04538615663262776 -0.12577466354136035 0.2732437325578514 -0.1905400393983373 -0.13926922837448777 0.06422010296526325 0.060916280530202455 0.08018255196519322
-0.006427089854758652 -0.16532485341502015 -0.11728934708774308 -0.03528788458526155 0.0017409331863316737 0.12412646722665673 0.1288846217044551 0.2003034088965156
0.03378954754021324 -0.05514878457527708 -0.12305455724534613 0.06185940564830966 0.19495925513973114 -0.1645128940676193 -0.028227218307996623 0.008510716986542736
0.17500866369443818 0.20048775085424259 0.23427022336617442 -0.055394353550281196 -0.028000054958856158 0.021092413243911718 0.17633337619278291 -0.06080320911913261
0.17686148438576707 0.19256573794275297 -0.1007459243505886 -0.0417973925085115 0.1031688021331996 0.18182664322154454 -0.06484431340784667 0.15904565502023202
-0.004215787719780407 -0.10237912331951235 -0.053309359724000555 -0.2278021613917713 -0.03558428834193898 0.08306737090187118 -0.11286484978334632 0.017062813811235304
0.0816660380143225 -0.2378183432139078 -0.01084064408665601 0.0812217323515916 0.11957882791410146 -0.1376021398166426 -0.2675835635892292 0.1153470876519109
-0.14007703414474038 0.09580052194025647 -0.15682117144610352 0.29964605453044085 0.07151356441681832 0.12535620860739388 -0.27629220631812074 -0.011407566281469711
0.16794631219097997 -0.07871135510406259 0.03452015158458933 0.124034795513942 -0.19264985607246066 -0.1570144950722615 -0.015328190923224724 -0.08085872198208344
-0.0844584006827681 0.028903308156377355 -0.2276093559221966 0.2551151305598645 -0.011433103408990944 -0.028601087903985918 0.1104786546853246 -0.06288780298527312
-0.08581849515822373 0.07052982479868504 0.01926109011410535 0.10181937570269586 -0.02222530639996201 0.048100819808063855 0.16146494953807025 0.10740014167437464
-0.01345717740637473 0.056766037384957106 -0.03917533116331712 -0.03798544222449706 -0.20208043246623067 -0.07478500778032146 -0.16574157883891494 -0.037062260409782555
-0.023237435789030942 0.12511687172506908 -0.05131401034617593 0.18131865578642337 0.23087300319775683 0.06556050168115765 0.024235314843870395 -0.022058053187500894
0.12470621506066154 0.06931174270940872 0.01922065941503712 0.17802918941843485 -0.012153380000838121 0.039232591802068596 -0.18042133463647247 -0.013413828222870003
0.2101824855182214 -0.10834058000507035 0.1438624884383924 0.01438229475734401 0.06750889658554246 0.03556561069136862 -0.11953993642205125 0.02835543621421909
-0.04817670560326012 0.2952775221027106 0.024331336536013864 0.2750092087527022 0.21186216701840851 0.20114521193090135 0.10017263849354745 0.22780448088775931
0.041523540787958765 0.05160795710327851 0.046358348378351455 -0.0651369871754156 -0.0548706629152308 -0.11038275059112905 -0.08091933917220065 -0.06767455165241142
0.025366374440351135 0.012954459224530342 -0.026439330948889464 -0.20692291537296892 -0.1358928589255611 -0.14748091780526873 0.15053644789584175 0.08031689643484588
0.16552858182627864 0.20462834288261866 0.09191398954263251 0.0020386379343784143 -0.28644348124853386 -0.020574151778161652 0.06378512535162038 0.09753038370045632
0.08615424694001915 0.17670555526040863 -0.1778934718785575 0.19386340580470193 0.14662019928400843 0.02652065527423991 0.15817199497076745 0.2336773929049973
-0.20491922395174028 -0.10500463846096346 -0.19936301715881583 0.0046164670405990935 -0.11944166155289773 0.0296213805015375 0.09178271824373042 -0.12690731968659916
0.10214536426006467 -0.08941483508280734 0.1151685557533465 -0.04966870459578447 0.17567531940927816 -0.1262235855188519 -0.19773998494258868 -0.10922928966860343
-0.23303396813922006 0.15161636583233148 -0.17261948764281695 -0.030236751604231477 0.06230125289113561 0.1351158979386424 0.11482470998862618 -0.21174238241223708

hidden_layer3.bias f8 [20]
00000000: 8d9c df45 7b77 ab3f abbb 1ee5 86e1 c03f
00000010: 812a 3c48 abed b6bf 7152 99f2 a85e 9ebf
00000020: 074d f86b 26cc a13f 082b 2749 eb80 c7bf
00000030: ed03 4275 d716 c3bf 438f 7b1a 550c b6bf
00000040: 3fb1 90b7 7cd0 c83f 59ac 8b8f 68a4 c33f
00000050: 36cc 7a6c 5f56 c93f bcd8 3215 77e7 7a3f
00000060: 4d57 db83 89ab c3bf 7b26 ee5e 715e bb3f
00000070: a0a6 5153 4306 b43f cab1 e665 e9ed bebf
00000080: 4916 e55b 0eb8 c5bf 2796 754f c1fb c5bf
00000090: 2e4c e829 daaa a7bf 92c9 bbe5 d4fd a8bf
0.05364594676921639 0.13188253581526274 -0.08956404222059612 -0.029657974059164652 0.03476066654197934 -0.18362179824756475 -0.14913457131845523 -0.08612567802952946
0.19386252368111376 0.1534548474222415 0.19794838711604407 0.006568398635115876 -0.15367239893265108 0.10690983359941157 0.07822056564477942 -0.12081774461575559
-0.16967944609693777 -0.17174545650338865 -0.04622537385525792 -0.048811581653256955

hidden_layer4.weight f8 [20, 20]
00000000: f99c 74f8 fa3f b9bf 7dd9 9e92 a526 b33f
00000010: 3a36 cca6 b03d ae3f 6352 9d6f 8f37 b03f
00000020: 527d 1454 adda b83f 8491 c4cf 2b19 d03f
00000030: 95a5 27d0 4632 bbbf 4571 b2ce 67db ca3f
00000040: 5f86 2766 bbd1 aa3f 7c83 e5c9 7149 763f
00000050: 0f8e 4d31 4aef c7bf dba2 12f1 3665 93bf
00000060: be38 da80 9ad3 b63f 1c4f d3d1 9cdd c8bf
00000070: cac3 42f2 92f2 b83f 1039 d26a ddf9 b3bf
00000080: 11a3 ea45 6e18 cdbf 046a a83c 8da2 b63f
00000090: f59b 8ded 2e7c 8ebf 93cc 4554 bed0 b23f
000000a0: b7ba 2025 bc2e c33f c581 d79b ffbb 92bf
000000b0: 9d2b 0720 e56d c93f 0fe3 d8a1 2770 a43f
000000c0: 04e0 5ea7 36ef babf a812 5530 5c1b c8bf
000000d0: 4f9f dba6 eb1c 813f be14 a22a abfe 8a3f
000000e0: 3801 8f58 ee1f b0bf 613c f6f9 ffb6 c43f
000000f0: 7fe5 b1c6 0b51 cbbf d84f 4932 32c1 96bf
00000100: 831b c4c9 b235 c4bf 021b 793a 16d8 b03f
00000110: a8e7 edc9 680a 923f 5c2f 76e7 2f18 c2bf
00000120: db65 9ce7 a9b3 b63f 5aea 7b7e 71fe bf3f
00000130: b9df 4293 d3b9 c5bf 290b e742 1829 b9bf
00000140: 99fd 1ba3 c1e9 a1bf 86b2 b8cd 3c0c cf3f
00000150: 4fb5 8b4e 851d 9ebf c119 37d1 ecf6 b9bf
00000160: b3e5 e5e3 d592 a4bf 7acd 2bc7 c2fb c4bf
00000170: 593b 0077 904d ccbf 3d18 ccd1 c3db c43f
00000180: a4f4 a18f 32f6 c23f 1864 ad7c 00fd d33f
00000190: 294e a4c4 fc59 b1bf 8cfe 208c 0a84 b83f
000001a0: 7b34 80b3 a530 b83f 8602 cfa9 6552 c53f
000001b0: 728f 2b99 5b0d c2bf 53c1 d6fc 3408 9d3f
000001c0: c8af 7361 3dfb c73f 0417 dcf0 18e0 c53f
000001d0: fb1f 977a f2f2 bebf bb2e a51f 31fc 6f3f
000001e0: aca6 4347 3319 83bf f2ad b408 a9ec d03f
000001f0: e212 342d c407 d2bf 177f 0b4b a0d5 d33f
00000200: 3e57 16a7 e52e c03f 08e7 0b7e d057 b13f
00000210: b97c 437e 1612 d1bf fc1d 2bd5 1b97 933f
00000220: 6ac0 61df 2276 cc3f a413 9d58 ef05 c73f
00000230: 0d45 dfc4 da3b 923f 813e 12bb 65d2 c63f
00000240: 7b4c f2dc 4f81 993f 624a 9a23 3ff3 bdbf
00000250: 21c3 2672 573e 8dbf 29c5 a807 c566 af3f
00000260: 73a0 f35f 04d4 493f c4ec af33 0988 d0bf
00000270: e7e3 bf8e 056e b4bf d071 18ec 2a3c c7bf
00000280: df09 1f42 0fb0 bbbf 9e97 e0a5 554f c53f
00000290: d688 8ec9 4601 9f3f 1b64 e8fc 50a4 b63f
000002a0: 5ea5 d022 6663 ce3f 142c e42e e148 c6bf
000002b0: c74e 5f10 8aab c33f c9ac c405 106e c4bf
000002c0: 7486 5037 dc76 bb3f 0394 e19b bfaa b73f
000002d0: 05ae e30b 7511 c13f 0676 1a46 8399 c3bf
000002e0: 76f2 5ebb cc36 cbbf 8713 5271 cb1a c7bf
000002f0: b8d2 5651 7b12 b53f 0c12 7e45 1c5b ba3f
00000300: 2b9a beca 21b2 a13f 1d01 a665 faaa b6bf
00000310: b6f9 0a6d 4749 84bf b663 64fa 4001 653f
00000320: f3e0 1d0a 36ec c73f 03e4 3cda adee a3bf
00000330: 2329 2adf 3a96 c2bf 4d9b 4b59 6d64 c7bf
00000340: d39e d582 f7a7 a93f 074b 01da cfd5 923f
00000350: ba1c 67d5 a4e8 cabf 4cf2 0387 9484 8b3f
00000360: c081 5048 f797 9f3f 3bb4 daf8 b38f afbf
00000370: a5e2 3f4d 637b ca3f 16d4 b044 4aee c6bf
00000380: 9bde 30df 06cd a9bf 8ea7 1d7f 3061 3b3f
00000390: d15b 799a 31e9 b23f 6b60 7a5e ebaa c43f
000003a0: 9dbd 6aff 3590 873f 5a2b 5362 34d4 bc3f
000003b0: 60b7 bd91 c7e2 c2bf a279 d22a e418 9fbf
000003c0: 787e 8e68 62a9 9f3f 75e0 ec29 be64 99bf
000003d0: 8095 e8b5 e04b 95bf f7a9 cc02 5fcd b4bf
000003e0: 3963 2838 6744 87bf 723f 26e8 e5bb cfbf
000003f0: 1589 a968 f515 a23f fdca 43c5 bd3f c6bf
00000400: 18b5 1820 ed58 c43f 39e4 c4d4 10b2 cf3f
00000410: 2a2a 5a41 d6e6 a3bf 3538 46eb 15d6 b63f
00000420: c425 64d9 24e0 c13f dc0d 7592 01f7 bdbf
00000430: 8dc7 5bf2 630c c83f 8436 9893 bba7 b1bf
00000440: 238f b89b 6898 b3bf b373 4b4d 3a77 a93f
00000450: e6fe 032e 4a87 a23f 8601 379e 12e9 a1bf
00000460: 52cb 65ea f84f b53f 3f8e 98e4 5301 a0bf
00000470: c9cc 95d6 0d12 b5bf 7b9b af55 0444 b8bf
00000480: 03a0 2b31 8f1b bfbf b35c 3a9f bed3 973f
00000490: 18a2 6cce 4fbb a6bf d0a9 9768 5e94 b53f
000004a0: 73c5 5c5f fbb4 b2bf d898 4610 a7c9 cabf
000004b0: df36 8a12 984b b43f 0685 c56a 81d8 b73f
000004c0: 5721 cf8b f58f c63f 3950 a8a0 4bd9 b6bf
000004d0: d7bf 7814 73a3 a43f e6b6 8893 d5a3 c03f
000004e0: b5ca b2d6 f08a a93f 107c f024 8d25 a13f
000004f0: dcdd c604 2e62 d03f acf4 4fe1 b005 78bf
00000500: e44d 2a98 c17c c03f 368b 4b2b 9484 bc3f
00000510: afd5 212d 8bbe b43f 1b31 f470 0d9a 8b3f
00000520: 5305 ebef 3813 c63f 8458 5537 7313 babf
00000530: 036a 6c58 57a2 c03f b6ee f4f4 e6e4 a8bf
00000540: b7e4 27db 46a8 c5bf 69e5 fa18 70cb bd3f
00000550: 2108 5897 cd41 c0bf f0d6 e5cf af2f b23f
00000560: fa91 ab50 afe1 a63f 6caf 84f8 3baa bc3f
00000570: 4a25 5696 78ca c7bf f298 1501 fe79 b9bf
00000580: b365 8ebb 7d09 a8bf 35cc bedd c62d c8bf
00000590: 2392 8768 6a80 85bf 9a83 f4bb 358f bdbf
000005a0: e105 72b8 1d54 bf3f 156d f418 9c28 c4bf
000005b0: 05c0 c73e 5169 c5bf 343b f835 30b3 c53f
000005c0: a774 12d1 2f0d c63f 14e8 bba9 b417 c2bf
000005d0: 7a14 7edb 3030 8abf a0ed c493 3577 a6bf
000005e0: 9d12 1ea0 00f6 91bf e4a2 09a5 4559 88bf
000005f0: 6c38 ee97 a1ad c03f 0474 08e6 4bfb ba3f
00000600: b843 fbbb 3249 b63f 3a53 776e f083 ad3f
00000610: dc00 665e f47e ac3f ed93 1c86 42c0 c53f
00000620: b169 896d a6fd 85bf b060 c05e 6f92 ce3f
00000630: 4b98 bd7b e506 b0bf a228 0f9c 54c9 88bf
00000640: e033 a031 9aac c7bf dd82 47e9 27ff b93f
00000650: 8573 438b 69d4 adbf 6541 7c61 68db abbf
00000660: bfae ce2c 4928 9b3f f66a 58d8 3bd1 60bf
00000670: a436 34d0 619f be3f 9117 d02f c265 bdbf
00000680: 5172 6772 f7b6 c43f be26 264f 2331 cdbf
00000690: 9c0a f8b6 d990 9cbf 87ed a4d4 1629 9d3f
000006a0: 4536 7a23 d775 84bf a876 bc5d f0c8 7b3f
000006b0: 56a8 9ea2 08fe b5bf cfc4 b13e 519f a1bf
000006c0: fba4 00d6 8dc0 b73f 57aa a119 556a 80bf
000006d0: d77f 759a 7cd4 b0bf 2d69 945d 424e aebf
000006e0: b96a 369e e07b b43f c8c0 a133 5ecd c2bf
000006f0: a4f0 a369 1e11 c5bf 6c90 5096 4d43 babf
00000700: e5fc 9f6c f3f9 b4bf 048d fc1c c4b4 c23f
00000710: e691 b197 8da9 a2bf 5f72 2f6f 6e91 c1bf
00000720: 971e 3d84 102a c53f 50a7 7a7a 4b88 c13f
00000730: 7259 08d9 1dd5 96bf b66d 22db e4e2 c0bf
00000740: a6a6 d2d7 172e b93f 7205 ed68 d950 b13f
00000750: 63d8 a0ad b902 bb3f 8b71 4a86 acd6 913f
00000760: 7793 d27b 308a be3f b6e4 5571 9da5 b73f
00000770: a3ab acac 590d 9abf a070 ec81 2936 9fbf
00000780: 4d17 3d35 f83e b7bf 77d2 5e1f a4a4 a7bf
00000790: 0d39 dd35 8bc5 c23f 3d9b bae1 f458 b6bf
000007a0: a9f8 4af2 ef09 9fbf 377b f068 bb2d bb3f
000007b0: 3a29 2889 efcf 84bf aa59 3c8a 090d b9bf
000007c0: ab80 9105 8d6a ae3f 8d45 53c9 cb6a afbf
000007d0: ff56 16b5 7765 643f a7c0 110d d58d 913f
000007e0: 2dab df83 d019 bdbf 380e a35d 9b7d b63f
000007f0: fbb2 ff96 1147 ae3f f6a2 8461 a229 b63f
-0.09863251272019004 0.07480845288850975 0.05906440769295469 0.06334778284992519 0.09708674719558033 0.25153632440403606 -0.10623591024309172 0.20982072441700886
0.05238137838365441 0.005441135870882682 -0.1869900456177764 -0.018940790618816244 0.08916631360827673 -0.19426307912237284 0.0974513856370002 -0.0780313859743027
-0.2273080674542816 0.0884178422060487 -0.01488529837088313 0.07349767262876332 0.14986373722918753 -0.018295282255964346 0.19866622985713614 0.0399181733195687
-0.10521260820576123 -0.18833496437050212 0.008355942754363048 0.013181054342803807 -0.06298722898555276 0.1618347139851464 -0.21341082765483674 -0.022221359557377557
-0.1578887448488012 0.0657972233540072 0.017617833447253567 -0.1413631324943435 0.08867895035327626 0.12497624719609615 -0.1697334736870724 -0.09828330643999252
-0.03498654476242819 0.24256095929139948 -0.029409487647105433 -0.10142402751726022 -0.040182766027054305 -0.16393313145782057 -0.2211170750674352 0.1629566931152925
0.1481383515673872 0.312317010646042 -0.06777934838128687 0.09576478882899603 0.09449229843467492 0.16657706061780092 -0.14103264788638686 0.028351619655667303
0.18735472925561525 0.17090141068199938 -0.12089457981994649 0.003904434151228956 -0.009325409519493753 0.26444459772275686 -0.281724018234213 0.30991370514492317
0.12643118532712977 0.06774619176203711 -0.26672899561340163 0.019131121526497083 0.22235523135487095 0.1798686201747418 0.017806452051279332 0.17829581865634128
0.024907348499777698 -0.11699289912420732 -0.014279063387989734 0.06133094519135291 0.0007882138596899804 -0.25830297515467415 -0.07980379805657344 -0.18152367141818937
-0.10815520633972352 0.16648359870413015 0.030278307010697635 0.08844476866251265 0.23740841579391775 -0.17409910955061092 0.15367246436527734 -0.15960884362843888
0.10728241301014824 0.09244916492168902 0.13334525185142368 -0.1531223385144786 -0.21260985516518688 -0.18050520928605016 0.08231325851267968 0.10295273491471607
0.03456216430577216 -0.08854641896869393 -0.009905393614982976 0.0025640744307903985 0.18689609045009767 -0.0389303521064406 -0.14520965477670086 -0.1827522932064433
0.05010961029148366 0.018393752747509342 -0.21022472782190055 0.013436470384925368 0.030853141583180976 -0.06164324200413104 0.2068904998011664 -0.1791470370677934
-0.05039235567568064 0.0004177802467127894 0.07387075444545067 0.16146604645905724 0.011505529267508413 0.11261298561582347 -0.14754576317084922 -0.03036839019170546
0.030919587737683746 -0.024798365887562974 -0.020797263243499398 -0.0812587148508682 -0.011360937501238776 -0.2479216941396732 0.035323781038430514 -0.1738202298361883
0.15896381442272722 0.24762163533321926 -0.038870521047176546 0.08920418733598086 0.13965283026509046 -0.11705026460281637 0.18787812551414299 -0.06896564820655199
-0.07654432107716196 0.04973776048220859 0.036188428990497276 -0.03498132878621889 0.08325153086279372 -0.03126012959935708 -0.08230673302550708 -0.09478785602514776
-0.12151427221726867 0.023268679111961798 -0.044397825191769325 0.08429517797018282 -0.07307406500037476 -0.20927894873347586 0.07927847340235016 0.0931473622963673
0.17626828505150158 -0.08925316498090376 0.04030952095888523 0.12999982551394068 0.049888158996869526 0.033489619025424244 0.2559924170159016 -0.005864802301400445
0.12880725793784997 0.11139799172410111 0.08103246547565023 0.013477425584391292 0.17246162142513785 -0.10185928440964359 0.12995426003983832 -0.048621385003995085
-0.16919789982765618 0.1163854657160265 -0.12700815095746612 0.07104014230375433 0.044690588567195946 0.1119725686773429 -0.18586642590188723 -0.09951770330880885
-0.04694741167549967 -0.18889699771315951 -0.010498839678754262 -0.11546645964382521 0.1223772597604902 -0.1574893113946493 -0.1672765308899217 0.1695308936618517
0.1722774287090136 -0.14134844100755173 -0.012787229250316157 -0.043878244674910194 -0.01753998734740724 -0.011889022921609045 0.13029880445941744 0.10539697996178182
0.08705441560165539 0.05764724110091497 0.055656086467026106 0.16992980526370563 -0.010737705438420205 0.23884384275948412 -0.06260523100863329 -0.012102757465886353
-0.1849549047769008 0.10154962010666276 -0.05826120209687872 -0.05440832319266312 0.026520865783523414 -0.002052895436248088 0.11961947758774244 -0.1148339621286978
0.16183369718682397 -0.22806207050989785 -0.027896310608421446 0.028477055290961253 -0.009990387697395362 0.006783427171993907 -0.08590749712189569 -0.03441862001717199
0.0927818915812572 -0.008015313000403852 -0.06574229021998633 -0.059190820620829455 0.08001521933185075 -0.1468923332317955 -0.16458492429945182 -0.10258946342270442
-0.08193894769646055 0.1461415425811553 -0.03644983746270096 -0.13725071362468363 0.16534620720834844 0.1369718883554989 -0.022297350284213598 -0.13192425441671468
0.09835957545387916 0.06763991176287279 0.10551033486339771 0.017420478531322153 0.11929610274326118 0.09237083451252456 -0.02544155231877777 -0.030480049662501174
-0.09080458926936537 -0.04617798693599167 0.14665355806432281 -0.08729486952743755 -0.030311345256216402 0.10616656600948891 -0.010162230847545407 -0.09785518288513254
0.0594066685960127 -0.061361664129104466 0.0024897897753345384 0.01714260952252347 -0.11367514819691556 0.0878541091543007 0.05913596122977612 0.0865727890092208

hidden_layer4.bias f8 [20]
00000000: beef 9228 f525 9e3f 1f0c 60e1 1087 c43f
00000010: d500 4ee0 8c64 97bf 2805 d298 2b03 b6bf
00000020: 9741 5228 4eba bebf 8bfd 3c66 c550 c13f
00000030: 68b6 77d5 e71b c5bf 1f6a 47b0 7391 cabf
00000040: d90c e5c1 dd94 b03f 2441 c870 0657 c8bf
00000050: f53c a4a6 c9ed 78bf b071 68a6 f4c7 b33f
00000060: dd3e 351b e6eb a1bf df8d be70 46e4 c6bf
00000070: 4634 ce7f 8188 b53f 8503 162f 232d a2bf
00000080: a7b5 c3b3 3ac5 b43f 0a19 de9c 7d31 a6bf
00000090: cb46 43d3 546c bcbf 6f11 a7ac 75e7 c2bf
0.029441671945036545 0.16037188534400657 -0.02284450644538157 -0.08598587494818288 -0.12003029331595481 0.1352774380884337 -0.16491411135887124 -0.2075638399827122
0.06477151855237952 -0.19015579707093722 -0.006086147021292056 0.07726983130164089 -0.035002890416419886 -0.17884140496344877 0.08411416406870939 -0.03550062131672064
0.08113448036939151 -0.04334633388411831 -0.1110280051973646 -0.14768858843138896
