net_param/net_0.13.pth (torch, 17999 bytes, 12 tensors)

hidden_layer1.weight f8 [20, 2]
000000 91 38 c8 af 3f bf e5 bf 64 50 34 7d a4 8f cc bf
       -0.6795957978481671 -0.2231336222981809
000010 ee 22 da 50 21 82 dd bf e9 f8 80 cb d9 c9 9e 3f
       -0.4610675134249921 0.030066874547849762
000020 e9 ca 4d 3f 7b 6e e5 3f e2 28 38 db e0 df d5 3f
       0.6697365032581192 0.3417894497694204
000030 52 9b d0 a8 32 c8 b7 bf d1 17 79 83 30 69 e1 bf
       -0.09289852735001361 -0.5440905158836761
000040 04 0c 4e 53 1a b7 d3 3f 5c 88 30 f0 85 d9 e5 bf
       0.30805071006051343 -0.6828031245424984
000050 d1 9e 34 c2 e2 fb b6 bf e8 4b 94 24 23 f9 b5 bf
       -0.08978097192140956 -0.0858327831559077
000060 bd 33 7e f1 e7 4b d7 bf e2 97 82 f1 d6 a7 e5 bf
       -0.3640079363183835 -0.6767382351870277
000070 d8 c1 96 40 a3 c7 c3 3f 36 e6 b0 e4 4f 0e e5 3f
       0.15452995923761992 0.6579970804807036
000080 7d ba 6a 72 d9 a4 c1 3f 2b 73 e3 e3 67 d7 c5 bf
       0.13784330450785723 -0.17063616397253986
000090 9b 6c 17 6f 16 65 dd 3f 1c bd 71 26 94 c7 e2 bf
       0.4592948994520129 -0.5868626356949878
0000a0 7b 19 a7 ca 44 b0 b6 3f 88 cd b8 38 f2 ae e1 3f
       0.08862714717461088 0.5526057346200313
0000b0 20 d0 e9 c0 65 e7 d0 3f a1 a3 5b 01 48 25 d9 bf
       0.2641233810347803 -0.39290046818364927
0000c0 7f 09 f3 ba c9 1e dd 3f 18 c8 34 3c c7 c5 ce 3f
       0.4550041509320621 0.24041071357493204
0000d0 b7 db b6 f3 86 12 b7 3f 10 45 b5 97 1d 66 df 3f
       0.09012645196967993 0.4906076413654583
0000e0 57 bc ae 21 ff ef e2 bf 38 ce c9 3b 6d 85 c0 bf
       -0.5917964609015013 -0.12907185954428413
0000f0 19 57 b9 5d e3 f4 c6 bf 62 5e 3b 3a 4d c4 d5 bf
       -0.17934839321485965 -0.34010630308828216
000100 14 fe 9a ce d5 a9 e2 3f c6 88 dd 02 92 92 d7 3f
       0.5832318339598168 0.36832094459363096
000110 05 56 f7 db 88 63 99 3f 54 53 ad 2e 82 39 e6 bf
       0.024793756890934677 -0.6945200835858523
000120 45 02 bf 0a 1b 26 d9 3f f3 0c 0a 45 4d e7 da 3f
       0.3929507832472477 0.4203675436221623
000130 d2 5d aa 04 ac 41 d2 3f 6d 15 db 8a 6f 41 c8 3f
       0.28525829749693543 0.1894969394690337

hidden_layer1.bias f8 [20]
000000 09 69 66 39 d0 88 af 3f 2f f1 79 ef ef fb d2 3f
       0.061590678221550794 0.29662702928887347
000010 53 e7 db e2 d6 98 dc 3f 2d 62 61 3e 65 24 bb bf
       0.44682857660483427 -0.106024100999442
000020 c3 40 02 26 ca c7 e5 bf d3 cb ab af 5d cb bb 3f
       -0.6806383840903653 0.10857186831326197
000030 ef de 67 34 e1 6f b0 bf 8b d9 95 32 6e 52 e1 bf
       -0.0642071488326754 -0.5413123119349604
000040 93 db 38 ad d7 97 cc 3f af 57 48 b1 90 80 e5 3f
       0.2233838649569547 0.6719439947653337
000050 46 a7 49 0e 11 bc d6 3f cf 81 81 f7 ec dc db 3f
       0.3552286757973103 0.43535923166748786
000060 44 f6 3d 4f 29 3c b9 bf b3 0d 51 9f 4a 69 df bf
       -0.09857423958416073 -0.49080148275626384
000070 47 ff f0 6b f4 bd cb bf 29 07 d3 11 52 7f d7 3f
       -0.21673445959640444 0.3671460317674354
000080 2c a1 66 bc ea ff e4 3f 90 ff 87 55 b1 20 ba bf
       0.656239860506536 -0.10206135118641968
000090 cb 7d 4a 92 77 e1 e1 3f 25 c5 6b cb 95 42 cd 3f
       0.5587728364225141 0.22859451706566705

hidden_layer2.weight f8 [20, 20]
000000 16 49 1e cb 9f f2 b4 3f e3 4c f9 66 7a 6c a6 3f
       0.08182715138380944 0.043796372480437794
000010 33 a7 d2 ac e4 f4 c0 bf 8f c8 9f 17 16 9b bd 3f
       -0.1324735492574348 0.11564767910729955
000020 61 0b a6 38 b3 98 c3 bf 54 59 20 cf b5 a8 be bf
       -0.15309753671689477 -0.11976181322856877
000030 73 f2 d9 0b 53 6f c1 bf 1b 50 50 ca c4 42 c3 bf
       -0.13620985106162528 -0.15047511938667033
000040 df 61 c5 9b a3 7b c9 bf 59 09 c7 0a e3 ed c2 3f
       -0.19908566576010764 0.1478847315430112
000050 d0 65 a3 66 5c d5 b8 3f b7 35 8d 52 3f 57 c3 bf
       0.09700562959496684 -0.15110007792320143
000060 c7 12 c3 8e 4f b5 a1 bf fc 39 bb 9b 12 8d a1 bf
       -0.034586416413309666 -0.03427942420022487
000070 63 d4 53 fe 2e c5 ca bf cc 3a 72 83 b8 55 c6 3f
       -0.20914256494839653 0.17449098985931355
000080 f1 6e 03 bd be 83 ca bf 4d eb 95 f1 2f cb c3 3f
       -0.2071455405156182 0.15463828369305546
000090 29 e9 6f ba 9f ed c1 bf c9 4c 44 2e 6f 65 bd bf
       -0.14006420710922754 -0.11482901458321061
0000a0 a5 b9 c0 76 00 18 c6 3f 60 19 6f 92 6e 1c c1 3f
       0.17260747717359695 0.13368017339798666
0000b0 99 52 b8 e6 c4 dc c0 3f 0d b3 cc a1 62 e1 85 3f
       0.13173733964562898 0.010683794558269644
0000c0 a8 57 10 fa 33 64 b9 3f 59 98 13 4c bc a2 8e 3f
       0.09918522696565779 0.014958830901786667
0000d0 bb 11 2a 87 a1 ef c9 bf b7 04 dc 64 69 8f bc 3f
       -0.20262545680829 0.11156328880680887
0000e0 b4 6d f2 74 ca 52 af 3f 81 28 12 ab 54 dc a5 bf
       0.06117851903510588 -0.042696615107233
0000f0 13 51 ce 70 12 a5 c9 3f d9 b3 9e 05 4c 59 9a bf
       0.20035009868718898 -0.02573126587201444
000100 94 f5 ca ff 13 f5 ca 3f cf a4 ec 8b da 76 c0 3f
       0.21060419072993553 0.12862712700124354
000110 a1 e6 1b 60 2c 15 82 bf 7e de a1 d0 47 e9 91 bf
       -0.008829447443975015 -0.017491457089333633
000120 43 e2 7d dc 47 01 99 3f 12 c3 01 d6 ed f1 c0 3f
       0.02441894801401846 0.13238308858446907
000130 a6 a6 2b dd 75 11 cb 3f 45 f4 98 54 89 06 cb 3f
       0.2114703493055476 0.21113697653518862
000140 b6 d5 ed 01 1b 64 a5 3f ad 2f 5b 29 62 42 8a bf
       0.04177936934039954 -0.012821928870287847
000150 13 67 b0 12 00 29 bf 3f 98 d4 0b 7a 6a 22 a3 3f
       0.12171936470295135 0.03737194766828472
000160 39 d0 4d a7 74 0b c9 bf 31 ea 4d f8 c8 09 c2 bf
       -0.19566209954393957 -0.14092361568676062
000170 c3 f5 8b 99 bc 77 c6 3f 13 4c a7 69 dd 18 c8 3f
       0.17552907464407327 0.18825881632673766
000180 68 5a d2 54 85 b1 b9 bf 77 35 f5 f6 0d ab ac bf
       -0.10036500283090677 -0.05599254264471203
000190 4b ca b1 64 6f c3 b3 bf cd 12 96 58 6f 8b c2 3f
       -0.07720085342752118 0.14488021684169042
0001a0 9a cd cb 57 4f 67 c4 bf fd e7 a9 5b 43 9f 95 bf
       -0.15940276896399724 -0.021115353078563704
0001b0 88 dd ab ee 05 85 a7 bf 1a 22 13 c0 1e cb ba bf
       -0.0459367612692701 -0.1046618670399159
0001c0 7a e1 0b 6c 65 37 b8 3f 99 10 49 d6 34 c1 a2 bf
       0.09459527862407482 -0.03663029781140032
0001d0 e4 2f e5 59 2d 64 bd 3f 80 b1 dd 5e d4 14 cb 3f
       0.1148098320456366 0.21157316810730364
0001e0 78 5a 10 9e 5d fb 9c bf 76 98 b4 25 a1 7d aa bf
       -0.02830263402219166 -0.051739726879802925
0001f0 ff ab bb b9 fb 80 ba bf e1 a6 ba 40 53 23 b2 bf
       -0.10353062901019426 -0.07085151987362394
000200 73 bb ee 2f 1e 99 c5 3f 6f 6b 20 86 f7 ee 98 3f
       0.1687352880521434 0.02434908634323157
000210 f5 de 8b 07 d7 a6 c9 bf 97 27 d5 6b 0d e2 ca 3f
       -0.20040405148005616 0.21002357259049795
000220 66 41 48 78 42 58 68 3f 27 ce f8 3b 16 91 b5 3f
       0.0029717729796702617 0.08424509967954262
000230 6f 44 fd 53 4d 12 c2 3f 81 10 01 e6 3d d4 ca bf
       0.14118353463212283 -0.20960210543319494
000240 44 40 08 f5 de 51 a0 bf 99 a2 55 02 33 7f b5 bf
       -0.0318746255981073 -0.08397215659136704
000250 b6 c1 36 bb 70 59 b6 bf d2 19 b4 c7 cc eb bd bf
       -0.08730225153590862 -0.11687927127432055
000260 db 65 de 4c f4 7f ca bf 73 d2 59 08 dc e4 bb 3f
       -0.2070298552833226 0.10896086887243843
000270 4e e7 0a 7d a4 22 cb 3f 68 bf 3a c4 70 b8 92 3f
       0.21199470620723065 0.018281709648987926
000280 bc 9e c9 7c eb 76 c5 bf 6c ce 9c f9 31 5e 47 bf
       -0.1676916465105388 -0.000713133241538389
000290 1e d9 4f 7c e0 ed 95 bf 4e 94 9a 2a c9 87 b3 3f
       -0.02141524084796586 0.07629067697651346
0002a0 0d 19 4f a9 28 7f b9 bf 57 cc c2 0c 01 50 a7 bf
       -0.09959653981704637 -0.045532257850390216
0002b0 df d2 9d 84 73 f4 9d bf 91 50 18 17 11 40 ba 3f
       -0.02925281998564599 0.10254008115618009
0002c0 19 87 2d d3 f6 e9 9d 3f 32 b9 81 7a b8 0f c3 bf
       0.02921281494071257 -0.14891725522779492
0002d0 3f ea f0 4c e4 a6 c4 bf 85 2c ce 74 74 9f a6 bf
       -0.1613431335152473 -0.04418529439780009
0002e0 db da 4f fb 53 5f bd 3f 1b 68 4d b2 b0 2a b7 bf
       0.11473584065957303 -0.09049515107236099
0002f0 7e 3d 20 e1 4e 68 c9 3f f3 85 ba 81 33 3e c8 bf
       0.1984957312820192 -0.18939822992710695
000300 89 f2 cb bb 00 41 77 bf 9e 2e d5 55 a7 6f cc bf
       -0.005677225938367622 -0.22215739909221538
000310 33 26 09 57 0e 66 cb 3f 14 52 6d c5 43 c6 c8 3f
       0.21405200242797803 0.19355055942527655
000320 9a 62 4d 2f fd cc b4 3f 8b 45 76 78 af e7 c4 bf
       0.08125288395729982 -0.16332047826703575
000330 83 5d b7 c2 3c 07 b6 3f c2 bb 84 b2 2a 83 b1 bf
       0.08604793313803864 -0.06840769632684299
000340 76 17 a2 07 f7 10 ca bf c0 78 fe 2d 6f 82 b1 3f
       -0.20364272949899104 0.06839651940251468
000350 59 90 cf ae d6 8d b8 3f b1 ad 9b 10 ca 5e ca bf
       0.09591428535310466 -0.20601774035399736
000360 1b 68 80 c3 3c 05 c7 3f 08 75 d2 a0 57 c8 c6 bf
       0.17984733148551943 -0.17798896172181622
000370 59 1b d1 70 a0 e4 c3 bf 1e 82 a2 23 5a 2b b8 bf
       -0.1554146338332554 -0.09441150064459022
000380 07 e5 f7 6f f9 43 a7 bf 1c b8 12 19 e1 35 b0 3f
       -0.04544047824669844 0.06332213270317805
000390 e4 4f f9 84 83 4b cc 3f 01 db 6f 7c bf 33 c4 3f
       0.2210544966970921 0.15782922340414277
0003a0 6f 03 5d 36 0d 03 c1 bf 7d b2 1c 37 8b 7f c0 3f
       -0.1329056277700391 0.1288923281766933
0003b0 40 85 c0 5d cf 75 cb 3f 36 d4 9d 48 1d 67 c7 3f
       0.2145327766202545 0.18283430143097384
0003c0 2d 21 6b ce 2b 08 bf 3f 78 12 56 ef 2a bb c8 bf
       0.12121843137277173 -0.19321190534914812
0003d0 08 04 f0 89 2a 15 a7 bf d6 91 38 7a ca 15 c8 3f
       -0.04508336004074215 0.18816500633069094
0003e0 b9 91 99 db f5 3f c4 bf 03 67 d3 46 49 20 c0 3f
       -0.15820191595697766 0.12598529775896603
0003f0 18 10 93 26 92 3a c7 bf f0 fa 21 f9 94 69 b5 3f
       -0.18147494205015913 0.08364230234472436
000400 0a a4 3f 33 b2 e3 c0 bf 0c 5f 2c a8 a3 e8 b9 bf
       -0.1319487333524026 -0.10120604377550196
000410 38 d9 63 98 16 2d c1 3f b6 4f ef 32 40 ff 68 3f
       0.13418848458213417 0.0030514005552308666
000420 8b 44 ce 75 c5 8d bc bf b6 01 26 e6 9d 15 c9 3f
       -0.11153825880161798 0.1959721921703143
000430 a3 ab 58 ab 57 88 b2 bf 03 a6 45 59 33 09 cb 3f
       -0.07239292081128083 0.2112182794474365
000440 f1 c9 c5 58 a0 42 c1 bf 3d b0 75 53 66 a9 a0 3f
       -0.1348457749805472 0.03254241722865501
000450 02 b1 17 6d 32 21 c3 3f 15 88 17 6c 69 04 c6 bf
       0.14945059134277733 -0.17200963762212554
000460 2c af 04 78 df 3b 88 bf 5d 01 db ea 88 52 c1 3f
       -0.011832948541801246 0.1353312632327385
000470 b3 1e 52 6d c6 8d c4 3f 09 e6 fd f8 e3 b9 c2 bf
       0.16057663286141163 -0.1462979284076911
000480 1d d7 57 f0 09 6e 73 3f b8 bd a1 8c 6e 61 c6 bf
       0.004743613074870171 -0.17484838358676114
000490 ce 9f a2 2a 6c 87 8e 3f 07 de 6a c5 39 0c 8c 3f
       0.01490673546898327 0.01369519361229178
0004a0 19 1a 41 f8 b3 f6 92 bf 4d 8d 84 a9 5e 18 c3 bf
       -0.018519222285499824 -0.14918120648608593
0004b0 64 80 c2 75 95 7c c8 bf fb 6c 5d 23 28 fb c4 3f
       -0.1913019967078099 0.16391469694904245
0004c0 96 90 1d 45 c9 c7 b3 bf 93 e8 1f 31 43 d2 c4 3f
       -0.07726724564924078 0.1626667013040942
0004d0 45 1d dd 31 aa 08 c6 bf 2b c4 71 7e f5 cf ca 3f
       -0.17213942942383134 0.2094714038280768
0004e0 f5 41 6e 75 29 11 c5 bf 9c 8c d2 b8 c1 17 cc bf
       -0.16458624109192468 -0.21947499775442203
0004f0 dd f2 df a8 4c 5b c1 bf 2d 03 c9 f5 16 59 8d 3f
       -0.1355987381538374 0.014330081344384371
000500 83 7b 22 6e a1 2b c0 3f e5 0c 21 e6 26 2f 96 bf
       0.12633149984045752 -0.021664245410886535
000510 b6 84 4b 89 a0 a6 c2 3f 6b 0b d8 2b 42 dc c4 3f
       0.14571005538804166 0.16297175541702855
000520 de bf b7 9b 2f 53 ca 3f 73 e9 ba 67 93 94 8e 3f
       0.20566363433272178 0.014931823351947959
000530 6c 92 95 00 6f 33 b9 3f d2 51 8b c5 a7 ad c9 bf
       0.09844106449379247 -0.20061204095567448
000540 8d c4 ae 72 5c 0b a6 3f a9 64 84 ed e0 3e ba bf
       0.04305542850432529 -0.10252195166357815
000550 08 a2 1a 02 3c 32 ca 3f 56 6a 42 64 79 fc c6 3f
       0.20465803244339065 0.17957990069847324
000560 6a 0e 69 25 c8 50 c1 3f f0 25 4b ae 54 2e c0 bf
       0.1352777655284741 -0.12641390333583002
000570 a7 2b 0b af 11 d4 a0 bf f5 60 c8 47 93 e2 c3 3f
       -0.032867958657866674 0.15535202984825217
000580 f8 04 66 e4 e2 ef 57 3f f3 09 ad 12 9a ec cb bf
       0.0014610019439660876 -0.21815801536474985
000590 b4 92 b3 ec 52 a7 98 3f 13 49 16 6c 1f 29 c4 3f
       0.024075790116415433 0.1575049665230571
0005a0 7f ea fc 6d 57 ec 97 3f cc 72 26 aa 0b 0c 76 bf
       0.023362508857852845 -0.005382581296001287
0005b0 03 63 ad af d5 4b a0 bf 11 c3 fc 67 d0 0a c0 3f
       -0.03182857293604082 0.12533001973636052
0005c0 bc 48 34 ab 03 40 cc 3f bd c6 02 96 66 ca c6 3f
       0.22070356235105304 0.17805177998302738
0005d0 82 df dc f6 5f ea c2 3f 57 4e 88 93 12 62 c8 bf
       0.1477775531181998 -0.19049293712361035
0005e0 65 79 cd 8a f8 14 6a bf 18 e1 80 be e5 79 c3 bf
       -0.0031838278140831505 -0.15215751459050675
0005f0 33 4e 2a 1d c3 92 b1 bf 4e 4f be 7d fd ad c2 bf
       -0.06864566289942146 -0.14593475951971374
000600 c0 32 db 22 18 e3 c4 3f 99 03 f1 b2 84 68 c5 bf
       0.16318036748852727 -0.16725214707733185
000610 46 68 0e e4 f9 d3 c2 bf f9 e8 18 dd 63 6a c8 bf
       -0.1470939982944534 -0.19074676795737114
000620 61 42 d6 50 a6 c9 b9 3f 02 ed 13 53 66 a4 8f 3f
       0.1007331797939144 0.015450286302885367
000630 6d 02 bd 6a e0 9c af bf cb a2 9b f8 2d ac b2 bf
       -0.061743748693065516 -0.07293975181131455
000640 cc de d3 38 ce c5 9e bf 55 ac 94 f7 ed 83 9a bf
       -0.030051443308336798 -0.025893896328096428
000650 63 6a 33 9f 46 91 c4 bf 14 a6 08 91 3b 3a cb bf
       -0.16068346761206262 -0.21271462041595213
000660 ed 9f 4b b0 79 e8 c8 bf cd 9e 8b e9 10 e4 b7 3f
       -0.19459458454298276 0.09332376195709031
000670 50 76 de c9 56 b9 b7 bf 0a 81 1d 5e ce 4a ae bf
       -0.09267179897730071 -0.05916447543018151
000680 5f 5f a8 a6 38 65 c3 3f fb ae 5a c8 a3 77 cb 3f
       0.1515265287168814 0.2145886162082816
000690 cd de f6 8a 7e 01 b7 bf 11 b0 6f 52 73 bf c7 bf
       -0.08986655132946027 -0.18553010487755775
0006a0 fc de b4 a6 bb d5 8b 3f 40 cd 39 ea 7a d1 c9 3f
       0.013591257119159199 0.2017053264313322
0006b0 bf ea 3a b4 30 67 cc bf fd d5 11 a0 41 54 c2 3f
       -0.2218991165189745 0.14319629970457007
0006c0 2f 53 57 ce fb ce 9d bf cd 1b 47 02 8b ae c4 bf
       -0.029109892338811946 -0.16157662974566592
0006d0 27 fc 4a 26 b3 a1 9e bf 0c 15 1b 5b b3 47 bb bf
       -0.029913710796560047 -0.106562814467072
0006e0 89 44 37 32 bd 9a b4 3f 83 77 61 5f 2d 6c b0 bf
       0.08048613048528543 -0.06415065363532162
0006f0 5f 5a 92 e4 e6 89 be bf ce 27 9c 59 a6 b2 51 bf
       -0.11929171638835488 -0.001080191088876681
000700 41 8e 99 2b 25 1b c9 3f 49 a2 0f bb 49 4c c3 3f
       0.1961409056558399 0.15076562532273588
000710 cf 21 1f ac d5 dd aa 3f fc e9 bc 01 3f 28 ca bf
       0.05247371412366741 -0.20435321411953555
000720 76 0c d8 2f 79 dc c7 3f d9 ed dd 9a be fa c1 3f
       0.1864158137906064 0.14046461641178956
000730 0b 6d a5 5c 5f 64 bf 3f a2 1c ea 10 42 8b ba 3f
       0.1226253129183769 0.10368740952445646
000740 00 94 9a 62 58 df c8 bf a2 94 b9 05 de cd 8d bf
       -0.1943159562553376 -0.014552816915236303
000750 f3 58 09 56 a6 d9 a5 bf f0 6c 60 da 7c bc c0 bf
       -0.042676160814766016 -0.13075218832896196
000760 44 90 8a cc d9 22 c4 bf 2a bf 38 f5 1c 8d c0 bf
       -0.15731356131903074 -0.12930643056596952
000770 b0 aa 20 6c 4e 3d cb bf 77 7d a6 01 96 74 b0 3f
       -0.21280842094104946 0.06427896061221881
000780 f1 1a a4 8d cc 08 c8 3f f7 9d f0 83 d1 35 b8 3f
       0.18776852527681556 0.09457120391072481
000790 6c d7 ab a3 6d 31 a6 bf 34 11 11 f2 4b a3 bd 3f
       -0.04334585783901343 0.11577295932608395
0007a0 a1 a0 8c 44 f1 2a ca 3f 51 20 7b b3 f0 e9 a7 bf
       0.20443549964079913 -0.046706697377488234
0007b0 94 37 d3 9b 53 72 a6 3f 49 20 3a b6 70 cc b9 bf
       0.04384099270974598 -0.10077576111700738
0007c0 cb de 9d a9 dc 23 7a bf 64 52 b2 c8 88 96 a3 3f
       -0.006381856883187441 0.038257860659687976
0007d0 89 8d 8d 0b 95 53 8f 3f c3 fd cf 61 f8 96 c1 bf
       0.015296139159267213 -0.13741974617003735
0007e0 4e 2c fb 6b b9 08 ca 3f 38 5c af f1 7b 71 c0 3f
       0.20339124462620578 0.1284632616140884
0007f0 8a 8f 4c b2 c6 f4 c5 3f 19 07 22 0b 2b cf 78 bf
       0.1715324755288033 -0.006056945932984247

hidden_layer2.bias f8 [20]
000000 36 2c 42 5d 9d 3a c0 3f c8 ea 20 36 22 df 9a 3f
       0.12678877881657663 0.02624181228041314
000010 b9 f5 b9 ae 4b 30 c1 3f ff 7e d3 c9 a2 37 c2 3f
       0.1342863658100393 0.1423228726844101
000020 d6 57 f8 9d 88 2f ae 3f 81 2a f8 69 77 ff bc bf
       0.058956403048952374 -0.11327310883658905
000030 1d 20 eb aa 67 28 a1 3f 28 a6 3b 7e 67 56 ba bf
       0.033511390317983315 -0.10288092452869846
000040 d1 d9 47 1f 29 fc c2 bf 07 e1 1d 42 dd 30 c4 3f
       -0.14832033183456741 0.1577412197909853
000050 0a e1 97 c1 da 66 c1 bf d7 d4 aa 22 05 77 c3 3f
       -0.13595137074276692 0.15206970398654704
000060 cc a7 53 77 4e 39 ae bf bf 49 97 8a 49 e0 81 bf
       -0.059030963960892885 -0.00872857526966164
000070 bf 44 df c9 11 0e 8b 3f a0 82 f8 3f c8 a7 8c bf
       0.013210429165982139 -0.013991894199592736
000080 ed 22 2e 5f 09 b0 b6 bf 6a 02 45 8f 80 6f bd 3f
       -0.08862360547767496 0.1149826383380145
000090 9d 02 18 6c 49 1d cb 3f 36 d2 b5 53 f4 af c4 3f
       0.21183126237885555 0.16161970221914296

hidden_layer3.weight f8 [20, 20]
000000 9c 88 41 94 fe 5c b5 bf 54 cc 50 9e 92 25 c7 bf
       -0.0834502326920607 -0.1808341286683538
000010 a4 a6 8b 6d 3e 9c c0 bf 15 3a 05 ff a5 81 ba 3f
       -0.12976818417455604 0.1035407779320184
000020 2e 62 b5 c7 92 1e 8a bf ad 03 20 3f 8d 22 c0 3f
       -0.012753626556034705 0.12605443556097154
000030 73 63 ce fa d4 90 ba 3f 38 bc 7b 88 5b f3 cb 3f
       0.10377246020506252 0.21836418308473227
000040 16 2d 34 4f b6 d4 a4 3f d6 da a0 f7 b8 ae b9 3f
       0.040685364883836936 0.10032230420697927
000050 d6 7a 0a fe 30 87 c8 bf f5 64 38 d1 b0 6e c4 bf
       -0.1916257133898031 -0.15962801185450073
000060 82 b0 f5 23 49 f9 c4 3f 1c b0 80 6a c4 a1 b0 bf
       0.16385759597631383 -0.06496837234652769
000070 fd 20 a0 0d 91 dc cb 3f ff 6b 20 da 76 0c 86 bf
       0.2176686588793543 -0.010765961200425165
000080 c9 05 2e 88 2c 4f c5 3f 12 bf a6 cf f4 7f c1 3f
       0.16647869729426493 0.13671741618372174
000090 29 56 2f 9b 6d 4a a0 3f 41 58 a5 77 f9 9e cb 3f
       0.03181784171435382 0.21578901617130167
0000a0 f4 2c 52 33 34 16 c8 bf f1 05 ae d2 4d 46 ba 3f
       -0.18817760950000884 0.10263525384473106
0000b0 77 2c 87 64 fc 32 b9 3f c5 1a ca 7b f0 35 90 bf
       0.09843423322961252 -0.0158307624392602
0000c0 03 ad 03 7c 20 34 87 bf ac b4 7d 74 de 87 93 bf
       -0.011329892906778221 -0.019072986469315253
0000d0 51 f9 12 aa 55 5f c9 3f eb 69 85 50 ed 51 ca 3f
       0.19822188190841897 0.2056252139253297
0000e0 82 32 f1 84 41 ca c6 bf b8 eb b9 f9 ee d5 ca bf
       -0.17804736129109605 -0.20965373223938655
0000f0 4a 86 a8 44 85 af c7 bf 4e 1b c7 d4 25 82 c5 bf
       -0.1850439629788972 -0.1680342949823292
000100 73 c4 56 ab b4 ff b7 3f 39 ae 67 57 66 c9 be bf
       0.09374550993995161 -0.1202606166258925
000110 35 64 89 bb 1c 69 c4 bf 26 ad 05 88 2e 1b c9 3f
       -0.1594577708918067 0.19614202157695465
000120 71 a4 b5 19 2e 52 af 3f d6 cf 0f 79 55 d6 92 3f
       0.06117385925137676 0.018395743860267398
000130 34 36 e3 8b 90 6a bf bf 4d 1a 60 6e 5d 54 c9 bf
       -0.12271979727957999 -0.1978871144239797
000140 9c 04 0e 7e b6 e7 ca 3f 2c 28 19 54 c9 61 ae bf
       0.21019631533639405 -0.059339801326658254
000150 62 eb a7 4d 3c 38 ac 3f b1 fc b6 b2 85 d4 70 3f
       0.055116543273433974 0.004108927019330342
000160 36 c7 12 3a 4d 38 b1 bf 5e 95 8e 61 e0 31 cb 3f
       -0.06726534526640368 0.21245960963748706
000170 04 6c 0e 77 e6 f3 c9 3f c0 83 fa a6 68 e2 ca bf
       0.20275574506089822 -0.21003444817782047
000180 34 83 7a 84 51 07 92 bf 23 e7 0e 2d 76 8f b3 bf
       -0.017606042586183437 -0.07640780067495405
000190 b0 87 db 24 a7 08 8a bf e8 5f 65 72 ef 2d b7 bf
       -0.012711816608717758 -0.09054466765280689
0001a0 27 1c 37 d9 5d 45 89 bf 6f 56 3c 6f e0 9c c7 bf
       -0.012339337531456064 -0.18447499686651578
0001b0 2b 3f a6 88 12 ee b3 3f 6f ed 95 0d 27 53 c6 bf
       0.07785144649664903 -0.1744126144729807
0001c0 d8 85 ec e1 30 90 83 bf 81 d9 e8 50 9d 41 cc 3f
       -0.009552366156245037 0.22075239611303846
0001d0 6b af c3 d0 6b 65 90 3f e7 c6 ea e4 30 31 b4 3f
       0.016011890999763006 0.07887559498592688
0001e0 37 01 c4 54 2f 7c 9f 3f 16 f3 79 cc 94 1b c8 bf
       0.030747165249523447 -0.18834171280095607
0001f0 96 d0 5b ab 5c 72 97 3f da a8 cb fb 65 d6 bc 3f
       0.022897193869497366 0.11264645955421618
000200 63 44 b2 54 c2 4e b9 bf e1 b5 16 ce ce da c1 3f
       -0.09885801856786851 0.13948998511243274
000210 1d fa c5 00 b4 b7 b0 3f 3c 78 3a 6d 98 8b c9 bf
       0.06530308741455611 -0.19957261403482274
000220 be 6c f0 39 8a 34 a1 bf 71 ac 1d 54 f3 c1 cb bf
       -0.033603972981120375 -0.21685639960500994
000230 be 75 88 bf e7 30 b1 3f 40 d4 c2 5f 68 71 b0 bf
       0.06715248514270564 -0.06423046434322632
000240 ef 47 66 21 36 8c cc bf 9e 1e e5 30 c7 83 a5 bf
       -0.22302891379200626 -0.04202101203787588
000250 c9 46 25 fc 09 fa c9 bf 28 3f ec ef 00 79 b7 bf
       -0.20294308482930593 -0.09169011933795146
000260 45 1e b8 72 98 99 c7 3f 06 80 44 de 8c 80 9f bf
       0.1843748626854326 -0.03076381785024298
000270 6d 07 52 7e 44 49 c3 3f eb 65 f6 6c 3f 14 c0 3f
       0.15067344825734655 0.1256179124873563
000280 5d fc 84 df 3a 56 c4 3f 8b 3b 8c 21 9c 8e af bf
       0.15888152994191077 -0.061634902091206
000290 43 14 52 44 1b 93 c3 3f 4d 4b 74 81 e9 ab 82 3f
       0.1529268344494615 0.009116958869105263
0002a0 ff a9 37 51 07 21 b2 bf b8 04 45 48 8d 7f b8 3f
       -0.07081647618148422 0.09569628729242907
0002b0 5a 50 a1 cf f5 0a 81 3f 06 bb a9 be 7b 8b a1 bf
       0.00832168617140654 -0.034267298721593106
0002c0 f9 5a f2 bb e1 5b 92 3f 38 d1 c1 5f 5e 28 8d 3f
       0.01792862615237831 0.014237153336786976
0002d0 54 3e d6 30 7d 51 a1 bf eb 5a 68 2e 5c 21 c1 bf
       -0.03382483693269181 -0.1338305689430038
0002e0 5f 81 66 29 f4 8f cc bf 87 0f 54 7f db 35 ab 3f
       -0.22314312001709433 0.05314527444173139
0002f0 8b f7 c5 c7 ff 56 aa 3f 0a 4c bb e3 46 0c bf 3f
       0.05144500077857036 0.12128108081678604
000300 ac 27 55 08 3c e5 c0 3f 83 4f a3 8c 30 3d c7 3f
       0.13199568182818433 0.1815548598011639
000310 ce ed 6f fe dd 81 a6 bf 27 8a 94 b1 39 56 c7 3f
       -0.04395955782817006 0.1823188893404943
000320 44 e3 d6 76 ee 31 b2 bf f3 ff 29 74 40 5b c8 3f
       -0.07107439423897427 0.19028478309701277
000330 e9 b0 30 c6 8c dc 02 3f f1 ee 89 a8 f8 3d bd 3f
       3.5975500189829226e-05 0.1142268573257146
000340 6a 9e a0 dc cb 8d 95 3f b5 54 41 49 4a 4c 85 3f
       0.021048722592381365 0.010399418221064808
000350 6d 51 6b 19 de 65 bf 3f c9 0b 4f 08 88 e2 c3 3f
       0.12264812584482394 0.1553506889887031
000360 50 6f db 0d 94 9b a6 3f c3 8a ce 2b 26 10 9c 3f
       0.04415571850924371 0.027405353950267008
000370 19 d9 a9 f2 21 16 59 3f f9 2a 51 c3 5a 30 b9 3f
       0.0015311557314397538 0.09839408176882704
000380 eb 99 7d 6c 00 ad cb 3f fa 4c d6 2f 78 af a1 bf
       0.21621709153551136 -0.03454185089062807
000390 f4 2c 2f 73 ba a3 b6 3f b0 9f 92 7a a5 56 cc bf
       0.0884357958995457 -0.22139423832891003
0003a0 05 d1 dc 50 f7 1f a5 bf a8 75 80 3a 1c 37 b5 bf
       -0.04125950681773997 -0.08287216594950186
0003b0 4e cb e1 e7 cc 0f bc 3f 95 22 b3 ce e4 3a c6 3f
       0.10961609517270895 0.1736722955013376
0003c0 24 ae 35 e0 88 fc a8 bf ac 33 1f f6 a4 1c b8 bf
       -0.04880168663916276 -0.09418707856020941
0003d0 ff 2d 74 69 82 a8 b2 3f 2b ba 82 f3 a1 92 b6 3f
       0.07288374971920318 0.08817493624767596
0003e0 9e 8f 42 2b 47 19 a8 bf 78 cd 76 ce 98 d2 75 3f
       -0.047067855864298055 0.005327793980018362
0003f0 12 53 2f f1 b7 4a c7 3f 28 6c 8f 9f de e4 a8 3f
       0.1819677283916908 0.048621136643952234
000400 1e bf a9 3a 13 de b2 bf aa a9 75 11 4a 2b c7 bf
       -0.07370109731868665 -0.18100858547707094
000410 49 01 51 73 8d d5 b2 3f 3c dd 68 ea f8 2a cb 3f
       0.07357105317442349 0.2122489113405467
000420 94 fa 8c 0e b7 e8 aa 3f 00 a2 82 e6 00 e9 c3 3f
       0.0525567250501712 0.15554820304284078
000430 86 bc 93 64 68 0e b9 3f 83 2b bd c6 fd e1 c2 bf
       0.0978760953473615 -0.1475217075734144
000440 20 84 39 b6 6f e9 cb 3f 8a de 60 c6 a9 30 b1 bf
       0.21806141278924063 -0.0671487912485366
000450 7c 18 bc 2c 2f 7f b1 bf 46 84 96 ad 37 4d a7 bf
       -0.06834692804486225 -0.04551099771493532
000460 aa e7 33 b0 2f d5 b2 bf 64 da 5a e9 22 9d cc bf
       -0.07356546451401749 -0.22354542154581047
000470 06 0c 67 41 69 81 c3 3f 05 eb 62 31 12 e7 68 bf
       0.15238681500895285 -0.003039870770490951
000480 17 2f de d2 d4 fe c1 bf 3c a9 b2 4d 6c e5 b2 3f
       -0.14058933540615534 0.0738132180873991
000490 b4 33 3a 96 80 29 9a bf 1a 01 df 13 07 93 a4 3f
       -0.02554894368090617 0.040184231925652195
0004a0 08 82 d7 e2 93 d0 9e bf 60 df 1c 88 fd a0 a3 3f
       -0.030092535705877693 0.038337633958177575
0004b0 3b e0 d4 63 cc 0b c9 3f f1 b3 14 30 5f 9b a4 bf
       0.1956725585421298 -0.040247892970320616
0004c0 a8 24 cb 28 a9 64 c0 3f fb 73 33 0d 9e f6 ac 3f
       0.12807192317840088 0.05656904135842208
0004d0 21 e6 26 a8 18 e0 bf 3f bd 99 df 2c 72 0f b9 3f
       0.12451318841240112 0.09789193721335372
0004e0 86 4a 5f 76 8b 05 77 3f 1e ed 80 a1 a0 10 ae bf
       0.005620522284476187 -0.05872060748557771
0004f0 57 58 90 98 66 bb b4 3f c4 f6 89 70 82 35 bf bf
       0.08098450874999351 -0.12191024062664285
000500 4c 7f 2c f6 5a cf c5 bf 10 a2 8f c8 b5 10 cb bf
       -0.17039048214155128 -0.21144745152493316
000510 91 bc 11 83 67 24 c7 3f 11 2d 19 bc b4 25 c7 3f
       0.18079847240321503 0.1808381956528611
000520 16 b3 62 70 08 95 c0 bf 1f 91 3d 9d e2 9f a9 3f
       -0.12954812514853903 0.05004795236053127
000530 17 77 49 24 4b f8 bf bf 44 da 0f 47 8e 82 7b bf
       -0.12488240848457753 -0.006716304561442291
000540 d2 94 99 30 03 49 c7 3f 88 11 71 70 a2 55 a2 bf
       0.18191566346209825 -0.035809589601316694
000550 6a eb 21 d6 eb d3 be 3f ae 89 77 e7 ff 94 bd bf
       0.12042116144031714 -0.11555480385826541
000560 c0 d7 9e a3 72 ff b0 3f c4 aa c9 6a c5 f6 9a 3f
       0.06639782423630347 0.026331982271964774
000570 d6 62 bc bf 23 c4 85 3f ce 66 32 46 87 8f c9 bf
       0.010628012932600777 -0.1996926396139344
000580 ef 50 0e 55 0d 3e ca bf 78 79 a1 ed 36 a5 bc bf
       -0.2050186791717645 -0.11189597417385311
000590 c9 95 a9 98 78 81 c6 bf d2 1c 27 52 ab 9f b1 3f
       -0.17582614378186026 0.06884260898287956
0005a0 f4 65 4a 34 57 48 c5 3f 3c d3 bd 14 37 18 ca bf
       0.1662701611829075 -0.20386398804444095
0005b0 86 6b 72 c9 1d 5e c0 bf 17 92 43 d1 46 14 b1 3f
       -0.1278722032191945 0.06671564682944396
0005c0 40 08 0b 31 e7 9e 8b 3f 68 55 26 71 1e 8d c1 bf
       0.013486677345444176 -0.13711910748376543
0005d0 27 78 83 1e 19 4f 59 3f d6 9f 2b 3b 14 bc b6 3f
       0.0015447373680710448 0.0888073582133296
0005e0 1c 0b 21 52 23 67 b9 bf a8 3c b3 b0 7b 75 ca bf
       -0.09923001055817021 -0.2067103016656564
0005f0 9e 1a ce 27 da 35 c2 bf eb 13 d6 f5 05 38 b4 3f
       -0.14226843780143822 0.0789798474489342
000600 f2 d2 a4 c4 f0 c5 8f 3f 67 43 2d 50 da f5 aa bf
       0.015514260293096414 -0.052656957900245875
000610 e4 f9 45 2a 71 54 bc bf e4 3f 69 01 ea 53 87 bf
       -0.11066348344863958 -0.01139052216345244
000620 e8 fb 64 d3 22 fe cb bf be 27 f3 26 76 d5 bb 3f
       -0.2186931163978152 0.10872591448710886
000630 48 dd 2a 91 4f 48 c8 3f 0c 3b 7b 6e 15 1e c3 bf
       0.18970675075773102 -0.14935558218572742
000640 2a 61 ae ae b8 d3 cb 3f 50 a5 3f 6e 87 6b cb 3f
       0.21739872483591088 0.2142190254519769
000650 a9 c7 2c 58 e2 6e c0 bf 13 ca ea 06 7a be ad 3f
       -0.12838391595283596 0.058093846649530566
000660 3f e2 b0 5a bf 86 b9 3f ff bf 19 e9 22 0c 83 3f
       0.09971233333715988 0.009300492037453976
000670 40 68 b4 cd 6d 47 95 bf 0c 74 0e ee 26 54 c2 bf
       -0.020780292206019846 -0.14319311736917972
000680 21 d1 f3 7d 12 db bd bf 4c a5 72 83 da 0b cc bf
       -0.1166240270138741 -0.219111742194665
000690 4c 15 87 c0 dc 4f c6 3f 87 9b 8c 57 d1 3f a6 bf
       0.17431220436825823 -0.04345564073292168
0006a0 96 f1 ad 30 a1 34 a2 3f 0e a2 74 11 6a c7 ca bf
       0.0355577823565653 -0.2092106423599635
0006b0 bb 2e 86 5c 11 c2 c7 3f 7b a5 da 51 5c fe 7a bf
       0.18560997979908742 -0.006590233444208389
0006c0 86 27 f2 f7 5b a7 c0 bf 08 9d db 9c 5a 22 c4 3f
       -0.13010739905103835 0.15729839953494484
0006d0 09 fb e5 61 79 c5 ca bf 9a 36 a9 47 10 48 c5 bf
       -0.2091514328021378 -0.1662617063433814
0006e0 3b 14 bb 8f bf ee a7 bf fb 10 70 26 61 9a b3 bf
       -0.04674337987447826 -0.0765743941156564
0006f0 b0 b8 cf 01 a6 02 c4 3f 70 43 a9 d7 a9 d6 ac bf
       0.1563308247418198 -0.05632525212843731
000700 e3 0f 32 0c 27 54 c9 bf bd e0 51 57 bc 35 b3 3f
       -0.19788063140379028 0.07503869182426377
000710 06 74 3d 5a 31 f7 c6 bf 1f 93 43 df 01 49 be bf
       -0.1794187250733616 -0.11830150318889963
000720 05 f3 28 60 5d 85 c7 bf b2 d4 9e c9 a7 ba 98 bf
       -0.18375746913252314 -0.02414953392117942
000730 51 c6 ca 0d b1 3f c6 3f 88 b0 31 ba 32 66 cb 3f
       0.1738187138885672 0.2140563401366118
000740 0d b8 f6 5a a4 40 b5 3f f9 b9 a1 14 a5 b5 8f bf
       0.08301760884089067 -0.015483178798800333
000750 49 b1 b9 58 21 ab c6 bf 1d c8 dc 6d fc 76 c5 3f
       -0.17709748108189619 0.16769366611839667
000760 26 9d 22 f2 50 37 b8 3f 09 06 0b a4 7a ba a9 3f
       0.09459405814651642 0.05025084736326952
000770 47 80 fc cf 14 7e bc 3f 90 30 82 30 3a 61 a2 bf
       0.11129884794036214 -0.035898035451368604
000780 69 aa 28 f2 82 55 c2 bf e7 14 fe 1e bb a2 c9 bf
       -0.14323460411226854 -0.20027865422540644
000790 06 e2 3d 62 d7 b7 ca 3f 5d 3b 1e 91 c6 35 ba 3f
       0.20873539254149892 0.1023830513279171
0007a0 6c 98 af 47 1f b0 a8 bf 34 3d cd 84 6e b8 b7 bf
       -0.04821870565483341 -0.0926579546187341
0007b0 97 32 32 59 22 a9 be 3f 1b 3c 2f 8b 1c ec ba bf
       0.11976828267706661 -0.10516527555522297
0007c0 80 f3 0a b9 7e 16 c5 3f 87 da ec 68 04 4d c3 3f
       0.16474899325649162 0.1507878792123913
0007d0 6d 7b 49 ef 6b f4 a0 bf 25 35 74 5d bf a0 b8 3f
       -0.033114788970798205 0.09620281249609215
0007e0 20 57 6d e9 f2 ad 8c bf 65 fc 9a 2c bb 2a c9 bf
       -0.014003656147604071 -0.19661655118941038
0007f0 e3 40 aa 64 04 e3 c2 3f 2c 6d e9 5e 4f 3b cb bf
       0.14755301394735118 -0.21274749884001076

hidden_layer3.bias f8 [20]
000000 57 3e e8 bd 27 04 c6 bf e1 a6 d8 33 33 b1 b5 bf
       -0.17200180790722427 -0.0847351075723526
000010 39 e3 b8 11 eb 7c b6 3f 7e fc 16 cd 98 4b bf bf
       0.08784360106154744 -0.12224726683688122
000020 77 cc 83 0b f3 3b b5 3f 0a 8c 08 4f 02 d4 8c 3f
       0.08294600516437521 0.014076250111491734
000030 bc cf 0d db 56 ef 91 3f 83 cc b0 3f 31 5f b8 bf
       0.01751456939696515 -0.09520252041765968
000040 94 1b 77 c7 d0 b0 bb 3f e7 17 37 d6 a6 54 c6 3f
       0.10816674108273922 0.17445836505629517
000050 4d a9 0d 84 4d 32 b0 3f 83 d0 3f 4d 88 d9 bb 3f
       0.06326755975684258 0.10878803144425046
000060 2f d0 15 44 ac 44 ca bf 58 2c ce 7e 62 8f c0 3f
       -0.20522073101494828 0.12937575523060008
000070 8f eb 38 76 86 b8 aa bf c4 61 08 8a b1 58 b4 3f
       -0.052189065867842215 0.07947835559787736
000080 09 76 58 cc bb 24 a4 bf 55 e0 83 5c df 95 b6 bf
       -0.03934275502636459 -0.08822437294645742
000090 5f 3a b1 8e 34 cb ca 3f 17 87 8d a6 88 27 8a 3f
       0.20932633368871031 0.012770717222966561

hidden_layer4.weight f8 [20, 20]
000000 15 a2 99 e3 c8 0c b1 bf 46 97 94 93 fd 12 cb 3f
       -0.06660132938998971 0.21151704507900088
000010 f9 bd 84 3c 91 36 b9 bf 79 4d c2 f6 8c c5 64 bf
       -0.09848888137343427 -0.002535605735894894
000020 31 be 2b 42 ef 6d cb bf 2a 0e e3 de 97 24 a3 bf
       -0.21429243784904053 -0.0373885593012598
000030 2c ea 27 1f 28 2c bf bf 89 b3 bb c4 0b ac be 3f
       -0.12176752815859321 0.11981271317536203
000040 3f fe f0 d7 63 9c a1 bf de 3d eb 73 ec 42 c1 3f
       -0.03439628611567657 0.13485484752753413
000050 e7 61 a8 b6 c7 fd c3 3f ed 1c 08 e6 22 f1 ca bf
       0.15618225497088575 -0.21048389656082325
000060 cc a3 fe 49 f4 93 bd bf 31 ba 37 23 a0 44 89 3f
       -0.11553885275374326 0.012337924074896285
000070 1e 66 b1 ee 0e f4 af bf 15 30 cc 20 95 30 c1 3f
       -0.0624088922856567 0.13429512120671974
000080 2e c6 27 12 2b 3b c8 bf a7 a8 56 a7 e0 f0 c3 bf
       -0.1893056715630776 -0.1557884995539258
000090 33 fb e8 e1 4b 1b b4 bf c4 19 98 5c ac 54 be 3f
       -0.07854151025183569 0.11847951183890532
0000a0 cd 81 98 d3 38 6e c8 3f 48 17 0c 36 6a a0 c0 bf
       0.19086370784590515 -0.1298954738523952
0000b0 5a 71 d1 3d f1 f1 c1 3f 73 5c 0d 4a cf 07 9e 3f
       0.14019599455321946 0.029326666731631378
0000c0 b4 7d 28 cc d4 b6 c5 3f 42 d9 6b 25 e1 e3 a8 3f
       0.16964206665669013 0.04861358243754178
0000d0 84 4d 7b 48 0b 63 94 bf d2 60 c0 3a e8 a1 7f 3f
       -0.019909073161057403 0.0077227660622371675
0000e0 61 8c c6 95 f6 02 61 bf 97 d7 e0 17 44 4d b2 3f
       -0.0020766082872838852 0.07149148543325477
0000f0 40 79 3f 34 20 09 c9 bf 9d 99 43 18 49 d3 c0 3f
       -0.19559099723023543 0.13144792256134688
000100 60 4a c5 f0 08 4a a8 3f 78 a4 48 44 5c 9c cb bf
       0.047439841643286185 -0.21570924123924207
000110 46 d1 b6 bb b9 e4 a6 bf 65 de 36 d4 0d 82 c8 3f
       -0.04471378723556767 0.1914689336970127
000120 a7 ca e7 48 ef 00 af 3f 22 46 bc a5 6c 79 c3 bf
       0.06055400624236045 -0.15214307873297722
000130 a9 e2 26 78 fb 6b ae bf cb 53 51 4a 01 d3 c5 3f
       -0.05941758958528471 0.17050186280053334
000140 01 06 cf 3e de 12 c8 3f 53 44 1a 09 27 b7 a0 3f
       0.18807581011610355 0.032647342549474566
000150 b0 60 ad 2b ac f5 ba 3f ca a8 2a cf f6 7f c2 bf
       0.10531116548861763 -0.14453015437658784
000160 83 76 34 0f 14 50 ca 3f 8c 82 c4 aa 4b 5c ab 3f
       0.20556879751613985 0.053438534351021166
000170 47 4b 9a ef dd f9 c0 3f 94 dd b1 bc aa 4d be 3f
       0.13262533377982264 0.11837260348135309
000180 d0 04 31 18 f6 5f c3 bf ba 37 37 f5 77 b2 8e bf
       -0.15136600667214006 -0.014988839312447644
000190 f0 47 dd d4 61 ed c5 3f 51 b7 8e 9d 56 83 b4 bf
       0.17130682843941214 -0.08012906405084876
0001a0 1a 7d 79 e6 d0 64 a8 3f 32 ca 0f 68 62 83 c7 bf
       0.047644165166952315 -0.18369703370224638
0001b0 6c 74 c2 2d 05 55 cc 3f 93 92 ae 17 b9 7f c0 bf
       0.22134461149554185 -0.12889779716819713
0001c0 89 0a 46 65 ff ee 9b 3f 33 6f 0a 4b 51 2e c3 3f
       0.027278891140222448 0.14985099948978017
0001d0 e5 58 95 40 af d9 c3 bf 33 02 69 f5 55 59 b0 bf
       -0.15508070615277983 -0.06386315576038086
0001e0 a3 53 fa b9 9c fa b3 bf 67 ba 5d 1f 5d a8 c8 bf
       -0.07804278889154985 -0.1926380541949186
0001f0 43 fe 21 7b 38 99 b2 3f d4 fc 0d c2 e8 ee b8 3f
       0.07265046125575574 0.09739546525632942
000200 62 15 59 b2 06 f5 c6 bf 9f 65 ec 33 48 5c a7 bf
       -0.17935260494611344 -0.04562593110876922
000210 b4 02 2e 7a 35 b4 94 bf 68 69 cb f6 d2 a2 c9 3f
       -0.020218692381151995 0.20028149652973615
000220 d6 a9 58 2f 14 d6 b3 3f 7d 87 ac 29 e2 db c9 3f
       0.07748533397594967 0.20202281031475514
000230 50 63 82 b9 2a 1e a2 3f 7e cf 11 80 9e 95 be bf
       0.03538640512960589 -0.11947050692270797
000240 72 95 32 75 f6 76 a7 bf 65 b0 ed 5e 02 22 c5 3f
       -0.04582948856959036 0.16510038027934396
000250 8f 61 a0 f8 3a 90 b7 3f 16 6d 1e c2 bb f2 b2 3f
       0.09204453058226235 0.07401631821851526
000260 8f a9 90 53 a2 b8 c5 3f d3 72 97 a5 4d 84 c6 bf
       0.16969708519293333 -0.1759125765373911
000270 38 09 1c 8f ce 98 99 3f af 23 38 55 10 a3 c0 3f
       0.024996974453651094 0.1299763122663342
000280 90 f9 ad ff 94 d7 c4 bf ce 20 6a 1e 23 11 cb 3f
       -0.1628290413318152 0.21146048531614386
000290 5d 49 ab ce fc c4 c9 3f 4f 27 13 fa 37 40 92 3f
       0.20132408229126045 0.017823099745135903
0002a0 59 da 0e 50 c5 a7 be bf 39 9e c9 ff 95 6a c9 bf
       -0.1197474785284184 -0.19856524457576244
0002b0 f8 d6 a9 21 81 2b aa bf e3 ad cc 4a 69 4e c4 3f
       -0.051113162383371546 0.15864292290039747
0002c0 9e f9 07 10 bf 26 c5 bf 4c be a6 80 3e a3 c2 3f
       -0.16524494440814136 0.1456068161182763
0002d0 cc 6b c8 34 7c de af bf 62 c2 1f c1 0b b9 cb 3f
       -0.062244302218651265 0.21658465318570835
0002e0 51 5c 19 0e c1 36 bf 3f 55 b2 37 ca 47 25 b0 bf
       0.121929231588511 -0.06306885420753734
0002f0 5e 1b 99 84 f3 a8 9c bf 12 ff 25 fb 0c 8b c6 3f
       -0.027988247841018825 0.17611849082094772
000300 fd 3a da 32 8a 11 9f 3f 56 7a e9 be 43 2b 9d bf
       0.030340346673763275 -0.02848535397276416
000310 56 5a f4 76 b7 72 b0 3f cc 0f 7b d0 a0 bc bb bf
       0.06425043729937249 -0.10834698762761191
000320 41 aa cd 5d a1 a7 a3 3f 9d 91 56 35 25 fb c8 3f
       0.03838829298077374 0.19516434769060434
000330 d4 df 5d ab 95 7b c5 bf d0 33 92 61 fa 3a af 3f
       -0.1678340040923546 0.06099684182218079
000340 5b 73 1c 96 96 41 c6 3f 34 ac c2 07 56 51 c3 3f
       0.17387659387250207 0.1509196794407629
000350 38 a1 7f 99 b9 23 c9 bf 9b 32 7b d4 8d 2a b3 3f
       -0.19640274043127603 0.07486807286768242
000360 f3 fb 71 69 e5 4f b5 3f d1 a4 20 2b 2c f6 cb 3f
       0.08325036835047665 0.21845008951030434
000370 80 d5 35 3b 9a 18 ba bf 03 1c e4 fc 92 e6 b8 3f
       -0.10193790383876511 0.09726828264329872
000380 e5 ac 7e c7 15 f4 b6 3f c2 25 1a 86 23 1b c9 bf
       0.08966194267729895 -0.1961407093806838
000390 96 60 6a f7 5d 39 92 3f 20 08 16 4d 26 93 a2 3f
       0.017796962953611294 0.03627891245834314
0003a0 8c ec 05 69 05 e2 88 bf 0d a9 46 e0 37 57 c3 3f
       -0.01214985110049429 0.1510991902444591
0003b0 31 7f e4 16 1e 27 b3 3f e2 b2 18 72 8d fc b9 bf
       0.07481563624287159 -0.1015098956638201
0003c0 3c ce 7a 09 cf 03 cb 3f e9 c9 eb 3e e0 d1 c7 bf
       0.2110537334716457 -0.18609240600888136
0003d0 d2 d2 33 c0 ea 2c c4 bf d1 0e 99 a8 de 14 c5 3f
       -0.15762075791248847 0.1646993945342872
0003e0 9d bd 61 4c ce c4 c4 3f cc 81 9c a1 85 b6 c1 3f
       0.16225603799419455 0.13838262931041212
0003f0 6b 85 ca 4f cd 8b c8 bf 91 7d 32 ea cb 6e 98 bf
       -0.19176641841935846 -0.023860155267013964
000400 26 35 08 92 04 34 b4 bf 16 28 cb c8 b0 20 ca 3f
       -0.07891872945056785 0.20412263683675808
000410 52 cb da cd 87 80 c5 bf 41 7d 21 35 a5 85 a0 bf
       -0.16798493911263762 -0.032269633041091435
000420 f2 74 9b 34 ac 40 c9 bf 7f 4f 48 1b b9 4f c5 3f
       -0.19728615349496398 0.16649545509482874
000430 44 86 03 d4 94 49 b2 3f d5 d5 14 8c ac 9e 72 bf
       0.0714352624522912 -0.0045458545803760035
000440 41 8d 97 26 5c 34 a0 3f bf 74 18 89 79 8a c4 3f
       0.031649474821984665 0.16047591394536728
000450 1d 18 3f 0e 9a 2b 7a 3f 4b aa 36 f4 95 37 be 3f
       0.006389238147624735 0.1180356713509038
000460 86 92 d7 65 6d 90 c2 bf 3b d7 cc 8f d1 1d c9 3f
       -0.1450325724864749 0.19622249146930834
000470 b3 59 b9 2c 1d 56 c0 bf 86 fe f7 0f 31 72 c5 3f
       -0.127627989614394 0.16754735259745618
000480 e4 0c 2b a6 c6 e1 a1 3f 2d 29 c5 2e 94 3b a4 bf
       0.03492565897388447 -0.039517050465820304
000490 2e 9e c9 d0 97 de c9 3f 3a 92 99 f7 69 61 c4 3f
       0.20210550017076073 0.15922283735121018
0004a0 ee 88 68 a9 3a e7 ca bf ba 22 05 eb b4 7b 95 bf
       -0.21018155357257434 -0.020979716152654794
0004b0 43 f6 c9 9a c6 8f a2 bf 09 92 0e 6f 9e cc b8 bf
       -0.03625317229760274 -0.0968722363600777
0004c0 52 9c f9 25 34 b5 9e 3f 66 31 68 85 74 3f c4 bf
       0.029988112275898544 -0.15818649782194
0004d0 3f df ca d5 b8 0e c2 bf 65 98 71 fe 8f ea 84 bf
       -0.14107428015790366 -0.01021301741839071
0004e0 9a 60 5f 3f d4 75 c1 bf ce 4f dd 38 99 a3 c0 bf
       -0.13640835852016125 -0.12999263073527206
0004f0 5e fd 41 89 71 84 bf 3f 82 9e ff 3a c0 66 c3 3f
       0.1231146774389251 0.15157320862566698
000500 4a d6 45 db ff 98 c5 3f c4 07 c5 ab 5f de c2 bf
       0.16873167235069025 -0.14741130721273354
000510 e2 e9 bc 14 56 ea a4 bf e8 a4 a6 fd 3a c2 91 bf
       -0.04085034373425224 -0.0173424928013092
000520 34 cf ba 75 f5 46 cc 3f b6 06 67 5a 88 54 c0 bf
       0.22091549156686485 -0.12757973112279836
000530 1a 80 89 46 6d 98 7d bf 29 19 0d 3c 55 b6 c7 bf
       -0.007225443704186341 -0.1852518599718647
000540 2d f8 4b 80 2a 9d c1 3f 3b 2f df 14 b5 99 bd bf
       0.1376088262986185 -0.11562663802686483
000550 87 9b d7 01 2d 33 cb 3f bf e0 2f 9f 73 86 c0 bf
       0.21249926176025388 -0.12910313866428244
000560 6f 1e f4 45 23 3d c5 3f 16 86 2f 7f 97 06 a0 bf
       0.16592827716543776 -0.031300291324225224
000570 fd 21 b1 58 83 6c c5 bf e6 20 7d e1 b4 52 7b 3f
       -0.16737405615482706 0.006670672002492694
000580 58 4a b6 a7 2b 22 b2 3f 84 0c a9 54 e2 da a0 3f
       0.07083390087635999 0.03291995318843369
000590 ef a7 45 c2 f5 18 c7 bf ab c3 d5 0f 7f 75 bc bf
       -0.1804492186159332 -0.11116785179707615
0005a0 42 5a 39 62 45 67 c9 bf e6 67 9b 09 94 97 a1 3f
       -0.19846408172698388 0.034359575436340425
0005b0 69 6e fa ed d6 33 ca 3f f2 d9 89 74 99 db b5 3f
       0.20470701808959582 0.08538207144906787
0005c0 79 6f f4 d8 c3 10 cc bf e6 f5 23 1b 3b 03 ab 3f
       -0.21926162808892594 0.052759024680181274
0005d0 15 a1 8b 8f c7 a1 c2 3f 49 8f d7 b2 1a 09 a1 bf
       0.14556211957029377 -0.03327258523111582
0005e0 1c 2f 4e fd 23 36 c8 3f 4d c4 37 ba 62 2f ca bf
       0.18915223949840587 -0.20457109539668963
0005f0 e8 f1 ca 51 cd 96 c7 3f f8 d3 1a 16 d4 b9 b9 3f
       0.1842896127108269 0.10049176730792897
000600 90 a6 72 02 98 cc b8 bf bd d0 c3 d6 a5 c8 ca 3f
       -0.09687185344469129 0.20924828516547747
000610 32 e0 b9 d9 63 e7 c1 bf ab 0d 71 98 be 78 7d 3f
       -0.13987396365314592 0.007195229066442914
000620 bb 54 3e 04 5c 48 cb bf ca 7a e2 94 f1 1b b2 3f
       -0.2131457348556632 0.07073888668899567
000630 b6 95 ca 90 55 00 cb 3f c1 38 f4 4a 28 6e c1 bf
       0.2109477002133368 -0.13617423686850397
000640 9c ce b3 f2 7a 92 9f 3f 9b 0c 93 ca 6e 6e cb 3f
       0.030832215369584234 0.21430764094666163
000650 ea db a3 34 cc c9 c5 bf a6 0b 47 ef 34 fe b7 3f
       -0.17022087641063816 0.09372263757454266
000660 e4 e3 0c 33 76 fe cb 3f dc 15 a9 02 4a 34 bf bf
       0.21870305531208978 -0.12189161839440693
000670 25 f5 9d 19 9e dc b2 3f 20 ed 86 c0 24 44 85 3f
       0.0736788570920522 0.010383879781207528
000680 a6 b7 ff ed 2d 04 c0 3f 58 c0 a7 c6 d4 2f b3 3f
       0.12512754555740208 0.07494859552366628
000690 a8 be fa 4c 66 13 ca bf df e3 03 50 a0 79 cb 3f
       -0.20371702917826906 0.2146492376994322
0006a0 8c 2e 9c da 96 b5 cb 3f 2d 19 2f eb 3d 71 c9 3f
       0.21647916483231133 0.1987683676108615
0006b0 46 00 cd 25 7d df c7 3f 7c 09 5d 31 f1 80 83 bf
       0.18650783868543125 -0.009523281401588639
0006c0 5b 71 79 1a 52 a5 c6 bf 2e af b0 85 ee 6e b6 bf
       -0.1769201878804648 -0.08763018382950058
0006d0 2a 35 9e 71 6c eb c4 bf 1e 54 13 a5 51 7f c8 bf
       -0.16343455837015003 -0.1913854652435995
0006e0 97 85 a4 3a 87 3f ad 3f 5d 15 b6 8c b2 c3 b1 bf
       0.057125306995895624 -0.06939235625585156
0006f0 8e 70 cf ee de 9c c5 3f cf 91 02 84 70 17 ca bf
       0.1688498178544972 -0.20384031720926862
000700 8e c4 75 9b ed 86 9d bf 31 1d fc 9c 48 8e c5 3f
       -0.02883502255776143 0.16840465226435122
000710 54 fb 02 b9 fc 99 b7 3f 3d 25 5f c6 df aa c0 bf
       0.09219340817342686 -0.1302146643268233
000720 e2 ea ea 06 e4 3e b8 bf fb ac 03 ae b3 d6 b3 3f
       -0.09470963639152388 0.07749484060666482
000730 9d e2 bb 5e 89 ff c4 bf 63 b2 e5 3d 04 93 ae bf
       -0.16404835820846567 -0.059715397411171954
000740 60 ee 22 de 87 14 be bf a0 be 72 2c d5 4c 84 bf
       -0.11750077412846727 -0.009912171763374389
000750 33 a4 c0 69 a8 c8 b5 bf 52 52 0a e2 aa 68 80 3f
       -0.08509304601524618 0.008012137435153086
000760 27 7c a3 97 d8 3d a9 3f f4 5d b5 b5 4f 4b b2 3f
       0.049299973021099945 0.07146166025392359
000770 fd d5 6b c0 b1 89 c2 bf 3d 92 98 df d3 f0 c2 3f
       -0.144827097850495 0.14797447603008776
000780 1c 07 c5 1e 7c 7e cb bf 56 f8 4e 41 09 a1 cb bf
       -0.21479751112388434 -0.21585193337336034
000790 69 55 55 f0 c4 94 c8 3f fa d9 5b 1c fe 3b c2 3f
       0.19204007849718188 0.1424558294745138
0007a0 5a 64 1b ae 46 22 c0 3f 99 77 c3 2f 70 45 68 3f
       0.1260460233814083 0.0029627982276982487
0007b0 4f 6a 15 f2 c9 ba bd bf ff e9 fa 40 9d 7a cb bf
       -0.11613142166371769 -0.21467939064844185
0007c0 0e ba c2 32 1f a4 a8 3f 9a b6 e2 9f 61 eb 9b 3f
       0.048127150484436595 0.027265096076624397
0007d0 dc 09 a4 43 4c 40 c0 bf 43 f4 ba e1 c5 53 c1 bf
       -0.12696221640369643 -0.13536904832827376
0007e0 53 6a 77 bc 14 b6 c7 bf 57 27 30 55 7a 70 ab bf
       -0.18524417116607825 -0.05359251298803141
0007f0 b9 24 2d a0 66 5e a2 3f ea bb e2 01 41 6d b7 bf
       0.0358764715698014 -0.09151083274876695

hidden_layer4.bias f8 [20]
000000 52 7d 45 2c 1b df 9b bf 65 e8 a1 61 73 d6 b6 3f
       -0.02721826989852378 0.08920975812535088
000010 e7 63 af fc 56 96 c6 bf 59 2f d7 e6 e3 c4 b1 3f
       -0.17646300638332876 0.06941055665737163
000020 f9 67 cc 1c 20 3d ac bf 81 6f 9d 03 1d 53 c4 3f
       -0.05515385009330482 0.15878641773712945
000030 40 2e ca be ec c7 b6 3f 34 fd e0 f8 fc ee ab 3f
       0.08898811014130903 0.0545577100569922
000040 13 c6 36 5a ad 21 be 3f 4a 68 ac cd 5f 94 c7 bf
       0.11770137264718299 -0.18421552221917842
000050 59 c9 97 b6 ab 33 c6 bf c9 19 90 35 bd d8 ad bf
       -0.17345186629934053 -0.05829421309322275
000060 46 80 99 40 fc ee c5 bf a1 14 9b 0a a3 9f c7 bf
       -0.171355754416256 -0.18455923097477459
000070 bf cd a0 9f 11 f1 95 3f 66 5e 81 04 43 80 93 3f
       0.021427417152336533 0.019043967390045678
000080 b7 40 38 a2 04 02 ad 3f 26 80 57 d0 9b fe c8 bf
       0.056656021883214995 -0.19527003930034076
000090 d6 44 2a 0d 62 de c3 bf 70 36 5a 67 d4 70 a7 3f
       -0.15522409098460938 0.0457826973116483
