net_param/net_0.10.pth (torch, 17999 bytes, 12 tensors)

hidden_layer1.weight f8 [20, 2]
0.4850252482971315 0.5421812933582244 0.7515094963863747 -1.4662235969971178 -0.6949359784066675 0.25029423669105405 -0.8749243745021235 3.71774825514316
0.7369860623558429 -0.8673148065084847 -0.7956626634571133 -0.8465817873872766 1.5263351476966645 0.5040536168115112 0.2679289581550903 -2.110671145971021
0.2766757825728002 1.9845376899284055 0.7264749619902153 2.1137286441087086 0.27969130056223096 3.7638499829214456 -0.3323137610159985 -2.6326043902331198
-1.0046723144658802 0.06402858101478111 1.1867057476756169 1.7112089037069402 -3.152177256610832 1.236498724891004 -0.6177525526592392 -0.4969599168123862
-1.0758015677394916 -1.8361909996270247 0.9386155912287651 0.1992985741508227 0.5939801073382002 0.06750880171810762 1.222887629766063 -1.7754504756510647
00000000: cfe8 ca56 a70a df3f f23f 6f95 8c59 e13f
00000010: f49c b3a4 5d0c e83f 209e dbdf a675 f7bf
00000020: b640 8260 ea3c e6bf 77c8 3d1e d204 d03f
00000030: 4fb7 de66 61ff ebbf b8ce 14cc f2bd 0d40
00000040: 1ea3 6dcb 6395 e73f db4b 29fb 0ac1 ebbf
00000050: 304a c68b 1176 e9bf 67f6 46b0 3217 ebbf
00000060: e57a 6167 de6b f83f c159 f40c 3521 e03f
00000070: 985b 3b80 bf25 d13f 7673 c48d a7e2 00c0
00000080: 5db4 6f57 0eb5 d13f 10c0 be97 aac0 ff3f
00000090: d28b 636b 483f e73f ca85 3890 eae8 0040
000000a0: c3fd 3857 76e6 d13f 0795 3d61 5d1c 0e40
000000b0: 2cc4 e4ef a044 d5bf b1db fae3 920f 05c0
000000c0: c83d dd46 2313 f0bf ddbf 7755 2d64 b03f
000000d0: 3edf 832a bffc f23f a3b9 6096 1c61 fb3f
000000e0: 4cb5 a2b5 a837 09c0 b33d 0fe3 b2c8 f33f
000000f0: 7524 5600 a1c4 e3bf fd73 88f7 30ce dfbf
00000100: 8ad3 66b4 7b36 f1bf cfb8 49d0 0961 fdbf
00000110: e9fb 7a90 2309 ee3f e200 0f9d 9d82 c93f
00000120: 9bbf ef91 e201 e33f a348 92bf 4148 b13f
00000130: 7e73 889e f290 f33f 696c 09c2 3e68 fcbf

hidden_layer1.bias f8 [20]
0.07438289534125908 -0.2688719763066158 0.009769397393652148 0.29024042930338717 0.30797157636078076 0.07047566000843583 0.008174467081649652 0.3309704713789055
-0.13290027779016753 -0.19869807662593464 0.12751773112118672 0.0498892108842339 -0.1124822713987879 0.06629047175173856 -0.19189387006873235 0.9119135321362362
-0.033939751520722414 -0.07854625041795268 -0.8465745160472413 0.1575731169742794
00000000: 105c dfe6 c10a b33f 2f0f 43ce 3235 d1bf
00000010: 0e7b 7552 fa01 843f 6d71 f597 4c93 d23f
00000020: b24b 246a ceb5 d33f 9676 e65e b10a b23f
00000030: e12a 3966 c6bd 803f 11e7 a0c5 9e2e d53f
00000040: 8f79 5e55 e002 c1bf 8c78 7146 f06e c9bf
00000050: ddad 6942 8052 c03f 7c91 5722 148b a93f
00000060: 839f 095d a3cb bcbf 03cb 3590 69f8 b03f
00000070: 0bc1 1f74 fa8f c8bf 64c2 a949 652e ed3f
00000080: 96b9 a115 8d60 a1bf 96be c468 9b1b b4bf
00000090: 0499 8170 2317 ebbf 6210 111c 5b2b c43f

hidden_layer2.weight f8 [20, 20]
-0.2766584243405856 -0.10212737529779298 -0.24117196060180165 0.10317510682203111 0.6166150243812908 0.5771884827798869 0.03205598728028016 1.4059770120304091
-1.696414057978812 -1.5537565560459996 -0.428365647666503 0.9595134357613818 -0.007993338450198133 -0.44526247905899047 -0.6132512362996382 0.30762296604632566
0.55796562732498 -0.16560028987244885 -0.30760277544725273 0.8082869962831193 0.004726098184994314 0.08283316174001142 -0.14948008988438943 -0.25966889657443026
0.19756146591534973 0.20556030371084136 -0.02455281092597241 0.43373076511134956 -0.269060956448142 0.1041316172058525 -0.13475926480123027 0.10058242357818148
0.007341478193156855 -0.014469864524559728 -0.31002795624930446 0.27633323823994316 -0.3043710832671426 0.09984576863757079 0.14912002253750076 0.0298407952317549
0.18627654486757408 -0.3479638667864419 0.401941854102474 0.8016838863595958 -0.3029427901615741 0.16531118679575046 -0.2978995398916444 -0.16304202875042206
0.7497205811715336 0.16429348695386245 0.8844115738036157 -0.927828984457633 0.5053495243255582 0.17667840135243118 1.3794139640379526 0.014924054564687568
-0.35997449914159185 -0.471121598773041 0.0848849797045536 -0.9196191680974876 -0.1885534725919091 -0.08347943631333869 0.37074554542023536 -0.018207353463338988
-0.20604742987361416 0.39260368815625596 -0.0789713893321872 -0.2191275761315781 -0.11659689015006713 -0.11596236816877316 -0.06035540191177266 -0.008655172176433747
0.5011166116813238 -0.11614675957607315 0.06904969920714754 0.32280452883263433 0.16413321873723533 -0.07496318450632138 0.07050385278128685 0.11038518049516365
-0.08231650309382296 -0.249053698832036 0.10396427945819348 -0.17712911042232055 -0.241655579281162 0.4038613685173581 0.044393676800323384 0.19951698867462836
-0.04635958737363989 0.024580305991255717 -0.06299858248198728 0.3744984408334615 0.10489999757082731 -0.2610503037998091 -0.15970976635667095 0.24769465110654942
0.3145924026375662 -0.306914202167318 -0.05306509065481865 -0.0009646037304807534 0.12726136900239068 0.039014085003586545 0.061594845696191385 0.4332842700000041
-0.362712609646298 -0.12319143199241862 -0.2870593720209737 0.15595611234065493 0.042850207172906774 0.12403422430642953 0.25915442929442845 0.042019118746040585
0.13794633832890132 -0.05629124363385628 0.05216283067460896 -0.2959599030449213 0.30280040356225746 -0.011718629375128834 0.13902853819038408 0.2785223129928053
-0.24543658446570463 -0.12953362319592565 0.17107434655141926 0.20470039513415128 0.09194416608257604 0.3472858968588125 -0.18883319397709264 0.2291869779044078
0.008820994660317466 -0.13288938778092785 -0.17406134081210098 0.10326389466560762 0.2446985869851427 0.16600937455644194 -0.03858879579789212 0.4173089223840077
-0.24480610684454052 -0.22094756708180174 0.1185575888101699 0.17363990010218575 0.2692583468088645 -0.1611374113284972 -0.30397928545553066 0.4066496054055071
0.14072330879363074 -0.6117929901679798 0.49137079644341225 -0.3122529391405716 0.43688351188670316 0.28520728837572484 0.24790918943990325 -0.19523841891744273
-0.04852459064422235 0.2788582791427133 -0.009998117252790427 -0.24441066204189174 -0.30776477396776153 0.262380954351812 0.21407118892919558 -0.029048521572464667
0.13898500974550332 0.23223872382965455 -0.26693351712010477 -0.1547025180588676 -0.05663305152982877 0.003077263517736053 0.12573640981914744 -0.06868528600260292
0.00509179562602856 0.09424121466985581 -0.10730916494213173 0.10231356459193983 -0.07691329529769662 -0.2294956868593365 0.13423368019582124 -1.1243326699827083
0.011209919838077698 -0.01748292455244625 0.6653398786428174 0.03375921728878507 -0.1014772263746677 -0.18274059016677383 0.30441892326496023 -0.08551353619544218
-0.49054850708194675 -0.26156487465824657 0.12099427137885053 -0.14518690290080005 0.051778405176403516 -0.10978142464045414 -0.10179069306539816 0.20407333750363835
-0.007362893592867659 -0.10412249529554927 0.2356773950148339 -0.018236503278966507 -0.23757818879994605 0.17301514125716314 -0.06534779929257468 -0.2082890867194708
0.39150371206190243 0.13568909714299254 -0.8262456714097012 -0.45866283064283 0.20126745159060844 -1.575997157955063 1.278721883658045 -0.6348105174494836
1.3531547828711485 1.2466464567099136 0.034416717802462395 -0.25285303752600946 -0.8119229084461358 0.5440955272138095 -0.7376117873988192 -0.022895008787136777
-0.914850157220603 0.950961873647872 -0.1336627801262897 0.2813803895984555 -0.20686130025306948 0.07588512405117942 0.2651796643785332 -0.1426703669382896
-0.21534080056418076 0.05191252134490822 0.1454843153158323 -0.033195970946349906 -0.2462782707591288 -0.06087453487400604 0.17953639407977617 0.04003517065114521
-0.023790951126519185 -0.1678529542281302 0.11098231593276861 0.34795787738256273 -0.27457774732323736 -0.26434003475060164 -0.2094764646109234 -0.21970018776090142
0.09829928859277848 -0.20095205493636475 0.2903318459936822 0.38554729826878514 0.057733398510256995 -0.16407301082432252 0.20902268522411327 -0.27547841357589425
0.4791914493999166 0.24524067287453613 0.17241682739422234 -0.19979626524943972 0.12589517928162341 -0.06273191676561635 -0.2589408755126529 0.14631213108145674
00000000: 472a 2d89 c5b4 d1bf b42a ee08 0525 babf
00000010: af9b bf09 b9de cebf a7da 8f0d af69 ba3f
00000020: 8d13 7e6e 4fbb e33f f15b 25fb 5378 e23f
00000030: e303 0572 a469 a03f 1293 59c0 e17e f63f
00000040: f9e5 3711 8324 fbbf 4d9c a2d5 2fdc f8bf
00000050: 8047 ddbf 576a dbbf 0f5e 5585 55b4 ee3f
00000060: 49ef d5b9 cf5e 80bf 936e 6c32 2e7f dcbf
00000070: b56e 840e c19f e3bf 1cb8 aa3c 18b0 d33f
00000080: aae4 34bb dada e13f b6ea 9aea 6332 c5bf
00000090: 271b 2d8d c3af d3bf a32d dab0 7cdd e93f
000000a0: c598 4652 ac5b 733f b797 b2d8 8d34 b53f
000000b0: a471 bae0 2922 c3bf 60d6 a44a 6a9e d0bf
000000c0: 1033 87b1 b149 c93f 399e e5ce cc4f ca3f
000000d0: e6c4 ce3f 5f24 99bf 0807 dbae 3ec2 db3f
000000e0: e6d0 2472 4b38 d1bf 47f4 60a2 5ea8 ba3f
000000f0: b5bf 93a5 ca3f c1bf f819 d20b c5bf b93f
00000100: d609 e70b 1912 7e3f 60c6 4857 60a2 8dbf
00000110: 50ef 3b7f 7fd7 d3bf 0a74 429b 71af d13f
00000120: 06c0 1eda d07a d3bf c93d f106 7e8f b93f
00000130: c319 fd69 5d16 c33f a996 6dde 958e 9e3f
00000140: f1ea 1bea e8d7 c73f e365 023d 0a45 d6bf
00000150: f1e0 9053 6ab9 d93f eda0 34f7 64a7 e93f
00000160: 8e63 1328 6a63 d3bf 62b0 79be ea28 c53f
00000170: f0fe 543b c910 d3bf 94a3 adaa 8fde c4bf
00000180: 9da2 2804 b6fd e73f 73d1 b4a8 9107 c53f
00000190: eb17 3680 194d ec3f 7bd8 1069 c6b0 edbf
000001a0: b3e0 00c4 d22b e03f c0ef dbd9 659d c63f
000001b0: 0605 7360 1412 f63f f17f 3bb2 8090 8e3f
000001c0: 6841 4d7b d209 d7bf 2fd8 ca34 db26 debf
000001d0: bbaf c0a3 05bb b53f 251c 782d 856d edbf
000001e0: 772c 2a2b 8522 c8bf b3b3 da88 e85e b5bf
000001f0: 0ded 2d86 4bba d73f 18e0 afce f2a4 92bf
00000200: 09b3 5d1e c35f cabf f3e2 3a38 6b20 d93f
00000210: 8a5d 800e 7837 b4bf 3985 9156 5f0c ccbf
00000220: 1085 0236 4bd9 bdbf f101 dab2 b5af bdbf
00000230: fc2c b23a e7e6 aebf 4123 838b cdb9 81bf
00000240: 6fea 54b4 2509 e03f 5a65 ea45 cbbb bdbf
00000250: a8b1 e4b7 3dad b13f 028f 9553 d4a8 d43f
00000260: 29f2 543b 5102 c53f 6bd1 db89 c930 b3bf
00000270: 3c08 f05d 8a0c b23f bf95 3004 3442 bc3f
00000280: 7684 b5c0 b112 b5bf 0939 b7d9 fde0 cfbf
00000290: 24a3 392c 679d ba3f f27a 37ac 2aac c6bf
000002a0: 944a f4ec 91ee cebf 4297 795a ddd8 d93f
000002b0: d45e 039c c4ba a63f 9e4d adce c589 c93f
000002c0: d26d 409f 71bc a7bf 01b6 6e69 942b 993f
000002d0: b659 74d3 ac20 b0bf e417 f24e c8f7 d73f
000002e0: 7dcc eaea b9da ba3f 3c96 5b55 0cb5 d0bf
000002f0: 2246 ad9f 5e71 c4bf 08c9 f254 75b4 cf3f
00000300: 917f 392c 4822 d43f da23 3f77 7ba4 d3bf
00000310: dceb d7f9 582b abbf 7e0a eebc ae9b 4fbf
00000320: 0f69 f4bc 194a c03f 27f8 5876 a7f9 a33f
00000330: d70f bc0f 5c89 af3f 2f5c 61f2 edba db3f
00000340: 3fc5 11f3 ae36 d7bf 650a 8e43 7989 bfbf
00000350: c7c8 b545 2e5f d2bf 26a5 0eb1 5ef6 c33f
00000360: 7071 de5c 76f0 a53f 8918 fbf8 b4c0 bf3f
00000370: 26b8 9b75 fc95 d03f 2058 a4a9 8783 a53f
00000380: e3df dcc1 39a8 c13f 1ecb eab4 34d2 acbf
00000390: e6e2 a027 16b5 aa3f 4f56 20ce 01f1 d2bf
000003a0: eafd a0f1 1461 d33f 9569 5ccf efff 87bf
000003b0: 7483 5ee8 afcb c13f faa9 6040 4fd3 d13f
000003c0: 95d5 c24b 776a cfbf 08f0 adc9 8e94 c0bf
000003d0: b7bb cfa1 c3e5 c53f a82b 4a5f 9f33 ca3f
000003e0: c7f5 6122 a789 b73f 62b8 57a0 ee39 d63f
000003f0: 78f2 43a4 af2b c8bf 695e 62b7 ff55 cd3f
00000400: 708d acdc bd10 823f 0095 40fb 8402 c1bf
00000410: d797 245b a447 c6bf 8a45 72aa 806f ba3f
00000420: bd42 3d86 4852 cf3f 8850 4691 cb3f c53f
00000430: e44f e31f e9c1 a3bf e1f8 7d7b 30b5 da3f
00000440: b412 6177 ce55 cfbf 20a1 5f87 0248 ccbf
00000450: 1ade a146 ca59 be3f af1b 1c0e d539 c63f
00000460: b805 6e5c 873b d13f 13b4 e893 26a0 c4bf
00000470: 5659 6c88 6574 d3bf 2478 0911 8c06 da3f
00000480: d5da 86ac 3803 c23f 5731 96e4 ce93 e3bf
00000490: 7dc5 3b7f 9e72 df3f 9212 6cc0 f3fb d3bf
000004a0: d8c2 ed42 e6f5 db3f a0e4 0912 d640 d23f
000004b0: 30d9 8202 7dbb cf3f 3f2a 1690 92fd c8bf
000004c0: 34c9 bc13 37d8 a8bf 35c1 4865 d0d8 d13f
000004d0: bf7c fa94 e479 84bf bfbe 213c d948 cfbf
000004e0: ff59 c305 6bb2 d3bf ff31 827c d9ca d03f
000004f0: e2bd bb49 af66 cb3f ec81 9a48 e5be 9dbf
00000500: ecde bec3 42ca c13f 3e48 db9d ffb9 cd3f
00000510: bf2c 8f51 7015 d1bf ccf9 d5c7 4acd c3bf
00000520: def7 62e0 01ff acbf d269 6f45 7d35 693f
00000530: 037b 0b74 2118 c03f 67fb 18e1 5b95 b1bf
00000540: f23c 117b 22db 743f 993d f136 3120 b83f
00000550: 79ce fc09 9d78 bbbf 760c dcc5 3831 ba3f
00000560: f762 eef7 96b0 b3bf df23 d15a 1d60 cdbf
00000570: 373c 3bb9 912e c13f c866 f640 44fd f1bf
00000580: ed39 c3f8 39f5 863f dbc7 c334 0be7 91bf
00000590: 37db 6fdb 764a e53f 8245 635c e348 a13f
000005a0: 8f67 9158 69fa b9bf 1982 352d 0b64 c7bf
000005b0: ea37 ed81 997b d33f ed21 5311 37e4 b5bf
000005c0: 8230 c190 2565 dfbf e720 9c99 7abd d0bf
000005d0: bf54 9306 7bf9 be3f 7c1b e203 7c95 c2bf
000005e0: 2e4e bef9 b282 aa3f 77fe 89ac a21a bcbf
000005f0: 7bc8 c071 f40e babf 3927 483b 131f ca3f
00000600: 67f7 f6b2 8d28 7ebf 1f82 1298 c5a7 babf
00000610: 3962 ff47 ad2a ce3f 99cb b404 97ac 92bf
00000620: 53c0 914b f668 cebf 6dc7 b432 5c25 c63f
00000630: 15c2 d324 a2ba b0bf 6d73 c97f 37a9 cabf
00000640: d761 e495 650e d93f e292 53a5 425e c13f
00000650: bf51 25c3 9a70 eabf 881c 6058 bb5a ddbf
00000660: cc5b 2ac1 21c3 c93f 5618 c0cb 4837 f9bf
00000670: 66da ef13 a575 f43f 9c46 7325 5e50 e4bf
00000680: 95b8 2da1 85a6 f53f cce4 138e 43f2 f33f
00000690: a562 cb6a 119f a13f 0995 b781 be2e d0bf
000006a0: 85c7 54c0 45fb e9bf e40f e905 3b69 e13f
000006b0: 7fb4 0009 849a e7bf 5bf6 ed07 ca71 97bf
000006c0: 2718 40d6 7346 edbf 92ef 6198 476e ee3f
000006d0: 77dc aaaa dc1b c1bf 25e9 c3e4 2202 d23f
000006e0: 608e b25b 6e7a cabf f87e 0d1e 356d b33f
000006f0: cd7b 8420 b4f8 d03f e8db 0dc8 0543 c2bf
00000700: 6674 f58f 4990 cbbf f3ca db2a 4794 aa3f
00000710: d164 2ee4 3a9f c23f e8a6 25f3 0fff a0bf
00000720: 351d 50df 0b86 cfbf bcd9 e270 f22a afbf
00000730: 14d8 816e 0cfb c63f 79dc 4569 7d7f a43f
00000740: 5fd5 1db4 a75c 98bf e130 79a2 347c c5bf
00000750: b696 5d49 5669 bc3f 8998 ef1d f144 d63f
00000760: 289c 3d8b ae92 d1bf e6bf 1177 f2ea d0bf
00000770: 1c8f 64f2 1fd0 cabf 3dd7 adc0 221f ccbf
00000780: 60de b965 242a b93f de01 0204 ccb8 c9bf
00000790: 5eee e105 cc94 d23f a909 4893 ceac d83f
000007a0: 381b fa64 3b8f ad3f b2c7 d22b 5800 c5bf
000007b0: 0870 945e 41c1 ca3f d3fe 4336 70a1 d1bf
000007c0: c182 ec9c 12ab de3f d594 d2de 0b64 cf3f
000007d0: f718 782d c111 c63f 0cfd 8d8c ec92 c9bf
000007e0: 688b de4e 551d c03f ac78 ecea 320f b0bf
000007f0: 362a fbbf 7c92 d0bf be5f 001d 5bba c23f

hidden_layer2.bias f8 [20]
-0.178361212809885 -0.11963111666353313 -0.17506695044220696 0.06537295914676074 -0.18516528334217378 -0.1228172974446217 -0.10884465241471265 -0.11439366269632502
-0.23337799119496414 -0.09954295999057093 -0.1364298640467649 -0.1578714775710706 -0.24025035628720226 0.06415234252391301 0.11306296956358836 0.009205516669786435
-0.35100085003247344 -0.07412539949388339 0.12943504900816102 -0.10755889443599008
00000000: 5f59 f24b 8ad4 c6bf c261 a715 25a0 bebf
00000010: e33e 6105 9868 c6bf 25fd 9341 48bc b03f
00000020: 3194 27fa 7eb3 c7bf 9b62 e853 f470 bfbf
00000030: b136 773e 3edd bbbf b97e 2630 e748 bdbf
00000040: 1bef e47b 54df cdbf b7df b4bd a57b b9bf
00000050: 8fa8 23a6 8876 c1bf f9c8 91f0 2135 c4bf
00000060: 888d 8d0f 86c0 cebf 711c 1ab5 496c b03f
00000070: a40c aadc b1f1 bc3f 8aed 5088 57da 823f
00000080: bb7d f044 cc76 d6bf e610 a1d6 e1f9 b2bf
00000090: 5f1d 39e3 5391 c03f 371a ffcd fa88 bbbf

hidden_layer3.weight f8 [20, 20]
-0.05277954047936033 -0.03439779285265058 0.040011962231722 0.1426191996913293 0.34617292226038765 0.1461918191129706 0.2546951746815011 -0.2638476828795495
-0.098823998387212 0.05966413467450539 0.14535735489133253 0.04207568975707707 0.05358789363376319 0.055596049307660225 -0.1379906571252458 -0.13873104905601025
-0.20811901790736903 -0.13591941009859884 -0.12428547447980458 -0.031387258531767014 -0.023557377946558287 0.14012174712792186 0.002999805222665149 0.262609418060162
-0.1823208009400363 -0.3098740870223441 0.046486793354854596 0.0368161996337679 0.19523381783349172 0.06142971168443064 0.05408698710584181 0.018588387609063
-0.037500967577602996 0.14754632980390606 0.02440029622045609 0.017287268087187828 0.046351240343498815 -0.22510785092347507 -0.06426822949893202 -0.26549339119515497
-0.15131250567941346 0.0857195604692767 -0.2229483543570498 0.023025328253814745 0.05746566861649049 0.015042778082132877 -0.11294471060227007 -0.34014200848467613
0.283997609800805 -0.0694429050544156 -0.2823922978666608 -0.30695381339464883 -0.4232190286825054 0.15718702190077005 0.24062235622582734 -0.3529545202902129
0.24454326382371763 -0.1662593108077885 -0.010492564381565985 0.24861117417138964 -0.07791150913805585 -0.15930612271787462 -0.31125476167926325 0.15169558145595896
0.018076428822689415 -0.11917539310822893 0.33454582879280675 0.1511567448501592 -0.47134102074597434 -0.027379144777681344 0.1473439464718228 0.27065508313865516
-0.060214514366267985 0.3312652717428251 -0.06854817635575117 0.1487776049755536 -0.2250716358378556 0.5267962324046935 0.17018031382667315 -0.009150301205936786
-0.20204818675641525 -0.15937205284778705 -0.17172602360143605 0.1253059112503346 -0.021329806326759182 0.22245258000988405 -0.05403275846623625 -0.20897870865771062
-0.2534318023006818 -0.04531387436541007 0.10142467516278551 0.17194402622601115 -0.06117613966236291 0.25112781083008817 -0.04875728569817795 -0.1629446321211782
-0.22876325923758234 0.13224817728651142 0.17956030555107075 -0.25781376038080056 0.4077658319639139 -0.012008053295293798 0.2059329021374841 -0.10729741890193618
0.144301413069137 0.07107294376616888 0.11630292357965853 0.08449534081088142 0.11969745288358347 0.17164648182551936 0.013987692224477287 0.2734471749809308
0.14488545279619489 -0.08008729969089112 0.09606179298576548 0.19264696090760383 0.22972943440909388 -0.057556547163478994 -0.029668901452220512 0.09106108505137074
-0.08729273547196653 0.2583166539050116 -0.03488729463306577 -0.2712443590619886 -0.051102162320439855 0.1145570589644388 0.06320541319257074 0.030692056287924197
0.42690330379562774 -0.5134405272007024 -0.31379281012172816 -0.18287499118079634 -0.044776664360874525 -0.19983730306268951 0.19192674969763943 0.10622724138437405
0.29291426463941383 -0.12342305876966202 -0.29635930761326357 -0.08632730091282201 -0.3109152783714522 -0.20848511147626414 -0.587438870399407 0.5341091432608556
0.27564932889256255 -0.0007781780220822116 0.10191754598532837 -0.6871494910411 -0.20256250519263921 0.008561448660640984 -0.9288231736691828 0.0690196250099055
-0.49210777993852084 0.36176504825949035 -0.13171134507255808 -0.42881572591822426 0.16381088428839383 -0.01104564834980736 0.21094566570102713 -0.3604835169635635
0.19113734158377796 -0.10822361502388816 0.4677716943026828 0.10401844984951975 0.2539733142350883 0.043195744994514035 0.12740045500892455 -0.1880883520632912
-0.027498282526084033 0.21844040027935108 0.11198416180828419 0.21106385611269296 -0.25350967599329394 -0.0901711357542697 -0.10945283238633002 -0.052170818668480584
0.3525312618706968 -0.08031894271043806 -0.1348198452777242 -0.12696542366408592 0.10806061138506838 0.18697029609786664 0.07003323478687745 0.29447296290964037
0.2173553832983798 -0.08931563476633801 0.42210578246223923 -0.04847801422388172 -0.5119964056806086 -0.36859907944369225 0.2464704815691668 0.19713673271228702
0.039698333179461476 0.31675493601065935 -0.1449650505214199 0.14924348282099192 -0.3157118159639428 0.27140759620656685 -0.03066667635317196 0.07816947918374337
0.11601050150720671 -0.24773387990732296 0.09928641688570988 0.07430015692077269 -0.17586218219716962 -0.2359790804626549 -0.1636347931998423 -0.2460424784813517
0.12439312680208599 0.05145209024636015 0.06339335509260455 -0.22718499182685872 0.038438125062969675 0.2673845197650529 0.10012211563137038 -0.24813275713205385
-0.12012662461357056 -0.03815634549622054 0.29786432689974945 0.35951207690039433 -0.17124740742910083 0.32046312194405757 -0.9459030229454796 -0.2907307646148
0.09816776005526195 -0.3267551690382727 -0.006541964489866079 0.021057843439155975 -0.15535969988226309 -0.07041415239038955 0.29194816886125724 0.02319950379254759
0.02183765175310068 -0.21815099772585073 0.5439198706536957 0.07234881681621841 -0.4666269254365201 -0.2632900239224831 -0.2014946396555225 0.554340098066047
-0.16815189142082995 0.11945010771776296 0.06299320764288684 -0.05878236809446965 -0.12400639813082569 0.003706018448447658 0.18634161562959464 -0.02774046461054691
-0.12992520888442274 0.16656162358515353 0.06492935191587783 0.08602750184530655 -0.14967570221171375 -0.0571232697833591 -0.08417950926956896 -0.1676418139596849
00000000: 2676 8380 eb05 abbf 95a3 b666 969c a1bf
00000010: 32d3 77aa 727c a43f a85c 3a8f 5841 c23f
00000020: 969f f778 b227 d63f eb37 04dd 69b6 c23f
00000030: ff2f 6dfd ec4c d03f 70f4 4564 e1e2 d0bf
00000040: 670e 2291 874c b9bf b29f 5726 4c8c ae3f
00000050: 31e4 bede 119b c23f 1c34 edde f18a a53f
00000060: 36b1 3c55 df6f ab3f 4a5c 20db 1577 ac3f
00000070: 57d4 c087 ada9 c1bf ae52 5163 f0c1 c1bf
00000080: a63c cbdb a4a3 cabf 9bee a1a6 ce65 c1bf
00000090: d333 4240 2cd1 bfbf eb60 cfa1 fd11 a0bf
000000a0: 769e 70df 6c1f 98bf 1eb8 af68 82ef c13f
000000b0: aa45 6c2a 0c93 683f c228 8cbb 97ce d03f
000000c0: 6f80 b5ba 4956 c7bf 86e2 681f fad4 d3bf
000000d0: 8d5d 4ff2 1dcd a73f 5db3 c7aa 92d9 a23f
000000e0: 4583 55f7 6bfd c83f dbea 5f15 b773 af3f
000000f0: c07c 8421 4ab1 ab3f 9e16 7793 d508 933f
00000100: bdd9 a0aa 5333 a3bf 9d88 9352 cce2 c23f
00000110: f147 1e29 64fc 983f 3e60 49ec c0b3 913f
00000120: b208 cf8a 59bb a73f 7c03 e584 55d0 ccbf
00000130: fca6 def7 e173 b0bf 5530 1ffe d7fd d0bf
00000140: f437 af4b 355e c3bf 54d1 d794 b7f1 b53f
00000150: d68c 5459 9289 ccbf dcb6 519f f393 973f
00000160: df81 b3de 236c ad3f 58df 3a7f bfce 8e3f
00000170: c0fd 4ace f1e9 bcbf fefe 9bfc e2c4 d5bf
00000180: e424 8f4f 042d d23f eddf 259e 02c7 b1bf
00000190: bfb1 fe24 b712 d2bf 7566 7a9b 21a5 d3bf
000001a0: aa1e cf43 0516 dbbf 50b0 354f b41e c43f
000001b0: f693 569f b6cc ce3f 1ccc 678e ce96 d6bf
000001c0: 5d3c 4a94 314d cf3f fe97 492f fc47 c5bf
000001d0: c1c2 f526 207d 85bf 5f3e 3eaf 7dd2 cf3f
000001e0: 55de ba37 02f2 b3bf 551b 909d 2464 c4bf
000001f0: dabf 8817 99eb d3bf bc88 a6c4 c26a c33f
00000200: 56d9 7c9a a082 923f 0346 e34f 4782 bebf
00000210: 9969 6be8 3269 d53f 91c2 d9ad 1a59 c33f
00000220: 7d80 5787 732a debf 247e a64d 4709 9cbf
00000230: 3c16 ae9b 2adc c23f 68e8 a4b2 6952 d13f
00000240: 7c31 e5d3 6fd4 aebf 35e7 1b41 7333 d53f
00000250: 00fd a58f 5f8c b1bf 90a4 df01 250b c33f
00000260: d424 97b9 25cf ccbf 8eb1 bac5 83db e03f
00000270: 7a7f 27f1 77c8 c53f 5ba4 6ca3 64bd 82bf
00000280: 21de 2a09 b7dc c9bf 2656 70ad 4d66 c4bf
00000290: e3c1 9e4b 1efb c5bf bb67 682b 060a c03f
000002a0: 60ed 6912 7bd7 95bf bad1 067e 5379 cc3f
000002b0: b3e0 0c85 2eaa abbf 0862 9f77 d0bf cabf
000002c0: ff74 a905 3a38 d0bf c8b2 e850 6133 a7bf
000002d0: e7e2 d4ae f7f6 b93f 750f b108 4302 c63f
000002e0: e16e 4a9e 7a52 afbf 4667 a861 7a12 d03f
000002f0: e1e2 0707 b7f6 a8bf 8675 02a5 5edb c4bf
00000300: 20d4 794e 1d48 cdbf c159 331e 82ed c03f
00000310: f534 0004 d5fb c63f 1fd6 5249 0580 d0bf
00000320: fc84 2ddc d518 da3f 1a09 89a1 ad97 88bf
00000330: 12e9 ec63 025c ca3f fd07 21f9 d777 bbbf
00000340: 0b03 f3fc 7778 c23f 262c 1b21 d631 b23f
00000350: 972d 3445 07c6 bd3f ca75 7295 7ca1 b53f
00000360: 80ab 8c05 7ea4 be3f 0d00 f50c 83f8 c53f
00000370: 8c84 3445 94a5 8c3f 0b82 6e94 2880 d13f
00000380: e780 b644 9b8b c23f e850 ffec 9980 b4bf
00000390: 32dc 4473 8197 b83f 39cf 62d6 a7a8 c83f
000003a0: f099 db2b c667 cd3f 0cc4 793f 0d78 adbf
000003b0: 113a c845 8661 9ebf a5e1 3b7e c74f b73f
000003c0: 3ccd 0714 d158 b6bf ee2f 2293 4288 d03f
000003d0: f767 fd5a bfdc a1bf 8453 d94c 115c d1bf
000003e0: f1a3 d707 102a aabf a838 c785 9c53 bd3f
000003f0: 3d9e 97de 3a2e b03f 6db6 0308 bd6d 9f3f
00000400: 1bd2 163c 6252 db3f 9593 18d4 1a6e e0bf
00000410: 2f56 4c70 2e15 d4bf 095c 309d 7268 c7bf
00000420: 099c 1b8a f7ec a6bf 6b69 96cc 4494 c9bf
00000430: 7be7 9644 0e91 c83f ebaf b05f b531 bb3f
00000440: 7c1f ca78 1bbf d23f 8bec fc50 a798 bfbf
00000450: 601b 8407 8df7 d2bf 5e2a 2cc6 8b19 b6bf
00000460: e9a7 1b32 09e6 d3bf fc29 bfdf a3af cabf
00000470: e577 189a 4ccc e2bf 3899 d90e 6c17 e13f
00000480: 8081 3015 3da4 d13f dd2a e193 d47f 49bf
00000490: 8443 e5ae 4417 ba3f 9881 efed 20fd e5bf
000004a0: 215f 9973 91ed c9bf 2fdb 0730 aa88 813f
000004b0: 5aa2 5560 ebb8 edbf 5c21 3328 45ab b13f
000004c0: f25b 3ca1 b17e dfbf 5910 c796 2827 d73f
000004d0: bba5 ccd7 eadb c0bf ce12 b583 b771 dbbf
000004e0: cfad 5f4b c1f7 c43f fb80 67d3 199f 86bf
000004f0: 389d b57f 4400 cb3f 9ac1 0675 2912 d7bf
00000500: 4dc7 923b 3077 c83f ecb7 2ef7 8ab4 bbbf
00000510: ef91 41b0 f8ef dd3f 1cc8 4800 f4a0 ba3f
00000520: 6692 ac49 1941 d03f 8cd4 27b0 c01d a63f
00000530: 0222 e179 a84e c03f 4768 6f74 4713 c8bf
00000540: 2b32 9580 8228 9cbf 5c98 a9e3 daf5 cb3f
00000550: 20f5 a278 feaa bc3f c092 aff3 2304 cb3f
00000560: 9716 e7a5 8039 d0bf 7796 1b9f 7415 b7bf
00000570: 94c9 8dcf 1905 bcbf dc2c f92f 22b6 aabf
00000580: 2358 2348 df8f d63f 11cd 3040 c88f b4bf
00000590: d5e8 28d5 c641 c1bf 9415 2e2b 6740 c0bf
000005a0: 5f77 e237 dca9 bb3f bc29 8885 a4ee c73f
000005b0: 3cf0 0ab5 b2ed b13f 3933 5020 a5d8 d23f
000005c0: 9523 701b 4dd2 cb3f 73c8 57b2 63dd b6bf
000005d0: 012e c8f8 c703 db3f ea4b 553b 1cd2 a8bf
000005e0: 1c2b 4249 4662 e0bf a1f7 e297 2097 d7bf
000005f0: b26c e240 588c cf3f e776 ebc5 c63b c93f
00000600: 9049 6c05 5753 a43f 6bca c07e b645 d43f
00000610: deb7 86fb 368e c2bf f2bb ed12 691a c33f
00000620: 6ea8 2155 9f34 d4bf a2f6 65f7 bd5e d13f
00000630: 3639 0ed0 1567 9fbf 46b8 a33c ea02 b43f
00000640: 884c f73d ddb2 bd3f 1715 2868 beb5 cfbf
00000650: ac0d 76a9 d56a b93f 94f8 0fc8 5505 b33f
00000660: bbec 91e8 a682 c6bf e749 9000 9034 cebf
00000670: 50f9 a322 fcf1 c4bf 4689 40e7 517e cfbf
00000680: d54e 765b 3ad8 bf3f 9781 d6a9 ed57 aa3f
00000690: 360d e802 8c3a b03f d1e9 04d7 6514 cdbf
000006a0: 5849 2174 29ae a33f 8d3e f6f5 d31c d13f
000006b0: 9639 3e5c 9aa1 b93f dc67 796e d0c2 cfbf
000006c0: 7d1a 1854 9ec0 bebf d710 1580 3a89 a3bf
000006d0: 8d7c ab89 3510 d33f 8478 33f1 3e02 d73f
000006e0: 3065 375f 6feb c5bf eeb8 14c1 7782 d43f
000006f0: bfa0 976a d644 eebf 838b 7d35 559b d2bf
00000700: 207c f5b6 8521 b93f 915f 3483 8ee9 d4bf
00000710: e4af 9138 bfcb 7abf 46f4 94f3 2f90 953f
00000720: 412b 0e9f d3e2 c3bf 7b39 b171 a906 b2bf
00000730: 43b7 585f 47af d23f 6f28 4a58 9cc1 973f
00000740: b86d 6700 9c5c 963f 1a41 6934 5fec cbbf
00000750: 0145 03a5 ca67 e13f 9844 21ba 7385 b23f
00000760: 61b4 0b2e 37dd ddbf 3f0c 8766 bed9 d0bf
00000770: 1ce4 d18b 93ca c9bf 6bc3 0172 27bd e13f
00000780: 6fdd 344d 0086 c5bf aec6 2642 4894 be3f
00000790: 1743 b2a6 5220 b03f 1b28 18f9 b818 aebf
000007a0: 7f76 7720 e2be bfbf 1d42 1a81 155c 6e3f
000007b0: 15a7 81c4 0ada c73f e0d1 1c11 ff67 9cbf
000007c0: 01d3 8aa5 63a1 c0bf 1290 082b e451 c53f
000007d0: b377 07c3 359f b03f 946f fbfa e505 b63f
000007e0: 9ba8 00cb 9228 c3bf 0bc7 1edf 423f adbf
000007f0: 605e 4ecf c98c b5bf 3711 3376 4975 c5bf

hidden_layer3.bias f8 [20]
-0.017287689574735473 0.06403645775193913 0.24671881087235392 -0.003574076455674917 -0.025588999073238954 -0.21826995581597367 0.03502576211889519 0.00705531742822828
-0.2235747706458784 0.10216212453855944 -0.13100677058388147 0.3803262149979019 0.23257586894655297 -0.13301547553274604 0.0862704277508623 0.4403354040273059
0.04896324442720864 0.052648619300525244 0.09723867555477168 -0.18445910846780886
00000000: df36 6335 ddb3 91bf f9d7 cb7b b164 b03f
00000010: 489c 0064 7b94 cf3f 7066 b2af 6147 6dbf
00000020: bbb3 a0a8 0034 9abf 8de8 f618 45f0 cbbf
00000030: 00e2 a28d e5ee a13f 73cd df59 09e6 7c3f
00000040: 713f 111c 199e ccbf 2872 c807 4c27 ba3f
00000050: 252e 9b71 d4c4 c0bf 998e cec3 4357 d83f
00000060: ca6b 7bcb 0bc5 cd3f 4334 a3ae a606 c1bf
00000070: 4c48 cd99 d115 b63f cf5d e48b 742e dc3f
00000080: 6bb5 0adb b511 a93f 138f 2684 c2f4 aa3f
00000090: 6502 6a43 a2e4 b83f 6fc6 2827 5b9c c7bf

hidden_layer4.weight f8 [20, 20]
0.0004544180470136196 -0.030973979134802477 0.00036024079823440214 -0.10611064639333641 -0.17165102048948738 -0.2015630830452461 0.08450604354008358 -0.2784685557884785
0.17880383572315442 -0.17515976884277865 -0.08484546137721585 0.002430071944048854 0.190003230684686 0.23590406541702982 0.13597569872020462 -0.024534232180176193
0.03992938866244929 -0.15772306501294184 -0.032347706810626306 -0.0013969788480200913 -0.24547218859807576 0.1168453714101351 0.07853187066510478 -0.015718128091669056
0.0048750138795180245 -0.014035780797192325 -0.07621663173924029 0.05405979955957673 0.05473875531575579 -0.1184481825009422 -0.09930894592435655 0.01526512817766961
0.0046347878251058435 -0.09028153651455793 0.00929883276332786 -0.12639502746552764 -0.2663157371572019 -0.2135697369102228 -0.002184462311310604 0.013842955347240456
0.06553409720121416 -0.1828551654462077 -0.04024662818977601 -0.2932156153960885 -0.17672461588935687 -0.17732883292731794 -0.09434487303421156 -0.20728349850693564
0.15892849216981658 -0.37371125751662687 -0.03320559376822974 0.17687277465529463 0.051089668497149965 0.5600133189951947 0.08351502148261085 -0.04405603693797311
-0.09241684848909303 -0.11374030796261766 -0.2719863597559067 -0.225066936832089 0.018027501651304286 0.23842364717114473 0.22764354348373989 -0.0019734392066923182
-0.23689942137901282 0.013643342139890751 -0.27853533179647705 0.24152317115850502 0.253150900097169 0.10224537065464409 0.044776704516532886 -0.20558723563404585
0.032312573469452065 0.0880799371328864 -0.22478758555754444 0.07798477654405865 -0.22514023723388646 -0.12126400728396014 0.2918304792362348 0.19022530778636035
-0.04253579628976487 0.24917210120946967 0.019033156796914114 0.012556495450745844 0.1380321515399792 0.0812709977179264 0.11582395578495833 0.3001639150008403
-0.22196728542353078 0.08587379958998197 0.12194703755510963 -0.10832552455155496 -0.13391740291619686 0.0007167722606940428 -0.07100291502011888 0.002669509883389955
-0.3618803720578976 -0.03897255210784361 -0.20828373443939452 0.2686909305520251 -0.14140205319640178 -0.08725205545249753 -0.3442061138387862 -0.21672096164419205
-0.2003446713856589 0.5165266860938496 -0.006382458122457368 -0.29888306473467496 0.5342642812299905 -0.060852420108069016 0.003570226986947362 -0.5254943124713155
-0.1397976252798531 0.5746355059741229 -0.12761315148932306 -0.7230908131836807 -0.13057186291670528 -0.09665219280306653 -0.3207825281419493 -0.25672292686930737
0.07142387186003155 0.25044476560268286 -0.08290621980250053 0.0028087380660287735 0.06457531644398823 -0.005033546878595628 -0.09575912384627215 0.16060200230628158
-0.29753362737058775 -0.029569890253266208 0.2192576728017606 -0.012369733857156721 -0.04000199631421142 -0.08786566757523868 -0.06715284221967227 -0.04670093407832761
-0.09427842627285428 0.11358883495135678 -0.024862079670344813 -0.016354096681730563 -0.019205599260248372 -0.13201617460812182 0.04100140767017231 0.06597525025829674
-0.20108415748301406 0.3033774812635257 0.08773093019149193 -0.009246675338912366 -0.1418600589588269 -0.27118697736638514 0.2012481994794451 0.1334168760131857
-0.03555579688650032 0.5129573400206525 0.04944828621029331 0.07889670867016188 0.24398458634085013 0.15388764667730498 -0.030071305090602386 -0.3898206327439832
0.08868856695139268 0.15443920839459022 -0.05473058347955047 0.03800474074105166 0.2067290089623381 -0.17531293216547822 -0.2491700919553874 0.09214595293581178
0.010225343073201257 0.3304205976860118 -0.2326169679175713 -0.16369429317967385 0.23854566627156779 -0.466093960293652 -0.13708539192467148 -0.0040035665514232995
0.023625489519312474 0.16154052366691676 0.006525949359106725 0.39155300235490925 0.1818801532749372 -0.15515222749256377 0.02233602077160714 0.30774796420286255
0.07287466336084006 0.028236232725205933 -0.03374765362555099 0.3432941930783436 0.15387955781492374 0.2159728396761505 -0.06024738348755629 -0.13821496640700837
0.2822296354869426 -0.42846365841901485 -0.0013668434205747221 -0.042447506263358505 0.09113474902229525 -0.11793264133855781 -0.14644037111047345 0.32587453549101747
-0.10553351249240996 -0.004336582648378497 0.12457755592387458 -0.29593139304303007 -0.09008049289401125 0.029385492988281452 0.05056046457193175 -0.12789195664920594
0.03179178668402967 -0.2324376473875469 -0.2558576017972045 0.24647368677180742 -0.03762732449892623 0.007768332882822671 0.24627915949038462 0.14807762463117297
-0.21777043748139474 0.04903377456136552 -0.1586750493805941 -0.06988060272036951 0.22530343268098274 -0.031163916979868263 0.12144509269255768 0.006669792253983899
-0.00802834918937643 0.20760226843166663 0.2248314638710309 0.30319235532553157 -0.08435479297785853 0.05470251683197941 0.15894474457108057 -0.05604766857225922
-0.11540324077354505 -0.037024874125567195 0.05354208601341133 0.07019033724263753 0.021737766252089882 0.08183500102282011 0.17407476246735687 0.2197287744701511
0.03228042554943368 0.02572866160529111 0.17099932582841998 0.12966005820088164 -0.0553267578783658 -0.1396549575401091 0.36543668595476714 -0.07644621286935296
-0.1472639629138504 0.36502598521752955 -0.22325920246952022 -0.20306312857135117 0.1538024475806176 0.18027120438517336 -0.1510724838000859 -0.07879707924343513
00000000: 740f 90a6 dec7 3d3f 7dd3 a48d a4b7 9fbf
00000010: a841 7572 d69b 373f 054d 043c 112a bbbf
00000020: 66e7 a91f a9f8 c5bf 5550 e1b0 d1cc c9bf
00000030: b5aa 5125 30a2 b53f 00db 04c7 6dd2 d1bf
00000040: 6d47 6a49 0be3 c63f 8198 60a3 a26b c6bf
00000050: b244 d4a1 6eb8 b5bf d50b daf0 3ae8 633f
00000060: b268 f69e 0652 c83f c5d3 faba 1a32 ce3f
00000070: 63ea 86d5 a667 c13f afa3 6273 801f 99bf
00000080: 4bb3 e8f4 9f71 a43f 8b19 07f7 4430 c4bf
00000090: 5658 b4ed e08f a0bf feee c99d 5ae3 56bf
000000a0: 919a 0df7 a16b cfbf ba3f e508 94e9 bd3f
000000b0: 9e48 3328 aa1a b43f 9fa6 6eb8 6918 90bf
000000c0: 5f97 e192 d2f7 733f a96c fb9b cabe 8cbf
000000d0: 4e37 bbe4 ee82 b3bf 2ffd 45de b9ad ab3f
000000e0: 5151 cfd7 b706 ac3f 3db8 1cbe 9e52 bebf
000000f0: 0e02 f2a2 4f6c b9bf dbb5 56d2 5243 8f3f
00000100: fda7 1f62 edfb 723f 6f3d c3d6 b01c b7bf
00000110: f42f e034 440b 833f 0fb5 ab56 b62d c0bf
00000120: 2605 6029 510b d1bf f2ec b8cd 4056 cbbf
00000130: a82e f745 26e5 61bf 4499 f803 b259 8c3f
00000140: 9f89 40b4 d7c6 b03f 3b81 bf4d cc67 c7bf
00000150: 44df b2bf 349b a4bf ab5f b36d 0bc4 d2bf
00000160: 2d4c d286 e99e c6bf 50c4 0711 b6b2 c6bf
00000170: 7f2a 3a50 fc26 b8bf 813b 8b03 4488 cabf
00000180: 66cf 22d2 c457 c43f a194 4b9f e2ea d7bf
00000190: f1bf 8ed6 5200 a1bf 1540 595f c4a3 c63f
000001a0: d8ac b7ce 6c28 aa3f b314 4d0d a1eb e13f
000001b0: d317 fe8d 3d61 b53f 900f ae4b 838e a6bf
000001c0: af2b dc6d a1a8 b7bf a6b8 efb6 151e bdbf
000001d0: 7c05 077a 3968 d1bf 7867 8d4e fece ccbf
000001e0: bf70 1528 cd75 923f d0b7 9883 aa84 ce3f
000001f0: 7240 3473 6c23 cd3f b4f3 4e1b 9a2a 60bf
00000200: c2d0 a161 b852 cebf 164a 6462 0af1 8b3f
00000210: 0e2b 36db 85d3 d1bf fe0d ad34 3bea ce3f
00000220: 10b3 37d5 9f33 d03f 560c 21ab c02c ba3f
00000230: 0ad6 0ae3 f8ec a63f 9afa c2ba ae50 cabf
00000240: c30e 9a0c 468b a03f 3e63 6b21 688c b63f
00000250: 351b 42f0 d6c5 ccbf 9fb4 d770 cff6 b33f
00000260: e173 f731 65d1 ccbf 806d 7771 280b bfbf
00000270: b1eb 12bf 59ad d23f 932f e889 4d59 c83f
00000280: 8d9d f27b 40c7 a5bf 5998 e214 dfe4 cf3f
00000290: a8f6 ed87 6d7d 933f 28b1 814a 38b7 893f
000002a0: b192 549c 09ab c13f 1cd1 4f15 2dce b43f
000002b0: 3293 3086 a3a6 bd3f 368c 97b5 e235 d33f
000002c0: ee85 d68b 6c69 ccbf b77d d248 d3fb b53f
000002d0: faad 24ca eb37 bf3f 875e 45b9 38bb bbbf
000002e0: 06f6 f198 3424 c1bf 98d9 8cb5 b87c 473f
000002f0: a69c ee3d 3f2d b2bf b701 a834 5ede 653f
00000300: 1064 c34a 0c29 d7bf 375c 7dd9 35f4 a3bf
00000310: 845c da99 0aa9 cabf f0f9 dc71 3b32 d13f
00000320: 116c 0865 7619 c2bf 9c60 ad94 2656 b6bf
00000330: 7055 8114 7907 d6bf f74a 4f31 83bd cbbf
00000340: 2fbf c3e9 e4a4 c9bf 5419 09f9 6287 e03f
00000350: ccf6 760e 7e24 7abf 8846 176f e620 d3bf
00000360: 5eb8 e967 b118 e13f 9043 7e64 0c28 afbf
00000370: 7558 be04 4f3f 6d3f b78b c972 d9d0 e0bf
00000380: d555 517a e3e4 c1bf c9ef 2800 6a63 e23f
00000390: 50d3 17b4 a055 c0bf bb2e 5558 8f23 e7bf
000003a0: 4ba5 802c 94b6 c0bf fc04 2db7 32be b8bf
000003b0: 22dd df70 b387 d4bf 6f5f c2ff 256e d0bf
000003c0: 42e3 cab9 d548 b23f 37f2 6d7b 4907 d03f
000003d0: 5dcd af8e 5739 b5bf 0639 5fc4 5902 673f
000003e0: d47a 4108 0288 b03f 328b 9f73 0e9e 74bf
000003f0: 479e 3681 ab83 b8bf aaee c93d 9b8e c43f
00000400: 4c15 c17b ca0a d3bf 0a1b 56be 9147 9ebf
00000410: 1952 0aab a210 cc3f 9c81 0393 4d55 89bf
00000420: d074 e343 247b a4bf 8d46 ad48 5d7e b6bf
00000430: 9cbc 2abd ed30 b1bf 4a3e 1e51 2fe9 a7bf
00000440: f56c 8f85 a122 b8bf b38b 4e6b 2814 bd3f
00000450: 1ff3 60ec 7175 99bf b557 9dd9 20bf 90bf
00000460: 6932 e4f2 a1aa 93bf 7e11 3ef0 e7e5 c0bf
00000470: ba13 11f2 22fe a43f c76d 3406 c1e3 b03f
00000480: a20e 112c 20bd c9bf 18a9 1762 896a d33f
00000490: 6126 05c4 8875 b63f d83a 6bc1 ebef 82bf
000004a0: 0b1c eb6c 7828 c2bf 1df1 b89f 205b d1bf
000004b0: 2251 9241 80c2 c93f f605 9bdf cd13 c13f
000004c0: fc18 9f91 5e34 a2bf 2738 f482 256a e03f
000004d0: 53a0 3b28 4951 a93f 3a19 801f 9332 b43f
000004e0: eaf0 870d e33a cf3f 0a64 de24 97b2 c33f
000004f0: 5a11 a61f 03cb 9ebf 7740 3c3d d2f2 d8bf
00000500: b6d8 953e 4bb4 b63f b72f a3fa a9c4 c33f
00000510: 2a76 45a4 a505 acbf 12cc 267d 5b75 a33f
00000520: 8e59 509e 1876 ca3f 66b9 1b77 a770 c6bf
00000530: 577b 0b3a cee4 cfbf d36c 518e e096 b73f
00000540: 55de b750 06f1 843f cd1d 3f6f 9c25 d53f
00000550: e6ae d98e 64c6 cdbf ffcf df41 eff3 c4bf
00000560: bb94 9e15 aa88 ce3f 48c2 14c3 7bd4 ddbf
00000570: 07b4 899d 038c c1bf f4d6 7d36 0b66 70bf
00000580: 4e89 59c3 4731 983f 4966 1021 5cad c43f
00000590: c6d7 2931 f4ba 7a3f e1f4 f052 340f d93f
000005a0: bfbc 0d4f d947 c73f e5b5 7d37 07dc c3bf
000005b0: 6583 f2fa 40df 963f 225c 6a84 24b2 d33f
000005c0: 5a81 d7f7 e9a7 b23f 03d0 7780 f5e9 9c3f
000005d0: 80e6 4659 5f47 a1bf 8d67 0b35 88f8 d53f
000005e0: da44 2b4a 53b2 c33f 5add 9d7d ffa4 cb3f
000005f0: bc4b 7fbb bed8 aebf 6496 442c 07b1 c1bf
00000600: 0638 98e3 0c10 d23f abc9 1bd6 f26b dbbf
00000610: 8858 91f2 f464 56bf 8550 65f6 adbb a5bf
00000620: 0976 945e 9b54 b73f b514 ae65 d530 bebf
00000630: 2be6 5dde 8ebe c2bf 7f1e 22de 20db d43f
00000640: d172 c988 3e04 bbbf c242 6b8a 3cc3 71bf
00000650: 0b37 8290 50e4 bf3f b8b0 be39 8af0 d2bf
00000660: 3bc2 fce2 830f b7bf ab2e 720d 3b17 9e3f
00000670: e030 9dab 0fe3 a93f bc69 9d7d c35e c0bf
00000680: caba 2d58 0347 a03f b8c0 f14e 84c0 cdbf
00000690: 1cba 0990 f85f d0bf 0236 0124 738c cf3f
000006a0: 1d57 5180 e343 a3bf 2792 d1fa afd1 7f3f
000006b0: f949 d953 1386 cf3f 56b6 8725 35f4 c23f
000006c0: 7a54 82d5 e6df cbbf d5ef 4774 f41a a93f
000006d0: 75f2 e3c9 764f c4bf 9d0a 4ff7 b1e3 b1bf
000006e0: 3c4b 852d bed6 cc3f f2a4 f910 6fe9 9fbf
000006f0: 22cd 5f8d 0617 bf3f 82b0 a1b9 c851 7b3f
00000700: f585 acc9 2a71 80bf 5ca5 be0c b692 ca3f
00000710: 8f0c 3804 47c7 cc3f bc4d a1e8 8067 d33f
00000720: f0ca 1995 4698 b5bf 58bf 9ae1 f701 ac3f
00000730: 09e5 e627 4d58 c43f 76de 11af 47b2 acbf
00000740: d28b f918 118b bdbf fe01 049f ecf4 a2bf
00000750: ca41 c648 de69 ab3f 7dcc f372 fef7 b13f
00000760: bc32 90cc 6c42 963f cda6 0f7d 23f3 b43f
00000770: 209a edf1 1448 c63f 6273 2b8e 1220 cc3f
00000780: d251 1258 0f87 a03f a886 a840 9d58 9a3f
00000790: 321a 0950 4ee3 c53f bbfd c866 b398 c03f
000007a0: 3cd2 5cef c953 acbf eef4 adb1 36e0 c1bf
000007b0: 59cc bb8d 5063 d73f fa4a 2da0 fa91 b3bf
000007c0: 7a13 4ca8 8bd9 c2bf 19c4 2cf3 955c d73f
000007d0: eb9d 91ee c193 ccbf 0263 1efc f8fd c9bf
000007e0: 1da6 3371 ccaf c33f 4a57 9f77 2013 c73f
000007f0: 1199 9fd8 5756 c3bf 9ef1 5e9e 0b2c b4bf

hidden_layer4.bias f8 [20]
0.1112829765444013 0.17075388600230337 -0.10921773458130615 -0.0324456716834744 0.14900848258554597 -0.296246015481833 -0.004583726135994144 -0.16071673332263917
0.039021763651100175 0.04334512442381597 0.09921036868752812 0.1865692655772511 -0.14390415458244238 0.07240058861733498 -0.01816271409072107 0.17287419302320212
0.00951929650672944 -0.15977867360541398 -0.10490479613337737 0.19582370178825328
00000000: d517 dc88 0a7d bc3f 2dbc 056a 43db c53f
00000010: c27f 2b86 b1f5 bbbf 18f7 8d15 b89c a0bf
00000020: 5f08 c4bf b512 c33f 6525 04d9 b1f5 d2bf
00000030: a10f 919d 62c6 72bf 4935 c5ac 5d92 c4bf
00000040: 4a6c 6d1d a9fa a33f 2cc4 ae07 5531 a63f
00000050: 93e1 efc8 d965 b93f 79e8 0b6f 80e1 c73f
00000060: ce55 d88a 736b c2bf 2696 5250 d888 b23f
00000070: 11e0 1a1c 3f99 92bf a2b3 add6 bd20 c63f
00000080: fc2b 6b59 da7e 833f b4e3 dda8 a073 c4bf
00000090: 831e 966c 0adb babf 8529 7b45 c010 c93f
