net_param/net_0.12.pth (torch, 17999 bytes, 12 tensors)

hidden_layer1.weight f8 [20, 2]
0.6513237407827261 0.0729946907882336 0.4225750133671734 -0.3184054821633187 0.6585062169972742 -0.5766193096766481 0.030837707010933704 0.13091212088792964
0.3691448050861002 0.32165701419311327 0.6388925916850668 -0.4229890724418704 -0.6695818297442375 -0.2373395626535262 -0.3088064250213945 0.6111677869178263
0.20852260830984615 -0.20433847699137286 0.6204961500355184 -0.01145707191606768 0.6081547346193306 0.6141755513184527 -0.3214083234161348 0.6289218892870636
0.2154784859829069 0.14423760169577252 -0.14702787737313625 0.3939640946114988 0.6786573521873837 0.6373563369957018 0.38567490078104283 0.16325016886606047
0.6974554146997738 -0.6874068945618483 0.10444235062567635 0.2709206107744057 -0.37324401523628226 0.050290113417111516 -0.06511468378579231 0.4349905042964027
00000000: 66a5 b8e2 a4d7 e43f 9793 b7b1 c7af b23f
00000010: 9233 a111 780b db3f 558c 3063 c160 d4bf
00000020: 3ee9 46a1 7b12 e53f a2b4 a956 aa73 e2bf
00000030: 64e2 617c eb93 9f3f 4a8c ee76 bac1 c03f
00000040: 6d51 5588 11a0 d73f 6d42 1f4d 0796 d43f
00000050: 9b35 5ee0 ce71 e43f 5d01 2dc2 4012 dbbf
00000060: 36ea 97df 366d e5bf 4969 d28d 2461 cebf
00000070: 7dbd 1006 7cc3 d3bf cac8 25bf af8e e33f
00000080: 986d 956b deb0 ca3f cc06 ff61 c327 cabf
00000090: 6849 f6bd 1adb e33f b0db 7f29 ce76 87bf
000000a0: 681f 03eb 0076 e33f f94b 5d7c 53a7 e33f
000000b0: e201 6f37 f491 d4bf 403f 47cc 2020 e43f
000000c0: 11e3 248d cc94 cb3f 3983 11b3 6076 c23f
000000d0: 5b7e 753a cfd1 c2bf 93e5 892d b536 d93f
000000e0: 69b6 9a9f 8fb7 e53f c66f e91d 3965 e43f
000000f0: 2687 6fc7 e5ae d83f 8450 2cac 61e5 c43f
00000100: 78b7 9104 8e51 e63f 9404 66be 3cff e5bf
00000110: 6b30 41e0 bbbc ba3f a3a8 c566 c356 d13f
00000120: 1286 b7dd 3ae3 d7bf 6d93 e030 a0bf a93f
00000130: 9f6f 591d 5bab b0bf 9d82 8169 e2d6 db3f

hidden_layer1.bias f8 [20]
-0.20021536307758273 -0.5543453402047471 -0.38086660663442545 0.5082048398088739 -0.3009946875513331 -0.6362928474545853 -0.4618883656124012 0.1267440567158961
-0.5648015953330896 -0.23217590725382095 0.45172688742059997 -0.26491763665850904 -0.43941393442596105 0.36479873083519204 0.43209859453318794 -0.5384137294760819
-0.21362037570678347 0.2454615596448883 -0.04717809581479607 -0.28055652157963934
00000000: 1199 4932 a8a0 c9bf fcd1 5b70 32bd e1bf
00000010: df88 e854 1e60 d8bf aebc d4cb 3643 e03f
00000020: aa5f d338 7f43 d3bf 8ce0 4fd1 825c e4bf
00000030: 6652 2d38 948f ddbf 7550 4735 2639 c03f
00000040: 58e5 95cb da12 e2bf 5782 49ac f0b7 cdbf
00000050: a080 0ce4 17e9 dc3f f73d 651a 69f4 d0bf
00000060: 4709 719f 5b1f dcbf 23ce a3c6 dc58 d73f
00000070: 11ba 0add 80a7 db3f 3326 fa6d af3a e1bf
00000080: 3bbe b597 e957 cbbf 1ecb 8ccd 486b cf3f
00000090: a465 3935 ba27 a8bf e94c 3757 a3f4 d1bf

hidden_layer2.weight f8 [20, 20]
-0.20363030529963622 -0.12885294044566842 -0.11674542536237122 -0.0690853058448126 -0.13715972557884676 0.16414267297723142 -0.02031280470359274 0.17185181524199047
-0.04452818945958277 -0.14930645908153278 0.18664717902463762 0.18941693683908367 -0.09012362282839605 0.16825272252643636 0.19445609486003593 0.004593181702556834
0.11020894875413913 0.08643138501363236 -0.02735759794822998 -0.17190014811113438 -0.05013268524549628 0.18908039349726033 -0.1598889836676505 -0.11914000752822701
-0.08701529710886856 0.2139630807060492 -0.21032198122745902 0.12830851126119758 -0.13984385449986209 -0.04234670527289999 -0.009013359310496237 -0.08364012712831714
-0.021545144933199263 -0.039880281576004074 -0.17732757784387607 0.15649042365917262 -0.0934589350353217 0.19903032283845917 -0.07056011963904261 0.030921530240028687
0.1436862433068218 -0.04543228461290627 -0.12247935819580508 0.09893497425986825 0.12047848074168988 -0.20937612444154696 0.20485496045676715 -0.007809698574125594
0.020537539961024785 -0.17297341450683854 -0.13302767768622362 0.033610348140327755 0.21352481124564768 0.04754066249330729 -0.19308556208395525 0.13496954379180362
-0.09508830920865978 -0.07768507658168582 0.12038565475323586 0.14113706930950465 -0.03076053869955568 0.062284866086440495 0.032929099401256004 -0.1318808011758372
-0.07643872759635606 -0.0769922785941337 0.19570682876476686 -0.07309104973388801 0.16408918695032915 0.10779576807235441 0.1808637218329264 0.19725720371060596
-0.02640416301928222 0.17975095996788826 0.15141359199044932 0.01931602068106997 -0.10649376205738445 -0.05905217105143974 -0.1390205461981078 -0.21532974831819593
0.2211481255732303 0.09122393129887016 -0.00949445554652032 -0.18765946393359523 0.2042114092471119 0.03993796782495379 0.002253611767419874 -0.015835564179374546
-0.1948611013166642 0.06432713878836231 0.08760404481933026 -0.20223409096084072 0.13392424341983372 -0.16159640100781497 0.19348282683666548 0.1818760396745884
0.12425552847419309 0.017781798895894593 -0.010609900654684081 0.22313848659079843 0.16314391229868186 0.17398695594243255 -0.10111264132224261 0.1872262128656269
0.17810969517178685 -0.12297144951535184 -0.013360022681204859 -0.030182184892132088 -0.033771632681256845 -0.11966152937820934 -0.05934084498983605 -0.17609634022208293
-0.174741969010212 -0.17970004968575382 0.14910029620823767 0.10720205271858803 0.03739105702691226 0.11387520066117868 -0.07068783797195893 -0.07459076443562009
0.12484917219818534 0.15121573154540263 0.1824321983715401 0.04035412720544747 0.12457259834546894 0.07793680481044334 -0.07088422428164368 -0.20319375126126293
0.178758614554258 0.036885418555339826 0.14337668284387348 -0.02486152431411334 0.12852151675829745 0.1051202236036618 -0.06053800270188853 -0.11837629668778302
-0.029258411978764283 -0.2055306119335008 -0.13250266013618145 0.2156716761262615 0.16618078695103097 -0.13495306032071264 0.058013133139822703 -0.07591953773211862
-0.09804909377227712 -0.10449503946275823 0.030186330767509675 0.08665159973805132 0.10376240654640467 -0.22324142638142433 0.06601011391082216 -0.16457867537314952
0.07801092161611796 -0.07007419690374654 -0.1298353115528636 -0.08564224206442003 -0.13778506350153877 0.19405266620502243 0.1343969673576133 0.1144304373935177
-0.15699639572858048 -0.1718743852969659 0.15277534525610278 -0.00028006784944790525 -0.08406676799784384 -0.16396784477513188 0.01142199982064572 0.028815294526447616
-0.023534833938245767 -0.09004603782555778 -0.12915979867637697 -0.03500550062654276 -0.22137260081199087 0.18029676533122696 0.06440179545770404 -0.15530638632966012
0.01649817452872337 0.06374285582878263 0.1064880611431999 -0.20834178968224012 -0.103294570934618 -0.11315175244821396 -0.08646252787854249 -0.10338343789445673
-0.1663129887588397 0.05147406749986817 -0.16841782435607117 -0.04205339123080294 0.06536661225009024 0.2214082674400679 0.06154821368116238 -0.021819231222807302
0.014464651777006048 0.11363508793419554 0.18551963703184218 0.1310578571521073 0.15060102925997304 0.09675160134115154 -0.19102927620816165 0.20330905752177292
0.01855224631968979 0.19708979651012656 -0.16786030315440864 0.08500447335596689 0.13880455695173483 0.0721812949097294 0.1157291641856118 0.21100668117721588
0.15603982224945928 0.03884007970578457 0.2133652563330266 -0.14414876216148798 0.08899343836318403 -0.05280488036013423 -0.15842135427577037 -0.038390133178402515
0.0378020395445031 -0.1703066437160746 0.10405060068169343 0.15179475122905836 -0.18258905198257122 -0.10827646851891773 0.05964193442992232 0.17166505221382475
0.08643572928220425 -0.03266727752244039 -0.00894775476115135 -0.014466627916797379 -0.20207191237361852 0.020101546148266345 0.00041985199793503295 -0.17667667255185385
0.11948340814650343 0.18764958236772697 -0.17782781220909957 -0.18376338414989726 0.05551833162130066 -0.13949792209260056 -0.06606106384514457 -0.2166373497363631
-0.03589780748427157 -0.15017403519298222 0.17041605274269767 -0.1599195433900489 -0.006889911457287815 -0.21580812102556501 0.2099407302597897 -0.006834611489516385
-0.22255854121681476 -0.1960464356969712 -0.05576708556523845 0.06008599031623703 0.1755423505423468 -0.10702320239112972 0.06177854625497547 0.023413923628449882
00000000: 7043 dece 8e10 cabf 0892 9ace 407e c0bf
00000010: 1195 e337 07e3 bdbf 2cd5 3c19 93af b1bf
00000020: ee40 d82b 738e c1bf 8559 288a a002 c53f
00000030: 7b5f 913f e1cc 94bf 9d7d 1c83 3dff c53f
00000040: 7a3f f51a 66cc a6bf 7a1a 6b5b 791c c3bf
00000050: c296 e604 0ee4 c73f 7024 846e d03e c83f
00000060: b91e a57c 5712 b7bf 9264 5b22 4e89 c53f
00000070: dd42 f7f3 efe3 c83f f02f 27d3 4cd0 723f
00000080: 3125 a056 a736 bc3f e945 fb03 5e20 b63f
00000090: 1966 f051 a103 9cbf ef4d 28f5 d200 c6bf
000000a0: 6d1d 2ec7 fdaa a9bf 8359 314d c933 c83f
000000b0: 31ef eb01 3e77 c4bf 149b faa3 f57f bebf
000000c0: 9795 556f a246 b6bf b489 1769 2463 cb3f
000000d0: 073d 80a7 d4eb cabf 4428 d5cd 696c c03f
000000e0: 86ce cf46 67e6 c1bf 141d 7ba4 77ae a5bf
000000f0: 9fb5 b99b 9875 82bf 603f a67a 7069 b5bf
00000100: e2af 8033 ee0f 96bf 4d98 3f32 306b a4bf
00000110: 0759 c289 abb2 c6bf 276d e0d1 e007 c43f
00000120: e3e5 7ebd ecec b7bf d272 c05b d379 c93f
00000130: 9f64 405e 3a10 b2bf ae27 7ec4 e4a9 9f3f
00000140: a9a6 f191 4f64 c23f 60a3 3081 e642 a7bf
00000150: 54d4 e2a5 ce5a bfbf c471 e06e cd53 b93f
00000160: 6046 a87e add7 be3f ec13 853b d6cc cabf
00000170: 72e7 caf5 af38 ca3f ebd3 7aff 0ffd 7fbf
00000180: 793e e4f9 ca07 953f 8331 312b fe23 c6bf
00000190: 3905 900a 0d07 c1bf 97c7 2324 6035 a13f
000001a0: f3a1 97f0 c754 cb3f a721 47ed 3f57 a83f
000001b0: 9d7c 3d17 07b7 c8bf e55a 4598 ae46 c13f
000001c0: 2b7b 481a b557 b8bf 8b3b 4e4f 2be3 b3bf
000001d0: 239c 1222 98d1 be3f 8803 788c c710 c23f
000001e0: ac42 e3ce b07f 9fbf 5506 c14d cde3 af3f
000001f0: d2be 073a 15dc a03f b79f 0258 78e1 c0bf
00000200: 8098 2c0b 7d91 b3bf 1f38 9b16 c4b5 b3bf
00000210: 8c03 93de eb0c c93f 87c3 3c54 18b6 b2bf
00000220: 3019 cadd df00 c53f 3c99 84e2 8098 bb3f
00000230: c312 27dd 8a26 c73f f831 6b5b b93f c93f
00000240: 4f93 9562 b109 9bbf b44b 3e57 1402 c73f
00000250: 3f6a e244 8561 c33f e1ca 7434 94c7 933f
00000260: 6eb4 43d9 2c43 bbbf 5af3 d80e 163c aebf
00000270: 894b b2dd 6ccb c1bf cff7 70d9 ec8f cbbf
00000280: 1d51 74ef 944e cc3f f68b 8a99 735a b73f
00000290: 5369 8640 d471 83bf 7499 30ae 3905 c8bf
000002a0: 88dc 1776 9923 ca3f 988f 5ad3 bf72 a43f
000002b0: d2ab d89a 2a76 623f 3276 0eb9 3237 90bf
000002c0: 6b74 b564 35f1 c8bf 6b5d 574d be77 b03f
000002d0: 4010 7ffb 376d b63f aa13 6883 cee2 c9bf
000002e0: f69a d0fa 6d24 c13f 466c bddc 30af c4bf
000002f0: 27f1 cc96 0bc4 c83f 8f07 2acd b647 c73f
00000300: c1d3 24d7 35cf bf3f ff3d e352 6435 923f
00000310: 9bfc 9ac2 a4ba 85bf 0276 314b cd8f cc3f
00000320: 64a2 ee53 e6e1 c43f 1107 da5e 3445 c63f
00000330: 27f3 b09f 84e2 b9bf 541c 9b4e 07f7 c73f
00000340: 5f82 ee69 4ccc c63f 4599 0292 0e7b bfbf
00000350: caaf eae3 7f5c 8bbf 5f56 2224 14e8 9ebf
00000360: 330b ccf3 834a a1bf f4cc 4453 23a2 bebf
00000370: 80c1 1859 ec61 aebf 467d 192b 538a c6bf
00000380: cc99 11e1 f15d c6bf a4b4 3e46 6900 c7bf
00000390: cee6 04f0 b715 c33f 158b 7dfe 9771 bb3f
000003a0: e1d9 2fae eb24 a33f 8c4a aad6 ec26 bd3f
000003b0: c483 5020 9918 b2bf 31aa d55d 6118 b3bf
000003c0: e61c 8687 1df6 bf3f 8269 d07e 095b c33f
000003d0: 831f df32 f059 c73f 5a48 36d1 4ba9 a43f
000003e0: c61c df63 fde3 bf3f 7bca d09b aaf3 b33f
000003f0: 928c 17f1 7725 b2bf 6897 35ba 4002 cabf
00000400: 74c4 b1f1 8fe1 c63f 27f6 c944 a5e2 a23f
00000410: 3365 e9c9 2a5a c23f d769 6ea7 4c75 99bf
00000420: fb93 a79f 6473 c03f a8a3 86b2 28e9 ba3f
00000430: 681f 8a4b d6fe aebf 6e47 e5b2 e84d bebf
00000440: d2a5 53ca eaf5 9dbf 8266 4abc d34e cabf
00000450: d27d f5df d8f5 c0bf cd61 d125 219b cb3f
00000460: f7cf 967a 6945 c53f 2c4a 4952 2446 c1bf
00000470: 90e7 25bb e5b3 ad3f dcd7 af7b 766f b3bf
00000480: a184 27d3 be19 b9bf f436 16d9 2fc0 babf
00000490: c713 bb5d 2ae9 9e3f 1561 059b cc2e b63f
000004a0: e0ca ab4e 2c90 ba3f 85d6 b5d0 2c93 ccbf
000004b0: 6bc4 73f0 09e6 b03f f05f 2cfe e910 c5bf
000004c0: 9d71 1215 86f8 b33f fbbb feef 61f0 b1bf
000004d0: 8625 7e88 719e c0bf fea2 d264 a6ec b5bf
000004e0: f1e5 cee2 f0a2 c1bf b2ad 86bf b7d6 c83f
000004f0: 80c3 bd79 eb33 c13f 93aa 452a 504b bd3f
00000500: 903f 9f38 7518 c4bf e56e efd7 faff c5bf
00000510: fb49 c17b 248e c33f adc0 0841 c25a 32bf
00000520: 372d 3b53 6685 b5bf 5ad0 73f9 e5fc c4bf
00000530: f80a 7add 6a64 873f 257a 76ae c181 9d3f
00000540: 8983 53f8 8319 98bf ba5b 98d3 410d b7bf
00000550: 1df1 a2eb 4e88 c0bf f401 beb0 3dec a1bf
00000560: 3de6 5bf8 ef55 ccbf dc0a 56e3 f613 c73f
00000570: ad65 4bd5 a27c b03f 9daa 1265 14e1 c3bf
00000580: ffa2 2dc0 e5e4 903f 4b65 23a9 7351 b03f
00000590: 1b45 0634 cd42 bb3f 77a4 899a f1aa cabf
000005a0: cebe 0454 8371 babf f00a 4064 83f7 bcbf
000005b0: 315d 9181 6822 b6bf c269 b444 5677 babf
000005c0: 0043 cf77 be49 c5bf 4210 0219 cf5a aa3f
000005d0: 3e1e d61b b78e c5bf ba5c 0ba8 0588 a5bf
000005e0: a24c ddc5 ddbb b03f e70b dc29 1b57 cc3f
000005f0: 528f c659 3f83 af3f 6a70 1ad2 c757 96bf
00000600: 3664 a4b2 a49f 8d3f 09ff 5a6a 3017 bd3f
00000610: 91a5 e882 1bbf c73f f112 2dfd 80c6 c03f
00000620: de2f b5ff e446 c33f 4e8b 9883 b6c4 b83f
00000630: e340 f2b6 a573 c8bf 3aaf 84fc 0706 ca3f
00000640: 2674 d72c 5cff 923f e771 310b 3d3a c93f
00000650: 6a23 2c48 727c c5bf 5cdc 1369 dac2 b53f
00000660: 3e5d 5204 59c4 c13f 132d 052d 797a b23f
00000670: c4e0 5e2f 6da0 bd3f d462 7255 4402 cb3f
00000680: bab0 b7e6 1cf9 c33f 7883 38d0 d8e2 a33f
00000690: e8c8 067f 8d4f cb3f 5c09 9f75 7773 c2bf
000006a0: 6d16 5423 46c8 b63f 8593 6ec4 3d09 abbf
000006b0: 861d cda3 2647 c4bf a90b fb1c dfa7 a3bf
000006c0: 9da8 21f7 c95a a33f 0baa 86ac 9bcc c5bf
000006d0: 6d99 0e67 0fa3 ba3f 83db 1daa 026e c33f
000006e0: 7fb7 6ffb 135f c7bf 7212 37b3 01b8 bbbf
000006f0: b781 b13b 6389 ae3f efef 8fd4 1ef9 c53f
00000700: 0215 79e6 a620 b63f e46a 37f1 c3b9 a0bf
00000710: e7fd 9250 3353 82bf 25d2 49ee ada0 8dbf
00000720: ffdc 8a0f 7edd c9bf c92d 39ed 7f95 943f
00000730: 90af ac99 f283 3b3f a1c4 4959 579d c6bf
00000740: dc62 67f2 7696 be3f 2350 b0c9 e604 c83f
00000750: 9bef e0ce 0fc3 c6bf d523 90fe 8e85 c7bf
00000760: 29b0 4815 e66c ac3f d3b3 9f62 11db c1bf
00000770: 3afd c0bc 60e9 b0bf 85da 1ace c5ba cbbf
00000780: e83d 498a 3261 a2bf f45c ee1c e738 c3bf
00000790: 6024 9f76 31d0 c53f 61fe 6c5c 3e78 c4bf
000007a0: 1d29 1a86 9838 7cbf ac0c 02bb 999f cbbf
000007b0: 3636 487d 56df ca3f 1ae0 400d 9cfe 7bbf
000007c0: 4160 fc5b cc7c ccbf 0b6e e8b2 0c18 c9bf
000007d0: 4e51 64e1 808d acbf 0a47 b646 97c3 ae3f
000007e0: 7038 52f7 2b78 c63f 10df 2e62 df65 bbbf
000007f0: cfe2 8407 70a1 af3f 095c 05d1 d1f9 973f

hidden_layer2.bias f8 [20]
-0.20763470741461212 -0.08841627264747662 0.11558643752993698 -0.09179053706552673 -0.16151431209018297 0.20469219383818937 0.16636153944221727 -0.22059800845186694
-0.09042949145549797 0.18856346877293637 -0.0077607327519672855 0.05791548035550759 -0.19189715714333175 -0.17373081754946187 -0.014809947817185752 -0.21368173278294342
-0.120963606829984 0.06486087109136501 0.047109752672209994 0.11992667242879416
00000000: e91d ee2a c693 cabf 7e83 74e7 72a2 b6bf
00000010: b55e 0da1 1297 bd3f be59 c7aa 957f b7bf
00000020: f0b2 2140 80ac c4bf b808 2493 5a33 ca3f
00000030: 7eb7 9bbd 554b c53f 2c87 ee37 8e3c ccbf
00000040: c230 651c 6326 b7bf 63cf cc05 d922 c83f
00000050: df99 cdd5 b7c9 7fbf e839 1e0c 19a7 ad3f
00000060: 3320 1007 1690 c8bf 0155 d7b9 cf3c c6bf
00000070: 1f03 3e8c ad54 8ebf cf15 074b ec59 cbbf
00000080: b24a 578f 78f7 bebf d4a2 20d8 b89a b03f
00000090: 257e 19fe c41e a83f 4ff1 ffaf 83b3 be3f

hidden_layer3.weight f8 [20, 20]
-0.038950530494068214 0.12223663367187153 -0.0639973035278947 -0.02980707192434601 0.0413875201236049 0.14850480195142904 -0.18329937772310503 0.01835871690058157
-0.05936676127874953 -0.10026724717168112 0.14858847564749733 -0.09315840993666592 0.05382677415299977 0.049670070058397076 0.1367604716139405 -0.11541612928092353
0.21467572203162785 0.22131170874536255 0.03509149161453813 -0.021842305969567415 -0.10491664874773259 0.05207677465415038 0.06358212224785084 0.04620105888647148
-0.1423291096858429 0.08506107819075642 0.16879401293264606 0.2133805827792328 0.11896680101714718 -0.11367389040444432 -0.07221110708427034 -0.11618164121667747
0.09326709252159608 0.12843551278915222 -0.1359092984815703 -0.06601217747031439 -0.08142282196387583 -0.1667870664226663 0.08868424593480384 -0.10787605550297617
0.20675476189204825 -0.016257132695430374 -0.08239907515665841 0.013766789158626112 0.05334043440310238 0.09404427478725554 0.1048876856139789 0.061955021422373475
-0.04559132134523348 0.06892441641703173 -0.041035666204963024 0.05186742939749695 -0.054777492908277506 -0.20539641937128927 -0.17972633388422815 -0.14332544509686235
0.1457548576465372 -0.1371634320383432 0.19475153987049448 0.18387994771472405 0.12867324433798016 0.11103130378928873 0.05865563048116144 0.007222267878455495
0.09572417933647674 0.16554872710533178 0.0006109622238578687 0.1026930701243996 -0.04714256616524782 -0.0831857956257316 -0.09441372562783666 -0.17280885582857902
-0.04771748652461467 0.13238759924680238 -0.05849229926816946 0.04869788381401112 -0.12973768208751812 0.2221556772957823 0.1833969573211643 -0.19245851581979767
-0.18144885931148405 -0.0853885872942301 -0.056922575765263106 0.08246510485476237 0.09197458650630416 -0.05665736958833797 0.16593662558005864 0.03383870933624031
0.08087516815545855 0.1430396981353529 -0.1826469197289395 0.14464068716945735 -0.00435570600918899 0.10378380507317618 -0.18918444170962595 -0.018060824170825978
-0.02772340206574215 -0.05848904323869864 -0.07030559260437784 0.036651186082796584 -0.19312440777125478 0.15718257589891882 0.09961563866989977 -0.16760477301449828
-0.21905018992867287 -0.11981055044078262 0.1941466437990953 0.18291988372185128 -0.08894985007476855 -0.17699810229300114 -0.06716558573490491 0.1312972801184765
0.08669375270606897 -0.190936282945472 0.08973545917650824 -0.06431357833948265 -0.09015661564522544 -0.11800487327271585 -0.17140925114132377 0.20283803236103484
-0.12577837069637515 0.07760059885544801 0.13439681603420633 0.21704130117555245 0.152516102902173 -0.13528955884466806 -0.03642582219882463 -0.18745647637062465
0.037492993498460504 -0.04041552969381053 0.06455591343291915 0.19654465122496564 -0.030172705317491253 -0.06883001593547931 0.12569671467246296 -0.12914676399094396
0.10313341764857013 -0.11520154806651425 0.20090051279005808 0.15032769591001122 0.07248042137151005 -0.18689293997354461 -0.16506669100353757 0.13932219737504717
0.2100217435939756 0.027756362696598282 0.007458451155008532 -0.028347367660512154 0.05694605599942309 -0.09857155278990189 0.06438085906976881 0.09835138979480203
0.06708889728732255 0.11065528555500705 -0.18363861003730697 0.11811309106952846 0.022508910663879028 0.175346762772072 0.14158860931111727 0.1500561235993202
-0.18588212660340486 0.12545913920116378 -0.13520897904926144 -0.09962261498693985 -0.15261931520336353 -0.21670963594875753 -0.1496821005203518 -0.21430506164431967
-0.09359127362324944 -0.03284022095045199 -0.022016862532832585 -0.06694622705776938 0.00538255427496534 0.0004428812042888419 -0.10618016522128533 0.031818620027457674
0.18544159461600107 -0.1945890810466754 0.17729704228641333 -0.10669145588761181 -0.07212358570453424 0.19472848614597577 0.04872538242986387 -0.07964188838037642
0.1465392903126312 0.07704226555703962 0.0956451443195006 -0.18861680031424372 -0.11165250727744595 0.18585243733222467 -0.0030730479459736824 0.03888598553029898
0.04158768463777814 0.19956050077682136 -0.19797497168226139 -0.15620461150178452 0.00965582343942287 -0.0004904478448775344 0.07671873646293946 -0.21846467754656343
0.22018330117498702 0.19578509151423007 -0.1733466227566656 0.22270781550672575 0.09929343058317847 0.12307652547898605 -0.18602919720841757 -0.13860513931565574
-0.1771276963089384 -0.004120995770995125 0.13276223062529874 -0.014957909916489358 -0.2133981400032519 0.09585900514346749 0.16043449063282403 -0.06734656016976982
-0.09809729598182801 -0.12213326129426734 0.20843355543310668 0.06923772222224094 0.06699852161720111 -0.19693980660101265 -0.08712197516288818 0.07900676639712693
-0.1563904967133361 0.11994500557121988 0.18543370598608602 -0.11047523751528286 0.08542161134664844 0.025361612821196273 -0.18771061198833697 0.1263311841379898
0.16325961612733825 -0.053930766525672025 -0.10597799109279263 -0.1429213715869507 0.10071925333019767 -0.188268570653357 0.10233296160609288 0.00752494844372932
-0.06900228538623397 0.10378210684072003 0.170399171560329 -0.08082982356935281 -0.04303915909267585 0.04555740943944521 0.08030692529159618 0.11016738920958419
-0.047087679091828386 0.12130438884135807 -0.1808192329752922 -0.0989577559019932 -0.030184557130055065 -0.08412778507386054 0.2162809575103783 0.1052611788756991
00000000: 188b 44ed 52f1 a3bf 076b fe67 e64a bf3f
00000010: f23a af95 2062 b0bf 9118 6bbc be85 9ebf
00000020: fe6e c9ba be30 a53f 8915 d791 3402 c33f
00000030: 5d54 59a0 5a76 c7bf e5f2 bca2 a0cc 923f
00000040: 32c6 52f4 5165 aebf 885a 7643 1dab b9bf
00000050: 98f7 bb79 f204 c33f c97c 06c4 3ad9 b7bf
00000060: b4ca 45d5 2e8f ab3f f04f fbfc 5a6e a93f
00000070: 1ed4 7bfc 5d81 c13f 0346 b154 e98b bdbf
00000080: db7d af7a 7e7a cb3f 3440 a42b f153 cc3f
00000090: 9a60 b411 83f7 a13f 0bec 3b57 d45d 96bf
000000a0: 1b6c 2d47 d1db babf 1e9e 0a98 cea9 aa3f
000000b0: e62f aaff ea46 b03f 6a7a ea49 aaa7 a73f
000000c0: 844b af1b d737 c2bf 74e6 fd14 90c6 b53f
000000d0: 5c35 a7ce 0a9b c53f 61b1 5110 0e50 cb3f
000000e0: c0aa adb7 9b74 be3f a138 b269 bb19 bdbf
000000f0: aebb 5557 6d7c b2bf 15d6 6b7d 14be bdbf
00000100: db5a 2c28 5ae0 b73f e485 892b 9370 c03f
00000110: ccae 19d4 7965 c1bf 6f6c 5f8f 2ce6 b0bf
00000120: d79d 7b45 20d8 b4bf 512f d751 4759 c5bf
00000130: 00dd f5bf 02b4 b63f a721 68e2 c39d bbbf
00000140: c12e 4fa6 f076 ca3f 3cb1 03b5 b5a5 90bf
00000150: 05bc 0415 1b18 b5bf 5f66 a829 c331 8c3f
00000160: 08ab a1fa 6f4f ab3f 4959 961c 4913 b83f
00000170: 5215 775b ebd9 ba3f 8905 aa8d 91b8 af3f
00000180: 4183 51e4 be57 a7bf 9033 68d2 07a5 b13f
00000190: 71c8 a378 a002 a5bf 19cc fa21 5e8e aa3f
000001a0: 1223 32a9 cb0b acbf e424 f50b 6e4a cabf
000001b0: 5aa1 21c3 4501 c7bf de15 b0f9 7c58 c2bf
000001c0: 059a 695d 18a8 c23f 26e9 6743 928e c1bf
000001d0: ea71 4b53 9eed c83f 4c97 e9cc 6089 c73f
000001e0: c2a2 2668 5d78 c03f d173 9b2a 8c6c bc3f
000001f0: 8523 495d 1c08 ae3f 1266 74c5 1895 7d3f
00000200: 73c5 af3b 6181 b83f 01ea 6760 b330 c53f
00000210: fabd a162 1f05 443f 24cb b5d1 174a ba3f
00000220: 61c7 db07 1223 a8bf 314a b40f aa4b b5bf
00000230: 9775 dd77 7f2b b8bf 3218 1fc0 991e c6bf
00000240: e91d 2428 6d6e a8bf ae9a 94ac 13f2 c03f
00000250: 7169 d9e0 b3f2 adbf 062e bbd4 edee a83f
00000260: 54f7 cf8e 3e9b c0bf 2b95 4de4 986f cc3f
00000270: f2ad f02e 8d79 c73f 7c30 a40b 7ba2 c8bf
00000280: 89d5 515a b739 c7bf 3c5f e1c5 06dc b5bf
00000290: f8bb a1b2 f424 adbf 0b94 69e0 6e1c b53f
000002a0: 2e92 1b81 a58b b73f eb28 ebda 3102 adbf
000002b0: ed97 094e 693d c53f cc41 e0ab 4e53 a13f
000002c0: 1544 492a 3cb4 b43f dcb1 c2f4 1f4f c23f
000002d0: 27b8 7969 f960 c7bf 252a 8806 9683 c23f
000002e0: f76e c4ed 49d7 71bf 87cb a450 9391 ba3f
000002f0: b605 071f 3237 c8bf fb29 9c64 897e 92bf
00000300: b22b d304 8663 9cbf 81e2 c49f 46f2 adbf
00000310: 1f32 f61c 8cff b1bf 2da2 2bbb f1c3 a23f
00000320: 96ec b7f3 4cb8 c8bf 8c52 7e03 8f1e c43f
00000330: 29e3 4116 6980 b93f 5819 60bd 1274 c5bf
00000340: fc8e f62c d609 ccbf 2ae2 db7b e7ab bebf
00000350: 3065 df16 ccd9 c83f ffcd 2f33 eb69 c73f
00000360: d223 0ed9 6ac5 b6bf 67b8 66b2 dfa7 c6bf
00000370: eee9 258a c331 b1bf 53d0 146a 59ce c03f
00000380: 22dc a3d0 8f31 b63f fa6f 6fa1 9970 c8bf
00000390: ae63 742e e7f8 b63f d424 a8cb da76 b0bf
000003a0: 65db b603 8114 b7bf 9b95 793f 9135 bebf
000003b0: 8c21 f103 bdf0 c5bf c914 b0bd 98f6 c93f
000003c0: 3ab1 5772 8119 c0bf 30f2 3b02 a2dd b33f
000003d0: 46d7 c634 ea33 c13f 8d13 3765 02c8 cb3f
000003e0: 9402 0acd a585 c33f ef32 5d13 2b51 c1bf
000003f0: 51d1 25c6 67a6 a2bf 9bb5 b7e5 92fe c7bf
00000400: e55f cf19 4832 a33f 4a24 9224 58b1 a4bf
00000410: 0b32 f580 bc86 b03f 9b83 9b08 6028 c93f
00000420: 5929 48fa 97e5 9ebf 1f11 6d0b d89e b1bf
00000430: bece 5d77 d416 c03f c5d7 dc93 e187 c0bf
00000440: a3e1 ec9f f366 ba3f 9eed 6441 d97d bdbf
00000450: 396a 17a6 1bb7 c93f 7eea ce1c f03d c33f
00000460: 5314 64af 138e b23f c013 859c 1bec c7bf
00000470: e572 c2c3 e720 c5bf 6995 aa4c 4fd5 c13f
00000480: d3ae 1714 fee1 ca3f 17b6 26f8 296c 9c3f
00000490: 7819 a2bc c08c 7e3f 3f4c 1ea4 1707 9dbf
000004a0: a7b2 4e90 0828 ad3f d56e 8c3b fc3b b9bf
000004b0: 346b 3194 437b b03f 8d50 af82 8e2d b93f
000004c0: b514 c6eb bc2c b13f 999a 96a0 e753 bc3f
000004d0: 1c52 3250 7881 c7bf 1d83 5fd7 a83c be3f
000004e0: 5806 ae6c 930c 973f f262 c841 c371 c63f
000004f0: 741a 3d57 931f c23f fc38 b6ff 0935 c33f
00000500: 4c16 564b fcca c7bf 4339 ed89 0b0f c03f
00000510: 3831 921f 874e c1bf 8b97 4f21 de80 b9bf
00000520: 82a7 c49b 0789 c3bf a261 902f 24bd cbbf
00000530: 0c08 4477 c828 c3bf 4a97 9027 596e cbbf
00000540: c520 6703 99f5 b7bf 8b82 f3f5 6ed0 a0bf
00000550: 11fb 27a2 968b 96bf edbf cd4f 6323 b1bf
00000560: 605b 4769 040c 763f 00ca d649 5006 3d3f
00000570: e5fa 1b91 9f2e bbbf b9f3 d7b8 874a a03f
00000580: e8ce 18d8 8cbc c73f 7588 a085 4be8 c8bf
00000590: 311a 2663 abb1 c63f 84c7 cc99 2150 bbbf
000005a0: c708 dff9 b076 b2bf ea5b ccef dcec c83f
000005b0: 7bef 0a88 88f2 a83f 1e43 fc29 6963 b4bf
000005c0: f663 bca9 ccc1 c23f e72b faba 0ab9 b33f
000005d0: c39a df3e 337c b83f 1ab5 6966 9824 c8bf
000005e0: 73e5 453b 4295 bcbf 4ca5 1c3e 03ca c73f
000005f0: 7df5 a90d a62c 69bf a02f 4028 dde8 a33f
00000600: 6b09 df22 fb4a a53f 5275 34d0 328b c93f
00000610: a7a2 666e 3e57 c9bf ef38 f140 83fe c3bf
00000620: 122e 1baf 6ec6 833f 0459 21ba 2c12 40bf
00000630: d748 19d0 d6a3 b33f f563 b28a a6f6 cbbf
00000640: 6a00 d666 f72e cc3f c88a 8c62 7c0f c93f
00000650: a953 cedd 3830 c6bf 5a1e 1590 b081 cc3f
00000660: 4cf9 0f55 4b6b b93f 0f6a d673 f181 bf3f
00000670: af3e 0e03 cecf c7bf b789 352e d0bd c1bf
00000680: 4b6d 6ecf 1eac c6bf 0999 0361 2de1 70bf
00000690: 5aff 564f 5afe c03f 763f 43af 40a2 8ebf
000006a0: 52ac 2b58 a150 cbbf 2a48 1e3c 378a b83f
000006b0: 0d8e 350d 1e89 c43f c160 6dc9 9f3d b1bf
000006c0: 5e67 1186 e71c b9bf 5d40 031b 2044 bfbf
000006d0: 77b2 fc63 f3ad ca3f 2314 9838 90b9 b13f
000006e0: 11ea 39ab d026 b13f 91e2 50d6 5235 c9bf
000006f0: 4d68 1632 a04d b6bf 8b9f d695 c939 b43f
00000700: 1afd 6492 9a04 c4bf 9f36 3f44 b7b4 be3f
00000710: 19a6 64ab 4abc c73f 6f5e 25ec 1a48 bcbf
00000720: 9400 1bd3 30de b53f 953b 9006 65f8 993f
00000730: 1110 cdbd e606 c8bf 2337 2bc8 9e2b c03f
00000740: 9620 03ec b0e5 c43f b8b2 f33c d09c abbf
00000750: eadd d6a5 5f21 bbbf fbc5 6e5c 3f4b c2bf
00000760: 0d78 21ab bcc8 b93f 1411 e93c 2f19 c8bf
00000770: 73a7 6633 7e32 ba3f 8fb9 84f7 7ad2 7e3f
00000780: 3f48 153f 22aa b1bf 7c76 cad2 7691 ba3f
00000790: 57fd 8eda a3cf c53f 0496 c568 43b1 b4bf
000007a0: 4e32 8089 3a09 a6bf 520b 44ff 4c53 a73f
000007b0: 6d0c c5a1 fe8e b43f 7ca9 bd15 ee33 bc3f
000007c0: 7ae6 7c53 e01b a8bf 9f55 efee cd0d bf3f
000007d0: 87ef 0eaa 1525 c7bf 51dc 48a5 4b55 b9bf
000007e0: dc0e df56 b3e8 9ebf f8bf 9305 6689 b5bf
000007f0: 0e98 a02b 18af cb3f 993d cf88 65f2 ba3f

hidden_layer3.bias f8 [20]
0.01919043485285163 0.11828157016246102 -0.0036110248751757106 -0.0905590670813385 0.19782013582643126 -0.14998338145104978 -0.05151882142999011 0.005883140706756455
0.018100219596220237 -0.1825181683323125 0.019532877704263173 -0.02508708965632048 -0.08606123788828506 0.01056191538658092 0.15710559737986143 -0.09982303775287538
-0.1475356805972962 0.11938500709114748 -0.18556729143307196 -0.16458505679197588
00000000: 1827 5b48 a8a6 933f 8a3a 9173 b347 be3f
00000010: d835 ce37 de94 6dbf 7d7a 7807 e12e b7bf
00000020: c6b1 ee92 2b52 c93f d64b 23cb a732 c3bf
00000030: d32d 57ca ac60 aabf 91bc ee8e eb18 783f
00000040: 675f dd2c dd88 923f a0e0 f45d c15c c7bf
00000050: 460e bf3b 6d00 943f c9bb 8016 6eb0 99bf
00000060: 43f7 2efa 1b08 b6bf 450e 5949 7ca1 853f
00000070: 19ed 6145 091c c43f 8835 89aa 008e b9bf
00000080: 5d49 94fd 72e2 c2bf 3dd6 160d 0490 be3f
00000090: b9c7 f443 abc0 c7bf b479 2a86 1f11 c5bf

hidden_layer4.weight f8 [20, 20]
-0.06674655359935573 -0.059799915330929224 0.08123135762531745 0.13569240211483474 0.07282030421103149 0.012211454603034607 0.17807454776826087 0.21974709997919106
-0.18589393465367077 -0.186956255306238 -0.12204861112800226 0.06664088335845245 0.15871075416555896 0.2181777044156064 -0.19395340348690782 -0.21328765308549047
0.1535278174087421 0.17352275489200192 -0.03478350806057938 -0.13827249617756532 -0.2191384288239065 -0.09592039671239436 0.22318034903288667 -0.11424663349028763
-0.1545412281043539 0.03648101896043706 0.045230058120583824 0.18541348565963955 0.07722837598605545 0.09296130651883781 0.21548774487004005 -0.003607241932454098
-0.08327073922217683 -0.13834843261542004 -0.0034204906426674934 -0.20690307972747907 -0.2193163570365462 0.09175911560820142 -0.11812776257299074 0.0052721600713699695
-0.034223318077643894 0.1194543923261877 0.205390591452746 0.16293190411151062 -0.07312471802770436 -0.018332390203497428 0.03247685387171054 -0.07467956330542477
0.1542841282239607 0.007322113761598976 -0.12461095634115267 0.027989598776028187 0.21259718468315844 -0.22305287492759884 -0.1997174756320957 -0.0037031104306929825
0.1894983525800504 0.06223413966037722 -0.14615185689198765 0.17244033989537536 -0.2064446868936623 0.05120732459399926 0.09239725593103688 -0.04929765641666931
-0.14335578110611114 0.08391935876019722 -0.11778462424981828 -0.12921967079475966 0.14538611761870185 -0.07020425092721122 0.1589819514171841 0.05228409818257652
-0.18831420034472066 0.19321183190557384 -0.15369260935944393 0.2212660355582091 0.0723124786539438 0.17295585513636 -0.18991096528630463 0.014087945903167047
0.20778427724590667 -0.02163787612236126 0.18530758216395357 -0.09502830713949545 -0.11277287587052141 0.20801184961736638 -0.2052921691481055 0.1326350039512225
0.1824318255353792 0.12667088921240335 0.12686730620361106 0.13561123102012954 -0.1459106689205082 -0.19208538077887485 -0.1989220664680646 0.05925444520619017
0.03601540607140619 0.09536209948466363 0.04223213429011511 0.0768651073597158 -0.08422956010763462 -0.1925668782061187 -0.1725379126566165 -0.20285205576599308
-0.03185566270736404 0.010944326461966088 0.01844824285033242 -0.1275217455998442 0.19260084435783345 -0.10612986334191807 0.06041268177437712 -0.11478624745611804
-0.15764058085347432 -0.15201835394158744 0.0773846571357074 0.12070649065972779 -0.023690264907804473 0.17239261425910168 -0.19590665016401818 -0.17362217621008763
0.19810547296124711 -0.15102653541332653 0.05508326168921294 -0.15331775344570509 -0.022024287138370922 -0.09283235232950068 -0.2078947461916367 -0.16113662534383938
0.18445087606783842 -0.03946482601131793 -0.06296971334146369 -0.023439648843429042 -0.1747301471920373 0.13927756566563881 0.0562023281877078 -0.10490031878810624
0.026611242352975868 0.08483283679241477 -0.11299687883403174 -0.1570533920810613 -0.05031133117843985 -0.13183586248745363 -0.21442637623589128 0.19906245539360887
-0.18966094226476485 -0.06091664042524289 0.16897134544416684 0.03697740648494393 -0.10297368325966885 -0.16086567147895806 0.14992392840819488 0.19651430412437013
0.16413253529358574 0.11986799447151623 -0.10242020431874531 -0.15580758603253136 -0.14845260272501165 0.1485967923116015 0.09613667565376882 -0.13635128564755716
-0.18286729354921277 -0.021252648201271863 -0.21072590051127588 0.023723848374390285 -0.034687934220038 -0.010979181086547477 -0.1664664338967954 0.15911490662472702
-0.13230775715991508 -0.08173331575079099 -0.14648639220553228 -0.07007599120370056 -0.04857797270479089 -0.20154194074810272 -0.061807953074963756 -0.1950445010247708
0.06365495471067067 0.028845527885390125 0.11195528336708797 -0.2059745105056838 0.04624335129151182 -0.048146228207289775 -0.18137281592371682 -0.0553597565551267
-0.1314055508493165 0.038465867908054216 0.2070077299307916 0.14754209112822786 0.20795035412315327 0.19591055636141114 0.17606869186828697 0.00819258147226297
-0.12487698550419223 -0.09584715213019412 -0.18254495282549546 0.007925356238268774 0.07887076242430335 -0.20626502470708227 -0.2224855748936602 0.07191217564573671
-0.15195296313291207 -0.05184884740426541 0.05976922648942569 -0.17309554322102902 0.19230230213027763 0.09120854552834057 0.20343792011627856 -0.00013958877555304166
-0.13787694567965936 -0.2175456431502448 0.0612474246605055 -0.06002813927814735 0.0018802894873186857 -0.2137033102279419 -0.2141017193394761 -0.11729095403945887
-0.12170319497236175 0.1467326324514004 0.017013475788074005 0.11139819758081411 -0.1396099544798802 0.11098262032802757 0.14216086465099734 0.0676762868671984
-0.21725456417872038 0.14742990776812667 0.014463817887890418 0.12919511122935654 0.1801938777696526 0.12158996006149153 0.05886814699697514 -0.014496260305825286
0.18996352394026084 -0.055846902968084096 0.16287992735312234 -0.16788373246772315 0.007829165049368368 -0.03322165638754742 -0.10590990298812851 -0.0397121917332724
0.1846303166107448 0.040526092220610176 -0.16589528374510445 -0.13450285968848424 0.01845731960091303 -0.19804278136980716 -0.17645136073856207 0.18489753204699336
-0.034314643334167505 -0.12618796831527831 -0.0032975316001634556 0.049715834441790424 -0.07210825903675626 -0.1793911670933073 -0.03497691397943035 -0.19920425978841752
00000000: 3577 d458 4d16 b1bf 02c1 4c31 189e aebf
00000010: 3311 6908 94cb b43f 0a0f b35e 5e5e c13f
00000020: f936 12f9 59a4 b23f 31c3 40b1 5102 893f
00000030: ea13 7593 25cb c63f 8096 e647 ac20 cc3f
00000040: 185f ee58 5fcb c7bf 6655 29bd 2eee c7bf
00000050: 5926 51e9 933e bfbf f2e1 997e 600f b13f
00000060: ae10 554d a250 c43f 9a37 973c 3fed cb3f
00000070: ec4a 7612 77d3 c8bf 7446 5283 024d cbbf
00000080: c4fd 65ad cca6 c33f 8ebd af5e fe35 c63f
00000090: fee4 1edb 24cf a1bf 3c6c 82c4 e9b2 c1bf
000000a0: 6a39 8c60 ba0c ccbf 162a e636 3d8e b8bf
000000b0: ed61 1a76 2c91 cc3f 90d5 8472 443f bdbf
000000c0: 98c2 4bc8 01c8 c3bf 0b3c b8de a3ad a23f
000000d0: e621 d9e8 6428 a73f 4ca0 920c a1bb c73f
000000e0: beec 2e25 3dc5 b33f 07b6 4aeb 4fcc b73f
000000f0: 27eb 7338 1a95 cb3f 02e7 1d44 ef8c 6dbf
00000100: 5549 ac2d 3b51 b5bf 8f9e c4c4 66b5 c1bf
00000110: 2ffb 49ee 4905 6cbf 9683 6fd4 cc7b cabf
00000120: e193 79f2 8e12 ccbf e3a8 a580 867d b73f
00000130: 782a 00fd 9e3d bebf 677b 5fb1 4298 753f
00000140: 60e4 ceff b785 a1bf 3f8f 6724 9094 be3f
00000150: c50a 9928 3d4a ca3f 2525 d1df f3da c43f
00000160: 5f4d 7530 4db8 b2bf 63b0 86e1 b9c5 92bf
00000170: 340e 8362 cea0 a03f 668c 132a 331e b3bf
00000180: 9ac3 8112 95bf c33f 876d 4cf2 cafd 7d3f
00000190: 8562 35ee 80e6 bfbf 8f1c 7c2d 4ea9 9c3f
000001a0: 87c9 b771 6236 cb3f 60e1 8b21 ff8c ccbf
000001b0: 92c7 239d 5790 c9bf 6d89 2f46 fc55 6ebf
000001c0: af14 7d65 7b41 c83f c870 1235 27dd af3f
000001d0: ade5 cca2 1ab5 c2bf 314e 2e6a 8612 c63f
000001e0: 2214 528d c76c cabf e3cd e4b0 d837 aa3f
000001f0: 21c5 76b8 58a7 b73f d577 28dc 8a3d a9bf
00000200: 448a c573 7b59 c2bf b357 6035 bd7b b53f
00000210: f8e6 1f15 2227 bebf ce1c 082a 458a c0bf
00000220: 667c 3b26 039c c23f d4c5 c5e1 e7f8 b1bf
00000230: 45db fe44 8559 c43f c10c 9737 fbc4 aa3f
00000240: 072e ed01 ae1a c8bf 4a0a 9e51 2abb c83f
00000250: b7f8 6a0d 33ac c3bf 0b13 3809 7252 cc3f
00000260: a450 e912 1283 b23f 432f bbde 6a23 c63f
00000270: 663a 87a4 004f c8bf 6917 6017 24da 8c3f
00000280: 0974 b2d9 ac98 ca3f c8a6 3349 3d28 96bf
00000290: 6729 8caa 28b8 c73f 8cbe 5b6f c653 b8bf
000002a0: b760 bde5 aede bcbf 57be a4dd 21a0 ca3f
000002b0: 86d9 4e88 0347 cabf 0f3e 230e 2ffa c03f
000002c0: a946 3612 ed59 c73f a9e1 426f c036 c03f
000002d0: 8bbe 8919 303d c03f 2dd3 1975 b55b c13f
000002e0: 2456 9367 33ad c2bf a513 3ef6 4096 c8bf
000002f0: 066f f73c 4776 c9bf 713e 9b40 9956 ae3f
00000300: c12b 757e 9c70 a23f f584 908a a669 b83f
00000310: e58e 3b47 739f a53f 1442 5082 6ead b33f
00000320: 41cd 0486 1190 b5bf 7f13 180e 08a6 c8bf
00000330: 2a13 17ea b815 c6bf cc7c b860 0ef7 c9bf
00000340: 9d83 0aab 624f a0bf c4dd d8a1 fa69 863f
00000350: 60e7 d79e 18e4 923f 2ca9 70ef a152 c0bf
00000360: ed74 d9fb 24a7 c83f 7eb7 2ea4 532b bbbf
00000370: 251e f838 69ee ae3f 6cc6 daaa a162 bdbf
00000380: fce0 a409 912d c4bf 4b12 4961 5675 c3bf
00000390: 572b 9c1b 7bcf b33f e567 ccdd 9ee6 be3f
000003a0: 24e6 0cc4 4242 98bf e04a 2810 f610 c63f
000003b0: d3fd c217 7813 c9bf ea61 5760 4039 c6bf
000003c0: 437a c327 855b c93f 93d6 3667 d654 c3bf
000003d0: 5d3c 068f df33 ac3f f805 7988 ea9f c3bf
000003e0: 0677 e8e3 888d 96bf 9e15 446d dcc3 b7bf
000003f0: 579f f387 4b9c cabf 7211 05fc 1fa0 c4bf
00000400: 7507 3718 169c c73f 9c33 1fd2 bb34 a4bf
00000410: 2da9 707b c81e b0bf 9458 d934 9000 98bf
00000420: 1954 e8b5 8e5d c6bf 46da cce6 d8d3 c13f
00000430: 65ef 0c33 8dc6 ac3f 98ee 884e bfda babf
00000440: 05a6 723e fa3f 9b3f d47b a6d3 9ab7 b53f
00000450: e769 240b 5ded bcbf 2165 5b57 531a c4bf
00000460: ea2a 0f24 68c2 a9bf a16a e95e ffdf c0bf
00000470: ee9d aad0 5272 cbbf 0775 e3e7 e07a c93f
00000480: e187 2d4c cf46 c8bf 4c35 d144 7730 afbf
00000490: 8968 5261 daa0 c53f 1b64 16df b3ee a23f
000004a0: c2ed f2b9 7b5c babf e18d 060f 3f97 c4bf
000004b0: 5b55 b310 b530 c33f ed86 b476 6127 c93f
000004c0: 7cd3 a57f 4b02 c53f 139f 173c abaf be3f
000004d0: 77a7 ffe3 3538 babf 263d 3dc3 80f1 c3bf
000004e0: 76e1 dab0 7e00 c3bf 1c69 a23d 3805 c33f
000004f0: 780c e1c5 699c b83f 14d9 4f7c f573 c1bf
00000500: aea4 a60a 3268 c7bf 0d53 e913 41c3 95bf
00000510: b2db 8ef9 10f9 cabf 8ff2 9c83 104b 983f
00000520: edeb 14ee 9dc2 a1bf 35f0 a0bd 407c 86bf
00000530: 39f7 bba8 c54e c5bf 9f30 2194 e05d c43f
00000540: 1d25 01e9 75ef c0bf 96ae 247e 79ec b4bf
00000550: 1c78 eaeb 10c0 c2bf c065 740a 80f0 b1bf
00000560: cc67 2548 36df a8bf 508a 2456 20cc c9bf
00000570: 7ce9 2dc2 4aa5 afbf 7140 95dc 37f7 c8bf
00000580: e4ef b5ec b04b b03f 0e4b 9d9b ae89 9d3f
00000590: fb11 adf8 19a9 bc3f 0f3c 376d 5f5d cabf
000005a0: f2b1 e862 35ad a73f a3f1 2657 9fa6 a8bf
000005b0: 254d 6374 3937 c7bf bf6b d62f 1d58 acbf
000005c0: 2491 b4a7 e5d1 c0bf 76cd 5a59 ccb1 a33f
000005d0: ab35 09b3 3a7f ca3f b6ef 16c4 a8e2 c23f
000005e0: 9e45 1301 1e9e ca3f eeb7 41dc 9813 c93f
000005f0: df3e b63c 6b89 c63f f80a f2ab 45c7 803f
00000600: 6f79 c328 f0f7 bfbf 185d d05f 7089 b8bf
00000610: 11ba 370d a25d c7bf d8f2 d14e 2b3b 803f
00000620: 7814 39d1 df30 b43f 6f78 b66f e466 cabf
00000630: f500 0046 687a ccbf 5828 951a d668 b23f
00000640: ccd3 97d7 3173 c3bf ed8b df9f ee8b aabf
00000650: 0a9a 2872 129a ae3f bfdc 9ba8 fe27 c6bf
00000660: b72a 4ca1 5c9d c83f 78f2 2878 7159 b73f
00000670: e734 d5f6 400a ca3f 08b9 a773 d24b 22bf
00000680: 4083 48a6 f3a5 c1bf ebd9 5b1f 89d8 cbbf
00000690: e31e c38b d25b af3f 1429 141e 02bc aebf
000006a0: 6014 b976 81ce 5e3f 05ec 3c4c a15a cbbf
000006b0: 394b 4a65 af67 cbbf 4f53 b7ab c706 bebf
000006c0: f399 39ca f027 bfbf 963f d188 22c8 c23f
000006d0: c37d 6708 fb6b 913f b564 719f 9784 bc3f
000006e0: 03f4 572e bdde c1bf 23b7 bb64 5b69 bc3f
000006f0: 193b 39c4 5332 c23f 5830 cfae 3b53 b13f
00000700: 85f4 0660 ffce cbbf cf7f 28b4 fbde c23f
00000710: 0029 6ec6 349f 8d3f df3e c424 7789 c03f
00000720: e1e3 facd 9710 c73f ec6d fc05 8520 bf3f
00000730: 1a9a 413c f723 ae3f 3c2e 6c1f 37b0 8dbf
00000740: 88cf 6089 b950 c83f 795f a91b f797 acbf
00000750: ba08 94dc 3fd9 c43f 3059 3dd2 367d c5bf
00000760: bf76 bcbe bc08 803f a72c 68cf 6d02 a1bf
00000770: 4f13 a851 e91c bbbf e967 7e09 2855 a4bf
00000780: 38bd d859 f7a1 c73f 4bc4 7101 d6bf a43f
00000790: 7978 1f81 0e3c c5bf 5e4e cac3 6337 c1bf
000007a0: 8520 3bc0 79e6 923f 019a 9842 7759 c9bf
000007b0: 2979 da4b f595 c6bf 9d60 a0ea b8aa c73f
000007c0: 88ce c95d b091 a1bf fb09 8866 ed26 c0bf
000007d0: 26d5 2acc 6c03 6bbf 94ab 0a96 5a74 a93f
000007e0: eb98 55d6 af75 b2bf 09b3 ed2d 4af6 c6bf
000007f0: 8d35 507b 7ee8 a1bf 25f0 8172 867f c9bf

hidden_layer4.bias f8 [20]
0.05331467778146858 -0.12900873608755298 0.17320868617398558 0.0409287621478141 -0.06305784636738461 -0.06104843496583343 0.00891931328740004 -0.15373435555623965
-0.15875210698783254 0.14570172183690205 0.06376394104313453 -0.05230579063668365 0.19097368391758288 -0.21066282739588466 0.13783608922497195 0.0009910256312250475
-0.09508259552205313 0.08146990138247637 0.16706943401370408 -0.18506647766988327
00000000: ffb5 efba 0f4c ab3f 9279 32b7 5b83 c0bf
00000010: f50c 40c5 b32b c63f e8ff c75d 9df4 a43f
00000020: b573 e71b 8f24 b0bf edeb 4c8f bd41 afbf
00000030: c42f faf6 4944 823f 225e b13e 91ad c3bf
00000040: de87 d731 fd51 c4bf 3e54 21a1 5aa6 c23f
00000050: efbf 7169 d552 b03f f519 5a18 d3c7 aabf
00000060: e94c 695f d371 c83f caf8 12e1 fff6 cabf
00000070: 7103 b7eb 9ca4 c13f f02e 3dab a93c 503f
00000080: a19e 2f3e 5557 b8bf facb 0b22 36db b43f
00000090: eb02 a0fd 8762 c53f c4ca 9622 42b0 c7bf
