data_network/PINNS200.pt (torch, 87247 bytes, 12 tensors)

hidden_layer1.weight f8 [50, 2]
0	0xbfa1bac7464e8108	-0.03462813122973968
1	0xbfe4227d2512afb4	-0.6292100643236069
2	0x3fd29b1924a8144c	0.2907164438223091
3	0xbfe1b75136f88b78	-0.5536275933885539
4	0xbfc31b8484e1b699	-0.14927727211345568
5	0x3fa7bae743ff488a	0.04634783463520005
6	0xbfe12a006eecee31	-0.5363771597398622
7	0x3fa91de60889e33e	0.049056232969582045
8	0xbfe4233f82305de0	-0.6293027441742503
9	0xbfe67affdd206615	-0.7025145834806518
10	0xbfa258641f87c24b	-0.03583062062159977
11	0xbfd6002ab92645f4	-0.34376018601423586
12	0xbfad101b2eeb280a	-0.05676350543724602
13	0x3fd7304f017f5db6	0.3623235239624266
14	0x3fda475d70e6a90e	0.41060577416887234
15	0xbfa36ea4bfc191d5	-0.03795351830266084
16	0xbfe1d5423055f34a	-0.5572825378472797
17	0xbfe41c103c97edec	-0.628425711008672
18	0x3fd8bb4b585582aa	0.38643153787965423
19	0xbfd045d46a2543b2	-0.25426206937577966
20	0xbfd8638adc76fe0b	-0.3810755875565241
21	0xbfd5fee89c3d524f	-0.3436833883072596
22	0x3fe12a5ead1ea0aa	0.536422098278327
23	0xbfbe81031453c2f6	-0.1191560673357904
24	0xbf9c24c2bdc1a98a	-0.02748398097211572
25	0xbfe71af0364d4d53	-0.7220383701882532
26	0x3fe5cc283d4e64eb	0.6811715314280752
27	0xbfe0a1b92c3f9146	-0.5197416176056684
28	0x3fd27bd66674635d	0.2888084412129979
29	0xbfd258456349c565	-0.2866376371012705
30	0xbfd942a2b77d0df1	-0.3946921150092911
31	0xbf83db06e51d56e8	-0.009695104472182206
32	0x3fdafc6e09cdedec	0.42165709454977107
33	0x3fcb109bb44c7f17	0.2114443426480583
34	0xbf922cb11758eeb8	-0.01774861054421592
35	0xbfb18ee0677966df	-0.06858637357927531
36	0xbfe3d48c691b89eb	-0.6196958592302598
37	0x3fe06f8c12eb8147	0.5136165971307854
38	0xbfdaf5b89d970c2e	-0.4212476290669568
39	0x3fe0350d47bcc79b	0.5064760590669154
40	0x3fbb344a35aa7387	0.10626663027001203
41	0xbfcadda81f49b690	-0.20988942649585285
42	0xbfc21d760b2647b4	-0.14152408165369723
43	0xbfae7548d005690e	-0.059488559144215455
44	0xbfefabccf2ab089d	-0.9897217502223331
45	0xbfca136a3cf79743	-0.20371749855910978
46	0x3fe03182d86e457d	0.506043837276749
47	0xbfdb108d4e0a4685	-0.42288525220019607
48	0xbfde690f75e7a10e	-0.4751623774923396
49	0xbfe0ba898db3a8d4	-0.5227706687558347
50	0xbfd482fcf1b72bf0	-0.3204948769095486
51	0xbfde6eb6357da1cf	-0.47550730918603973
52	0xbfd0ec80636612f7	-0.26443490702540323
53	0x3fd148d54cff4696	0.270070386116552
54	0xbfc5022447937360	-0.16412786002083646
55	0x3fc6959532cd0e40	0.1764399049808265
56	0x3fe676caef0a20fd	0.7020010632268449
57	0x3fe71e6abcc9ba01	0.7224630057588116
58	0x3fd0de6ba9e8ff80	0.26357547371662093
59	0xbfdda5ce57b88404	-0.46324499670487307
60	0x3fd790ec8543bdf0	0.36822045339701415
61	0xbfb5aa1fe769ffb1	-0.08462714576489706
62	0x3fce4d19ca37489f	0.23672792791200423
63	0xbfe032cfc23a2fde	-0.506202582693273
64	0x3fb836d220ce9c85	0.0945864992232704
65	0xbff25eae6b5a9cdb	-1.1481155580057052
66	0xbfbef54853b02c86	-0.120930214339909
67	0xbfe27f8f06637f01	-0.5780711293009234
68	0xbfcd8c68754c6e77	-0.230847413325012
69	0x3fe298cee9fdefa9	0.5811533517985384
70	0x3fd2abde6e3de995	0.29174004331402986
71	0xbfd04f80fbf198ec	-0.25485252956276727
72	0x3fe2904d982e7c20	0.5801151249214662
73	0x3fd9171ccedbe5cc	0.3920356769663982
74	0xbfd5b444dedd9608	-0.33912774814811586
75	0x3fce5e00d72b3543	0.23724375253952176
76	0xbfe726f934f6c6eb	-0.7235075029804795
77	0x3fd0c671ed3452cb	0.2621121231507401
78	0xbfe2e532df0e0b5b	-0.5904783588924646
79	0x3fe3012bacc3e67f	0.5938928961106312
80	0xbfe9630fa20f5679	-0.7933424153549843
81	0xbfdd3cb1ad148980	-0.45682947065701995
82	0xbfdf3f596f3341b2	-0.4882415376605663
83	0x3fbea31214763c18	0.1196757602649402
84	0x3fdab05c0f759d7b	0.4170141364069974
85	0x3fe6ffe88ec542a1	0.7187388218390717
86	0xbfe02b8924ec1f05	-0.5053144189014068
87	0xbfd0d10e194d91c2	-0.2627597090816175
88	0xbfd3bbad5489765c	-0.3083298993641159
89	0xbfe0d61ff96992c2	-0.5261382933936931
90	0x3f9e1610cf7c6d82	0.02938104883570026
91	0xbfb65fcb7e8e86ad	-0.08739921417011472
92	0x3fc009c42e6c53b3	0.12529804484134174
93	0xbfe3004906bac551	-0.5937848216473559
94	0x3fd486acd28f06af	0.3207199150311721
95	0xbfe0341d9c331150	-0.5063617754717971
96	0x3fb5ca12a0b980ae	0.08511463569584762
97	0x3fe5898ac2415a3f	0.6730397981689932
98	0xbfa66101c5d7bd2a	-0.04370885410377874
99	0xbfc2cf7de617b4e8	-0.1469571469782871

hidden_layer1.bias f8 [50]
0	0x3fe2abd0a7593b72	0.5834735172773959
1	0xbfdda8986995155f	-0.4634152442052563
2	0x3fda85675b76f8e9	0.4143923180780705
3	0xbfe38d03603c68c0	-0.6109635238274436
4	0x3fb0e32711939890	0.06596607379069241
5	0x3fe007b6b5cc0be0	0.5009416151736978
6	0x3fc3119e93f82980	0.1489752027994875
7	0x3fcf07ea0bf7662e	0.24242902359292046
8	0xbfdf620e09142f3a	-0.4903597916279413
9	0x3fd5714993bf0243	0.335039514811829
10	0xbfe0e18326429ea0	-0.5275283572454619
11	0x3fe5c72078d17faa	0.680557476018284
12	0xbfdb14f50b8ea75c	-0.4231541264403995
13	0x3fe2300b5a02fe2f	0.5683647878685799
14	0x3fc2d27d005e6ba7	0.14704859273919377
15	0x3fc1e1b47da31cdc	0.13970047125460539
16	0xbfe329556a941b0d	-0.5987956124889436
17	0x3fd85d457564fd9a	0.380692829745351
18	0x3fc0bba9528bd021	0.130726971917853
19	0x3fe038c3f6c2bb5b	0.5069293803734171
20	0x3fd386845531009e	0.30508526153063
21	0xbfe385960c60d544	-0.6100569001925256
22	0xbfc820f5d00a22fc	-0.18850586565192617
23	0x3fbb5c4c1187060a	0.10687709262767711
24	0x3fe2b9963336077e	0.5851546287742477
25	0xbfce7c8c3fe58d89	-0.23817589874225245
26	0xbfe5c53102a7f207	-0.680321221530506
27	0xbfe1a8e7137cf57f	-0.5518679981829989
28	0xbfc6bfd97f56817d	-0.17772978513404417
29	0x3fd53589789615c5	0.33139263893130205
30	0xbfd179b3d97fc517	-0.273053133393732
31	0xbfbc4de0c751cd8c	-0.1105633246059396
32	0xbfc5f121943ef5a6	-0.17142123926707348
33	0x3fe161188733140d	0.5431025162330357
34	0xbfba452b735578d3	-0.10261794629829817
35	0x3fde77bf9b9bb304	0.47605886646378814
36	0xbfddfd29d425805a	-0.4685768672698082
37	0x3fa3c8aed8522626	0.03864046469341202
38	0x3fca268ce6684fd3	0.20430146456112527
39	0x3fd017e6c7670f17	0.25145883057506196
40	0xbfdc7d43bef321f1	-0.44514554641185017
41	0x3fdf7bf0f439cd8a	0.49193977213072826
42	0x3fa312761786e079	0.03725022351449154
43	0x3fe2b6b95ef8c477	0.584805188647933
44	0x3fdb301115d52d56	0.42480876094915254
45	0x3fe24698706f3c1e	0.5711176105486435
46	0x3fde82138dd14a80	0.47668923234338223
47	0xbfab0d902561efbc	-0.05283785301523333
48	0x3fdcd0da7ce07db2	0.4502474040509369
49	0xbfddbf6d1b971349	-0.46480872816419044

hidden_layer2.weight f8 [50, 50]
0	0x3fa014c92b2a13d4	0.031408583182418376
1	0xbf8927c79425a05c	-0.01228290482386301
2	0x3fbbc48c2b3b130f	0.10846782737196413
3	0xbfbdca99febd12ec	-0.11637270421222085
4	0xbfb453fc8c5b22db	-0.07940653254184886
5	0x3f9e91a82c1ff378	0.0298525120669981
6	0x3f623ffab3f2323c	0.0022277733365341484
7	0xbfbdbde866f0d9d3	-0.11617901337817864
8	0x3f991fa9c3f6d224	0.02453484781809058
9	0xbfc03f9f658cf904	-0.12694160898713147
10	0xbfb9af344a39b685	-0.10032965480942309
11	0xbfaddf69eeef148c	-0.05834513703988717
12	0x3fb5e0c128f9ca3c	0.08546073198685006
13	0x3f7096db5de733bf	0.004050118352506737
14	0x3fb327b5b81f8125	0.07482467408363343
15	0x3fbbc53ab6b519ba	0.10847823105459656
16	0x3fb0972d03f80d49	0.06480676028154621
17	0xbfacf576363bffac	-0.056560224647909635
18	0xbfc2231dec0e1f84	-0.14169668222552556
19	0xbf72a9f5bac830ad	-0.004556617623631504
20	0xbfbcc9a829fab350	-0.11245203995595188
21	0xbfb8ecd9f07e274c	-0.09736406442075668
22	0x3fb5a5eef94e4b9f	0.08456319414680856
23	0xbfb776eb64537720	-0.09165831755987286
24	0xbfbdb139fbdd5435	-0.11598551177060375
25	0x3fc15e0fb69a9773	0.13568302551464803
26	0x3fa257601793ee94	0.03582287109199203
27	0x3fadefbf865c7954	0.0584697581782502
28	0x3fb98ca790784acc	0.09980246808144527
29	0xbf68d44386f9b46c	-0.0030309027568394178
30	0xbfb1c89e56ed8a08	-0.0694674455858505
31	0xbf8746c426b47b14	-0.011365444594557718
32	0x3fbd71545cec0752	0.1150105215893096
33	0xbfb33b442f210340	-0.07512308264359735
34	0x3fbea78471d1e464	0.11974361208730638
35	0x3f980c7fa72d190a	0.023485178545592546
36	0xbfbbde207fc25ce6	-0.10885813826677157
37	0x3fb331979c9257b7	0.07497546742010185
38	0xbfbb0afe148ede35	-0.10563648225694851
39	0x3fb090b46203516f	0.06470801728148044
40	0xbfa9a642613feac4	-0.050096582766817416
41	0x3f81ab11527aee59	0.008627066926570824
42	0x3fb7b83207a2d514	0.09265434919764842
43	0x3fc320a61a50da89	0.14943386349633084
44	0xbf71a1a08ab00d49	-0.004304530254560853
45	0x3fb0d299bb3fa3b8	0.06571350881098581
46	0xbfb1b7767e14f280	-0.06920567110223352
47	0xbf9946d46f21ff50	-0.0246842568235473
48	0xbfc3e72eedc61de2	-0.15549265489629166
49	0xbf9d6eabd96e5a8b	-0.02874248995393684
50	0xbfb8916527a8e740	-0.09596855371719659
51	0x3fbc4a96e00c3366	0.11051314325250203
52	0x3fbc06113f8641a5	0.10946758080377224
53	0x3fc0dad23a32e185	0.1316778930829622
54	0xbf9c1999a3d36bcc	-0.0274414068452236
55	0x3fb4c24957b83f6f	0.08108957664103199
56	0xbf9a17021199b662	-0.02547839386391216
57	0xbfbd183baa1740d2	-0.11365101721389984
58	0x3fb3e2893aa88555	0.07767541582190536
59	0xbfc1805edcae64cd	-0.13673005843592137
60	0x3fc0551e2a193ef2	0.12759759002300758
61	0x3fc1b23e76ba178a	0.13825207516873333
62	0x3f98c109566be5e3	0.024173875713108372
63	0x3f96380078761651	0.021698005058644224
64	0xbf3b25e204b9b581	-0.00041424530056740494
65	0xbf88ac8f2814fea9	-0.012047880564409157
66	0x3fbb32d910c7bc43	0.10624462756798984
67	0xbfaf6960d3f6202c	-0.06135084712428837
68	0x3fbb030397a8f08d	0.10551474049219874
69	0x3fbea9fbe8c1211f	0.1197812503097606
70	0x3fb29aae4c527cf7	0.07267274249396737
71	0xbf99fb9956cf6eef	-0.025373836444358252
72	0x3f9b6712028f0023	0.026760369688190743
73	0x3fbc6d5cdcb5d9e5	0.1110437430232661
74	0xbfb16f24ff3c0b77	-0.06810218077957396
75	0xbfbe9097a461932c	-0.11939380419933049
76	0xbf93786a63c6741b	-0.01901403650264309
77	0xbfa7393f86928309	-0.04535864370087068
78	0xbfad4a4b3c999113	-0.057207442424244935
79	0xbf82da77623e8e11	-0.009205753980331218
80	0xbfb4e31df235b77d	-0.08159053004575685
81	0x3fa7b8bfba628909	0.04633139753538457
82	0xbfad6954219f8edb	-0.05744421873512603
83	0xbfc08e0bcb176717	-0.12933490196774564
84	0xbfc03df6c9363e71	-0.12689099144744234
85	0x3fb7c53f5ec8c362	0.09285350860660693
86	0xbf9fdcedc64ab1b8	-0.0311162140157408
87	0x3fb7bde48907244c	0.09274128289611488
88	0x3fb8652efc382d24	0.09529393823338644
89	0x3fb853b214811933	0.09502709389298473
90	0xbfb66b2d6a8ec931	-0.08757289744861364
91	0xbfb25bf14d7367ad	-0.07171543255699815
92	0x3fbfa82c6ac74a2e	0.12365987402817133
93	0xbf9901268751fbe2	-0.0244184513180662
94	0xbfa0b3c0e659806b	-0.03262141048321684
95	0x3f9e1b13ac209716	0.029400164967362384
96	0x3fafd12ce32354f4	0.06214275620156143
97	0xbfbfaaefe61bcaf1	-0.12370204322705171
98	0xbfa3d42ee73448e0	-0.03872820446317049
99	0xbfb6b0308668a9f2	-0.08862593919244668
100	0xbfc167c4bab07b30	-0.13597926250164383
101	0x3fb40105cfde374f	0.07814060521033393
102	0x3f97b9021e24ab63	0.023166688051030514
103	0x3f9e6ea4fd6e13b2	0.02971895024122135
104	0x3facba51b5daa029	0.05610900254151858
105	0x3fb82cd5073a44cb	0.09443408419089676
106	0xbfb859de62282d40	-0.09512128731164626
107	0x3fb84823c3e2fb97	0.09485076458348228
108	0x3fbc964a110a4f92	0.11166823307058696
109	0x3fbd858fe97c5d76	0.11531924677216474
110	0xbf8a603dd2ee8fb8	-0.0128788785930921
111	0x3f7dfda9f022e54a	0.007321990795554465
112	0xbfb35cb820ac1f91	-0.0756335334555145
113	0xbfb4f092cb2bc897	-0.08179585895757878
114	0x3fbd7356a6cf0738	0.11504117557981608
115	0xbfbca0b5f4863b1b	-0.11182725162346367
116	0x3fb578c59b4ee02f	0.08387408296300757
117	0x3fba06c82e5a6d55	0.10166598445578263
118	0x3fba597d9ce0e845	0.10292801933329183
119	0xbfc1042154192d6d	-0.13293854338040081
120	0xbfa9573158e41ba4	-0.04949335298629556
121	0xbfbca12daeda7150	-0.1118343879592818
122	0xbfc23cf44436db86	-0.14248517351890316
123	0xbfad7b32e99d6e3c	-0.05758055783982427
124	0x3f928bbebdc5dac1	0.018111210186783525
125	0x3fbd6883aa16bd67	0.11487601187285677
126	0x3fbac26ddef029b0	0.10452925389123524
127	0x3f8957f945eacb99	0.012374827810480759
128	0xbf98f24745c02133	-0.02436171878073985
129	0x3fadedf63f08c9d0	0.05845613021337537
130	0xbfc104637aabaf30	-0.13294642915513455
131	0x3fb170c3446e885d	0.06812687321374385
132	0x3fb5b3415185fef9	0.08476646652524868
133	0xbfb153d23fa4e61d	-0.06768526128589554
134	0xbfbd17f109f66d04	-0.11364656918742716
135	0xbf4d4a908ad07b75	-0.0008938985607790233
136	0xbf9fe6ee7e371329	-0.03115437169414573
137	0x3fb30fb423f0294a	0.07445836903949501
138	0xbfa50e3ff6f1deb8	-0.041124342817906834
139	0xbfc05ae2af8283bb	-0.12777360505881838
140	0xbfb7243869b3d919	-0.09039642887714584
141	0x3f911a9d926af2a1	0.016703092633849285
142	0x3f7bcd4d603cdd6a	0.006787588357659894
143	0xbfb5801afd6604fe	-0.0839859837197032
144	0xbfbd5d4f11630f30	-0.11470503019796463
145	0x3f8248787a0c8fc8	0.00892728922332954
146	0x3f82fa5db4735f8b	0.009266597814004537
147	0xbfad8392cb75fddb	-0.05764445050862906
148	0xbfa03407310b9453	-0.03164694284149818
149	0xbf9f48439278b1c4	-0.03054910260668621
150	0xbfc158b6b03c9f50	-0.13551982503235616
151	0x3fbccd13c4d72a11	0.1125042300765602
152	0xbf9a83277b20ef20	-0.02589093865411407
153	0xbfc068a323db83be	-0.1281932759366366
154	0xbfc2a69f7dd7b685	-0.1457099308458291
155	0x3f832d07a030089c	0.009363231254614406
156	0xbfad6a9ab89c4f4b	-0.05745395186946086
157	0xbfac774e97ddc5db	-0.05559774020992921
158	0x3fb94e7e3b0fde20	0.09885395948355624
159	0x3fbea38ff55b8756	0.1196832632081429
160	0x3f768bfcb0eb3f56	0.005504595827645028
161	0x3fbcf6e1286a1983	0.11314208256417228
162	0xbfb601609bd510e0	-0.08595851711749303
163	0xbf92eb62cf52d155	-0.018476051239035247
164	0xbfb71cb8f1656311	-0.09028201955278471
165	0x3f99a52f16e81505	0.025044189236742138
166	0x3f82a13f229c54ae	0.009096616023763406
167	0xbf94d5624482aeb5	-0.020345244819209813
168	0xbf6c23819ed8c189	-0.003434899487523239
169	0x3fc07e0870e1b480	0.12884622108268573
170	0x3fabbf8416c115e2	0.054195525910966116
171	0x3fb5dd890eb64ec7	0.08541161164458365
172	0xbf971d992e22b880	-0.02257384628381276
173	0xbf8424c091408df9	-0.009835724289650282
174	0x3fb41e03f4ff026f	0.07858299952841617
175	0xbfb21b00e2e694bf	-0.0707245401341252
176	0x3f8447b44e62a319	0.00990239013874965
177	0x3fba113f8c937b57	0.10182568723710737
178	0x3f839c71cbe26afa	0.009575737986144518
179	0x3fb030c6574ed791	0.06324424392263796
180	0xbfb59d64d3d978db	-0.08443288967234557
181	0x3fbc869c09f42726	0.11142897837649154
182	0x3fbc778274228a9e	0.11119857154202825
183	0xbfb15265207371d0	-0.06766349832782415
184	0xbfa508e19eed2dba	-0.04108338418026443
185	0xbfa557ad445ee1d4	-0.04168454608538111
186	0xbf61436b9c3832fe	-0.002107343841777242
187	0x3fb90177df291695	0.09767865370039382
188	0xbfbfd6b6cd4e0117	-0.12437002670595053
189	0x3fa1628522e92216	0.03395477343707769
190	0x3fa76c90acd08f57	0.045750161262076254
191	0x3fb48da68ddba399	0.08028641665772653
192	0xbfbcfa8ec8f44b0e	-0.11319820791349519
193	0xbfba9c629f684db1	-0.1039487494638738
194	0x3fbe9a19c031f313	0.11953888838065678
195	0xbf9f254a1ba3e09b	-0.030415685593624713
196	0x3fb6615b17c8ab13	0.08742303209934858
197	0xbfb424d8c5304130	-0.07868723692104562
198	0x3fbde2631eda7e2e	0.1167356443715952
199	0xbfb333e9c9fa8c40	-0.07501088315125148
200	0x3fc0d5fdfa5783fb	0.13153052066539303
201	0xbfbf2054144774bc	-0.12158704276176285
202	0x3f96a6faf957df98	0.02212135455007988
203	0xbfba3e0d6fa044ec	-0.10250934577222254
204	0xbfa60805ffea7f27	-0.04302996396040575
205	0xbfbd7f0603be48db	-0.11521947471036091
206	0xbfa1c765c7830397	-0.03472440777250723
207	0x3fb0d0f103d11afe	0.06568819373306309
208	0x3fbbd492df044bf1	0.10871236748452852
209	0x3fa473835be9154e	0.0399437951751148
210	0x3fb41dad964f38fd	0.07857785148300774
211	0xbfb7dd448e612ce3	-0.09322002864898908
212	0xbfb5aefbad15948b	-0.0847012803620421
213	0x3fa3dcf9d5846fd0	0.038795287431838354
214	0xbfbde8464985414c	-0.11682547850546604
215	0xbfaabbab2f6c2c3f	-0.05221304849518348
216	0x3fb51b9559129a4d	0.08245213913560541
217	0xbf9177eadb8581d4	-0.017059011124162485
218	0xbf900a73b6b60a3b	-0.015664871241378924
219	0x3f93fdd728cb1c60	0.019523012032348297
220	0xbfb3fbc9ee96fb4e	-0.07806074213929756
221	0xbf9134262df24d5e	-0.016800495676375753
222	0x3fc08e4e66195647	0.12934284196187404
223	0x3fc09e5017de5b66	0.12983132520158874
224	0x3f9a5cad52eeabeb	0.02574415987661986
225	0xbfc23f7dd4bad464	-0.1425626076431029
226	0x3fa3f81209b5f771	0.03900200241603969
227	0x3fc1b587bb29e7f7	0.13835236204960186
228	0x3fb3cd79d58edfda	0.07735406364270095
229	0x3fa1d0acbcbee31a	0.0347951870348366
230	0xbfa28da39d13f180	-0.03623687069373016
231	0xbfa48f0c298117cd	-0.040153865877570284
232	0x3fc1d7c5adeab740	0.1393973445132648
233	0xbfbdf99d8c1789b5	-0.11709007902348996
234	0xbfb273b223d3b6e7	-0.07207787871058323
235	0xbfa3202afa2dcda3	-0.037354796447199655
236	0x3f662e683d226a92	0.002707675544184448
237	0xbfb25ef90bdb52db	-0.07176167048903485
238	0x3fb722939e629693	0.09037134758781411
239	0x3fb782e99765ac79	0.09184131571025657
240	0xbfc1e2560a12c668	-0.1397197293459158
241	0x3f83617d6bbf3d02	0.009463291025808566
242	0x3fb62303003a1a4a	0.08647173648396592
243	0x3fb06e1656e05fcf	0.0641797983265626
244	0x3fc1db7b1a30616c	0.13951052454718693
245	0x3fac23dd3be83b25	0.054961122095951866
246	0x3f7404da2fad4f50	0.004887440004342228
247	0xbfc2ce5c6e5484c7	-0.14692263972486883
248	0xbfbbf6015a33e7e6	-0.1092224927159858
249	0x3fbb60ec47cbe7c5	0.10694767716259353
250	0x3fbbc1bd1f11071c	0.10842496880016167
251	0xbfb7b80c5e0fea52	-0.0926521043437927
252	0x3f655fc4430e8640	0.002609141658880515
253	0xbfae2eae227bee52	-0.05894989176701117
254	0x3fc5e2e0f4c5b991	0.17098628951812292
255	0xbfb852990a0c2f6e	-0.09501034255316451

hidden_layer2.bias f8 [50]
0	0x3fbef48415c19c0b	0.12091851740989072
1	0x3fb2e5795a7f9542	0.07381399592812435
2	0x3fb3af5070055448	0.07689383253939852
3	0x3faae09a19def827	0.05249482694442547
4	0xbf9d883a479a49d2	-0.02883997976329928
5	0x3f8fdbd7170d936a	0.01555603064634577
6	0x3fba5841ffc0a56b	0.1029092072864352
7	0xbf9c8c639f7c9d5c	-0.027879292115497875
8	0x3fb4643af6a994b7	0.07965439340621826
9	0xbfc048299350f277	-0.12720222180532278
10	0x3fbd68871326090c	0.11487621514791985
11	0xbfade346261f788f	-0.05837458815925444
12	0xbf88086bcbc275ca	-0.011734811931371509
13	0xbfc177a6258c58b7	-0.13646389802369693
14	0xbf785857907bbe5e	-0.00594362454260952
15	0xbfb65cc9a34024db	-0.08735332713708337
16	0xbfa57ca1faf8f9ed	-0.041966497312831176
17	0xbfb185924c1da232	-0.0684443889455302
18	0x3fb06890a95b48d0	0.06409553656274913
19	0xbfb7a2a7b18f2b70	-0.09232566914503848
20	0xbfbfbcf6b8c8e525	-0.1239771081099162
21	0x3fb8f297afbdbc18	0.09745166817241147
22	0x3f962c531c0dd98d	0.021653460109030177
23	0x3f98d6acf012fb7e	0.024256422188723807
24	0xbfb968ea9465fd08	-0.09925714610107061
25	0x3fc1ef2c4e62a65f	0.14011148288163874
26	0x3fb13667c7c8805c	0.06723641040343992
27	0x3fa35151244f5555	0.03772977417217286
28	0x3fbe394dec2b47ec	0.1180618955216059
29	0x3f79b108d992c568	0.006272348947434871
30	0xbfb34f9edcd46130	-0.07543366328571177
31	0x3fb10aa2514b316d	0.06656851277074845
32	0xbf9736b8a3eb1198	-0.022669682507300587
33	0x3fbd9f6237648d4d	0.11571325161326236
34	0x3f689afd677ae178	0.0030035924245021516
35	0x3fbaadc98a28e28e	0.10421428320922585
36	0xbfc0d716bb7d0f9d	-0.13156398920739046
37	0x3fa6fc95f0c1f2ce	0.04489582599578555
38	0x3f93f33a90c73602	0.01948253163009462
39	0xbfb437fffc8e379c	-0.07897949138552324
40	0x3f925da1b1181470	0.017935301240886437
41	0x3fa17c1eef3676af	0.03415009183957573
42	0x3fbf81e6c73451e1	0.12307588923824354
43	0xbf7232f2c0fc9fbd	-0.004443119294400275
44	0xbfa0970408cfa092	-0.03240215880924881
45	0x3f96374f60f9cc66	0.021695366186076724
46	0xbfc48310384854d8	-0.16024973629161
47	0xbfb60cdd61edf3a6	-0.08613380089623365
48	0x3fbb52e3c202a6f7	0.10673354612904605
49	0xbfbb5a5575f53450	-0.10684713487462827

hidden_layer3.weight f8 [50, 50]
0	0xbfa2ee9d773251c3	-0.03697673873935827
1	0x3fb1170de925f53e	0.06675803129288213
2	0x3fbe7835794be54f	0.11902174197520775
3	0x3fb39f529a890c76	0.07664982102237325
4	0x3fc0b7e41925d292	0.13061190822522356
5	0xbfa8d923422ae060	-0.04853162939747402
6	0xbfb74e412e48ca04	-0.09103782062519633
7	0x3fc2c2c5e9d47e86	0.1465690032718962
8	0xbfa2cb8124a78c43	-0.03670886585657531
9	0x3fb240470f2831db	0.07129329795879562
10	0x3f40381d510c2d25	0.0004949706218168355
11	0x3fa216ebe1c2f870	0.03533112650755832
12	0xbf9abbfb3c2d65df	-0.02610771708291348
13	0xbfad6d87abe4b2e8	-0.05747627232844882
14	0xbfba77d6b69357da	-0.10339109380160441
15	0xbfc0ec2c8823dc40	-0.1322074570414049
16	0x3faec225ad5f17d5	0.06007497540808485
17	0xbfbfc8045033e04e	-0.12414576490471171
18	0x3fbf0f212fc75cea	0.12132460991357488
19	0xbf9e281ce9584be9	-0.029449893705599726
20	0xbfb01b63e577f516	-0.06291794159183825
21	0x3fb0e2ffa0436991	0.0659637228267569
22	0xbfc1670df4fbc038	-0.1359574743469254
23	0x3fbc12929e0078e0	0.10965839726893334
24	0xbfa600cc410932e0	-0.04297483724494611
25	0x3fba53dd9f18be76	0.10284218916125973
26	0xbfb39b694689814e	-0.07659013721559413
27	0xbfb6bedf089f37eb	-0.08884996376511338
28	0x3fa8179ced726ab1	0.04705515287897322
29	0xbfa9dd6242be3ae4	-0.05051714958891809
30	0xbfacc4b23c2c6885	-0.05618817314662387
31	0x3f8afb83d93913eb	0.013175039354914339
32	0xbf81458054ad251a	-0.008433344444386526
33	0x3fa533e58ac79cdf	0.041411565009008326
34	0x3f7877adf3473dfa	0.0059735102590390225
35	0x3fb728455689746e	0.09045823443143927
36	0xbfbbf089f70b9a67	-0.1091390827310562
37	0xbfa037bcac3eb701	-0.03167523958778241
38	0xbfc2a2edb268f93b	-0.14559718333652846
39	0xbf8ab7a574a1bfdc	-0.013045590040036296
40	0xbfb66d397f854c2e	-0.08760413516328988
41	0x3fbadc5410799a6b	0.10492444421979889
42	0x3fb628b40472af73	0.08655858143418786
43	0xbfa0d7149ea64c8f	-0.03289093433991141
44	0xbf72506fb0cf2aae	-0.004471241275448774
45	0x3fc1e0137eb2bd99	0.13965076147495095
46	0x3fa6535935b2048b	0.04360464840375141
47	0x3f62fd69dd8f3de1	0.002318102615823867
48	0xbfbacfb838104ce0	-0.10473204964391725
49	0xbf87d3a0f4670139	-0.011634118517463864
50	0x3fb63e4237f5ac49	0.08688749185755386
51	0xbfc1dd99e8226f0a	-0.13957523188297954
52	0xbfa080128cf0bfb1	-0.03222711534942791
53	0xbfb3d6022c862ab0	-0.07748426043523682
54	0xbfc462bcdf91032b	-0.1592632381089286
55	0x3fbf7e0ffbc2da64	0.12301731010925604
56	0xbfbc86880dc05cb3	-0.11142778716781514
57	0xbfa3b2b5d1e021e9	-0.03847282587964058
58	0x3fb0de6decbf0f10	0.06589400319995442
59	0xbf789b2f7ab20dfd	-0.006007371393141889
60	0xbfc21f0f8e0102e3	-0.14157289918696056
61	0x3fb9727751a89458	0.09940286391845754
62	0xbf64a7072f683460	-0.002521051438867647
63	0xbfa122e2448c72e3	-0.03346926771903271
64	0xbfaa4988c924b5e0	-0.05134227233279964
65	0xbfb56fa2dca420d8	-0.08373468291040653
66	0xbfc392ce54e5102d	-0.1529176630521091
67	0x3fb97b122fd35d3d	0.09953416507356834
68	0xbfb96ee989a00887	-0.0993486367224553
69	0x3fbbe258eb8619af	0.10892253637403003
70	0x3fb9b32320afb0a7	0.1003896670151244
71	0xbfb995220cc1a831	-0.0999318390983326
72	0xbf88fe17282ff330	-0.0122033890856926
73	0xbfc0d8843a627a4e	-0.13160755968870536
74	0xbfb348992e092f72	-0.07532651304171425
75	0xbfb2694a747e1238	-0.0719191107182916
76	0xbfa7cfac94432f16	-0.04650630292743878
77	0xbfbf55ed6d4835a5	-0.12240489881533863
78	0xbfc03518c0f2ace0	-0.12662038251196517
79	0xbf8bc9f64651c469	-0.013568805714586145
80	0xbfa8132657c0c5f5	-0.047021101200140615
81	0xbfaabe47cff5a9fb	-0.05223297513551369
82	0x3f8ed33d1193921f	0.015051343058481824
83	0x3fbf37d1e739f87d	0.12194549460579825
84	0xbfbaeacedc11a021	-0.10514538643622064
85	0x3fb86590629d0a49	0.09529974372439044
86	0x3fb2a9ebe1b0bad0	0.0729052949907143
87	0xbfb5c60999aa73db	-0.08505306245429216
88	0xbfb2223a862a2db1	-0.07083478713518933
89	0xbfc047aa3d9a57b1	-0.1271870423121846
90	0x3fc0f6d58f325875	0.1325327824785664
91	0xbfba6aebb62fc18f	-0.10319398115075827
92	0x3fc8b46fd0ce1540	0.1930064935260507
93	0xbfb2104596085869	-0.0705607882776761
94	0x3faac1d4d84f0772	0.05226006641852522
95	0xbfb0afc4528f1ee2	-0.06518198981859372
96	0x3f924249fa05f8c3	0.017830997357571442
97	0xbfb7f3652e400e69	-0.09355766657977828
98	0x3fc187d82e11463f	0.13695814370525913
99	0xbf7fb0f875f226ed	-0.007737131643020351
100	0xbfacce603548bdb3	-0.05626202249947756
101	0x3fb6638f6d9bce9e	0.08745666910163627
102	0x3fb870b5ce2ffc49	0.09546982082245949
103	0x3fb3f5dafcb275b2	0.07797020596850393
104	0xbfb0a14e94b70c36	-0.06496134882677115
105	0x3fbd87fae9d01818	0.11535614212343182
106	0xbfaba1fb72f8e81c	-0.0539702012869869
107	0xbfbc370feebd2155	-0.11021518305381524
108	0xbf8e02aff4694e1b	-0.014653563162176522
109	0xbf79fe8ac56f9184	-0.006346265864497606
110	0xbfbe3f3d31a89693	-0.1181524511563004
111	0x3f92e6a67ec283cb	0.018457986342244753
112	0x3fbe26b5664e95bf	0.11777814624527759
113	0xbfb9630160d2d8d1	-0.09916695226533824
114	0xbfba2c77ff6965ed	-0.10224103913915146
115	0xbfa2b912589e2e8e	-0.03656823474656533
116	0x3fc1f27702f05959	0.14021194118022143
117	0xbfa6a88c06fc84d9	-0.044254661419708526
118	0xbfb1405b5ae72ae8	-0.0673882576876782
119	0x3fa7f91cb5cd06d1	0.04682244986771667
120	0x3fa7f87e8c73651c	0.04681773628699146
121	0x3fb4d930c63d036d	0.08143906440547051
122	0xbfbeb14dcbceb29b	-0.11989294267432131
123	0xbfb233e249e2151c	-0.07110418609416452
124	0x3f92a9c2b07f4c9d	0.018225709936655055
125	0xbfbe68998c885a85	-0.11878356629345362
126	0x3fb6baf9b4af171a	0.08879051839093358
127	0xbf95068ae0ba67c9	-0.02053277012473823
128	0xbfa8a95465a87039	-0.04816688290540622
129	0x3fbe4662e9f3b066	0.11826151096073687
130	0x3fc0d3f4dbed50e7	0.13146839846252265
131	0x3fbe969f6f84f3f1	0.11948582146301569
132	0xbfa91fe1481d46de	-0.04907135014822271
133	0x3fb061a0c1b00d9d	0.06398968437866022
134	0x3fc088428719d8a8	0.1291583213493983
135	0x3fa4495f9189e41b	0.03962229396433533
136	0xbfc05f41d33657f4	-0.1279070168790778
137	0x3f8bc317f5df58e0	0.013555705252582262
138	0x3f91b23011a3ca7f	0.017281294895790552
139	0x3fb24828e3dbf4fc	0.07141357005089682
140	0xbf73f707244ca563	-0.004874256036410204
141	0xbfaa495de86a0ee7	-0.05134099447334766
142	0x3fb1ab653c754fff	0.06902153707534352
143	0xbfc0ea95443037e7	-0.1321589072180693
144	0x3f8e6c7dfec27977	0.01485536988940049
145	0xbfb8b86690944eaa	-0.09656373052376446
146	0x3fb1be17b14236fc	0.06930683209995075
147	0x3fb299b9369aa93f	0.07265813429936417
148	0x3fbc0c628fdafd27	0.10956398021788925
149	0xbfb0e32b4d5bfeae	-0.06596632612854123
150	0xbfbdf10b096375d7	-0.11695927600108945
151	0x3fbedc3bf38e99bf	0.12054800697533262
152	0xbfa3d5835da768a2	-0.03873835104214264
153	0x3fb3466b097d3f9e	0.07529324514075461
154	0xbf9bb5a26e0cc302	-0.027060068098935915
155	0x3fb259d818b4ea71	0.07168341258231138
156	0xbfbfa400a672bb09	-0.12359623016048372
157	0xbfa90cc79747c527	-0.04892562600788102
158	0xbfb503a98589a9eb	-0.08208713064383459
159	0x3fade4e85269f21c	0.05838705068615388
160	0xbfc13f25a974fcf8	-0.13473959707514616
161	0xbf7283314d72b3fe	-0.004519646251691432
162	0xbfa6d02ba91d9e92	-0.04455696525002141
163	0x3fbe5d771d4de485	0.1186136671584724
164	0xbf95ed2702060d39	-0.021412477015030993
165	0x3facd41ff0d09dd0	0.05630588354716404
166	0xbfb141d83958ddf2	-0.06741095924450471
167	0x3fb2857225c8a137	0.0723487226720224
168	0xbfa88dce5101c8e2	-0.04795689333777077
169	0xbfc0e34c69a265a9	-0.13193659933021465
170	0xbfa174b987bcd06c	-0.034093663997197904
171	0x3fbd4f54c06b809b	0.11449174592735505
172	0x3fb613179b21ab20	0.08622882401838838
173	0x3fb2111ecbe6c08e	0.0705737350278943
174	0xbfc0793378763746	-0.12869876272128006
175	0xbfc06c31ee37186e	-0.12830185062029237
176	0x3fb2ef62b54de5cd	0.0739652340543195
177	0xbfb341e2a817a9ab	-0.07522408107585103
178	0x3fa692163828b15e	0.04408330379041801
179	0xbfb4e6d45c8c8c5b	-0.0816471792173145
180	0x3fc34ff3a33f381d	0.1508774325470207
181	0xbfb5e1918d0e253f	-0.08547315305454094
182	0xbf9d50d9845cfbd3	-0.02862872953778235
183	0x3fb06d0a6febc0c1	0.06416383011287775
184	0x3fb5e8cd83e14032	0.08558353872035765
185	0xbfb7969613c1e0aa	-0.09214151365620418
186	0x3fb7302bd8f64b4e	0.0905787853901476
187	0x3fc2c712ab34b60b	0.14670022353804799
188	0xbfc0149cb3f85a3d	-0.1256290320167909
189	0x3fbc4a243cf78386	0.11050631035278799
190	0x3f993d5a6ec7c334	0.02464810658597401
191	0xbfb9e2b4c361c0b4	-0.10111551065506569
192	0xbfa9de2e2bf70ac7	-0.05052322661096791
193	0x3fa69e7d0ea9eed8	0.04417792133332704
194	0xbfb7e0314f462fe9	-0.09326465783504968
195	0x3fb0842072ea0d0e	0.06451609426044433
196	0xbfa5fcc841b52967	-0.042944200535731274
197	0xbfc1fa5a57558219	-0.14045266403538006
198	0x3fb8d947b1612209	0.09706543045570738
199	0xbfc1ba1b10e8575a	-0.13849199605527468
200	0xbf8b6cf236be56bc	-0.013391392036094067
201	0x3f989e69edd80930	0.024041800634230615
202	0xbfa76a01528de969	-0.045730630233225274
203	0xbfb1c3246b12635b	-0.06938388456400217
204	0x3f949cdf3ede80d2	0.020129669391850076
205	0x3f9350c5f371e9d5	0.0188628129803677
206	0x3fbeff4e94a75d51	0.12108317498438238
207	0xbfab8440c92697ef	-0.05374338584378779
208	0xbf8c8b0f74de3bac	-0.013937111619979202
209	0xbf84ffe05be20d08	-0.010253670505568482
210	0xbfc0a46061da2c0e	-0.13001637247029446
211	0xbfa29c7510a4ac68	-0.03634992435612433
212	0xbf956b082bb91092	-0.020916106861719692
213	0x3fbf520c36b7a135	0.12234569869872731
214	0xbf79108fe167a52d	-0.006119310410647655
215	0x3fb1bcf706e612ae	0.06928962629724353
216	0xbfa3ec0587c297a6	-0.03891007692554575
217	0xbfab5e721e93af3f	-0.05345493911030851
218	0x3fbdc084b247e2f6	0.11621884682234537
219	0x3fa51b4a68d7c09a	0.04122383622950672
220	0x3f988eba5507991f	0.023981963577079598
221	0x3f54613bae9c0227	0.0012438853104300791
222	0x3fa9e472b37d1c17	0.05057104531311312
223	0xbfbfb29d9f5efbf9	-0.12381920948881477
224	0xbfc0164c67ac22ce	-0.12568049490098193
225	0x3fa7b5724c0f2873	0.04630620172936597
226	0x3f7c0405a29822b6	0.006839773189775291
227	0x3f96d93ba85e017b	0.022313053275412536
228	0x3fbf3226c5b628e3	0.12185900046293656
229	0x3fc2a8c6712dfd4c	0.14577560926771083
230	0xbfabc6e6a1772336	-0.054251868448380966
231	0x3fbf643b923a027e	0.12262317962632527
232	0x3fbe8115ba1efa2f	0.11915717882127617
233	0xbfb6ca26343edc98	-0.08902205253149231
234	0xbf96072d21209882	-0.02151175036137732
235	0xbfbd635bfb244df1	-0.11479735261337233
236	0x3fa452f9a0d75fc3	0.039695549854229316
237	0xbfa632248a05707d	-0.043351308677956425
238	0xbfc28d6536131c99	-0.14494004383434314
239	0x3fc27d172ffbb8e8	0.14444246142324535
240	0xbfa1460f8ccf2e38	-0.033737646044383174
241	0x3fb036a3b4978375	0.06333373221378998
242	0xbfc42626396a30f0	-0.1574142246576069
243	0x3f5148f24d096ff0	0.001054989454266849
244	0xbfa7be5fc2b9d646	-0.04637431385064565
245	0x3fb8873ba97a55fe	0.09581349265712188
246	0x3fc52b282096ce7d	0.16537953940643382
247	0xbfc19d05aa5ff07c	-0.13760443514900433
248	0x3f541cd1338a8ee2	0.001227573679138887
249	0x3fb5acf5dea827c0	0.08467041669805919
250	0x3fa96be92616f0f9	0.04965141859017481
251	0xbf809fe55386a019	-0.008117477046496945
252	0xbfc0a6c245ff974b	-0.13008907716646897
253	0x3fb6e098c2e67cdf	0.08936457403477814
254	0x3fc2ecc6b8ab907c	0.14785083787058173
255	0xbfc0c0cafd6eeca3	-0.13088357329056519

hidden_layer3.bias f8 [50]
0	0xbfba341c01088253	-0.10235762620187332
1	0x3fb6f2f668c31c1d	0.08964481408757803
2	0x3fa906e60ea7ddd0	0.048880757607488
3	0xbfa9cd6013b52603	-0.050395014196123376
4	0xbfba4415590bec2c	-0.10260137008656106
5	0xbf84d1cf67fe9621	-0.01016580616107904
6	0x3fbabcacf3f1109e	0.10444146113974503
7	0x3fb04e8e5c73ffe8	0.06369867093235337
8	0x3fc0341fed387d90	0.12659072001495675
9	0xbf93884265e61538	-0.019074475736052338
10	0x3fb0bd8cf8ef9be0	0.0653923137430037
11	0xbf6bb9508c1ef2df	-0.003384263342893198
12	0x3fba3b809c46fb2e	0.10247043433535616
13	0x3fac7946c1cb2fa5	0.05561276546140385
14	0xbfbe22557ea0f9cb	-0.1177113947059986
15	0x3fb356ed1fce2da1	0.07554513956545474
16	0x3fb9f341ca2366c0	0.10136805710808527
17	0x3fbc34b87c4add9f	0.11017945322497845
18	0xbfb9a204c42d441d	-0.1001284579226795
19	0xbf83a2925e67b2ef	-0.009587424760832046
20	0xbf96e8a73d0dd56e	-0.02237187681335711
21	0x3f82bdde14d99991	0.00915120602730893
22	0xbf9878555150570b	-0.023896535003664215
23	0xbfbfdf963f70a2b6	-0.12450541542842583
24	0xbfbc6ee28e6805fb	-0.11106697060315433
25	0x3fc0eb5adad45122	0.13218246159579744
26	0xbfa332c0ee394886	-0.03749659450535696
27	0xbfbd6ea8446390c7	-0.11496974630023536
28	0xbfb5ded360977262	-0.08543130024140447
29	0xbfa0ee66d766fbcb	-0.03306886081144674
30	0xbfba7288b03f96c5	-0.10331014922084154
31	0xbfb118f180495e59	-0.06678685552594156
32	0xbfbd94c875a50769	-0.11555149910148334
33	0xbfc21fd9dc9d86e6	-0.14159701606973057
34	0xbf7be6ef3a55be71	-0.00681203316103983
35	0x3fb58d93394e4cac	0.08419151448315415
36	0x3f77451304fa0cdc	0.005681108755769073
37	0xbfab439d7b2e2cad	-0.05325023773829094
38	0xbfbfb3ecccf7be58	-0.12383918766112723
39	0xbfaad254237be273	-0.05238593037751551
40	0x3fa2120813e1db79	0.03529381983474073
41	0x3fbcef3fc4e86e30	0.11302565152475874
42	0xbfbd34f56eea8c54	-0.11408933599391108
43	0x3fa1e1e1a6e0efc7	0.03492646371930124
44	0x3fbe1a6b23f039d6	0.1175906145801727
45	0xbfa1e504d1ae9fa3	-0.03495039996715767
46	0x3fb5cea17a6f3caf	0.08518418540119187
47	0xbfc16bb4b9da4ec4	-0.13609942507593165
48	0xbf896bbd0715dcb4	-0.012412525919656005
49	0xbfc062d589f7b60c	-0.12801617848110458

hidden_layer4.weight f8 [50, 50]
0	0x3fbb232f6054a846	0.10600563146422912
1	0xbfb0ef178d9847ed	-0.06614825446038682
2	0xbfa842499e1dc1b7	-0.04738073401574943
3	0xbfb121d9e369b14c	-0.0669227771956617
4	0x3f8059e2ab42215f	0.007983942843808376
5	0xbf97e74f688d7ea1	-0.02334331584586258
6	0x3fbe6a5292a17cf9	0.1188098533616432
7	0x3fa5234dd3347fb0	0.04128497317492419
8	0xbfa83ace9e88a4b2	-0.04732366261698341
9	0xbf9d8fce490cc971	-0.028868888100256954
10	0xbfc00609d87b0b7f	-0.1251842791590114
11	0xbf9a30c490c8a924	-0.025576659523872128
12	0xbf921cb6ac51a3db	-0.017687658565055258
13	0xbfb2cfccb7b7cf30	-0.07348327145865308
14	0xbf84d6c48c0a63d7	-0.010175261996936342
15	0x3fb028f345b9e7cb	0.06312485172557485
16	0xbfafc2fb8f95eb6c	-0.06203447463754838
17	0xbfbc06d9e1ec20f6	-0.10947953954394393
18	0xbf4a05dc84d7e565	-0.0007941557648215967
19	0xbfa705d21423445f	-0.04496628280470171
20	0xbfa998064fc3f0bb	-0.04998798106859811
21	0x3fc274f845b69e2e	0.14419463542911742
22	0x3fb26c297c66b2c3	0.07196292197358915
23	0x3fb4677792014357	0.07970378222058848
24	0x3fc076830be18240	0.1286166961681534
25	0xbfbe9461bd925e1f	-0.11945162656990548
26	0x3fc20c8e887ae893	0.14100820221012053
27	0x3f9fafacfabe5312	0.030943587116399725
28	0xbf9c7b731b11aef3	-0.02781467297283675
29	0x3fbe1f3fb041440e	0.11766431859111057
30	0xbf83783780705e21	-0.009506639105935357
31	0xbf7bd838dbb415ff	-0.006798002340706598
32	0xbfb527ebd6d56057	-0.0826403998847821
33	0x3f9afe4b0f15661e	0.026360676570538748
34	0xbfbba0e91698b306	-0.10792404939338604
35	0xbfc1d3b69e4e533a	-0.13927347879202917
36	0xbfc1ffed4a51b466	-0.14062276963105375
37	0xbfa61cc0439c4c8c	-0.04318810296367656
38	0xbf555adfb35bfbf0	-0.0013034042908086595
39	0x3f9ee31f267632b8	0.03016327545406014
40	0xbfb70ea17e4f1b74	-0.09006699880329255
41	0xbfb9f56f90d89052	-0.10140130316045884
42	0xbf798d3722a6540a	-0.006238189098799482
43	0xbfb44c100b747a66	-0.07928562431013972
44	0x3fbaddf02afb66fe	0.1049490075050947
45	0xbf92cf39cc47a98e	-0.018368628590829376
46	0xbf707e4c68a26926	-0.004026697608561036
47	0x3fb62a8f2908fb77	0.08658690215905361
48	0x3fc0853e52366299	0.12906626714972871
49	0x3f8f1bdbebd34bef	0.015189855703658465
50	0xbf219ad0460b283f	-0.00013431351091802883
51	0xbfbad83fe345dd8f	-0.10486220644621923
52	0xbfa7f587942337f7	-0.04679511721916179
53	0x3fb24e8f95f9dacd	0.0715112439300853
54	0x3fb310a90b23a56e	0.07447296640352416
55	0xbf840f3fe86398dc	-0.00979471137948134
56	0xbfb223c908b5b94c	-0.07085854017870935
57	0x3fbb669f296759ac	0.10703463326294721
58	0x3fc0c12b06ab41d0	0.13089502168305822
59	0xbfc0fea322b82c4f	-0.13277091212543943
60	0x3fa58d899d3cbfd2	0.04209547085190447
61	0xbfb4bde6842ccc9b	-0.08102265097550047
62	0xbfb930cad0d1b775	-0.09840076063275467
63	0x3f5143fbcabfd283	0.0010538062006137112
64	0x3fc018771585c07e	0.1257466178026369
65	0x3fc201f30e338738	0.1406844920484731
66	0xbfaf5caa9cdd5c5e	-0.061253863953134355
67	0x3fb795213c5bc6a3	0.09211929057689842
68	0xbf4975e6d03c2cef	-0.0007769944208758909
69	0xbfbff522f1c3ec67	-0.12483423616861132
70	0xbfb2163d01195f0e	-0.07065182949861201
71	0xbfa4f757b2bdbb67	-0.04094957405947391
72	0xbfc11c2a86950215	-0.13367206164731785
73	0x3fc09d539017ea6c	0.1298012212353855
74	0x3fb487a43fbd3156	0.08019472652558099
75	0xbfb32d4d3feb0229	-0.07490999994752968
76	0x3fad52d1ed44af1f	0.0572724916586067
77	0xbf9874a4d3baff73	-0.023882460997583132
78	0xbfb7d1c9585fe1ab	-0.09304483802396273
79	0xbfb037c39c6f1eea	-0.06335089272681285
80	0xbfa3fc0a6ea4cdda	-0.03903229332572851
81	0xbfb1e1f4ee96b56c	-0.06985407662314963
82	0xbfb087288363ada5	-0.06456235130069972
83	0xbfaedcf834c97a84	-0.06027961391804573
84	0xbfad7eceb2e1790e	-0.05760808881380984
85	0xbfae8b0801c57915	-0.059654474464638486
86	0x3f946a8f45fcf789	0.019937742850053595
87	0x3f80410ef7cbe743	0.007936589181088421
88	0x3fa957aa71e332f6	0.0494969619772742
89	0xbfbbe43b6273c643	-0.10895129350299108
90	0x3fab174901c97b8b	0.05291202685179205
91	0xbfbb71a6448989aa	-0.10720290349266884
92	0xbfb8e8593e70d28a	-0.09729535841399631
93	0xbfadcd751f3f34c1	-0.05820814138824338
94	0xbf81c3904f8d2001	-0.008673789432251057
95	0x3fbc2937f685148b	0.11000394600439926
96	0x3fb90e318479df84	0.0978728245189569
97	0x3f78ec11617f8e7e	0.00608450688739348
98	0xbfa556bded5f3f56	-0.04167741320236355
99	0x3fb93d16fa25618d	0.09858840567665635
100	0x3fb855a67e487153	0.09505692084389254
101	0xbfc178da0f230251	-0.13650060404872247
102	0xbfb04f2ba42b6ca8	-0.0637080455593827
103	0x3fa965a61d02e461	0.04960364441053212
104	0xbfb0950fdc4b7403	-0.06477450493135
105	0xbf51d952995aeeb4	-0.0010894114142691426
106	0x3fb6e897e794d749	0.08948659328310983
107	0xbf70c9d26146104b	-0.0040987222640787675
108	0x3fbccfed0e6f5003	0.11254769899761645
109	0xbfb25044b920e8db	-0.0715372993444449
110	0x3fb4a53b1803fdd5	0.08064622246091997
111	0xbf9ab5fafe37d3f9	-0.02608482529281628
112	0xbf9afb94f6702970	-0.026350333730115805
113	0x3fbd80a65e7816ab	0.11524429136633312
114	0xbfacc7f4068a8a74	-0.056213022039874355
115	0xbfae7c5e6d2d3f75	-0.059542609050025876
116	0x3fa72806a59d0d21	0.04522724887513108
117	0xbfba74d9aa70c6c8	-0.1033454934229453
118	0xbfbc6eca16e3c043	-0.11106551226453214
119	0x3fb02a9bf456fbd5	0.06315016475035347
120	0xbfbdc0f420c9c9f1	-0.11622548866743167
121	0xbf8d05fc7db0c63b	-0.01417157419755021
122	0x3fbfab51888513c3	0.12370786269191485
123	0xbfbb5ff2e97c4988	-0.1069328136475517
124	0xbfafaca3586a4685	-0.061863998930801
125	0xbfc0dc67365f6953	-0.1317261710635856
126	0xbfa05dabc04b111c	-0.03196465227441278
127	0xbfb8d8f97875db8d	-0.09706076804091719
128	0x3fb4003f537b7d97	0.0781287745298783
129	0x3fb06667e28633f2	0.06406258850456917
130	0x3fb8650503a32912	0.09529143656542186
131	0x3f91cbc49c0aef47	0.01737887575539723
132	0xbfb83b121f629307	-0.09465134874569624
133	0x3fb02d73fbde5cc5	0.06319355868469063
134	0xbfbbd5449d4b4ddd	-0.10872296180905701
135	0x3fb347f133ca8ecc	0.07531650080141644
136	0x3fc1f9e3dffd1b4b	0.14043854176471834
137	0xbfa40145fc7c104f	-0.03907221514785474
138	0x3fbfddbb22639704	0.12447709645820387
139	0xbf944293b1d3841f	-0.01978522084107592
140	0xbf95e799a0f114e7	-0.0213912968140634
141	0xbf8537f83f7eba3a	-0.010360660016741286
142	0xbfaa42203a84f881	-0.051285750525935654
143	0xbfa4eef5e88e60cb	-0.04088562454052321
144	0x3f9a5ee45195f4d6	0.025752608756637617
145	0x3fa3f63c523e2e5c	0.03898800376836384
146	0x3f9ae74780155071	0.02627288550623103
147	0x3f92820c1210efad	0.018074215510054326
148	0xbfb02d2485ccf21e	-0.06318882242789711
149	0xbfb08b225f030eb9	-0.0646230203593018
150	0xbfa9607f698789cf	-0.04956434405518772
151	0x3fb695e554eea7f9	0.08822472880879663
152	0x3fbd92705d037372	0.11551573057972833
153	0x3f6eba1116ea3474	0.003750832918120889
154	0x3fbd70ef39c9f1d3	0.11500449334011557
155	0x3fb1c49730d33649	0.06940598432557822
156	0xbfa58ff029d4bbaa	-0.04211378584510979
157	0x3fbc67a5e986707f	0.11095654441163737
158	0xbfb6cd00e6f5cd40	-0.08906560553241594
159	0x3f97046c5b6e4413	0.022477810936440145
160	0x3f9ac6884995ae91	0.026147965899709084
161	0x3fb9b5be72d8f40d	0.1004294424428311
162	0xbf6656321f32bd12	-0.002726648229859693
163	0x3faa85cded9eef4a	0.051802096611452145
164	0x3fb325d50ef59ed1	0.0747960244676691
165	0xbfaef07c4f1c0bec	-0.0604285093850406
166	0xbfba10bce746c142	-0.10181790014644768
167	0xbfc223e26a74b16a	-0.1417201061061733
168	0xbf8bd0b0a8719e6d	-0.013581638470170543
169	0x3f786d341b94954d	0.00596351961693149
170	0x3faed07eaa819d8a	0.060184439004667814
171	0xbf9ac3ecb4f83d94	-0.02613801817466095
172	0xbfa29e96d05bf655	-0.03636618894050218
173	0x3f832761c224e8a3	0.009352458703336735
174	0xbf8eb038e86fa58a	-0.014984554856669847
175	0x3fc1262c915b226d	0.13397748086414954
176	0xbfabf1118589f5ea	-0.05457358126748686
177	0xbfbfa907746f4f41	-0.12367292969366607
178	0xbf9cb58de8f78fa2	-0.02803632482927266
179	0x3fb255009b82c01b	0.07160953327797907
180	0x3f2510aafe10ba59	0.00016071402845470559
181	0x3fc22ad93d9bd09f	0.14193263538584674
182	0xbfab6ef631b128da	-0.05358094555465849
183	0x3fa6ab6ad4aaab10	0.04427656026867599
184	0xbfb02f3bb79d6195	-0.06322072251112439
185	0xbfb07ac126448f59	-0.06437308487198602
186	0xbf9240169f4b5660	-0.017822602722694092
187	0xbfc08a5687143ddf	-0.12922174068124456
188	0x3fba41e44f313351	0.10256792958643969
189	0xbfc3d1c510423e94	-0.15483916562924505
190	0xbfb6e87bc6a941f8	-0.08948491668821379
191	0xbfb7aab6b4c696ab	-0.09244863427610521
192	0x3fa9417d3837356f	0.049327767479193756
193	0xbfb88bb919f8f531	-0.09588200458616282
194	0x3fb43597b1d6d659	0.07894275752809089
195	0xbf9c6424f759b937	-0.027725770566058485
196	0x3f8533ae86e21fd6	0.010352481356917947
197	0xbfb963479ce29bb3	-0.09917113857464592
198	0x3fb0abbe968ea108	0.06512061286651172
199	0xbfbe38aae82189fb	-0.11805217902432467
200	0xbf8ae837e90ca0cc	-0.013138233947373477
201	0xbfb30702d8be69cf	-0.07432573119732598
202	0xbfc068f60ca4b9e7	-0.12820315949780012
203	0xbfa9748013d6c03e	-0.049716951772439164
204	0xbfbe327454a1dbf9	-0.11795737329690316
205	0x3fb7bae9cebed3e2	0.09269582078452701
206	0x3fc3fe894f71b08c	0.1562053335104604
207	0xbfb82815c0b0ec62	-0.09436164812443473
208	0x3fc4246f099f748f	0.15736186952463924
209	0x3fb6ce5e7089e126	0.08908643958591664
210	0xbfc1768ef5586fc4	-0.1364306161857468
211	0xbf9e3ff667dd1b44	-0.029540872659050935
212	0x3fc00e3c6d0162f9	0.1254344494107256
213	0xbfc1bff0c8dffcb7	-0.13867006119105493
214	0x3fb5a94bbd51be0e	0.08461449977925659
215	0x3fa743cdf03b808d	0.04543918187641891
216	0xbf74310dd786444b	-0.004929594106571743
217	0xbfb60081d3bda1f7	-0.08594523829891175
218	0xbf980b4a7d4449d3	-0.023480571647334813
219	0xbfc1897d0ef109ca	-0.13700831632202287
220	0xbfc0e13c402eb664	-0.1318736375227899
221	0xbfb1daf704b6427d	-0.06974738945997135
222	0x3fba422007069d1c	0.10257148906258745
223	0xbfb6ad7bd83a7903	-0.08858465222371951
224	0xbfa26359f61a2fda	-0.03591424111536386
225	0x3fbab984cfa9588f	0.10439329213963532
226	0xbfb97f8a78ed2850	-0.0996023698072872
227	0x3f96d8b02ff14793	0.022310975004365807
228	0xbfc0b97f8e4a30d3	-0.13066095779175288
229	0xbfa145f5f3f5d448	-0.03373688319235463
230	0xbfa6b1f2e314489f	-0.044326391429551075
231	0xbfb16ab7ca63ed5e	-0.06803463641329219
232	0x3fb89ee1bfcfe288	0.0961743443766726
233	0x3fa64d315f49a462	0.04355768478564738
234	0xbfa4a8916d8e4f4d	-0.040348572371981285
235	0x3fb7bcd6bd57ac32	0.09272520182246138
236	0x3fba5e1e3b502271	0.10299862812110817
237	0xbfb15ec5383ad481	-0.06785233137891745
238	0xbfbb9971871d0143	-0.10781011150993884
239	0x3faeac34cb1eb330	0.05990757922641021
240	0x3fc16f6ff4f31be5	0.13621329746658187
241	0x3fae36ced96b6145	0.059011901894054954
242	0xbfb21d2b22085188	-0.07075757580634534
243	0xbfb3b7c875d97cdf	-0.07702305676638187
244	0x3f9cd092bdc021ee	0.028139393645718096
245	0x3fa5eeaecf75b0a4	0.042836630654023794
246	0xbfc1e15b00b5425f	-0.1396898034531828
247	0xbfc00c1d4f4aaab7	-0.1253697049299569
248	0xbf8968c63fdb25e9	-0.012406872581226263
249	0x3fc2d27dd9c9f431	0.14704869398329515
250	0xbfbd602386abcb46	-0.11474821126811915
251	0x3fbd294f1c45cfa3	0.11391157570125059
252	0x3f9081adf5fd77a0	0.016119688166660873
253	0xbf97ab6dd0f3717d	-0.023114887121538075
254	0xbfa97396f17a6cc2	-0.049710003831216834
255	0xbfbb80aa42e0211b	-0.10743202336027873

hidden_layer4.bias f8 [50]
0	0x3faef485b4e77ede	0.06045930703453249
1	0x3fbb0bc16d295293	0.10564812579225195
2	0x3fa779c42195ff4e	0.045850876903385726
3	0xbf8b70c9b885afd4	-0.013398719733878219
4	0x3f9bd5ba2defc419	0.0271824923074214
5	0xbfa0e67622ae8e91	-0.03300828145372948
6	0x3fbda809d6621e3b	0.1158453129192986
7	0x3faf12edde40e4e0	0.060691293125680223
8	0xbfc1506e7a83fc33	-0.13526707632260723
9	0xbfb0239bd6a1d214	-0.06304334631006042
10	0xbfb6c74fafeb26e3	-0.0889787487496068
11	0x3f998a9a80252099	0.024942792960502478
12	0xbf90b30ff70f4bc0	-0.016308068708734913
13	0xbfb16b63718b653c	-0.06804486772616242
14	0xbfb12c120076715c	-0.06707870971007907
15	0x3fbc91d7a2f098c0	0.11160037735007489
16	0x3fb4d1dedbf4c778	0.08132737035773896
17	0xbfc03c624537674d	-0.12684276942928321
18	0xbfb5a5597e774301	-0.08455428445382653
19	0xbfc0715094258b54	-0.12845809205745218
20	0xbfc01fa2a52084fb	-0.12596543372004718
21	0xbfab62b7005bdde4	-0.053487509530835614
22	0x3fb2a207a779d219	0.0727848800541512
23	0x3fc08517a74c4eb0	0.12906165760852195
24	0x3fa764c31ceef21c	0.045690629274279554
25	0xbfc16e92e9dd55be	-0.13618694705171025
26	0xbf96b92df14384e2	-0.022190778589792688
27	0xbf908d0669e9cc2e	-0.0161629678863841
28	0x3fb4e3848c16c0d7	0.08159664554728195
29	0x3fc020ed22458529	0.12600483106056373
30	0x3fb8d5cfec0bf23a	0.09701251519067791
31	0xbfbf217025a25458	-0.12160397452164895
32	0x3fbfe8d6ba273427	0.12464658779863723
33	0x3fb098274bdbd34b	0.06482167818087452
34	0x3fbff286505f9b80	0.12479438268893084
35	0x3fbc5081bad9568b	0.11060343562834356
36	0x3fa574a68ae6a80c	0.04190559812134617
37	0x3fbfd0ec09537847	0.12428164699255816
38	0x3faa446478431777	0.05130304306071214
39	0xbfa1cde6ed57a00a	-0.034774033043334
40	0xbfb40ddcbe102dfd	-0.07833652153220068
41	0x3fab618ffdf313a6	0.05347871756524762
42	0x3fbc540123f5885b	0.11065680625827794
43	0xbf9b3d7137234d97	-0.026601571073866372
44	0xbf9b7efeb290d77a	-0.02685163464430882
45	0xbf9828c988e471bf	-0.023593090992209072
46	0xbf99d87dbfa75b0b	-0.02523991091023973
47	0x3fb5ff4b155c110f	0.08592671653247329
48	0x3fbc8783ed412cd2	0.11144279997204201
49	0xbf934e91f6ec544f	-0.01885440892791151
